models/best_fold4_hd256_do0.5.pth (torch, 425446 bytes, 20 tensors)

layers.0.weight f4 [256, 10]
000000 c7 c3 80 3e 62 e0 b5 bd f4 f4 2c be 1c 36 18 3e
       0.25149366 -0.08880688 -0.16890317 0.14864391
000010 a2 e0 af bc 5f ad 73 3e d2 8d 89 3e d1 a5 ae 3b
       -0.021469418 0.23796605 0.26866013 0.0053298254
000020 a6 bc 82 3e bb ab 5a 3e 79 e1 19 be a2 0e 98 3d
       0.25534552 0.21354572 -0.15027417 0.07424666
000030 30 ff b0 bb fd 88 22 3e 0c 52 62 be d6 42 71 be
       -0.0054015145 0.1587257 -0.22101611 -0.23560652
000040 8d 8b 29 be 35 06 a6 3e 93 78 6b bd 2c b7 a1 3e
       -0.1655714 0.3242661 -0.057488035 0.31585062
000050 4f f0 b8 be f7 2f 3f be c9 5b 33 be ed 95 a0 3d
       -0.3612084 -0.18670641 -0.17515482 0.07841096
000060 d7 ed 89 be 90 60 63 3d a3 b8 7d be 5c 70 3d 3e
       -0.2693927 0.05551201 -0.24777465 0.18499893
000070 e5 15 17 3e c9 83 81 be 02 b7 86 be 24 18 95 be
       0.14754446 -0.25295857 -0.263115 -0.2911998
000080 08 7c 08 be 7b 7d 6e 3e ee 08 60 3e cd 53 01 3e
       -0.13328564 0.23290055 0.21878406 0.12629624
000090 c0 1f c2 3c be 22 95 be 0a 08 c1 3c 98 20 8d 3e
       0.02369678 -0.2912807 0.023563404 0.2756393
0000a0 95 bc 1c be f6 b1 ab 3d 3a 63 0b be da c1 6f be
       -0.15306313 0.08383553 -0.1361207 -0.23413792
0000b0 f6 1b 59 be 1b 14 d6 bb be a0 ac 3d cb 04 35 3e
       -0.21202073 -0.0065331585 0.08429097 0.1767761
0000c0 cc e3 7d be 3c 1c 5a be ba 4f 59 3e 56 4e 07 3d
       -0.24793929 -0.21299833 0.2122182 0.03303369
0000d0 c4 7b 3c 3e 24 da 45 be 34 bf 8c be a7 75 96 be
       0.18406588 -0.19321495 -0.27489626 -0.29386637
0000e0 74 6c fb 3d a4 01 1a be d4 0e a6 3b 2b ef 58 bc
       0.12276545 -0.15039688 0.0050676856 -0.013240616
0000f0 6f b7 93 3e 33 a0 7f ba 50 e5 62 3e a7 9f 4b be
       0.28850886 -0.00097513496 0.22157788 -0.19885121
000100 57 22 9b 3d 29 e6 8b be d1 f7 7f 3e 45 c9 91 bd
       0.07574909 -0.27324036 0.24996878 -0.07118467
000110 6b 1f c9 bd 19 6d a9 bd 4a a7 8e be 6f 95 93 3e
       -0.098204456 -0.08272762 -0.27862006 0.28824946
000120 91 0b 1b be bc 1d 51 be 88 88 8b bd 07 30 17 3d
       -0.15141131 -0.20421499 -0.06813151 0.036911037
000130 41 eb 25 be 2a eb e6 3d 5e b3 12 3e 35 6d 8f be
       -0.16203023 0.11275323 0.14326236 -0.28013006
000140 47 d2 d5 bc b8 6f 02 3d d5 99 81 3e a9 a0 ca bd
       -0.026101245 0.031844825 0.25312677 -0.09893925
000150 09 c8 c0 bd 2a e0 74 be 17 6a 6e 3d 67 22 7f be
       -0.09413154 -0.23913637 0.058206644 -0.24915467
000160 54 62 32 3e 52 6c 71 be 65 33 1f 3d 87 39 3b be
       0.17420322 -0.23576477 0.038867373 -0.18283664
000170 23 97 86 3e e3 33 86 3d 58 a0 0b bd 6d a5 17 be
       0.26287183 0.06552865 -0.034088463 -0.14809199
000180 ac 28 8c be d9 cd 92 be a9 08 7a be ce 8b 41 bd
       -0.2737478 -0.28672674 -0.24417366 -0.04725247
000190 6f f0 e3 3d de 87 26 3e 61 d2 09 3e ef 59 ae 3d
       0.111298434 0.16262767 0.1345916 0.08513247
0001a0 36 97 18 3e e4 e3 85 3e a7 96 ea bd 0d 5c 0a bd
       0.14901432 0.2615043 -0.11454516 -0.033779193
0001b0 b5 e8 75 be d5 cf 99 be 3a a1 d0 bd df 43 13 3e
       -0.24014552 -0.30041376 -0.101870015 0.1438136
0001c0 46 70 8b 3e 23 72 fc bd 74 e9 9b be 1c fe 99 be
       0.27234095 -0.12326457 -0.30451548 -0.30076683
0001d0 51 3a 0c be 40 c9 df 3d 7e e7 0e 3e 4c 53 f6 bd
       -0.13694121 0.10927057 0.13955495 -0.12027606
0001e0 26 96 9e 3e 6f ed 56 3d cf e1 89 3e f7 fe 14 3e
       0.3097393 0.052472528 0.2693009 0.14550386
0001f0 98 c3 d6 bd 36 98 88 3e 25 eb 64 be 7e cb 35 bd
       -0.10486525 0.26678628 -0.22355326 -0.04438352
000200 85 1e 87 be 01 a5 8e bd 7f 02 d4 3c ba 48 7d be
       -0.26390472 -0.06965066 0.025880096 -0.24734774
000210 35 d7 9a 3e ed ac ac 3c 83 d1 88 be 77 c7 9d bb
       0.30242315 0.021078551 -0.26722345 -0.004815038
000220 df 87 e8 3d 0c 72 c3 3d de 05 9e 3e b8 3c 4f bc
       0.1135404 0.09543237 0.3086385 -0.012648754
000230 cc 82 70 be 59 25 88 be e7 08 dc 3d 1a cd 0d be
       -0.23487395 -0.26590994 0.107438855 -0.13847771
000240 17 2c 49 be 4b b3 4d 3e 72 d2 e8 bd e1 19 2c be
       -0.19645725 0.20087926 -0.11368264 -0.16806747
000250 ce e7 dc 3d 8e a1 b4 bd 9f 03 32 be d7 66 7d 3c
       0.10786401 -0.088198766 -0.17384194 0.015466413
000260 b8 ed 87 be d8 84 96 be a5 23 73 be 19 de 39 3e
       -0.26548553 -0.29398227 -0.23744066 0.1815113
000270 44 38 44 3e 0e 6b 84 3e 44 af 61 be 5a 24 7a be
       0.19162089 0.25862926 -0.22039515 -0.2442793
000280 4b 2e f3 3d a8 ce 18 be 61 6b f3 bd 57 40 c4 bd
       0.11874064 -0.14922583 -0.11885715 -0.09582584
000290 c1 35 b5 3d ab bd 37 3e af 0a 87 be d0 56 b9 3d
       0.08848143 0.17943446 -0.26375338 0.09049761
0002a0 3c eb 3c bd f8 85 51 3d cd 4c 53 3e 80 93 22 3e
       -0.046122774 0.051153153 0.20634766 0.1587658
0002b0 7a 2e 93 3e dc cf 2d 3d f7 64 96 3e e2 bc 86 3e
       0.28746396 0.04243456 0.29373905 0.2631598
0002c0 6c fd 76 3d fd 76 96 3d f8 ad 67 be 08 64 e7 3d
       0.060300276 0.07346914 -0.22624958 0.11298376
0002d0 04 e5 86 3e cf 6a 9e be ab 26 49 3e 11 0d 86 3d
       0.263466 -0.30940863 0.19643657 0.06545461
0002e0 d3 19 94 bd 71 d5 81 3e 6a 74 d4 3c 3d f8 58 be
       -0.07231488 0.25358155 0.025934417 -0.21188445
0002f0 93 7b 47 3e 68 5a 80 be b5 64 49 bd 1d e3 79 3e
       0.19480734 -0.25068974 -0.049168307 0.24403043
000300 8a 4f 01 be cb 84 05 3e bc 74 56 be 4d 9b 2c be
       -0.12627998 0.13038938 -0.20942968 -0.16856118
000310 1a a7 d8 bd 8e 23 b3 3d 0f 20 87 be 36 5a 21 3e
       -0.10578747 0.08747016 -0.26391646 0.15757069
000320 f4 d4 b3 be 75 f3 6d be 84 55 21 be a2 a0 c0 3d
       -0.35123408 -0.23237403 -0.15755278 0.09405638
000330 e0 f8 06 be 8e 8d 77 bd 85 fc 96 be d7 d8 42 bc
       -0.13180876 -0.06043773 -0.29489532 -0.011892519
000340 6b 4e ae bd 00 52 af bd 74 0e dc bd 54 57 78 be
       -0.08511051 -0.08560562 -0.10744944 -0.24252063
000350 25 30 90 3d a4 04 de 3d ca e1 5e be d9 61 1e bd
       0.07040433 0.10840729 -0.21765819 -0.038667534
000360 11 fb 1f be a6 6b 86 bd 53 01 bc bd 7d 8f 6e 3e
       -0.15623118 -0.06563501 -0.0917994 0.23296924
000370 50 82 98 bd 21 88 3a be e7 8d 8d bd b7 2b 95 be
       -0.0744673 -0.18215992 -0.06911831 -0.29134914
000380 a3 04 66 3e 0b ae 96 3d ce 5f 7d be 2e 11 47 be
       0.22462706 0.07357415 -0.24743578 -0.19440147
000390 6e 89 8b bd 2d 19 11 bc ce 48 b9 3d 48 15 83 3e
       -0.06813322 -0.0088561 0.090470895 0.25602174
0003a0 f2 44 5f 3e d5 13 1e 3e 2b 21 69 be ea fb 12 bc
       0.21803644 0.15437253 -0.22766559 -0.008971194
0003b0 db eb e0 bb 40 fe 27 be 29 7a 98 3e e6 79 04 3e
       -0.0068640537 -0.16405582 0.297807 0.12937126
0003c0 11 0d 97 3e bd 48 8c 3e 41 e6 7e 3c 8b 2c 8c be
       0.29502156 0.27399245 0.0155578265 -0.27377734
0003d0 fc 01 4c 3e d1 f3 ad 3d f2 f4 fd bd 9d 4d 4e 3e
       0.19922632 0.0849377 -0.12400235 0.20146795
0003e0 da 1a 88 be c7 38 25 be b7 3e f8 3d 03 cb aa 3d
       -0.26582986 -0.1613494 0.12121337 0.08339503
0003f0 ed 78 83 be 98 78 41 3e 9c 90 34 3d 2b a1 2c be
       -0.25678197 0.18893659 0.044083223 -0.16858356

layers.0.bias f4 [256]
000000 08 c8 78 bb 3a d3 64 3a 20 19 d1 ba 04 ff 82 be
       -0.0037961025 0.0008728985 -0.0015952922 -0.25585186
000010 e9 4c 3a 3d ec e4 9e be 81 c4 9d 3e b3 cf 59 3e
       0.045483503 -0.3103403 0.30813983 0.21270637
000020 8c aa 0b be 82 3f 41 be 4c e8 a4 bd a5 78 2c be
       -0.13639277 -0.18871883 -0.080521196 -0.16842897
000030 9c 0d a1 bb 92 44 95 3e 04 ea 83 be a6 95 06 bd
       -0.0049149524 0.29153877 -0.25764477 -0.03285756
000040 91 19 07 bd 89 89 0d 3e 73 94 d5 3d 5b e7 3b be
       -0.032983366 0.13821997 0.10428705 -0.18349974
000050 91 07 9d be 55 ff 46 3e 3d c4 84 be 7f 00 33 be
       -0.30669835 0.19433339 -0.25930968 -0.17480658
000060 0a e3 3b be 2d c7 03 bd e7 de 36 3e c3 06 77 bc
       -0.18348327 -0.03217237 0.17858468 -0.015077296
000070 f5 3b 99 3e ab 39 33 3e 8b 93 b1 3c 81 f2 9a 3d
       0.29928556 0.17502467 0.0216768 0.07565785
000080 28 ca d2 bd 00 49 2b be d5 9b 27 3e 31 c6 a4 3b
       -0.102924645 -0.16727066 0.16368039 0.005028509
000090 54 21 bb bd 3d b9 9a 3e 11 ca 4b be 89 d2 43 be
       -0.09137216 0.3021945 -0.19901301 -0.19123282
0000a0 bc cb a4 bd 1d 46 1e be 3c 3d 0a be b6 29 7b 3d
       -0.08046672 -0.15456434 -0.13499922 0.061319076
0000b0 2c 11 05 3d 2d 18 9a 3e 34 50 61 3d 4e 20 3a be
       0.03248708 0.3009657 0.05500813 -0.18176386
0000c0 ec 1c 85 be c4 c9 c2 bd 75 00 50 3e 86 2d 09 3e
       -0.25998628 -0.0951114 0.20312674 0.13396272
0000d0 31 8d 88 be da 59 86 be 0a 20 04 3e 3b ab 31 be
       -0.2667022 -0.26240426 0.12902847 -0.17350475
0000e0 c7 32 93 3e 5e ba 88 be 7d 33 38 be d9 02 74 3d
       0.28749678 -0.26704687 -0.17988391 0.05957303
0000f0 90 3c 3d 3e bd 3d 7d be 92 0b cf bd 5f 08 93 3e
       0.18480134 -0.24730583 -0.10109629 0.28717324
000100 a1 6b 3c be b8 02 30 3e 87 0f a1 3e 46 d6 94 3e
       -0.18400432 0.17188537 0.3145716 0.29069728
000110 d5 8b 60 be cc 82 d5 bd 72 36 4d bd d3 cc 19 be
       -0.21928342 -0.10425338 -0.05010075 -0.1501954
000120 95 55 bd 3d 83 50 48 be 11 d7 9a be 19 bd 87 bd
       0.09244839 -0.19561963 -0.30242208 -0.066278644
000130 e1 3f 3e be 40 8f 24 be f3 54 8f 3e 96 a3 6c 3d
       -0.18579055 -0.1607027 0.279945 0.057773195
000140 3c f2 75 bd b2 06 78 bd 32 1c 95 3e 36 0b 67 3e
       -0.060045466 -0.06055326 0.29123074 0.2256287
000150 f6 2e ab bd 4c ec 4c 3e 1d 3f 1d be f7 12 26 be
       -0.083585665 0.20012015 -0.15356107 -0.16218172
000160 50 d8 75 bd ef ce fa bd 26 35 8d be f0 72 63 bd
       -0.060020745 -0.12246501 -0.27579612 -0.055529535
000170 2c 98 52 3d f5 22 12 3e e1 d7 14 bd ab 73 44 3e
       0.051414654 0.14271148 -0.03633869 0.19184749
000180 09 61 0e bc 69 a1 c6 3c f3 1a a0 be fc 03 ac bb
       -0.008690127 0.024246888 -0.3127056 -0.0052494984
000190 08 fc 96 be 13 31 95 be d0 27 38 be 26 08 97 be
       -0.2948916 -0.29139003 -0.17983937 -0.29498404
0001a0 5b 2a 48 3e 72 04 84 3e b4 76 91 3e 40 a7 a3 bd
       0.19547407 0.25784642 0.28410876 -0.07990885
0001b0 5d 2f 43 3e 55 10 32 be 15 ef 74 be 8e 76 59 3e
       0.19061036 -0.17389043 -0.23919328 0.21236631
0001c0 0e 97 5b 3e f7 18 43 3d ef 6d 0b be 8a f0 62 be
       0.21444342 0.04763123 -0.13616155 -0.22162071
0001d0 d5 65 13 3e c3 36 87 be f5 03 8a 3c 98 a4 82 3e
       0.14394315 -0.26408967 0.01684759 0.255162
0001e0 4a 21 45 be 4c 9b 8f 3e 3c d7 ce bd 0f c4 97 bd
       -0.1925098 0.2804817 -0.100996464 -0.07410442
0001f0 81 20 8d 3e b4 3f 57 be 7b b0 a7 3c bd 57 13 3e
       0.2756386 -0.21020395 0.020469895 0.14388938
000200 ee 65 6d 3e 04 27 a1 be b2 ec f8 bb 5b 39 d3 bc
       0.23183414 -0.3147508 -0.0075965757 -0.025784185
000210 cb 3d 62 3d 53 39 99 3e 07 c7 3d 3e 9c 0e 65 bd
       0.05523471 0.29926547 0.18532954 -0.055922136
000220 6f a2 62 be 42 0a 3e 3e 37 3b 86 bb 84 0d a7 3d
       -0.22132276 0.185586 -0.0040964144 0.08156875
000230 d9 96 40 bd c3 3c 20 be 40 f6 97 3e fa 49 45 3e
       -0.04701886 -0.15648179 0.2968006 0.19266501
000240 4b 95 66 be 0d b3 d4 bd 31 28 97 be 8b 4d 8a 3e
       -0.22517888 -0.10385714 -0.2952285 0.27012286
000250 08 f2 ea bd 4a 9e 2d bd 6e 3e 17 3e 07 65 2d bd
       -0.11471945 -0.042387284 0.14769909 -0.042332675
000260 3a cc 98 3e 2b 0e 8f 3d 42 5f 84 3e 1d 63 d1 3c
       0.29843313 0.06985124 0.25853926 0.025559956
000270 24 27 3e be da c2 b4 3d 4b cf 89 be 53 1f 46 be
       -0.18569618 0.088262275 -0.26915964 -0.19347887
000280 27 05 6f bd 37 da 46 bd b5 a4 06 bc 41 04 84 3d
       -0.058354523 -0.04854795 -0.00821798 0.06446124
000290 d8 75 38 be 1e ce 55 be 83 84 9e 3e c8 95 4f be
       -0.18013704 -0.20879409 0.30960473 -0.20271981
0002a0 40 e1 b0 3d fb 5b b9 bb 28 09 a9 bd 2c fc bf bc
       0.08636713 -0.005656717 -0.082536995 -0.023435675
0002b0 44 1a 3d be 4e 47 95 3e ac 41 70 3b 96 79 89 bd
       -0.18467051 0.29155964 0.0036660237 -0.06712644
0002c0 0e 2d ed 3d 03 22 2e be 7b 5f 80 be 16 c9 4c 3e
       0.11580859 -0.17005162 -0.25072846 0.19998583
0002d0 11 19 12 be 49 2d 97 3b ee 7a 90 be dd 17 6b 3e
       -0.14267375 0.0046135527 -0.28218788 0.22958322
0002e0 9e ff 2f 3e fd 59 0a 3e 3d c6 3a be c3 3e 8d be
       0.17187354 0.1351089 -0.18239684 -0.27586946
0002f0 9e d3 54 3e 97 f0 9a bd 3e c3 53 3d bb 5b 60 bd
       0.2078385 -0.0756542 0.05169987 -0.05477498
000300 48 d3 ba bd 00 a4 87 3e 1a b7 1c 3d 08 46 ba bc
       -0.0912233 0.2649231 0.038260557 -0.022738472
000310 63 d9 3a 3e 55 51 fb 3d d5 5a 3e 3e 6e 9e 7f be
       0.18246989 0.12271372 0.18589337 -0.2496278
000320 2a 39 74 3e 49 a5 11 3d 06 85 88 3c 26 e8 7b bd
       0.23849931 0.03555802 0.016664993 -0.06150069
000330 bf c8 5d bd f1 91 2c 3e 3a b3 99 3e 5b 34 1a be
       -0.054146525 0.16852547 0.30019552 -0.15059035
000340 d8 e1 c2 3c b1 03 8f be cb 9d 2d 3e 54 5b 14 bc
       0.023789331 -0.27932504 0.16954724 -0.009054977
000350 da 31 77 3e a9 2c 2d be 45 32 39 3c 56 8a 3f 3e
       0.2414011 -0.16911568 0.011303489 0.18705115
000360 76 98 7b be ce 6c d8 3d 51 66 3d 3e 59 48 9e be
       -0.24569878 0.10567628 0.18496062 -0.30914572
000370 ea 49 35 3e 78 98 86 3d 4c d3 85 3e 15 ec 95 be
       0.17703977 0.0657205 0.2613777 -0.2928168
000380 7a 02 cf bd 85 41 9d be a1 e6 e2 3d ab 4c 83 be
       -0.10107894 -0.3071405 0.11079145 -0.2564443
000390 76 37 56 3e 85 06 8b be 1a 8c e2 3c 1c 0c 17 3e
       0.20919594 -0.27153412 0.027654696 0.14750713
0003a0 c1 22 72 3d 6e ea 3e bd d3 e6 25 be 92 62 4d be
       0.059115175 -0.04661029 -0.16201334 -0.20057133
0003b0 01 d5 81 3e ea 36 42 3d db 9e 36 3e 0e 34 b6 3d
       0.25357822 0.04741565 0.17834036 0.088966474
0003c0 c4 c9 05 be bb 01 ad 3c ef 74 c1 bd 2b 55 6c be
       -0.13065249 0.02111899 -0.094461314 -0.23079364
0003d0 22 53 13 3d df d0 2d be ee 98 88 3e c1 f4 ee bd
       0.035967954 -0.16974209 0.26679176 -0.11667777
0003e0 74 31 52 be 1d 68 47 bd c6 8f 84 bd cf 50 be 3d
       -0.20526677 -0.048683275 -0.06472735 0.09292757
0003f0 ef 54 e2 3d 32 48 99 be 16 15 74 3e b2 9d 03 bc
       0.11051356 -0.29937893 0.23836169 -0.008033203

layers.1.weight f4 [256]
000000 09 7b 82 3f 25 6f 7f 3f 9d 9b 82 3f 04 77 80 3f
       1.0193797 0.9977897 1.020374 1.0036321
000010 36 09 80 3f 45 2c 7e 3f 32 2f 7f 3f eb 0d 7f 3f
       1.0002811 0.992863 0.9968139 0.9963061
000020 41 6f 7d 3f ff 4b 7f 3f f0 ae 7d 3f e8 cc 7d 3f
       0.98997885 0.99725336 0.9909506 0.9914079
000030 65 dd 81 3f 79 6e 7e 3f c0 85 7d 3f 98 b3 7b 3f
       1.0145689 0.9938732 0.9903221 0.98320913
000040 dc ce 7e 3f 5e d1 7d 3f 3f 89 7d 3f 99 96 7d 3f
       0.9953439 0.99147594 0.99037546 0.9905792
000050 b0 3c 80 3f 72 27 7e 3f 14 eb 7c 3f 31 08 7d 3f
       1.001852 0.9927894 0.987962 0.98840624
000060 6b 08 82 3f 4b fd 7e 3f 58 f7 7d 3f 21 b2 7e 3f
       1.0158819 0.99605244 0.9920554 0.99490553
000070 24 28 7e 3f fc 35 83 3f 74 39 81 3f 45 50 81 3f
       0.9928 1.025085 1.0095658 1.0102621
000080 da ed 7f 3f 94 d0 7e 3f 93 30 7d 3f 4b 40 7e 3f
       0.9997231 0.99537015 0.98902243 0.99316853
000090 d8 e3 80 3f 05 af 7d 3f 1a a4 81 3f 01 84 7c 3f
       1.0069532 0.99095184 1.0128205 0.9863892
0000a0 38 35 81 3f bf 00 81 3f 08 db 7c 3f cb d8 7e 3f
       1.0094366 1.0078353 0.98771715 0.9954955
0000b0 2d d0 80 3f d1 b4 7d 3f 1b 78 7f 3f cb ce 7f 3f
       1.006353 0.9910403 0.9979264 0.99924916
0000c0 9a a9 82 3f 37 89 80 3f 1b 7d 80 3f 17 32 7b 3f
       1.0208008 1.0041875 1.0038179 0.98123306
0000d0 6c 0c 7e 3f 4b 99 81 3f a0 d1 7b 3f 5e 58 83 3f
       0.99237704 1.0124906 0.9836674 1.0261343
0000e0 b5 6a 7d 3f 33 3d 80 3f 04 b6 81 3f a6 da 81 3f
       0.98990947 1.0018677 1.0133672 1.0144851
0000f0 a5 6e 7b 3f e3 97 7f 3f 0a 72 7d 3f 8b a3 80 3f
       0.98215705 0.99841136 0.99002135 1.0049909
000100 c7 95 7b 3f 82 e0 7d 3f e4 c2 82 3f 4b 1f 7b 3f
       0.9827542 0.99170697 1.0215726 0.98094624
000110 66 c8 7f 3f 95 8d 7b 3f 9f 00 81 3f db e4 81 3f
       0.9991516 0.9826291 1.0078315 1.0147966
000120 44 c1 7a 3f 7a 37 81 3f 28 7b 83 3f 58 3f 7c 3f
       0.9795115 1.0095055 1.0271959 0.98534155
000130 fc d5 7a 3f 71 99 7e 3f ba cb 81 3f 0a 19 80 3f
       0.97982764 0.99452883 1.0140297 1.0007641
000140 3a d8 7d 3f 12 5e 82 3f db 78 7e 3f 1f 61 80 3f
       0.9915806 1.0184958 0.9940316 1.0029639
000150 e3 0a 7b 3f 1a 79 83 3f 02 61 81 3f d7 6a 7d 3f
       0.98063487 1.0271332 1.010773 0.9899115
000160 4d b9 7d 3f 84 bb 7c 3f 2e e8 80 3f 83 7e 7f 3f
       0.9911087 0.98723626 1.0070856 0.99802417
000170 19 bc 80 3f 5b 7e 7d 3f fa 83 7f 3f e7 d9 7e 3f
       1.0057403 0.9902093 0.99810755 0.9955124
000180 49 2b 80 3f 0f 25 83 3f 30 68 7a 3f 95 85 7f 3f
       1.001321 1.0245684 0.9781523 0.99813205
000190 ac d8 82 3f 5d d5 7e 3f 31 68 7d 3f 9d 63 82 3f
       1.0222373 0.99544317 0.9898711 1.018665
0001a0 04 8a 7b 3f a1 1b 7d 3f 9a ad 7f 3f 24 95 80 3f
       0.9825747 0.98870283 0.9987427 1.0045514
0001b0 88 44 80 3f 55 7b 80 3f 67 d5 83 3f 19 da 81 3f
       1.0020914 1.0037638 1.02995 1.0144683
0001c0 ef be 7e 3f 10 f1 81 3f bb ef 7d 3f e8 59 7e 3f
       0.9951009 1.0151691 0.99193925 0.99355936
0001d0 32 5c 7b 3f 22 da 7d 3f 73 c2 80 3f b1 91 80 3f
       0.98187554 0.9916097 1.0059341 1.0044461
0001e0 25 0d 7c 3f e1 ae 7c 3f 59 e1 7d 3f e0 28 7e 3f
       0.98457557 0.98704344 0.9917198 0.9928112
0001f0 e3 04 82 3f 56 4f 80 3f 8e 4d 83 3f 5a e2 80 3f
       1.0157741 1.0024211 1.0258043 1.0069077
000200 6a 23 83 3f 2b 34 7f 3f f0 4b 7d 3f 5b f4 7d 3f
       1.0245183 0.99688977 0.98943996 0.9920098
000210 cb 8d 7c 3f 63 75 85 3f b7 3b 80 3f 1d 54 7b 3f
       0.9865386 1.0426449 1.0018224 0.9817522
000220 a9 36 7b 3f e9 12 80 3f c8 51 7d 3f e3 d8 7f 3f
       0.9813028 1.0005771 0.98952913 0.9994032
000230 7f 44 80 3f cf b5 7f 3f 67 19 80 3f 89 91 7e 3f
       1.0020903 0.9988679 1.0007752 0.9944082
000240 ca 69 81 3f a6 11 86 3f 99 46 82 3f 79 57 83 3f
       1.0110409 1.0474136 1.0177795 1.026107
000250 b1 45 81 3f 3c 41 7e 3f 10 88 7d 3f 8b c3 81 3f
       1.0099393 0.9931829 0.9903574 1.01378
000260 b1 44 7c 3f b7 69 80 3f b6 52 7c 3f ee 0c 7f 3f
       0.98542315 1.0032262 0.98563707 0.99629104
000270 50 a5 7d 3f d2 77 7e 3f e7 f2 80 3f 70 e0 7e 3f
       0.9908037 0.9940158 1.0074128 0.99561214
000280 61 a0 80 3f fb 6d 82 3f 7c f8 7f 3f a5 3f 7f 3f
       1.0048944 1.0189813 0.9998853 0.9970649
000290 b8 28 81 3f e8 28 80 3f 70 3f 80 3f 32 df 7d 3f
       1.0090551 1.0012484 1.001936 0.99168694
0002a0 ae f5 7b 3f b0 3b 80 3f 1e 6a 7e 3f 0a c0 7d 3f
       0.9842175 1.0018215 0.9938067 0.99121153
0002b0 fd b8 7f 3f c9 69 82 3f d4 60 80 3f 09 e0 7c 3f
       0.99891645 1.0188533 1.002955 0.9877935
0002c0 43 ac 82 3f 35 c6 7b 3f 3a 9d 7e 3f e8 01 7e 3f
       1.020882 0.98349315 0.9945866 0.9922166
0002d0 41 53 7c 3f 29 19 7f 3f 97 1c 81 3f 3e b3 7f 3f
       0.98564535 0.99647766 1.008685 0.99882877
0002e0 b1 3c 82 3f ad b7 80 3f 34 e3 7f 3f 0e a9 7d 3f
       1.0174772 1.0056053 0.9995606 0.9908608
0002f0 25 df 82 3f 1b b4 80 3f a0 a0 7e 3f 5a 16 7f 3f
       1.0224348 1.0054964 0.99463844 0.9964348
000300 1b 00 7e 3f 42 70 82 3f d0 dd 7b 3f 41 79 7d 3f
       0.9921891 1.0190508 0.98385334 0.99013144
000310 2e 2c 7e 3f 46 29 83 3f 23 16 80 3f 88 80 83 3f
       0.9928616 1.0246971 1.0006756 1.02736
000320 2e f5 7d 3f fc f4 7e 3f 1e 18 7f 3f bf b8 7e 3f
       0.9920224 0.99592566 0.99646175 0.9950065
000330 b8 19 80 3f 96 4b 7f 3f 96 04 80 3f 54 e4 7f 3f
       1.0007849 0.9972471 1.00014 0.99957776
000340 70 f6 7c 3f 2a 78 80 3f b0 5a 81 3f 63 6a 80 3f
       0.98813534 1.0036671 1.0105801 1.0032467
000350 8b 46 7d 3f d8 32 7e 3f 10 bd 81 3f 54 1f 7e 3f
       0.98935765 0.9929633 1.0135822 0.9926655
000360 1c c9 7d 3f 67 4f 7d 3f b5 d8 79 3f 67 cb 7d 3f
       0.99134994 0.98949283 0.97596294 0.9913849
000370 56 1d 7d 3f 31 4b 82 3f 21 c9 80 3f 2b 3a 82 3f
       0.9887289 1.0179197 1.006138 1.0174001
000380 15 df 80 3f 18 6e 78 3f 9e 66 7d 3f a2 0d 7d 3f
       1.0068079 0.9704299 0.98984706 0.9884893
000390 34 5a 81 3f cd b6 81 3f 90 9e 80 3f 90 59 7d 3f
       1.0105653 1.0133911 1.004839 0.98964787
0003a0 10 b4 82 3f ba 06 7c 3f cb 6e 7e 3f f7 e6 7a 3f
       1.0211201 0.98447764 0.99387807 0.98008674
0003b0 4d 5b 7f 3f 72 9e 7c 3f eb 20 81 3f 66 6a 80 3f
       0.9974869 0.9867927 1.0088171 1.003247
0003c0 0b e7 80 3f 84 2a 7e 3f b5 00 82 3f e1 6c 7e 3f
       1.0070509 0.99283624 1.0156466 0.99384886
0003d0 99 77 7d 3f a3 d1 7f 3f 7b 16 81 3f 85 5d 82 3f
       0.99010617 0.99929255 1.0084985 1.018479
0003e0 dc ae 7d 3f 06 44 7d 3f 44 88 7e 3f 4c ad 7e 3f
       0.9909494 0.9893192 0.99426675 0.9948318
0003f0 5d 81 7d 3f 20 0e 7e 3f e8 a1 7c 3f 3a e4 7c 3f
       0.9902552 0.99240303 0.9868455 0.98785746

layers.1.bias f4 [256]
000000 fd 01 3f 3c cc e7 08 3b 21 28 74 3c 63 58 08 3c
       0.011658189 0.0020890115 0.014902146 0.008321854
000010 b7 d9 0f 3c 98 2a 22 bc 5e 90 9e bb fa 44 02 3c
       0.008779935 -0.00989785 -0.0048389873 0.007951016
000020 4b a0 5b bc 08 42 f1 bb c9 8b 90 bb fb d3 51 bc
       -0.013404916 -0.007362608 -0.004411195 -0.012806888
000030 2f 8f 9b 3c c9 7f e1 bb b1 ce 09 bc 9c 32 49 bc
       0.018989174 -0.0068816883 -0.0084110955 -0.012280133
000040 d6 11 a5 bb c5 f5 7e bc c3 e2 6d bc c2 e1 57 bc
       -0.0050375266 -0.015561526 -0.014519396 -0.013176383
000050 5d 34 05 bb b1 03 4f bc 11 31 1b bc cc 03 5a bc
       -0.00203254 -0.012635157 -0.009472148 -0.013306569
000060 0a c5 cb 3c 69 98 7e bb 14 a0 4a bb a3 ed df bb
       0.024874229 -0.0038848168 -0.0030918168 -0.0068337484
000070 fe 91 00 bc 82 3d 88 3c 96 5c 37 ba f3 a3 a0 3c
       -0.007847307 0.016630892 -0.00069946924 0.019609427
000080 79 f3 f7 3b 9d b4 19 bc 6d cc ef bb 32 87 3c bc
       0.007566866 -0.0093814405 -0.0073180706 -0.011506842
000090 d7 84 65 bb da 67 5c bc e3 a3 dd 3c 66 d3 a1 bc
       -0.0035021806 -0.0134524945 0.027055686 -0.019754123
0000a0 dd 05 42 3c d5 f3 86 3c 4d 82 f2 b8 6b 53 ad 3b
       0.011842218 0.01647369 -0.0001156373 0.005289485
0000b0 af f4 ba 3b 32 78 d9 bb 8f 4a 08 bb 5c c7 72 3a
       0.005705438 -0.006636643 -0.0020796394 0.0009261274
0000c0 39 f1 d2 3c bd 61 d3 3b c9 63 ed 3b 13 17 07 bc
       0.02574979 0.0064508603 0.0072445613 -0.008245247
0000d0 34 87 41 bc 2e 3e 86 3c 55 d9 58 bc 79 1a 2b 3c
       -0.01181202 0.016387071 -0.01323541 0.010443323
0000e0 4e 24 25 bb 8e 25 93 ba 02 92 ca 3b a6 75 3c 3c
       -0.0025198641 -0.0011226402 0.0061819563 0.011502659
0000f0 cc 66 95 bc de 0b af bb a9 c6 19 3c be bc 3e 3c
       -0.018237494 -0.005341991 0.009385743 0.011641679
000100 74 d5 49 bc 4f 74 3e bc 0a 68 87 3b 23 32 59 bc
       -0.012318958 -0.01162441 0.0041322755 -0.013256582
000110 08 99 5e 3a 2b e3 a8 bc 45 bd bc 3c 3a e3 ca 3b
       0.00084914314 -0.020616135 0.02303947 0.0061916383
000120 3e 64 84 bc c9 2c 20 3c 77 95 9f 3c 91 86 45 bc
       -0.01616108 0.009776303 0.01948045 -0.012056009
000130 96 d3 8c bb 55 64 8c bb 38 af 07 3d a7 c1 43 bc
       -0.004297684 -0.0042844214 0.033126086 -0.011948026
000140 a8 be 19 bc eb 6c be 3c d9 a7 c9 bb d7 d7 09 3c
       -0.009383835 0.023245296 -0.006154042 0.008413277
000150 5d bf 69 bc 94 c6 86 3c a6 67 51 bc 2c 82 8a bc
       -0.014266816 0.016452111 -0.012781059 -0.016907774
000160 11 70 43 ba 6b 6f 8b bc 33 83 73 3b 1d a1 46 bc
       -0.0007455359 -0.017020902 0.0037157058 -0.012123373
000170 1f 79 61 3c 7e fe 52 bc 0d aa 50 bc 20 91 9e bb
       0.013761788 -0.0128780585 -0.012735856 -0.0048390776
000180 a3 48 f9 38 f0 83 96 3c d3 57 bd bc 32 90 a6 bb
       0.00011886775 0.01837346 -0.023113167 -0.0050831074
000190 08 51 95 3c 16 ae aa bb 6d 57 15 bc 4c 40 9d 3c
       0.018227115 -0.005208741 -0.009115082 0.019195698
0001a0 cb a3 17 bc 95 6b 65 bc 76 81 5b b9 95 21 cf 3b
       -0.00925536 -0.0140027 -0.00020933695 0.006321142
0001b0 50 be 32 bb 23 41 15 3c 25 6b 09 3d 81 7b 94 3a
       -0.002727408 0.009109768 0.033549447 0.0011328311
0001c0 6d 11 8e bb c9 e2 e4 3c 9e 10 58 bc fd c3 1e bc
       -0.0043355734 0.02794017 -0.013187556 -0.009690282
0001d0 ec ea 60 bc 1f 31 d8 bb 43 a2 b3 ba 99 ca 00 3c
       -0.013727885 -0.0065976526 -0.0013704974 0.007860803
0001e0 4c 12 8f bb 65 79 12 bc e4 ee dd 3b 3f f0 1f b9
       -0.004366195 -0.0089400755 0.0067728627 -0.0001525292
0001f0 7d 22 10 3c 05 91 b7 bb 83 8b 0f 3d 47 94 54 3c
       0.008797285 -0.0056020045 0.035045158 0.012974805
000200 c6 87 e3 3c 2f 86 fc bb a8 98 f1 3b e7 2e 81 b9
       0.027774703 -0.0077064256 0.0073729344 -0.00024639742
000210 f0 24 08 bc 16 79 ad 3c 15 f6 0a 3c a5 88 ca bb
       -0.008309588 0.021175902 0.008481522 -0.00618084
000220 9c ba 9f bc 73 61 13 bc 4d ab e2 ba 88 57 5b ba
       -0.019498162 -0.008995402 -0.0017293483 -0.000836723
000230 77 f0 77 3c 03 31 d4 bb 87 cd 19 3b 04 4a 00 bc
       0.015133015 -0.006475569 0.002346845 -0.007830147
000240 71 ba a1 39 f0 b6 06 3d ab 00 a5 3c 56 41 ab 3c
       0.00030847223 0.032889307 0.02014192 0.020905178
000250 bd f4 78 3c e0 06 bc 3b b8 16 90 b9 21 18 03 3c
       0.015195069 0.0057381243 -0.00027482747 0.008001358
000260 2e c2 f8 bb d6 0a 9a ba 5b 4f ce bb 43 a2 b1 bb
       -0.0075915074 -0.0011752497 -0.006296081 -0.0054209544
000270 54 d4 b2 bb ae 84 8a bb f1 c8 29 3c d7 39 7a 3a
       -0.0054574404 -0.0042272424 0.01036285 0.0009545362
000280 33 d4 e1 3b cf 7a 04 3c 3e b9 15 bc 37 94 0c bc
       0.006891751 0.0080859205 -0.009138403 -0.008580259
000290 88 7b 8d 3c 24 e8 f1 3b 6d e3 9c 3b 6e 31 e1 bb
       0.017270818 0.0073824096 0.0047878535 -0.0068723476
0002a0 1c 83 39 ba e9 8e 2c 3a 46 e3 c4 bb 33 5f aa bc
       -0.0007076727 0.00065825746 -0.0060085384 -0.020797348
0002b0 37 61 e0 3c ec 27 d5 3c 61 3b d2 bb de d5 8c bc
       0.027390106 0.026020013 -0.00641577 -0.017191824
0002c0 0e ac 30 3c de be 6d bc a8 9e 52 bb aa dc eb ba
       0.0107832085 -0.014510838 -0.0032138024 -0.001799484
0002d0 d1 ee ae b9 a4 7d e5 bb 59 47 da 3a 69 b6 7a 3a
       -0.00033365798 -0.007003503 0.0016653343 0.00095639244
0002e0 01 f0 37 3c ee fb 7c 3c 9d 63 31 bb b5 c4 0b bc
       0.011226655 0.015440924 -0.002706743 -0.008530785
0002f0 20 df 01 3d f0 4e 88 3b 05 f7 0c bb 25 d5 39 bc
       0.03170693 0.0041598007 -0.002150954 -0.0113423215
000300 cb 8e dd bb 08 ca f9 3b 6e f6 95 bb 34 b0 86 bc
       -0.006761407 0.007622961 -0.004576496 -0.016441442
000310 1e d0 01 bc 01 b6 be 3c 05 17 e9 3b 3e 19 0b 3d
       -0.007923154 0.023280146 0.00711334 0.03395962
000320 bb 33 85 3a e4 98 70 bb 6f af c0 bb 74 19 ec ba
       0.0010162512 -0.0036712224 -0.0058802883 -0.0018012957
000330 65 76 6c 3b f6 91 bd 3a 0d 79 eb 3b b4 67 77 3c
       0.003608131 0.0014463055 0.0071860612 0.015100408
000340 39 d7 08 bb 54 a5 f0 bb 03 1d c9 3b 37 32 e7 bb
       -0.0020880236 -0.0073439274 0.0061374917 -0.0070555466
000350 90 22 26 bc 76 6c 3c 3c b2 7a af 3c 62 85 4f 3b
       -0.010140076 0.0115004685 0.02142081 0.0031665196
000360 b9 0f b2 bb 1e 28 7d 3c 93 2a 94 bc d6 ce c5 3b
       -0.005434003 0.015451459 -0.018086707 0.0060366197
000370 d4 cf 07 bc 91 2b a2 3c d0 80 ad bb 94 16 a9 3c
       -0.008289296 0.019796165 -0.0052948967 0.020640649
000380 49 2d 9f bb 83 0c d4 bc 4b 60 e0 bb 3a 61 25 3a
       -0.0048576933 -0.025884872 -0.0068474165 0.00063087384
000390 96 76 20 3c 9c 9c 80 3c 7d 1f 38 3c 72 4f eb bb
       0.009793898 0.015699677 0.011237976 -0.0071811015
0003a0 19 3f c5 3c 2c 65 97 bc 28 d0 3b bc 33 be 9a bc
       0.024077939 -0.01848086 -0.011463203 -0.018889522
0003b0 d4 fa 9c 3b c4 95 12 bc b1 cc 97 39 47 6a 9a 3c
       0.004790643 -0.00894684 0.0002895347 0.018849505
0003c0 a6 99 04 bc 96 71 04 3b f0 4d 47 3b bb 77 ff bb
       -0.008093273 0.0020209304 0.0030411445 -0.0077962554
0003d0 dc 42 1f bc 37 43 92 3b 73 db 98 3c 02 95 8e 3c
       -0.00972053 0.004463579 0.018659329 0.017405037
0003e0 23 dc de bb e7 53 45 bc 0d d9 a3 3b 87 5b 57 bb
       -0.0068011447 -0.01204393 0.0050002397 -0.003286095
0003f0 c3 fa 26 bc 65 77 3d bc 95 9d 2f bb aa 3c 00 bc
       -0.010191622 -0.01156411 -0.0026796807 -0.007826963

layers.1.running_mean f4 [256]
000000 c7 8e b4 3d 90 f3 d0 bc 46 e1 ff bd 94 5d 7f be
       0.08816295 -0.025506765 -0.124941394 -0.24938041
000010 1a dd c2 bd ea 48 9b be a2 69 b4 3e af e2 0a 3d
       -0.09514828 -0.30329067 0.3523684 0.03390759
000020 95 aa 3f be 21 31 b2 bd 86 50 10 3c be fa 87 be
       -0.18717416 -0.08700777 0.008808261 -0.2655849
000030 8c 84 3f 3e 02 d7 87 3e 58 5e b8 be 5d df 5b be
       0.18702906 0.26531225 -0.3600948 -0.21471925
000040 7e de 0a 3d aa 99 79 3e 7c d3 65 3e 09 75 2e be
       0.03390359 0.24375024 0.22443956 -0.17036833
000050 06 92 bf be 79 a9 5c 3e be 79 91 be 6b f0 09 be
       -0.37416095 0.21549024 -0.28413194 -0.13470618
000060 3b c8 f7 bd 54 e2 84 3d e9 a7 71 3e de d3 8b bd
       -0.12098738 0.06488481 0.23599209 -0.0682752
000070 dd 7e c2 3e b1 65 cf 3d 73 54 81 bd 95 dd 47 3d
       0.37987414 0.10126818 -0.063149355 0.0487953
000080 10 c5 1a be 79 f6 1a be 50 7e b7 3d 33 9d 94 bc
       -0.15114236 -0.15133084 0.08959639 -0.018141365
000090 2a 41 f1 bd 56 73 a2 3e 37 0d 07 be 61 3d 64 be
       -0.11780007 0.3172862 -0.13188635 -0.22289039
0000a0 bf 26 4d be 67 0d f6 bb 6d cc 3c be 4c 74 08 3e
       -0.20034312 -0.007508922 -0.18437357 0.13325614
0000b0 ad e1 ee 3d 23 11 6d 3e c5 f4 57 3d 33 7c 80 be
       0.11664138 0.23151068 0.052723665 -0.25094756
0000c0 76 db 00 be ba e6 88 bb 46 e8 a1 3e e5 b8 ce 3d
       -0.12583718 -0.0041778954 0.31622523 0.100938596
0000d0 25 0f 53 be 89 5b e1 be 1c 58 0e 3e f6 b1 90 be
       -0.20611246 -0.44015148 0.13900799 -0.28260773
0000e0 f8 07 de 3e b6 f9 b7 be 0c 5c 77 bd 7d c5 04 3e
       0.43365455 -0.35932702 -0.060390517 0.12965961
0000f0 1f 3a 26 3c 84 ab a0 be 0e f0 24 be 74 22 3d 3e
       0.010145693 -0.31380856 -0.16107199 0.18470174
000100 8a a9 2c be 36 d2 11 3e d6 d7 1b 3e 56 93 85 3e
       -0.16861549 0.14240345 0.15219054 0.2608897
000110 8b 92 62 be 9c 01 8a 3c f0 c4 a8 bc 5f 8b 1b be
       -0.22126214 0.01684647 -0.02060172 -0.15189885
000120 f0 f3 f4 3d 36 ae 3d bd fa 18 cc be 3d d7 1e bd
       0.1196059 -0.04630872 -0.39862806 -0.038779486
000130 d8 43 18 bd 9d 19 98 bd 22 56 a4 3e b4 cd ee bb
       -0.037174076 -0.0742676 0.32096964 -0.0072877053
000140 29 be ae 3d 8f 48 67 3c 75 f7 76 3e 2b 85 b3 3e
       0.08532364 0.01411642 0.24117835 0.35062537
000150 a4 3c b4 bc 43 53 d1 3d fc 1f 92 be d8 06 82 be
       -0.022001572 0.10220959 -0.28540027 -0.25395846
000160 c4 1d 0e 3d 6c 86 bf bd 27 91 a8 be 7f de f2 bc
       0.034696355 -0.09351811 -0.32923242 -0.02964711
000170 42 19 a1 bd f0 b2 11 3e b5 05 94 3b 18 fc 88 3e
       -0.07866146 0.14228415 0.004517282 0.26754832
000180 82 76 8d 3b 6e 57 e0 bd d1 f0 9c be 59 9e 95 3d
       0.0043171057 -0.10954176 -0.30652478 0.07305593
000190 93 3a 71 be 3d c4 82 be 98 be 47 be 61 23 cf be
       -0.235575 -0.25540343 -0.195063 -0.4045668
0001a0 f9 3d 14 3e 69 dd 85 3e f2 06 a2 3e 8e 7e 8b bd
       0.14476766 0.26145485 0.31645924 -0.06811248
0001b0 33 7f 26 3e 4d ae 1b be b1 91 b2 be c4 79 a1 3e
       0.1625946 -0.15203209 -0.3487678 0.31538212
0001c0 40 fe b5 3e ad 1a 42 3e 6c d4 ed bd f8 2c 47 be
       0.3554554 0.18955489 -0.11612782 -0.19450748
0001d0 42 a5 1e 3e 30 51 79 be 6f 0b af bd 80 22 ba 3e
       0.15492728 -0.24347377 -0.08547103 0.36354446
0001e0 5d 9c 4e be 90 d2 d3 3d bc 67 87 bb b0 cc e0 bd
       -0.20176835 0.10342896 -0.004132239 -0.10976541
0001f0 88 67 63 3d 40 76 92 be bf 85 1b be a2 de 47 3e
       0.055518657 -0.28605843 -0.15187739 0.19518521
000200 4b 66 31 3e 6c ad c7 be 74 4b de 3d 3c 55 16 bd
       0.17324178 -0.38999498 0.10854235 -0.03670238
000210 a5 b4 e3 3d 72 0e 46 3e 81 cf 61 3e e9 53 c1 3c
       0.111184396 0.19341448 0.22051813 0.023599582
000220 8f 1f 65 be 27 32 56 3e 90 75 29 3d 01 dc 9e 3d
       -0.2237532 0.20917569 0.041371882 0.07756806
000230 89 12 50 3d eb ed 43 be 8a e8 9a 3e 20 40 22 3e
       0.050798927 -0.19133727 0.30255538 0.15844774
000240 8f 89 cf bd cf 20 5f be 4c 81 d3 bd 5e 1c c7 3e
       -0.10133659 -0.21789859 -0.10327396 0.3888883
000250 1f 04 3f be d5 8e 12 be 8a d2 01 3e 17 0b 8f bd
       -0.18653916 -0.14312299 0.1267797 -0.06984537
000260 78 3a b7 3e 0b 2c 74 bd 6c 50 59 3e 99 da 68 3d
       0.35786796 -0.059612315 0.21222085 0.056849096
000270 7c 9d 37 be ce 4b 6e 3e 75 94 30 be 1b a0 89 be
       -0.1793117 0.23271105 -0.17244132 -0.26879963
000280 4a 4f 55 3d f1 60 3f be c7 87 ae bd 20 38 dc bd
       0.05207757 -0.18689324 -0.08521991 -0.107528925
000290 42 d0 42 be e4 5c 7e bd e0 ee 31 3e e2 68 47 be
       -0.19024757 -0.062100306 0.1737628 -0.19473603
0002a0 0e d3 ab bd 12 6e 12 3d ef e5 09 be bf 35 c0 3d
       -0.08389865 0.035749502 -0.13466619 0.09385251
0002b0 16 ad 6b bc dc ed c1 3e 70 a5 86 3d 2a 31 67 be
       -0.014384529 0.37876785 0.065745234 -0.22577348
0002c0 87 96 c4 bc 12 06 b7 bd f6 e6 74 be 34 cb a6 3e
       -0.023997558 -0.08936705 -0.2391623 0.32576907
0002d0 fb c5 c1 bd 6e 6f 38 be df d4 bf be 69 be 62 3e
       -0.0946159 -0.18011257 -0.37467095 0.22142948
0002e0 f3 3d 31 3e 82 bb 00 bc 3a 20 05 be 29 01 c0 be
       0.17308788 -0.007857205 -0.13000575 -0.37500885
0002f0 e9 de ae 3e 73 23 f4 bd 85 ce 47 3d cb ba 95 bc
       0.34154442 -0.11920824 0.048780937 -0.018277546
000300 95 bd 1c bc 7a cf d3 3d 9a c7 aa 3d d2 60 4e 3d
       -0.009566684 0.103423074 0.08338852 0.050385304
000310 bd a0 99 3e 88 59 0f bd d2 69 72 3e 76 a3 d4 be
       0.30005446 -0.034997493 0.2367318 -0.4153096
000320 8e ca d9 3e d6 71 aa bd 22 be 8b 3d 27 bc b3 3d
       0.4253735 -0.08322494 0.06823374 0.087761216
000330 e6 7f 07 3d 06 97 8f 3e 19 73 5d 3e c1 2b ea bd
       0.033080958 0.2804491 0.21625938 -0.11434127
000340 25 09 cb 3c d3 72 c7 be 25 7a 68 3e c2 44 31 3d
       0.024784634 -0.3895479 0.22702844 0.043278463
000350 b2 7d 59 3e 22 bc fc bd 5f fd 85 bd 0a 2d 55 3d
       0.21239355 -0.12340571 -0.06542467 0.052044906
000360 46 a0 42 be 36 2e 63 3e ac b9 56 3e 3e cf 5e be
       -0.19006452 0.22185597 0.20969266 -0.21758744
000370 e9 5f 17 3e e2 20 36 3e 04 62 5f 3e 94 29 e3 be
       0.1478268 0.17785981 0.21814734 -0.4436766
000380 f1 d3 46 be ea 4a ae be 0b 9c ae 3d 6a 5a 17 be
       -0.19416787 -0.3404153 0.085258566 -0.14780584
000390 9a ec 5b 3e 0b 28 1f be e7 4a d8 3d a3 1f 94 3e
       0.21476975 -0.15542619 0.105611615 0.28930387
0003a0 3d ea 69 bd eb 71 ed bd 41 36 08 be de b0 82 be
       -0.057108153 -0.11593994 -0.13301946 -0.25525564
0003b0 c1 1c b1 3e a3 29 85 bd 06 08 a3 3d 2f 9c 32 3e
       0.3459225 -0.06502082 0.07960515 0.17442392
0003c0 4e ea 60 be e5 3f 19 bd 83 11 93 be 86 51 4f be
       -0.2196438 -0.03741445 -0.28724298 -0.20245942
0003d0 86 a0 84 bb 07 39 48 be 49 dd a2 3e 2a 82 93 be
       -0.004047456 -0.19553004 0.31809452 -0.28810245
0003e0 ab a8 3b be 6b 7a ec 3a d2 60 1b 3d 42 0d 16 3e
       -0.1832606 0.0018041854 0.037934132 0.14653495
0003f0 ed 83 d8 3d 24 cd 8a be 75 4d 4b 3e c9 07 d3 bd
       0.10572038 -0.27109635 0.19853766 -0.10304219

layers.1.running_var f4 [256]
000000 ab 90 9a 3e 5f ff 38 3e c7 e1 09 3f ca 4a ff 3e
       0.30188498 0.18066166 0.53860134 0.49861747
000010 76 28 95 3e 60 31 1c 3f 25 48 b3 3e 2c 13 d7 3e
       0.29132432 0.6101284 0.3501598 0.42006814
000020 cc fe 2b 3f ef b8 db 3e c9 c6 56 3e 7e 57 2a 3f
       0.67185664 0.4291453 0.20974268 0.6653975
000030 cd 41 f0 3e cc 4a cd 3e 36 a8 8b 3e 1f 91 08 3f
       0.46925202 0.40096128 0.27276772 0.5334644
000040 cd f0 88 3e fa 2e 32 3f a6 b1 c6 3e eb e9 14 3e
       0.26746216 0.6960293 0.3880741 0.14542358
000050 a4 b0 c5 3e 52 d5 07 3e c4 cb 79 3e 58 81 95 3e
       0.3861133 0.13264969 0.24394137 0.29200244
000060 28 9d 06 3f 9a 79 96 3e 02 e0 1c 3f 9c 79 c9 3d
       0.5258355 0.2938965 0.6127931 0.09837648
000070 d0 68 44 3f 8c a7 99 3e 1f 78 b0 3e 6b 78 ea 3e
       0.7672243 0.3001064 0.34466645 0.45794997
000080 3e 5f 86 3e 93 f7 f3 3e 0d 6a 9e 3e a3 4f 9c 3e
       0.2624454 0.47649822 0.30940285 0.30529508
000090 e3 9d 1d 3e a9 d5 3b 3f 64 be 5a 3e 6c 4c b9 3e
       0.1539226 0.73372895 0.21361691 0.36191118
0000a0 e6 5a 07 3f 26 f2 98 3e a5 49 40 3e 64 22 a0 3e
       0.52873075 0.29872245 0.18778093 0.31276238
0000b0 42 14 49 3e b3 d1 94 3e f3 0c 3b 3e e3 9c 70 3e
       0.19636634 0.29066238 0.18266658 0.23497348
0000c0 03 df 8d 3e fa fa 64 3f a3 81 90 3e b8 4d 94 3e
       0.27709207 0.8944546 0.28223905 0.28965545
0000d0 e6 04 c5 3e cb ed f1 3e e8 5d 36 3e 39 30 4a 3e
       0.384803 0.47251734 0.1780926 0.19744958
0000e0 cf 0d d8 3e 37 32 16 3e 36 5d 1c 3f bf 88 3d 3e
       0.42198035 0.14667593 0.6107973 0.18509196
0000f0 7d f8 15 3f 7b 5c 19 3f e3 cd 22 3e ff a0 98 3e
       0.5858229 0.5990674 0.15898852 0.2981033
000100 65 a1 8d 3e 5f 22 95 3e b0 e7 32 3f 9c 4b d2 3d
       0.27662197 0.29127786 0.6988478 0.102683276
000110 8e f5 65 3f 32 4a 1e 3f 9f 97 93 3e 37 97 c2 3e
       0.8982781 0.61831963 0.28826615 0.38005993
000120 77 41 67 3e 85 4f a0 3e 37 58 82 3e 80 ec fd 3e
       0.22583567 0.3131067 0.25457928 0.49594498
000130 3d f1 eb 3e 83 a1 2d 3e f7 5a a1 3d c0 3d 27 3f
       0.46082488 0.16956143 0.07878678 0.653286
000140 79 14 81 3e 91 3d 59 3e 5e f3 2c 3e 39 61 b0 3e
       0.25210932 0.21214892 0.16889712 0.34449175
000150 53 56 6c 3e 8c 32 8f 3e 65 a7 a0 3e 84 63 f0 3e
       0.23079805 0.27968252 0.31377712 0.46950924
000160 f0 0a 35 3e 1a b7 b6 3e e3 9a ec 3e f5 e6 b8 3e
       0.17679954 0.3568657 0.4621192 0.36113706
000170 48 58 38 3f 08 61 46 3e ca 00 19 3e 56 58 4b 3f
       0.72009706 0.19372952 0.14941707 0.79431665
000180 7d 4f a5 3e bc 0a 80 3e 8b 97 39 3f ec b5 13 3f
       0.32287207 0.2500819 0.7249686 0.57699466
000190 b6 58 76 3e ed c2 a4 3e 9c 22 b8 3e 13 86 14 3f
       0.24057278 0.32179967 0.35963905 0.5801708
0001a0 bb 51 b3 3e a1 5d 94 3e fa 53 3d 3e a6 62 16 3e
       0.35023293 0.28977683 0.18489066 0.14686069
0001b0 b1 58 25 3f c6 2a 8a 3e b5 d5 34 3e 97 94 94 3e
       0.6458846 0.2698576 0.17659648 0.29019615
0001c0 4f c6 a3 3e be 83 ca 3e 97 e9 3d 3e d6 97 ea 3e
       0.31987235 0.39553636 0.18546139 0.45818967
0001d0 01 05 07 3f ad 7e c5 3e 58 a8 43 3e fa 3c e6 3e
       0.5274201 0.38573208 0.19107187 0.44968396
0001e0 28 7b 9c 3e 81 44 32 3f d2 aa 2e 3e 15 56 b0 3e
       0.3056271 0.6963578 0.1705735 0.34440675
0001f0 0f 07 d7 3e cc 51 6a 3e 01 95 c5 3e 95 18 ec 3d
       0.41997573 0.22882766 0.38590243 0.11528126
000200 85 74 8e 3e d2 24 b5 3e 47 c2 6e 3e 63 bd cb 3e
       0.27823272 0.35379654 0.23316298 0.39792928
000210 b0 d1 01 3e f7 29 a4 3e 1f ed 1b 3e 92 18 7c 3e
       0.12677646 0.32063267 0.15227173 0.24618748
000220 cb 19 59 3e af 66 1c 3e 28 49 b0 3e 54 23 81 3e
       0.21201245 0.15273546 0.34430814 0.25222266
000230 36 38 e4 3e b4 63 02 3e 9a 48 49 3e e1 8f 03 3f
       0.44574136 0.12733346 0.19656602 0.51391417
000240 23 8d a2 3e f7 6a 94 3e 71 a1 eb 3e ff ea a0 3e
       0.31748304 0.28987858 0.46021608 0.31429288
000250 dc b9 b2 3e a0 da 68 3e c9 ee d9 3e c8 e9 89 3e
       0.34907424 0.22739649 0.4256499 0.26936173
000260 9f 76 b3 3d a2 59 e3 3e a4 5a 07 3f 2b a9 de 3e
       0.087628596 0.44404322 0.5287268 0.4348844
000270 f8 a1 1b 3f 60 d3 c5 3e 18 ec da 3d a6 50 73 3e
       0.6079402 0.3863783 0.106895626 0.23761234
000280 31 9b b2 3e fd 20 8c 3e ad 31 73 3e 92 e7 b5 3e
       0.34884027 0.27368918 0.23749419 0.35528237
000290 79 73 1a 3f c7 ef b7 3e 07 c2 7f 3e ce b9 61 3e
       0.6033245 0.35925123 0.2497636 0.22043535
0002a0 ca e8 f0 3e e0 30 38 3e 0c 85 aa 3e 38 fd c1 3e
       0.47052604 0.17987394 0.33304632 0.37888503
0002b0 2e f2 a3 3e 98 88 26 3e b6 8c 4d 3e 53 d8 18 3f
       0.32020706 0.16263044 0.20073208 0.59705085
0002c0 ca aa 4f 3e b5 4a 83 3e 90 41 0d 3f a3 f9 92 3e
       0.20279995 0.25642934 0.55178165 0.28706083
0002d0 2f 0a 1b 3e ea c2 fc 3e bb fe 19 3f 8d 25 b9 3e
       0.15140603 0.49367458 0.6015431 0.3616146
0002e0 b8 4e dd 3e 32 93 bc 3e b0 fa 66 3e 6a 6a 01 3f
       0.4322412 0.3683105 0.22556567 0.50553
0002f0 ae c4 91 3e 2d df 77 3e fc 43 7b 3e d6 3c dd 3e
       0.28470367 0.24206229 0.24537653 0.43210477
000300 c1 30 52 3e 9f aa e4 3e e1 11 69 3e 47 44 46 3e
       0.2052641 0.44661424 0.22760727 0.19361983
000310 8c 75 b2 3e d3 56 aa 3e 02 42 7c 3e 18 51 87 3e
       0.34855306 0.33269367 0.24634555 0.26429057
000320 f0 62 2c 3f 87 9b be 3e df c4 5e 3e 33 03 d5 3e
       0.67338467 0.37228033 0.21754788 0.41604003
000330 85 f5 a1 3e c6 bb a3 3e 70 36 cf 3e c7 e4 6f 3d
       0.3163263 0.31979197 0.4047122 0.05856779
000340 eb 2e eb 3d d7 52 d1 3e a1 9a 84 3e 57 53 97 3e
       0.11483558 0.40883514 0.25899222 0.2955577
000350 55 8d 13 3e ff 98 cd 3e a4 56 67 3e f3 16 cf 3e
       0.14409383 0.4015579 0.22591645 0.40447196
000360 a5 81 01 3f 6c 84 70 3e 8e ba 64 3e e6 d1 9a 3e
       0.50588447 0.23488015 0.2233679 0.30238265
000370 18 b0 31 3f 42 43 8f 3e cc aa 56 3e 2e 35 9b 3e
       0.6940932 0.27981 0.20963591 0.3031401
000380 9f cb 8c 3e f3 0e 04 3e 7a 0b ea 3d 8e 11 10 3f
       0.274991 0.12896328 0.1142797 0.56276786
000390 e7 54 f5 3e 74 83 88 3e 3f e6 73 3e 08 9a d2 3e
       0.47916338 0.2666279 0.238183 0.41133142
0003a0 b7 44 f5 3d c0 c6 af 3e 57 4e a7 3e 12 9b 37 3f
       0.11975997 0.34331322 0.32676956 0.71720994
0003b0 0c ee a1 3e 78 e5 c5 3e 2f 03 0e 3e ed 0f 38 3e
       0.31626928 0.38651633 0.13868402 0.17974825
0003c0 f0 a6 3a 3e 3e 93 db 3d 0e de db 3e 7b 8a d0 3e
       0.18227744 0.107214436 0.42942852 0.40730652
0003d0 85 c0 b2 3e 65 70 59 3e c2 42 01 3e 81 5d 92 3e
       0.34912506 0.21234281 0.12623122 0.28586963
0003e0 7c 6b ee 3e bd ca bb 3e 25 17 53 3e c5 92 cf 3e
       0.4656638 0.36678115 0.20614298 0.40541664
0003f0 d1 f3 af 3e e9 70 85 3e e3 4f 7f 3e 0d b4 5a 3f
       0.34365705 0.26062706 0.24932818 0.85430986

layers.4.weight f4 [256, 256]
000000 ad 40 32 bb 9a ae 79 bd a5 db 04 3c c7 ab f0 bc
       -0.0027199194 -0.06095753 0.008109008 -0.029378785
000010 f2 29 13 bc 8b e0 4e 3d 7a 60 ae 38 d5 c8 5a bc
       -0.0089821685 0.05050711 8.314937e-05 -0.013353546
000020 c5 e8 be bc cf 8e 18 bd e2 86 9d 3c 1c d2 8b bc
       -0.023304353 -0.037245568 0.019229356 -0.017067961
000030 3d 35 58 3d a1 9d 11 bd 75 1a c7 3a 34 36 3f 3d
       0.052785147 -0.035550717 0.001519038 0.04668255
000040 50 71 5d bd 70 4e 05 3c 10 ca 09 bd 5c f4 7c bd
       -0.05406314 0.008136377 -0.033639967 -0.061756477
000050 77 24 7b 3c 3a 3b 3a bd 2c 18 8b bc a2 b1 a9 3c
       0.015328518 -0.04546664 -0.0169793 0.020714585
000060 6d e5 2a 3c 27 56 03 bb 94 f6 6d 3d 00 64 98 3c
       0.010430676 -0.0020040364 0.058096483 0.018602371
000070 37 66 4e bd 3c f1 1c bb 07 16 68 3b 70 49 75 bd
       -0.05039045 -0.0023947498 0.003541352 -0.05988449
000080 11 1f 84 bd fa 6c 8b 3d 4a 7c ef 3c eb 48 58 bc
       -0.06451238 0.06807895 0.02923407 -0.013200979
000090 7e 47 ff bc a7 0a 21 bd 98 20 16 bd 81 88 40 3d
       -0.03116202 -0.0393168 -0.036652178 0.04700518
0000a0 ad 41 42 bd 8c 77 82 3d d8 26 43 3d bf 15 68 3d
       -0.047425915 0.06370458 0.047644466 0.056661364
0000b0 0a cc 63 3d e3 12 85 bd 2a 64 6a bc c2 de a2 3c
       0.05561451 -0.06497743 -0.014306108 0.01988161
0000c0 f8 83 8d bc 48 23 ce bb 8f 4b e7 3c b9 e8 2b 3d
       -0.017274842 -0.006290827 0.028234271 0.04196999
0000d0 d4 f3 bf bc 01 f6 2c bd 12 0e 26 bd 94 df 9c bc
       -0.023431696 -0.042226795 -0.040540762 -0.01914958
0000e0 77 51 9c bc 44 d0 9d 3c 18 04 57 bd d6 15 c9 bc
       -0.019081814 0.019264348 -0.05249414 -0.024546545
0000f0 40 ba 0a 3d 60 1b 9c bd 26 ce 7c bd 08 82 30 3d
       0.033869028 -0.07622409 -0.061720036 0.043092757
000100 43 22 89 3d 7c 66 82 bd 09 f3 e4 3c c2 ff d4 bc
       0.06695988 -0.063672036 0.02794792 -0.026000861
000110 e7 2e 3d bd ea e7 2b bd f7 50 2f 3d f8 ef 24 bd
       -0.046187308 -0.041969217 0.042801823 -0.040267915
000120 09 6a d3 bc 3c b5 2c 3c 74 ea 7c bd 18 fc d3 3c
       -0.025807397 0.0105412565 -0.06174703 0.025877044
000130 53 72 2f bd 7a 93 ce bc c6 49 4a bc 5e c6 1a 3d
       -0.042833637 -0.025216807 -0.0123466905 0.037786834
000140 7d a2 36 3d 7b dd 5c 3c 7c 78 05 bd c1 f3 42 bd
       0.044588555 0.013480539 -0.032585606 -0.047595743
000150 57 5c 41 3d 20 a0 7e bb 5b 10 42 3b 33 d5 ba 3c
       0.047207203 -0.0038852766 0.00296118 0.02280674
000160 49 4c 56 3d 36 bd e4 3b 8f d2 20 3c 46 12 54 3b
       0.052318845 0.0069805635 0.009815826 0.0032359525
000170 c5 25 60 bd 38 60 05 bd 64 e4 41 3d b1 3b 69 3d
       -0.05472352 -0.032562464 0.04733695 0.05694169
000180 1b 0c 00 bd 7a ff ff bb f5 6e 2c bd b1 dc 0c 3a
       -0.031261545 -0.0078124376 -0.042098004 0.0005373462
000190 8a a8 1d bd 78 79 e8 3b ce 4f a1 bc 6b cb 42 bd
       -0.03849081 0.0070945583 -0.019691374 -0.047557276
0001a0 e7 5c 31 3d 5e 70 5b bd c2 54 82 bd ea d1 06 bd
       0.04330149 -0.05357396 -0.063638225 -0.032915033
0001b0 38 e0 48 3a 3b c9 65 bd 80 ea 73 bb 99 8d 82 3d
       0.0007662806 -0.05610011 -0.003721863 0.06374664
0001c0 c3 36 32 bc f4 89 d0 bc 16 5a 6a 3d 4d b5 0f 3d
       -0.010877314 -0.025456406 0.05721482 0.03508501
0001d0 07 ed f1 3c 4e 93 38 bc 4d 60 24 3d dc a3 27 bd
       0.029531969 -0.011265589 0.040130902 -0.040927753
0001e0 8c c1 71 bd 51 23 47 3d 24 6c 76 3d 86 55 c0 bc
       -0.05902247 0.048617665 0.060161725 -0.02347828
0001f0 90 b5 30 bc 7e 8a 39 bd 05 ad ef 3c ec 82 1a bd
       -0.010785475 -0.045298092 0.029257307 -0.037722513
000200 ef fd 43 3c e4 2a f2 3b d5 e9 a2 bb 5d 19 56 bd
       0.011962398 0.007390367 -0.0049717226 -0.052270282
000210 f4 36 27 3d 48 20 2b bd 1f d2 32 bc 43 2f 18 3d
       0.04082389 -0.041778833 -0.010914355 0.037154447
000220 b2 18 2e bd e4 10 4b 3d bd 70 57 3d aa dc bc bc
       -0.04250402 0.049576655 0.05259775 -0.02305444
000230 4d af 61 3d c1 48 2f bd c7 31 87 bb 31 09 4d 3d
       0.05509882 -0.042793993 -0.004125807 0.050057594
000240 30 0e 86 3d b8 2d 01 bd 45 44 f8 bc 28 56 dd 3c
       0.06545675 -0.03153774 -0.030305991 0.027018622
000250 ec 2a 40 bd 73 a7 05 bd bc 4a 15 bd a8 06 40 3b
       -0.046915933 -0.032630395 -0.036448225 0.0029300842
000260 06 c9 40 bc 3d b4 16 3d f4 5c 1e bd e6 be 74 3d
       -0.011766678 0.036792982 -0.038662866 0.059752367
000270 c8 04 6c bd 30 34 cc 3c 71 a6 42 bc c2 d5 ce 3c
       -0.057621747 0.024927229 -0.011880503 0.025248412
000280 8b 79 8d 3c 76 bc 39 3d c6 1e af 3c f4 84 d0 bc
       0.01726987 0.045345746 0.021376979 -0.025454022
000290 0c 56 c5 3c 56 b2 14 3c b9 ec 55 bd 47 2e c2 3c
       0.024088882 0.009075722 -0.05222771 0.023703707
0002a0 4b 0f 8d bc fe 5c 45 3d 82 86 54 39 5b ee 0f bd
       -0.017219206 0.048184387 0.00020268004 -0.035139423
0002b0 ef 86 15 bd fe b9 ad bc 27 dc 22 bd e4 a2 25 3d
       -0.036505636 -0.021206852 -0.039760735 0.040438548
0002c0 c0 fe 01 3c 29 e1 a7 bc e0 b7 f9 bb cd 78 4f 3d
       0.007934272 -0.020493107 -0.0076207966 0.050652314
0002d0 dc 41 34 3d 93 58 d5 bc e0 e5 16 bd 84 37 ad bc
       0.04400812 -0.026043212 -0.03684032 -0.021144636
0002e0 16 aa 4b bd 42 c2 19 3c a2 c3 5a bd 5e 6e 68 3c
       -0.049722753 0.009384694 -0.053409226 0.01418647
0002f0 e6 b0 69 3d 62 86 ff 3c ed 90 39 bb b9 04 54 bd
       0.05705347 0.031192008 -0.0028315142 -0.051762316
000300 32 04 85 3d be 45 e5 3c 2a 39 e3 3c 66 5f cf bc
       0.06494941 0.027987357 0.027737219 -0.025314044
000310 5a 30 03 3d 59 6e 28 bd 34 67 5b bd 2d e3 02 bc
       0.032028534 -0.04112086 -0.05356522 -0.007988733
000320 42 73 3a 3d 97 9e eb 3c 2b 44 46 3c d3 c7 80 bc
       0.045520075 0.028762145 0.012101213 -0.015720284
000330 a0 7c 26 3d af f9 a1 ba 53 1c e0 3c 14 ba 0f 3b
       0.040646195 -0.0012357737 0.027357256 0.002193098
000340 0e 78 62 bc b4 e3 bf 3b 0c 0b 74 3d c3 fd a0 3c
       -0.013822569 0.0058560017 0.059580848 0.019652253
000350 b5 d5 23 bc b0 6c 44 bd 63 df 89 bc 50 c3 0a bd
       -0.009999682 -0.047955215 -0.016830152 -0.03387767
000360 19 7a 1f bb ad 76 0f bd b0 b1 98 ba 5f cb 21 3d
       -0.002433425 -0.035025287 -0.0011649635 0.03950059
000370 20 54 7f bd d0 ab 3b 3d 89 79 27 bd 0a b8 7e bc
       -0.062336087 0.04581815 -0.04088739 -0.015546808
000380 d9 58 2e 3d f3 3d 15 3d 27 22 81 bd f6 15 65 3d
       0.0425652 0.036436033 -0.06305342 0.055929147
000390 a0 8b ca 3c 66 a3 88 3c 26 85 cd bc ac a8 ba 3c
       0.024724782 0.016679477 -0.025087904 0.022785507
0003a0 15 00 f4 bc 9f 17 25 3c 10 db 49 3d 10 31 1d bd
       -0.029785195 0.0100764325 0.04928118 -0.038376868
0003b0 93 12 2e bd b5 d4 a3 bc 52 75 0b bd fe 1e 7c 3d
       -0.042498183 -0.019998888 -0.034047432 0.061552994
0003c0 57 4f a9 bc 39 0b 08 39 a1 3d 2d 3d b2 37 1d bd
       -0.020667715 0.00012974151 0.042295102 -0.038383193
0003d0 2f 14 2d bd b4 0d 16 3d 0a ee 03 3d cb 7b 32 bd
       -0.042255577 0.036634162 0.032209434 -0.04357509
0003e0 0f 54 14 bd 42 7e 15 3a 69 f2 61 bd bd e5 d4 3c
       -0.036212977 0.0005702713 -0.05516282 0.025988454
0003f0 ca 8f 50 bd 92 02 53 3b c9 92 72 3d 11 b4 c7 3b
       -0.050918378 0.0032197577 0.059222016 0.0060944636
