models/best_fold2_hd256_do0.5.pth (torch, 425446 bytes, 20 tensors)

layers.0.weight f4 [256, 10]
00000000: d6e4 8dbe e1ea 72be 6909 993c 5277 4abe
00000010: af20 4a3e 40cf 45bd 50f8 0abe 4b4b 9b3d
00000020: 9ebc c6bd 4b03 b33d 26c0 223e 8f68 fcbd
00000030: c41e 85be bf9e 6d3d 06b4 8bbe d7e1 6c3e
00000040: c54c 2d3e 69c8 a3bd 1c03 5cbe 62bb 643e
00000050: 9cbf 87be ae36 b13c ffad 8e3e 1178 f2bd
00000060: 7721 a6bd 6ff3 64bd f97f 0f3e dc80 473e
00000070: 1a29 833e 9923 ac3d 8bcc 713e e507 b5bb
00000080: 3fce 783e 7db9 71be cb50 723e 6c82 81be
00000090: 88ef 5d3e 64ac 04be 1069 86bd 2e22 873e
000000a0: bda7 25be 4004 95be d8e7 c0bd b06d 863e
000000b0: 8630 9fbd bc72 963e b70f 693e c8ec b63c
000000c0: 6dc5 a93d f696 923e 3227 36be b20b a23c
000000d0: 93b1 98ba fcc0 97be 3c45 4439 787c e1bd
000000e0: 2542 2abe d14b 213e f74d 873e 4d14 9c3c
000000f0: 550b 733e 5c7b 803e 5966 2abe bea4 00be
00000100: 1a10 a13d dc6a e13d 9b7a 8cbe a43b abbd
00000110: c84f ea3d bb90 423e e96a 403d 406f 713e
00000120: ac98 123e 38df 3d3d 696e 793d 0d93 e63c
00000130: 6cf5 90be 19a1 a43d 976a 8bbe 7d25 ad3d
00000140: 0840 d3bc f369 43be ae62 28be 93e8 423e
00000150: 475a 493e c986 8e3e e898 9dbe 837d 0f3d
00000160: 6181 c13c fcea 4a3e 9659 69be 34be 44be
00000170: 86ee 5c3e 3b0a b8bd ec77 543b 6161 b7bd
00000180: f795 7a3e 0bd2 cbbd 4db1 46bd 959d 67be
00000190: 50b6 8abe b007 ae3d c08f 3abd 39d0 7d3e
000001a0: 98de 573e 8e11 3b3d 985e 33be 80df 0f3e
000001b0: ad38 23be 19f9 0b3b a7bb 1fbe dad8 4bbe
000001c0: 9e35 efbd 0a1f e2bd a7af 2b3e 2b6e e1bd
000001d0: e243 07be 659d ddbd 0895 59be 0870 823d
000001e0: 25c5 163e 91c0 933e 1d9f 94bc 825f 743e
000001f0: 162a d43d d861 083e bd69 4e3e f0b6 143c
00000200: 1e01 ed3d c7dd 963e 69ca 45be 9ddd d4bd
00000210: 7ba6 0d3e d90d 97bc 6cb8 8abe c420 62be
00000220: 97ad 2ebe 3e02 df3c 2d0a 96be bfe6 76be
00000230: 0a69 aebe 744f 69be 6f03 933e 0088 d9bd
00000240: 1f6a 113e d023 3ebe 0417 323e c458 5f3e
00000250: 6f4b 963e d10c 90bd 46d8 9d3e eb5b 803d
00000260: c1fc 16bd 0663 9bbe 282d cc3d bd2d 55be
00000270: d566 9f3d c371 633e 5864 66be 199c 333d
00000280: 22d3 303e 81bf 6e3e 9be6 42be 4e63 99be
00000290: 840b 2fbe 341a 80be c584 e4bc 8a72 9fbd
000002a0: c205 1fbe 4cc8 4c3d 377b a13e 87bf 623e
000002b0: 7e5c 2fbe 6277 943d 7af7 cc3a cc0b 1dbe
000002c0: 1031 0bbe 2318 f53d 2274 733e f4a5 943e
000002d0: 9cac 5dbd 74b0 8b3e fafb 07be 636f 93be
000002e0: 2f1f 803d 39ee 95be 74d2 63be a2e4 7a3e
000002f0: dfba a7be 345b 603e 028e 313e 860f 2d3e
00000300: 8437 27be eb1d 94be 418a 3f3d a618 243e
00000310: 24bb a53e 30d0 6f3d a9da 12bc 0be4 85be
00000320: cb9d 753e 10c3 58bd 3670 243d ad90 8fbd
00000330: 0d5a 1cbe 6034 26bc 381f 873e 38b5 6abe
00000340: 9678 983d e862 033e 7239 90be 7909 3cbe
00000350: 1b02 953e 642b 2f3e 4e3e 05bd 0cdf 08be
00000360: e219 7dbe 5b7e 313e 1c18 7e3e 9e94 363e
00000370: 0416 1abe 3ccd 08bd ecb1 103e 88fc 64bd
00000380: 35f1 353e 0ff9 a4bc 8526 983e 2dda b9bd
00000390: a053 ab3b 7bfa 9f3e b371 8b3a da1e 393d
000003a0: 2e9b 29be 842c 60be 230e d43d 8bfd 903e
000003b0: 15bf 0fbd cb22 3d3e 5f51 9ebe 2c3f 973d
000003c0: 7ddc 3c3e b98f 7d3e 1aaa 8c3e 9b61 583e
000003d0: b5d5 f3bd 9713 40be efe7 653d 0629 a3be
000003e0: 7322 673d 47ff 76bd a08c 8f3e 0af8 5fbe
000003f0: 72e4 73be 272f 5f3e 8355 703e a1aa 7dbe
-0.2771365 -0.23722412 0.018681245 -0.1977208 0.1973903 -0.048293352 -0.13571286 0.0758272
-0.097039446 0.087408625 0.15893611 -0.123246305 -0.26000035 0.05801272 -0.27285784 0.23133026
0.16923817 -0.079972096 -0.21485561 0.22337106 -0.26513374 0.021632519 0.27867123 -0.11839307
-0.08111852 -0.05589622 0.14013661 0.1948275 0.25617296 0.08405227 0.23613183 -0.0055246227
0.24297427 -0.23605914 0.23663633 -0.25294816 0.21673405 -0.12956387 -0.06563008 0.26393265
-0.16177268 -0.29104805 -0.09419221 0.2625556 -0.07772927 0.2938441 0.22759901 0.022329703
0.08289609 0.286308 -0.1778839 0.019780967 -0.0011649601 -0.29639423 0.00018717808 -0.11010069
-0.16626795 0.15751578 0.2642667 0.019052649 0.23734792 0.25094116 -0.16640605 -0.12562844
0.07864399 0.1100671 -0.2743729 -0.08360985 0.11440998 0.19000523 0.046976957 0.23577595
0.14316052 0.046355456 0.06089631 0.028146291 -0.28312242 0.080385394 -0.2722976 0.08454416
-0.025787368 -0.19083385 -0.16443893 0.19034033 0.19663344 0.27837208 -0.3078072 0.035031807
0.023621263 0.19816202 -0.2278808 -0.19213182 0.21575364 -0.08986326 0.0032420112 -0.089541204
0.2447127 -0.09952172 -0.04850893 -0.22618707 -0.27092218 0.0849756 -0.045547247 0.24786462
0.21081007 0.04567104 -0.17516553 0.14050102 -0.15939589 0.002135819 -0.15598927 -0.19906941
-0.116801485 -0.110410765 0.16766225 -0.11007341 -0.13209489 -0.10821036 -0.21248257 0.063690245
0.14723642 0.28857854 -0.018142277 0.23864558 0.1035959 0.13318574 0.20157523 0.009076819
0.11572479 0.29466078 -0.19315495 -0.10393832 0.13833039 -0.01843922 -0.27093828 -0.22082812
-0.17058407 0.027222749 -0.29304639 -0.2411146 -0.34064513 -0.22784215 0.28713557 -0.10621643
0.14200638 -0.18568349 0.17391592 0.21811205 0.29354426 -0.070336945 0.30829066 0.06267532
-0.03686214 -0.30348986 0.0996955 -0.20818229 0.077832855 0.22211365 -0.22499216 0.04385004
0.17268041 0.2331524 -0.19033282 -0.29958576 -0.17094237 -0.2501999 -0.02789534 -0.077855185
-0.1552954 0.049995705 0.31539318 0.22143374 -0.17125127 0.07249333 0.0015637719 -0.15336531
-0.13592935 0.11967494 0.2377477 0.29032862 -0.05411969 0.2728306 -0.13279715 -0.2879592
0.06255948 -0.29283312 -0.2224825 0.24501279 -0.3275976 0.21909791 0.17339328 0.16900453
-0.16329771 -0.28929076 0.04676271 0.16025028 0.3236934 0.058548152 -0.008963265 -0.26150545
0.23985974 -0.0529204 0.040146075 -0.070100166 -0.15268727 -0.010144323 0.26391006 -0.22920692
0.07444875 0.12830698 -0.28168827 -0.18362989 0.2910317 0.17106396 -0.03253012 -0.13366336
-0.24716905 0.17333357 0.24813884 0.1783013 -0.15047461 -0.03339885 0.14130372 -0.055904895
0.17767794 -0.020138292 0.29716888 -0.09074817 0.0052284747 0.3124579 0.0010638743 0.045195438
-0.16563103 -0.21891981 0.10354259 0.28318438 -0.03509434 0.18470304 -0.30921456 0.07385096
0.18443485 0.24761857 0.27473527 0.21130984 -0.11905996 -0.18757473 0.056129392 -0.31867236
0.056429338 -0.060302045 0.28036976 -0.21871963 -0.23817614 0.21795331 0.2347012 -0.24772121

layers.0.bias f4 [256]
00000000: 9d1e 9d3e 46ce 953e ea4f 663d 693e 6b3d
00000010: 3552 933e a9ef 233e b28c ecbd 1e00 c2bd
00000020: b185 063e 8d5f d8bd d978 ebbc 95da 013e
00000030: 1f7c 4d3e 93a5 60be 293e b8bb 81d0 683e
00000040: b522 573e c6ee 823e 82f7 6cbd c108 c0b8
00000050: 235b 913e 445b dd3d 88f5 273e 794f 62be
00000060: b40c 5cbe 5f71 a03e 07ec 41bd b05c debb
00000070: 09f6 e8bd b5f8 82be 8c62 3b3e 9fd5 bdbd
00000080: 459d 19be 072e 7fbe b1a5 063c 579e 283e
00000090: e339 943d b786 623e 95d5 323e 0f2a 303e
000000a0: 863f 3fbe 48e1 11be 6860 5dbd cd67 363e
000000b0: 0f42 aebd 4590 e83d b111 653e 0cd9 53be
000000c0: fe77 513e 0527 9b3e 5dc0 9c3e 84e5 673e
000000d0: 3ff9 d0bd efb2 833e e53a 9dbe 3234 55bd
000000e0: bc84 95bd 7e3e 293e 6639 b33c 93ad 8cbe
000000f0: 9ab2 8c3d eb72 9c3e 7479 2b3e 2b31 9e3b
00000100: abf0 9c3e 94de b7bd d155 813e 166f 9fbe
00000110: 6243 283e 40bf 903e 487a 8d3e 82b9 583e
00000120: a44c 2b3e 0da0 6ebe 5a7e 96bd 287f 7b3e
00000130: 501f 96be caf1 8dbe 6499 32bd 9635 7bbe
00000140: 104d 54be 31e2 86be d7b2 5a3e 5817 833e
00000150: 0334 103e cdeb 9a3e c96f 833c bf76 fb3b
00000160: 381e 403e 8a61 0fbc ac87 9cbe 9546 05bd
00000170: 80cd 2abe de95 173e d07a 993e e606 8b3e
00000180: 4d5a ab3d 6ad4 813e 5df1 38be 2c54 80be
00000190: 12fc 7abe 7738 303e 9fe9 a0bd 4cd3 113e
000001a0: 9096 043d 5c7a b7bd e197 563d 38df 06be
000001b0: a21e 44be fea2 553e 5d17 883e 2716 48bd
000001c0: a409 463e bb30 4ebe b5d3 a13e 56cd 813e
000001d0: d0ef 3f3e 4109 873d ccbd 503e 86e1 89be
000001e0: f6c6 97be a8db 9d3e f016 4dbe ca61 ddbd
000001f0: 31ea 7bbd f070 77bd 9771 aa3b 4ab4 69be
00000200: 902d 19be f575 903e 4fa5 543e d550 a3b9
00000210: ab5d e8bd f6d6 093e 6f6d 4cbe b3a2 733d
00000220: ea81 a03e 0f33 17be a477 363e 178f d8bd
00000230: 5331 f8bd 187b b93d 3967 d9bd 04d3 63be
00000240: cf67 90bd c139 25bd a52e 013e db2c 633e
00000250: 06e1 10bc e2d5 c73c e329 803a 50ad f2bd
00000260: d457 92be 0d1f 003e 7ae0 783d 3467 61bc
00000270: da37 f53d 41ee d5bc abf7 08be 75b9 e73c
00000280: 551a 51bb 063f 8c3e 9740 533e 46a3 1c3e
00000290: 129c 633e 46fb 4f3e 8211 e2bd ea0a 16be
000002a0: 1029 76be 9ae5 51be f551 3ebe c820 183d
000002b0: 9781 903e 9765 d83d 037c 19be cc27 a0be
000002c0: dad0 09be ae40 4f3e 7c9c 46be 88ef 16be
000002d0: ffee 75be db46 3d3e e18a 283d ce11 98be
000002e0: 7d10 813c 36fc 9c3e 9c2d 2dbe c30f 3fbd
000002f0: 5645 cb3d f4ad 42be 0467 173e ab46 0d3e
00000300: 38fb b73c b430 79be ff56 3c3e 38e5 643e
00000310: d078 78be 882b 843e 8fab e53d 70dd 99be
00000320: 7d66 9dbd d55a 243e 9774 ea3d 7d63 d23d
00000330: 8f02 643e 0711 66bd 0acb 3dbe d2c7 963e
00000340: 622c 543e 1423 bdbd 8636 9fbe 6ef0 34be
00000350: a36f 8dbe a0c1 0c3e fecd 6d3e a967 32bd
00000360: d8d0 9cbc 6087 9c3d 7ce4 85be 01b8 7bbe
00000370: 3387 8a3c 43fc 91be eb65 533e 330c b33c
00000380: d172 823e f07f 4f3e 79d3 f83b 84a1 853d
00000390: 8ff2 41be 1309 87bc 2eec 3abe 4407 90be
000003a0: 489a a0bc 2966 11be d78e 893e 1e3f 03be
000003b0: a193 8a3e 51df 013e 3bec b8bc feab 33be
000003c0: 4a90 923e c93d 3b3e 01ea 81be 9d6b 7abe
000003d0: 0267 4d3e df43 b83d 44ba 2a3b 0b2b 0cbe
000003e0: b159 2f3d fce0 52bd 0b6e 1abe 4b1f 8e3e
000003f0: 12bd 70be 405b 193e 9c7d 8c3d f7b0 1a3c
0.3068742 0.29258937 0.056228556 0.057432566 0.28773656 0.16009392 -0.11550273 -0.094726786
0.13136937 -0.105651 -0.028744148 0.12681039 0.2006688 -0.21938162 -0.0056226444 0.22735788
0.21009333 0.25572795 -0.05785323 -9.156904e-05 0.28389844 0.10808423 0.16402256 -0.22100629
-0.21489221 0.31336495 -0.047344234 -0.0067859516 -0.113750525 -0.25580373 0.18299311 -0.092692606
-0.150014 -0.24919902 0.008218215 0.16466652 0.072376035 0.22121702 0.17464288 0.17203544
-0.18676576 -0.14246094 -0.05404702 0.17813034 -0.085086934 0.11355642 0.2237003 -0.20688266
0.2045593 0.30303207 0.30615512 0.22646147 -0.1020379 0.25722453 -0.30708995 -0.05205173
-0.07300708 0.16527745 0.021877956 -0.27476177 0.06870003 0.30556425 0.1674555 0.0048276386
0.30652365 -0.08978 0.25260785 -0.3113944 0.16431955 0.28270912 0.27632356 0.21164516
0.16728455 -0.23303242 -0.073483184 0.24560225 -0.29320765 -0.27723533 -0.043603316 -0.2453216
-0.20732522 -0.26344445 0.21357284 0.25603747 0.14082341 0.30258027 0.016044514 0.0076740677
0.18761528 -0.0087512825 -0.3057226 -0.032538015 -0.16679955 0.14803264 0.2997651 0.271537
0.08366833 0.25357372 -0.18060823 -0.25064218 -0.2451022 0.1720904 -0.0785706 0.1424076
0.03237015 -0.08958885 0.052390937 -0.13171089 -0.1915231 0.20862958 0.26580325 -0.04884925
0.19339615 -0.20135777 0.31606832 0.2535197 0.18743825 0.06593562 0.20384902 -0.26929873
-0.29643983 0.30831647 -0.20028281 -0.108096674 -0.06150264 -0.06041044 0.0052015292 -0.22822681
-0.14958787 0.28214994 0.20766185 -0.00031150007 -0.11345991 0.13460907 -0.1996362 0.059481334
0.31349117 -0.14765571 0.17819077 -0.10574167 -0.12118783 0.090566814 -0.10615391 -0.22248465
-0.0705105 -0.04033828 0.1261545 0.2218508 -0.008842712 0.02439398 0.0009778108 -0.11849463
-0.28582633 0.12511845 0.060760953 -0.013757516 0.119735435 -0.026114585 -0.13375728 0.028286675
-0.0031906564 0.27391833 0.20630108 0.15296659 0.22227505 0.20310697 -0.110384956 -0.14652601
-0.24039102 -0.20497742 -0.18585952 0.037140638 0.2822387 0.10566252 -0.14988713 -0.31280363
-0.13458577 0.20239517 -0.19395632 -0.14739811 -0.24016951 0.1848406 0.04114807 -0.29701084
0.015754933 0.30661172 -0.1691193 -0.04664589 0.09925334 -0.1901167 0.14785391 0.13796489
0.022458658 -0.24334985 0.18392561 0.22353065 -0.24264836 0.25814462 0.11214363 -0.30051756
-0.07685564 0.16050275 0.11448019 0.10272882 0.22266601 -0.056168582 -0.18534485 0.29449326
0.20720056 -0.09235206 -0.31096286 -0.17669842 -0.27624235 0.13745737 0.23223111 -0.04355589
-0.019142553 0.07643008 -0.26150882 -0.2458191 0.016910171 -0.28512773 0.20644347 0.021856403
0.25478223 0.20263648 0.007593569 0.06524947 -0.18940185 -0.01648382 -0.18254158 -0.28130543
-0.019604817 -0.14199127 0.2686679 -0.12817046 0.27065757 0.12682845 -0.022573581 -0.17546079
0.2862571 0.18285288 -0.25373843 -0.24455114 0.20058826 0.089973204 0.0026050964 -0.13688295
0.042810146 -0.051484093 -0.1508104 0.2775825 -0.23509625 0.14976215 0.068598956 0.009441606

layers.1.weight f4 [256]
00000000: 7e68 823f e3e2 7e3f 3646 7e3f 411c 7e3f
00000010: 9dad 7d3f ff1d 803f b23d 7f3f aa12 7e3f
00000020: 0598 7d3f 843c 7e3f 3031 823f fdb9 7d3f
00000030: 308b 7d3f 7a4b 803f 0d1d 813f 5f94 803f
00000040: da03 7f3f 3eda 7f3f f401 803f 66e1 7d3f
00000050: b74f 803f 23dc 803f c875 803f c45e 7d3f
00000060: bf27 7f3f db0d 7f3f 2a58 7e3f 2b2a 823f
00000070: d507 803f 9a47 7f3f 2c24 7f3f fc1b 7f3f
00000080: fff9 7e3f 026c 7a3f 94e6 7f3f 0a28 7e3f
00000090: 7dd1 7e3f 663d 7f3f 9d68 803f 11f6 823f
000000a0: f890 803f 8294 7f3f 9027 7e3f ebec 803f
000000b0: e8fe 7e3f 960f 803f 6d58 813f 69fa 7e3f
000000c0: dcb5 7f3f 1ef3 7d3f cd4b 7f3f 63ce 7e3f
000000d0: 9979 7e3f 4568 813f 577a 7c3f d695 7f3f
000000e0: 700f 823f 242a 813f 05b8 813f 5d0b 7d3f
000000f0: d39d 803f 82ae 803f 3109 7f3f 8b2f 803f
00000100: 4427 7d3f 1df6 823f 7ef7 803f 35d5 7f3f
00000110: 411d 803f 94b7 7c3f fe3c 7b3f 52ec 7d3f
00000120: 4252 7e3f c32c 813f c408 7f3f c6a6 803f
00000130: 3a43 803f 7821 7d3f 5161 813f c76b 7d3f
00000140: f91c 803f b03c 7f3f 3f46 7d3f c73e 813f
00000150: f0f8 7f3f 38e2 7f3f 555e 7f3f d04f 803f
00000160: 58a3 7e3f 64e4 813f c1f8 823f d00a 823f
00000170: d1ad 7e3f a62d 803f c585 7f3f 4bcc 7c3f
00000180: a921 7f3f 429d 7e3f 8871 813f 9335 7d3f
00000190: 9e5b 803f 0bd8 7d3f ed35 813f d989 7d3f
000001a0: 0c62 823f 96cd 7d3f 5519 7e3f beb3 813f
000001b0: 9a40 7e3f 2554 7e3f 9505 7e3f 3d76 823f
000001c0: f0c5 7e3f 89b9 7f3f da8d 7f3f 5bdb 7f3f
000001d0: a046 7f3f 6f80 803f ad22 7e3f b6a2 7e3f
000001e0: 2e03 813f 7a20 7c3f 269d 803f d315 7e3f
000001f0: f03a 803f 231f 7f3f cfd2 7f3f 0b1b 7e3f
00000200: d1e7 7e3f 1d5f 823f c702 803f f17d 7c3f
00000210: e800 823f 3245 7f3f 4266 7f3f 5f3f 7f3f
00000220: 74a3 7f3f d8ce 7c3f 8344 803f 8bb3 7e3f
00000230: bad2 813f 2ed5 7e3f c657 813f 2266 7f3f
00000240: 6c56 7c3f d97e 803f b97b 803f 45f9 7c3f
00000250: 4af2 7e3f cd98 7f3f ebe1 7e3f d8e3 803f
00000260: bffe 7e3f 859e 813f 28d3 7d3f 3ff1 813f
00000270: 3378 823f 1440 7e3f bf47 803f c3dd 7e3f
00000280: 7c69 7b3f 55ac 813f 228f 803f 8987 803f
00000290: 3b3a 7e3f 1a2a 803f c559 813f 206c 7d3f
000002a0: c882 7c3f f7ca 803f f7ca 803f 6184 813f
000002b0: b715 7e3f 4a0e 7f3f ac68 7e3f 3180 803f
000002c0: 4b21 803f 68f0 803f a962 7e3f 983d 7c3f
000002d0: bba6 7c3f c833 7b3f bc0f 7e3f 286d 823f
000002e0: ea4a 7d3f bf5d 7c3f 7410 7e3f 210d 823f
000002f0: 680b 803f f9fe 803f 483e 803f 7be3 803f
00000300: 018c 803f bd6a 7c3f 7b81 7f3f f0c5 7c3f
00000310: d992 823f 3e68 7f3f 1de0 7e3f 6bf1 7e3f
00000320: c124 803f dd17 803f 17e1 7f3f 3592 7f3f
00000330: 16ba 7f3f 363f 803f 91db 7d3f b767 7f3f
00000340: f98e 803f b703 7f3f fb87 803f c090 7f3f
00000350: c33a 813f 241b 803f c6a9 803f 5c5c 813f
00000360: c974 813f 2a57 7e3f 4058 823f 9129 803f
00000370: b811 7f3f f34a 823f d407 7e3f ffad 803f
00000380: f2d2 7f3f fb1a 7d3f 0d73 803f 9adc 803f
00000390: 4a01 7d3f 3dd3 803f 11d0 7e3f 7f7d 7f3f
000003a0: 89b7 7d3f 6bbe 7d3f 9713 813f 0907 7f3f
000003b0: 6190 7f3f f4b3 7d3f cd95 7e3f 1472 7d3f
000003c0: 0a31 823f 276c 813f 6a7c 803f 4d8d 7f3f
000003d0: 3ef6 7f3f 2d2a 7e3f fde2 7b3f d4ee 7f3f
000003e0: 8bfe 7d3f 7670 7e3f fd54 7f3f 15e9 803f
000003f0: e6be 803f 8b94 813f 4985 7e3f 182f 803f
1.0188138 0.9956495 0.99325883 0.9926186 0.9909304 1.0009154 0.99703515 0.9924723
0.9906009 0.9931109 1.0171261 0.9911192 0.9904051 1.0023034 1.008699 1.0045279
0.9961525 0.99942386 1.0000596 0.99172056 1.0024327 1.006718 1.0035944 0.98972726
0.9967002 0.99630517 0.9935328 1.0169119 1.000239 0.9971863 0.9966457 0.99652076
0.99600214 0.97821057 0.9996121 0.99279845 0.99538404 0.9970306 1.0031925 1.0231344
1.0044241 0.9983598 0.9927912 1.0072302 0.99607706 1.0004756 1.010511 0.99600846
0.9988687 0.9919909 0.9972504 0.9953367 0.99404293 1.0109946 0.98624176 0.99838006
1.0160961 1.0090985 1.0134283 0.98845464 1.0048164 1.0053256 0.996234 1.0014509
0.9888804 1.0231358 1.0075529 0.99934703 1.0008928 0.9871762 0.9813994 0.9918872
0.99344265 1.0091785 0.9962275 1.0050895 1.0020516 0.98879194 1.0107824 0.9899258
1.0008842 0.99701977 0.9893531 1.0097283 0.99989223 0.9995456 0.99753314 1.0024357
0.9946799 1.0147824 1.0232164 1.015955 0.9948397 1.0013931 0.9981349 0.98749226
0.99660736 0.99458706 1.0112772 0.9890987 1.0027959 0.9915778 1.0094582 0.99038464
1.0186172 0.99141824 0.99257404 1.0132978 0.99317324 0.99347144 0.9922727 1.0192333
0.9952078 0.9989248 0.99825823 0.99944085 0.9971714 1.0039195 0.9927166 0.9946703
1.0079095 0.98487055 1.0047958 0.9925205 1.0017986 0.99656886 0.99931043 0.99260014
0.99572474 1.0185276 1.0000848 0.9862967 1.0156527 0.9971496 0.9976541 0.9970607
0.99858785 0.9875312 1.0020908 0.9949271 1.0142434 0.99544036 1.0104911 0.9976522
0.9856937 1.0038711 1.0037757 0.98817855 0.99588454 0.9984253 0.99563473 1.0069532
0.9960746 1.0126501 0.99150324 1.0151747 1.0192932 0.99316525 1.0021895 0.9955713
0.9820783 1.0130717 1.0043681 1.0041362 0.993076 1.0012848 1.010552 0.9899311
0.98637056 1.006194 1.006194 1.0118524 0.99251884 0.9963118 0.99378467 1.0039121
1.001016 1.0073366 0.99369293 0.98531485 0.9869191 0.98125887 0.9924276 1.0189562
0.98942435 0.98580545 0.99243855 1.0160257 1.0003481 1.0077811 1.0019007 1.0069422
1.0042726 0.9860037 0.99806947 0.9873953 1.0201064 0.99768436 0.9956072 0.99587125
1.0011216 1.0007282 0.99952835 0.9983247 0.9989332 1.001929 0.99163157 0.9976763
1.0043632 0.99615043 1.0041498 0.99830246 1.0096058 1.0008283 1.0051811 1.0106311
1.0113765 0.9935175 1.0183182 1.0012685 0.9963641 1.0179123 0.99230695 1.0053099
0.9993125 0.98869294 1.0035111 1.0067322 0.9883009 1.0064465 0.99536234 0.99800867
0.9910818 0.9911868 1.0084103 0.9962011 0.9982968 0.9910271 0.9944733 0.99002194
1.0171216 1.011113 1.0037968 0.9982498 0.9998511 0.99283105 0.9839323 0.999738
0.99216527 0.9939035 0.99739057 1.0071131 1.0058258 1.0123457 0.99422127 1.0014372

layers.1.bias f4 [256]
00000000: 2cac dbbb e8d4 b9bb 8513 a7ba da07 b3b9
00000010: f791 fc39 bee5 a53b 41d1 e0bb 6ef5 7abc
00000020: 3c89 b9bb bbd6 abbb 7727 b53c 0051 6dbc
00000030: c76b 4bbc 7580 e8bb cd2b 54bb 9e6c 793c
00000040: 1484 a3bb 66ec ac3b 0544 02bc e978 98bb
00000050: e568 e33b a10b afbb b617 07bb 2485 a7bb
00000060: e312 5ebb 5ad0 ddbb d23e 1abc a6d7 753c
00000070: 1eb0 1c3b 381f 8fb9 f000 23b9 1488 dfbb
00000080: 053b 06bc 06fa 9cbc 0b83 b63b 3c63 a4bb
00000090: fba4 d7bb 29c0 28bb de7d 93bb 7e77 5a3c
000000a0: 8a1d 6b3a e39a 26bc 5ae2 4fbc 8666 733c
000000b0: db65 313b 4861 7dba 2977 3d3c 3f01 9fbb
000000c0: 4318 2c3c de0a 00bc bbd1 fc3b 75e2 3abc
000000d0: 96d2 93ba c973 483c dd5b bbbc cd72 41bb
000000e0: 74f8 653c 4f1b 8d3b 7862 803c 79b5 60bc
000000f0: a2d6 343c a693 c0bb 1b69 c9ba a8ad 8f3b
00000100: 8154 063b 6e5a 183d 2d7e 163c 32c5 e6ba
00000110: 8420 293b 2aae 56bc 2dcc 6abc 25b1 20bc
00000120: 9ad8 90bb 2e0c 013c 4d80 863a 6b46 5f3b
00000130: dfd2 09bc fbe9 20bc b968 063c 8284 08bc
00000140: 36f6 87bb 5556 89bb 78d7 4fbc addd 6f3b
00000150: 9cd5 2d3a 74e5 3cbb 5171 5b3b a9c5 353b
00000160: 0156 3ebc d396 c33c 34da a03c 6345 893c
00000170: abb5 09bc be6e d33b a56a bebb e706 8dbc
00000180: fdff 833b 7edc 213b 63ea 8a3c f6fe 3dbc
00000190: 3369 a8bb c43b 28bc dcfa 43ba 137f b9ba
000001a0: e7ab 3f3c 26cd 3dbc 2015 70bb 774d 5f3c
000001b0: 454a f2ba 0888 d5bb 64b3 8839 633d f4ba
000001c0: bc8a b4bb 0ca8 673c 4de9 a13b 1b98 d63b
000001d0: a1b1 ed3b 4222 663c 0f10 8bbc 365d b8bb
000001e0: 4b57 2b3c a5dc 56bc ed53 a3ba 5804 02bc
000001f0: 3297 403a 26eb dd3a 489f 0d3a 4fe7 12bc
00000200: 7699 d8bb addd 393c e8d7 823b d35e 24bc
00000210: 7193 523c 08fd 8dbb 17d7 c03b 1c46 afbb
00000220: 84cf 303c b8f0 02bc cbff ac3b 3828 e13a
00000230: 24cb ac3c 0390 7dbb 19a0 0f3c b4d5 4c3b
00000240: fc7d 23bc b586 203c 03ff 05bc 23c1 4fbc
00000250: ab03 b03b 44fd 3c3c dc7d 6fbb aefc 913b
00000260: d4dd 01bc d6a5 823c dc0c aabc f366 88ba
00000270: 84f0 b13a 4b32 d6ba 2c9a c4ba c913 4bba
00000280: 689b adbc 12fc 3e3c 0914 df3a 93e0 1a3b
00000290: 381e 36bb c934 bd3b e3b3 813c de3c 2fbc
000002a0: 7251 40bc f452 1f3c f32c 153c 7f79 b53c
000002b0: 59ce 0cbc edcd a6bb 5fec f0bb dcbc 1338
000002c0: 22f3 233c cd09 ce3b 63f9 e3ba 7d8f aebc
000002d0: 927b 49bc 89c6 9fbc 3d28 bfbb 03f7 863c
000002e0: 4f03 7239 9040 13bc 5fab 18bc 3bc7 073a
000002f0: 8b14 f8bb 6f42 d43b 2a99 a93b c9a4 fb3b
00000300: e4bd 943c 1dab 61bc 04fb aabb 7887 3cbc
00000310: 3eca 453a edee 903b fea9 2ebc a80a 6bbb
00000320: 1a4b b5bb b434 daba 0d93 2c3c 8f4a c93b
00000330: 3ae5 d4bb e80f ef3b 877c 78bb 2416 9bba
00000340: 6192 9b3c 342e ecba 1188 4e3c d658 683b
00000350: d9cc 5bbb 98a6 bd3b b855 4f3c a3b8 2c3c
00000360: e6d7 7a3c 7f14 103b a741 b83c d52d ba3b
00000370: 071e a7bb 81ec 9b3c ac08 1dbc e538 273b
00000380: 65b5 79bb ddbf 40bc 0e14 b63b e9da 213c
00000390: 7047 cebb ee1a ea3b 6d33 79bc 716b 43b9
000003a0: bb8f 4ebc 91bd 12bc 42ad 1e3c 9bb6 e4bb
000003b0: 89e2 0ebb 6644 2abc 7e21 97bb 4e41 2fbc
000003c0: 0ac4 2f3b cfda 003a 17ee 2ebb 2f0b 66bb
000003d0: 3d53 703a 0817 4fbc e289 4fbc 2e14 033c
000003e0: 2d39 87bb 377b aebb fc5f 8abb 8f53 a03c
000003f0: eb20 29bb 3273 483c f334 ddbb bb5a 2fbb
-0.006703874 -0.0056711324 -0.0012746906 -0.0003414739 0.00048173938 0.005062788 -0.0068608825 -0.015317304
-0.0056621116 -0.0052441037 0.022113545 -0.014484644 -0.012415833 -0.0070953914 -0.003237474 0.01522365
-0.00499011 0.0052772043 -0.007950787 -0.0046530855 0.0069399946 -0.0053419624 -0.0020613498 -0.005112307
-0.003388577 -0.006769222 -0.009414392 0.015005028 0.0023908685 -0.00027298345 -0.0001554524 -0.0068216417
-0.008192782 -0.01916219 0.0055698208 -0.0050167125 -0.0065809465 -0.0025749302 -0.0045010885 0.013334153
0.000896894 -0.010168764 -0.012688244 0.014855986 0.0027068767 -0.000966568 0.0115640545 -0.0048524435
0.010503831 -0.007815091 0.0077154315 -0.011406531 -0.001127797 0.012234637 -0.022870952 -0.002951789
0.014036287 0.004306234 0.015671954 -0.013715141 0.011037501 -0.005876976 -0.0015366407 0.004384715
0.0020497146 0.037195615 0.009185356 -0.0017606376 0.0025806734 -0.013103047 -0.014330906 -0.00980786
-0.004420352 0.007876439 0.0010261625 0.0034069072 -0.008412092 -0.00982141 0.008203679 -0.008332374
-0.0041492237 -0.0041912 -0.012685649 0.0036600635 0.00066312565 -0.0028823288 0.003348429 0.0027736223
-0.011617185 0.02387563 0.019635297 0.016756719 -0.008405129 0.0064524105 -0.005811053 -0.017215205
0.004028319 0.0024698074 0.016957467 -0.011596432 -0.005139494 -0.0102681555 -0.00074760406 -0.0014152251
0.0116987 -0.011584556 -0.0036633685 0.013629309 -0.0018485269 -0.0065164603 0.00026073598 -0.0018634017
-0.0055097025 0.014139187 0.0049411417 0.006548894 0.007253841 0.014046254 -0.01697543 -0.005626346
0.010457824 -0.013114129 -0.0012460925 -0.007935606 0.00073467486 0.0016931042 0.0005402458 -0.008966281
-0.006610091 0.0113443555 0.003993023 -0.0100323735 0.012852536 -0.004333142 0.0058850157 -0.005348934
0.010791663 -0.007991962 0.0052795163 0.0017178124 0.021092959 -0.0038690574 0.008766198 0.0031255307
-0.0099787675 0.009797742 -0.008178475 -0.012680325 0.005371531 0.011534993 -0.0036543524 0.0044551706
-0.007926423 0.015948217 -0.020758085 -0.0010406658 0.0013575708 -0.0016341893 -0.001499956 -0.00077467837
-0.021192268 0.011656778 0.0017019521 0.0023632392 -0.0027789008 0.0057741147 0.015832847 -0.010695664
-0.011738168 0.009724367 0.009104955 0.02215266 -0.008594119 -0.0050904662 -0.0073523964 3.522342e-05
0.010006698 0.0062877894 -0.0017393049 -0.021308655 -0.012297528 -0.019503849 -0.005833654 0.016475206
0.00023080151 -0.008987561 -0.009318202 0.0005179529 -0.0075708083 0.006477646 0.0051757293 0.007679556
0.018156953 -0.013773707 -0.0052179117 -0.011506908 0.000754509 0.0044230134 -0.0106606465 -0.0035864506
-0.0055326344 -0.0016647787 0.0105331065 0.0061429213 -0.0064970525 0.0072955973 -0.003791602 -0.001183216
0.018990697 -0.0018019141 0.012605683 0.003545334 -0.0033538847 0.005787682 0.012654714 0.010542068
0.015310263 0.0021984873 0.022492243 0.005681733 -0.005100015 0.019033672 -0.009584587 0.002551609
-0.0038102504 -0.011764494 0.00555659 0.009878852 -0.006295137 0.0071443236 -0.015210015 -0.00018636674
-0.01260751 -0.008956329 0.009684863 -0.006979776 -0.0021802506 -0.010392284 -0.004612147 -0.010696722
0.002681973 0.00049154175 -0.0026692206 -0.003510188 0.0009167677 -0.012639768 -0.012667151 0.008000417
-0.004126689 -0.005324747 -0.004222868 0.019571094 -0.0025806974 0.012234496 -0.006750697 -0.002675696

layers.1.running_mean f4 [256]
00000000: d1e0 313e eb72 9d3e 3214 08bc 007e 3c3e
00000010: c44e 693e 8fe5 a93d 5996 1bbd 763d dabd
00000020: 43e5 bc3d 7394 14be 7e94 24be f20d 103d
00000030: d477 913e 9227 a6be f162 b6bd 11e5 933e
00000040: a982 6d3e c8d9 b43e a41d 33be be88 813d
00000050: c085 d33e ff65 b03c 39fa 153e ea9b 94be
00000060: 03dc 83bd 117c ba3e 4ee7 22bd 4bfe f23d
00000070: 4bfd 89bd 2e33 58be e603 a53e 7747 f6bd
00000080: 57de 20be 0852 6fbe 8602 2a3e 71d8 9e3e
00000090: 28fc 6f3d 28f0 823e 74ec 593d c52b 8b3d
000000a0: e7b1 89be 292d 3abe e51c 86bc 0762 a23d
000000b0: 834d 1bbe 16b0 d23d 341c d73e e9c9 8bbe
000000c0: b4f7 ad3e d63d db3e e300 853e 4487 933e
000000d0: c9e5 d7bd 7712 bf3e 513b b3be 6d94 2fbd
000000e0: bf19 b53d 0ca6 ba3d a75f f1bd b07a a9be
000000f0: 7c61 303e 19a8 cc3e 6bc5 203e d554 963d
00000100: 7572 ba3e f9bd 5abe 5fd5 b13e b961 b8be
00000110: 412a 3c3e cba2 9e3e 0e45 503e 204e f03d
00000120: 5fb0 2d3e bf86 87be 69e1 17be be1e 503e
00000130: b216 bcbe 9e73 4abe 97c2 12be b076 9abe
00000140: 84a9 8dbe 0e30 9abe 8a16 7e3e b605 1a3e
00000150: 10d0 0b3e 39fa 693e 32a3 1b3d de64 0e3e
00000160: b506 2a3e 5b99 f63d 3c94 d3be 2100 d73d
00000170: 0a0c aabd 568d 6f3e 4350 8a3e 1212 cb3e
00000180: 3cd6 063e 4aa1 8e3e 6e81 66bd b874 49be
00000190: 2a33 a2be 1185 653e 2640 0abe 4b13 7b3e
000001a0: db84 b9bd 17b5 bebd fb42 bf3d 0c49 82be
000001b0: ff7e 9fbd 78ea 3e3e 8428 ae3e 9916 ddbd
000001c0: 1c5c cd3d 1eba d2bd a058 4c3e 9047 c33e
000001d0: 0481 883e 5039 473e 1c88 4b3e 2583 95be
000001e0: cda2 86be bc2e 8c3e e135 a2be 93ab f0bc
000001f0: efeb 97bd 7745 c3bd 8b7d 033d e705 a1be
00000200: 3dfa 19be 7e1d 4e3e 8c9f 8c3e a865 6f3d
00000210: a77f ea3c 8d02 613d 5ac9 03be b485 eabc
00000220: dfdf 883e 510c e1bd b239 9f3e 904d 04bd
00000230: cbbc 27bc b204 f43d 9d67 51be 1b0b 74be
00000240: f67e c9bd d493 6c3d 5b79 463d ecbf 683e
00000250: 6f15 06bd d679 d93d 767b c63a dbf7 72be
00000260: 752b 5abe 8f31 603e 9513 ddbc 163c 08be
00000270: 95f7 25bd 8a92 2c3d 59ed 27bd ff53 fc3d
00000280: 5d73 dfbb bbda d13e c485 8b3e 4054 703e
00000290: 05d6 953e 1bf4 893d 330d 11bc 2aac ecbd
000002a0: a851 92be c36b 39bd 5dce 84be 2172 e6bd
000002b0: 333a b03e c61c 9f3d e70b 1fbe 774a acbe
000002c0: 1a1f 4fbe 2ba5 8c3e 9ea3 98be eca7 01be
000002d0: 23d0 53be 24e5 0b3e a417 56bd 3006 cfbe
000002e0: d8a0 bf3d da28 8d3e 7d18 87be 426a 2dbe
000002f0: cb13 293c 9331 18be 8eb7 2d3d 7bbc 883e
00000300: 80e6 183e 52e1 5abe 5b0d 3a3e a929 8e3e
00000310: 7176 b2be b8b7 a83e 1934 053e a13f e2be
00000320: a28d 80bd cad9 493e 967d 4d3e 176e 2d3e
00000330: 7290 803e ac46 cdbd d18c 39be 7e17 b83e
00000340: 63d0 ad3e fd60 bbbd 3298 6cbe 08b3 68be
00000350: 3654 89be ebe7 0e3e fb79 a43e 0359 06be
00000360: e164 2bbe 23d0 8d3c 0b6d e7be 4443 7ebe
00000370: 147b d63c 61f2 aabe d008 963e 0532 b43d
00000380: df64 623e 7840 193e 597d 023e 01ac 5abc
00000390: 637a f8bd fa9b 1c3d 523d 72be 2898 41be
000003a0: 6083 7bbc a4e8 35be 38ef da3e ec75 96bd
000003b0: 8148 a13e cb66 7f3e aee0 0fbe 5846 ebbd
000003c0: 7394 1d3e 66cc bb3d 651b 29be f2a5 65be
000003d0: 19ef 373e aa44 8c3c d6af 7f3d 0dab 8ebd
000003e0: 1a4a e73c bac9 87bd c100 4bbe 0df0 e43e
000003f0: 1af7 a2be e852 843e 3b76 993d 9fd8 c03d
0.17370917 0.30751738 -0.008305596 0.1840744 0.22783953 0.08295738 -0.03798518 -0.10656254
0.09223416 -0.14509754 -0.1607227 0.03516955 0.28411734 -0.32452065 -0.0890559 0.288857
0.23194374 0.35322404 -0.17491776 0.063249096 0.4131298 0.02153301 0.14646234 -0.29025203
-0.06438448 0.3642278 -0.03977137 0.11864909 -0.06737765 -0.21113274 0.32229537 -0.120253496
-0.15709816 -0.23371136 0.16602525 0.31024507 0.058590084 0.2557385 0.053204015 0.06795458
-0.2689354 -0.1818129 -0.0163712 0.079288535 -0.15166287 0.10287492 0.42013705 -0.27302483
0.33978045 0.42820615 0.2597724 0.28814137 -0.10541875 0.37318775 -0.35006192 -0.04286616
0.08842801 0.09113702 -0.11785822 -0.33101416 0.17224687 0.39971998 0.15700309 0.07340399
0.3641545 -0.21361531 0.34733102 -0.36012056 0.18375494 0.30983576 0.20338842 0.11733651
0.16961811 -0.2646999 -0.14832081 0.20324227 -0.36736065 -0.19770667 -0.14332043 -0.30168676
-0.27668393 -0.30114788 0.24813285 0.15041241 0.13653588 0.22849359 0.037997432 0.13905665
0.16604121 0.12040969 -0.4132403 0.104980715 -0.083030775 0.23393759 0.2701436 0.39662224
0.13167661 0.2785743 -0.056275778 -0.19673431 -0.3167966 0.22414042 -0.13501033 0.24519078
-0.09058543 -0.09311884 0.093389474 -0.25446355 -0.077878945 0.1864413 0.34015286 -0.10795326
0.10027334 -0.10289405 0.19955683 0.38140535 0.2666093 0.19455457 0.1987614 -0.29201618
-0.26296082 0.27379405 -0.3168173 -0.029378688 -0.07418048 -0.09534734 0.03210215 -0.31449816
-0.15036865 0.20128438 0.27465475 0.058446556 0.028625323 0.054934073 -0.12869778 -0.028628208
0.267333 -0.10988677 0.31098706 -0.032300532 -0.010237883 0.11914958 -0.20449682 -0.23832361
-0.09838669 0.057758167 0.048455577 0.22729462 -0.032735284 0.106189415 0.0015142995 -0.23727362
-0.2130564 0.21893905 -0.026986877 -0.13304171 -0.040519316 0.042131938 -0.040997837 0.123207085
-0.0068191723 0.4098719 0.27250493 0.23469639 0.29264846 0.067360125 -0.008853245 -0.11556275
-0.28577924 -0.045268785 -0.25938693 -0.11252237 0.34419402 0.0776916 -0.15531884 -0.33650562
-0.20226708 0.27469763 -0.2981233 -0.12661713 -0.20684867 0.13661629 -0.05226864 -0.40434408
0.093568504 0.2757023 -0.2638587 -0.16935065 0.01031966 -0.14862661 0.04241138 0.267063
0.14931679 -0.21375015 0.18169157 0.2776616 -0.3485599 0.32952666 0.13008155 -0.4418917
-0.06277014 0.19711986 0.20067438 0.16936527 0.25110203 -0.10023245 -0.18120123 0.35955423
0.3394805 -0.091493584 -0.23104933 -0.22724545 -0.2682206 0.13955657 0.32124314 -0.13119893
-0.16737701 0.017311161 -0.4520038 -0.24830347 0.026181735 -0.33388045 0.29303598 0.08798603
0.22108792 0.14965999 0.12743129 -0.013346673 -0.121327184 0.03823469 -0.23656204 -0.18905699
-0.015351146 -0.17764527 0.42760634 -0.073467106 0.3150063 0.24941556 -0.14050552 -0.114880264
0.1538866 0.09169845 -0.16514356 -0.22426584 0.17962302 0.017122585 0.06242355 -0.06966219
0.028233577 -0.06630273 -0.19824506 0.44714394 -0.3182915 0.25844502 0.07493254 0.09416317

layers.1.running_var f4 [256]
00000000: 4708 873e b7f1 1c3e 85d6 993e b8d1 633e
00000010: 1f6f dc3e 6aa2 9a3e 27c0 d13e 7169 643e
00000020: 5b2f f93e f7c0 b93e 77fb 683e 862c 073e
00000030: f805 0a3f dbe4 3e3f 75b5 ef3e 142f 6c3e
00000040: e078 aa3e 100f c73e a5e8 b03e 9b3e 6b3e
00000050: 3007 373e 4e34 b53e c255 5c3e 4ad6 9d3e
00000060: a1c4 273f fabc a83e 4bf3 513e 37b0 883e
00000070: a06f a73e 7e9b 293e 96e2 b93e 40db a93e
00000080: 9caf 433e 4a92 f73c 3b99 fd3e 3e5b 833e
00000090: 3f08 3b3e bf48 8a3e 3c65 a13e e6a2 433e
000000a0: 3cef 983e f80c 323e 3fb4 223e 9ae1 7b3e
000000b0: faad 6c3e 5d3c 633e 880e 1c3f 9ed3 473e
000000c0: 59c6 bf3e f48a a83e a27a 3d3f 725c aa3e
000000d0: 5a87 c23e 63d9 043f 34d1 2b3e 483b 853e
000000e0: 4513 a43e 7429 b03e 736b 1a3f 0006 343f
000000f0: 2b1e a83e b71b f03e ef01 903e a9c1 a73e
00000100: 9974 663e 9a6a 073e 6d8f 473e 8510 e73e
00000110: a569 8c3e 7fb1 9b3e b813 4a3e aaef ae3e
00000120: 77f6 c83e 398f a13e 8562 653e 3573 f03d
00000130: 073a 8d3e 5c07 503e d731 9c3e fca6 d23e
00000140: a8f5 c53e fd3b 603e b5af ec3d 4dd1 873e
00000150: e8cd 033e d9d5 993e ff8e be3e 8aaa c83e
00000160: b21d 863e f9c0 563e 4c43 223e 92a0 cf3e
00000170: 40e5 b03e 1982 d33d ae89 5f3e b9f9 a13e
00000180: 0a53 2a3e 3e7d 6d3e 691c 923e 52c1 513e
00000190: df96 163e 3784 083e 30d4 143e 1ffd 4b3e
000001a0: 1c86 aa3e 45aa 453e e477 263e e29c c83e
000001b0: ea2c d03e 154e ad3e 2624 453e 900d 433e
000001c0: dd54 043f a89f 623e 8aeb 573e c062 9b3e
000001d0: 2a6c 9e3e 4b07 0a3f 5cb3 0a3f aa01 a23e
000001e0: 5ba0 813e 3a53 1c3e 062e 573e 2cdd a03e
000001f0: 043e 5a3e 6e77 3e3e 5440 653e 63f7 8a3e
00000200: a226 613e 640e a13e 6b02 a63e 20ad b73e
00000210: d3de 973e 4533 783f e88b 493e a9f7 c23e
00000220: eda7 823e e6ef 803e f65c 923e e416 9c3e
00000230: c9e0 ec3d 3b8f ca3d c634 413e 2190 213e
00000240: fe8f 833e 5fab f93e 2d8e bc3e d69e f53e
00000250: 4395 6a3e 0e7c 393e f631 493e a63d bd3e
00000260: 6728 2a3e 8c0c 523e 3fde 9d3e 328b b93e
00000270: e973 203f ea2b 0e3f 61c4 bb3e 5c20 123f
00000280: 03d7 1a3f 503d 6a3e badb 623e 88a9 4f3e
00000290: cbc2 933e 4d94 863e ab48 103e d163 ac3e
000002a0: aa07 d43e e986 343f d09b c03e b87b 503e
000002b0: 97eb 383e a074 673e a0eb be3e c18a 873e
000002c0: 37de a63e 15a1 2a3e dce8 283f 8e57 423e
000002d0: d170 233e 24ff 1d3e 7429 603e d5e2 623e
000002e0: 3984 be3e e194 263e 03de d43e fa70 893e
000002f0: 4d51 e73e 94c4 bf3e e93e ce3e eeb0 233f
00000300: 51c7 c73e a19b 8e3e 6d1d 8b3e e2ce 773e
00000310: 0247 723e 83da 4d3e 9afc 863e b0d6 793e
00000320: ea5e 083e ada3 c23e cf8e 803e cfa1 873e
00000330: a853 0f3e 0548 c23e 3621 9d3e 8e02 883e
00000340: 8e71 ae3e dfed c23e ff9c a23e 858a 773e
00000350: 5206 a83e 6045 513e 2edb 693e 7f6d 633e
00000360: 8226 e23e 2199 893e 2367 c03e 13c2 073e
00000370: 3be4 903e 0177 1f3e 463d 943e f8f9 d43e
00000380: 780c 383e 3aec 2f3e df62 913e 3b49 813e
00000390: 5423 003f c7a2 ef3d 2b6f 3b3e df3e b53e
000003a0: ac80 063f e21f 403e 84d9 ba3e 17d2 843e
000003b0: 5106 ce3d 1263 9e3e d8d3 cb3e 05b0 a03e
000003c0: 80f2 773e e3cd 513e ad6a 303e 8acd 0a3f
000003d0: 0638 db3e ffac 943e 266b a03e a96b 813e
000003e0: 509b 2a3e 6955 a83e 462a 813e fb49 863e
000003f0: eb54 a93e f70c 1e3f 9827 903e 488f b73e
0.26373503 0.15326582 0.30046478 0.2224797 0.4305353 0.30202037 0.40966913 0.22305848
0.48668942 0.36280033 0.22752176 0.13200578 0.5391536 0.74567956 0.46818128 0.23064834
0.33295345 0.3887868 0.34552494 0.22973101 0.17873836 0.35391468 0.21517089 0.30827552
0.65534407 0.32956678 0.20502965 0.2669694 0.3270235 0.16563222 0.36305684 0.33175087
0.19109958 0.030221123 0.49530968 0.2565555 0.18264864 0.27008626 0.31522548 0.1910511
0.2987002 0.1738776 0.15889071 0.24597779 0.23113242 0.22190996 0.6095967 0.1951432
0.37456015 0.32918513 0.7401525 0.33273655 0.3799389 0.51894206 0.16779023 0.2602179
0.3204595 0.34406626 0.60320204 0.70321655 0.32835516 0.46896145 0.28126475 0.32764938
0.22505416 0.13224259 0.19488306 0.4512979 0.2742435 0.30408856 0.19734085 0.34167224
0.39250538 0.31554583 0.22400863 0.11740724 0.27583334 0.20315307 0.30506775 0.41143024
0.38663983 0.21897884 0.11556951 0.2652687 0.12871516 0.30045965 0.37218472 0.3919261
0.2619453 0.2097205 0.15845984 0.40552193 0.34549904 0.103275485 0.21829864 0.31635836
0.1663324 0.23192307 0.285373 0.20483902 0.1470599 0.13331686 0.14534068 0.19920777
0.33305442 0.19303234 0.16256672 0.39182192 0.40659267 0.33848634 0.19252071 0.19048142
0.5169199 0.22131217 0.21085945 0.30348778 0.30941898 0.5391738 0.5417993 0.31641895
0.25317654 0.15266123 0.2101365 0.3141874 0.2131272 0.18600246 0.2238782 0.27141866
0.21987393 0.31456292 0.3242372 0.3587427 0.2966219 0.9695323 0.19682276 0.38079575
0.25518742 0.25183028 0.2858655 0.30486214 0.11566312 0.098906 0.18867788 0.15777637
0.25695795 0.48763558 0.36827222 0.47972745 0.22908501 0.1811373 0.19647965 0.36961097
0.16616975 0.20512599 0.30833623 0.3623901 0.62676865 0.5553576 0.36673263 0.57080626
0.6048433 0.22874951 0.22154132 0.20279515 0.28859553 0.2628502 0.1409022 0.33669904
0.41412097 0.70518357 0.37618876 0.20359695 0.1805862 0.22603083 0.37289143 0.26473048
0.3259141 0.1666301 0.65980315 0.18978712 0.15961005 0.1542936 0.21890813 0.22156842
0.37210253 0.1626773 0.41575631 0.26844007 0.45179215 0.37454665 0.40282372 0.6394185
0.39019254 0.2785311 0.27170888 0.24200013 0.236599 0.20102887 0.26364595 0.24398303
0.13317457 0.380155 0.25108954 0.26490638 0.13996756 0.37945572 0.306894 0.2656445
0.3407101 0.38072106 0.31760404 0.24173935 0.32817322 0.2043662 0.22837517 0.22209738
0.44170004 0.2687464 0.37578687 0.13257627 0.28299126 0.1557274 0.28952998 0.4159696
0.17973506 0.17179957 0.28395745 0.25251183 0.50053906 0.11700969 0.18304126 0.3539953
0.5254009 0.18762162 0.36494076 0.25941536 0.100597985 0.3093496 0.3981006 0.31384292
0.242136 0.20488696 0.17228194 0.5421988 0.4281618 0.29038236 0.31331748 0.2527745
0.1666081 0.32877663 0.25227565 0.26228318 0.330726 0.6173853 0.28155208 0.35851502

layers.4.weight f4 [256, 256]
00000000: 08b2 963c cd80 1b3c b163 3f3d 112b 44bc
00000010: 60ee 9c3c 6c98 ef3c 5366 973c 5435 33bd
00000020: 8e7e 693d 8c16 073c 6eca 39bb 171a 80bc
00000030: abd0 8b3c 270d 5ebd 55da 323d 7f55 8d3c
00000040: 7e3e 09bd 50a7 28bd 662c b63c 8a10 733c
00000050: e3df 4f3d cfc5 8bbc 15ee 033c 438c 33bd
00000060: 77fc d63c 0c40 b23b 08ce 3e3d 568d 4bbc
00000070: 95eb 21bc 6e3a 7c3d 609e 7b3d 0126 253b
00000080: 1d55 55bc e834 40bd a19d 8cbb 251e c33c
00000090: e69b 243d c6d3 3c3d 4ed4 7cbc 94a7 933b
000000a0: 620e 6abd c9a9 62bd 2d15 0b3d 3edb 0f3d
000000b0: dd96 833c 8448 dcbc 8a4e 6d3d 127d 66bd
000000c0: 128f 0d3d 2c5e 583d 9af3 6f3d e718 1b3d
000000d0: 6fb1 6d3d ddb8 9fbc 76bd 8bbc 853a 003d
000000e0: 772b 32bc b414 353d d438 9cbc f0b4 103d
000000f0: 5a2c 453d c8a5 bb3c a834 6cbd 4f9e 0e3a
00000100: 55c9 eb3c 180b 43bb e517 4d3d b222 92bc
00000110: 8f9c cf3c dc39 8ebc 2c14 a33c 37e3 7e3d
00000120: a3bb 2bbc 410c 073d edd4 8b3c 53b8 4abb
00000130: 6b00 50bd 522d ae3b 921b 6e3c f3b7 5abd
00000140: 4b8b 8e3d 89a9 c6bc c3ca a93c 65ce 053d
00000150: 6b33 afbc 3558 6a3d 3856 ea3c b58b 91bc
00000160: f740 5c3d a392 183c b47e 073c 563a 65bc
00000170: 8025 12bc 2dce 773d 2950 2e3d ee97 033b
00000180: 51e6 38bd 5031 243c cf99 763d 6436 bebc
00000190: 70fb 4b3c 3a52 31bd a2ff 543d 5a7e a6bc
000001a0: 961e d03b 06fc 13bd a50c bc39 dde1 bf3c
000001b0: eb26 81bd 58fe dc3c c71c 8b3b 160d c9bc
000001c0: 5fbc 493d 1f03 88bd 4d91 4bbb 327d cfbb
000001d0: 0e29 73bc e50a 013d c79b 923a bebd e9bc
000001e0: 41aa 5abd 23cd 463d 3dbf 11bd e3fb 053c
000001f0: 9a37 61bd 38c2 62bd 7cb9 fe3c 713b 033d
00000200: 3561 c6bc 620b e1bb 2bb9 103d bfe1 523d
00000210: 4960 823d 4643 a0bc 2a20 4c3d f4e0 87bd
00000220: f34f 0d3d b88a 40bb 454f 753d cc89 9639
00000230: 077c 3c3d 7c83 91bb 302d 903d 5661 28bc
00000240: 72ba 9a3b fde5 513d 8228 0a3d 64f5 2a3c
00000250: c06b 32bd d782 27bd 8f27 0bbd 9059 d4bc
00000260: 035a 073d a07f c43c 0ffc 603d 0cca 8b3d
00000270: f4aa c9bb b980 5abd 5e33 613d a47a 8cbd
00000280: 8b99 c9bc 9530 cbbc 0634 3b3d 009c 5cbd
00000290: 80a4 46bd 9799 31bd 36d0 14bd a89a 4cbd
000002a0: 1679 c5bc 9455 7ebc e2ce 233d 21f5 43bc
000002b0: b61b b1bc 66f2 02bd e2a0 a93a befe 1f3d
000002c0: 85cf 8d3c 4d1c c6bc 5a57 63bd 1cde 3b3d
000002d0: b64a 39bc e31d fdbc 6950 033d 0111 853d
000002e0: 41c6 243c 04ef 0bbd 861b 46bd 6a38 6d3d
000002f0: 60d2 3d3d 9cf5 f0bb 6251 7f3d 5445 383d
00000300: 9458 303d 649a 4fbd d177 c9bb e899 18bd
00000310: a6a3 5e3d a3d3 12bd 3fc8 50bc a77a cb3c
00000320: 3488 173b de95 00bc 1341 cc3c 717a 0abd
00000330: ad5f 8e3d 78c1 17bc 539b 473d e0ae 0d3d
00000340: 7603 6dbc d220 023d 4c00 0bbd 6714 263d
00000350: d293 673d a238 853c 912f 393d 7fef ebbc
00000360: db94 6b3d 9539 40bd adbc be3c e7b7 8f3b
00000370: b72c b1bc 9222 a73b 101a 8aba 6002 68bd
00000380: 84c3 7b3d 280e 6cbd 1d50 343d bcb7 983b
00000390: 3be8 4fbc 4985 66bd 8655 dc3c dc96 543d
000003a0: 1512 ea3c 598e 17bd 6f7e c73c 03c2 f0bc
000003b0: 537b b23c 11d6 293c d97d 1f3d 45c0 44bd
000003c0: 940a 3b3d 4888 533d e2fa 65bb e1f2 3dbd
000003d0: 3a6e 33bd 1c7f 3dbd be92 253d 4020 e73c
000003e0: a64e c13c 1a45 00bd 0fc4 123d 92aa b13c
000003f0: 4219 5b3d ae21 23bd d3e1 84bc 709c 63bd
0.018395439 0.009491158 0.046725933 -0.011973158 0.019156635 0.029247485 0.01848141 -0.04375203
0.057005458 0.008245122 -0.0028349417 -0.01563744 0.017067274 -0.05421176 0.04366525 0.017252682
-0.033506863 -0.041175187 0.022237968 0.014835486 0.050750624 -0.017062096 0.008052369 -0.043834936
0.026243431 0.005439764 0.046583205 -0.012423834 -0.009882827 0.06157916 0.061430335 0.0025199654
-0.013020781 -0.046925455 -0.004291252 0.023818085 0.04018774 0.0461004 -0.015431477 0.004506061
-0.057142623 -0.0553377 0.03395574 0.035121195 0.016063148 -0.026890047 0.05793623 -0.05627162
0.03456027 0.052824184 0.058581926 0.037865546 0.058030542 -0.01949733 -0.017058115 0.03130581
-0.010874621 0.044209197 -0.019070067 0.035328805 0.048138 0.0229062 -0.057667404 0.000544046
0.028782526 -0.002976125 0.050071616 -0.01783881 0.025343208 -0.017361574 0.01990708 0.062228408
-0.010481748 0.03297067 0.017069304 -0.003093262 -0.05078165 0.005315461 0.01453294 -0.053398084
0.06960162 -0.024250763 0.020726567 0.032667536 -0.021386823 0.057213027 0.028605565 -0.017766813
0.053772893 0.009312305 0.0082699545 -0.013990959 -0.0089200735 0.06049936 0.042556915 0.002007957
-0.04514152 0.010021523 0.060205277 -0.023219295 0.012450084 -0.043291308 0.052001603 -0.020323921
0.0063513024 -0.03612902 0.00035867575 0.02342313 -0.06306251 0.02697675 0.004245374 -0.024542373
0.04925191 -0.0664122 -0.0031061948 -0.006332063 -0.014841331 0.03150453 0.0011185341 -0.028532859
-0.053385023 0.048535477 -0.03558277 0.00817773 -0.054984666 -0.055361003 0.031094305 0.03203911
-0.024216274 -0.006867812 0.03533284 0.05148482 0.06366021 -0.019563328 0.04983536 -0.06634703
0.034500074 -0.0029379558 0.05989005 0.00028712896 0.04601672 -0.004440723 0.07039869 -0.010277113
0.004721933 0.051244725 0.033730038 0.010434482 -0.04355979 -0.040896263 -0.033973273 -0.025921613
0.033044826 0.023986638 0.05492788 0.06825647 -0.0061544124 -0.053345416 0.05498063 -0.06859329
-0.024609348 -0.02480344 0.04570391 -0.05385971 -0.048496723 -0.043359365 -0.036331378 -0.04995218
-0.02410559 -0.015523333 0.03999222 -0.011960299 -0.021619659 -0.03196945 0.0012941624 0.0390613
0.017310867 -0.024183417 -0.055503227 0.045866117 -0.011309316 -0.03089804 0.032059107 0.06497384
0.010057033 -0.03416349 -0.048366092 0.05791513 0.046343207 -0.0073534977 0.062333472 0.04498799
0.043053225 -0.050684348 -0.0061483164 -0.03725615 0.054355286 -0.035846364 -0.012743055 0.024838759
0.0023121955 -0.007848231 0.024933374 -0.033808175 0.069518425 -0.009262435 0.048732113 0.034590602
-0.014466157 0.03176958 -0.03393583 0.0405468 0.056537457 0.016262356 0.04521138 -0.028800724
0.057515007 -0.046929915 0.023283327 0.0043859365 -0.021627767 0.0051005566 -0.0010536332 -0.05664289
0.061465755 -0.057630688 0.044021714 0.0046605747 -0.012689645 -0.056279454 0.02689625 0.051901683
0.028573075 -0.037000988 0.02435228 -0.029389387 0.021787321 0.010365979 0.038938377 -0.048034925
0.045664385 0.05164364 -0.0035092165 -0.046374205 -0.043806292 -0.0462638 0.040423147 0.02821362
0.023597073 -0.0313159 0.035831507 0.02168778 0.053490885 -0.03982704 -0.016220963 -0.055569112

layers.4.bias f4 [256]
00000000: 7a81 d4bb 35ce 3b3d dd21 c63c b8dd 0f3d
00000010: 6123 803c b653 113d feb9 af3b e610 4d3d
00000020: b2a5 4a3d 1ce2 cb3c 32a2 84bc d466 08bd
00000030: 17d3 40bd 822b 083d 90e6 f93b c051 153c
00000040: 236a a83c 2861 3e3d 63fd 043c 97e8 763b
00000050: 13ef ef3c 71d4 4b3d 0167 5f3d f04b 57bd
00000060: b690 6d3d 3817 49bd a7ba 1f3c 2a51 333d
00000070: 249b 5fbd 8356 063d bc2b 6cbd b947 743d
00000080: 5021 353d 4788 b33c f77b 7bbc 0e1b fe3c
00000090: 93bd acba 17df ebbc 071c b5bb f313 133d
000000a0: d5db c1bc e4d0 5abd 79a4 1dbd e02a 16bd
000000b0: b161 29bd e28c 0abd 82ca 60bd 7bbd 7bbd
000000c0: 5344 b0ba 7efa 12ba 0752 0cbd 8ca9 733b
000000d0: dd91 7fbd a686 1f3d 9e9e 15bc d011 65bd
000000e0: 97e9 e03c 3f8e 2a3d 966c 4f3d 9cb0 973c
000000f0: 3cc7 58bd e8ff 43bd 06cf bc3a 7a0d 7bbc
00000100: ffce 1c3b 9aa5 1fbd f03a 7f3d 8247 38bd
00000110: e2c4 053c 89a4 713d 2d1b 323d bb68 543b
00000120: ee8b 49bd f04f 253d abdf 28bc be22 223d
00000130: 312e ce3c f88c 663d ffaf d2bc 823d 7d3d
00000140: 56a6 5c3c 6ad2 f73c 6754 f3bc 03e8 673d
00000150: 5bbf f2bc eada 64bc 1d88 7bbd 661b 5a3d
00000160: 93ed 65bd cc2d 643d 2afa 47bc b8bc 633d
00000170: 3d00 093d 745f 0fbd c78b 23bd 73de 9a3c
00000180: 8756 2fbd 23ce 6f3c 2c5b f63b e16d 543d
00000190: 3e29 07bd 62de 09ba 0d55 70bd d35a 4b3d
000001a0: 7808 65bd 904f 65bd b794 7dbc c06b f9bc
000001b0: e02d 18bd c7f1 5b3c 4e42 d53c 8714 f03c
000001c0: dc4c 75bd 3f8b 743d d020 403d 149c dfbc
000001d0: 57f5 7ebd 8e75 2c3d 31e7 52bd ce51 04bd
000001e0: 0de2 adbb 00ce 48bd f3fc a33c 8a51 143d
000001f0: c04e 243c a264 a0bc 2c97 183d 8f51 96bc
00000200: 0e8e 05bd 409d dc3c 0783 41bd e3c7 7b3d
00000210: 8573 fdbc d18c 29bd 5541 a33c 762c 32bd
00000220: b903 cdbc cc72 dcbc 05f6 bf3c 3d07 1ebd
00000230: 7697 b9bc 9a45 69bd ed1c 6c3d a378 3a3c
00000240: 9329 123d 9da9 453d db6f 173c b9ca b03c
00000250: 65c7 0e3b 248b a23c afbb acbc c9ad 573d
00000260: 9f99 62bd f92c 21bd 11ac 433d 699e 37bc
00000270: dc23 38bb 7dee 133c f9e6 e7bb 6da0 16bd
00000280: b459 76bd 226a 073d c9e8 023d fa04 db3c
00000290: a909 ec3c 1ecf 473c 396f d8bb e7f4 d23a
000002a0: cdd8 d9bc e911 803d 898d 7a3d f73a 443d
000002b0: d670 2cbd 70a2 59bd c6a3 04bd 0aee 73bd
000002c0: 30c6 00bc 330f eb3c 2ef4 58bd 8560 673c
000002d0: baac f93c 5692 1bbc ade9 333d c18e 943c
000002e0: 3e6d 5b3b 8e7b 6dbd 5bc6 723d ca72 533d
000002f0: 44d5 e8bc d749 623d 74d2 62bd cda2 213d
00000300: d457 c53b 5700 47bd 216f 44bd b2a4 dcbc
00000310: 6e4b 0b3d db91 efbb d0f5 63bd dc6f 45bc
00000320: 187e 6ebd a362 8fbc 6378 dc3c e5d5 3dbd
00000330: eede 47bd 2b7a f63c b81f 633b b3d0 45bd
00000340: 1e16 72bd bed3 5c3c 542f 78bd c73a 9ebc
00000350: ddaa 023d 70b0 6f3a eed4 76bd a1d8 12bc
00000360: db74 0f3b 6e01 bd3c 8d4b 60bd effb f138
00000370: 5b7e c63c a212 fb3c 70e5 e5bc 57a9 86bc
00000380: 39a7 513d 724e bc39 bea6 7dbd c018 643c
00000390: 5d4c 44bb f5d5 debc 9dda f93c f4c5 44bd
000003a0: 09d0 7cbd 6d65 56bd 191b 3ebd b7a3 333c
000003b0: 7724 cdbb 2344 783d 67fa f0bc 2c08 263d
000003c0: ea91 e13c 7cf8 65bd df0f ac3c 272a 34bd
000003d0: 87ab 4b3d fe54 613c b144 323c e7a9 3b3d
000003e0: 2f39 58bd 2657 de3c 10f1 f63c 4d84 fabc
000003f0: aaee 28bc 5d6e 933c f20f 31bd 44ea 1bbd
-0.0064851614 0.04585095 0.02418607 0.035123557 0.01564187 0.035480224 0.005362748 0.050064944
0.049474426 0.02488809 -0.016190622 -0.03330119 -0.04707631 0.033244617 0.007626362 0.009113729
0.020558422 0.046479374 0.008117053 0.0037675255 0.029288804 0.049763147 0.05454159 -0.052562654
0.057999335 -0.04909441 0.009749091 0.043778576 -0.054591313 0.032797348 -0.057658896 0.059638713
0.044221222 0.021915568 -0.01534938 0.03101876 -0.0013179056 -0.028792901 -0.0055270228 0.035907697
-0.023664394 -0.05342187 -0.03848693 -0.036661983 -0.04135293 -0.033825763 -0.054880626 -0.06146
-0.0013448097 -0.0005606784 -0.034257915 0.0037179915 -0.062394965 0.03894677 -0.009132056 -0.05592519
0.027455134 0.041639563 0.050640665 0.018516831 -0.05292438 -0.047851473 0.001440496 -0.015323037
0.002392709 -0.03897629 0.062312067 -0.04499007 0.008164616 0.058994804 0.043482948 0.0032411057
-0.049205713 0.040359437 -0.010307233 0.039583914 0.02516851 0.056286782 -0.025718687 0.061826237
0.013467392 0.0302517 -0.029703332 0.056617748 -0.029632261 -0.013968209 -0.061409105 0.053248785
-0.05613477 0.055707738 -0.01220564 0.055599898 0.033447493 -0.03500314 -0.039928224 0.0189049
-0.04280713 0.014636549 0.0075181928 0.0518626 -0.032998316 -0.0005259273 -0.05867486 0.049647164
-0.05591628 -0.05598408 -0.015477351 -0.030446887 -0.037153125 0.013424343 0.026032593 0.029306663
-0.059887752 0.059703108 0.046906292 -0.027296104 -0.062245693 0.042104296 -0.051490013 -0.032304578
-0.0053064884 -0.049024582 0.020018077 0.036210574 0.010028541 -0.019579235 0.037253544 -0.018349437
-0.032606177 0.026930451 -0.047244098 0.061469924 -0.030938873 -0.04139406 0.019928614 -0.043499433
-0.02502619 -0.026910208 0.023432741 -0.03858112 -0.02265523 -0.056951143 0.057644773 0.011381301
0.03568418 0.04825746 0.009242977 0.02158104 0.002178633 0.019841738 -0.021085588 0.05265597
-0.055322286 -0.03934953 0.047771517 -0.0112072015 -0.0028097546 0.009029028 -0.0070770946 -0.036774088
-0.06014414 0.0330602 0.031960282 0.026735771 0.0288132 0.012195377 -0.0066050556 0.0016094715
-0.026592636 0.06253416 0.061170135 0.047907796 -0.042099796 -0.053133428 -0.03238275 -0.059553184
-0.007859752 0.028693771 -0.052967243 0.014122133 0.03047787 -0.009495338 0.043924022 0.018134477
0.0033481861 -0.05797916 0.059271198 0.051623143 -0.028422005 0.0552462 -0.055376485 0.0394619
0.006022433 -0.04858431 -0.047957543 -0.026934002 0.034007482 -0.0073110885 -0.055654347 -0.012050595
-0.05822572 -0.017503088 0.026912874 -0.046346564 -0.048796587 0.030087551 0.0034656357 -0.048294734
-0.059103124 0.013478218 -0.06059201 -0.019315137 0.03190123 0.00091434177 -0.06026166 -0.008962781
0.002188972 0.02307197 -0.05475955 0.00011538702 0.024230173 0.030648533 -0.028063506 -0.01643817
0.051184867 0.000359166 -0.061926596 0.0139219165 -0.0029952743 -0.027201632 0.03049975 -0.048040345
-0.061721835 -0.05234282 -0.04641256 0.010964326 -0.0062604505 0.060611855 -0.029416276 0.040535137
0.027535398 -0.056145176 0.021003662 -0.043985512 0.049724128 0.013753174 0.010880635 0.04581633
-0.05278891 0.027141165 0.030144244 -0.030580664 -0.010310808 0.017996961 -0.043228097 -0.03806521
