models/best_fold5_hd128_do0.5.pth (torch, 118438 bytes, 20 tensors)

layers.0.weight f4 [128, 10]
0	0xbcef5dc0	-0.029219508
1	0xbe036c29	-0.12834229
2	0x3e86c365	0.2632095
3	0xbe3cabcc	-0.1842491
4	0xbe4ccf4b	-0.20000951
5	0x3e3577f1	0.17721535
6	0x3e542550	0.20717359
7	0x3d1cf7fc	0.038322434
8	0xbe993ce4	-0.29929268
9	0x3e8387f6	0.25689667
10	0xbd4367eb	-0.047706526
11	0x3dfbc671	0.12293709
12	0xbe048502	-0.12941363
13	0xbdeebaa0	-0.1165669
14	0x3e50fc2b	0.20408694
15	0x3df7afd4	0.120940834
16	0xbe815e7f	-0.25267407
17	0x3ea113fd	0.31460562
18	0xbd35e0c9	-0.044403825
19	0xbe3db6b5	-0.18526728
20	0x3ea38877	0.31940052
21	0x3cc4f308	0.024041668
22	0xbe5cb7b3	-0.2155445
23	0xbe7b0f5a	-0.24517575
24	0x3de13759	0.10996885
25	0x38bc2ce3	8.9728994e-05
26	0xbd9ceb03	-0.076620124
27	0x3d97b9e0	0.074085
28	0xbe43bd1d	-0.1911511
29	0x3e32458c	0.17409343
30	0x3e0828e7	0.13296853
31	0x3e6a3e59	0.22875346
32	0x3d6e8710	0.058234274
33	0x3e277f7d	0.16357227
34	0xbe4f662f	-0.20253824
35	0xbd2e814a	-0.04260377
36	0xbd7a0d34	-0.061047748
37	0xbe5a5b27	-0.21323834
38	0xbc5b422b	-0.013382475
39	0xbddf24c2	-0.10895683
40	0x3e811631	0.25212243
41	0xbe91de0b	-0.28489718
42	0xbe010a5d	-0.1260161
43	0xbe6ec63f	-0.23317812
44	0x3ca53056	0.02016465
45	0x3e79abed	0.2438199
46	0x3d11212a	0.03543202
47	0x3e7fee1a	0.24993172
48	0x3dcede5b	0.10101005
49	0xbe3b5998	-0.18295896
50	0x3e663690	0.22481751
51	0x3dab8513	0.08374991
52	0xbe83d56c	-0.25748765
53	0xbe90cf29	-0.2828305
54	0xbe91dc9b	-0.2848862
55	0x3e051489	0.12996115
56	0xbe588119	-0.21142997
57	0x3dcbd23e	0.0995221
58	0xbdd9ea35	-0.106403746
59	0xbe97e3c8	-0.2966597
60	0xbe4ce46e	-0.20009014
61	0xbdaaf459	-0.08347387
62	0x3e9209ee	0.285232
63	0x3cb69e29	0.022292214
64	0x3e89e40c	0.26931798
65	0x3e5822bd	0.21107002
66	0x3e79e186	0.24402437
67	0xbd7d13d6	-0.061786495
68	0xbbdae5ce	-0.006680227
69	0xbe00e1f8	-0.125862
70	0x3e89a776	0.26885575
71	0x3e6f0e3c	0.23345274
72	0xbe8b78ec	-0.27240694
73	0xbe402238	-0.18763053
74	0x3e7fa6c5	0.24965961
75	0xbe09ce6a	-0.13457647
76	0x3dc3f792	0.09568705
77	0xbe68424d	-0.22681542
78	0x3cc42673	0.023944115
79	0xbc004101	-0.007827998
80	0xbe17b386	-0.14814577
81	0xbdda5399	-0.10660476
82	0xbe47212f	-0.19446252
83	0xbe3ed261	-0.1863494
84	0xbe4bb73a	-0.19894114
85	0xbe90efe3	-0.2830802
86	0xbddcdc92	-0.10784258
87	0x3e351973	0.1768549
88	0xbea420f3	-0.32056388
89	0x3e8c02e9	0.2734597
90	0x3e8331fe	0.2562408
91	0x3e38383d	0.17990203
92	0x3d0d7607	0.034536388
93	0x3e91573a	0.2838686
94	0xbe407d56	-0.18797812
95	0xbdb18e0f	-0.08669674
96	0x3ea40998	0.3203857
97	0x3cd980db	0.0265507
98	0x3e768e8d	0.24077816
99	0x3e31b31e	0.17353484
100	0x3e9c0a71	0.30476716
101	0xbde29fe5	-0.11065654
102	0xbe66cc3f	-0.22538851
103	0xbe55da69	-0.20884098
104	0x3e0e2e3e	0.13884827
105	0xbe0a2985	-0.13492401
106	0xbe47b785	-0.19503601
107	0x3e5c04ea	0.2148625
108	0x3d0286db	0.03186689
109	0xbe0af67e	-0.13570592
110	0xbe6b9881	-0.23007394
111	0x3cbe7c15	0.023252526
112	0xbde7e31d	-0.11322615
113	0x3d5679f0	0.052362382
114	0x3e8f3c14	0.27975523
115	0xbe2d5dfe	-0.16930386
116	0xbe167494	-0.14692909
117	0xbe446ce1	-0.19182159
118	0x3e1f3bd0	0.1555016
119	0xbaddaa70	-0.0016911756
120	0xbc8b2c58	-0.016988918
121	0xbe11e8d5	-0.14248975
122	0xbe628452	-0.22120789
123	0x3e5a1fd6	0.21301207
124	0x3c35dbc8	0.011099763
125	0xbd963e93	-0.07336154
126	0xbc50b427	-0.012738264
127	0xbe93c068	-0.28857732
128	0x3d577ff9	0.05261228
129	0xbe36a611	-0.17836787
130	0xbd1ac5cc	-0.03778629
131	0x3dd554e6	0.10416584
132	0xbdfa5ee8	-0.12225133
133	0xbe48f08b	-0.1962301
134	0xbe0995fd	-0.13436122
135	0xbc2b676e	-0.010461671
136	0xbcea47d0	-0.028598696
137	0xbd11c7a3	-0.03559078
138	0xbe8e43ce	-0.27786106
139	0xbe9d2939	-0.30695513
140	0x3e0a1a3c	0.1348657
141	0x3e578581	0.21047021
142	0xbd92cd50	-0.071680665
143	0x3e8829c3	0.26594362
144	0x3da349f7	0.07973092
145	0xbd0af837	-0.033928122
146	0x3ea8baa9	0.3295491
147	0x3e9edb64	0.31026757
148	0xbe7a84ed	-0.2446477
149	0xbea80926	-0.3281948
150	0x3d8c9a7c	0.06865403
151	0x3d2393bb	0.03993581
152	0xbddd06b3	-0.107922934
153	0x3dc0e856	0.094193146
154	0x3d2276da	0.039664127
155	0x3e8094ff	0.25113675
156	0x3e8c3120	0.2738123
157	0x3dfc8d47	0.12331634
158	0x3e266b57	0.16251884
159	0x3d462b43	0.0483811
160	0xbec0245d	-0.37527743
161	0x3d0173e9	0.03160468
162	0xbc1d80a8	-0.009613194
163	0xbcf785f2	-0.030215237
164	0x3dc5c550	0.09656775
165	0xbd14eafa	-0.036356904
166	0x3e5159c2	0.20444396
167	0x3d7ecc97	0.06220683
168	0x3da7b938	0.081896245
169	0xbdd8b516	-0.105814144
170	0xbe383a05	-0.17990883
171	0x3ca5e2b9	0.020249711
172	0x3bc54add	0.0060208873
173	0xbdf6ec4e	-0.1205679
174	0x3e1f0ec9	0.15532984
175	0xbda98cf7	-0.0827884
176	0x3e035da0	0.12828684
177	0x3c29cf37	0.010364345
178	0x3d4f0b9a	0.050548173
179	0xbe5a0dda	-0.21294346
180	0x3da677c4	0.08128312
181	0x3dce8abc	0.10085055
182	0x3e396fb7	0.18109022
183	0xbc99056b	-0.018679341
184	0xbd8b5957	-0.068041496
185	0xbdc1e3ea	-0.09467299
186	0x3e776262	0.24158624
187	0x3e95465d	0.29155245
188	0xbd8cb389	-0.06870181
189	0x3e9a9fbb	0.3019999
190	0xbe3c24d7	-0.18373428
191	0x3d51f74c	0.05126123
192	0x3d7ec9af	0.06220406
193	0xbd636e0f	-0.055524882
194	0x3d0baa0f	0.034097727
195	0x3e958039	0.2919939
196	0x3e46b7f3	0.19406109
197	0xbe7dd612	-0.24788693
198	0xbe8406d8	-0.2578647
199	0xbd1d836e	-0.03845542
200	0x3d77408d	0.060364295
201	0xbe3ccb7d	-0.18437
202	0xbe4ec089	-0.20190634
203	0xbe456bba	-0.19279376
204	0xbd742efe	-0.059615128
205	0xbe766740	-0.24062824
206	0x3d938817	0.072036915
207	0x3e3ae1cf	0.18250202
208	0xbe996901	-0.29962924
209	0x3daf5018	0.085601985
210	0xbe7fdeed	-0.24987383
211	0x3d440134	0.04785271
212	0xbdea32fc	-0.11435506
213	0xbe84f9ac	-0.25971735
214	0x3e41a97c	0.1891231
215	0xbddc959f	-0.107707255
216	0x3e8d12af	0.27553317
217	0x3d7e1a61	0.062036876
218	0x3ca99aa7	0.020703627
219	0xbe975200	-0.2955475
220	0xbe50ddf7	-0.20397173
221	0x3d852350	0.06500876
222	0x3ce7cc02	0.02829552
223	0x3e5c4b18	0.21513021
224	0x3e6a6370	0.22889495
225	0xbe7687d0	-0.24075246
226	0x3dfd72d3	0.123754166
227	0x3e26dcd4	0.16295177
228	0xbe95fc54	-0.29294074
229	0x3dd60633	0.10450401
230	0xbe93c7b6	-0.28863305
231	0xbd636bb6	-0.055522643
232	0x3e80c195	0.2514769
233	0x3d8e7a37	0.069569044
234	0xbdf5bfe1	-0.119994886
235	0x3e072e39	0.13201226
236	0xbd9e263d	-0.07722137
237	0x3bb462aa	0.0055049257
238	0xbe5e2f60	-0.2169776
239	0xbdaa09a9	-0.08302624
240	0x3e6bb0b4	0.23016626
241	0xbe1c33a0	-0.15254068
242	0xbe3336e3	-0.17501406
243	0xbcd732fe	-0.026269432
244	0xbe947847	-0.28998014
245	0x3e2d4d86	0.16924104
246	0xbe8c909f	-0.27454087
247	0xbd96788f	-0.073472135
248	0xbe3766c5	-0.17910297
249	0x3e0571ca	0.13031688
250	0xbe800ab1	-0.25008157
251	0x3e36486f	0.17801069
252	0x3df0b786	0.11753754
253	0xbde64a8a	-0.11244686
254	0x3e98e270	0.29860258
255	0x3dd27b4f	0.102774255

layers.0.bias f4 [128]
0	0xbe61a6ed	-0.22036333
1	0xbe37ac3b	-0.17936794
2	0xbe84b6f1	-0.25920823
3	0x3e01c11a	0.12671319
4	0xbe306431	-0.1722572
5	0x3ea04cb7	0.3130853
6	0xbdcf57c8	-0.10124165
7	0xbd39b570	-0.045339048
8	0xbde77998	-0.11302489
9	0x3dbb01d6	0.091312096
10	0xbd7bb1e4	-0.061448947
11	0xbd9cd47d	-0.076577164
12	0x3e8141c0	0.25245476
13	0x3e0a7fd8	0.13525331
14	0x3e1900d5	0.14941724
15	0xbe8b766b	-0.27238783
16	0x3e0c940d	0.13728352
17	0x3aa8993d	0.0012863051
18	0xbd3249ff	-0.0435276
19	0x3e5eb446	0.21748456
20	0xbd505e84	-0.050871387
21	0x3e101355	0.14069875
22	0xbe92d078	-0.28674674
23	0x3e4f8ffe	0.20269772
24	0x3e3e0727	0.18557416
25	0xbe85e377	-0.26150104
26	0x3dd65c2c	0.10466799
27	0xbe0e6f9b	-0.13909762
28	0x3d76df9d	0.060271848
29	0x3dfa6651	0.122265466
30	0x3b491270	0.0030681156
31	0x3d9c8a4e	0.07643567
32	0xbe1453ba	-0.14485064
33	0xbc67a87a	-0.014139289
34	0x3e1a9c79	0.15098752
35	0x3e6387c7	0.22219764
36	0x3e631aa2	0.22178128
37	0xbda8fec9	-0.082517214
38	0xbd481663	-0.048849475
39	0xbd92cf58	-0.07168454
40	0x3e34e7c9	0.17666544
41	0xbd9ef2de	-0.07761167
42	0xbdf23b9f	-0.11827778
43	0x3dd7773f	0.10520791
44	0xbd2d7da4	-0.04235615
45	0xbe4476d5	-0.19185956
46	0x3e7b9bc2	0.24571136
47	0xbe1ce157	-0.15320335
48	0x3e337eff	0.17528914
49	0xbe35b633	-0.17745285
50	0x3e8de81e	0.27716154
51	0x3db4c1c3	0.088260196
52	0x3b561dec	0.0032671643
53	0x3e7b814e	0.24561045
54	0xbdfd4412	-0.12366499
55	0xbea0abb7	-0.31381008
56	0xbe942a19	-0.28938368
57	0x3dad2a18	0.08455294
58	0x3e2fe118	0.1717571
59	0xbdc95411	-0.098304875
60	0x3d3e355b	0.046437602
61	0x3d5a8022	0.053344853
62	0xbe1abdee	-0.15111515
63	0xbe672a59	-0.22574748
64	0x3df3eb7d	0.1191015
65	0xbe8aa6c0	-0.27080345
66	0xbd95a957	-0.0730769
67	0x3e1d137f	0.15339468
68	0xbd31bf52	-0.043395348
69	0x3e02ee9a	0.12786332
70	0xbd6fa38b	-0.058505576
71	0xbe9fbf3b	-0.31200585
72	0xbe8e1c74	-0.27756083
73	0xbe92b14d	-0.28650895
74	0x3d840cfb	0.06447788
75	0xbdb1ab1b	-0.08675214
76	0xbc66f99e	-0.014097599
77	0x3e58c66e	0.21169445
78	0x3e73e01e	0.23815963
79	0xbe1fe0af	-0.15613054
80	0xbdf82822	-0.1211703
81	0xbe25ce3c	-0.16191953
82	0x3e6a7877	0.22897516
83	0x3e7ec8ac	0.24881238
84	0x3e86d758	0.2633617
85	0x3d1d1024	0.03834547
86	0x3cb3209c	0.021866135
87	0x3e03d3e0	0.12873793
88	0x3d164dd5	0.03669532
89	0xbe6c88aa	-0.23099008
90	0x3ca7dada	0.020490099
91	0x3e7468b3	0.23868065
92	0xbd66bae4	-0.056330577
93	0x3e5aa7df	0.213531
94	0x3d8ba907	0.06819349
95	0x3cf85e2f	0.030318348
96	0x3be2d094	0.006921837
97	0xbe94c22f	-0.290544
98	0xbe84ad2b	-0.25913367
99	0x3e077b0a	0.1323053
100	0x387de3a9	6.0531926e-05
101	0x3e33ac97	0.17546307
102	0xbe93e5c0	-0.28886223
103	0xbe5c4760	-0.21511602
104	0xbc40f3ff	-0.011776923
105	0xbe30fe34	-0.17284471
106	0x3dcc2211	0.09967435
107	0xbe28d02a	-0.16485658
108	0xbe7fe6a5	-0.24990328
109	0xbd856767	-0.06513863
110	0xbe25059a	-0.16115418
111	0x3e88e072	0.26733738
112	0x3d94b5dc	0.072612494
113	0x3e93bd66	0.28855437
114	0xbe719825	-0.23593195
115	0x3da53702	0.080671325
116	0xbcbc6baa	-0.023000557
117	0x3e2d8bda	0.1694788
118	0x3e8e669c	0.2781266
119	0x3e04eecc	0.12981719
120	0xbcd857fb	-0.02640914
121	0x3c0853bc	0.008320745
122	0x3e18acb1	0.14909627
123	0xbdc516f3	-0.09623518
124	0x3dcd1cde	0.100152716
125	0x3cf91f06	0.030410301
126	0x3dced174	0.10098544
127	0xbd0008ea	-0.0312585

layers.1.weight f4 [128]
0	0x3f7b4182	0.9814683
1	0x3f7d7514	0.9900677
2	0x3f7d7cf1	0.9901877
3	0x3f80836c	1.0040107
4	0x3f803b6e	1.0018137
5	0x3f81c0eb	1.0136999
6	0x3f7b0b10	0.98063755
7	0x3f8031b9	1.0015174
8	0x3f8077c8	1.0036554
9	0x3f781765	0.969107
10	0x3f7a9b82	0.97893536
11	0x3f797e2f	0.97458166
12	0x3f7bce88	0.98362017
13	0x3f80b687	1.0055703
14	0x3f7bd2ab	0.9836833
15	0x3f7d8b16	0.99040353
16	0x3f895d7e	1.0731657
17	0x3f86f691	1.0543996
18	0x3f7aa278	0.9790416
19	0x3f7b6c60	0.9821224
20	0x3f78f620	0.97250557
21	0x3f8200de	1.0156515
22	0x3f821be9	1.0164768
23	0x3f83942b	1.0279592
24	0x3f7ca1a9	0.98684174
25	0x3f7c90df	0.98658556
26	0x3f7d072b	0.9883906
27	0x3f7c800f	0.986329
28	0x3f7b22f9	0.9810024
29	0x3f813413	1.0094017
30	0x3f75f888	0.96082354
31	0x3f7b4b06	0.9816135
32	0x3f7ea09b	0.99463814
33	0x3f7d1b7e	0.98870075
34	0x3f82e71e	1.0226781
35	0x3f78c624	0.9717734
36	0x3f80a7a6	1.0051162
37	0x3f7a10db	0.9768197
38	0x3f796749	0.97423226
39	0x3f82b978	1.021285
40	0x3f790809	0.97277886
41	0x3f7ae0b8	0.97999144
42	0x3f80eae0	1.0071678
43	0x3f7e810e	0.9941567
44	0x3f78e314	0.97221494
45	0x3f8666b9	1.0500098
46	0x3f82bd0a	1.021394
47	0x3f7f88e0	0.9981823
48	0x3f821862	1.0163691
49	0x3f7faf88	0.99877214
50	0x3f81f66f	1.015333
51	0x3f810d78	1.0082235
52	0x3f7f556b	0.9973971
53	0x3f7b996b	0.9828097
54	0x3f80ddf2	1.0067732
55	0x3f83e938	1.0305548
56	0x3f8413f9	1.0318595
57	0x3f792e3f	0.9733619
58	0x3f7ca693	0.9869167
59	0x3f82d589	1.0221416
60	0x3f7d23ea	0.98882926
61	0x3f767847	0.9627728
62	0x3f7f2c64	0.9967711
63	0x3f7fdbb4	0.99944615
64	0x3f78d60f	0.9720163
65	0x3f7c30dd	0.9851206
66	0x3f7e9029	0.9943872
67	0x3f819d6b	1.0126165
68	0x3f85e9b9	1.0461951
69	0x3f7f9c1d	0.99847585
70	0x3f7c507b	0.98560303
71	0x3f7c41e2	0.9853803
72	0x3f80b830	1.005621
73	0x3f7e4627	0.99325794
74	0x3f7e0de8	0.9923997
75	0x3f82652a	1.0187123
76	0x3f798d15	0.974809
77	0x3f7983c4	0.97466683
78	0x3f876920	1.0578957
79	0x3f83dac3	1.0301136
80	0x3f7ba489	0.98297936
81	0x3f7e3d2d	0.99312097
82	0x3f7cd55e	0.9876307
83	0x3f81c619	1.013858
84	0x3f77edf7	0.9684748
85	0x3f79b399	0.9753967
86	0x3f81399a	1.0095704
87	0x3f7e8bb0	0.99431896
88	0x3f8102cc	1.0078979
89	0x3f7c9515	0.9866498
90	0x3f814651	1.0099584
91	0x3f82cdbf	1.0219039
92	0x3f7c6d54	0.9860432
93	0x3f7f3fcf	0.9970674
94	0x3f82721c	1.0191073
95	0x3f827bc6	1.0194023
96	0x3f804380	1.0020599
97	0x3f7d853f	0.9903144
98	0x3f7cda7f	0.987709
99	0x3f7905eb	0.97274655
100	0x3f80046e	1.0001352
101	0x3f7fa78b	0.99865025
102	0x3f80bbb7	1.0057286
103	0x3f80b20a	1.0054333
104	0x3f81f4a1	1.015278
105	0x3f7dd9c3	0.99160403
106	0x3f820ff0	1.0161114
107	0x3f8214d9	1.0162612
108	0x3f7e9597	0.99447006
109	0x3f81b8ee	1.0134561
110	0x3f7da8ae	0.9908551
111	0x3f8149ed	1.0100685
112	0x3f81f0ef	1.0151652
113	0x3f78b578	0.971519
114	0x3f8888cf	1.0666751
115	0x3f78d6e2	0.97202885
116	0x3f79ba3f	0.97549814
117	0x3f85bd5a	1.044841
118	0x3f80662f	1.0031184
119	0x3f7facba	0.99872935
120	0x3f821ea6	1.0165603
121	0x3f7a53d7	0.9778418
122	0x3f80c9ea	1.0061619
123	0x3f7eec67	0.9957947
124	0x3f81b66b	1.0133795
125	0x3f7d7292	0.99002945
126	0x3f808f48	1.0043726
127	0x3f820a48	1.0159388

layers.1.bias f4 [128]
0	0xbcb957d0	-0.02262488
1	0xbcd5db08	-0.026105419
2	0x3aebc6c1	0.001798831
3	0xbb637601	-0.0034707787
4	0x3a6e2310	0.0009084204
5	0x3c3c99e2	0.011511298
6	0xbcec0e78	-0.028815493
7	0x3c3b3e16	0.011428377
8	0xbc284c79	-0.010272139
9	0xbd16afcd	-0.03678875
10	0xbc46316e	-0.012096746
11	0xbc837e54	-0.016051449
12	0xbca3e337	-0.020005805
13	0x3c31bd38	0.010848336
14	0xbc0e3246	-0.008678978
15	0x3baec31b	0.005333317
16	0x3cbd0302	0.023072723
17	0x3b1bcdb6	0.0023773736
18	0xbc81a303	-0.0158248
19	0xbc4f5390	-0.0126542
20	0xbd00ab3b	-0.031413298
21	0x3b36eaab	0.002791087
22	0x3cde99d7	0.027172966
23	0x3c918b38	0.01776658
24	0x3a84f8c3	0.0010144938
25	0xbb1dc995	-0.002407645
26	0xbc1ddc2d	-0.0096350135
27	0xbc228d2c	-0.009921353
28	0xbcbbd479	-0.022928463
29	0x3c89b651	0.016810568
30	0xbcd228e3	-0.025654262
31	0xbc85a6e9	-0.01631494
32	0xbaa90a70	-0.0012896787
33	0x3c01ebdd	0.007929769
34	0x3d0528ac	0.03250949
35	0xbcdeaefd	-0.02718305
36	0x3d1c91b2	0.038224883
37	0xbc65aa8d	-0.014017713
38	0xbc8b082a	-0.016971666
39	0xbcf07501	-0.029352667
40	0xbce9bbcc	-0.028531931
41	0x3ba07cc6	0.0048976867
42	0x3c136079	0.008995169
43	0xbd000b5d	-0.031260837
44	0xbcd40175	-0.025879601
45	0x3d44c227	0.04803672
46	0x3cf1ef11	0.029532941
47	0x3b35621e	0.002767689
48	0x3c09c5fd	0.0084090205
49	0xbbb5599c	-0.005534364
50	0xbc3b9566	-0.011449194
51	0x3ba6b6ea	0.005087723
52	0xbb085ace	-0.0020806077
53	0x3bb29728	0.005450148
54	0xbcf9c7f4	-0.030490853
55	0x3cfc318c	0.030785345
56	0x3ca53786	0.020168077
57	0xbcb6ec65	-0.022329519
58	0xbc3fdcf2	-0.011710392
59	0x3b01fd51	0.0019834826
60	0xbb6a797f	-0.0035777984
61	0xbd0d0a2c	-0.03443353
62	0x3c1f2c25	0.009715115
63	0x3be593fd	0.007006167
64	0xbcf85a5a	-0.03031652
65	0xbcfa35d8	-0.030543253
66	0xbc13c883	-0.009019974
67	0x3bb74899	0.005593371
68	0x3d407a99	0.04699192
69	0x3c8ea43d	0.0174123
70	0xbc9a93e0	-0.01886934
71	0xbc5df8b6	-0.013548067
72	0x3b584bc1	0.0033004137
73	0xbaac1b8a	-0.0013130766
74	0x3c4c27b7	0.012460641
75	0x3cb41e6b	0.02198716
76	0xbc81640c	-0.015794776
77	0xbcc2b05e	-0.023765739
78	0xbbde6286	-0.0067866473
79	0x3d2e5993	0.042565893
80	0xbc295d04	-0.010337118
81	0x3adbff2c	0.0016784421
82	0xbc494113	-0.012283581
83	0x3c1c9d2f	0.00955896
84	0xbca92c63	-0.020651048
85	0xbc8cbc30	-0.017179579
86	0xba223872	-0.00061882206
87	0xbc20059e	-0.009766964
88	0x3bd7c43e	0.006584673
89	0xbbad979a	-0.0052976133
90	0x3c9f14c3	0.01941908
91	0x3d021e3a	0.031767108
92	0xbbff2074	-0.007785851
93	0xba343d61	-0.0006875601
94	0x3bbbaf30	0.005727671
95	0x3cca6fb3	0.024711465
96	0x3c973b0a	0.01846077
97	0xbc814eb3	-0.015784597
98	0xbbdc44ab	-0.006722053
99	0xbca300bc	-0.019897811
100	0x3c004554	0.007829029
101	0x3d326ec0	0.04356265
102	0x3c336677	0.0109497225
103	0x3c074789	0.008256801
104	0x3bd2a043	0.006427796
105	0xbbfd0af2	-0.007722252
106	0x3cff2024	0.031143256
107	0x3cd1f6b8	0.02563034
108	0xbc6647f6	-0.014055243
109	0xbc88d615	-0.016703645
110	0xbbc2791a	-0.0059348466
111	0x3c09f11a	0.0084192995
112	0x3c8eafa0	0.017417729
113	0xbd0d9c1d	-0.03457271
114	0x3d7bede4	0.061506167
115	0xbcb5f2a5	-0.022210428
116	0xbcc3135d	-0.023812944
117	0x3c588e48	0.013217516
118	0xbb9f3df0	-0.0048596784
119	0xbbc1f9d1	-0.005919673
120	0x3ca3c8b7	0.01999317
121	0xbc94735a	-0.01812141
122	0x3d0ed460	0.034870505
123	0x3bc6c1bd	0.006065576
124	0x3b9a03fa	0.004700181
125	0xbc7466df	-0.0149171045
126	0xbc9eb305	-0.019372473
127	0x3ccab98a	0.024746675

layers.1.running_mean f4 [128]
0	0xbe9a61bd	-0.30152693
1	0xbe4f407d	-0.20239444
2	0xbe241881	-0.16024972
3	0x3e586778	0.2113322
4	0xbdc4913f	-0.09598016
5	0x3ee2e407	0.44314596
6	0xbe787040	-0.2426157
7	0x3cd8e8cb	0.026478192
8	0xbe13bc10	-0.14427209
9	0x3dbe5335	0.09293214
10	0x3dba5685	0.090985335
11	0xbdbf3971	-0.09337128
12	0x3ea72369	0.32644203
13	0x3e093753	0.13400011
14	0x3d42879f	0.04749262
15	0xbeb5096a	-0.35358745
16	0xbd688f7e	-0.05677747
17	0xbdbb0c81	-0.09133244
18	0xbe0f0861	-0.1396804
19	0x3dcdf8ee	0.10057245
20	0xbd3f3f8d	-0.046691466
21	0xbcbebd6e	-0.023283686
22	0xbedf32b9	-0.43593386
23	0x3defdc36	0.11711924
24	0x3eb9b008	0.36267114
25	0xbea3d0db	-0.31995282
26	0x3e2b0c3d	0.16703887
27	0xbe5e893a	-0.21732035
28	0x3dcfc0ea	0.10144217
29	0x3e9fd840	0.31219673
30	0x3c75d298	0.015003823
31	0x3cc8c37b	0.024507275
32	0xbd93dbe1	-0.07219673
33	0x3bd693ae	0.0065483665
34	0x3e468a0a	0.19388595
35	0x3e4d3509	0.20039763
36	0x3e8785f8	0.26469398
37	0xbdce9482	-0.10086919
38	0xbdb943a3	-0.09046104
39	0xbe459308	-0.19294369
40	0x3de3a9dc	0.111163825
41	0xbe365e91	-0.17809512
42	0xbe6df904	-0.23239523
43	0xbc0d2f91	-0.008617298
44	0xbd1a2d63	-0.03764094
45	0xbeb1fb47	-0.34762022
46	0x3e05a7ac	0.13052243
47	0xbe4dff13	-0.20116834
48	0x3e8655e5	0.26237407
49	0xbe3f6c9a	-0.18693772
50	0x3e7d9f0a	0.247677
51	0x3e360d46	0.17778501
52	0x3dac7a32	0.084217444
53	0x3e289daa	0.16466394
54	0xbe6adb3f	-0.22935198
55	0xbe5079ad	-0.20358916
56	0xbeb4a958	-0.3528545
57	0x3de6f2cc	0.112767786
58	0x3dc6997b	0.09697243
59	0xbe79fc08	-0.24412549
60	0x3d673f8d	0.05645709
61	0xbd4467b7	-0.047950473
62	0xbe199efb	-0.15002052
63	0xbe8171f2	-0.25282246
64	0x3cbe7e56	0.023253601
65	0xbe694b98	-0.22782743
66	0xbde71595	-0.11283413
67	0x3cf0cb6e	0.029393878
68	0xbe250e78	-0.161188
69	0x3dc80776	0.09767048
70	0x3d0e994b	0.03481416
71	0xbe80bf66	-0.25146025
72	0xbe5d885b	-0.21634047
73	0xbe8c7fc4	-0.27441227
74	0x3e4ad13d	0.1980638
75	0xbe66ac02	-0.22526553
76	0x3d2584bf	0.0404098
77	0x3aa3a928	0.0012486326
78	0x3e002f35	0.12518008
79	0xbd6af55f	-0.05736291
80	0xbe31c086	-0.17358598
81	0xbdfd37e1	-0.12364174
82	0x3ea73fcb	0.32665858
83	0x3eb031a2	0.34412867
84	0x3e7d0e38	0.24712455
85	0xbc97846b	-0.018495759
86	0x3db5f2cd	0.08884201
87	0x3d980821	0.074234255
88	0x3e19fc84	0.15037733
89	0xbdb21dc0	-0.086970806
90	0x3dd1254d	0.10212193
91	0x3e9528b7	0.29132625
92	0xbe12aa3a	-0.14322749
93	0x3e990dbe	0.29893297
94	0x3e2a6552	0.16640213
95	0xbdae04e0	-0.084970236
96	0x3dfe2080	0.12408543
97	0xbea0fd05	-0.3144304
98	0xbe8a3241	-0.26991466
99	0x3dec31a8	0.11532909
100	0x3db0cfa0	0.08633351
101	0x3e73a233	0.23792343
102	0xbe9a09a0	-0.30085468
103	0xbddb8d93	-0.107203625
104	0x3c8bd76e	0.017070498
105	0xbe2a60c0	-0.1663847
106	0x3e7100a3	0.23535399
107	0xbb897718	-0.0041951053
108	0xbe17a773	-0.1480997
109	0xbe21b063	-0.15789942
110	0xbe78c82e	-0.24295112
111	0x3ed0977d	0.40740576
112	0xbdb35f4e	-0.08758412
113	0x3e9ce9c2	0.30647093
114	0xbe97d14e	-0.29651874
115	0xbdc10049	-0.094238825
116	0xbdffe143	-0.12494137
117	0x3d715a7e	0.05892419
118	0x3e955bce	0.29171604
119	0x3de54466	0.111946866
120	0xbe7e351a	-0.24824944
121	0xbde62d5b	-0.112391196
122	0x3e73ebfe	0.23820493
123	0x3d92c11f	0.07165741
124	0x3e1c2e8d	0.15252133
125	0x3b10047e	0.0021975334
126	0x3dbbdf01	0.09173394
127	0x3e27d2d1	0.16389014

layers.1.running_var f4 [128]
0	0x3e852933	0.26007995
1	0x3ebd0d21	0.3692408
2	0x3ebd4281	0.369648
3	0x3e9656ef	0.293632
4	0x3ec191c5	0.37806526
5	0x3efb6774	0.49102366
6	0x3eb99bf6	0.362518
7	0x3e9ac464	0.3022796
8	0x3ea5d119	0.3238609
9	0x3eccc943	0.399973
10	0x3eb69f89	0.3566859
11	0x3e13c937	0.14432226
12	0x3e54fa70	0.2079866
13	0x3e8d03e1	0.27542022
14	0x3ed278cf	0.41107795
15	0x3eaef0de	0.34168142
16	0x3e8a0443	0.26956376
17	0x3dd18c35	0.102318205
18	0x3e5cd81b	0.21566813
19	0x3e4c0da4	0.19927078
20	0x3e8440df	0.25830743
21	0x3eae9753	0.34099826
22	0x3e4b6bc5	0.1986533
23	0x3e6a11df	0.2285838
24	0x3e9ac3be	0.30227464
25	0x3eab23f5	0.3342587
26	0x3e00478b	0.12527291
27	0x3eb481be	0.35255235
28	0x3ec459af	0.38349673
29	0x3eb528f3	0.35382804
30	0x3e2cedc9	0.16887583
31	0x3edce515	0.43143526
32	0x3ed266e2	0.41094118
33	0x3ee6e5bc	0.45097148
34	0x3e6d711c	0.23187679
35	0x3eac803f	0.33691594
36	0x3f3d01fe	0.73831165
37	0x3e4239eb	0.18967406
38	0x3e7c7d3b	0.24657147
39	0x3eafa443	0.3430501
40	0x3e354b89	0.17704596
41	0x3e652614	0.22377807
42	0x3ecdb914	0.40180266
43	0x3e6b4b8f	0.22978042
44	0x3e1f9adc	0.15586418
45	0x3e9b5af1	0.3034282
46	0x3e79b3ee	0.24385044
47	0x3e2c7c09	0.1684419
48	0x3e65d379	0.22443952
49	0x3e804516	0.25052708
50	0x3f23aabc	0.63932395
51	0x3e6cfdeb	0.23143737
52	0x3e80214c	0.25025403
53	0x3e7ea7fa	0.24868765
54	0x3e55276c	0.2081582
55	0x3e58e1e6	0.21179923
56	0x3e9c92eb	0.3058084
57	0x3e99f40c	0.30069005
58	0x3e8a5c8f	0.27023742
59	0x3eb4fd4a	0.35349494
60	0x3ec749f8	0.3892362
61	0x3ef160cb	0.4714416
62	0x3f5baf07	0.85813946
63	0x3eea69d5	0.45783868
64	0x3e9eb4ea	0.309974
65	0x3e1f0aa9	0.1553141
66	0x3ea95cee	0.33078712
67	0x3e9a02a6	0.30080146
68	0x3ebf169c	0.37321937
69	0x3f40c15e	0.75295055
70	0x3eada199	0.33912352
71	0x3eaa952b	0.3331693
72	0x3ea28f2b	0.31749853
73	0x3e85a958	0.26105762
74	0x3ece945f	0.40347573
75	0x3ecab494	0.39590895
76	0x3e81111a	0.2520836
77	0x3f082334	0.53178716
78	0x3e54f432	0.20796278
79	0x3e851340	0.2599125
80	0x3e20213e	0.15637681
81	0x3ee579f1	0.44819596
82	0x3e993149	0.29920414
83	0x3e8f1c18	0.2795112
84	0x3eab2643	0.3342763
85	0x3e144da5	0.14482744
86	0x3efa42a2	0.48878962
87	0x3eaa3950	0.3324685
88	0x3e9d14c3	0.30679902
89	0x3ed79462	0.42105395
90	0x3e6ff691	0.23433901
91	0x3ebd9052	0.3702417
92	0x3ea8d684	0.32976162
93	0x3e93de83	0.288807
94	0x3f13528c	0.5754783
95	0x3eab3a42	0.33442885
96	0x3e65f254	0.22455722
97	0x3e90d9de	0.2829122
98	0x3e1e2d3d	0.15446945
99	0x3e255a98	0.1614784
100	0x3eab5841	0.3346577
101	0x3ee091e0	0.43861294
102	0x3ed7e3a0	0.42165852
103	0x3e6e45a2	0.2326875
104	0x3eecf991	0.46284154
105	0x3f154554	0.5830891
106	0x3e9dba3c	0.30806148
107	0x3e80a7ef	0.25128123
108	0x3e66bf68	0.22533953
109	0x3eb3bd29	0.35105255
110	0x3e533152	0.20624283
111	0x3e2c4671	0.16823746
112	0x3e8bc306	0.2729723
113	0x3f2113db	0.6292092
114	0x3e55f385	0.20893677
115	0x3eb0f2a5	0.34560123
116	0x3edeb219	0.43495253
117	0x3e888ee8	0.2667153
118	0x3e8d9c37	0.27658245
119	0x3e8b2fab	0.27184805
120	0x3ed436a2	0.41447932
121	0x3ec9add9	0.39390448
122	0x3e5ff0f6	0.21869263
123	0x3e5c43a3	0.21510176
124	0x3d42bd76	0.047543965
125	0x3e403523	0.1877027
126	0x3e77e298	0.24207532
127	0x3e621470	0.22078109

layers.4.weight f4 [128, 128]
0	0xbd2fbecb	-0.042906564
1	0xbdcc7cfa	-0.09984775
2	0xbd33a974	-0.043862775
3	0x3d937091	0.07199205
4	0x3d996fbb	0.07492014
5	0xbd29fca4	-0.041500703
6	0xbc1271c6	-0.0089382585
7	0x3d88acc3	0.06673577
8	0x3b6c6e51	0.0036076496
9	0xbd5dbc9a	-0.054134943
10	0x3d405978	0.046960324
11	0xbce298ad	-0.027660692
12	0xbb4843ae	-0.0030557918
13	0x3ce7a0d0	0.028274924
14	0x3cf06ff5	0.02935026
15	0xbd5ace29	-0.053419266
16	0xbe020e07	-0.12700664
17	0x3a874297	0.0010319528
18	0xbce53ca1	-0.027983012
19	0xbca8a321	-0.020585598
20	0xbdb53669	-0.088482685
21	0xbbbe4dcb	-0.0058076135
22	0xbb2e5681	-0.0026601853
23	0xbd257d07	-0.04040244
24	0x3d6d784b	0.05797605
25	0xbd4009da	-0.046884395
26	0x3c47898a	0.012178788
27	0x3cb9c123	0.022675103
28	0xbc8fdc00	-0.017560959
29	0xbd5c3bdc	-0.053768024
30	0xbd542a1a	-0.051797964
31	0xbbda6d5f	-0.00666587
32	0xbd21eed4	-0.039534405
33	0x3d92f660	0.071758986
34	0x3b9a110b	0.0047017387
35	0xbd193353	-0.037402462
36	0xbd4f3a5d	-0.05059277
37	0x3d204907	0.039132144
38	0x3ce225ce	0.027605917
39	0xbdb6bb67	-0.08922463
40	0xbda497c4	-0.080367595
41	0xbd526580	-0.05136633
42	0xbd418821	-0.047248963
43	0xbcb3714c	-0.02190461
44	0xbd85c338	-0.06531376
45	0xbd87fdca	-0.06640203
46	0xbcf15f7c	-0.029464476
47	0x3da15d6e	0.078791484
48	0xbda9ca6b	-0.08290561
49	0x3da16494	0.07880512
50	0xbd4915e6	-0.04909315
51	0x3c188591	0.009309188
52	0x3c48cb99	0.012255573
53	0xbdb06da9	-0.08614666
54	0x3d33287e	0.04373979
55	0x3d0a9858	0.033836693
56	0xbc15c693	-0.009141582
57	0x3d6ea984	0.05826713
58	0x3ce07f25	0.027404377
59	0xbd049651	-0.032369915
60	0xbcf2865b	-0.029605081
61	0x3d80fc57	0.0629813
62	0xbdabeba4	-0.08394554
63	0xbc96cf85	-0.0184095
64	0xbc8081d6	-0.01568691
65	0xbd8d61c3	-0.06903412
66	0xbd2a4920	-0.041573644
67	0x3c7b5822	0.015340837
68	0xbd54d58c	-0.051961467
69	0xbca92dae	-0.020651665
70	0xbd35c7ad	-0.04437988
71	0xbbe3878f	-0.00694365
72	0x3d24b4b4	0.040211394
73	0x3db061fc	0.08612439
74	0x3d8db372	0.06918992
75	0xbcf0acf9	-0.029379355
76	0xbd9b2fbf	-0.07577466
77	0xbb67ae89	-0.0035351834
78	0xbc549de1	-0.012977094
79	0xbd6e1d09	-0.05813316
80	0xba76d021	-0.0009415169
81	0x3d067437	0.032825675
82	0x3c03b9cf	0.008039906
83	0x3cdc2564	0.026873298
84	0x3d4f1abf	0.050562616
85	0x3c739a93	0.014868396
86	0x3d858cb3	0.06520977
87	0xbcd969da	-0.026539732
88	0x3cba727f	0.022759674
89	0x3ceed34d	0.02915349
90	0x3d8c674f	0.06855642
91	0x3d42599e	0.047448747
92	0x3d626e11	0.05528075
93	0x3d3abee4	0.045592204
94	0x3d813ae6	0.06310062
95	0xbd8f668a	-0.0700198
96	0x3d49da7c	0.04928063
97	0x3d3b9626	0.04579749
98	0x3d7619a3	0.060083043
99	0x3b97ca6c	0.004632285
100	0xbd2caf0c	-0.042159125
101	0xbd81ac08	-0.063316405
102	0xbdb67e6f	-0.08910834
103	0x3d60bb95	0.054866392
104	0xbdb75603	-0.08951952
105	0xbdace8f4	-0.0844287
106	0xbd9502d4	-0.0727593
107	0x3d86c8ba	0.06581254
108	0xbd13e254	-0.036104515
109	0x3d4955ba	0.04915402
110	0xbc71d56e	-0.014760358
111	0x3d174f2f	0.03694075
112	0xbd1a32d5	-0.037646133
113	0x3c05244a	0.008126328
114	0xbdc837f5	-0.09776298
115	0x3d822f74	0.06356707
116	0x3d578210	0.05261427
117	0xbd8a63bd	-0.06757305
118	0xbd3c7dc6	-0.046018384
119	0x3cde8b6a	0.027166087
120	0xbda2f1c2	-0.07956268
121	0xbc3a891b	-0.011385228
122	0x3cfeea4b	0.031117579
123	0xbd2e5c04	-0.04256822
124	0x3c80d710	0.01572755
125	0xbd4e589c	-0.050377473
126	0xbd99f31e	-0.07517074
127	0x3dbe276e	0.09284864
128	0x3cfce6de	0.030871805
129	0x3d552583	0.052037727
130	0xbdb02274	-0.086003214
131	0xbcca1441	-0.024667861
132	0x3d9b6bf9	0.075889535
133	0xbda8e6a7	-0.082471184
134	0x3cafcea4	0.021460839
135	0xbb0d8225	-0.0021592465
136	0x3c36b926	0.011152541
137	0xbd920af9	-0.07130999
138	0x3d8ed48d	0.069741346
139	0x3db2cffd	0.08731077
140	0x3d5a480f	0.053291377
141	0xbd8e2ef1	-0.06942547
142	0xbbfa3f2e	-0.007636926
143	0x3cd7ee7e	0.02635884
144	0x3de3e73c	0.11128089
145	0x3d9e144a	0.077187136
146	0xbd8f5aab	-0.069997154
147	0xbd794287	-0.06085446
148	0xbc24aef7	-0.0100514805
149	0xbd93629e	-0.07196544
150	0xbc037a90	-0.008024827
151	0x3d386f40	0.04502797
152	0xbd888bca	-0.06667288
153	0x3dad7028	0.08468658
154	0xbda0ee52	-0.07857956
155	0x3d0925b2	0.033483215
156	0x3d88e9fc	0.06685254
157	0xbc09ebd3	-0.008418041
158	0x3d7f71f8	0.06236455
159	0x3d434401	0.047672275
160	0x3d48dee9	0.04904071
161	0xbd5fdd2e	-0.054654293
162	0x3d5960db	0.053070884
163	0x3d6875c1	0.056752924
164	0x3c3b78bd	0.0114423605
165	0xbcb91290	-0.02259186
166	0x3d0cddc4	0.03439118
167	0xbb94a046	-0.0045357076
168	0x3d8cdb5d	0.06877778
169	0xbda51788	-0.08061129
170	0xbd88a1e0	-0.066715
171	0x3d9e0b88	0.07717043
172	0x3cbbdb38	0.02293168
173	0x3daa563b	0.083172284
174	0xbd4ce5d4	-0.05002387
175	0xbd284183	-0.0410781
176	0x3cdd0597	0.026980205
177	0x3d468963	0.048470866
178	0x3db1c1f3	0.08679571
179	0xbc2d33cd	-0.010571432
180	0xbd30b822	-0.043144353
181	0x3d2dbba0	0.04241526
182	0xbd0805fa	-0.033208825
183	0x3d73d214	0.059526518
184	0xbd2b43cb	-0.0418127
185	0x3d8b4356	0.06799953
186	0xbd95a07d	-0.07306001
187	0x3ccadeb9	0.024764406
188	0xbc6a7783	-0.01431072
189	0x3d023c2d	0.03179567
190	0x3d1acd39	0.03779337
191	0xbd5dee55	-0.05418237
192	0x3bd4f026	0.0064983545
193	0x3d1209fd	0.035654057
194	0x3dd426b1	0.10358942
195	0xbc3aef9f	-0.011409669
196	0x3d6057c7	0.05477121
197	0xbd394f23	-0.045241486
198	0x3d2c13e2	0.04201115
199	0xbcab92bb	-0.02094399
200	0xbdbc9265	-0.0920761
201	0xbcf8a4d0	-0.030352026
202	0x3c73ea39	0.014887386
203	0x3d88177e	0.06645106
204	0xbd4e4472	-0.050358243
205	0x3cbdd096	0.02317075
206	0x3db286e7	0.08717137
207	0xbd47f3a5	-0.048816342
208	0xbd07ef00	-0.033186913
209	0xbc168e91	-0.009189264
210	0xbd779c45	-0.060451765
211	0xbda0c3cb	-0.078498445
212	0xbc004001	-0.00782776
213	0xbd83eac7	-0.064412646
214	0xbb12af18	-0.0022382196
215	0xbd9d5a9b	-0.07683297
216	0x3ca0a67f	0.019610642
217	0x3d154687	0.036444213
218	0xbd9df401	-0.07712556
219	0xbd20c40f	-0.039249476
220	0xbd585798	-0.05281791
221	0xbd758584	-0.059941784
222	0xbd368b26	-0.044566296
223	0xbdacfc56	-0.08446567
224	0x3d9be2c6	0.07611613
225	0x3d8fe775	0.07026569
226	0xbb1c0cb8	-0.0023811292
227	0xbd243516	-0.04008969
228	0x3d8d4be2	0.06899239
229	0x3c86572f	0.016398994
230	0x3d793708	0.060843498
231	0xbdcc6c66	-0.09981613
232	0x3cca615a	0.024704624
233	0x3d772d06	0.060345672
234	0xbda14222	-0.07873942
235	0x3c1547b1	0.009111331
236	0xbd087188	-0.033311397
237	0x3c91a7b5	0.017780164
238	0x3cfeddfb	0.031111708
239	0xbd0c8971	-0.03431076
240	0xbd845f6c	-0.06463513
241	0xbd3639f0	-0.044488847
242	0x3d34c85a	0.044136383
243	0xbbf9db01	-0.0076249843
244	0x3c3fbd93	0.011702913
245	0x3d58b6fe	0.05290889
246	0xbd92e885	-0.07173256
247	0xbc47b755	-0.012189706
248	0xbd817e7b	-0.06322952
249	0xbcf0513e	-0.029335614
250	0x3cc3cdcc	0.023901843
251	0xbd820b36	-0.063497946
252	0x3c901ff0	0.017593354
253	0x3d312d17	0.04325589
254	0x3c47c2b2	0.012192415
255	0x3cd56a3d	0.026051635

layers.4.bias f4 [128]
0	0xbcc9d46a	-0.02463742
1	0xbc97eaca	-0.018544573
2	0x3c0e66ec	0.008691531
3	0x3bd06fbb	0.0063609756
4	0xbd98d119	-0.07461757
5	0xbc90f5a2	-0.017695252
6	0x3cfb73ce	0.030694868
7	0x3dae20cd	0.0850235
8	0x3d3830bf	0.044968363
9	0x3d7b88fb	0.06140993
10	0x3d100431	0.035160247
11	0x3d2b718b	0.04185633
12	0xbda9d7c3	-0.082931064
13	0xbd837c97	-0.06420248
14	0x3d825942	0.06364681
15	0xbcb172ca	-0.021661181
16	0x3c80698c	0.015675329
17	0xbc80b99f	-0.015713511
18	0xbd209f0d	-0.039214183
19	0x3d1d8f23	0.038466584
20	0x3d1f386c	0.038872167
21	0x3ccac745	0.024753222
22	0x3d08e9df	0.03342616
23	0x3cc101b4	0.023560382
24	0xbce06b98	-0.027395055
25	0x3cee4beb	0.029088935
26	0x3ce54bcc	0.027990244
27	0xbd6465b6	-0.05576106
28	0xbcb529df	-0.022114692
29	0xbcb38c11	-0.021917375
30	0xbc3644a1	-0.011124761
31	0xbd01bb48	-0.031672746
32	0x3d7cd4ac	0.061726257
33	0xba80f0ff	-0.0009837447
34	0xbcf3021a	-0.029664088
35	0x3d99837f	0.07495784
36	0x3d770192	0.060304232
37	0xbd067ad5	-0.032831986
38	0xbda228ab	-0.07917913
39	0xbd3f4f48	-0.046706468
40	0x3da6f012	0.081512585
41	0x3d8088f5	0.062761225
42	0xbd8cb6d5	-0.0687081
43	0xbd534dd2	-0.051587887
44	0x3d48060a	0.048833884
45	0x3db2c393	0.08728709
46	0xbcb68add	-0.022283012
47	0x3d464f45	0.04841544
48	0xbce8f842	-0.028438691
49	0x3db33c08	0.087516844
50	0xbc293a3b	-0.010328825
51	0x3d032c94	0.032024935
52	0xbd544c28	-0.05183044
53	0xbc548fe4	-0.012973759
54	0x3d8cdd96	0.06878202
55	0x3d84a069	0.06475908
56	0xbd08bdbf	-0.03338408
57	0xbd6971a2	-0.056993134
58	0x3d3b1835	0.045677382
59	0xbc36b766	-0.011152124
60	0xbd049a1b	-0.03237353
61	0xbb80caa7	-0.003930408
62	0x3cfd9683	0.030955559
63	0xbdb09607	-0.086223654
64	0xbbe7dc8a	-0.007075851
65	0x3cd9a114	0.026566066
66	0xbd1d68cc	-0.03843002
67	0xbcac93f9	-0.021066653
68	0x3d7d3927	0.061822083
69	0xbcd4e810	-0.025989562
70	0x3d956534	0.072946936
71	0x3d16d0c0	0.036820173
72	0xbd16cb0c	-0.036814734
73	0x3d1090b2	0.035294242
74	0x3d4746c2	0.048651464
75	0xbd0c69c6	-0.03428056
76	0x3da280b5	0.07934705
77	0xbd9b5a7e	-0.075856194
78	0x3d81be95	0.06335179
79	0xbd8e33ce	-0.06943475
80	0x3c72faca	0.014830301
81	0x3c612a82	0.013743045
82	0x3a1c6d0c	0.0005967177
83	0xbda04947	-0.078264765
84	0xbd0787da	-0.033088543
85	0xbda96ab4	-0.08272305
86	0xbd1f4764	-0.038886443
87	0x3d6dbfc9	0.05804423
88	0xbd80729f	-0.06271862
89	0xbc96c12d	-0.01840266
90	0xbda5015e	-0.080569014
91	0x3d8e6492	0.06952776
92	0x3d9b85a8	0.07593852
93	0x3db47d82	0.08813001
94	0xbd8088bf	-0.06276082
95	0x3d9c1dd9	0.076228805
96	0xbd352162	-0.04422129
97	0x3cfc44fd	0.030794615
98	0x3ba87224	0.0051405597
99	0xbd4454a6	-0.04793229
100	0xbd721375	-0.059100587
101	0x3c265b27	0.010153568
102	0x3d7b836c	0.06140463
103	0x3d29de14	0.041471556
104	0x3c467fbd	0.012115416
105	0x3d4119b8	0.047143668
106	0x3da7a6d8	0.0818612
107	0x3d99185e	0.07475351
108	0x3bc64b19	0.006051433
109	0x3d899870	0.06718528
110	0xbca8a9eb	-0.020588836
111	0x3d80f229	0.062961884
112	0xbda01a84	-0.078175575
113	0x3d53be8d	0.051695395
114	0xbd104bb3	-0.035228442
115	0x3d24a1e7	0.040193465
116	0x3b1a0d70	0.0023506545
117	0xbd7f400a	-0.06231693
118	0x3d2a38aa	0.041557945
119	0x3c0b5c40	0.008505881
120	0xbc8d14f3	-0.017221903
121	0x3c34314f	0.010998084
122	0xba59fa85	-0.00083152234
123	0xbcb4d14b	-0.022072455
124	0x3db0e4b8	0.08637375
125	0xbd5a0bb0	-0.053233802
126	0x3d6e0ec1	0.05811954
127	0xbba1a147	-0.004932556

layers.5.weight f4 [128]
0	0x3f817073	1.0112442
1	0x3f7ff880	0.99988556
2	0x3f788f77	0.9709391
3	0x3f791231	0.9729338
4	0x3f7c0e02	0.98458874
5	0x3f798182	0.9746324
6	0x3f79d10e	0.9758462
7	0x3f81476f	1.0099925
8	0x3f7b26b4	0.9810593
9	0x3f843498	1.032855
10	0x3f827c1d	1.0194126
11	0x3f7cc1e4	0.98733354
12	0x3f823e68	1.0175295
13	0x3f7909f6	0.97280824
14	0x3f834c66	1.025769
15	0x3f7b4170	0.98146725
16	0x3f743eac	0.9540813
17	0x3f7b76bc	0.9822805
18	0x3f837e9f	1.0273017
19	0x3f814cad	1.0101525
20	0x3f821fc3	1.0165943
21	0x3f81defc	1.0146174
22	0x3f7c6820	0.9859638
23	0x3f7c4f98	0.9855895
24	0x3f8103f4	1.0079331
25	0x3f7c65da	0.98592913
26	0x3f7b025c	0.98050475
27	0x3f809fd1	1.0048772
28	0x3f7769ec	0.96646
29	0x3f797001	0.9743653
30	0x3f7d0eff	0.9885101
31	0x3f7860c6	0.97022665
32	0x3f81826b	1.0117925
33	0x3f806aae	1.0032556
34	0x3f7baefe	0.9831389
35	0x3f865e36	1.0497501
36	0x3f7c1520	0.98469734
37	0x3f7d6657	0.98984283
38	0x3f81477b	1.0099939
39	0x3f88676f	1.0656565
40	0x3f7c184b	0.9847457
41	0x3f813097	1.0092953
42	0x3f7880b8	0.9707141
43	0x3f7f1fb8	0.99657774
44	0x3f7baff7	0.98315376
45	0x3f79a539	0.97517735
46	0x3f7df48b	0.9920127
47	0x3f82601b	1.0185579
48	0x3f791e65	0.97312003
49	0x3f78434e	0.969777
50	0x3f81dfb7	1.0146397
51	0x3f7cdf11	0.9877787
52	0x3f7c3104	0.9851229
53	0x3f7b0be5	0.98065025
54	0x3f7e6547	0.99373287
55	0x3f833651	1.0250951
56	0x3f853ae2	1.0408595
57	0x3f81c7c7	1.0139092
58	0x3f77b359	0.9675804
59	0x3f7a1008	0.9768071
60	0x3f852df7	1.0404652
61	0x3f775d5a	0.9662682
62	0x3f853a0c	1.040834
63	0x3f7f8279	0.9980846
64	0x3f7f2463	0.99664897
65	0x3f8218c3	1.0163807
66	0x3f7bb3c2	0.98321164
67	0x3f831af5	1.0242602
68	0x3f8127d3	1.0090278
69	0x3f82a2c3	1.0205921
70	0x3f83c9ca	1.0295956
71	0x3f82c2de	1.0215719
72	0x3f7fc829	0.99914795
73	0x3f8093c9	1.00451
74	0x3f7a9bd1	0.97894007
75	0x3f797cae	0.9745587
76	0x3f85733f	1.0425795
77	0x3f771970	0.9652319
78	0x3f7bb453	0.9832203
79	0x3f78e8e6	0.97230375
80	0x3f7ae5da	0.98006976
81	0x3f8178f1	1.0115033
82	0x3f77874e	0.96690834
83	0x3f79f31e	0.9763659
84	0x3f83d263	1.029858
85	0x3f7f2b6a	0.9967562
86	0x3f81146a	1.0084355
87	0x3f78207f	0.96924585
88	0x3f77e5a3	0.9683477
89	0x3f7fbb03	0.9989473
90	0x3f80a73e	1.0051038
91	0x3f7d086a	0.98840964
92	0x3f80410f	1.0019854
93	0x3f815d4f	1.01066
94	0x3f7bcf3c	0.9836309
95	0x3f849a59	1.0359603
96	0x3f8191a0	1.0122566
97	0x3f7dad15	0.9909223
98	0x3f7c7ff7	0.9863276
99	0x3f7a6621	0.97812086
100	0x3f7d102a	0.9885279
101	0x3f813b37	1.0096196
102	0x3f8494f3	1.0357956
103	0x3f819996	1.0124996
104	0x3f828370	1.0196362
105	0x3f7bd5f4	0.9837334
106	0x3f7ecceb	0.9953143
107	0x3f7a749a	0.9783417
108	0x3f7cda04	0.98770165
109	0x3f80679b	1.0031618
110	0x3f7865ca	0.9703032
111	0x3f81b301	1.0132753
112	0x3f7b1d5d	0.9809168
113	0x3f865f64	1.0497861
114	0x3f78bf67	0.97167057
115	0x3f82577a	1.0182946
116	0x3f7f42c2	0.9971124
117	0x3f77649d	0.966379
118	0x3f7a02ac	0.97660327
119	0x3f7e55c9	0.9934965
120	0x3f7a9cfa	0.9789578
121	0x3f7d1d5d	0.9887293
122	0x3f81a034	1.0127015
123	0x3f7cb735	0.9871705
124	0x3f855a38	1.0418158
125	0x3f859ee8	1.0439119
126	0x3f840f83	1.0317234
127	0x3f829865	1.0202757

layers.5.bias f4 [128]
0	0x3c23eb7d	0.010004875
1	0x3bc8d7c2	0.006129236
2	0xbc9ce536	-0.019152265
3	0xbc3590b2	-0.011081861
4	0xbc483895	-0.012220521
5	0xbc1d7abf	-0.0096117845
6	0xbbe33985	-0.006934347
7	0x3c37620b	0.011192809
8	0xbc952eae	-0.018210735
9	0x3cf1a169	0.029495912
10	0x3ce6acc1	0.028158547
11	0xba851b98	-0.0010155318
12	0x3d1cec53	0.038311314
13	0xbcdea17b	-0.02717661
14	0x3cc0d4e6	0.023539018
15	0xbcb1886f	-0.021671502
16	0xbc5b390a	-0.013380298
17	0x3b3af7d5	0.0028529067
18	0x3cfcf162	0.030876819
19	0x3ccf9357	0.025338812
20	0x3ce2e880	0.027698755
21	0x3c6077ac	0.013700407
22	0x3ba74450	0.005104579
23	0xbc042026	-0.008064305
24	0xbb6c3498	-0.003604209
25	0xbb42d594	-0.0029729353
26	0xbcad52f0	-0.021157712
27	0x3cb42925	0.021992275
28	0xbce56a29	-0.028004723
29	0xbc32ddb4	-0.010917116
30	0xbb31c2c5	-0.0027124148
31	0xbcbc4ce5	-0.022985885
32	0x3c716f0b	0.014735947
33	0x3c3e5a55	0.0116182165
34	0xbc90a641	-0.017657401
35	0x3d573063	0.05253638
36	0xbbe24366	-0.006905007
37	0xbac4dd7d	-0.0015019622
38	0x3b0091fc	0.0019618263
39	0x3d8a5faf	0.067565314
40	0xbc85ffaf	-0.016357271
41	0x3b8b7130	0.0042554364
42	0xbcaea250	-0.021317631
43	0xbc034964	-0.008013103
44	0x3b983873	0.004645401
45	0xbcbdfa23	-0.023190564
46	0xbb8cdfd7	-0.0042991447
47	0x3c7c063a	0.015382344
48	0xbca25d4f	-0.019819884
49	0xbca224af	-0.019792883
50	0x3c8e2353	0.017350828
51	0xbc26d1b6	-0.010181835
52	0xbc19f6bb	-0.009397204
53	0xbc8e5253	-0.01737324
54	0xbc61cd25	-0.01378182
55	0x3d2ff32c	0.042956516
56	0x3ce5646d	0.028001988
57	0x3cd08018	0.025451705
58	0xbc9bb0ea	-0.019005258
59	0xbbe8058e	-0.0070807403
60	0x3d088969	0.03333417
61	0xbcafdf39	-0.021468746
62	0x3cb36a8e	0.021901395
63	0x3bd6830b	0.0065463833
64	0x3b28775e	0.0025705914
65	0x3d3712e2	0.044695742
66	0x3b8b7d88	0.004256908
67	0x3d019074	0.0316319
68	0x3c783957	0.01515039
69	0x3cad017f	0.021118877
70	0x3c272da0	0.010203749
71	0x3d2d2ccb	0.042279046
72	0x3c24bc7d	0.010054705
73	0xbb0002d1	-0.0019532929
74	0xbcf535fb	-0.029932966
75	0xbc119769	-0.008886197
76	0x3d38f93b	0.04515956
77	0xbcf7f382	-0.03026748
78	0xbb5c6220	-0.0033627823
79	0xbcc7dfd1	-0.024398716
80	0xbcb19516	-0.021677535
81	0x3c5d60f0	0.013511881
82	0xbcf70074	-0.030151583
83	0xbc1a7bd9	-0.009428942
84	0x3d39dddb	0.045377593
85	0xbb8cc76d	-0.0042962343
86	0x3c916d7b	0.0177524
87	0xbcdd4437	-0.027010066
88	0xbcfb4fe7	-0.030677749
89	0x3b4f736a	0.0031654486
90	0x3d4227d8	0.04740128
91	0x3bae51a5	0.0053197914
92	0x3b5cc94f	0.0033689325
93	0x3d097d88	0.03356698
94	0xbc339b17	-0.010962269
95	0x3cee8962	0.029118244
96	0x3cce5548	0.02518715
97	0x3c01b511	0.007916705
98	0xbbd19eb1	-0.0063970913
99	0xbcc2be86	-0.02377249
100	0xbc1f3be6	-0.009718871
101	0x3cdec80e	0.027195003
102	0x3d5177ba	0.05113957
103	0x3be809de	0.0070812544
104	0x3c592ce1	0.013255329
105	0xbc49d2c9	-0.0123183215
106	0x3c92be37	0.017912967
107	0xbc79c174	-0.015243877
108	0xbbb5c537	-0.0055471915
109	0x3c17e279	0.009270304
110	0xbc4871ac	-0.012234133
111	0x3b122811	0.0022301713
112	0xbc0eb2eb	-0.00870965
113	0x3d52eaf7	0.05149361
114	0xbca9ac0f	-0.020711927
115	0x3cd3d6f3	0.025859332
116	0x3bfdeb9d	0.0077490346
117	0xbc88f999	-0.01672058
118	0xbc0e2795	-0.008676429
119	0x3ba3f005	0.005002978
120	0xbcd4f390	-0.025995046
121	0xbc8ad12d	-0.016945446
122	0x3c0e8135	0.008697798
123	0xbc5eacf9	-0.013591045
124	0x3d05c088	0.032654315
125	0x3d0d7c3c	0.034542307
126	0x3d299a6b	0.04140703
127	0x3d19453a	0.037419535

layers.5.running_mean f4 [128]
0	0xbecff3fa	-0.40615827
1	0xba6978f0	-0.0008906266
2	0x3e0581f6	0.13037857
3	0xbdc1ca79	-0.09462447
4	0x3e1b3d8d	0.15160199
5	0xbca37edb	-0.01995795
6	0x3c763c6a	0.015029052
7	0xbe929b07	-0.286339
8	0xbe49e3af	-0.1971576
9	0xbdb878bc	-0.09007403
10	0xbe24eebc	-0.16106695
11	0x3d836dfe	0.06417464
12	0xbde931f8	-0.11386484
13	0xbdfe6762	-0.124220625
14	0x3e6812a2	0.22663358
15	0x3ee36bdb	0.44418225
16	0x3e92484a	0.28570777
17	0x3c881b82	0.01661468
18	0xbcc905e0	-0.024538934
19	0xbe8725cb	-0.2639602
20	0xbe9154ae	-0.28384918
21	0x3e24a104	0.16077048
22	0x3e88478e	0.26617092
23	0x3dc132b0	0.09433496
24	0x3e606762	0.21914437
25	0xbe4256ef	-0.18978475
26	0xbddc9a83	-0.10771658
27	0xbe530e56	-0.20610937
28	0xbe365937	-0.1780747
29	0x3e8278df	0.25482842
30	0xbe51919f	-0.20465706
31	0xbe7990ab	-0.24371593
32	0x3dc018c0	0.09379721
33	0xbe288df5	-0.16460402
34	0x3d6938b0	0.056938827
35	0x3e9ff6b0	0.31242895
36	0x3cd2f773	0.025752759
37	0x3c99559f	0.018717585
38	0xbdb5e52b	-0.08881601
39	0xbd7a24ee	-0.061070375
40	0x3d9cd731	0.07658232
41	0xbef955eb	-0.48698363
42	0xbed3e3e7	-0.41384813
43	0xbdf44740	-0.11927652
44	0xbd9e7660	-0.07737422
45	0xbe85a73b	-0.2610415
46	0x3d8109f4	0.063007265
47	0xbeb2445c	-0.3481778
48	0x3e20fecb	0.15722196
49	0x3e751937	0.239354
50	0x3d406273	0.04696889
51	0x3e498691	0.1968024
52	0xbeb8a7e4	-0.3606559
53	0x3e572810	0.21011376
54	0x3ea9e23a	0.3318041
55	0xbde76deb	-0.11300262
56	0xbd0e7ba3	-0.034785878
57	0xbf0983e7	-0.5371689
58	0x3d60a3f4	0.054843858
59	0xbe1d6619	-0.15370978
60	0xbd6876cb	-0.056753915
61	0xbe0b7250	-0.13617826
62	0x3db33eec	0.08752236
63	0xbee025ab	-0.43778738
64	0x3d259624	0.04042639
65	0xbe21e573	-0.15810184
66	0xbd8d0f88	-0.06887728
67	0xbeb5cf88	-0.35509896
68	0xbe282321	-0.1641965
69	0x3e9ad29f	0.30238816
70	0x3e397cf1	0.18114068
71	0xbeebec06	-0.4607851
72	0xbc912165	-0.017716119
73	0xbe741da2	-0.23839429
74	0x3de2a7a7	0.110671334
75	0x3e6cb0f1	0.23114373
76	0x3da416f1	0.08012188
77	0xbe8c338a	-0.2738307
78	0x3eb4a0ad	0.35278836
79	0xbe9c81c3	-0.3056775
80	0xbdcab0bf	-0.09896993
81	0x3e93c126	0.28858298
82	0x3d5f440a	0.054508246
83	0xbe03dbb0	-0.12876773
84	0xbda35f08	-0.0797711
85	0xbd850f4c	-0.06497058
86	0xbd698212	-0.05700881
87	0x3e7efd87	0.249014
88	0xbecbb50f	-0.39786574
89	0xbda5161b	-0.08060857
90	0xbee019c9	-0.43769673
91	0x3d2ef63a	0.04271529
92	0xbe9f3c0d	-0.31100503
93	0xbe596a5c	-0.21231979
94	0x3ea7c2f9	0.3276594
95	0xbe78dcd3	-0.24302988
96	0xbefd7586	-0.49503726
97	0x3d6dbe6c	0.05804293
98	0xbdbd6ae9	-0.09248907
99	0xbe0f87e1	-0.14016677
100	0xbed0333f	-0.40664098
101	0x3e8ddea1	0.27708915
102	0xbf15c353	-0.58501166
103	0xbeb9c7c2	-0.36285216
104	0x3db745a9	0.089488335
105	0xbcaab81a	-0.02083974
106	0xbec5af14	-0.38610137
107	0x3df184eb	0.1179293
108	0xbcf78e68	-0.030219272
109	0xbea8a920	-0.32941532
110	0xbe1a88f3	-0.15091304
111	0xbdfa875e	-0.122328505
112	0xbe6391c0	-0.22223568
113	0xbc7a27dd	-0.015268293
114	0xbe10585b	-0.14096205
115	0x3e00af6b	0.12566917
116	0x3e81d231	0.25355676
117	0xbecaec83	-0.3963357
118	0x3eec507b	0.46155152
119	0xbe561d28	-0.2090956
120	0x3e62cb7a	0.22147933
121	0x3d5c2422	0.053745396
122	0xbf02996b	-0.5101535
123	0xbdd119da	-0.10210009
124	0x3e8b4ed1	0.2720857
125	0xbe96654d	-0.2937416
126	0xbedf6dc8	-0.43638444
127	0x3df3e599	0.11909027

layers.5.running_var f4 [128]
0	0x3f0df4c3	0.554516
1	0x3f06ebd5	0.527036
2	0x3ea12537	0.31473705
3	0x3ea63043	0.32458696
4	0x3ed651a8	0.41859174
5	0x3ec5ba5c	0.38618743
6	0x3eee6031	0.46557763
7	0x3f1d086a	0.61340964
8	0x3ec74798	0.3892181
9	0x3f4f669e	0.81015956
10	0x3ee8debd	0.45482436
11	0x3eb3cbd9	0.3511646
12	0x3f187620	0.59555244
13	0x3ee5e0f4	0.44898188
14	0x3f2ff993	0.68740195
15	0x3ead1dc5	0.33811775
16	0x3e9368b6	0.28790826
17	0x3eabceed	0.3355631
18	0x3f154ddc	0.5832193
19	0x3efbd180	0.49183273
20	0x3f2c8f70	0.6740637
21	0x3efea613	0.4973608
22	0x3f05b731	0.5223265
23	0x3ee1e0c9	0.4411681
24	0x3f115393	0.5676815
25	0x3eee9f80	0.46606064
26	0x3e9beba7	0.30453226
27	0x3ee01738	0.43767715
28	0x3ec40453	0.3828455
29	0x3eae2c88	0.3401835
30	0x3f051f4a	0.5200087
31	0x3eb4a687	0.352833
32	0x3f1fbaa5	0.6239417
33	0x3f24cc1b	0.6437394
34	0x3ecec38a	0.4038356
35	0x3f45836c	0.7715366
36	0x3f001660	0.5003414
37	0x3eb632e8	0.35585713
38	0x3f1acd1f	0.6046924
39	0x3f688eb3	0.9084274
40	0x3e8dc4f5	0.2768933
41	0x3f020081	0.5078202
42	0x3ed5e4ea	0.4177621
43	0x3eae1922	0.3400355
44	0x3ee72330	0.45144033
45	0x3ea317b7	0.3185403
46	0x3e626f54	0.22112781
47	0x3eb1116d	0.34583607
48	0x3eb9604d	0.36206284
49	0x3ec09047	0.37610075
50	0x3f09b030	0.53784466
51	0x3ee4eda6	0.4471256
52	0x3ea378ba	0.31928045
53	0x3ea33299	0.3187454
54	0x3edccefb	0.43126664
55	0x3f3fdb55	0.7494405
56	0x3f240316	0.6406721
57	0x3ee73d2a	0.45163852
58	0x3e8cd2dd	0.27504626
59	0x3e96b6a4	0.2943622
60	0x3f635be8	0.8881211
61	0x3e7d8b79	0.24760236
62	0x3f3d0c86	0.73847234
63	0x3eafeafa	0.3435896
64	0x3ec3f23e	0.38270754
65	0x3f27c3f1	0.6553336
66	0x3ebff61c	0.37492454
67	0x3eca0fbb	0.39465126
68	0x3ea9c907	0.33161184
69	0x3f1d878a	0.6153494
70	0x3f1c2ec7	0.61008877
71	0x3f062e72	0.5241462
72	0x3ed37416	0.41299504
73	0x3f2e7a0e	0.6815499
74	0x3e60e3c1	0.21961881
75	0x3e66c485	0.22535904
76	0x3f661b6e	0.89885604
77	0x3efa07e0	0.48834133
78	0x3ea8e9ac	0.32990777
79	0x3e7f386f	0.24923871
80	0x3e905426	0.281892
81	0x3f06cdf4	0.5265801
82	0x3e88d5a2	0.2672549
83	0x3eb3d4c2	0.3512326
84	0x3f24528f	0.64188474
85	0x3f171e5f	0.5903072
86	0x3ef20df2	0.47276264
87	0x3eebd84a	0.46063453
88	0x3e9e7564	0.30948937
89	0x3f03f89e	0.51551235
90	0x3f0a7cbc	0.5409658
91	0x3eefc6f3	0.46831474
92	0x3f1bf949	0.60927254
93	0x3efccae2	0.49373537
94	0x3eb796a9	0.35857132
95	0x3f406f8e	0.7517022
96	0x3eeefa03	0.4667512
97	0x3ee77283	0.45204553
98	0x3ed47e14	0.4150244
99	0x3e7b8a57	0.24564491
100	0x3eca9461	0.3956633
101	0x3f2fe7eb	0.68713254
102	0x3f03751e	0.5135058
103	0x3f1f2e32	0.62179863
104	0x3f1a660c	0.6031196
105	0x3eb358d7	0.35028717
106	0x3f02b8ff	0.5106353
107	0x3eba1e8e	0.36351436
108	0x3ec940ec	0.39307344
109	0x3ed18e26	0.40928763
110	0x3e8648ee	0.26227516
111	0x3f1cd5b4	0.61263585
112	0x3e95b557	0.29239914
113	0x3f77045b	0.9649102
114	0x3e8386bf	0.2568874
115	0x3f179991	0.592187
116	0x3ebec8ea	0.3726266
117	0x3ebda818	0.37042308
118	0x3ee0f8bf	0.43939778
119	0x3ec14426	0.37747306
120	0x3e817090	0.2528119
121	0x3f196780	0.59923553
122	0x3eb225df	0.34794518
123	0x3ec01912	0.37519127
124	0x3f27eca2	0.6559545
125	0x3f256370	0.64604855
126	0x3f473333	0.778125
127	0x3ee37053	0.44421634
