models/best_fold3_hd256_do0.3.pth (torch, 425766 bytes, 20 tensors)

feature_extractor.0.weight f4 [256, 10]
0	0xbe9d79ed	-0.30757084
1	0x3c10f9f6	0.008848658
2	0x3dba44e5	0.09095172
3	0x3d62e0c2	0.055390127
4	0x3e3ff058	0.18744028
5	0xbe87ba6e	-0.26509422
6	0x3e656583	0.22402005
7	0x3df09a01	0.11748124
8	0x3c8b8ac6	0.017033946
9	0xbe68d0de	-0.22735927
10	0x3c88d380	0.016702414
11	0xbe16124f	-0.14655422
12	0xbd54158a	-0.051778354
13	0x3e58a51e	0.21156737
14	0x3c5a38ef	0.013319238
15	0xbe87f250	-0.26552057
16	0x3e0f2e9b	0.13982622
17	0xbe36160c	-0.17781848
18	0x3dbfba31	0.09361685
19	0xbe9570ea	-0.2918771
20	0xbe83d2ef	-0.25746867
21	0xbe35ea34	-0.17765123
22	0xbe8177a8	-0.25286603
23	0xbdfe7b47	-0.12425857
24	0xbe08bfe4	-0.1335445
25	0xbe575c1b	-0.21031229
26	0x3e3397b9	0.17538346
27	0x3e4a24a8	0.19740546
28	0x3e15a64d	0.1461422
29	0xbdda3b11	-0.10655797
30	0x3ce74e1e	0.028235491
31	0x3e85c9fc	0.26130664
32	0xbe58d208	-0.2117387
33	0xbe882885	-0.26593414
34	0xbd774745	-0.060370702
35	0x3e3f1591	0.1866057
36	0xbcf22be8	-0.029561952
37	0x3e5338d1	0.20627142
38	0xbe69fa79	-0.22849454
39	0x3dca205f	0.098694555
40	0xbde7de0a	-0.113216475
41	0xbe18727a	-0.1488742
42	0x3de851d4	0.113437325
43	0x3e52e491	0.20595004
44	0x3e13bcec	0.14427537
45	0x3cb4ef48	0.022086754
46	0xbc179669	-0.009252169
47	0x3e3d4046	0.1848155
48	0x3db0133d	0.085974194
49	0x3e8f7db9	0.28025606
50	0xbe75eed3	-0.24016885
51	0xbba5b249	-0.0050566536
52	0x3e023bae	0.12718078
53	0x3db49163	0.08816793
54	0xbe9aebef	-0.30258128
55	0x3dc9c52b	0.0985206
56	0x3dd4f215	0.10397736
57	0xba3f04cf	-0.00072867883
58	0xbe33ad36	-0.17546543
59	0xbe8ae7ca	-0.27129966
60	0x3e4c2fd6	0.19940123
61	0xbd83be38	-0.06432766
62	0xbd799a2c	-0.060938045
63	0x3e99beb5	0.3002831
64	0x3e2ab3a5	0.16670091
65	0xbe9694f3	-0.29410514
66	0x3d9e18e4	0.07719591
67	0xbe9588af	-0.29205844
68	0x3e3658e3	0.17807345
69	0x3e33f536	0.1757401
70	0x3e4a0b5c	0.19730896
71	0x3e87d271	0.26527742
72	0xbde3fb2e	-0.11131893
73	0x3deaf83e	0.1147313
74	0x3d58e11f	0.052949067
75	0xbe87aee6	-0.26500624
76	0xbe09b420	-0.13447618
77	0xbe029c76	-0.12754998
78	0xbe79b207	-0.24384318
79	0xbd1da08f	-0.0384832
80	0x3e5f6b10	0.21818185
81	0xbe4981b4	-0.19678384
82	0xbd858dbd	-0.06521175
83	0x3d9e8d80	0.07741833
84	0xbe1000a7	-0.14062749
85	0x3e0b5c05	0.13609321
86	0x3d6c2420	0.05765164
87	0x3a9f2a16	0.001214328
88	0xbe299b00	-0.16563034
89	0xbe259b69	-0.16172566
90	0x3d369738	0.044577807
91	0xbe7c3312	-0.24628857
92	0xbe775d0d	-0.2415659
93	0xbe9fa79b	-0.3118256
94	0x3e0bab3a	0.13639536
95	0x3d779a79	0.06045005
96	0x3e74d5a5	0.23909624
97	0x3e1ba25c	0.15198654
98	0xbe344e32	-0.17607954
99	0xbe59be8f	-0.21264099
100	0xbdd5ba14	-0.10435882
101	0xbe055191	-0.13019396
102	0xbe4f0e6c	-0.20220345
103	0xbe8bc8c6	-0.27301615
104	0xbddfe771	-0.10932816
105	0xbcd5b6f9	-0.026088225
106	0x3ddd4f71	0.10806168
107	0x3e1a3e92	0.15062931
108	0xbc91a3b2	-0.017778251
109	0xbe6bb4b6	-0.23018155
110	0x3ddbad4f	0.10726415
111	0xbbadede6	-0.0053079007
112	0xbd92e4a3	-0.07172515
113	0x3daec179	0.08532996
114	0xbe8a7054	-0.27038825
115	0x3e8d4567	0.27592012
116	0xbe65836b	-0.22413413
117	0x3d7540ae	0.059876136
118	0xbe3a51c2	-0.1819525
119	0x3c989a1a	0.018628169
120	0x3dcd2ac8	0.100179255
121	0xbdb2b9ab	-0.087268196
122	0x3cee6cf5	0.02910469
123	0xbda3f7c2	-0.080062404
124	0x3cfb16b3	0.030650472
125	0x3e94782b	0.2899793
126	0x3e762c47	0.24040328
127	0xbe61be98	-0.22045362
128	0xbd8290c8	-0.06375271
129	0x3e058307	0.13038264
130	0xbdbb0748	-0.09132248
131	0xbe8983f0	-0.26858473
132	0xbe1019b3	-0.14072303
133	0x3e212a39	0.15738763
134	0xbe012055	-0.1260999
135	0x3db3b920	0.08775544
136	0xbd890601	-0.06690598
137	0xbe81a2a8	-0.2531941
138	0xbcb8396a	-0.022488315
139	0xbe69245a	-0.22767773
140	0xbd1846eb	-0.037177008
141	0xbbdd84c2	-0.0067602107
142	0xbe9c60e0	-0.3054266
143	0x3d7119f1	0.05886263
144	0xbdb5389a	-0.088486865
145	0x3e655370	0.2239511
146	0x3e9f36a9	0.3109639
147	0xbe7a4e43	-0.24443917
148	0x3e63edc2	0.22258666
149	0x3e983247	0.2972586
150	0xbea431ea	-0.3206933
151	0xbd5188fe	-0.051156037
152	0x3e64c1f9	0.2233962
153	0xbddbbe5f	-0.1072967
154	0xbe88d642	-0.26725966
155	0x3e5e9ee4	0.217403
156	0x3e122cbc	0.14274877
157	0x3dab60e6	0.08368091
158	0xbd8054c8	-0.06266171
159	0x3e344997	0.17606197
160	0x3e97861f	0.29594514
161	0xbe53635e	-0.20643374
162	0x3e36e9ef	0.17862676
163	0x3d3e9b1a	0.046534635
164	0xbe7641e5	-0.24048574
165	0xbcde1560	-0.027109802
166	0x3e95f5e4	0.29289162
167	0xbe97347e	-0.29532236
168	0x3e5c8b0f	0.21537422
169	0x3e9091b5	0.28236166
170	0xbd96ddd1	-0.07366527
171	0xbdeefd80	-0.11669445
172	0x3e8288e4	0.25495064
173	0xbcae7295	-0.021294871
174	0x3e5190a6	0.20465335
175	0x3e206c21	0.15666248
176	0x3e26a6d1	0.16274573
177	0x3e0ab320	0.13544893
178	0xbe932325	-0.2873775
179	0xbd8cc417	-0.06873339
180	0xbe99a204	-0.3000642
181	0x3e632ea0	0.22185755
182	0xbd3b1fb4	-0.04568453
183	0x3e1274c7	0.1430236
184	0xbe1e2234	-0.15442735
185	0x3de6a9cc	0.11262855
186	0xbe02ef93	-0.12786703
187	0x3e03c784	0.12869078
188	0x3e0b58f6	0.13608155
189	0x3e32a0a2	0.17444089
190	0x3e43c9c8	0.19119942
191	0x3ccaec06	0.024770748
192	0xbd4af74b	-0.049552243
193	0xbb9e9a65	-0.0048401826
194	0x3e5ad103	0.21368794
195	0xbdbd0028	-0.092285454
196	0x3d6296fe	0.05531978
197	0xbdfbe5ba	-0.12299676
198	0xbd5f014e	-0.054444604
199	0xbe89b097	-0.2689254
200	0x3bab7f78	0.0052337013
201	0x3d96b925	0.07359532
202	0xbd808de9	-0.06277067
203	0x3e8cee32	0.2752548
204	0xbd2efb8f	-0.042720374
205	0x3e1bd753	0.15218858
206	0x3e0e1463	0.13874964
207	0xbdc3427c	-0.09534165
208	0xbda2633a	-0.07929082
209	0xbdec79f7	-0.115467004
210	0x3e330c9c	0.17485279
211	0xbe8c5d9c	-0.27415168
212	0x3dde902f	0.108673446
213	0x3c0a1f73	0.00843035
214	0xbdfd2e93	-0.12362399
215	0xbe8e8d14	-0.2784201
216	0x3e24b882	0.16086009
217	0xbdc0a562	-0.09406544
218	0xbcd5ee63	-0.026114648
219	0xbc1f8d13	-0.009738225
220	0xbdab5ba4	-0.083670884
221	0xbe9966f1	-0.2996135
222	0x3e6473ee	0.22309849
223	0xbdaea856	-0.08528201
224	0xbd3ea6d0	-0.046545804
225	0x3e86ceff	0.263298
226	0x3e9728e9	0.295234
227	0x3e8fca36	0.28083962
228	0xbdedf7a7	-0.116195016
229	0xbe0177a6	-0.12643299
230	0x3e275baf	0.16343568
231	0x3e0e3ea9	0.1389109
232	0xbe787f91	-0.24267413
233	0xbe2bf5a8	-0.16792929
234	0xbd85aa8b	-0.06526669
235	0x3e59b181	0.21259119
236	0xbe34ce6e	-0.17656872
237	0x3e89d609	0.26921108
238	0xbd92b1ba	-0.07162805
239	0xbe9984b9	-0.29984072
240	0xbdf5aa18	-0.119953334
241	0xbde1e8bc	-0.11030719
242	0xbd4d2651	-0.05008537
243	0xbe2a5af0	-0.16636252
244	0xbdf2ad58	-0.11849469
245	0xbe29c211	-0.16577937
246	0x3e4611b9	0.19342698
247	0xbe91ebaf	-0.28500125
248	0xbe8a996f	-0.27070186
249	0x3e8de2fe	0.27712244
250	0xbe847a54	-0.2587458
251	0xbe48c8bb	-0.19607823
252	0xbe1fecb3	-0.15617637
253	0xbe872e32	-0.26402432
254	0xbd453b51	-0.04815227
255	0x3e656571	0.22401978

feature_extractor.0.bias f4 [256]
0	0xbd426411	-0.047458712
1	0xbd1c8a78	-0.03821799
2	0xbdee32ac	-0.11630759
3	0xbe3ae02b	-0.18249576
4	0xbe889e1b	-0.26683125
5	0x3da80625	0.08204297
6	0xbd93e854	-0.072220474
7	0x3e98da72	0.2985416
8	0x3e1a729e	0.15082785
9	0x3dba3351	0.09091819
10	0xbea1fe8d	-0.3163952
11	0x3d51983e	0.05117058
12	0x3e4ed488	0.20198262
13	0x3e12694e	0.14297983
14	0x3d9cdcf5	0.07659332
15	0x3e810a86	0.2520334
16	0x3de45dc8	0.111507
17	0xbe9cc1e8	-0.3061669
18	0x3db992e6	0.09061222
19	0xbe26550e	-0.16243383
20	0xbd363027	-0.044479515
21	0x3dc86405	0.09784702
22	0xbe0f243e	-0.13978669
23	0xbd7dea78	-0.061991185
24	0xbe5cc20e	-0.21558401
25	0xbdf4cbd2	-0.11952938
26	0xbe193ff6	-0.14965805
27	0xbdf9b192	-0.12192072
28	0x3d374061	0.04473913
29	0x3e8d27e4	0.27569497
30	0x3e566ec4	0.20940691
31	0x3dd70c6a	0.10500415
32	0xbe469be2	-0.19395402
33	0x3e90d134	0.2828461
34	0xbcd87180	-0.026421309
35	0xbe1104a0	-0.1416192
36	0x3d1c49a9	0.038156185
37	0x3e90a01f	0.28247163
38	0x3e2c7d5c	0.16844696
39	0xbe16f9cb	-0.14743726
40	0x3e49e2c7	0.19715415
41	0x3d8c151a	0.06839962
42	0xbe1bf76d	-0.15231104
43	0x3e7e8e15	0.24858887
44	0xbb22f9b3	-0.002486807
45	0x3e1fe9fa	0.15616599
46	0x3b61e425	0.003446826
47	0x3b64be8a	0.003490361
48	0xbde9ef71	-0.11422623
49	0x3e402371	0.1876352
50	0x3e6f1b05	0.23350151
51	0x3de455e8	0.11149198
52	0xbd88a6b9	-0.06672425
53	0xbe4f3338	-0.20234382
54	0x3e2fe6de	0.17177913
55	0x3e49b9cb	0.1969978
56	0x3e3c8c8c	0.1841299
57	0xbe607250	-0.21918607
58	0xbde62a49	-0.11238534
59	0x3e9ed0d0	0.31018686
60	0x3e6b08c3	0.22952561
61	0xbe0cca65	-0.13749082
62	0xbe0af046	-0.1356822
63	0xbd80e096	-0.06292836
64	0xbe9e2805	-0.30889907
65	0x3e756ab5	0.23966487
66	0x3df55df0	0.11980808
67	0x3e91479d	0.2837495
68	0xbe89bcac	-0.26901758
69	0xbe53148f	-0.20613311
70	0xbdbef399	-0.09323806
71	0xbddbae09	-0.10726554
72	0x3e6180ee	0.22021839
73	0x3e369271	0.178293
74	0xbe6290a7	-0.22125493
75	0x3e5d178b	0.21591012
76	0xbe88ec3c	-0.26742733
77	0x3e0a4e32	0.13506392
78	0xbe8f4152	-0.27979523
79	0xbd5b5324	-0.053546086
80	0x3e3ac0a5	0.1823755
81	0x3ce74489	0.028230922
82	0x3d814ed4	0.063138634
83	0xbdeed066	-0.116608426
84	0xbdc187f9	-0.09449763
85	0xbdda5f0f	-0.10662662
86	0xbe30f2ee	-0.1728017
87	0xbd8bed84	-0.06832412
88	0xbe0a60df	-0.13513516
89	0xbe61259b	-0.21987002
90	0xbdbfcab5	-0.09364835
91	0x3d3635d6	0.044484936
92	0x3d0eeaa5	0.034891743
93	0x3dca1d9a	0.09868927
94	0x3e3d9366	0.1851326
95	0x3d94ea91	0.072713025
96	0xbc83fe15	-0.016112367
97	0x3e8a104f	0.26965567
98	0x3ad133fa	0.0015960925
99	0xbe89ab01	-0.26888278
100	0x3e18efb6	0.14935192
101	0xbe355ed2	-0.17711952
102	0xbe3c233a	-0.18372813
103	0x3df4c9c0	0.11952543
104	0xbdcf08a6	-0.101090714
105	0x3e9974b5	0.29971853
106	0x3e7c3923	0.24631171
107	0x3e187e71	0.14891984
108	0xbdc37c8d	-0.095452406
109	0x3e892bb6	0.2679116
110	0xbe294859	-0.16531505
111	0xbe1befd3	-0.15228204
112	0x3d1fc90c	0.039010093
113	0xbe81b8b7	-0.2533624
114	0xbdbdd6b7	-0.09269469
115	0xbe692843	-0.22769265
116	0xbe91aa92	-0.28450447
117	0xbe2c5d7f	-0.16832541
118	0xbe475e56	-0.1946958
119	0xbe95dc1d	-0.29269496
120	0x3e1ec410	0.1550448
121	0xbdb48628	-0.08814651
122	0x3e843419	0.25820997
123	0x3e9871cf	0.2977433
124	0xbe10d394	-0.1414321
125	0x3ddf7fd8	0.10913056
126	0x3e366ba0	0.17814493
127	0xbe1ba006	-0.15197763
128	0xbe05eb7f	-0.13078116
129	0x3cef9e26	0.029250216
130	0xbc5772e5	-0.013149952
131	0x3deece6d	0.11660466
132	0xbe15454a	-0.14577213
133	0xbe836777	-0.25664875
134	0xbd2a6181	-0.041596893
135	0xbe2b8c05	-0.16752632
136	0xbc78dffc	-0.015190121
137	0x3d30acda	0.043133594
138	0xbd222234	-0.0395834
139	0x3e6322b5	0.22181208
140	0xbde3c845	-0.11122183
141	0xbe0b02db	-0.13575308
142	0xbdff5de6	-0.124690816
143	0xbe44f8f1	-0.19235589
144	0x3dcb8bf2	0.09938802
145	0x3e4f31ef	0.20233892
146	0xbe952153	-0.29126987
147	0x3e3e211f	0.18567322
148	0x3dbe466f	0.09290778
149	0x3dd34d0c	0.1031743
150	0xbdc98a0a	-0.09840782
151	0x3e055adf	0.13022946
152	0xbe4ecf0a	-0.20196167
153	0x3e60a70d	0.21938725
154	0xbe6576a6	-0.22408542
155	0xbe5d41bc	-0.21607107
156	0xbe965f10	-0.29369402
157	0xbe975658	-0.29558063
158	0x3de64d27	0.112451844
159	0xbd4c59dd	-0.049890388
160	0x3da16d10	0.0788213
161	0xbe23269c	-0.15932697
162	0x3d23d71f	0.040000077
163	0x3e5c2ff2	0.21502665
164	0x3e8cf21a	0.2752846
165	0x3e8836e3	0.26604375
166	0x3e303a5f	0.17209767
167	0x3d44b30f	0.048022326
168	0x3e4d7d89	0.20067419
169	0xbdf40d5f	-0.11916613
170	0xbe4daf93	-0.20086507
171	0xbe22cc35	-0.15898211
172	0xbe9d056e	-0.30668205
173	0xbe0d5607	-0.13802348
174	0xbe3fac8d	-0.18718167
175	0xbe119c23	-0.14219718
176	0x3e8cd788	0.27508187
177	0xbe9a1f85	-0.30102172
178	0xbe6a5d9a	-0.22887269
179	0xbd18743e	-0.037220232
180	0xbe97d1e1	-0.29652312
181	0xbcb6176d	-0.022227967
182	0xbda02475	-0.078194536
183	0x3dcabb5c	0.09899017
184	0xbe9f3921	-0.31098273
185	0x3dd4baec	0.10387215
186	0x3e9fd0ff	0.3121414
187	0x3e1fc2ec	0.156017
188	0x3e9f5d98	0.31126094
189	0x3d6e62b4	0.0581996
190	0xbe8967c9	-0.26836994
191	0x3e8d2694	0.27568495
192	0x3e668b3f	0.22514056
193	0x3e826d8d	0.25474206
194	0xbe4bee3f	-0.19915102
195	0x3e6a3525	0.22871836
196	0x3e17bb99	0.14817657
197	0x3e6ccdfb	0.2312545
198	0x3e74e7cc	0.23916548
199	0xbe5f4cc0	-0.21806622
200	0xbe90d776	-0.28289384
201	0xbe84de6d	-0.25950947
202	0xbe779b42	-0.2418032
203	0x3db3aaf1	0.08772839
204	0xbd7ca6f5	-0.06168266
205	0x3e888015	0.2666022
206	0xbe6847fd	-0.22683711
207	0xbe3bbc9c	-0.18333668
208	0x3e07c238	0.13257682
209	0xbe9073a8	-0.2821324
210	0x3e7e7293	0.24848394
211	0xbe9e8f43	-0.30968675
212	0xbdb14e4a	-0.086575106
213	0xbe02e298	-0.12781751
214	0xbcb5a4e6	-0.022173356
215	0x3e27ba45	0.1637965
216	0xbe68b014	-0.22723418
217	0xbdcaf05b	-0.099091254
218	0xbd904c96	-0.070458576
219	0xbe01da58	-0.12680948
220	0xbd803356	-0.062597916
221	0x3e0baf40	0.13641071
222	0x3e00271a	0.12514916
223	0x3e8d27cb	0.27569422
224	0xbdf2ae95	-0.11849705
225	0xbd73409b	-0.059387784
226	0xbe9ac48f	-0.30228087
227	0xbe136a4a	-0.14396015
228	0xbcce2395	-0.025163451
229	0x3d5e8782	0.05432845
230	0x3e8a9e45	0.27073875
231	0x3e16140d	0.14656086
232	0xbe858d41	-0.2608433
233	0xbcedaa5d	-0.0290119
234	0xbe5594c0	-0.20857525
235	0xbe78cd99	-0.2429718
236	0x3d95242d	0.072822906
237	0xbe8ea6e7	-0.2786171
238	0xbd2668a5	-0.04062714
239	0xbdcd916f	-0.10037505
240	0xbe878bc3	-0.26473817
241	0xbc89d2eb	-0.016824206
242	0xbe715ce8	-0.23570597
243	0xbe8643d4	-0.26223624
244	0x3e4a7b96	0.19773707
245	0xbdfa9e69	-0.122372456
246	0xbe0ecfa6	-0.13946399
247	0x3e0a02ad	0.13477583
248	0xbe966421	-0.29373267
249	0xbe570f0c	-0.21001834
250	0x3e92db86	0.28683108
251	0x3e48ff76	0.196287
252	0xbced19a2	-0.028942887
253	0xbd2b62cc	-0.041842267
254	0xbd601237	-0.05470487
255	0x3c7a1d1e	0.015265731

feature_extractor.1.weight f4 [256]
0	0x3f8290f2	1.0200484
1	0x3f7f8a13	0.9982006
2	0x3f81069d	1.0080143
3	0x3f7e3763	0.99303263
4	0x3f7e2e81	0.9928971
5	0x3f824a37	1.0178899
6	0x3f8029c8	1.0012751
7	0x3f7e1cca	0.9926268
8	0x3f8205c1	1.0158006
9	0x3f8096ed	1.0046059
10	0x3f7ed0ec	0.9953754
11	0x3f80e999	1.0071288
12	0x3f7b6cc6	0.9821285
13	0x3f7e1ff1	0.9926749
14	0x3f7f8fba	0.99828684
15	0x3f804695	1.002154
16	0x3f80376a	1.0016911
17	0x3f7cd8cf	0.98768324
18	0x3f81ee94	1.0150933
19	0x3f814b56	1.0101116
20	0x3f7e0e7f	0.9924087
21	0x3f80434f	1.0020541
22	0x3f7e12eb	0.99247617
23	0x3f7ef1c2	0.99587643
24	0x3f7fa9d6	0.99868524
25	0x3f7f43e8	0.9971299
26	0x3f7c44b7	0.9854235
27	0x3f7f7dd3	0.9980137
28	0x3f7df35e	0.99199474
29	0x3f7fc8d9	0.99915844
30	0x3f8209c8	1.0159235
31	0x3f7d6a4a	0.9899031
32	0x3f81cfe9	1.0141574
33	0x3f7d0043	0.98828524
34	0x3f8087ac	1.0041404
35	0x3f7ef426	0.9959129
36	0x3f827f34	1.0195069
37	0x3f7ec0cd	0.9951294
38	0x3f805298	1.0025206
39	0x3f7b715a	0.98219836
40	0x3f80be65	1.0058104
41	0x3f806ed3	1.0033821
42	0x3f826118	1.0185881
43	0x3f804fbf	1.0024337
44	0x3f7c6c7c	0.98603034
45	0x3f820057	1.0156354
46	0x3f7e59aa	0.99355567
47	0x3f81a7c5	1.0129324
48	0x3f8140b1	1.0097867
49	0x3f7e47d0	0.9932833
50	0x3f7f5bb0	0.9974928
51	0x3f7f5acf	0.9974794
52	0x3f82b30c	1.0210891
53	0x3f7f56b4	0.99741673
54	0x3f81084e	1.0080659
55	0x3f8190bc	1.0122294
56	0x3f81279e	1.0090215
57	0x3f7c7354	0.98613477
58	0x3f817fc0	1.0117111
59	0x3f7ff647	0.99985164
60	0x3f80f7fb	1.0075678
61	0x3f7f4524	0.99714875
62	0x3f7c9142	0.98659146
63	0x3f7e1ef1	0.9926596
64	0x3f7e0718	0.99229574
65	0x3f7e15bb	0.9925191
66	0x3f7dc44c	0.9912765
67	0x3f800a32	1.0003111
68	0x3f7f284b	0.9967086
69	0x3f7fd228	0.9993005
70	0x3f8016c7	1.0006951
71	0x3f80a9c3	1.0051807
72	0x3f810953	1.008097
73	0x3f80cb15	1.0061976
74	0x3f7dc877	0.9913401
75	0x3f7fb994	0.99892545
76	0x3f7d9926	0.9906181
77	0x3f7d2a76	0.98892915
78	0x3f7e4cfb	0.9933621
79	0x3f7f1543	0.9964182
80	0x3f7cc888	0.98743486
81	0x3f805377	1.0025471
82	0x3f7e7f82	0.9941331
83	0x3f80850e	1.0040605
84	0x3f82529c	1.018146
85	0x3f80242a	1.0011036
86	0x3f7e89c2	0.9942895
87	0x3f7ce742	0.9879037
88	0x3f811d13	1.0086998
89	0x3f7d2e95	0.98899204
90	0x3f7dbae1	0.9911328
91	0x3f7e5f56	0.9936422
92	0x3f7e5da9	0.99361664
93	0x3f80e6d6	1.0070446
94	0x3f82d31b	1.0220674
95	0x3f7dcba3	0.9913885
96	0x3f8109c8	1.008111
97	0x3f80740a	1.0035412
98	0x3f7cbbda	0.9872414
99	0x3f7f45a9	0.9971567
100	0x3f804ad8	1.002284
101	0x3f7f9200	0.99832153
102	0x3f7fd06e	0.99927413
103	0x3f7ea080	0.99463654
104	0x3f81aa4d	1.0130097
105	0x3f8154f2	1.0104048
106	0x3f7c40eb	0.98536557
107	0x3f806ab5	1.0032564
108	0x3f828581	1.0196992
109	0x3f7e26e6	0.99278104
110	0x3f814b94	1.010119
111	0x3f7d47c5	0.98937637
112	0x3f811553	1.0084633
113	0x3f81111d	1.0083348
114	0x3f7f75b4	0.99788976
115	0x3f80a8aa	1.0051472
116	0x3f7dd699	0.99155575
117	0x3f7d82a0	0.9902744
118	0x3f8115cf	1.008478
119	0x3f80b0ae	1.0053918
120	0x3f80b8d1	1.0056401
121	0x3f82b34b	1.0210966
122	0x3f7f8982	0.99819195
123	0x3f80dbe2	1.0067103
124	0x3f7f1a6d	0.996497
125	0x3f7e2cfd	0.99287397
126	0x3f801cb1	1.0008756
127	0x3f7d507e	0.98950946
128	0x3f808523	1.004063
129	0x3f81058a	1.0079815
130	0x3f7d324f	0.9890489
131	0x3f7ee88c	0.9957359
132	0x3f7c7154	0.98610425
133	0x3f7e2c62	0.9928647
134	0x3f83b2a3	1.0288891
135	0x3f7d7f5a	0.9902245
136	0x3f808c3b	1.0042795
137	0x3f80ac03	1.0052494
138	0x3f81a2fc	1.0127864
139	0x3f81d128	1.0141954
140	0x3f802f4d	1.0014435
141	0x3f7dff26	0.9921745
142	0x3f802ff3	1.0014633
143	0x3f80c651	1.0060521
144	0x3f82a54e	1.0206697
145	0x3f7e47b5	0.99328166
146	0x3f7d1c45	0.9887126
147	0x3f7de790	0.9918146
148	0x3f7d6714	0.9898541
149	0x3f802ef0	1.0014324
150	0x3f7e88b1	0.99427325
151	0x3f8087db	1.004146
152	0x3f8076ce	1.0036256
153	0x3f7cf955	0.9881795
154	0x3f80a5e6	1.0050628
155	0x3f7fc58a	0.99910796
156	0x3f7f155f	0.99641985
157	0x3f81959b	1.0123781
158	0x3f7ec055	0.99512225
159	0x3f80aee1	1.0053369
160	0x3f7f3828	0.9969506
161	0x3f7a94bd	0.97883207
162	0x3f7deabb	0.99186295
163	0x3f81e884	1.0149083
164	0x3f822c21	1.0169717
165	0x3f7ded1a	0.99189913
166	0x3f805e87	1.0028847
167	0x3f805575	1.002608
168	0x3f816578	1.0109091
169	0x3f7ffc4e	0.9999436
170	0x3f7e215a	0.9926964
171	0x3f7e8d22	0.994341
172	0x3f7f9003	0.9982912
173	0x3f7ff7f7	0.9998774
174	0x3f80d649	1.0065395
175	0x3f7eaf1a	0.99485934
176	0x3f7c58fb	0.98573273
177	0x3f7fd6dc	0.99937224
178	0x3f7bd21c	0.98367476
179	0x3f80ddae	1.0067651
180	0x3f82397a	1.017379
181	0x3f7cdb20	0.9877186
182	0x3f7fbad8	0.99894476
183	0x3f801faa	1.0009663
184	0x3f7eca2d	0.99527246
185	0x3f7bc9f1	0.98355013
186	0x3f7f2c21	0.9967671
187	0x3f827721	1.0192605
188	0x3f7f1c05	0.9965213
189	0x3f807ee3	1.0038723
190	0x3f80a220	1.0049477
191	0x3f80259e	1.001148
192	0x3f7ddf88	0.99169207
193	0x3f7fc280	0.9990616
194	0x3f8059de	1.0027425
195	0x3f80cb66	1.0062072
196	0x3f80ab0d	1.00522
197	0x3f7d02dd	0.98832494
198	0x3f7e4d89	0.9933706
199	0x3f7dc7b7	0.99132866
200	0x3f8042dc	1.0020404
201	0x3f80475c	1.0021777
202	0x3f7fef71	0.99974734
203	0x3f7cf5ef	0.98812765
204	0x3f80c560	1.0060234
205	0x3f7f2116	0.9965986
206	0x3f7c90e2	0.98658574
207	0x3f81b748	1.0134058
208	0x3f7ec2d2	0.9951602
209	0x3f806958	1.0032148
210	0x3f803ed0	1.0019169
211	0x3f82575d	1.0182911
212	0x3f7e5c96	0.99360025
213	0x3f7bd525	0.9837211
214	0x3f7d2f2a	0.9890009
215	0x3f7b98e4	0.9828017
216	0x3f7cd597	0.9876341
217	0x3f7da918	0.9908614
218	0x3f8030a9	1.001485
219	0x3f7e2d18	0.9928756
220	0x3f80f14d	1.0073639
221	0x3f7fe870	0.99964046
222	0x3f7d8791	0.9903498
223	0x3f80865e	1.0041006
224	0x3f7d612a	0.98976386
225	0x3f7df43c	0.992008
226	0x3f7e1081	0.9924393
227	0x3f7d4a58	0.98941565
228	0x3f7e6885	0.99378234
229	0x3f7bbb76	0.9833292
230	0x3f7f36d3	0.9969303
231	0x3f80beff	1.0058287
232	0x3f7f2dae	0.99679077
233	0x3f8024a4	1.0011182
234	0x3f82060b	1.0158094
235	0x3f80797c	1.0037074
236	0x3f7e8218	0.9941726
237	0x3f7fabaf	0.99871343
238	0x3f7c138f	0.98467344
239	0x3f7e4928	0.9933038
240	0x3f7fa2ac	0.9985759
241	0x3f7d0553	0.9883625
242	0x3f7d0873	0.9884102
243	0x3f7fd159	0.99928814
244	0x3f7ea45d	0.9946955
245	0x3f8042e2	1.0020411
246	0x3f7f8430	0.9981108
247	0x3f7ce341	0.9878426
248	0x3f8094ec	1.0045447
249	0x3f7d5274	0.9895394
250	0x3f8102f5	1.0079027
251	0x3f7de0cd	0.99171144
252	0x3f8238da	1.01736
253	0x3f811f39	1.0087653
254	0x3f8012e1	1.0005761
255	0x3f80efc9	1.0073177

feature_extractor.1.bias f4 [256]
0	0x3b9cca8e	0.0047848886
1	0xbb1f3803	-0.002429486
2	0x3c42530e	0.011860622
3	0xbc679704	-0.014135126
4	0x3b5e2695	0.0033897508
5	0x3c6beae5	0.014399265
6	0xbb4f97c5	-0.0031676155
7	0xbcdd3b7a	-0.0270059
8	0x3c999515	0.018747846
9	0x3c0c991d	0.008581427
10	0xbc2f206f	-0.010688885
11	0x3c0e1470	0.008671865
12	0xbc113647	-0.008863038
13	0xbc600f49	-0.013675519
14	0xbafb3500	-0.0019165576
15	0x3b61b6bf	0.00344412
16	0xbc59c012	-0.013290422
17	0xbc6a8109	-0.014312991
18	0x3d0ea5cc	0.034826085
19	0x3c8426fd	0.016131872
20	0xbc6617e9	-0.014043787
21	0x3bf13799	0.007361364
22	0xbc889c6b	-0.016676148
23	0x3aac8bd6	0.0013164233
24	0xbc25ac8c	-0.010111939
25	0xbc771179	-0.015079849
26	0xbb9b0137	-0.0047303694
27	0xb968b984	-0.00022194354
28	0x3b9b495a	0.004738969
29	0xbc856d1c	-0.016287379
30	0x3b0ef3a9	0.0021812713
31	0xbc7e039b	-0.015503789
32	0x3c1182ea	0.00888131
33	0xbbdb481e	-0.0066919466
34	0x3c6f96b1	0.01462333
35	0x3bc76d07	0.006085995
36	0x3cb2c718	0.02182345
37	0xbb2412b4	-0.0025035562
38	0x3c166838	0.009180121
39	0xbc54d9e2	-0.0129914
40	0x3c052461	0.008126349
41	0x3c5b4c9a	0.013384962
42	0x3c617d73	0.01376282
43	0xbb2156ee	-0.0024618465
44	0xbc4acbef	-0.012377723
45	0x3c0873ea	0.008328417
46	0xbbeff794	-0.007323215
47	0x3c8699f7	0.016430838
48	0x3cac2b03	0.021016603
49	0xbc2523aa	-0.010079304
50	0xbb8ef103	-0.004362227
51	0x3beb184b	0.007174527
52	0x3c69e853	0.014276582
53	0x3b86becd	0.0041121007
54	0xbbf48a6d	-0.0074627907
55	0x3c2b158e	0.010442151
56	0x3c32b155	0.010906537
57	0xbc4cd558	-0.012502037
58	0x3c1664a4	0.009179268
59	0x3ba2d487	0.004969183
60	0x3abd31d1	0.0014434402
61	0x38beaced	9.092116e-05
62	0xbca6622b	-0.020310482
63	0xbbbce8d2	-0.005765059
64	0xba383fab	-0.000702853
65	0xbc3b5c6c	-0.011435609
66	0xbbc9e580	-0.0061613917
67	0x3b29497a	0.002583115
68	0xbc0712cb	-0.008244227
69	0xbbcaa8cb	-0.0061846725
70	0x3c9c9a90	0.01911667
71	0x3c591797	0.013250253
72	0x3c1abe3b	0.009444769
73	0x3a0fbcc2	0.0005483144
74	0xbc27aa98	-0.010233544
75	0x3bb4827a	0.005508718
76	0xbbedb853	-0.007254639
77	0xbc02c3e6	-0.007981276
78	0xbbbe8ea1	-0.0058153425
79	0xba853058	-0.0010161502
80	0xbcb2d46e	-0.02182981
81	0x3b33ca8d	0.0027433962
82	0xbbf2c76d	-0.0074090273
83	0x3c73ae3f	0.0148730865
84	0x3c63a075	0.013893236
85	0xbc2b5d29	-0.010459223
86	0xbbf1988a	-0.0073729204
87	0xbb816606	-0.0039489297
88	0x3c4b7fe5	0.012420629
89	0xbbbdf7f3	-0.00579738
90	0xbc297c13	-0.010344523
91	0xbb74224f	-0.0037251895
92	0xbb000b93	-0.0019538149
93	0x3c35d77a	0.011098737
94	0x3c0b8580	0.008515716
95	0xbb42f8d3	-0.0029750362
96	0x3c2d19a1	0.010565192
97	0x3becb06b	0.007223179
98	0xbaa72930	-0.0012753364
99	0x3c06ada8	0.008220114
100	0xbc30eb8d	-0.010798347
101	0xba7dc77c	-0.00096809096
102	0xbb212e4b	-0.0024594243
103	0xbc1ca476	-0.009560695
104	0x3c8e5604	0.017375
105	0x3c248196	0.010040661
106	0xbc578ec1	-0.013156594
107	0x3c1ace97	0.009448669
108	0x3c589396	0.013218781
109	0xbbf399b4	-0.0074340943
110	0x3c10114b	0.008793185
111	0xbc584ca9	-0.013201871
112	0x3ba0d84a	0.004908596
113	0x3c54a6b5	0.012979199
114	0x3a830702	0.0009996595
115	0x3c4414f0	0.0119678825
116	0xbb88dee0	-0.0041769594
117	0xbb9b9396	-0.004747818
118	0x3c82fcb1	0.015989633
119	0x3c5231cc	0.012829255
120	0xba9d9a1f	-0.0012024081
121	0x3c7e779d	0.015531448
122	0xbae57de9	-0.0017508838
123	0x3c8d5ebd	0.017257089
124	0xb9e79b28	-0.00044175354
125	0x3c83b028	0.016075209
126	0x3c7b888c	0.0153523795
127	0xbb3fa6a1	-0.0029243606
128	0x3c493f11	0.012283103
129	0xbb6813ca	-0.0035412186
130	0xbc5475ac	-0.012967508
131	0xbc2bb8ae	-0.010481043
132	0xbb88c82c	-0.004174253
133	0x3b6156d5	0.0034384031
134	0x3ca092d3	0.019601261
135	0xbc121e7a	-0.008918399
136	0xba29cf33	-0.00064777135
137	0xbb60e708	-0.0034317393
138	0x3c3af3c4	0.011410657
139	0x3ca10826	0.019657206
140	0xbb60568e	-0.0034231278
141	0xbc5504b5	-0.0130016105
142	0x3b470336	0.0030366904
143	0x3b8f3da2	0.004371361
144	0x3c7e4fe9	0.015521982
145	0xbc503ffd	-0.0127105685
146	0xbc30a189	-0.0107807005
147	0x3a8ca96d	0.0010731645
148	0x386018e2	5.3428936e-05
149	0x3b58a791	0.0033058862
150	0xbb9c13d5	-0.0047631063
151	0x3c04364e	0.008069588
152	0xbbb6c0db	-0.0055771894
153	0xbc0238e4	-0.007948134
154	0xbc608ab4	-0.013704944
155	0x3baf75bd	0.0053546117
156	0x3b06f150	0.002059061
157	0x3c997648	0.018733159
158	0xbb626e06	-0.0034550442
159	0x3be98f8f	0.007127709
160	0xbc41fde8	-0.011840321
161	0xbc9ab5da	-0.018885542
162	0xba6a8f2a	-0.0008947725
163	0x3c157ab5	0.009123494
164	0x3ba4aae5	0.005025255
165	0xbc7ff894	-0.0156232305
166	0xbbb18db1	-0.0054185023
167	0xbc425dfa	-0.011863226
168	0x3b2496fa	0.0025114403
169	0xbbda1734	-0.006655598
170	0x3b9302db	0.0044864244
171	0xba94ab4d	-0.0011342556
172	0x3bc68878	0.006058749
173	0x3bbfe7e9	0.0058565033
174	0x3ca6a840	0.0203439
175	0xb945fc7a	-0.00018881439
176	0xbc5589eb	-0.0130333705
177	0xbbe36bd1	-0.006940343
178	0xbc398ec4	-0.011325542
179	0x3b117874	0.002219704
180	0x3b86be8a	0.0041120695
181	0xbcb4d8d7	-0.022076054
182	0x3bb076f7	0.0053852755
183	0x39fe86f3	0.000485472
184	0xbbbd6e79	-0.0057809916
185	0xbc3fd19f	-0.011707692
186	0x3c9465f8	0.018115029
187	0x3d077a30	0.03307551
188	0x39e16025	0.00042986977
189	0x3c02959b	0.007970239
190	0x3b5aa87f	0.0033364592
191	0x3b32b71d	0.0027269789
192	0xbb43097a	-0.0029760287
193	0xbbeb937a	-0.0071892114
194	0x3ca3ba83	0.019986397
195	0xbc3eafce	-0.011638595
196	0x3c531548	0.012883492
197	0xbbc6443b	-0.006050614
198	0xbc29cd92	-0.010363953
199	0xbbc2a312	-0.0059398497
200	0xba4f3820	-0.00079047866
201	0x3bcf4b1a	0.0063260915
202	0xbbd014c2	-0.006350131
203	0xbb849719	-0.0040463326
204	0xbb02f0c6	-0.0019979938
205	0x3acbd8a0	0.001555223
206	0xbb948334	-0.004532242
207	0x3c91ddbc	0.017805927
208	0xbb33adc3	-0.0027416802
209	0x3a32cc29	0.00068205834
210	0x3becd3bd	0.0072273896
211	0x3c843883	0.016140228
212	0xba5ced7b	-0.00084277213
213	0xbc3f1abc	-0.011664089
214	0xbc7680bf	-0.015045344
215	0xbbb9b1fa	-0.0056669684
216	0xbb802bcd	-0.0039114715
217	0xbc07c9b7	-0.008287839
218	0xbc09557d	-0.008382198
219	0xbaf9b1c0	-0.0019050166
220	0x3c5eb3b4	0.013592649
221	0xbcac535f	-0.021035848
222	0xbc0d9c43	-0.008643213
223	0x3c87098d	0.016484046
224	0xbc840f1e	-0.01612049
225	0xbc6a71ae	-0.01430933
226	0x3b690b49	0.0035559705
227	0xbc914e2f	-0.017737476
228	0xbba6d872	-0.0050917203
229	0xbc88f521	-0.01671845
230	0xbad6513f	-0.0016351118
231	0x3cc0cf8c	0.023536466
232	0xbac33131	-0.001489198
233	0x3c625998	0.013815306
234	0xbaccbc43	-0.0015620071
235	0x3ba60e9a	0.0050676586
236	0xbc8c8ad4	-0.017156042
237	0x3857e936	5.147719e-05
238	0xbc3fcf23	-0.0117071
239	0xbbacd02f	-0.005273841
240	0xbbeaab1a	-0.00716151
241	0x3b9d5d4f	0.004802383
242	0xbc377b1d	-0.011198786
243	0x3c0b11bd	0.008488116
244	0xbb2d6fa3	-0.0026464246
245	0xbb65e6be	-0.003508016
246	0xba3235d6	-0.00067981833
247	0xbc2ab134	-0.010418225
248	0x3c3e952d	0.011632246
249	0x3ad9d6e6	0.0016619831
250	0xbb8da417	-0.0043225395
251	0xbb0a87d5	-0.002113809
252	0x3c2c2b79	0.010508412
253	0xbbbaf417	-0.0057053673
254	0xb95edbf3	-0.00021253507
255	0xbbff4bed	-0.0077910335

feature_extractor.1.running_mean f4 [256]
0	0xbe1ab01a	-0.1510624
1	0xbcad0765	-0.02112169
2	0xbe826bea	-0.25472957
3	0xbe782318	-0.24232137
4	0xbe7bf864	-0.24606472
5	0xbbabe370	-0.0052456185
6	0x3d24a8cf	0.04020005
7	0x3eb38975	0.3506581
8	0x3e71ae24	0.23601586
9	0x3d720a05	0.059091587
10	0xbed39304	-0.41323102
11	0x3db06326	0.08612661
12	0x3e7b8e42	0.24565986
13	0x3df01c2b	0.117241226
14	0x3d0c8206	0.034303688
15	0x3e1aff32	0.15136412
16	0x3e8545e3	0.26029882
17	0xbe947577	-0.2899587
18	0xbccbd1ee	-0.024880376
19	0xbdd4d24c	-0.103916734
20	0xbd161a18	-0.03664598
21	0x3e41e4d0	0.18934941
22	0xbe0fa8ed	-0.14029284
23	0xbd976c20	-0.0739367
24	0xbe87928e	-0.26479
25	0xbe7af853	-0.2450879
26	0xbe3ba0d9	-0.18323077
27	0xbe1952d4	-0.14973003
28	0x3a8691eb	0.0010266876
29	0x3eab706b	0.33484206
30	0x3dcddaee	0.10051523
31	0x3e07ab8c	0.13249034
32	0xbe91018b	-0.2832149
33	0x3eb7fc0a	0.35934478
34	0xbe3127dd	-0.17300363
35	0x3bf2cc4e	0.007409609
36	0x3e67ab24	0.22623879
37	0x3eb8b740	0.3607731
38	0x3e81a7a2	0.25323206
39	0xbd3a88f4	-0.045540765
40	0x3e1e3635	0.15450366
41	0x3cf5f8d0	0.03002587
42	0xbe804a33	-0.2505661
43	0x3ec22736	0.3792054
44	0x3de034de	0.109475836
45	0x3e6b4a31	0.2297752
46	0x3d2f1295	0.04274233
47	0x3e15fe4c	0.14647788
48	0xbea1c9b1	-0.3159919
49	0x3de0d5e3	0.10978296
50	0x3e38aec9	0.18035425
51	0x3e22e033	0.15905838
52	0xbe52f1a6	-0.20599994
53	0xbe20c676	-0.15700707
54	0x3e11469f	0.14187096
55	0x3e9b4418	0.3032539
56	0x3d7fc95a	0.062447883
57	0xbe19c8c0	-0.15017986
58	0xbe2d4117	-0.16919361
59	0x3ecdb1ac	0.40174615
60	0x3eb1133f	0.34584996
61	0xbcd7a846	-0.026325356
62	0xbe84e542	-0.2595616
63	0x3cebd263	0.028786844
64	0xbe9dff33	-0.30858764
65	0x3e5b2849	0.21402086
66	0x3e0bd2df	0.1365466
67	0x3e69ee84	0.22844893
68	0xbeac58fa	-0.33661634
69	0xbdf33e31	-0.118770964
70	0x3d648370	0.05578941
71	0xbc09b3af	-0.008404656
72	0x3d6ca794	0.057777002
73	0x3cedf9d7	0.029049797
74	0xbe421b56	-0.1895574
75	0x3e52972d	0.20565481
76	0xbe87d723	-0.26531324
77	0x3ded9bc7	0.11601978
78	0xbeccedaf	-0.40025088
79	0x3c4f7574	0.01266228
80	0x3e3a0ca2	0.18168882
81	0xbca344c5	-0.019930253
82	0x3de97f66	0.114012524
83	0xbd42e4a0	-0.047581315
84	0xbe46e963	-0.19424967
85	0xbe375e68	-0.17907107
86	0xbe24aaca	-0.16080776
87	0xbceef413	-0.029169118
88	0xb9bc5ba6	-0.00035926438
89	0xbe846753	-0.2586008
90	0xbe13c942	-0.14432243
91	0x3e6242fa	0.22095862
92	0x3d41cb7a	0.04731319
93	0xbc155c78	-0.009116285
94	0x3da90ad7	0.08254021
95	0xbbc21add	-0.0059236125
96	0xbe1682ca	-0.1469833
97	0x3eaeebc4	0.3416425
98	0x3ccb91db	0.024849823
99	0xbe22d419	-0.15901221
100	0x3e06bb23	0.13157324
101	0xbcdb6e58	-0.026786014
102	0xbda4c8f6	-0.08046143
103	0x3e144d07	0.14482509
104	0xbe3c043b	-0.18360989
105	0x3ee7fd03	0.4531022
106	0x3e86ccff	0.26328275
107	0x3e8c59c1	0.27412227
108	0xbe16c262	-0.14722589
109	0x3e3050c2	0.17218307
110	0xbe180461	-0.1484542
111	0xbdfc69ca	-0.12324865
112	0x3d8dfc73	0.069329165
113	0xbdf5ffaf	-0.120116584
114	0xbda6a90e	-0.081377134
115	0xbe9185b7	-0.2842233
116	0xbe7f386f	-0.24923871
117	0xbe17692d	-0.14786215
118	0xbe5eb648	-0.21749222
119	0xbe8c7a8c	-0.27437246
120	0x3e0475ac	0.12935513
121	0xbe05a13e	-0.1304979
122	0x3e042593	0.12904958
123	0x3ed01814	0.4064337
124	0xbe3735d8	-0.17891634
125	0x3e7363b6	0.23768505
126	0x3dc3e6c6	0.09565501
127	0xbe395747	-0.180997
128	0xbd4e886b	-0.050423067
129	0x3d3d0bd7	0.04615387
130	0x3cc015fc	0.023447983
131	0x3e53fff8	0.20703113
132	0xbdc75e09	-0.09734733
133	0xbdba747e	-0.0910425
134	0xbe3e424c	-0.18579978
135	0xbe2a435f	-0.16627263
136	0xbdbfe8ee	-0.093706
137	0x3e21d42c	0.15803593
138	0xbdc0a136	-0.094057485
139	0x3dadf410	0.08493817
140	0xbe20a102	-0.1568642
141	0xbdea4c29	-0.11440308
142	0xbdcecd61	-0.10097767
143	0xbea073e8	-0.3133843
144	0x39ead3bd	0.00044789715
145	0x3e594dc3	0.2122107
146	0xbe853c5f	-0.26022622
147	0x3e889528	0.26676297
148	0x3dec6a1f	0.115436785
149	0x3e2313a1	0.15925457
150	0xbdb02c47	-0.08602195
151	0x3e107c04	0.14109808
152	0xbdc62d08	-0.09676558
153	0x3e0a51b5	0.13507731
154	0xbe87fcbb	-0.26560006
155	0xbe78f90c	-0.24313754
156	0xbe716b0b	-0.2357599
157	0xbe596a40	-0.21231937
158	0x3e22e846	0.15908918
159	0x3dd25d23	0.10271671
160	0x3d17b671	0.037039224
161	0xbe57c5cd	-0.21071549
162	0x3dd61575	0.10453311
163	0x3e1eb1b3	0.15497474
164	0x3e478ad4	0.19486552
165	0x3e51d661	0.20491935
166	0x3dacc8ed	0.08436761
167	0x3e0e7a84	0.13913924
168	0x3e665d6e	0.22496578
169	0xbe2fbb14	-0.17161208
170	0xbd5ccd47	-0.053906705
171	0xbdf36292	-0.11884035
172	0xbe2925c4	-0.16518313
173	0xbdd27aed	-0.102773525
174	0xbe04597d	-0.12924762
175	0xbdd923bb	-0.10602518
176	0x3e6b296a	0.22965017
177	0xbebc1169	-0.36732033
178	0xbe42dafd	-0.1902885
179	0x3c4a6264	0.01235256
180	0xbeb950a0	-0.36194324
181	0x3c7d42fe	0.015457867
182	0xbd1a45d3	-0.037664246
183	0x3e12ac8c	0.14323634
184	0xbea60f79	-0.3243368
185	0x3de95024	0.11392239
186	0x3ebce5d3	0.36894092
187	0x3d0e7d95	0.034787733
188	0x3e9234f3	0.28556022
189	0xbc771fd9	-0.015083277
190	0xbe7ce2b6	-0.24695858
191	0x3e5a6511	0.21327616
192	0x3e1b8d93	0.15190725
193	0x3e5b5a13	0.2142108
194	0xbe0b7ba2	-0.13621381
195	0x3e06a48b	0.13148706
196	0x3db061cc	0.08612403
197	0x3e5031bd	0.20331474
198	0x3ea365ae	0.31913513
199	0xbe8541e4	-0.26026833
200	0xbec190bf	-0.37805745
201	0xbe409def	-0.18810247
202	0xbe806d3a	-0.25083333
203	0x3dbcb288	0.0921374
204	0xbb2d7d7f	-0.0026472507
205	0x3ebf91d9	0.3741596
206	0xbe02ae15	-0.1276172
207	0xbdd8bfdc	-0.10583469
208	0x3e2c0fc4	0.16802889
209	0xbe5ff9a6	-0.21872577
210	0x3ead8449	0.33889988
211	0xbedd5afc	-0.43233478
212	0x3d1eb195	0.038743574
213	0xbe09af98	-0.1344589
214	0x3d2c8e3f	0.042127844
215	0x3e6527bb	0.22378437
216	0xbde6806c	-0.11254963
217	0xbde61106	-0.11233716
218	0xbe0654ac	-0.13118237
219	0xbd3b2e10	-0.045698225
220	0x3d8a48cd	0.06752167
221	0x3d6b2662	0.05740965
222	0x3df96470	0.1217736
223	0x3e1a023b	0.15039913
224	0xbe4aa915	-0.19791062
225	0xbd6375d7	-0.055532303
226	0xbecc5494	-0.39908278
227	0xbe0a4a11	-0.13504817
228	0xbd4395b8	-0.047750205
229	0x3c110151	0.0088504115
230	0x3e5010e1	0.20318939
231	0x3e80dd59	0.25168875
232	0xbe72d33d	-0.23713394
233	0x3dfff7ee	0.12498461
234	0xbe883589	-0.26603344
235	0xbe96aca8	-0.294286
236	0x3d55c7b0	0.05219239
237	0xbe7bfd12	-0.24608257
238	0xbda979a6	-0.08275156
239	0xbdd5a223	-0.10431316
240	0xbe9e4338	-0.3091066
241	0x3d89e415	0.06732956
242	0xbe5b6b26	-0.21427593
243	0xbdfd448a	-0.123665884
244	0x3e8968ca	0.2683776
245	0xbda56eb6	-0.08077757
246	0xbdb790f0	-0.089631915
247	0x3e15faea	0.14646497
248	0xbee9aebf	-0.45641133
249	0xbe31ffcb	-0.17382734
250	0x3e8fde97	0.2809951
251	0x3e691466	0.22761688
252	0xbe347309	-0.17622007
253	0xbdf40644	-0.119152576
254	0xbdf2570b	-0.118330084
255	0xbe091b0c	-0.13389224

feature_extractor.1.running_var f4 [256]
0	0x3ebbf561	0.36710647
1	0x3f191733	0.59801024
2	0x3f172669	0.59042984
3	0x3eef1d41	0.46702006
4	0x3ef80285	0.48439422
5	0x3f076f25	0.5290397
6	0x3ea757e6	0.3268425
7	0x3ed83300	0.4222641
8	0x3e50b77c	0.20382494
9	0x3ec3dfa7	0.3825657
10	0x3ec1ef3b	0.3787783
11	0x3e055c33	0.13023452
12	0x3e7c1c03	0.2462006
13	0x3eb8c0ed	0.3608469
14	0x3ed897f2	0.42303425
15	0x3ea6b2ca	0.3255828
16	0x3ecbb4b7	0.39786312
17	0x3e9892a3	0.29799375
18	0x3eaf3ce2	0.34226137
19	0x3e220941	0.15823843
20	0x3e20ed9b	0.1571564
21	0x3ee56c1b	0.4480904
22	0x3ebf0000	0.37304688
23	0x3e945f57	0.2897899
24	0x3e7a69aa	0.2445437
25	0x3e644d61	0.22295143
26	0x3eda8bca	0.42684776
27	0x3ea35e49	0.3190787
28	0x3f1a066d	0.60166055
29	0x3f029472	0.5100776
30	0x3ee9b8c6	0.45648783
31	0x3d648abd	0.055796374
32	0x3ea2660d	0.31718484
33	0x3e263c77	0.16234003
34	0x3f11d207	0.569611
35	0x3eea0182	0.45704275
36	0x3f0feb98	0.5621886
37	0x3f52eee3	0.8239576
38	0x3e948e2b	0.29014716
39	0x3ee78473	0.45218238
40	0x3ef2c8db	0.47418866
41	0x3e959d3d	0.29221526
42	0x3ea401fc	0.32032764
43	0x3e9c504b	0.3053001
44	0x3e9e7900	0.3095169
45	0x3f34e0a3	0.7065527
46	0x3dd9eb31	0.10640562
47	0x3edb344a	0.4281333
48	0x3ec9d6c7	0.39421675
49	0x3ec9cc90	0.3941388
50	0x3e6ff352	0.23432663
51	0x3f0ca7c8	0.54943514
52	0x3ef3140f	0.4747624
53	0x3e8d43b2	0.2759071
54	0x3e5ff4d9	0.21870746
55	0x3e7a1661	0.244226
56	0x3e2c6aed	0.16837664
57	0x3f0f1920	0.5589771
58	0x3ef6c05e	0.4819364
59	0x3e9c677f	0.3054771
60	0x3ece2416	0.40261906
61	0x3f0187e7	0.50597996
62	0x3f0e2e8a	0.5553976
63	0x3eddbe70	0.43309355
64	0x3e161a24	0.1465841
65	0x3eb1ea05	0.34748855
66	0x3eaa526e	0.33266014
67	0x3de27259	0.11056966
68	0x3ebb370c	0.36565435
69	0x3ea03556	0.31290692
70	0x3ee3acfe	0.4446792
71	0x3f4b9cd3	0.7953617
72	0x3f17d1e0	0.5930462
73	0x3eacc962	0.33747393
74	0x3e48bf23	0.19604163
75	0x3e5bdee7	0.21471749
76	0x3e4ba8a6	0.19888553
77	0x3e6305ef	0.22170232
78	0x3f199deb	0.6000659
79	0x3f6c0e32	0.9220916
80	0x3ea0f94f	0.31440207
81	0x3f708951	0.9395953
82	0x3e9723da	0.2951954
83	0x3e7b798e	0.24558088
84	0x3ebf26ab	0.3733419
85	0x3f45e4db	0.7730233
86	0x3e1ac9b8	0.15116012
87	0x3e8d5075	0.27600446
88	0x3eed1f4b	0.46312937
89	0x3ea78994	0.3272215
90	0x3eb61c9d	0.35568705
91	0x3ed95f9f	0.42455766
92	0x3e4483f2	0.19190958
93	0x3e8ddf7d	0.2770957
94	0x3e76fea4	0.24120575
95	0x3f12bfa0	0.57323647
96	0x3ec5b480	0.38614273
97	0x3ebd0e4b	0.36924967
98	0x3e6f26d5	0.23354657
99	0x3ee20a64	0.44148552
100	0x3e029ab7	0.12754332
101	0x3ec36701	0.38164523
102	0x3f0fe9a9	0.5621591
103	0x3e811af6	0.25215882
104	0x3e842df4	0.2581631
105	0x3fdcecfc	1.7259822
106	0x3e8edf6e	0.27904838
107	0x3ed285d7	0.41117737
108	0x3e83fcc0	0.2577877
109	0x3f21ff20	0.63279915
110	0x3f41025e	0.7539424
111	0x3ef8440a	0.4848941
112	0x3f20b421	0.62774855
113	0x3ed5472f	0.4165587
114	0x3e74ecad	0.2391841
115	0x3ebfed96	0.3748595
116	0x3f11e82a	0.5699488
117	0x3e4f205b	0.20227186
118	0x3e561997	0.20908199
119	0x3dda1061	0.10647655
120	0x3f1f97ab	0.623408
121	0x3e7fdfa4	0.24987656
122	0x3ec03d73	0.37546882
123	0x3e7ad528	0.24495375
124	0x3e365bb8	0.17808425
125	0x3f07fa06	0.5311588
126	0x3ef2ca42	0.47419935
127	0x3ee6e22b	0.45094427
128	0x3e7325a9	0.23744835
129	0x3ea7b20a	0.3275302
130	0x3f020baa	0.5079905
131	0x3e566091	0.20935275
132	0x3f4e4aa1	0.80582625
133	0x3eec065d	0.46098605
134	0x3e8d0ff9	0.2755125
135	0x3df706c9	0.12061841
136	0x3ed1f231	0.4100509
137	0x3f23b3ec	0.63946414
138	0x3f1cd0e2	0.6125623
139	0x3e77c0e4	0.24194676
140	0x3e8f3e87	0.27977392
141	0x3f053d7e	0.52046955
142	0x3e75efa7	0.24017201
143	0x3e948ee8	0.2901528
144	0x3e7942d7	0.24341904
145	0x3f1285a6	0.5723518
146	0x3e558272	0.20850542
147	0x3eaad122	0.3336268
148	0x3e9c16f3	0.3048626
149	0x3f447f31	0.7675658
150	0x3ed9d33c	0.42543972
151	0x3e1f46a1	0.15554287
152	0x3ea0b437	0.31387493
153	0x3e91a07a	0.28442746
154	0x3e8db47f	0.2767677
155	0x3e8bfad4	0.27339804
156	0x3e6652b2	0.22492483
157	0x3ec1fc1f	0.37887666
158	0x3f02f374	0.5115273
159	0x3edd3cc3	0.4321042
160	0x3e1ed8cb	0.15512387
161	0x3f01c8e6	0.5069717
162	0x3f32b1f8	0.6980281
163	0x3e9560af	0.29175326
164	0x3eac8ea7	0.33702585
165	0x3e54f2c5	0.20795734
166	0x3e896abc	0.26839244
167	0x3e18d0fd	0.14923473
168	0x3ebe180c	0.3712772
169	0x3ec74c15	0.38925233
170	0x3e950f7f	0.29113385
171	0x3f22106d	0.63306314
172	0x3ed599a0	0.4171877
173	0x3e810e0d	0.25206032
174	0x3e7a354e	0.24434397
175	0x3ec62d93	0.38706645
176	0x3ec65e0b	0.38743624
177	0x3e911270	0.2833438
178	0x3e1813dd	0.14851327
179	0x3e3d85de	0.18508098
180	0x3f41b1dc	0.75662017
181	0x3ea59e90	0.32347536
182	0x3e84bf74	0.25927317
183	0x3de74110	0.112917066
184	0x3e7513b8	0.23933303
185	0x3e58cad8	0.21171129
186	0x3dbd4daf	0.092433326
187	0x3ee263a8	0.44216657
188	0x3ee579e6	0.44819564
189	0x3ec848f2	0.39118153
190	0x3f080040	0.5312538
191	0x3e8a0b1d	0.26961604
192	0x3f25a1b6	0.64699876
193	0x3e57b516	0.21065173
194	0x3e64f17b	0.22357742
195	0x3ee7eb39	0.45296648
196	0x3f000d6f	0.500205
197	0x3f625987	0.8841786
198	0x3e4b5828	0.19857848
199	0x3ee011d6	0.43763608
200	0x3ebbb68b	0.36662707
201	0x3f7895fb	0.9710385
202	0x3e805a51	0.25068906
203	0x3f3ed1e2	0.74539006
204	0x3e7e8971	0.24857117
205	0x3ea6dade	0.32588857
206	0x3e7cf895	0.24704202
207	0x3e9a5d5a	0.30149347
208	0x3ebccb80	0.36874008
209	0x3eeb754f	0.45987937
210	0x3eaef6bd	0.3417262
211	0x3ec30b50	0.38094568
212	0x3ebc6251	0.3679376
213	0x3f28d44c	0.6594894
214	0x3eb1e6f2	0.3474651
215	0x3ee04d4b	0.4380897
216	0x3e9fb4a9	0.3119252
217	0x3f051a92	0.5199367
218	0x3eb5e038	0.35522628
219	0x3e671587	0.22566806
220	0x3f27bbcd	0.65520936
221	0x3f1933ce	0.5984467
222	0x3e8b1d72	0.27170902
223	0x3f59c1b9	0.8506122
224	0x3eb27a66	0.34859008
225	0x3eea2b21	0.4573603
226	0x3eaf2a36	0.34211892
227	0x3e49b701	0.19698717
228	0x3df95f94	0.12176433
229	0x3eed7d05	0.46384445
230	0x3ec264f0	0.37967634
231	0x3e4157f9	0.18881215
232	0x3e381c76	0.17979607
233	0x3ef8823b	0.48536858
234	0x3e854574	0.2602955
235	0x3e813a09	0.2523959
236	0x3eead69f	0.45866868
237	0x3e6c4efc	0.23077005
238	0x3f453b35	0.7704347
239	0x3eddb27a	0.4330023
240	0x3ea3e913	0.3201376
241	0x3eb17334	0.34658206
242	0x3e9c59eb	0.30537352
243	0x3e55ee91	0.20891787
244	0x3f4c6c48	0.79852724
245	0x3e67a8db	0.22623007
246	0x3eb18fcd	0.34680024
247	0x3e3097ea	0.1724545
248	0x3ee25c4c	0.44211042
249	0x3f18cea4	0.5969031
250	0x3f12cf0d	0.57347184
251	0x3f1b7351	0.60722834
252	0x3f0f1680	0.5589371
253	0x3eb45fd9	0.35229376
254	0x3ea877b9	0.3290384
255	0x3ec77046	0.38952845

feature_extractor.4.weight f4 [256, 256]
0	0xbd3f9fe4	-0.046783343
1	0x3cb47bc5	0.022031674
2	0x3c63a97b	0.013895388
3	0xbca17530	-0.0197092
4	0x3d535bae	0.051601104
5	0xbd84cef7	-0.06484788
6	0x3c0337f6	0.008008948
7	0xbd27bae1	-0.040949706
8	0x3d1c19ea	0.03811065
9	0x3c68e8ae	0.014215631
10	0xbb8405c2	-0.0040290067
11	0xb96be90e	-0.00022498166
12	0xbd3adcca	-0.045620717
13	0xbd789721	-0.060691003
14	0x3b25ff5a	0.0025329203
15	0x3ce2d3a7	0.027688814
16	0x3cf9fbee	0.030515637
17	0xbd10cbc7	-0.035350587
18	0xbd5f32e5	-0.054491896
19	0xbcaf949c	-0.021433167
20	0x3c7ba0ba	0.015358144
21	0xbc984a21	-0.018590035
22	0x3b814241	0.0039446657
23	0x3d581a0a	0.052759208
24	0x3d3924e7	0.04520121
25	0xbb86fa2e	-0.004119179
26	0x3d400a9a	0.04688511
27	0x3aa38064	0.0012474176
28	0x3cd8a4a1	0.026445689
29	0x3c9e2fdf	0.019309936
30	0x3ca792b7	0.020455701
31	0x3d346df5	0.044050176
32	0x3cab05c6	0.020876776
33	0xbd07bbc2	-0.033138044
34	0xbc1762ce	-0.0092398655
35	0xbcdcd9b6	-0.026959281
36	0x3cc25aa6	0.023724865
37	0xbc85063e	-0.016238328
38	0x3d1d3623	0.038381707
39	0x3b57bccf	0.0032918935
40	0xbcbd9fc0	-0.023147464
41	0xbcc5b234	-0.024132825
42	0xbc27f126	-0.010250365
43	0x3d23746f	0.03990596
44	0x3be52778	0.0069932304
45	0x3cead896	0.02866773
46	0x3d00a30e	0.0314055
47	0xbd5bb779	-0.05364177
48	0x3ceb0d57	0.028692884
49	0x3ced4c06	0.028966915
50	0x3d5ca7af	0.053870853
51	0xbc5ed856	-0.013601383
52	0xbcd06b1a	-0.025441695
53	0x3d5fd4e6	0.054646395
54	0xbd03428a	-0.03204588
55	0x3bc63ebb	0.0060499585
56	0xbd6b6c59	-0.057476375
57	0xbd2782a4	-0.040896073
58	0x3cd25d31	0.025679203
59	0x3d412eb4	0.04716368
60	0x3cf13656	0.029444855
61	0xbbaa6e4f	-0.005201138
62	0x3cee0550	0.029055268
63	0x3d2c9859	0.042137478
64	0xba780deb	-0.0009462523
65	0xbba6f2fa	-0.005094883
66	0x3d0b5663	0.03401793
67	0xbd8ac072	-0.06774987
68	0xbcedfdb2	-0.029051635
69	0xbd79ba36	-0.0609686
70	0xbc4d015f	-0.012512534
71	0x3d1bd3f0	0.038043916
72	0xbd59d97e	-0.053185932
73	0x3d483896	0.04888209
74	0x3a54630a	0.0008101916
75	0xbcd872b1	-0.026421877
76	0x3b8892a4	0.0041678715
77	0x3d72828b	0.059206527
78	0xbd54717e	-0.051866047
79	0xbd781eca	-0.060576238
80	0x3d09f02f	0.033676323
81	0x3d7901d1	0.060792748
82	0xbcee7084	-0.029106386
83	0xbd0de159	-0.034638736
84	0x3d181d0d	0.03713708
85	0xbd671375	-0.05641504
86	0x3d78e498	0.06076488
87	0x3d33151e	0.04372131
88	0x3d129e88	0.03579572
89	0x3d09142d	0.033466507
90	0x3c404afa	0.011736626
91	0x3d0bca24	0.034128323
92	0xbd5ea74b	-0.05435876
93	0x3cddd3a2	0.027078453
94	0xbd171e3c	-0.036894068
95	0xbd2d74d3	-0.04234774
96	0xbd41bc46	-0.047298692
97	0xbd06d41b	-0.032917123
98	0xbd2a7a86	-0.041620754
99	0xbca3a261	-0.01997489
100	0x3ae6a2b6	0.0017596099
101	0xbd654477	-0.055973496
102	0xbd385c33	-0.045009803
103	0xbc348ef5	-0.011020412
104	0x3d752eba	0.059859015
105	0x3d859715	0.06522957
106	0x3cf5e04f	0.030014185
107	0x3cee8089	0.029114025
108	0x3d1add11	0.03780848
109	0xba5286d2	-0.0008030954
110	0xbc048242	-0.0080876965
111	0xbd105b76	-0.035243474
112	0x3d1533d7	0.03642639
113	0x3d5cc865	0.05390205
114	0xbbe9aa0f	-0.0071308683
115	0xbc3e4230	-0.01161246
116	0x3d2b9a85	0.04189541
117	0x3cf00731	0.029300304
118	0xbd2dc300	-0.042422295
119	0x3d671930	0.056420505
120	0xbd839953	-0.06425729
121	0x3c2cef7a	0.010555143
122	0xbd5fbae2	-0.054621585
123	0xbd3152a9	-0.04329172
124	0xbc8fa7ef	-0.017536132
125	0xbc7aed7b	-0.015315409
126	0xbd459280	-0.048235416
127	0x3d07bfb7	0.033141818
128	0x3be7f80c	0.00707913
129	0x3c8a127c	0.016854517
130	0xbd48eda1	-0.049054746
131	0x3d372af3	0.044718694
132	0x3c286517	0.010278008
133	0x3d86d25c	0.065830916
134	0x3d23db71	0.040004198
135	0x3d013199	0.03154144
136	0xbce4b278	-0.027917132
137	0x3d6583cb	0.05603389
138	0xbd58367c	-0.052786335
139	0x3d23c8bd	0.03998636
140	0xbd432797	-0.047645178
141	0x3c673dd1	0.014113859
142	0xbd36dd22	-0.044644482
143	0x3d31b1cf	0.043382462
144	0x3d671881	0.056419853
145	0x3c91dd36	0.017805677
146	0xbc980b11	-0.018559964
147	0x3cf1ba14	0.029507674
148	0xbd341848	-0.04396847
149	0xbd5cbac4	-0.05388905
150	0x3d76ac7d	0.06022309
151	0xba5a190b	-0.0008319772
152	0xbd2efc6c	-0.042721197
153	0xbcfbff56	-0.030761402
154	0xbd829d6b	-0.06377681
155	0xbcf10136	-0.029419523
156	0xbba38642	-0.00499037
157	0x3d48711f	0.048936006
158	0xbd4bb710	-0.04973513
159	0xbbe79fb3	-0.007068598
160	0xbd89c058	-0.0672614
161	0x3d050757	0.032477703
162	0x3d496941	0.049172644
163	0x3ceb7664	0.028742976
164	0x3d21db27	0.03951564
165	0xbc85af2e	-0.016318884
166	0x3d1a8ba3	0.037730824
167	0xbc83fd70	-0.01611206
168	0x3d418385	0.047244567
169	0x3cc1354d	0.023584986
170	0xbc929441	-0.017892959
171	0xbcdaf409	-0.026727693
172	0xbc38ba41	-0.011274875
173	0xbcb99ade	-0.022656854
174	0x3d825be4	0.06365183
175	0x3d495eb6	0.04916259
176	0xbd135989	-0.03597406
177	0xbc4d1f67	-0.012519694
178	0x3d67087b	0.056404572
179	0xbaff28ec	-0.0019467152
180	0xbd15987f	-0.036522385
181	0xbce6a21b	-0.02815347
182	0xbb9ed9e8	-0.004847754
183	0x3b8a831f	0.0042270566
184	0x3d3d77d2	0.046256848
185	0xbbcc224d	-0.006229675
186	0xbd6b86a0	-0.057501435
187	0xbc894723	-0.016757553
188	0x3d51bde2	0.051206477
189	0x3ba394b6	0.004992093
190	0xbd42bcad	-0.047543216
191	0x3c8b601f	0.017013608
192	0x3d35de63	0.044401538
193	0x3d79d817	0.060997095
194	0x3b259aae	0.0025269198
195	0xbc9fbae9	-0.019498305
196	0x3c9b1436	0.018930536
197	0xbd602959	-0.054726932
198	0x3d7c5ab1	0.061609928
199	0x3d12f4d6	0.035878025
200	0x3d5711dd	0.05250727
201	0xbd2c4603	-0.042058956
202	0xbcefe6b9	-0.029284822
203	0x3c107cb6	0.008818796
204	0x3d38044a	0.044925965
205	0xbd43000e	-0.047607474
206	0xbd493482	-0.04912234
207	0x3d84d46d	0.064858295
208	0xba001e72	-0.0004887349
209	0xbaa125c9	-0.0012294586
210	0x3d724ddb	0.05915628
211	0x3c437fec	0.011932354
212	0x3d2616ad	0.04054897
213	0x3d62d70c	0.055380866
214	0xbc440c2c	-0.011965793
215	0xbcb69026	-0.022285532
216	0x3bf75b63	0.007548736
217	0xbd1772dc	-0.036974773
218	0xbd1a38d1	-0.03765184
219	0x3cfbb7af	0.030727236
220	0xbc233e09	-0.009963521
221	0xbc39fb56	-0.011351427
222	0xbd622b8f	-0.055217322
223	0x3d508d3c	0.05091594
224	0xbc6a8de4	-0.014316056
225	0x3cbe3e70	0.023223132
226	0xbbcbf59a	-0.0062243463
227	0x3d3b4862	0.045723327
228	0xbd4139c8	-0.047174245
229	0xbbdd00a8	-0.006744463
230	0x3ccf979b	0.025340846
231	0x3d0074cb	0.031361382
232	0xbc4689f7	-0.012117854
233	0xbb8ff23f	-0.0043928917
234	0xbc95c85b	-0.018284013
235	0xbd36d665	-0.044638056
236	0x3ceb5719	0.028728055
237	0xbd51be4b	-0.05120687
238	0xbcb828a6	-0.02248032
239	0x3b84f006	0.0040569333
240	0x3d617a74	0.05504842
241	0xbb878345	-0.0041355216
242	0x3d75fede	0.060057513
243	0x3d2c1183	0.042008888
244	0xbba18ec0	-0.004930347
245	0xbd0dc701	-0.034613613
246	0xbc65045f	-0.013978093
247	0xbd00271a	-0.03128729
248	0x3c79fd25	0.015258108
249	0xbc660c2e	-0.01404099
250	0x3d2a23d2	0.041538067
251	0xbcd70eab	-0.026252111
252	0x3cb0eef2	0.021598313
253	0x3d8b24ec	0.06794152
254	0x3c4a6047	0.012352056
255	0xbd6075be	-0.054799788
