models/best_fold1_hd256_do0.5.pth (torch, 425766 bytes, 20 tensors)

feature_extractor.0.weight f4 [256, 10]
0.25229526 0.2748307 -0.112069026 -0.12378577 0.21552944 -0.26192865 0.19066483 -0.20599246
0.04178844 0.105372906 0.011075839 0.19839753 -0.1255733 0.19730018 0.17359146 -0.010316229
0.011458925 -0.0031317873 0.26817125 -0.13299468 -0.29730245 0.1078765 0.27785403 0.118890025
-0.15033954 -0.2701394 -0.11537882 -0.03617688 -0.2868764 -0.24952853 -0.24596086 -0.2544663
0.1395313 -0.068861805 -0.113754034 0.23384084 -0.18962559 0.040101685 -0.29384327 -0.06415864
-0.0014467806 0.13938105 -0.26052412 0.15054788 -0.13502355 0.12008628 -0.19936055 0.2452057
-0.108325414 -0.2112189 -0.27970508 0.16428739 0.23402587 0.25669402 0.18179436 -0.13611586
0.034527194 -0.295705 0.22009352 0.21641271 0.12616318 -0.29328746 -0.083176024 -0.20779262
-0.2936844 0.08598079 -0.2607264 -0.16922608 -0.028418273 0.0074971756 -0.19683532 0.3125523
-0.11494352 0.22354749 0.25919327 0.20993672 -0.11975 -0.009941527 -0.09827573 -0.2650844
0.24184501 0.13444982 0.21634254 0.00603839 0.1054174 -0.23078261 -0.14219141 -0.13497207
-0.065942645 0.17578164 -0.35231143 0.09844225 0.19100718 -0.08482174 -0.27750653 -0.21449378
-0.25784367 0.16676247 -0.17058894 -0.016192341 0.14869146 -0.17797299 -0.09082589 0.019005554
-0.15705125 0.13073514 -0.1312809 0.29135218 0.18915877 0.053197972 -0.096857876 -0.19043383
0.09963899 -0.13116115 -0.07881388 0.26260462 -0.22566664 0.12229831 0.12831998 -0.07320203
0.2746947 0.16114405 0.008134941 0.14454661 0.08910015 0.15251918 -0.11230205 0.26227844
-0.06228969 -0.17566526 -0.3720447 -0.012461748 -0.14461674 0.055812784 -0.15893662 -0.096026495
0.24347976 -0.03795356 -0.115263455 -0.19986472 -0.07954565 -0.18670386 -0.1818362 -0.25619078
-0.12032343 -0.058596037 -0.07862292 -0.06566225 -0.022367153 -0.22405691 0.18040995 -0.29549402
0.26491362 -0.0073354887 0.09460716 -0.098597534 -0.20301946 0.18747202 0.066807516 -0.16171685
-0.08736544 -0.006057046 -0.21442576 0.13911341 0.11713859 -0.049697656 0.09386193 0.29521525
-0.23674804 -0.17649342 0.30019233 0.015368759 0.0059812507 0.10092442 -0.017265314 -0.12912065
-0.27653736 0.17675392 -0.23566975 -0.23914583 -0.10738164 -0.19802888 -0.07450745 -0.27431002
0.03562291 -0.2575013 0.17278951 -0.08501573 -0.20609118 0.20293438 -0.18878326 -0.10290445
-0.13085255 0.27720514 -0.12758154 0.09044767 0.0018466199 0.27667916 -0.16997461 0.21042201
0.3147373 -0.2593974 0.2828041 0.032418776 0.1563057 0.25094435 -0.07227662 0.20063041
-0.30792192 0.20295489 0.113470405 -0.1683967 -0.21868181 0.1460763 -0.12405846 -0.15997052
0.089051716 -0.20791754 0.2998337 0.20362219 0.057211895 -0.27925047 -0.030564826 0.09138705
-0.30636275 0.2805486 0.24121016 0.013365251 -0.23915343 -0.24449821 0.13761203 0.09840483
0.2300857 0.12082891 -0.040238112 -0.23779008 -0.19718958 -0.2661166 0.044211846 0.0022508616
0.07539097 0.08432715 0.15687375 0.0011120716 0.22352669 0.2144977 -0.13760035 -0.11408471
0.21152127 -0.30864492 0.31764135 0.2475788 0.018167693 0.216807 -0.0070105805 0.18571407
00000000: d82c 813e 9cb6 8c3e 7284 e5bd 6583 fdbd
00000010: c0b3 5c3e 831b 86be a43d 433e b0ef 52be
00000020: 5b2a 2b3d c0cd d73d 7077 353c b928 4b3e
00000030: 4a96 00be 0f09 4a3e f6c1 313e 6705 29bc
00000040: 37be 3b3c ac3e 4dbb be4d 893e c22f 08be
00000050: 0738 98be 5bee dc3d e242 8e3e 9d7c f33d
00000060: 9cf2 19be b64f 8abe bb4b ecbd 352e 14bd
00000070: 77e1 92be 6884 7fbe 2add 7bbe 6849 82be
00000080: 4be1 0e3e 6b07 8dbd e0f7 e8bd f973 6f3e
00000090: 362d 42be aa41 243d a072 96be 9b65 83bd
000000a0: e7a1 bdba e8b9 0e3e 6b63 85be 3929 1a3e
000000b0: 9d43 0abe ccef f53d 2c25 4cbe 3417 7b3e
000000c0: b7d9 ddbd c449 58be 8135 8fbe f43a 283e
000000d0: 7aa4 6f3e 666d 833e 4d28 3a3e f561 0bbe
000000e0: 636c 0d3d a566 97be 3260 613e 4b9b 5d3e
000000f0: ec30 013e c629 96be 3158 aabd 97c7 54be
00000100: cd5d 96be b216 b03d ee7d 85be 9a49 2dbe
00000110: 70cd e8bc deaa f53b 338f 49be db06 a03e
00000120: 8267 ebbd a2e9 643e fbb4 843e a7f9 563e
00000130: 7d3f f5bd c9e1 22bc c944 c9bd 24b9 87be
00000140: 38a6 773e 37ad 093e e688 5d3e b0dd c53b
00000150: 14e5 d73d 4752 6cbe a09a 11be 1e36 0abe
00000160: f00c 87bd 1a00 343e 2a62 b4be 179c c93d
00000170: 6397 433e 05b7 adbd 5615 8ebe 42a4 5bbe
00000180: 1604 84be c8c3 2a3e deae 2ebe cda5 84bc
00000190: 9342 183e 8d3e 36be ed02 babd 89b1 9b3c
000001a0: 0bd2 20be 6fdf 053e 806e 06be 1d2c 953e
000001b0: d6b2 413e 1ee6 593d 6c5d c6bd 1601 43be
000001c0: 870f cc3d 1c4f 06be 2c69 a1bd 1d74 863e
000001d0: 2815 67be 8977 fa3d 5066 033e f2ea 95bd
000001e0: c9a4 8c3e f202 253e 6a48 053c 0704 143e
000001f0: 247a b63d fd2d 1c3e 9efe e5bd 5c49 863e
00000200: 7923 7fbd 98e1 33be a57c bebe 5c2c 4cbc
00000210: 6916 14be f29b 643d 48c0 22be 8aa9 c4bd
00000220: c252 793e 3175 1bbd 3f0f ecbd 56a9 4cbe
00000230: d4e8 a2bd 4c2f 3fbe 4533 3abe 702b 83be
00000240: 216c f6bd 6602 70bd 0e05 a1bd ee79 86bd
00000250: 523b b7bc 2d6f 65be 63bd 383e fe4a 97be
00000260: c2a2 873e 8a5e f0bb 66c1 c13d 81ed c9bd
00000270: 55e4 4fbe aaf8 3f3e 61d2 883d 1a99 25be
00000280: a7ec b2bd 2f7a c6bb 6d92 5bbe bf73 0e3e
00000290: 5be6 ef3d c58f 4bbd af3a c03d 7426 973e
000002a0: 146e 72be b1ba 34be cfb2 993e 3fcd 7b3c
000002b0: 5efe c33b 76b1 ce3d fd6f 8dbc 3438 04be
000002c0: 4e96 8dbe fbfe 343e 6953 71be a5e2 74be
000002d0: e8ea dbbd 15c8 4abe 5d97 98bd 5d72 8cbe
000002e0: 54e9 113d 36d7 83be bcef 303e ba1c aebd
000002f0: 9109 53be 08ce 4f3e 6650 41be 91bf d2bd
00000300: 36fe 05be d5ed 8d3e bca4 02be a13c b93d
00000310: 480a f23a e4a8 8d3e d30d 2ebe de78 573e
00000320: 3f25 a13e bccf 84be b3cb 903e 8dc9 043d
00000330: 9a0e 203e c77b 803e c405 94bd 0f72 4d3e
00000340: f1a7 9dbe 68d3 4f3e 2c63 e83d 2f70 2cbe
00000350: 20ee 5fbe 0795 153e 5d12 febd 50cf 23be
00000360: bf60 b63d 56e8 54be cd83 993e 5682 503e
00000370: 0557 6a3d ebf9 8ebe 1663 fabc 2229 bb3d
00000380: 94db 9cbe 11a4 8f3e ccff 763e edf9 5a3c
00000390: a3e4 74be bd5d 7abe 2bea 0c3e 7988 c93d
000003a0: 969b 6b3e 2675 f73d b8d0 24bd 3e7f 73be
000003b0: 11ec 49be 6f40 88be 7b17 353d 3183 133b
000003c0: 9566 9a3d b6b3 ac3d 83a3 203e eec2 913a
000003d0: 2ee4 643e 49a5 5b3e 1be7 0cbe 3fa5 e9bd
000003e0: 0899 583e b506 9ebe e3a1 a23e 4c85 7d3e
000003f0: 6ad4 943c a702 5e3e 03b9 e5bb d42b 3e3e

feature_extractor.0.bias f4 [256]
-0.24036184 -0.059910093 0.1932432 0.2761433 0.020818168 -0.30702117 0.16155556 0.07728832
0.039513644 -0.21480168 -0.18469311 -0.094917454 -0.18960635 0.24228315 0.16560276 -0.05388972
0.2644209 0.053869963 0.25508538 -0.3022712 0.0889521 0.21030188 0.23715982 -0.03583422
-0.31497976 0.014960586 0.12751526 0.19217609 0.29796705 0.27883643 0.26405847 0.022200681
-0.23214443 0.14906979 -0.2548315 0.25678897 -0.007556218 -0.21298818 0.2851275 0.110167
-0.2476676 0.24876697 0.26199552 0.16105616 -0.116789706 -0.26728013 0.02842591 -0.24358834
0.100256614 -0.28056008 -0.021750677 0.10832219 0.1331944 0.1257331 0.22517502 0.17568088
0.27327037 -0.057758935 -0.1913291 -0.030294625 -0.17573616 0.23554352 -0.19875285 0.2871939
-0.19019718 -0.21866262 -0.01717081 0.2567556 -0.2767935 0.25310898 -0.1103642 0.15000758
-0.27329412 0.30714822 0.25056925 0.030937238 -0.15103929 -0.26068783 -0.12337425 -0.2349306
-0.25637355 -0.2499871 -0.29346246 0.17484912 -0.2838626 -0.081938475 -0.305712 -0.1760123
0.1624906 0.12831411 0.09201994 0.09655372 0.198482 0.082758434 0.120513335 -0.10510956
-0.04495176 0.1377317 0.03702761 -0.09398393 -0.30101848 0.1352806 0.14205804 -0.027649159
0.30853087 -0.0862034 -0.15657611 -0.034773942 0.3135304 -0.06969452 0.1445247 -0.28435984
0.19391134 -0.20426461 0.275751 0.17012711 -0.25079644 -0.17332664 0.08988842 0.10305318
0.3030668 0.18257108 0.11690704 0.2598702 0.22302553 -0.1288321 -0.04468317 -0.24529944
-0.068693876 0.30572826 -0.30568376 0.1910739 0.18737298 -0.13043231 -0.057439096 -0.20617023
-0.27729687 -0.2357817 -0.010211856 0.27559346 -0.05447767 -0.07049248 -0.20776585 0.12719168
-0.17387883 -0.18293072 0.2939104 0.29688293 -0.23275983 -0.08494206 0.2482841 -0.24207658
0.031449474 -0.051676784 0.023167893 -0.027842987 0.27878016 -0.033856653 -0.3003217 -0.01491417
-0.16900842 -0.13325763 -0.2354812 0.19447929 0.25647265 -0.29113275 -0.21520665 -0.27626848
-0.1548747 0.08839508 0.03989744 0.12920222 0.22236188 0.11021378 -0.15015827 0.22729881
0.1557722 0.007400536 0.1691465 -0.2569908 -0.18580773 -0.26971602 0.27059323 -0.20542115
0.007807146 0.13667499 0.30851012 0.07173971 -0.09446963 -0.081217855 0.2659148 -0.26104352
-0.18462877 -0.16580297 -0.0030110204 0.031951845 0.17630696 0.30609623 0.024055414 0.26877764
0.20530973 -0.15580426 0.2558432 -0.13748924 0.014986614 -0.20444797 -0.22506967 -0.28515106
0.30814475 -0.22811602 -0.27602026 0.111809045 0.10356797 0.2719613 0.21772718 0.02161234
-0.16542359 -0.11235283 -0.10159845 0.26006582 0.009190536 0.052507803 0.17183281 -0.097481154
0.113787726 0.14041969 0.069522925 0.13757026 0.27932012 -0.1993656 -0.06119881 0.09947655
-0.18166366 -0.05323502 0.2316054 0.1461775 -0.18770288 0.13254619 0.07415443 -0.034821752
0.2976984 0.30512038 -0.30836546 0.09966049 -0.020110346 -0.013462004 0.29339454 -0.18794182
-0.23079915 -0.045643702 -0.2668918 0.06274395 -0.24872313 -0.2617778 0.15081646 0.16696762
00000000: 6a21 76be 4964 75bd 8ce1 453e a862 8d3e
00000010: dd8a aa3c e131 9dbe d26e 253e 5749 9e3d
00000020: 0fd9 213d f9f4 5bbe 3120 3dbe 1564 c2bd
00000030: 2b28 42be 1319 783e c593 293e 78bb 5cbd
00000040: 2d62 873e c0a6 5c3d 8d9a 823e 4ac3 9abe
00000050: 852c b63d 6059 573e 06da 723e e7c6 12bd
00000060: 0745 a1be 3f1d 753c 5c93 023e cfc9 443e
00000070: 238f 983e a6c3 8e3e ac32 873e 34de b53c
00000080: 45b7 6dbe c0a5 183e 4679 82be d879 833e
00000090: 279a f7bb 9319 5abe 3bfc 913e 3c9f e13d
000000a0: 939c 7dbe c5bc 7e3e 4724 863e e8eb 243e
000000b0: 712f efbd f1d8 88be 74dd e83c 396f 79be
000000c0: 5753 cd3d 92a5 8fbe 7a2e b2bc 06d8 dd3d
000000d0: 1d64 083e 2ec0 003e 4894 663e b0e5 333e
000000e0: 18ea 8b3e a294 6cbd c7eb 43be 6f2c f8bc
000000f0: 2ef4 33be 5232 713e de85 4bbe 140b 933e
00000100: 0dc3 42be 18e9 5fbe cca9 8cbc 7875 833e
00000110: e1b7 8dbe 8097 813e a006 e2bd 969b 193e
00000120: 35ed 8bbe 8842 9d3e 9d4a 803e 1770 fd3c
00000130: 0baa 1abe e078 85be a4ab fcbd a691 70be
00000140: 6543 83be 9efc 7fbe b640 96be a60b 333e
00000150: 7056 91be 5ccf a7bd 4986 9cbe 923c 34be
00000160: f063 263e c664 033e f374 bc3d f5bd c53d
00000170: de3e 4b3e 417d a93d b2cf f63d ae43 d7bd
00000180: 561f 38bd 8a09 0d3e 43aa 173d a67a c0bd
00000190: 181f 9abe ff86 0a3e aa77 113e 7d80 e2bc
000001a0: c2f7 9d3e 688b b0bd 7d55 20be 1f6f 0ebd
000001b0: 0e87 a03e 00bc 8ebd 48fe 133e 9d97 91be
000001c0: b290 463e be2a 51be 3c2f 8d3e cd35 2e3e
000001d0: 6468 80be 8a7c 31be 6c17 b83d 8c0d d33d
000001e0: 922b 9b3e eaf3 3a3e f56c ef3d b50d 853e
000001f0: ce60 643e 90ec 03be b305 37bd c72f 7bbe
00000200: 60af 8cbd 6a88 9c3e 9582 9cbe e0a8 433e
00000210: b4de 3f3e 0c90 05be 4245 6bbd 4a1e 53be
00000220: dbf9 8dbe c270 71be a14f 27bc 961a 8d3e
00000230: fa23 5fbd 5d5e 90bd 92c0 54be 893e 023e
00000240: 4b0d 32be 3152 3bbe 6d7b 963e 0a01 983e
00000250: 9858 6ebe 1af6 adbd 303e 7e3e ece2 77be
00000260: 2ad1 003d 09ab 53bd 98ca bd3c fa16 e4bc
00000270: 46bc 8e3e 46ad 0abd c4c3 99be 905a 74bc
00000280: 8b10 2dbe b074 08be fc21 71be 9425 473e
00000290: 6250 833e 5a0f 95be 225f 5cbe 1073 8dbe
000002a0: 7997 1ebe 7b08 b53d 7f6b 233d 964d 043e
000002b0: d5b2 633e c3b7 e13d 17c3 19be 05c1 683e
000002c0: bf82 1f3e 3280 f23b bd34 2d3e 4c94 83be
000002d0: 6244 3ebe 3818 8abe 328b 8a3e ec59 52be
000002e0: 16d3 ff3b 87f4 0b3e 0af5 9d3e 45ec 923d
000002f0: 4b79 c1bd 8c55 a6bd fc25 883e 7fa7 85be
00000300: 530f 3dbe 41c8 29be 8a54 45bb f0df 023d
00000310: d089 343e a5b8 9c3e dc0f c53c 399d 893e
00000320: b73c 523e 278b 1fbe e1fd 823e fbc9 0cbe
00000330: 6a8a 753c cf5a 51be aa78 66be 52ff 91be
00000340: 26c5 9d3e 3f97 69be 8752 8dbe 24fc e43d
00000350: 721b d43d 833e 8b3e e0f3 5e3e 5d0c b13c
00000360: cd64 29be 3e19 e6bd d912 d0bd 5927 853e
00000370: e793 163c 6c12 573d f1f4 2f3e 33a4 c7bd
00000380: 8a09 e93d 2eca 0f3e 0962 8e3d 38df 0c3e
00000390: 0c03 8f3e 7f26 4cbe 9aab 7abd 5dba cb3d
000003a0: 0a06 3abe f70c 5abd f729 6d3e 8eaf 153e
000003b0: 2f35 40be 30ba 073e 47de 973d 41a1 0ebd
000003c0: ed6b 983e bd38 9c3e 14e2 9dbe cd1a cc3d
000003d0: 74be a4bc bd8f 5cbc cf37 963e d273 40be
000003e0: 9d56 6cbe e4f4 3abd 0ba6 88be e67f 803d
000003f0: 47b1 7ebe bd07 86be a16f 1a3e 8ff9 2a3e

feature_extractor.1.weight f4 [256]
1.0068846 0.9973621 1.0116758 1.0018034 0.99637246 1.0137762 0.98982126 1.0101691
1.0067657 1.010283 0.98448896 0.9902189 1.0121206 1.039937 0.98680484 1.012444
0.9985545 0.9942363 0.9899636 1.0129931 0.99657923 1.0059547 0.981874 0.9973073
1.0005417 0.9996374 1.0197054 1.003225 0.999087 0.9970888 1.0093198 1.0170493
0.99369067 0.9945191 0.9899393 0.98557466 0.97979426 0.98159754 0.98682755 0.9872722
0.9954405 1.0009464 1.0343692 0.97837067 1.0121742 0.9965361 0.99444395 0.98701257
0.99230903 0.99060583 0.9925136 0.9854082 1.0085865 1.0281044 1.0002681 1.0007492
1.0066466 1.0038142 0.99834275 0.996068 0.9957016 0.9895428 1.002312 1.0075369
1.0103524 0.9834935 0.99152434 1.0138379 1.0073103 0.9888942 1.0143012 1.0378683
1.0204433 1.0042795 1.0182898 0.9914377 0.9803044 0.9952186 1.0056351 0.9962096
0.99825734 0.9889659 1.005473 1.013631 0.98974246 0.99109197 1.007933 0.99537134
1.0048419 0.99675244 0.9958385 1.0025225 1.0089903 0.9806161 0.9873681 0.98668873
1.0043608 0.9918016 1.0218407 1.036796 0.997181 0.9963492 0.9920046 1.0104048
0.98796517 0.99042255 1.0198251 0.98317283 0.9939755 0.9846205 1.0086831 1.0016842
0.9943076 0.9977269 0.9916597 0.99752134 1.0054022 1.0003352 1.0397177 0.9803666
0.99835014 0.9852567 1.011918 0.9899145 1.0042497 0.9964019 0.987888 0.98079956
0.9818692 0.9839095 1.0042127 0.98386806 1.0222569 1.0023911 1.0087051 1.0064412
1.0081688 0.9874038 1.0034769 0.9986375 0.99781346 0.9941427 0.9933058 0.98389
0.9994598 1.0032234 1.0108633 1.0250413 0.99032325 1.0071427 1.022948 1.0268083
0.99528486 0.9932763 0.9947226 0.99706334 0.9902991 0.9802421 0.98456943 0.9933105
0.9939908 1.0100837 1.011639 0.99016017 0.9982301 0.9965233 0.9899375 0.9889138
0.97781783 1.0063523 0.9736792 0.98882365 1.0017409 0.9810725 1.0095028 0.9875855
0.9720751 1.0255749 1.0200337 0.9729898 0.99013036 0.9961198 0.9862289 0.9896117
0.9967839 1.0007493 1.0086664 0.9934571 1.0175833 1.0070038 0.99193144 1.0001317
0.98402727 0.9856533 0.9915893 1.0055766 0.9732277 1.0461426 1.0201119 0.9907727
1.0030802 0.983702 1.0113724 0.9873028 1.0021893 0.9923545 0.9872623 0.99983203
1.045913 0.99951994 0.9965155 0.9924103 0.99816626 0.98894644 1.0104675 1.0305378
0.9886459 0.976548 1.0169379 1.0006169 0.9954213 0.9945231 0.9825968 1.0059686
0.9877088 1.0196344 0.9907861 0.9866146 1.0198741 1.0015627 1.0086026 0.99672467
0.97902936 1.0093359 0.9920316 0.99574494 1.007672 0.9955952 0.99151194 1.018627
1.0283055 0.9997985 0.9966828 1.04054 0.99375874 0.9908251 0.9946131 0.9918395
1.0010701 0.9911695 1.008086 0.9985536 0.9867238 1.0038412 1.003489 0.9962022
00000000: 98e1 803f 1f53 7f3f 987e 813f 183b 803f
00000010: 4412 7f3f 6bc3 813f ed64 7d3f 394d 813f
00000020: b3dd 803f f450 813f 7807 7c3f fc7e 7d3f
00000030: 2b8d 813f a81c 853f 3e9f 7c3f c497 813f
00000040: 45a1 7f3f 4586 7e3f 416e 7d3f c2a9 813f
00000050: d11f 7f3f 20c3 803f 185c 7b3f 884f 7f3f
00000060: c011 803f 3de8 7f3f b585 823f ad69 803f
00000070: 2ac4 7f3f 3641 7f3f 6431 813f ac2e 823f
00000080: 8362 7e3f ce98 7e3f a96c 7d3f 9f4e 7c3f
00000090: ccd3 7a3f fa49 7b3f bba0 7c3f dfbd 7c3f
000000a0: 30d5 7e3f 031f 803f 3666 843f 8076 7a3f
000000b0: ed8e 813f fd1c 7f3f e193 7e3f dbac 7c3f
000000c0: f707 7e3f 5898 7d3f 5f15 7e3f b643 7c3f
000000d0: 5d19 813f ed98 833f c908 803f 8d18 803f
000000e0: ccd9 803f fc7c 803f 6493 7f3f 50fe 7e3f
000000f0: 4de6 7e3f ad52 7d3f c24b 803f f8f6 803f
00000100: 3a53 813f 3bc6 7b3f 8ad4 7d3f 71c5 813f
00000110: 8bef 803f 2c28 7d3f 9fd4 813f ded8 843f
00000120: e39d 823f 3b8c 803f 5257 823f dcce 7d3f
00000130: 3bf5 7a3f a5c6 7e3f a7b8 803f 9807 7f3f
00000140: cb8d 7f3f df2c 7d3f 57b3 803f a9be 813f
00000150: c35f 7d3f 34b8 7d3f f303 813f a8d0 7e3f
00000160: a99e 803f 2b2b 7f3f 46ef 7e3f a852 803f
00000170: 9826 813f a809 7b3f 28c4 7c3f a297 7c3f
00000180: e58e 803f b6e6 7d3f adcb 823f bbb5 843f
00000190: 4147 7f3f be10 7f3f 03f4 7d3f f254 813f
000001a0: 49eb 7c3f 558c 7d3f a189 823f 37b1 7b3f
000001b0: 2e75 7e3f 1710 7c3f 871c 813f 3037 803f
000001c0: f18a 7e3f 086b 7f3f 69dd 7d3f 8f5d 7f3f
000001d0: 05b1 803f fc0a 803f 7815 853f 4ef9 7a3f
000001e0: e093 7f3f c839 7c3f 8786 813f 096b 7d3f
000001f0: 418b 803f 3214 7f3f 3ae6 7c3f ae15 7b3f
00000200: c85b 7b3f 7ee1 7b3f 0b8a 803f c7de 7b3f
00000210: 50d9 823f 5a4e 803f 401d 813f 11d3 803f
00000220: ad0b 813f 7fc6 7c3f ee71 803f b5a6 7f3f
00000230: b470 7f3f 2380 7e3f 4a49 7e3f 37e0 7b3f
00000240: 99dc 7f3f a069 803f f863 813f 8e34 833f
00000250: d385 7d3f 0dea 803f f6ef 823f 746e 833f
00000260: fdca 7e3f 5b47 7e3f 24a6 7e3f 8b3f 7f3f
00000270: 3e84 7d3f 25f1 7a3f be0c 7c3f 9949 7e3f
00000280: 2e76 7e3f 6c4a 813f 637d 813f 237b 7d3f
00000290: 028c 7f3f 271c 7f3f 8b6c 7d3f 7429 7d3f
000002a0: 4552 7a3f 27d0 803f 0a43 793f 8c23 7d3f
000002b0: 0c39 803f 9127 7b3f 6337 813f 67d2 7c3f
000002c0: ead9 783f 0a46 833f 7790 823f dc15 793f
000002d0: 2f79 7d3f b501 7f3f 7f79 7c3f 3157 7d3f
000002e0: 3b2d 7f3f 8e18 803f fb1b 813f 3453 7e3f
000002f0: 2b40 823f 80e5 803f 38ef 7d3f 5104 803f
00000300: 36e9 7b3f c653 7c3f ccd8 7d3f bcb6 803f
00000310: 7325 793f 00e8 853f 0793 823f 48a3 7d3f
00000320: ef64 803f e5d3 7b3f a774 813f e0bf 7c3f
00000330: bd47 803f f20a 7e3f 39bd 7c3f fef4 7f3f
00000340: 7ae0 853f 8ae0 7f3f a41b 7f3f 9a0e 7e3f
00000350: d387 7f3f 982b 7d3f 0057 813f aae8 833f
00000360: e617 7d3f 0dff 793f 052b 823f 3714 803f
00000370: eed3 7e3f 1199 7e3f 778b 7b3f 94c3 803f
00000380: 7cda 7c3f 6183 823f 28a4 7d3f c692 7c3f
00000390: 3c8b 823f 3533 803f e419 813f 5929 7f3f
000003a0: aba1 7a3f eb31 813f c8f5 7d3f 24e9 7e3f
000003b0: 65fb 803f 54df 7e3f bad3 7d3f 5f62 823f
000003c0: 849f 833f cbf2 7f3f 9b26 7f3f 6a30 853f
000003d0: f966 7e3f b7a6 7d3f f79e 7e3f 32e9 7d3f
000003e0: 1123 803f 49bd 7d3f f608 813f 35a1 7f3f
000003f0: ee99 7c3f de7d 803f 5472 803f 1b07 7f3f

feature_extractor.1.bias f4 [256]
0.0075992346 0.0036545722 -0.0088323625 -0.011533598 -0.0037223625 0.022561276 0.0033991437 0.013427549
0.01284669 0.021762028 -0.011538919 -0.009656558 0.008203928 0.0034005474 -0.012791972 0.017859189
-0.0045682434 0.0007564146 -0.01883602 -0.0050818473 0.013395377 0.011549443 -0.02136362 -0.02234808
-0.0024556078 0.0045064725 0.0057830433 -0.004653555 -0.008893952 -0.017855413 0.0030201543 0.02641064
-0.002734242 0.0028608867 -0.012171195 -0.012454883 -0.019869559 -0.010718175 -0.010014958 0.0020737457
-0.0134587735 0.004753437 0.0016804122 -0.021331776 0.005246163 -0.0048986147 -0.00439251 -0.017448805
7.0256225e-05 -0.024093818 -0.008212743 -0.0064098774 0.010120828 0.0022324026 0.01808176 0.00014768558
0.008055649 -0.007989309 0.014643528 -0.010345348 0.005215427 -0.015315797 -0.00095573795 0.007837794
0.012551565 -0.011150559 -0.015975496 0.0241163 0.0024011433 -0.01107691 0.0008855525 0.029888812
-0.011899604 -0.015101185 0.020389369 0.008357785 -0.012060658 -0.0023444952 0.008847381 -0.011823552
0.0023036692 -0.008195571 -0.01699294 0.0137092825 -0.01323095 -0.015289868 0.013947788 -0.0071603036
0.032311775 -0.022269573 -0.010937923 0.0015958138 -0.0085866675 -0.012787175 -0.015994098 -0.010514074
0.00579697 -0.004553402 0.0166843 0.023024293 0.0059084296 0.007886639 0.008436911 0.00681237
-0.008558932 -0.0019807424 0.039392315 -0.01875269 0.0025313788 -0.013545665 0.032250293 -0.00029055966
-0.004899623 -0.017740794 -0.0135268625 0.0018466088 0.012646504 0.0050933445 0.024401294 -0.009361429
-0.00089107145 -0.014764432 0.01321296 -0.0054850723 0.003194164 -0.0063377507 -0.0077818003 -0.010349841
-0.009962033 -0.010798986 -0.0037713016 -0.020195672 0.015109489 -0.000109444365 0.031459477 0.028920427
0.01877442 -0.0074073714 -0.0023081321 0.0010600148 0.01008734 -0.009882732 -0.005126926 -0.013258666
0.027304089 1.74911e-05 0.007776943 0.035645228 -0.013327848 -0.0019261873 0.02769905 0.010958507
-0.0019814924 -0.004146072 -0.002695862 0.013489923 -0.008842519 -0.019733015 -0.020657994 -0.004872831
-0.0067712767 0.012713706 0.0052245804 -0.0060298266 0.009440185 0.028740361 -0.008343599 -0.013592181
-0.019267322 0.01098721 -0.020055467 -0.00905952 0.022127077 -0.018079378 -0.008902298 -0.0009730144
-0.02785504 0.017306086 0.028303584 -0.027026255 -0.016528469 -0.0020396598 -0.012328946 -0.0067131897
-0.0033909967 0.0037626382 0.010055978 -0.0010875369 0.030317824 0.0069954623 -0.007000892 -0.0002616456
-0.013628963 0.01341227 -0.015548195 0.0019875043 -0.022312123 0.011050008 0.002742049 -0.008456353
-0.00043773974 -0.01853062 0.032294624 -0.014140119 0.0030612333 -0.0034372634 -0.017769713 -0.0026500393
0.03777424 -0.0011654872 0.0031584546 0.003792084 0.0024355392 -0.016098622 0.015965832 0.0096405605
-0.0071309935 -0.011895707 0.014097069 0.01081482 0.004184404 0.021356314 -0.015874226 0.0138386525
-0.014812211 0.014670545 0.0004523932 -0.023375662 -2.5862078e-06 0.008794696 0.00745886 -0.0067156083
-0.01438188 0.017025495 -0.012447508 -0.0036613708 0.004104644 -0.008328266 0.0023003658 0.0045492686
-0.0062956573 0.012209147 0.006722495 0.02182162 0.006875636 0.0035303023 -0.005725201 -0.010302545
0.010477884 -0.008481666 0.0017722335 0.0019136204 -0.022277154 0.0034128963 0.003125569 -0.0050966134
00000000: 0003 f93b 8c81 6f3b 9db5 10bc 6bf7 3cbc
00000010: e1f2 73bb 6dd2 b83c 2bc4 5e3b 39ff 5b3c
00000020: ec7a 523c 4846 b23c bc0d 3dbc 8a36 1ebc
00000030: c569 063c b8db 5e3b 6b95 51bc 6f4d 923c
00000040: 34b1 95bb 204a 463a ff4d 9abc a085 a6bb
00000050: 4978 5b3c e039 3d3c c202 afbc 5213 b7bc
00000060: 43ee 20bb 08ab 933b af7f bd3b d97c 98bb
00000070: f0b7 11bc 8445 92bc c8ed 453b 205b d83c
00000080: f830 33bb b77d 3b3b b169 47bc 910f 4cbc
00000090: 7cc5 a2bc 499b 2fbc c715 24bc aee7 073b
000000a0: 3082 5cbc b8c2 9b3b 4741 dc3a fabf aebc
000000b0: 01e8 ab3b 8f84 a0bb 0bef 8fbb ccf0 8ebc
000000c0: 8656 9338 6660 c5bc be8e 06bc f309 d2bb
000000d0: d4d1 253c 804d 123b 3320 943c 0cdc 1a39
000000e0: d7fb 033c 97e5 02bc 68eb 6f3c 897f 29bc
000000f0: 2ce6 aa3b 1cef 7abc 7d8a 7aba 176a 003c
00000100: 14a5 4d3c d6b0 36bc 0bdf 82bc 8c8f c53c
00000110: 805c 1d3b ee7b 35bc 6c24 683a 62d9 f43c
00000120: 8ff6 42bc f66a 77bc 9b07 a73c 17ef 083c
00000130: 119a 45bc 1aa6 19bb 9bf4 103c 92b7 41bc
00000140: 28f9 163b b746 06bc c734 8bbc e69c 603c
00000150: a0c6 58bc 5b82 7abc 4385 643c fba0 eabb
00000160: 5a59 043d ae6e b6bc f934 33bc a02a d13a
00000170: 18af 0cbc 4d81 51bc 0e06 83bc 3943 2cbc
00000180: 82f4 bd3b b434 95bb 83ad 883c 719d bc3c
00000190: 809b c13b f636 013c f83a 0a3c 4d3a df3b
000001a0: c33a 0cbc 58cf 01bb d659 213d 3e9f 99bc
000001b0: 7de5 253b a3ee 5dbc e218 043d 4256 98b9
000001c0: 048d a0bb 2455 91bc c69f 5dbc e909 f23a
000001d0: 4833 4f3c 12e6 a63b 39e5 c73c ae60 19bc
000001e0: cb96 69ba 84e6 71bc 2c7b 583c 1fbc b3bb
000001f0: 2e55 513b e8ac cfbb 79fe febb 6192 29bc
00000200: cb37 23bc 3bee 30bc f127 77bb 6571 a5bc
00000210: ca8d 773c 7f85 e5b8 a7db 003d 88ea ec3c
00000220: d0cc 993c 89b9 f2bb 0844 17bb 32f0 8a3a
00000230: 5f45 253c 2feb 21bc c6ff a7bb e03a 59bc
00000240: d3ac df3c dab9 9237 bad5 fe3b bb00 123d
00000250: 0c5d 5abc 1f78 fcba 1ee9 e23c 4f8b 333c
00000260: eddb 01bb c6db 87bb 0fad 30bb d704 5d3c
00000270: 36e0 10bc 22a7 a1bc f43a a9bc 45ac 9fbb
00000280: 96e1 ddbb 264d 503c f532 ab3b da95 c5bb
00000290: 01ab 1a3c e870 eb3c 97b3 08bc bdb1 5ebc
000002a0: 81d6 9dbc b303 343c 5d4b a4bc 626e 14bc
000002b0: d843 b53c 341b 94bc f2da 11bc e411 7fba
000002c0: 4130 e4bc 7ec5 8d3c ebdc e73c 2a66 ddbc
000002d0: b666 87bc d0ab 05bb 59ff 49bc 51fa dbbb
000002e0: 7c3b 5ebb 9896 763b d4c1 243c af8b 8eba
000002f0: 165d f83c 313a e53b bd67 e5bb 7a2d 89b9
00000300: 044c 5fbc 23bf 5b3c dbbd 7ebc ca40 023b
00000310: eac7 b6bc 180b 353c f3b3 333b 848c 0abc
00000320: 6f80 e5b9 87cd 97bc 5e47 043d f5ab 67bc
00000330: f99e 483b b643 61bb ca91 91bc 48ac 2dbb
00000340: 29b9 1a3d 43c3 98ba 13fe 4e3b 9d84 783b
00000350: 919d 1f3b 42e1 83bc c7ca 823c 71f3 1d3c
00000360: 1cab e9bb 36e6 42bc 65f7 663c a530 313c
00000370: 531d 893b 70f3 ae3c aa0a 82bc 84bb 623c
00000380: eaae 72bc ba5c 703c 302f ed39 517e bfbc
00000390: b68e 2db6 a117 103c 7469 f43b 9b0e dcbb
000003a0: faa1 6bbc 0d79 8b3c a2f0 4bbc 9cf3 6fbb
000003b0: 4080 863b 4873 08bc bcc1 163b 0812 953b
000003c0: cd4b cebb e008 483c 6048 dc3b 41c3 b23c
000003d0: 044d e13b a55c 673b 789a bbbb 01cc 28bc
000003e0: 6eab 2b3c b0f6 0abc 4a4a e83a 72d2 fa3a
000003f0: 947e b6bc e6aa 5f3b 59d6 4c3b 7e01 a7bb

feature_extractor.1.running_mean f4 [256]
-0.1331325 -0.073994294 0.089521095 0.18641783 -0.02227435 -0.4052682 0.23570281 -0.03422333
0.19608578 -0.36853215 -0.12971918 -0.11971635 -0.060043044 0.031803314 0.114812054 0.08487744
0.17799105 0.20922643 0.18984246 -0.43207064 0.28386983 0.24298234 0.2629011 0.08137487
-0.23697281 0.17479125 -0.014254409 0.32745874 0.24331856 0.20682734 0.09491266 0.15581083
-0.40556005 0.1667397 -0.20827664 0.20727126 0.037943885 -0.08200337 0.21496105 0.20621586
-0.284084 0.4212668 0.141471 0.18618946 -0.23072071 -0.11501529 0.008516267 -0.26994175
0.15437458 -0.33513147 0.027531715 0.100640364 0.11331714 -0.043422353 0.3946243 0.20566057
0.35479 -0.19283667 -0.05723178 -0.008723007 -0.20156348 0.3305907 -0.34387544 0.29850832
-0.07528698 -0.20660086 0.0337432 0.37101436 -0.10751706 0.2928071 -0.27114967 0.005856228
-0.31684914 0.15396722 0.06519483 0.20813066 -0.18831618 -0.17556466 0.006065012 -0.22880048
-0.19009921 -0.24214974 -0.3633775 0.07935205 -0.42399046 -0.11072012 -0.24986994 -0.08462037
0.32835028 0.12044012 0.13188957 0.020703366 0.118275695 0.09263342 -0.0006851598 -0.10316657
-0.19862908 0.2521365 -0.13333109 -0.21621534 -0.4103701 0.27588463 0.21864687 0.14433026
0.29901457 -0.13338758 -0.35049918 0.05829809 0.3088901 0.048266325 0.33040684 -0.26357406
0.17864874 -0.18613091 0.25075522 0.23229426 -0.09814023 -0.12792696 -0.06434391 0.12619731
0.27161795 0.043371018 0.2600565 0.39966306 0.21671204 -0.22284257 0.03467118 -0.23019697
-0.14531554 0.1982131 -0.27034765 0.29221284 -0.010674225 0.014292435 0.08966889 -0.028735863
-0.17114373 -0.19017321 -0.16699249 0.31405482 0.023971599 -0.030720625 -0.2586364 0.112336
-0.011676098 -0.22215788 0.45077118 0.11756134 -0.35820332 0.004378798 0.18467425 -0.39853463
0.14100341 0.025792135 0.06767222 -0.20572868 0.22025718 0.043738183 -0.20838277 0.028405327
0.0036327387 -0.29096204 -0.11331719 0.18304406 0.37457603 -0.19198842 -0.2638843 -0.30954704
-0.13329792 0.17578901 0.08631841 0.058329754 0.016615078 0.090232484 -0.26786226 0.32334155
0.15170245 -0.10697187 0.313283 -0.26860654 -0.27481285 -0.30186373 0.2882512 -0.17451432
0.07924202 -0.047071517 0.4059565 -0.024098592 0.046164144 -0.1411103 0.25456533 -0.083866015
-0.10305864 -0.23788524 -0.041026633 0.12860312 0.24367389 0.13764104 -0.08527454 0.23143186
0.21611007 -0.08448551 0.057112277 -0.20158447 -0.16682047 -0.23504622 -0.2629705 -0.42262322
0.14962065 -0.20790978 -0.2026743 0.23938598 0.22057389 0.43857023 0.39276892 -0.15260886
-0.14828902 -0.1521946 0.035076734 0.40070328 0.11687957 0.19262198 0.210011 -0.016425535
0.21943422 0.0059583164 0.220853 0.08420531 0.1697072 -0.09951697 -0.19115129 0.07838934
-0.18799542 -0.02709065 0.27884445 0.17159142 -0.0754662 0.049522243 0.15895763 -0.08856496
0.17201108 0.28384975 -0.46535096 -0.103597656 0.0749499 0.12197764 0.32348827 -0.32593688
-0.30573103 -0.077483386 -0.37042174 -0.10487909 -0.20227225 -0.42551458 0.28355494 0.20346735
00000000: e353 08be 528a 97bd d656 b73d 51e4 3e3e
00000010: b378 b6bc 507f cfbe 145c 713e c32d 0cbd
00000020: b6ca 483e 3fb0 bcbe 1bd5 04be d92d f5bd
00000030: b2ef 75bd 3144 023d 9522 eb3d 39d4 ad3d
00000040: 4943 363e 743f 563e 1066 423e 5d38 ddbe
00000050: 6357 913e 5dd0 783e f99a 863e dea7 a63d
00000060: 00a9 72be 7afc 323e 538b 69bc aca8 a73e
00000070: 8028 793e 8cca 533e 9261 c23d e08c 1f3e
00000080: 91a5 cfbe d0bd 2a3e 7946 55be eb3e 543e
00000090: 0c6b 1b3d 62f1 a7bd c01e 5c3e 402a 533e
000000a0: 7573 91be 48b0 d73e c6dd 103e 73a8 3e3e
000000b0: 0d42 6cbe 238d ebbd d087 0b3c ce35 8abe
000000c0: 5f14 1e3e 5a96 abbe 318a e13c 891c ce3d
000000d0: d112 e83d a3db 31bd 320c ca3e af98 523e
000000e0: 09a7 b53e fa76 45be df6b 6abd f1ea 0ebc
000000f0: a866 4ebe 2f43 a93e 7110 b0be 15d6 983e
00000100: 0f30 9abd 2d8f 53be 4f36 0a3d 98f5 bd3e
00000110: e831 dcbd d0ea 953e 21d4 8abe 9ae5 bf3b
00000120: 0d3a a2be 95a9 1d3e de84 853d 3420 553e
00000130: f5d5 40be 39c7 33be 02bd c63b ac4a 6abe
00000140: 5ea9 42be 1af6 77be 9e0c babe 5483 a23d
00000150: 4715 d9be 3bc1 e2bd e8dd 7fbe 724d adbd
00000160: 871d a83e 4fa9 f63d 0f0e 073e 1b9a a93c
00000170: 873a f23d 97b6 bd3d 4c9c 33ba ff48 d3bd
00000180: 6c65 4bbe 0918 813e f287 08be 8e67 5dbe
00000190: 081c d2be c040 8d3e f7e4 5f3e 50cb 133e
000001a0: 7018 993e c196 08be a174 b3be fac9 6e3d
000001b0: d826 9e3e e9b2 453d 162b a93e 2ef3 86be
000001c0: b2ef 363e 1a99 3ebe fd62 803e 8cde 6d3e
000001d0: bffd c8bd 49ff 02be bdc6 83bd de39 013e
000001e0: 8211 8b3e cfa5 313d 2026 853e a3a0 cc3e
000001f0: c3e9 5d3e d830 64be 5e03 0e3d c1b8 6bbe
00000200: 99cd 14be 60f8 4a3e 026b 8abe ec9c 953e
00000210: f2e2 2ebc d12a 6a3c 53a4 b73d 7967 ebbc
00000220: 4d40 2fbe c4bc 42be 1400 2bbe cbcb a03e
00000230: 1660 c43c d2a9 fbbc fd6b 84be 6b10 e63d
00000240: 1b4d 3fbc 5b7d 63be 7bcb e63e 00c4 f03d
00000250: 6d66 b7be 057c 8f3b 3f1b 3d3e bb0c ccbe
00000260: 3363 103e 074a d33c bc97 8a3d 8aaa 52be
00000270: 198b 613e cf26 333d 4b62 55be 4ab2 e83c
00000280: 3e13 6e3b faf8 94be d812 e8bd e76f 3b3e
00000290: 6ec8 bf3e 9d98 44be d81b 87be f37c 9ebe
000002a0: 407f 08be 0902 343e b5c7 b03d 2eeb 6e3d
000002b0: 581c 883c cfcb b83d 3e25 89be 068d a53e
000002c0: e357 1b3e 1114 dbbd a166 a03e cc86 89be
000002d0: 45b4 8cbe e28d 9abe a995 933e e2b3 32be
000002e0: a449 a23d 10ce 40bd 88d9 cf3e 696a c5bc
000002f0: 9d16 3d3d 387f 10be 6356 823e f2c1 abbd
00000300: 6910 d3bd 3098 73be 8b0b 28bd 89b0 033e
00000310: a685 793e c6f1 0c3e 6ba4 aebd 79fc 6c3e
00000320: f54b 5d3e bd06 adbd 90ee 693d 296c 4ebe
00000330: fcd2 2abe f5af 70be 12a4 86be 1262 d8be
00000340: 2836 193e 4de6 54be da89 4fbe 9921 753e
00000350: 1fde 613e 478c e03e 0219 c93e 7f45 1cbe
00000360: 14d9 17be e7d8 1bbe 9fac 0f3d fb28 cd3e
00000370: 8e5e ef3d b23e 453e 200d 573e d88e 86bc
00000380: 5db3 603e fb3d c33b 4a27 623e d573 ac3d
00000390: b9c7 2d3e 8ecf cbbd 2abd 43be 978a a03d
000003a0: df81 40be 36ed ddbc b3c4 8e3e a9b5 2f3e
000003b0: 068e 9abd d6d7 4a3d cac5 223e 8c61 b5bd
000003c0: ac23 303e c154 913e 7b42 eebe 022b d4bd
000003d0: 557f 993d 6acf f93d 41a0 a53e 33e1 a6be
000003e0: c788 9cbe 9caf 9ebd eba7 bdbe d9ca d6bd
000003f0: 7520 4fbe 0cdd d9be 1d2e 913e bf59 503e

feature_extractor.1.running_var f4 [256]
0.31590295 0.1440251 0.7689695 0.2843327 0.18721537 0.3490203 0.3179673 0.24189004
0.30584094 0.5582524 0.200639 0.18536875 0.22855222 0.5081011 0.345093 0.23942451
0.26454118 0.35587215 0.18012175 0.35803807 0.62051666 0.18490916 0.31683883 0.4689876
0.14047378 0.5272303 0.23733924 0.5568909 0.3206731 0.46043888 0.3016482 0.44589368
0.7240633 0.35645413 0.26869875 0.34331185 0.106254 0.22742744 0.3420828 0.40573022
0.39765567 0.39122847 0.22917764 0.24874017 0.31238604 0.420286 0.75055045 0.1441662
0.2615462 0.29297197 0.3536183 0.15216708 0.31216574 0.40756443 0.2099826 0.3656203
0.22484365 0.46088415 0.42740357 0.2818295 0.60076374 0.22683519 0.27741158 0.34690905
0.34373575 0.25258934 0.3405154 0.25031528 0.41211492 0.25828966 0.34130648 0.42965424
0.400127 0.5496313 0.3937509 0.40248165 0.18724385 0.19565143 0.4035415 0.17381623
0.17477882 0.23351082 0.20332445 0.19029753 0.20276327 0.35300013 0.1349368 0.2252971
0.28515717 0.1922281 0.41881236 0.26299605 0.17737223 0.3394118 0.36287937 0.17475685
0.40395197 0.35488138 0.4146447 0.36326045 0.20974953 0.49319372 0.19867937 0.44133806
0.32630497 0.21982746 0.5272821 0.586852 0.083096765 0.6033033 0.70864373 0.09938498
0.43374902 0.1562172 0.36599374 0.37325114 0.54489285 0.11236867 0.5413772 0.3513159
0.32550064 0.8095606 0.32851118 0.7370805 0.56252813 0.29665646 0.47297877 0.2507335
0.51446295 0.33034042 0.27782533 0.2878942 0.57762474 0.25009373 0.3611558 0.38697696
0.14810959 0.24860318 0.285316 0.21111156 0.2089051 0.2931436 0.43608102 0.32637247
0.22757667 0.21742734 0.46008518 0.3318386 0.70459193 0.15753633 0.21854416 0.33869505
0.1435779 0.12503974 0.34796083 0.6057342 0.13093217 0.21810268 0.38963127 0.1726525
0.4883918 0.5239407 0.39172202 0.16369687 0.30324435 0.1437106 0.35222992 0.56762606
0.08972623 0.13150215 0.7905315 0.29475135 0.7339581 0.2184721 0.31503603 0.3517454
0.14762351 0.29190746 0.18823096 0.15695398 0.23573445 0.17309411 0.34461555 0.29440913
0.17416668 0.5936011 0.19883136 0.338692 0.35325798 0.23309124 0.28515643 0.6645675
0.3968233 0.20956166 0.5490604 0.29419026 0.24672884 0.22100744 0.20047219 0.21294959
0.3553787 0.23660867 0.36314848 0.31750947 0.29330128 0.31875235 0.19904062 0.21449973
0.23830186 0.09984883 0.26654416 0.337718 0.28517893 0.2781202 0.4044958 0.6017331
0.1892206 0.28211197 0.67201424 0.37972957 0.56560576 0.79253453 0.3699973 0.22392412
0.34267744 0.18708386 0.4811388 0.18045758 0.16797364 0.18380778 0.1918896 0.4840684
0.4223571 0.25059807 0.23585922 0.096299954 0.46172217 0.1693656 0.34900734 0.20468584
0.20012327 0.19834678 0.3772092 0.41859055 0.28829655 0.629762 0.3617657 0.32172754
0.39086327 0.44994846 0.24738392 0.324402 0.41969368 0.55320525 0.33699208 0.36893234
00000000: 08be a13e 517b 133e 2fdb 443f 0e94 913e
00000010: 63b5 3f3e cab2 b23e 9ccc a23e 06b2 773e
00000020: 2f97 9c3e a1e9 0e3f 4f74 4d3e 4ed1 3d3e
00000030: 9809 6a3e ea12 023f 08b0 b03e b32b 753e
00000040: f171 873e e034 b63e d671 383e c450 b73e
00000050: 2eda 1e3f d458 3d3e b338 a23e 251f f03e
00000060: 5cd8 0f3e 91f8 063f 0f09 733e 6790 0e3f
00000070: 442f a43e a5be eb3e a271 9a3e 2d4c e43e
00000080: 365c 393f 2881 b63e e292 893e 92c6 af3e
00000090: b29b d93d bde2 683e 7a25 af3e dfbb cf3e
000000a0: 8699 cb3e 194f c83e 8bad 6a3e beb5 7e3e
000000b0: 10f1 9f3e ba2f d73e 1324 403f 4ea0 133e
000000c0: 62e9 853e 6c00 963e 750d b53e b0d1 1b3e
000000d0: 30d4 9f3e 49ac d03e ae05 573e 9532 bb3e
000000e0: 6a3d 663e 02f9 eb3e a4d4 da3e f54b 903e
000000f0: a7cb 193f 7c47 683e e408 8e3e 109e b13e
00000100: 22fe af3e 6453 813e 0958 ae3e 5329 803e
00000110: ba00 d33e 8b3e 843e b9bf ae3e a4fb db3e
00000120: 72dd cc3e a3b4 0c3f b899 c93e 1312 ce3e
00000130: dabc 3f3e d958 483e fe9c ce3e e2fc 313e
00000140: 38f9 323e 761d 6f3e 4934 503e 5bdd 423e
00000150: 2da1 4f3e 6fbc b43e df2c 0a3e 48b4 663e
00000160: 1f00 923e 71d7 443e 936e d63e 6ba7 863e
00000170: 11a1 353e 62c7 ad3e 53cb b93e 76f3 323e
00000180: cbd2 ce3e 03b3 b53e 4f4c d43e 46fd b93e
00000190: 95c8 563e e383 fc3e 9b72 4b3e 10f7 e13e
000001a0: 7211 a73e 731a 613e f6fb 063f ef3b 163f
000001b0: a32e aa3d 1672 1a3f ad69 353f 5a8a cb3d
000001c0: 5a14 de3e 67f7 1f3e 8863 bb3e c61a bf3e
000001d0: 197e 0b3f 8c21 e63d b297 0a3f addf b33e
000001e0: 05a8 a63e 5d3f 4f3f 9e32 a83e 4fb1 3c3f
000001f0: d801 103f 5be3 973e 462a f23e 2460 803e
00000200: d8b3 033f 6122 a93e 1f3f 8e3e de66 933e
00000210: 37df 133f 490c 803e 6ae9 b83e d821 c63e
00000220: 0aaa 173e d591 7e3e f014 923e a12d 583e
00000230: 38eb 553e eb16 963e 0346 df3e 4b1a a73e
00000240: dc09 693e 46a5 5e3e 4990 eb3e c0e6 a93e
00000250: 2360 343f 3451 213e 0aca 5f3e 7069 ad3e
00000260: 1606 133e 6b0a 003e ec27 b23e 6611 1b3f
00000270: 1513 063e 4f56 5f3e c07d c73e d1cb 303e
00000280: 7d0e fa3e fa20 063f ca8f c83e 27a0 273e
00000290: d842 9b3e df28 133e 7b57 b43e f14f 113f
000002a0: 63c2 b73d 80a8 063e 4660 4a3f a6e9 963e
000002b0: aee4 3b3f 26b7 5f3e 674c a13e f917 b43e
000002c0: 9e2a 173e e574 953e 9ebf 403e 8bb8 203e
000002d0: 5f64 713e 953f 313e 7371 b03e cbbc 963e
000002e0: c058 323e 3ef6 173f 739a 4b3e 0a69 ad3e
000002f0: 3bde b43e 78af 6e3e 0600 923e 1821 2a3f
00000300: 6c2c cb3e 5597 563e 398f 0c3f 1ba0 963e
00000310: 7ca6 7c3e c64f 623e 9548 4d3e 750f 5a3e
00000320: 32f4 b53e 8b49 723e 99ee b93e 9a90 a23e
00000330: 962b 963e 8233 a33e 4ed1 4b3e d1a5 5b3e
00000340: 6705 743e 8b7d cc3d 7a78 883e 60e9 ac3e
00000350: f902 923e c565 8e3e 131a cf3e 2e0b 1a3f
00000360: 0cc3 413e fb70 903e 2009 2c3f ea6b c23e
00000370: 8acb 103f 8be3 4a3f 4970 bd3e 5d4c 653e
00000380: 6b73 af3e e992 3f3e d357 f63e dfc9 383e
00000390: 4801 2c3e 1b38 3c3e b57e 443e d0d7 f73e
000003a0: 313f d83e 644e 803e 1485 713e e938 c53d
000003b0: d966 ec3e 2d6e 2d3e 17b1 b23e 2a99 513e
000003c0: 1ded 4c3e 6b1b 4b3e 9021 c13e 8051 d63e
000003d0: 9b9b 933e 1538 213f 5b39 b93e 79b9 a43e
000003e0: 3b1f c83e a55f e63e 3652 7d3e 0518 a63e
000003f0: 17e2 d63e dc9e 0d3f 3a8a ac3e b3e4 bc3e

feature_extractor.4.weight f4 [256, 256]
-0.021692954 -0.009381344 -0.065261416 0.028750906 -0.021916635 0.004092914 0.043737784 -0.028811622
0.016980989 0.0068423334 0.056189574 -0.019515853 0.004676341 -0.016215201 -0.023476513 0.035767667
-0.058268625 0.060204018 -0.008252165 0.05181164 0.02333636 0.050438378 0.026596012 0.057381973
0.026289986 0.02901307 0.015765572 0.058273915 -0.043514363 0.016958851 0.0090278005 -0.051277563
0.0040653474 0.0006284267 0.024444642 0.018399201 0.04854253 -0.04784921 -0.048970815 -0.04776344
-0.03730445 0.009276869 -0.045291677 -0.026751636 0.046855535 -0.054714546 0.014113993 -0.03993323
0.045392103 0.0056377174 -0.0073674144 -0.056998085 -0.001846237 -0.0060958625 0.038125105 -0.001617287
-0.070106454 -0.035509784 0.002569359 0.03849908 -0.01757569 -0.041684836 -0.010959936 -0.021433204
-0.0035277852 -0.029815635 -0.03292294 0.046615377 0.041150544 0.027498078 -0.054905184 0.023438435
0.054003384 0.018920433 -0.04534254 -0.015628614 0.06473864 -0.051989894 0.034859255 0.04271571
-0.021159427 0.051814813 0.023844516 -0.030338768 -0.0050162915 0.03360194 0.028144933 0.0070154225
-0.009835375 -0.065534584 -0.026414543 0.030288922 -0.050271597 -0.06927775 0.053337142 0.055034388
-0.0026483221 -0.003145672 0.0078100865 -0.033816468 0.05625502 -0.03804101 -0.041823942 -0.024297267
-0.033563264 -0.044599228 0.036016643 0.005937931 0.018478129 0.03893752 0.052785914 0.03774486
0.008668034 -0.05762573 -0.034119952 -0.008564059 0.05647307 -0.0313949 -0.05602255 -0.008031448
-0.008699425 -0.024286713 0.031328075 -0.027386593 0.012192301 -7.869249e-05 -0.031535506 0.034436528
-0.0015198037 0.02493976 0.023432836 -0.021025939 -0.06269812 0.019559328 0.05278874 0.040284783
0.043745365 0.025452461 -0.0688403 0.045924876 0.04406085 -0.042686123 -0.031935483 -0.05888149
-0.011947067 -0.009677008 0.037825085 0.03564475 0.031241456 0.029644407 -0.05710975 -0.0003655539
-0.05422398 0.0060648806 -0.039426938 -0.037985735 -0.057656646 0.03602653 -0.05776238 0.057917465
0.044818982 -0.031229489 -0.032204363 -0.008539728 -0.0027764821 -0.03866909 0.018561063 -0.04874893
0.008963736 0.0434031 0.013520399 -0.05816828 -0.021563243 -0.064847685 0.024530541 0.018576695
-0.0063582007 0.023267528 -0.044189222 0.037180003 0.025393985 0.008150324 -0.032645702 0.041383155
-0.05171777 0.0297637 0.0035017245 -0.047304884 0.054201283 -0.028022662 -0.012001573 0.055866577
0.06043788 -0.008582249 0.012012139 -0.041298125 0.029997146 0.043412004 0.025417501 0.047348782
0.045633882 0.00025138847 -0.05558503 -0.025927642 0.046370808 -0.0018970552 -0.01205817 0.045235377
-0.015903091 0.047032785 -0.057608828 -0.031119274 -0.037764635 -0.027063834 0.04497475 -0.040367495
-0.008796119 0.0051577045 -0.017957445 0.035380594 0.035061873 -0.040867522 0.034056738 -0.013304104
-0.014316005 -0.047774777 0.036815606 0.0035414626 -0.048868705 0.031631604 0.022072813 -0.04627998
-0.04441941 0.06520537 0.049835626 -0.010294074 0.03248301 -0.042356744 -0.02794388 0.01453615
0.02292386 0.05826913 0.033188507 0.05703911 -0.059453696 0.04331074 -0.022681288 0.028996082
0.039310813 -0.027087172 -0.01943099 0.05543047 0.0508706 -0.025712058 -0.013037372 0.03371379
00000000: 6cb5 b1bc 35b4 19bc c7a7 85bd 0587 eb3c
00000010: 848a b3bc da1d 863b 6426 333d 5a06 ecbc
00000020: b71b 8b3c a735 e03b 0a27 663d b6df 9fbc
00000030: fe3b 993b bed5 84bc d151 c0bc 1e81 123d
00000040: 15ab 6ebd 7d98 763d 1734 07bc 7138 543d
00000050: e52b bf3c 7998 4e3d e1df d93c 5c09 6b3d
00000060: 195e d73c d1ac ed3c cd26 813c a1b0 6e3d
00000070: 1e3c 32bd 4aed 8a3c 57e9 133c 6c08 52bd
00000080: 9b36 853b 00bd 243a 2140 c83c ecb9 963c
00000090: 88d4 463d 89fd 43bd 9f95 48bd 99a3 43bd
000000a0: 8dcc 18bd 02fe 173c c483 39bd 3f26 dbbc
000000b0: 97eb 3f3d 5c1c 60bd 613e 673c 0791 23bd
000000c0: 12ed 393d 9abc b83b 5a6a f1bb d376 69bd
000000d0: 6ffd f1ba cdbf c7bb 1229 1c3d 26fb d3ba
000000e0: f993 8fbd b572 11bd b162 283b 36b1 1d3d
000000f0: e5fa 8fbc b8bd 2abd 4e91 33bc b094 afbc
00000100: 6a32 67bb eb3f f4bc 34da 06bd c4ef 3e3d
00000110: 798d 283d a643 e13c 42e4 60bd f601 c03c
00000120: a732 5d3d 06ff 9a3c 19b9 39bd 9407 80bc
00000130: b195 843d 5bf3 54bd 94c8 0e3d abf6 2e3d
00000140: 8956 adbc c53b 543d 9355 c33c 0289 f8bc
00000150: b45f a4bb 30a2 093d 3490 e63c a1e1 e53b
00000160: 8d24 21bc ff36 86bd 5063 d8bc 7920 f83c
00000170: 97e9 4dbd 7ee1 8dbd 0c78 5a3d bd6b 613d
00000180: 798f 2dbb 9e27 4ebb c1eb ff3b 2383 0abd
00000190: aa6b 663d e4d0 1bbd 954f 2bbd 100b c7bc
000001a0: a279 09bd aead 36bd 3086 133d fa92 c23b
000001b0: 725f 973c f37c 1f3d 0b36 583d 5b9a 1a3d
000001c0: 5f04 0e3c f508 6cbd 5dc1 0bbd 4450 0cbc
000001d0: 4e50 673d f097 00bd e777 65bd 5696 03bc
000001e0: 0888 0ebc eef4 c6bc de51 003d d959 e0bc
000001f0: 38c2 473c b507 a5b8 602b 01bd 510d 0d3d
00000200: 2634 c7ba 784e cc3c 38f6 bf3c 973e acbc
00000210: df67 80bd e23a a03c 0139 583d a801 253d
00000220: 572e 333d ae81 d03c 25fc 8cbd b91b 3c3d
00000230: 2679 343d a5d7 2ebd c8ce 02bd b82d 71bd
00000240: a2bd 43bc 508c 1ebc 7aee 1a3d 3b00 123d
00000250: 15ee ff3c d4d8 f23c eaeb 69bd d0a7 bfb9
00000260: f719 5ebd e8bb c63b 247e 21bd ee96 1bbd
00000270: 6029 6cbd 8e90 133d 3f98 6cbd dd3a 6d3d
00000280: 1c94 373d fcd4 ffbc b9e8 03bd 37ea 0bbc
00000290: a4f5 35bb 7b63 1ebd 5f0d 983c f5ac 47bd
000002a0: a2dc 123c 73c7 313d aa84 5d3c dd41 6ebd
000002b0: 66a5 b0bc ddce 84bd 46f4 c83c 272e 983c
000002c0: 7458 d0bb 8b9b be3c c2ff 34bd 0f4a 183d
000002d0: 0c07 d03c f088 053c 80b7 05bd 6281 293d
000002e0: 03d6 53bd 01d3 f33c 307d 653b c4c2 41bd
000002f0: 2a02 5e3d c88f e5bc 3fa2 44bc 5ad4 643d
00000300: b68d 773d 909c 0cbc 90ce 443c 3928 29bd
00000310: 93bc f53c c9d0 313d 5d38 d03c ccf0 413d
00000320: 98ea 3a3d cacc 8339 21ad 63bd 3566 d4bc
00000330: 51ef 3d3d 9ca6 f8ba a18f 45bc bb48 393d
00000340: 3347 82bc 73a5 403d 3cf7 6bbd d9ed febc
00000350: 17af 1abd f9b4 ddbc 7237 383d 6358 25bd
00000360: 991d 10bc f601 a93b 7e1b 93bc 3eeb 103d
00000370: 0a9d 0f3d b464 27bd 147f 0b3d 75f9 59bc
00000380: ad8d 6abc 7caf 43bd f6cb 163d e217 683b
00000390: 8d2a 48bd 2490 013d 0bd2 b43c 1490 3dbd
000003a0: 21f1 35bd 658a 853d 7120 4c3d 7aa8 28bc
000003b0: e80c 053d 447e 2dbd 90ea e4bc 0829 6e3c
000003c0: d2ca bb3c 9cab 6e3d acf0 073d d8a1 693d
000003d0: b885 73bd 9a66 313d 1cce b9bc 3189 ed3c
000003e0: 6004 213d ebe5 ddbc bd2d 9fbc 0f0b 633d
000003f0: b15d 503d 18a2 d2bc b49a 55bc 7917 0a3d

feature_extractor.4.bias f4 [256]
-0.059843138 0.013587052 -0.05323203 -0.050366055 -0.0072164307 0.054761227 0.022932816 0.04652956
0.0066274456 -0.008274668 -0.053500295 0.0056131394 -0.016210306 -0.04538289 0.026798751 0.0010098986
0.036455315 0.027968792 -0.0074411505 0.039238226 -0.05823355 0.02710194 0.009652598 0.02346733
-0.020328095 -0.04529637 -0.051481087 -0.040214073 0.058969736 -0.03417333 0.052972272 0.0032583273
-0.055716265 0.019752676 -0.045334578 0.015033953 0.031684052 0.020833861 0.035574477 0.016416483
0.013201648 0.023194568 -0.06083793 -0.04004129 -0.06176952 -0.04405324 0.05650197 0.012739505
0.016490528 -0.051640987 -0.029239548 0.057346974 -0.058709055 -0.051974025 0.01683907 0.039406713
-0.0537251 0.020718414 0.045036826 -0.007443913 0.031460304 -0.011025438 -0.052449744 0.060678847
0.013792609 0.008682251 -0.015385644 -0.039950687 -0.016930811 0.061478864 0.02147852 -0.020959053
0.05581903 0.039867572 -0.017722655 0.028769238 -0.049466476 -0.03398888 -0.028359963 0.024425449
-0.04014418 -0.047346387 -0.017244052 -0.040085696 -0.01091871 -0.043922994 0.008468961 0.0061536604
0.034083474 0.031811543 0.012432895 -0.043562822 0.048970237 0.0064200563 0.024932863 -0.018851396
0.017011654 -0.01569974 0.015768036 0.05527385 -0.05345621 0.0109968055 -0.062412363 0.020107292
-0.024680197 -0.025411062 0.04918557 0.011755117 -0.0065848003 -0.001434617 -0.012105635 0.013156213
-0.05015901 -0.007819299 0.061816998 0.04998673 0.0046729413 0.021520752 -0.038056795 0.034046937
-0.03853843 0.015637316 0.039285697 0.007993775 0.009991076 0.054995283 0.0108674625 -0.023177706
-0.06176963 0.008274936 -0.0068675606 -0.013014178 -0.05050252 -0.03360077 -0.015546315 0.0037884081
-0.0066890027 0.05232837 0.037235346 -0.050577 0.031229975 -0.007804836 -0.055770107 -0.011271804
0.044346303 0.05165059 0.04823172 -0.06183556 -0.04662089 -0.0398594 0.028619817 -0.054740865
0.0121831875 0.017257236 -0.060052752 -0.051123258 0.023979867 -0.015299499 0.0015016374 0.018476296
0.049415745 -0.058048993 -0.012633136 0.029318117 -0.058256835 -0.06124175 0.021196704 -0.05008009
-0.032587998 0.039261255 0.04288772 -0.016375788 0.034742665 -0.014343766 -0.060932152 -0.04391789
0.04249508 -0.05439745 0.048942238 -0.04168691 0.049720198 0.042507034 -0.0009022788 -0.0221951
0.05954316 0.04978403 0.016059998 0.04730603 -0.014814243 -0.0064647826 -0.061528873 0.0022567334
0.04778958 -0.0060233045 -0.01524192 -0.05838739 0.001480861 -0.04065208 -0.030806156 -0.038585465
0.017360602 -0.010566501 -0.00096153707 0.04124374 -0.05073284 0.009104799 0.05904186 0.010340586
0.03542542 -0.01933186 -0.012920249 0.061107486 -0.009316975 -0.028733768 0.060381558 0.020502934
-0.0027880364 -0.008660874 -0.012370604 -0.019270623 0.052210625 -0.055112418 0.020847704 -0.014081601
0.06068129 0.04417028 0.04253577 0.020450296 -0.047846515 -0.05886017 0.051227845 0.040066335
-0.060662124 0.018561432 0.040934548 0.03265115 -0.0153392395 0.036314785 0.0007152081 -0.03669266
-0.008763905 0.045559622 0.0508287 0.010821663 0.060450107 -0.016413745 -0.031543903 -0.0008494687
-0.013605756 -0.049370125 -0.040869117 0.030369854 -0.026653659 -0.057426196 0.028469479 0.05068922
00000000: 141e 75bd 3a9c 5e3c d409 5abd a34c 4ebd
00000010: cf77 ecbb 4f4d 603d 9add bb3c c895 3e3d
00000020: 0b2b d93b 7992 07bc 2023 5bbd 6dee b73b
00000030: 7acb 84bc 69e3 39bd 0e89 db3c 935e 843a
00000040: 2b52 153d cf1e e53c e5d4 f3bb 43b8 203d
00000050: 4e86 6ebd e304 de3c ee25 1e3c 8f3e c03c
00000060: 1b87 a6bc b088 39bd d5dd 52bd 83b7 24bd
00000070: 408a 713d 55f9 0bbd 74f9 583d a989 553b
00000080: bd36 64bd 5dd0 a13c c0b0 39bd f850 763c
00000090: 23c7 013d c6ab aa3c 8bb6 113d dc7b 863c
000000a0: ba4b 583c 8902 be3c 3131 79bd 5602 24bd
000000b0: 0902 7dbd 2c71 34bd 9c6e 673d 5bb9 503c
000000c0: 2517 873c 8085 53bd c787 efbc a9e4 6a3d
000000d0: e878 70bd b7e2 54bd 17f2 893c ef68 213d
000000e0: da0e 5cbd aab9 a93c 8978 383d 11ec f3bb
000000f0: 85dc 003d 0aa4 34bc 8bd5 56bd 628a 783d
00000100: 65fa 613c 0040 0e3c 1114 7cbc 55a3 23bd
00000110: 7cb2 8abc 43d1 7b3d b9f3 af3c 52b2 abbc
00000120: 7fa2 643d 2e4c 233d 1a2f 91bc 77ad eb3c
00000130: 5c9d 4abd ed37 0bbd 2753 e8bc e117 c83c
00000140: 396e 24bd 49ee 41bd 6643 8dbc e630 24bd
00000150: 64e4 32bc 99e8 33bd 66c1 0a3c a5a4 c93b
00000160: 1d9b 0b3d d24c 023d 57b3 4b3c ee6e 32bd
00000170: 0495 483d 565f d23b 0140 cc3c 3e6e 9abc
00000180: 065c 8b3c be9c 80bc f82b 813c d566 623d
00000190: e6f4 5abd f22b 343c 1ba4 7fbd 0cb8 a43c
000001a0: 202e cabc dc2a d0bc cf76 493d 8998 403c
000001b0: 4fc5 d7bb c209 bcba b756 46bc 288d 573c
000001c0: 8973 4dbd 841c 00bc d233 7d3d e3be 4c3d
000001d0: 791f 993b 4a4c b03c 71e1 1bbd cd74 0b3d
000001e0: 79da 1dbd d419 803c 0aea 203d 53f8 023c
000001f0: 9cb1 233c bc42 613d 710d 323c 2cdf bdbc
00000200: 2702 7dbd 9993 073c 4609 e1bb 6b39 55bc
00000210: bbdb 4ebd f6a0 09bd f9b5 7ebc f146 783b
00000220: 6c2f dbbb 4656 563d 1784 183d d429 4fbd
00000230: 01d6 ff3c b6bf ffbb 326f 64bd 5fad 38bc
00000240: 78a4 353d 928f 533d a08e 453d 4947 7dbd
00000250: 8cf5 3ebd 9c43 23bd 1b74 ea3c f537 60bd
00000260: fe9b 473c 0c5f 8d3c e0f9 75bd 9f66 51bd
00000270: 6d71 c43c c0aa 7abc 97d2 c43a 9a5b 973c
00000280: 2a68 4a3d c8c4 6dbd 36fb 4ebc 8c2c f03c
00000290: b89e 6ebd a1d8 7abd b6a4 ad3c c820 4dbd
000002a0: fe7a 05bd 69d0 203d 09ab 2f3d 8426 86bc
000002b0: 534e 0e3d 1d02 6bbc fe93 79bd 3fe3 33bd
000002c0: 520f 2e3d dccf 5ebd a877 483d e5bf 2abd
000002d0: 68a7 4b3d db1b 2e3d e886 6cba 80d2 b5bc
000002e0: 87e3 733d 57ea 4b3d 4290 833c f8c3 413d
000002f0: 70b7 72bc 87d6 d3bb b305 7cbd b4e5 133b
00000300: 02bf 433d 245f c5bb 3fb9 79bc 9e27 6fbd
00000310: 7319 c23a cc82 26bd 315d fcbc cb0b 1ebd
00000320: d237 8e3c 1e1f 2dbc a90f 7cba 32ef 283d
00000330: 3dcd 4fbd 4b2c 153c e1d5 713d 906b 293c
00000340: 3f1a 113d d95d 9ebc 74af 53bc d84b 7a3d
00000350: 3aa6 18bc 1463 ebbc a752 773d c5f5 a73c
00000360: 7db7 36bb 57e6 0dbc 13ae 4abc 6ddd 9dbc
00000370: cfda 553d 8fbd 61bd cec8 aa3c 84b6 66bc
00000380: f28c 783d e5eb 343d fd39 2e3d 6187 a73c
00000390: b5fa 43bd 5d17 71bd 4ad4 513d 991c 243d
000003a0: d978 78bd 250e 983c fcaa 273d 36bd 053d
000003b0: 6f51 7bbc d0be 143d ce7c 3b3a 0b4b 16bd
000003c0: 7b96 0fbc ba9c 3a3d c131 503d 584d 313c
000003d0: 889a 773d 1e76 86bc 2e34 01bd e1ae 5eba
000003e0: adea 5ebc 5438 4abd 6066 27bd 33ca f83c
000003f0: c658 dabc bb37 6bbd d338 e93c 809f 4f3d
