models/best_fold2_hd256_do0.3.pth (torch, 425446 bytes, 20 tensors)

layers.0.weight f4 [256, 10]
-0.231661 0.100089476 -0.02135101 -0.031191606 -0.20307644 0.23503874 0.102423124 -0.21626584
0.018077947 0.23003663 0.27005643 -0.08506863 -0.05258 -0.28997242 0.1947206 -0.14152803
-0.24140884 -0.18945031 0.15629165 -0.19877937 0.14851633 -0.12771098 0.32009494 -0.14478488
0.01395186 -0.16055296 -0.23310989 -0.20107648 0.26855272 -0.1277434 -0.2987281 -0.28983364
-0.01065478 0.25485435 -0.27038446 0.29793295 0.06155252 0.0017770375 0.22910927 0.005279036
-0.108712666 0.030628597 -0.19710332 0.0740861 0.019442253 -0.08681459 0.06675792 -0.19230671
0.22848327 -0.026082702 0.13459769 0.25477844 -0.022765372 -0.1216333 -0.27106315 0.26169762
0.21644647 -0.18814263 -0.086582586 -0.04268028 -0.16610125 -0.015096951 -0.12422979 -0.11187913
-0.03245937 0.2696962 -0.07172338 -0.07901264 0.17049447 0.10422888 0.26140866 -0.087657064
-0.19304632 0.035349395 0.21574198 -0.14423102 -0.28267682 -0.21096273 -0.23913734 0.12771623
0.2674506 0.06130398 -0.20248483 0.044537492 -0.23234272 0.17590763 0.22458354 0.27832362
0.23982626 -0.16208856 -0.23347782 0.17159456 -0.3099614 -0.15375933 -0.20325261 -0.0010673393
0.038673606 -0.006704976 -0.031721044 0.0267571 -0.076492175 -0.214864 -0.18958557 0.17627177
0.16816962 0.07440217 -0.19033653 -0.038995158 0.10410718 0.046376638 0.27742124 0.12086771
0.09582917 0.051491488 -0.22809276 0.13512509 0.016261315 -0.20333464 0.027555086 -0.24346025
-0.310504 -0.14493944 0.18936408 0.13802804 0.29243246 -0.026342573 -0.1022585 -0.097790234
0.18233444 0.0651556 0.10284893 -0.055933304 -0.027125815 -0.08242374 0.0115435505 -0.04772123
-0.05185656 -0.036074616 0.30031887 -0.24267533 -0.3351457 0.17108598 0.000107535925 0.039201632
-0.29513165 0.2360574 0.114044204 -0.09324256 -0.03807404 0.10615513 0.26418087 0.0037660503
0.24582157 0.22426105 -0.003306119 -0.21163395 -0.16092853 0.26846674 -0.031268764 0.26067504
0.16539322 0.21531634 -0.08836961 0.082928345 0.11242789 0.254288 0.15604493 -0.012620616
-0.25052765 0.22192258 0.028141469 -0.26917177 0.07365626 -0.08864613 0.2951084 0.23109546
-0.16717125 0.22670418 0.23064695 0.31199926 0.015514847 0.107412964 -0.07917656 -0.3184884
0.22006048 0.20693964 0.31578872 -0.10268352 -0.21793497 0.1507215 -0.02495277 -0.15312327
-0.10607549 -0.16507606 -0.29007703 0.2573736 -0.20326862 -0.1625993 0.27953973 0.004799574
-0.3306526 -0.10290218 -0.07522641 0.121360265 0.15481748 -0.017538935 0.09530804 0.017833482
0.03079243 0.1389211 -0.2910011 0.14917156 -0.0623872 -0.15705532 -0.108965114 0.2022788
0.21178527 -0.17125483 -0.107195616 0.10399862 0.26656324 -0.115902856 -0.22337815 0.1288291
0.17106068 0.12982053 -0.087674245 -0.14793995 -0.18462756 0.17934787 0.15217003 0.08008047
0.04928422 -0.28310022 -0.06379512 0.11983617 0.12582625 0.21127275 0.10458856 0.06988181
-0.14436947 0.22138433 -0.15717067 -0.19067992 -0.103145316 0.22231455 -0.22331873 -0.1939483
-0.19503315 0.2935302 0.14238809 -0.20771493 -0.17057595 0.07286025 0.12121276 0.10746652
00000000: 8b38 6dbe b6fb cc3d 50e8 aebc 8a85 ffbc
00000010: 45f3 4fbe ffad 703e 37c3 d13d cb74 5dbe
00000020: 3418 943c b98e 6b3e d644 8a3e 7638 aebd
00000030: 205e 57bd 4477 94be d664 473e b9ec 10be
00000040: e133 77be 43ff 41be eb0a 203e d28c 4bbe
00000050: aa14 183e abc6 02be 7ce3 a33e 7d42 14be
00000060: 5896 643c ff67 24be 5cb4 6ebe fee6 4dbe
00000070: be7f 893e 2acf 02be e4f2 98be 1365 94be
00000080: 6391 2ebc 457c 823e d56f 8abe ab8a 983e
00000090: 7f1e 7c3d 7ceb e83a 9f9b 6a3e c3fb ac3b
000000a0: bfa4 debd d3e8 fa3c 74d5 49be 74ba 973d
000000b0: 5c45 9f3c d9cb b1bd 60b8 883d 0dec 44be
000000c0: 85f7 693e 64ab d5bc fad3 093e 5272 823e
000000d0: 727e babc e11a f9bd cac8 8abe 3bfd 853e
000000e0: 25a4 5d3e 76a8 40be 3652 b1bd 84d1 2ebd
000000f0: 7216 2abe 3459 77bc 306c febd e320 e5bd
00000100: 1ef4 04bd 9f15 8a3e b5e3 92bd 61d1 a1bd
00000110: 1a96 2e3e f375 d53d 5bd7 853e 8c85 b3bd
00000120: efad 45be 87ca 103d 77eb 5c3e 4cb1 13be
00000130: 04bb 90be 9d06 58be 6be0 74be 0bc8 023e
00000140: 49ef 883e e219 7b3d 2f58 4fbe f26c 363d
00000150: 40eb 6dbe 2121 343e 3af9 653e 6f80 8e3e
00000160: 0495 753e 8bfa 25be cf14 6fbe 7cb6 2f3e
00000170: 43b3 9ebe 1673 1dbe 7421 50be f7e5 8bba
00000180: 3768 1e3d 6ab5 dbbb eded 01bd b531 db3c
00000190: eea7 9cbd 4f05 5cbe b822 42be 9680 343e
000001a0: a834 2c3e 2a60 983d 94e7 42be 63b9 1fbd
000001b0: 2536 d53d 6ef5 3d3d 280a 8e3e 7d89 f73d
000001c0: 1542 c43d bde8 523d 2691 69be 3b5e 0a3e
000001d0: 7336 853c f536 50be 34bb e13c a54d 79be
000001e0: 61fa 9ebe 016b 14be a8e8 413e 3957 0d3e
000001f0: b5b9 953e 61cc d7bc e86c d1bd 3f46 c8bd
00000200: e1b5 3a3e 4d70 853d 76a2 d23d 521a 65bd
00000210: f536 debc c7cd a8bd 2921 3d3c 5677 43bd
00000220: 8b67 54bd fac2 13bd 65c3 993e e27f 78be
00000230: 3898 abbe 2a31 2f3e e984 e138 e491 203d
00000240: 7f1b 97be 08b9 713e 0290 e93d f5f5 bebd
00000250: 86f3 1bbd dc67 d93d b742 873e d7cf 763b
00000260: a6b8 7b3e b0a4 653e 79ab 58bb 92b6 58be
00000270: 73ca 24be 7974 893e ad13 00bd 3377 853e
00000280: d75c 293e e37b 5c3e 20fb b4bd 56d6 a93d
00000290: 9840 e63d 0932 823e 3eca 1f3e b3c6 4ebc
000002a0: 2945 80be ac3f 633e f088 e63c e2d0 89be
000002b0: 18d9 963d 1a8c b5bd 7318 973e 4aa4 6c3e
000002c0: f12e 2bbe 2425 683e b72e 6c3e 5ebe 9f3e
000002d0: fc31 7e3c 54fb db3d 5227 a2bd e910 a3be
000002e0: 8957 613e fce7 533e 0faf a13e bd4b d2bd
000002f0: 582a 5fbe bd56 1a3e c069 ccbc 59cc 1cbe
00000300: 1b3e d9bd b309 29be fa84 94be 79c6 833e
00000310: a625 50be 6e80 26be d51f 8f3e bf45 9d3b
00000320: 4c4b a9be 61be d2bd 4e10 9abd bb8b f83d
00000330: 7988 1e3e d0ad 8fbc dd30 c33d 8617 923c
00000340: 6840 fc3c 5541 0e3e 19fe 94be 6ec0 183e
00000350: b889 7fbd 1cd3 20be 1a29 dfbd 2c22 4f3e
00000360: 3dde 583e 6d5d 2fbe 6089 dbbd 3afd d43d
00000370: fa7a 883e 7a5e edbd 3ebd 64be c7eb 033e
00000380: 882a 2f3e acef 043e 8e8e b3bd 927d 17be
00000390: 020f 3dbe f8a6 373e 76d2 1b3e 3b01 a43d
000003a0: 40de 493d 83f2 90be 04a7 82bd aa6c f53d
000003b0: 99d8 003e e257 583e 8732 d63d 321e 8f3d
000003c0: 97d5 13be 93b2 623e 59f1 20be 9941 43be
000003d0: da3d d3bd 6da6 633e aaad 64be 629a 46be
000003e0: c5b6 47be 9749 963e 2fce 113e 39b3 54be
000003f0: 76ab 2ebe c137 953d 653e f83d 6817 dc3d

layers.0.bias f4 [256]
-0.283145 -0.13069841 -0.19157669 -0.23234454 0.0076380484 -0.01733587 0.2637183 0.13724193
-0.23938474 -0.11166333 -0.11328777 -0.06349637 0.07705469 0.17107746 0.0006399158 -0.27740663
0.09057575 -0.1470395 -0.016406558 0.26201 -0.08913142 -0.28515834 0.13218716 0.29742894
-0.062674545 -0.25747132 0.09386735 0.12025983 0.15449551 0.20469135 0.21323554 0.02652661
-0.061126165 -0.25332877 -0.16899985 -0.032730475 0.17446674 -0.23032923 -0.22694455 -0.1774044
-0.016907176 0.2990867 -0.057728272 0.25220633 0.23317601 0.12325202 0.26106626 0.27064332
-0.07745955 0.30522057 -0.29966378 0.09480936 -0.03323277 -0.069240555 -0.108329214 0.15713188
0.26084262 -0.17080171 0.04065228 0.31489098 0.075883515 0.050401464 0.06476494 0.3041349
0.04507239 -0.1464397 0.2882844 0.21096691 0.27771226 -0.11365287 0.06673357 0.024325715
0.18952501 -0.13294336 -0.12212575 -0.0073549934 0.26642725 0.01880052 0.30840442 -0.2315279
0.07470841 0.007121122 -0.24014358 -0.2749642 -0.045926742 -0.2425812 0.20703217 -0.0994354
-0.26688078 0.08251861 0.12117558 -0.25866592 -0.31418797 0.18381487 -0.054826323 0.30140704
0.03583311 0.21448524 0.11753614 -0.25582018 -0.029733637 0.0054525784 0.008106515 0.24676113
0.22028615 -0.118568264 -0.057602312 0.13517891 0.09412373 0.20536026 -0.21180545 0.095561825
-0.28602877 -0.08950917 -0.25404593 -0.26280835 -0.17189378 -0.042734753 -0.08186876 0.19476646
-0.07103693 0.055625908 0.12085853 -0.13574547 0.30739823 0.22016455 0.14684483 0.2266093
-0.2302813 0.19015245 -0.008618729 0.18454354 0.123213604 0.27838477 -0.2940298 -0.002643759
0.17641783 -0.24521422 0.083739005 -0.09519502 0.08930013 -0.099283084 -0.2584161 -0.17173763
0.12895967 0.082890525 -0.28124356 -0.05731815 0.30815196 -0.29683658 -0.21870157 -0.047724128
-0.042594355 -0.033516966 -0.18878338 -0.2985275 0.16853772 -0.045863412 0.023287741 -0.23851424
-0.25972578 -0.16888995 0.19634995 0.29182628 -0.035759002 -0.005679649 -0.07493166 -0.105729334
-0.06296741 -0.153049 -0.064342394 0.03612194 -0.22475319 -0.23258986 0.13891657 -0.04254976
-0.26485842 0.10229353 0.17875671 0.16502881 -0.2891968 0.07566439 -0.13927738 -0.29967433
-0.30737188 -0.111782156 -0.28054553 0.02993138 0.268886 0.12034037 -0.2966743 0.07251585
-0.17638987 0.31138048 0.279474 0.22893155 -0.06836579 -0.27790764 -0.16354482 -0.057510976
-0.17491373 -0.19158651 0.0032268306 -0.09903916 -0.055144705 -0.06592682 0.012863217 -0.15791634
-0.15672787 0.20393589 0.24242795 -0.06603636 -0.011838825 0.18879166 -0.062443368 -0.20823129
-0.20961067 -0.24710594 -0.19266213 0.02401091 0.011406361 0.16731066 0.075853564 0.059664544
0.30727762 -0.16736421 -0.0065315817 -0.300503 0.067453355 0.3066338 -0.23141596 -0.23612337
-0.07177318 0.1894135 -0.24121058 0.08835781 0.2961978 0.10602806 -0.18332912 -0.27175114
0.044285044 -0.15207055 0.18980172 0.082070515 -0.2535975 0.26470786 -0.17828955 -0.105553836
0.2923262 0.17432839 -0.12953795 -0.039435565 -0.005380178 -0.10176116 -0.13547331 0.060114138
00000000: 62f8 90be ced5 05be ae2c 44be baeb 6dbe
00000010: 9848 fa3b f403 8ebc 1606 873e 2689 0c3e
00000020: 4621 75be beaf e4bd 6b03 e8bd 630a 82bd
00000030: d9ce 9d3d ee2e 2f3e 06c0 273a 3e08 8ebe
00000040: c77f b93d 8691 16be 0c67 86bc 2d26 863e
00000050: 898a b6bd 4600 92be 125c 073e 9b48 983e
00000060: 835b 80bd 48d3 83be 863d c03d c94a f63d
00000070: 1234 1e3e 9c9a 513e 6b5a 5a3e 554e d93c
00000080: 6e5f 7abd 4fb4 81be 4c0e 2dbe 6410 06bd
00000090: 69a7 323e 6ddb 6bbe 2764 68be 80a9 35be
000000a0: eb80 8abc e421 993e 7b74 6cbd 3021 813e
000000b0: b1c5 6e3e 8e6b fc3d 7aaa 853e c391 8a3e
000000c0: 1da3 9ebd df45 9c3e 886d 99be 692b c23d
000000d0: 161f 08bd fecd 8dbd b5db ddbd 2ee7 203e
000000e0: 2a8d 853e a5e6 2ebe 0183 263d 6439 a13e
000000f0: d168 9b3d c471 4e3d 7ba3 843d 92b7 9b3e
00000100: d49d 383d 4af4 15be 039a 933e b607 583e
00000110: 4d30 8e3e d6c2 e8bd 9cab 883d b946 c73c
00000120: d812 423e 4e22 08be 111d fabd 2802 f1bb
00000130: 2769 883e 8c03 9a3c 2fe7 9d3e a615 6dbe
00000140: b900 993d 4d58 e93b 33e8 75be 1cc8 8cbe
00000150: ae1d 3cbd 3567 78be 3e00 543e c9a4 cbbd
00000160: 99a4 88be 84ff a83d e72a f83d dc6f 84be
00000170: 3fdd a0be f739 3c3e 9191 60bd 0652 9a3e
00000180: bdc5 123d 05a2 5b3e cab6 f03d ddfa 82be
00000190: f593 f3bc 8bab b23b 30d1 043c f3ae 7c3e
000001a0: b192 613e ebd3 f2bd 67f0 6bbd 576c 0a3e
000001b0: f1c3 c03d f649 523e 87e3 58be ebb5 c33d
000001c0: 5d72 92be 9550 b7bd 4f12 82be d18e 86be
000001d0: ec04 30be a30a 2fbd cfaa a7bd dc70 473e
000001e0: cf7b 91bd fed7 633d ad84 f73d dc00 0bbe
000001f0: 4d63 9d3e d172 613e 7e5e 163e 450c 683e
00000200: dcce 6bbe 53b7 423e 9235 0dbc fbf8 3c3e
00000210: 6a57 fc3d 7388 8e3e 138b 96be ea42 2dbb
00000220: e0a6 343e 7019 7bbe 5b7f ab3d 9bf5 c2bd
00000230: fde2 b63d ee54 cbbd 1d4f 84be fddb 2fbe
00000240: 010e 043e 82c2 a93d 28ff 8fbe 70c6 6abd
00000250: 18c6 9d3e f7fa 97be 4ef3 5fbe 607a 43bd
00000260: 6b77 2ebd 1649 09bd 6e50 41be 99d8 98be
00000270: 2795 2c3e 46db 3bbd efc5 be3c 143d 74be
00000280: c7fa 84be 7df1 2cbe f60f 493e 416a 953e
00000290: 0878 12bd 591c babb c575 99bd 9f88 d8bd
000002a0: 0ff5 80bd e1b8 1cbe f2c5 83bd 99f4 133d
000002b0: b325 66be 092c 6ebe 2540 0e3e a848 2ebd
000002c0: 869b 87be 457f d13d 000c 373e 50fd 283e
000002d0: 9a11 94be eff5 9a3d bb9e 0ebe ea6e 99be
000002e0: d95f 9dbe 0bee e4bd aaa3 8fbe a732 f53c
000002f0: 6dab 893e 0375 f63d b2e5 97be 3183 943d
00000300: 8c9f 34be 436d 9f3e 3717 8f3e 086d 6a3e
00000310: 5d03 8cbd e949 8ebe 4b78 27be a190 6bbd
00000320: 961c 33be 412f 44be 3c79 533b 0bd5 cabd
00000330: 6adf 61bd a404 87bd 3ec0 523c d2b4 21be
00000340: 457d 20be 92d4 503e 083f 783e 123e 87bd
00000350: a2f7 41bc 9a52 413e 9ec4 7fbd 953a 55be
00000360: 2ea4 56be 5709 7dbe 3949 45be 87b2 c43c
00000370: bfe1 3a3c 7c53 2b3e 1d59 9b3d cf62 743d
00000380: 7e53 9d3e 8661 2bbe e106 d6bb 87db 99be
00000390: fc24 8a3d 1bff 9c3e 4ef8 6cbe 53ca 71be
000003a0: d1fd 92bd 9df5 413e e8ff 76be f1f4 b43d
000003b0: 3da7 973e 3d25 d93d a1ba 3bbe f722 8bbe
000003c0: 3c64 353d 62b8 1bbe 625b 423e 9614 a83d
000003d0: 88d7 81be ca87 873e 8991 36be 9c2c d8bd
000003e0: c8ab 953e 2483 323e 99a5 04be 3087 21bd
000003f0: 344c b0bb 2868 d0bd 84b9 0abe 3e3a 763d

layers.1.weight f4 [256]
1.0001856 0.99892056 1.005355 1.0056877 0.9999632 0.98136497 0.9961987 0.9995211
1.0125511 1.0065626 0.99053377 1.0121552 1.0085055 1.0002953 1.0213389 0.99654734
0.99995005 1.0039392 0.99742556 0.99032956 1.0099022 1.017048 0.995948 0.99919325
1.0024817 0.99957764 1.0122852 1.0036913 1.0007348 1.0068171 1.0007856 0.99761266
1.0080353 1.0068135 0.9950936 0.98703945 0.99324125 1.0078503 0.99888283 0.9925244
1.0239605 1.0007204 1.0028268 0.9993309 1.0026474 0.98243195 1.0033565 1.0071679
0.9995235 1.0083144 1.0111853 1.0057647 1.0027391 0.98813945 1.0092472 1.0054761
1.0084698 0.9989345 0.99809396 1.0050153 1.0033238 1.016548 0.9933704 0.9891749
1.0112021 1.0151256 1.0002133 1.0144843 0.98758274 0.99884033 1.0200381 0.9833672
0.99030995 0.98759794 0.9962667 1.0053855 0.990938 0.99705154 1.0085481 0.9874252
0.9926101 0.9969463 0.9962767 0.9904027 0.9869999 1.0044173 0.9885121 0.997319
0.9899454 1.0044707 0.9962484 0.9951455 0.99273664 0.99806774 0.99405414 1.0074413
0.98953044 0.99543464 1.0045427 0.98897344 1.0032527 1.0108025 1.0126449 0.99281234
1.0063461 1.0063127 0.99339384 0.990708 0.98999685 1.0188912 0.98485583 0.986287
0.9925319 0.9931974 0.9895632 0.99829596 1.0010186 1.0020493 0.9957711 1.0118937
0.98000115 1.0030472 1.0072733 1.0133768 1.0029125 0.9920622 1.0012864 1.0116142
0.98958087 1.0036423 0.99942106 0.99072075 0.9962348 1.0058928 0.9883123 0.99040896
1.0000341 1.0057354 0.9891494 1.0204514 1.0281913 0.99658793 0.99531054 0.99662626
1.0150187 0.99948007 0.98189807 1.0019901 0.9835439 1.0146298 1.0012203 0.98430264
0.9949841 1.0105444 1.0026314 0.9935531 1.0013615 1.0053308 1.0065454 1.0208492
0.98885113 0.9953336 1.0261816 0.9837387 1.0043113 0.9738019 1.006072 1.0006396
1.0212227 0.9988214 1.0007521 0.9910884 1.0008258 1.0016679 0.9909418 0.9970137
1.0147871 0.99040425 0.9983384 1.0167756 0.9919905 1.014435 0.99369764 1.0024137
0.99504983 0.985085 1.0084529 0.9979388 1.0192008 0.9985079 0.9963385 1.0049783
0.9955041 1.0062382 0.9926458 0.99528736 1.0020157 0.99060625 1.0070722 0.9947358
1.009386 1.0093921 0.99143773 0.9960141 0.99482375 0.99741745 1.0315418 0.9946789
0.98922807 1.020345 0.98674434 0.99207646 0.99362737 0.9866564 0.98063725 0.9976825
0.99402577 1.0157446 1.0047271 0.9894852 0.987692 0.97532326 0.9992527 0.99352777
1.0112025 0.9966676 0.99028015 1.0031302 0.99248374 1.0043371 1.0038555 1.0269222
0.9990192 0.97812116 1.0034649 0.9954787 1.0066065 0.9952 1.012081 1.0274885
0.99108684 0.99199855 0.9959949 0.99295163 1.0005713 1.0051247 0.991501 0.9923935
1.0050149 0.9775165 1.0086883 0.9997487 0.9903132 0.9980097 0.9876257 0.9940948
00000000: 1506 803f 42b9 7f3f 79af 803f 60ba 803f
00000010: 97fd 7f3f bc3a 7b3f e106 7f3f 9de0 7f3f
00000020: 469b 813f 0bd7 803f 9f93 7d3f 4d8e 813f
00000030: b516 813f ad09 803f 3cbb 823f ba1d 7f3f
00000040: bafc 7f3f 1481 803f 4857 7f3f 3d86 7d3f
00000050: 7a44 813f a12e 823f 73f6 7e3f 21cb 7f3f
00000060: 5251 803f 52e4 7f3f 9092 813f f578 803f
00000070: 1418 803f 62df 803f be19 803f 8b63 7f3f
00000080: 4d07 813f 44df 803f 74be 7e3f 9eae 7c3f
00000090: 0f45 7e3f 3d01 813f c9b6 7f3f 1416 7e3f
000000a0: 2311 833f 9b17 803f a15c 803f 26d4 7f3f
000000b0: c056 803f a980 7b3f fc6d 803f e1ea 803f
000000c0: c6e0 7f3f 7210 813f 856e 813f e6bc 803f
000000d0: c159 803f b5f6 7c3f 032f 813f 71b3 803f
000000e0: 8a15 813f 2cba 7f3f 1683 7f3f 57a4 803f
000000f0: ea6c 803f 3f1e 823f 864d 7e3f 913a 7d3f
00000100: 126f 813f a3ef 813f fd06 803f 9fda 813f
00000110: 39d2 7c3f 00b4 7f3f 9c90 823f f4bd 7b3f
00000120: f484 7d3f 38d3 7c3f 560b 7f3f 79b0 803f
00000130: 1dae 7d3f c53e 7f3f 1b18 813f e6c7 7c3f
00000140: b21b 7e3f df37 7f3f fd0b 7f3f 088b 7d3f
00000150: 07ac 7c3f bf90 803f 210f 7d3f 4c50 7f3f
00000160: 106d 7d3f 7f92 803f 230a 7f3f dbc1 7e3f
00000170: fd23 7e3f 5e81 7f3f 557a 7e3f d6f3 803f
00000180: de51 7d3f ced4 7e3f db94 803f 5d2d 7d3f
00000190: 966a 803f fa61 813f 599e 813f f328 7e3f
000001a0: f3cf 803f dbce 803f 0f4f 7e3f 0a9f 7d3f
000001b0: 6f70 7d3f 076b 823f 831f 7c3f 4e7d 7c3f
000001c0: 9216 7e3f 2f42 7e3f 0454 7d3f 5390 7f3f
000001d0: 6121 803f 2743 803f dbea 7e3f bc85 813f
000001e0: 5be1 7a3f da63 803f 55ee 803f 55b6 813f
000001f0: 705f 803f caf7 7d3f 272a 803f 937c 813f
00000200: 2c55 7d3f 5a77 803f 0fda 7f3f e09f 7d3f
00000210: 3e09 7f3f 18c1 803f 0902 7d3f 718b 7d3f
00000220: 1e01 803f f0bb 803f e538 7d3f 279e 823f
00000230: c69b 833f 6320 7f3f accc 7e3f e622 7f3f
00000240: 22ec 813f eddd 7f3f ac5d 7b3f 3641 803f
00000250: 88c9 7b3f 64df 813f fd27 803f 42fb 7b3f
00000260: 47b7 7e3f 8559 813f 3a56 803f 7f59 7e3f
00000270: 9d2c 803f aeae 803f 7bd6 803f 30ab 823f
00000280: 5925 7d3f 2fce 7e3f eb59 833f 4dd6 7b3f
00000290: 468d 803f 154b 793f f8c6 803f f514 803f
000002a0: 6db7 823f c2b2 7f3f a518 803f f8b7 7d3f
000002b0: 0f1b 803f a736 803f 5dae 7d3f 4a3c 7f3f
000002c0: 8be4 813f 228b 7d3f 1b93 7f3f b425 823f
000002d0: 17f3 7d3f 02d9 813f f862 7e3f 184f 803f
000002e0: 96bb 7e3f 882e 7c3f fc14 813f eb78 7f3f
000002f0: 2c75 823f 379e 7f3f 0a10 7f3f 21a3 803f
00000300: 5bd9 7e3f 6acc 803f 091e 7e3f 27cb 7e3f
00000310: 0d42 803f 5f98 7d3f bee7 803f 01a7 7e3f
00000320: 8f33 813f c333 813f ddce 7d3f c8fa 7e3f
00000330: c5ac 7e3f c056 7f3f 9009 843f 47a3 7e3f
00000340: 0d3e 7d3f aa9a 823f 479b 7c3f b9f8 7d3f
00000350: 5d5e 7e3f 8495 7c3f 0b0b 7b3f 1f68 7f3f
00000360: 7978 7e3f eb03 823f e69a 803f e74e 7d3f
00000370: 62d9 7c3f c9ae 793f 06cf 7f3f d657 7e3f
00000380: 156f 813f 9c25 7f3f 0083 7d3f 9266 803f
00000390: 6a13 7e3f 1e8e 803f 567e 803f 3072 833f
000003a0: b9bf 7f3f 2666 7a3f 8a71 803f b1d7 7e3f
000003b0: 7bd8 803f 6dc5 7e3f df8b 813f be84 833f
000003c0: deb7 7d3f 9ef3 7d3f 86f9 7e3f 1432 7e3f
000003d0: b812 803f eda7 803f 02d3 7d3f 800d 7e3f
000003e0: 54a4 803f 853e 7a3f b31c 813f 88ef 7f3f
000003f0: 2a85 7d3f 907d 7f3f 0ad5 7c3f ff7c 7e3f

layers.1.bias f4 [256]
0.0094002765 0.007291828 0.00036563884 -0.002505603 0.00643649 -0.016656114 0.0064935577 0.016980648
0.007376605 0.021670809 -0.004080495 0.0007441918 0.005740465 -0.0036487659 0.03358778 0.0009191229
0.0033477282 0.00012366763 0.0049610827 -0.0015754881 0.02615548 0.03072935 -0.004399446 -0.0004073921
0.0065560653 0.0050081117 0.005368289 0.00912637 0.0148361055 0.0070747905 0.011907697 0.0036902337
0.010862411 0.014883383 0.009262436 -0.01746888 -0.003490177 0.01756575 -0.003512503 -0.004482299
0.012420034 -0.0036323369 -0.016257023 0.00397142 0.0049162703 -0.014928382 -0.014036747 -0.0017347337
-0.002881428 0.0023747778 0.0046768226 0.019410167 0.0043644477 -0.008946858 -0.0026139151 0.0033967944
0.010728847 -0.0012503993 0.001179263 -0.0020120933 0.00939777 0.034299023 -0.011326125 -0.012433586
0.004153495 -0.002208697 0.020802526 0.011411284 -0.016196508 -0.0013489039 0.028768186 -0.0113455
-0.012592669 -0.015444743 -0.009624603 0.008664506 -0.012288783 -0.0034558931 -0.0074697724 -0.017266646
0.004899579 -0.0023957945 0.0019801906 -0.011874946 -0.013559951 0.013164377 -0.0077753803 -0.008192698
-0.007509906 0.006475611 -0.011034248 0.0010791444 -0.02171785 0.015225135 -0.011916763 0.0129512185
-0.010007966 -0.014602244 -0.0013082625 -0.008458909 0.01832401 0.018353894 0.024481207 0.003314673
0.0012211708 -0.0019213039 -0.004113069 -0.0041650403 -0.007983858 0.012076432 -0.0081608975 -0.013917578
-0.012032018 -0.0052008773 -0.0073893755 0.003642603 0.0036638852 -0.004974009 -0.0016482447 0.0006892524
-0.016207537 -0.002423416 0.004094556 0.017888572 0.0047244644 -0.0057115876 0.0050112903 0.01630766
-0.0061262446 0.008444619 -0.001711833 -0.010146379 -0.009712458 -0.003654305 -0.010565007 -0.0078278575
-0.006665652 0.006753619 0.005860586 0.0034382623 0.030155048 0.009226758 0.008082068 -0.00643455
0.025437392 0.012629665 -0.010603592 -0.0005575256 -0.013216235 0.041710436 -0.0012227619 -0.013718414
0.029696634 -0.00027822374 0.009927503 -0.0034144996 0.0019411396 0.012965032 0.014202921 0.0033772353
-0.00447907 -0.00213392 0.01656656 -0.013925588 0.007844417 -0.024091428 0.017805198 0.0053413226
0.027021134 0.01238712 0.00387026 -0.0049041947 0.004097948 0.0055839517 -0.010932972 -0.009635182
-0.0056461776 -0.0013956433 -0.0015089808 0.027622284 -0.01846693 0.031736705 0.0014991246 -0.008294499
0.0061264653 -0.010917244 0.0016830435 0.011496496 0.025227122 -0.0013075821 -0.004668246 0.0039386894
-0.012963487 0.0009979052 -0.0037986997 -0.009549612 0.0055998643 -0.012628494 0.01313499 -0.0015515321
0.0016419165 0.015004906 0.004408692 -0.0074402783 -0.018725906 -0.006474985 0.014176068 -0.0026506505
-0.010292619 0.016246762 -0.0060370057 -0.012957297 -0.0026694024 -0.0007024467 -0.019059392 -0.013602935
-0.0025757262 0.0118746385 -0.02174617 -0.015520383 -0.014071172 -0.019878866 -0.0021327683 0.0016120858
0.007186075 0.011444112 -0.0025455565 0.0017063848 -0.0037105405 0.0018105041 0.013539572 0.0135141555
-0.0010904627 -0.023171136 -0.010801146 0.0006128531 0.009982261 -0.00980578 0.0067503164 0.0070353085
-0.008915453 -0.0012306022 -0.009531558 -0.0010212669 0.004969841 -0.0063915127 -0.006766001 -0.008902744
0.00083936757 -0.015491684 -0.0028306546 0.013530968 -0.013250127 -0.0049815197 -0.0065218084 -0.007460229
00000000: 9e03 1a3c 49f0 ee3b 37b3 bf39 0b35 24bb
00000010: 31e9 d23b 6772 88bc e9c7 d43b 001b 8b3c
00000020: 73b7 f13b fb86 b13c acb5 85bb de15 433a
00000030: 831a bc3b 2220 6fbb 5793 093d 4bf1 703a
00000040: 8f65 5b3b c7ac 0139 9490 a23b 9c80 ceba
00000050: 0444 d63c 1ebc fb3c 3a29 90bb 3e97 d5b9
00000060: 43d4 d63b 161b a43b 79e8 af3b c586 153c
00000070: 2313 733c a5d3 e73b 8018 433c d9d7 713b
00000080: 41f8 313c 6fd9 733c 79c1 173c e61a 8fbc
00000090: 74bb 64bb 0ce6 8f3c 0632 66bb 40e0 92bb
000000a0: 667d 4b3c 800c 6ebb 732d 85bc b022 823b
000000b0: aa18 a13b 2c96 74bc 62fa 65bc 0160 e3ba
000000c0: 57d6 3cbb 29a2 1b3b 0840 993b 1202 9f3c
000000d0: a403 8f3b d895 12bc 384e 2bbb c19c 5e3b
000000e0: 0cc8 2f3c 70e4 a3ba 8091 9a3a 53dd 03bb
000000f0: 1bf9 193c 227d 0c3d 3691 39bc 3db6 4bbc
00000100: 0b1a 883b c9bf 10bb 0f6a aa3c 65f6 3a3c
00000110: 8aae 84bc b4cd b0ba 42ab eb3c 7ae2 39bc
00000120: 7b51 4ebc f30b 7dbc 83b0 1dbc 92f5 0d3c
00000130: e456 49bc 447c 62bb fec4 f4bb c872 8dbc
00000140: a68c a03b c302 1dbb 16c6 013b 228f 42bc
00000150: 8f2a 5ebc 66af 573c 9ec8 febb aa3a 06bc
00000160: a815 f6bb 5d31 d43b fec8 34bc 1472 8d3a
00000170: a2e9 b1bc d872 793c 873e 43bc 5931 543c
00000180: 74f8 23bc 403e 6fbc 017a abba 3c97 0abc
00000190: 3c1c 963c e85a 963c d08c c83c fc3a 593b
000001a0: b10f a03a 43d4 fbba ecc6 86bb e47a 88bb
000001b0: bace 02bc 3adc 453c 49b5 05bc 8e06 64bc
000001c0: f121 45bc 1f6c aabb 9322 f2bb bdb8 6e3b
000001d0: cb1d 703b 03fd a2bb ea09 d8ba f2ae 343a
000001e0: abc5 84bc 2cd2 1ebb a02b 863b 0e8b 923c
000001f0: aecf 9a3b 4528 bbbb c035 a43b a497 853c
00000200: aabe c8bb 4d5b 0a3c 965f e0ba ff3c 26bc
00000210: 0021 1fbc 107d 6fbb da18 2dbc 6a40 00bc
00000220: 8b6b dabb 764d dd3b 290a c03b 7854 613b
00000230: b807 f73c d42b 173c a66a 043c ebd8 d2bb
00000240: 1462 d03c a8ec 4e3c b0ba 2dbc e926 12ba
00000250: e888 58bc 90d8 2a3d 1545 a0ba 33c3 60bc
00000260: 5b46 f33c 8fde 91b9 f7a6 223c ccc5 5fbb
00000270: d66d fe3a 496b 543c 5eb3 683c 9b54 5d3b
00000280: 2ac5 92bb 3dd9 0bbb 98b6 873c 2628 64bc
00000290: df85 003c 635b c5bc 35dc 913c 4306 af3b
000002a0: 6d5b dd3c 59f3 4a3c 30a4 7d3b 5eb3 a0bb
000002b0: 1448 863b 95f9 b63b 3520 33bc e2dc 1dbc
000002c0: 9203 b9bb 05ee b6ba fec8 c5ba 2148 e23c
000002d0: f647 97bc 59fe 013d 467e c43a a6e5 07bc
000002e0: 84c0 c83b 3dde 32bc 9299 dc3a cd5b 3c3c
000002f0: 1ca9 ce3c 2d63 abba 16f8 98bb 1f10 813b
00000300: ce64 54bc 24cc 823a 9bf3 78bb fa75 1cbc
00000310: 117f b73b bee7 4ebc 2434 573c c75c cbba
00000320: 9335 d73a 23d7 753c ca76 903b 94cd f3bb
00000330: 1267 99bc 1c2c d4bb bd42 683c 89b6 2dbb
00000340: 5fa2 28bc ee17 853c 13d2 c5bb d84a 54bc
00000350: 24f1 2ebb 6624 38ba 7122 9cbc d8de 5ebc
00000360: 84cd 28bb d88d 423c 0625 b2bc 3449 7ebc
00000370: c68a 66bc 01d9 a2bc eac5 0bbb a04c d33a
00000380: 2b79 eb3b 1680 3b3c 5ad3 26bb c6a8 df3a
00000390: 8a2c 73bb 704e ed3a 15d5 5d3c 7a6a 5d3c
000003a0: dbed 8eba 65d1 bdbc 4af7 30bc e0a7 203a
000003b0: a38c 233c 6ca8 20bc c231 dd3b 7288 e63b
000003c0: 1f12 12bc 284c a1ba 402a 1cbc 08dc 85ba
000003d0: 0cda a23b e56f d1bb 55b5 ddbb d1dc 11bc
000003e0: 0109 5c3a d5d0 7dbc 8182 39bb feb0 5d3c
000003f0: 1017 59bc 043c a3bb e5b4 d5bb f074 f4bb

layers.1.running_mean f4 [256]
-0.34813258 -0.046450946 -0.13057826 -0.30773234 0.0029410417 0.046330776 0.19112532 0.22944596
-0.16442701 -0.21220455 -0.13276261 0.06607872 -0.0023853185 0.21124038 -0.103575006 -0.21899188
0.15052535 -0.191468 -0.010788038 0.2361077 -0.18811825 -0.37242758 0.23616078 0.30205387
-0.14709249 -0.16719514 0.022117514 0.15643866 0.072448194 0.15609173 0.29179835 0.00881689
0.016326303 -0.19754991 -0.15427706 -0.11583605 0.13019545 -0.33760545 -0.30045506 -0.20606507
-0.08004941 0.28909674 -0.10615825 0.34778792 0.20947437 0.108371116 0.21782863 0.14568625
-0.06916047 0.19183464 -0.20850354 0.036667068 0.086354434 -0.099423975 0.034130685 0.3012428
0.16823626 -0.19954745 0.08199185 0.349499 0.15966468 -0.046747603 0.034706768 0.30689606
0.014593015 -0.06928435 0.3436094 0.27626488 0.2699757 -0.22525422 0.16722485 0.046099216
0.21451014 -0.11013552 -0.27658212 -0.08760766 0.2251188 0.08304689 0.2534943 -0.22929257
0.02278565 0.09636016 -0.35663888 -0.25728497 -0.14093395 -0.16467789 0.160464 -0.010473993
-0.21453676 0.01967805 0.20857187 -0.30156514 -0.26825613 0.25105858 -0.104385525 0.36293647
0.039203644 0.28305542 0.2401752 -0.26219195 0.04710601 -0.074471794 0.120583616 0.40483
0.138259 -0.15610544 -0.20107278 0.17127389 0.10069161 0.112230256 -0.24488707 0.21996967
-0.17453225 -0.080699034 -0.25496238 -0.3555949 -0.15003863 0.0093493955 -0.17157486 0.36328042
-0.03455518 0.043036964 0.19499968 -0.22916542 0.17977835 0.16832452 0.14223345 0.29916763
-0.20991117 0.12997411 0.07071137 0.1937045 0.14138891 0.24213922 -0.31257477 -0.052943885
0.13744093 -0.34663737 0.016671197 -0.18748641 -0.039239697 -0.12808706 -0.21650751 -0.036430422
0.18982264 0.018579459 -0.27367598 0.01712791 0.3485273 -0.37164205 -0.12007401 -0.04846412
-0.1874599 0.083104685 -0.24184729 -0.29852864 0.039784454 -0.14062215 0.12208427 -0.3747024
-0.3549345 -0.13241449 0.11365484 0.2595339 0.058596365 -0.012621103 -0.19203766 -0.22507642
0.03586231 -0.11475489 -0.0867573 0.08086971 -0.3006825 -0.16175175 0.14802943 0.08981028
-0.3859748 0.03179735 0.11710152 0.30142063 -0.19539677 0.023934172 -0.16237552 -0.3795072
-0.40263924 -0.06889965 -0.3192561 -0.08789515 0.15797663 0.055829063 -0.31622276 0.20260896
-0.21103913 0.34858212 0.34964034 0.21760266 -0.09768191 -0.34898973 -0.029262621 -0.17393021
-0.22891425 -0.06547827 -0.090787455 -0.14097989 -0.09040244 -0.124296255 -0.0884429 -0.13862644
-0.1176203 0.09736684 0.1825861 -0.07362477 -0.039601974 0.12229501 -0.1089054 -0.11215032
-0.2583656 -0.13912782 -0.13278867 0.063438244 -0.073341526 0.13321768 0.22793546 0.096141
0.4395849 -0.012416105 -0.040909316 -0.25055176 -0.023878712 0.41132483 -0.21055359 -0.33310267
-0.047966134 0.13824667 -0.3195253 -0.028376766 0.36955857 0.09924706 -0.27865693 -0.33068866
0.07767894 -0.22407576 0.09674245 0.010316477 -0.31108645 0.3439649 -0.08534671 -0.1304747
0.37044302 0.2508307 -0.18658037 0.091000035 0.020737275 -0.05280299 -0.17085044 0.015423741
00000000: 6f3e b2be 5943 3ebd 4fb6 05be 188f 9dbe
00000010: 7ebe 403b 57c5 3d3d 5bb6 433e e2f3 6a3e
00000020: 8e5f 28be 264c 59be ecf2 07be 4854 873d
00000030: 0153 1cbb 664f 583e 221f d4bd 683f 60be
00000040: 5123 1a3e 3010 44be 50c0 30bc 38c6 713e
00000050: 12a2 40be d4ae bebe 22d4 713e cea6 9a3e
00000060: 6a9f 16be 3435 2bbe ca2f b53c 7531 203e
00000070: b85f 943d 83d6 1f3e 9866 953e b874 103c
00000080: bdbe 853c 864a 4abe cefa 1dbe 733b edbd
00000090: f551 053e 9fda acbe 3fd5 99be b902 53be
000000a0: f2f0 a3bd 7d04 943e 7f69 d9bd 4211 b23e
000000b0: 7380 563e adf1 dd3d 780e 5f3e c72e 153e
000000c0: 01a4 8dbd 4d70 443e f481 55be 3530 163d
000000d0: 98da b03d cc9e cbbd 9ecc 0b3d 7f3c 9a3e
000000e0: 2046 2c3e 2b56 4cbe 58eb a73d 88f1 b23e
000000f0: 237f 233e 6a7a 3fbd af28 0e3d 7b21 9d3e
00000100: 8b17 6f3c f4e4 8dbd 92ed af3e 9772 8d3e
00000110: 413a 8a3e 0ba9 66be fe3c 2b3e 88d2 3c3d
00000120: 8ca8 5b3e bb8e e1bd 2c9c 8dbe a56b b3bd
00000130: 8b85 663e 7d14 aa3d 01ca 813e accb 6abe
00000140: f9a8 ba3c 7a58 c53d 5f99 b6be dbba 83be
00000150: fd50 10be 52a1 28be ad50 243e 1c9b 2bbc
00000160: 86af 5bbe dd33 a13c dd93 553e bf66 9abe
00000170: de58 89be c08a 803e 14c8 d5bd cfd2 b93e
00000180: 0094 203d a4ec 903e 7df0 753e 063e 86be
00000190: 3bf2 403d ab84 98bd 8bf4 f63d e145 cf3e
000001a0: c493 0d3e 1bda 1fbe 06e6 4dbe 6c62 2f3e
000001b0: 6737 ce3d fad8 e53d adc3 7abe bb3f 613e
000001c0: 95b8 32be 8945 a5bd 6e8a 82be 8910 b6be
000001d0: baa3 19be 352e 193c 52b1 2fbe e4ff b93e
000001e0: bc89 0dbd 8747 303d ffad 473e 57aa 6abe
000001f0: d117 383e 435d 2c3e a5a5 113e 802c 993e
00000200: f4f2 56be ef17 053e 1fd1 903d 795a 463e
00000210: 41c8 103e 58f3 773e cd09 a0be b0db 58bd
00000220: 51bd 0c3e 747a b1be 0992 883c 70fc 3fbe
00000230: ceb9 20bd 4129 03be 25b4 5dbe 1138 15bd
00000240: de60 423e f333 983c 421f 8cbe d54f 8c3c
00000250: 2c72 b23e de47 bebe 5de9 f5bd 5082 46bd
00000260: 7df5 3fbe ca32 aa3d d1a6 77be bfd8 98be
00000270: 06f5 223d 41ff 0fbe 5107 fa3d fed8 bfbe
00000280: fab9 b5be aa97 07be dec3 e83d a1e1 843e
00000290: be02 703d bec8 4ebc 85a5 44be 6f7a 66be
000002a0: 5ce4 123d 9d04 ebbd d0ad b1bd 059f a53d
000002b0: 0ef3 99be 40a2 25be 0795 173e 74ee b73d
000002c0: 7d9e c5be f03d 023d ecd2 ef3d ce53 9a3e
000002d0: 1716 48be 9911 c43c c545 26be c54e c2be
000002e0: bb26 cebe 421b 8dbd 8975 a3be 5f02 b4bd
000002f0: a0c4 213e 04ad 643d f3e7 a1be b978 4f3e
00000300: a41a 58be 5b79 b23e 0f04 b33e 3bd3 5e3e
00000310: 740d c8bd c8ae b2be 2ab8 efbc c31a 32be
00000320: 7f68 6abe 7919 86bd c6ee b9bd 085d 10be
00000330: ea24 b9bd 098f febd 8d21 b5bd 17f4 0dbe
00000340: e9e2 f0bd 4468 c73d daf7 3a3e 95c8 96bd
00000350: ae35 22bd ce75 fa3d cb09 dfbd 11af e5bd
00000360: 7f48 84be 8677 0ebe c1f9 07be e9eb 813d
00000370: 1534 96bd 376a 083e ea67 693e 93e5 c43d
00000380: 4611 e13e eb6c 4bbc 8790 27bd 5248 80be
00000390: 4a9d c3bc 2b99 d23e 5c9b 57be 6f8c aabe
000003a0: 2378 44bd 8990 0d3e d298 a3be 6476 e8bc
000003b0: c836 bd3e 0b42 cb3d 1fac 8ebe 0650 a9be
000003c0: 2316 9f3d 1e74 65be e820 c63d 7106 293c
000003d0: b946 9fbe 2b1c b03e 42ca aebd 299b 05be
000003e0: b5aa bd3e e26c 803e ed0e 3fbe 3a5e ba3d
000003f0: 38e1 a93c f347 58bd 6bf3 2ebe dcb3 7c3c

layers.1.running_var f4 [256]
0.12580478 0.31942344 0.34894297 0.3157127 0.09123522 0.19322227 0.12731212 0.3325623
0.20904262 0.24681221 0.17042129 0.26661167 0.25977236 0.10728116 0.20558153 0.2679881
0.36421517 0.50477505 0.37725806 0.17377998 0.21227965 0.22197783 0.36699942 0.20184666
0.27809975 0.19222195 0.3504204 0.16907327 0.27204636 0.21638708 0.17043251 0.09833487
0.63127613 0.2319805 0.37702623 0.24121192 0.26151076 0.30430895 0.27540758 0.3268388
0.21365565 0.25442526 0.11652449 0.29209423 0.3335699 0.31675044 0.27867582 0.3839178
0.16308293 0.36364275 0.32523116 0.20348321 0.32447946 0.25563082 0.32379818 0.43110922
0.39571938 0.09453135 0.22401503 0.39795002 0.14020881 0.22812895 0.46206388 0.26076537
0.47499454 0.39425242 0.29454273 0.19890358 0.15895978 0.25552347 0.17765808 0.083756395
0.34216622 0.32576692 0.598752 0.3551283 0.14041358 0.38219675 0.19419394 0.16832933
0.19194283 0.4142145 0.3094522 0.37260574 0.43967208 0.6248091 0.27624536 0.40445912
0.32412452 0.18776236 0.24733594 0.128835 0.33864895 0.11023049 0.16228472 0.21653946
0.16199136 0.3485049 0.31166357 0.12568772 0.20427367 0.1275534 0.35529393 0.47482175
0.22819926 0.20447287 0.2636674 0.07808014 0.078262396 0.16921698 0.14839667 0.3406785
0.21804008 0.16449536 0.24749537 0.40643013 0.27321854 0.18045567 0.2072409 0.37983495
0.3453137 0.24233355 0.16933356 0.19522645 0.22876246 0.24276187 0.25115892 0.17602557
0.39274848 0.20968187 0.2603451 0.1354751 0.20616406 0.116241485 0.21407898 0.28886628
0.32352912 0.23033445 0.44015953 0.21847773 0.3545804 0.29626542 0.41108462 0.39992824
0.32556835 0.081434 0.21262203 0.18216296 0.1925257 0.18279836 0.43907478 0.095770724
0.2633957 0.31529918 0.21720509 0.38309643 0.3861906 0.3427209 0.24098517 0.3338692
0.22654474 0.07981393 0.40780652 0.3876766 0.27027112 0.20918228 0.4079698 0.4291397
0.19196627 0.21971415 0.24396971 0.35022953 0.30302304 0.14048202 0.22632046 0.28211322
0.29294044 0.23721384 0.28308734 0.25791046 0.17822716 0.44288832 0.2669737 0.28785548
0.21914427 0.4001279 0.19707516 0.26097816 0.23736002 0.25034478 0.12389862 0.29201147
0.16351832 0.45347625 0.16715054 0.33267283 0.13810132 0.34606627 0.41595227 0.21522692
0.101263486 0.21332215 0.20129474 0.17970683 0.3157371 0.35616556 0.24185863 0.2303449
0.19379367 0.18819784 0.5069874 0.21874276 0.17167135 0.38337517 0.16266684 0.26456088
0.34757835 0.30679098 0.24380419 0.18689595 0.57972306 0.14080223 0.34146127 0.36752424
0.27042294 0.42692336 0.11924102 0.39792153 0.27231833 0.19830172 0.39901456 0.16449839
0.25072688 0.37230092 0.40876028 0.36571968 0.45680812 0.097277 0.26901203 0.13072975
0.37147886 0.27865532 0.24341105 0.21736303 0.29339865 0.31689784 0.45877004 0.41049668
0.33596203 0.25929275 0.13692328 0.30075455 0.25442955 0.25639004 0.2610496 0.3580455
00000000: f8d2 003e 788b a33e a7a8 b23e 18a5 a13e
00000010: 88d9 ba3d 0fdc 453e 1c5e 023e 9b45 aa3e
00000020: 450f 563e 57bc 7c3e eb82 2e3e 5381 883e
00000030: e200 853e 3ab6 db3d f783 523e bc35 893e
00000040: 697a ba3e f038 013f f827 c13e 61f3 313e
00000050: d65f 593e 284e 633e 59e7 bb3e e4b0 4e3e
00000060: 1763 8e3e d5d5 443e 4d6a b33e 8b21 2d3e
00000070: a949 8b3e 9394 5d3e dc85 2e3e cb63 c93d
00000080: 509b 213f 4c8c 6d3e 9509 c13e 4200 773e
00000090: bde4 853e 62ce 9b3e 3902 8d3e 6a57 a73e
000000a0: 8cc8 5a3e 0744 823e 64a4 ee3d 608d 953e
000000b0: adc9 aa3e 1d2d a23e 99ae 8e3e e090 c43e
000000c0: 36ff 263e 622f ba3e b384 a63e e75d 503e
000000d0: 2c22 a63e 0be2 823e e0c8 a53e 59ba dc3e
000000e0: bb9b ca3e a799 c13d 3264 653e 1bc0 cb3e
000000f0: e692 0f3e a39a 693e a393 ec3e 0a83 853e
00000100: 7c32 f33e 74db c93e 4ece 963e 61ad 4b3e
00000110: 5ac6 223e f9d3 823e 00ec 353e 7988 ab3d
00000120: 6930 af3e ecca a63e d047 193f 60d3 b53e
00000130: 94c8 0f3e 4baf c33e c7da 463e 865e 2c3e
00000140: a98c 443e ec13 d43e 8570 9e3e 2ec6 be3e
00000150: b31c e13e 7df3 1f3f 0870 8d3e 4415 cf3e
00000160: a6f3 a53e c744 403e a245 7d3e 52ed 033e
00000170: 6563 ad3e 86c0 e13d f72d 263e 85bc 5d3e
00000180: 10e1 253e 3c6f b23e 5e92 9f3e 48b4 003e
00000190: 1e2d 513e 5c9d 023e 16e9 b53e d61b f33e
000001a0: 11ad 693e 5661 513e 6aff 863e 7be8 9f3d
000001b0: 0948 a03d 3747 2d3e 4cf5 173e 6a6d ae3e
000001c0: e645 5f3e 7971 283e 6d6f 7d3e 9c17 d03e
000001d0: 4de3 8b3e 5fc9 383e f536 543e ba79 c23e
000001e0: f5cc b03e 4926 783e c765 2d3e 71e9 473e
000001f0: b540 6a3e 9196 783e e797 803e 0c40 343e
00000200: 5416 c93e d8b6 563e f44b 853e fcb9 0a3e
00000210: ac1c 533e 0410 ee3d 8537 5b3e 48e6 933e
00000220: 9ca5 a53e cbdc 6b3e 975c e13e a0b8 5f3e
00000230: 908b b53e 1ab0 973e af79 d23e 65c3 cc3e
00000240: e5b0 a63e dec6 a63d 97b9 593e ed88 3a3e
00000250: 7525 453e 7e2f 3b3e 69ce e03e 7123 c43d
00000260: cddb 863e e56e a13e 036b 5e3e 3725 c43e
00000270: c6ba c53e 1d79 af3e d1c4 763e e7f0 aa3e
00000280: 58fb 673e 7c75 a33d 04cc d03e 8c7d c63e
00000290: fa60 8a3e e133 563e 6be1 d03e 33b8 db3e
000002a0: ce92 443e bffc 603e 32d3 793e 4951 b33e
000002b0: d625 9b3e 85da 0f3e 8dc0 673e 2571 903e
000002c0: 4afc 953e 2fe8 723e d3f0 903e d70c 843e
000002d0: 2e81 363e 42c2 e23e c7b0 883e cb61 933e
000002e0: 5b67 603e 90dd cc3e 12ce 493e ee9e 853e
000002f0: 810e 733e 312d 803e 8fbe fd3d 8782 953e
00000300: 5971 273e 0a2e e83e 8329 2b3e 1854 aa3e
00000310: 6f6a 0d3e 992f b13e b2f7 d43e 7264 5c3e
00000320: 3b63 cf3d 1f71 5a3e 3520 4e3e 1105 383e
00000330: 4ba8 a13e 555b b63e caa9 773e 89df 6b3e
00000340: d971 463e efb6 403e edc9 013f 1afe 5f3e
00000350: 9dca 2f3e c049 c43e 2392 263e 8674 873e
00000360: caf5 b13e b513 9d3e cea7 793e a761 3f3e
00000370: bb68 143f 762e 103e 03d4 ae3e 232c bc3e
00000380: e074 8a3e b395 da3e a334 f43d 5fbc cb3e
00000390: 4f6d 8b3e 9b0f 4b3e a34b cc3e 4472 283e
000003a0: 465f 803e 3a9e be3e 0749 d13e 9c3f bb3e
000003b0: c1e2 e93e 2a39 c73d f2bb 893e 05de 053e
000003c0: 7a32 be3e e9ab 8e3e bf40 793e 6a94 5e3e
000003d0: 5938 963e 6f40 a23e e8e3 ea3e 9f2c d23e
000003e0: 3703 ac3e 05c2 843e 9e35 0c3e 80fc 993e
000003f0: 9744 823e 8e45 833e 4ba8 853e bd51 b73e

layers.4.weight f4 [256, 256]
0.0066678417 0.025552902 -0.03514735 -0.05192485 0.04123973 0.05267115 0.0053242627 0.030021373
-0.026581949 -0.015747715 0.025327941 0.017133964 0.007965104 -0.018895289 0.04618475 -0.03565783
0.014252005 0.007674059 0.0028866518 0.048644517 -0.040141363 -0.060729455 -0.021288918 -0.06769742
-0.017868178 0.008695812 -0.00022116154 -0.041087434 0.008469447 -0.026440788 0.032859057 0.03564887
-0.035948522 -0.043749213 0.050525893 -0.008976237 -0.0071279067 0.026322927 0.0073329005 0.03786107
-0.07351266 0.06369101 0.010144659 -0.046395395 -0.006577479 0.024094896 0.008757128 -0.048004813
-0.021653531 -0.00214865 -0.016264923 0.039147876 -0.015747229 -0.012642887 -0.0058682053 0.014636473
-0.061415333 0.028442428 0.047513504 -0.039759073 -0.05493508 -0.06878019 -0.03607508 -0.037315775
-0.04771644 0.0018712163 0.011067008 -0.009991099 -0.05605815 0.036605474 -0.04107315 -0.06318993
0.05887939 0.040609982 0.011607357 0.039828036 -0.03978278 0.011591747 -0.034922726 -0.032481138
-0.035363983 0.053275656 -0.04568501 -0.038076945 0.036990773 -0.009101556 -0.07019371 -0.008065687
0.03495199 -0.057866897 -0.0076819276 -0.03773508 0.008718888 0.05343969 -0.009171337 -0.051411815
0.018803807 0.053872503 -0.029557284 0.059358075 -0.026696403 -0.029243093 0.059750617 -0.0334918
-0.04863601 -0.023785997 0.04766266 -0.010097224 0.03927257 -0.017774407 0.023058012 -0.0050553293
-0.021372337 0.027008686 0.0038522882 0.044358164 0.024626005 0.020870594 0.011907489 -0.013319407
0.062473156 0.019404566 0.0024882483 0.0467905 -0.017900718 -0.018265821 -0.047814064 -0.03363354
0.011297549 -0.049207542 0.0057717445 -0.014281673 0.044198554 -0.06974456 0.024541065 -0.04606709
0.025910899 0.05660204 -0.048655342 0.041741796 -0.047341213 0.0075286436 0.0055311974 -0.01881982
0.04339585 -0.05754606 0.0013681992 0.038485475 -0.056066167 0.021961259 0.04804552 0.057063807
0.015063302 -0.041056447 0.040799696 -0.007969646 0.002874854 0.008569292 -0.026717516 -0.03694965
0.0135005405 0.042742115 -0.053734105 -0.017527787 0.055538528 -0.039200135 0.031034451 -0.037084393
0.0057835924 0.041081678 -0.010888055 0.029053977 0.021291224 -0.05264895 0.059997555 0.009243195
-0.04363489 0.01182062 -0.058886785 -0.03211765 0.04021113 0.00048470573 -0.005487282 -0.037126888
-0.026900746 0.03407715 -0.032487687 0.041662075 -0.07237894 0.05302037 -0.05691615 0.04900678
0.015276573 -0.01464528 0.0030684012 0.036823906 -0.047994908 0.053808752 0.013955988 0.018933296
0.053543307 -0.052172076 -0.024509234 -0.023678448 0.051686198 0.031957753 -0.013643725 -0.014312133
0.026180651 -0.021847604 0.006938766 -0.012933361 -0.03801621 -0.038283948 -0.024941048 0.046347305
0.032603797 -0.0052541466 0.015677646 0.043947317 0.02313233 0.0038314858 0.056774803 -0.040884253
-0.01651777 -0.006794975 0.028278222 0.027260108 0.0039974684 -0.0010784514 0.036287483 -0.02578871
-0.054875888 -0.03872461 0.00963248 0.030486763 0.030687673 -0.038455036 -0.050603826 -0.046803705
0.0005243806 -0.03748643 -0.053190682 0.00222976 -0.026980506 -0.00914132 0.00117775 -0.040059466
0.021813214 0.021887528 -0.05925109 -0.010328128 0.0019764167 -0.040759128 0.0488467 -0.05139533
00000000: e97d da3b 5254 d13c abf6 0fbd 27af 54bd
00000010: feea 283d b4bd 573d 2777 ae3b 62ef f53c
00000020: 63c2 d9bc 5a01 81bc 8b7c cf3c 875c 8c3c
00000030: 1180 023c 4bca 9abc 382c 3d3d f20d 12bd
00000040: 3e81 693c ac76 fb3b fb2d 3d3b 793f 473d
00000050: 456b 24bd 73bf 78bd 1966 aebc f2a4 8abd
00000060: 4960 92bc e178 0e3c 99e7 67b9 4c4b 28bd
00000070: 6fc3 0a3c 5a9a d8bc 3897 063d 8d04 123d
00000080: c23e 13bd 6032 33bd 3df4 4e3d 1111 13bc
00000090: 3791 e9bb 2ea3 d73c d448 f03b 3614 1b3d
000000a0: ce8d 96bd 6f70 823d c935 263c 1909 3ebd
000000b0: e587 d7bb a962 c53c 0f7a 0f3c b2a0 44bd
000000c0: bf62 b1bc 5dd0 0cbb 043e 85bc 8659 203d
000000d0: 5500 81bc 1d24 4fbc 134a c0bb d1cd 6f3c
000000e0: a58e 7bbd 1800 e93c 859d 423d 69da 22bd
000000f0: 9b03 61bd a1dc 8cbd 77c3 13bd 6dd8 18bd
00000100: 5072 43bd 9a43 f53a 6552 353c b5b1 23bc
00000110: 3b9d 65bd 9fef 153d 523c 28bd b969 81bd
00000120: 842b 713d a756 263d c92c 3e3c b922 233d
00000130: 45f3 22bd 50eb 3d3c 220b 0fbd f10a 05bd
00000140: d3d9 10bd 9337 5a3d 3420 3bbd 92f6 1bbd
00000150: a383 173d b11e 15bc b8c1 8fbd f125 04bc
00000160: d129 0f3d d705 6dbd aeb8 fbbb 1990 1abd
00000170: abd9 0e3c 94e3 5a3d 6043 16bc 3295 52bd
00000180: 710a 9a3c 6aa9 5c3d 1e22 f2bc 7421 733d
00000190: 6ab2 dabc 368f efbc 10bd 743d b32e 09bd
000001a0: 8e36 47bd dada c2bc ec39 433d d46e 25bc
000001b0: 46dc 203d a29b 91bc 28e4 bc3c 2da7 a5bb
000001c0: 0a15 afbc 5241 dd3c ac76 7c3b e8b0 353d
000001d0: 7abc c93c cff8 aa3c a117 433c a439 5abc
000001e0: dae3 7f3d 53f6 9e3c e111 233b 65a7 3f3d
000001f0: 87a4 92bc 34a2 95bc aed8 43bd 53c3 09bd
00000200: 5b19 393c d98d 49bd e720 bd3b aefd 69bc
00000210: 8b09 353d 3cd6 8ebd 580a c93c d8b0 3cbd
00000220: 1843 d43c 8ad7 673d d34a 47bd 72f9 2a3d
00000230: dce8 41bd d7b2 f63b 0c3f b53b 062c 9abc
00000240: d9bf 313d 6bb5 6bbd 2655 b33a f2a2 1d3d
00000250: a3a5 65bd 19e8 b33c 61cb 443d bdbb 693d
00000260: 11cc 763c ce2a 28bd 951d 273d 1e93 02bc
00000270: 0c68 3c3b 3766 0c3c b1de dabc 8458 17bd
00000280: 5f31 5d3c 5b12 2f3d 4b18 5cbd 6f96 8fbc
00000290: 5e7c 633d 5290 20bd f63b fe3c cee5 17bd
000002a0: 4a84 bd3b 4345 283d d063 32bc 9b02 ee3c
000002b0: ef6a ae3c 6da6 57bd ffbf 753d c570 173c
000002c0: 80ba 32bd 46ab 413c 4533 71bd cc8d 03bd
000002d0: 6db4 243d 1a20 fe39 a8ce b3bb 5d12 18bd
000002e0: f45e dcbc 7b94 0b3d cf11 05bd daa5 2a3d
000002f0: 693b 94bd e32b 593d e920 69bd 55bb 483d
00000300: 974a 7a3c c2f2 6fbc 3b17 493b aad4 163d
00000310: 4f96 44bd 9166 5c3d a8a7 643c 001a 9b3c
00000320: 3a50 5b3d 63b2 55bd 97c7 c8bc 4ef9 c1bc
00000330: e8b4 533d 22e6 023d ee89 5fbc 707d 6abc
00000340: ce78 d63c bff9 b2bc 975e e33b 73e6 53bc
00000350: e3b6 1bbd a1cf 1cbd 2b51 ccbc acd6 3d3d
00000360: 8f8b 053d fa2a acbb 686e 803c 1a02 343d
00000370: 0380 bd3c aa19 7b3b b28c 683d 3f76 27bd
00000380: 4650 87bc 62a8 debb bba7 e73c 9750 df3c
00000390: 32fd 823b d35a 8dba 2fa2 143d d842 d3bc
000003a0: 8ac5 60bd b29d 1ebd 8dd1 1d3c 60bf f93c
000003b0: b764 fb3c 0783 1dbd f545 4fbd 3eb5 3fbd
000003c0: 9676 093a 5f8b 19bd 79de 59bd 2a21 123b
000003d0: 3906 ddbc 7ac5 15bc bb5e 9a3a 6515 24bd
000003e0: a0b1 b23c 794d b33c 45b1 72bd 4f37 29bc
000003f0: c586 013b 0bf3 26bd 7a13 483d e983 52bd

layers.4.bias f4 [256]
-0.0074401805 -0.006132789 -0.045593716 -0.039837044 0.021892903 0.02595191 -0.043761265 -0.010097371
0.026733527 0.060622077 0.013868206 0.0045112604 0.028810818 -0.013376902 -0.018676704 0.034946382
-0.055120837 0.042346682 0.0007321818 0.04697974 -0.0115694525 0.024817698 -0.053319782 0.005745038
0.056142546 0.045147497 0.049981963 0.017942043 -0.057510898 -0.058106378 -0.037537605 -0.060742963
-0.039659005 -0.040080816 -0.062476497 0.0066384356 0.017626023 0.054126058 0.04183833 0.026506234
-0.052056633 0.015698088 0.03695756 -0.0125421025 -0.0285683 0.035365008 0.03930464 0.02279768
0.036079753 -0.035623696 0.04570497 -0.033272054 0.054253623 0.061403062 -0.052074403 0.0576201
-0.060455915 0.013794675 0.047635138 0.038793176 0.044433102 -0.045951016 -0.03344624 -0.007778722
0.051011596 -0.045144863 0.058109988 -0.015706455 0.01753031 -0.06089902 0.05074198 0.0126177585
0.013103809 -0.052067455 -0.04934553 -0.0073318984 0.019575985 -0.041980684 0.06154349 0.015768636
0.00060027844 0.031116396 -0.02948818 0.050649714 0.005469695 -0.053705886 0.02865511 0.048247058
-0.05310751 0.016560555 0.014370473 0.033939898 0.03703158 -0.048339214 -0.040774025 0.05705462
-0.05341848 0.005582371 0.042289905 -0.036189754 0.03771263 0.035068255 -0.047773466 0.045662493
-0.022558229 -0.019111283 0.016938884 -0.035121035 -0.062242024 -0.017868798 -0.028064784 0.010629501
0.019075828 0.036996365 0.04670526 0.012148586 0.038633008 -0.058792606 0.029728768 0.01874576
-0.005523204 -0.041960306 -0.0066820015 -0.0043445914 -0.027822599 -0.042837597 -0.060165886 0.05431301
-0.057770595 0.022482917 -0.02760703 0.059578016 0.035503436 -0.0029391802 0.031206386 -0.021905616
-0.011957811 -0.018175105 0.03570098 0.029857202 0.041462094 0.045246232 -0.03287789 -0.015959652
-0.03787447 0.054430984 0.016343046 0.018839864 0.016875114 0.01951174 -0.032558113 -0.017116487
-0.024613196 0.05272619 -0.022225225 -0.05520465 0.03176354 -0.030516615 0.042918157 -0.018865647
0.04133147 0.019855427 0.04288092 -0.011036646 0.021156158 0.0428122 0.053236894 0.016412089
0.05543174 0.03432146 0.033723097 0.032749735 -0.054276943 -0.010792896 0.056601234 0.057365894
0.05793514 0.038621258 -0.0039304085 0.056989416 0.025473904 -0.0484848 0.009769617 -0.049327865
0.022761727 -0.025801405 0.04218302 -0.042799056 0.036499027 0.032224238 0.046788134 0.054297194
0.018358475 -0.035960816 -0.057579838 0.06010738 0.018557785 0.030017924 0.061802845 0.04072805
-0.04206596 0.058019996 -0.057121497 0.028508244 0.03759973 0.05979136 -0.05374715 0.060865343
-0.03158474 -0.021436408 0.028302033 0.023547746 -0.023206221 0.0035307964 -0.019887716 0.046208307
-0.0028900139 -0.04445058 0.0027342539 -0.03513056 -0.006429072 0.0118871415 -0.008498643 -0.04555488
-0.028346553 0.04471736 -0.028111793 0.038323812 0.012617404 -0.007144821 0.047556333 -0.035575088
0.0564092 -0.038671743 -0.047697235 0.04562265 0.010473864 -0.040937632 0.048705816 0.04705228
0.05169958 -0.061567023 0.023705488 0.044543684 -0.017008778 0.050873205 0.0056018946 -0.02211697
0.010540868 -0.033797603 0.006810617 -0.041467756 -0.037383206 -0.044670682 -0.027966242 0.046801735
00000000: c2cc f3bb 90f5 c8bb 7ac0 3abd 2b2c 23bd
00000010: bf58 b33c 1a99 d43c 033f 33bd 726f 25bc
00000020: 4500 db3c db4e 783d 7937 633c 32d3 933b
00000030: aa04 ec3c cb2a 5bbc e3ff 98bc f023 0f3d
00000040: 63c6 61bd b773 2d3d e4ef 3f3a d46d 403d
00000050: cd8d 3dbc 7c4e cb3c d865 5abd df40 bc3b
00000060: baf5 653d 95ec 383d e3b9 4c3d 31fb 923c
00000070: 8c90 6bbd f400 6ebd 08c1 19bd 9dcd 78bd
00000080: 7b71 22bd c82b 24bd 5be7 7fbd 3c87 d93b
00000090: 7364 903c 49b3 5d3d ab5e 2b3d 9a23 d93c
000000a0: 5639 55bd 4799 803c cf60 173d 647d 4dbc
000000b0: 1108 eabc e6da 103d e7fd 203d 33c2 ba3c
000000c0: 5dc8 133d 27ea 11bd 2235 3b3d 4748 08bd
000000d0: 0c39 5e3d c781 7b3d f84b 55bd 0e03 6c3d
000000e0: 9fa0 77bd 0f03 623c 101d 433d 98e5 1e3d
000000f0: 7cff 353d 2237 3cbd edfe 08bd a6e4 febb
00000100: 89f1 503d d2e9 38bd bd04 6e3d d3aa 80bc
00000110: ba9b 8f3c 4071 79bd d3d6 4f3d b7ba 4e3c
00000120: 5cb1 563c af44 55bd 8a1e 4abd 6c40 f0bb
00000130: d15d a03c f0f3 2bbd 0715 7c3d 3a2d 813c
00000140: 015c 1d3a d0e7 fe3c 3291 f1bc 1376 4f3d
00000150: 213b b33b b4fa 5bbd 1fbe ea3c b59e 453d
00000160: 4387 59bd 00aa 873c 2272 6b3c 9004 0b3d
00000170: 6dae 173d 57ff 45bd aa02 27bd 1bb2 693d
00000180: 56cd 5abd 52ec b63b 2e38 2d3d b53b 14bd
00000190: 8f78 1a3d bba3 0f3d 1cae 43bd 9808 3b3d
000001a0: 09cc b8bc 448f 9cbc 6ac3 8a3c 13db 0fbd
000001b0: 7ef1 7ebd 9661 92bc 1ee8 e5bc 5c27 2e3c
000001c0: e944 9c3c 8089 173d 044e 3f3d dd0a 473c
000001d0: a53d 1e3d 84d0 70bd bf89 f33c b590 993c
000001e0: fefb b4bb 92de 2bbd b1f4 dabb 135d 8ebb
000001f0: 38ec e3bc 7a76 2fbd 8170 76bd 5277 5e3d
00000200: dca0 6cbd 182e b83c 2328 e2bc 1408 743d
00000210: 0d6c 113d 439f 40bb 89a4 ff3c 6873 b3bc
00000220: b2ea 43bc f5e3 94bc 313b 123d 1797 f43c
00000230: 28d4 293d 1d54 393d f7aa 06bd d1bd 82bc
00000240: 4322 1bbd 06f3 5e3d dae1 853c 0f56 9a3c
00000250: ae3d 8a3c 16d7 9f3c a85b 05bd e037 8cbc
00000260: 9da1 c9bc 6bf7 573d ad11 b6bc 451e 62bd
00000270: 7c1a 023d fbfd f9bc f3ca 2f3d 218c 9abc
00000280: 304b 293d d9a7 a23c e7a3 2f3d 0cd3 34bc
00000290: ae4f ad3c d85b 2f3d ee0e 5a3d a572 863c
000002a0: 640c 633d a994 0c3d 3b21 0a3d 9624 063d
000002b0: 8051 5ebd b0d4 30bc b2d6 673d 80f8 6a3d
000002c0: 664d 6d3d 5331 1e3d a8ca 80bb bc6d 693d
000002d0: a6ae d03c ff97 46bd be10 203c 040c 4abd
000002e0: cd76 ba3c 785d d3bc 1ac8 2c3d 104e 2fbd
000002f0: 0180 153d 90fd 033d eaa4 3f3d bc66 5e3d
00000300: 8364 963c a64b 13bd d6d8 6bbd 2833 763d
00000310: 7f06 983c 26e8 f53c fb24 7d3d 75d2 263d
00000320: 5b4d 2cbd 60a6 6d3d 3bf8 69bd 1f8a e93c
00000330: 2d02 1a3d c9e7 743d f925 5cbd f04d 793d
00000340: 005f 01bd 689b afbc aad9 e73c 34e7 c03c
00000350: f91a bebc ef64 673b 90eb a2bc ec44 3d3d
00000360: 6366 3dbb d011 36bd 2b31 333b 10e5 0fbd
00000370: f7aa d2bb 49c2 423c e43d 0bbc c197 3abd
00000380: 0837 e8bc 8d29 373d b44a e6bc 6ef9 1c3d
00000390: 3ab9 4e3c 1a1f eabb 6eca 423d 2fb7 11bd
000003a0: 550d 673d 4366 1ebd 2d5e 43bd d1de 3a3d
000003b0: 929a 2b3c 38ae 27bd c07f 473d e4b9 403d
000003c0: f0c2 533d b42d 7cbd 0332 c23c 7073 363d
000003d0: fe55 8bbc 6c60 503d 1990 b73b a62e b5bc
000003e0: 9bb3 2c3c 5b6f 0abd 992b df3b 18da 29bd
000003f0: 221f 19bd 9bf8 36bd 7619 e5bc 2db3 3f3d
