models/best_fold4_hd256_do0.3.pth (torch, 425766 bytes, 20 tensors)

feature_extractor.0.weight f4 [256, 10]
000000 8f 0a 2e 3e a9 a2 2a 3e e4 4a 62 3e 91 b0 55 3e
       0.16996215 0.16663612 0.22098881 0.20868136
000010 5d 21 8c 3e 69 ea 50 3d 56 2a 48 be 38 5b 62 3e
       0.27369204 0.0510048 -0.195474 0.2210511
000020 9e d6 97 be 24 a6 9d be a1 b0 86 3e 44 b1 33 3e
       -0.29655927 -0.30790818 0.26306632 0.1754809
000030 3f 11 be 3d c6 72 80 3e fc 31 94 be ea 16 9b 3e
       0.09280633 0.25087565 -0.28944385 0.3029092
000040 1e 53 9d 3e 95 c3 61 be b6 35 7c 3e 22 c6 ba bc
       0.30727476 -0.22047265 0.24629864 -0.022799555
000050 bf 20 5a 3e 1d 84 2d be ca eb 8b be 04 77 89 be
       0.21301554 -0.16944928 -0.2732833 -0.26848614
000060 28 07 30 3e 08 fa 97 3e 39 c3 20 3e 5d 75 81 3e
       0.1719023 0.29682946 0.15699472 0.25284854
000070 fb 7b a3 be 99 9d 0e 3e 40 d6 0c bd 95 6d 3f 3e
       -0.31930527 0.13927306 -0.034384012 0.18694146
000080 65 93 96 3e 2b fd 35 3e 8b 69 e6 3c 23 2d 36 3e
       0.29409328 0.17772357 0.028126499 0.17790656
000090 ad 2a f1 bd cf f6 bc bd 73 bc a0 3b cd b6 90 be
       -0.11775718 -0.092267625 0.0049052774 -0.28264466
0000a0 ee 43 cf bd 7e d2 62 3e 99 48 83 be a6 2b 08 3e
       -0.101203784 0.22150609 -0.25641325 0.132979
0000b0 02 1b 8b be 8b eb f9 bb cc c4 5b 3e a5 10 5d 3e
       -0.27169043 -0.007626956 0.21461791 0.2158838
0000c0 41 e6 84 be da 05 d4 bd 67 8b 94 bd 03 ba a0 be
       -0.2595692 -0.103526786 -0.072531514 -0.31391916
0000d0 b9 d8 b0 3d 63 4b 2e 3e 73 79 6a 3e b5 69 7b be
       0.086350866 0.17020945 0.22897892 -0.24552043
0000e0 32 6c 7f bd 02 a8 0c be 17 f3 5d be a6 a9 32 3e
       -0.062359042 -0.13735965 -0.21674763 0.17447528
0000f0 55 cc 77 3e 7d e5 90 3e 69 d7 96 3e c9 b7 10 be
       0.2419904 0.28300086 0.2946122 -0.14132608
000100 8d 98 9f bd b1 e9 33 be ce da 33 3e 09 a3 84 3d
       -0.077927686 -0.17569615 0.17563936 0.06476409
000110 73 df 01 3e e5 0d 72 3e 57 c1 75 be e0 de 75 be
       0.12682895 0.23638113 -0.23999535 -0.24010801
000120 dd f3 65 3e 92 93 82 be 4b dd e8 3d 11 e9 9f be
       0.22456308 -0.25503212 0.11370333 -0.31232503
000130 d1 58 08 3e e3 c4 6a be 15 d2 04 bd af 15 44 3d
       0.13315131 -0.22926669 -0.032426912 0.04787224
000140 fb 7c ab 3e e4 80 6c 3e f9 73 87 3e f0 2b a7 3c
       0.3349379 0.23096043 0.26455668 0.020406693
000150 bd 13 07 3e 8c 46 75 3d b7 d3 1f 3e d9 4f 24 3e
       0.13191123 0.059881732 0.15608107 0.16046084
000160 64 7a 37 3e 67 79 03 be 57 62 91 be 1b c4 34 be
       0.17917782 -0.1283928 -0.2839534 -0.17652933
000170 18 c9 cd bc 62 3e 25 be 29 29 33 3e 5f 8e 33 3e
       -0.025120303 -0.16137078 0.1749617 0.17534779
000180 4b bb 9b bd b5 c7 63 3d 72 dd 69 3e 86 d6 2d be
       -0.07604083 0.055610377 0.22838381 -0.16976365
000190 6c c5 81 be 62 12 a1 3c a1 46 dc bc 0a c4 8c 3e
       -0.25345933 0.019662086 -0.026889147 0.27493316
0001a0 17 fe 45 3e 36 ba 67 bd 5b fb eb 3d 1a 7f f8 bd
       0.19335209 -0.05657407 0.115225516 -0.12133618
0001b0 aa 3a a9 be 30 fb 09 bc 81 7f c1 3d 2f ad 0c be
       -0.3305257 -0.008421704 0.094481476 -0.1373794
0001c0 f8 95 17 3e 78 77 8d 3e e2 8c a2 3d 52 41 9d be
       0.14803302 0.2763021 0.079370275 -0.30713898
0001d0 8d 1d 83 3e 33 98 ba 3d 56 c8 6d bd 89 20 51 3d
       0.25608483 0.09111061 -0.058052383 0.05105642
0001e0 d2 16 01 be 2d 3e 8a 3d 56 22 14 3c 7f bc 67 be
       -0.12606362 0.0675014 0.009041389 -0.226305
0001f0 d1 f5 d0 3d 63 ee 84 3d 06 2d ab 3d 0c 68 84 3e
       0.10203136 0.06490781 0.08358197 0.2586063
000200 2f 4c 30 be ca c7 99 be 30 99 c4 3d e9 63 87 3d
       -0.17216562 -0.3003524 0.09599531 0.06610853
000210 4e b1 7d be bb bb 78 be 7b e0 50 3e 3e a9 21 be
       -0.24774668 -0.24290363 0.20398133 -0.15787217
000220 f2 9a 67 3e c8 ac fa 3d 76 e9 58 3e bc f9 72 bd
       0.226177 0.12239987 0.21182808 -0.059320197
000230 ef 19 19 3e f5 6b 8f 3e 04 7c 13 3e 5b d9 3b 3e
       0.14951299 0.28012052 0.14402777 0.18344633
000240 f8 c6 86 be 6a 4c 65 3e 86 bd 73 3e 1c 1c 9f 3e
       -0.26323676 0.22392431 0.23802766 0.31076133
000250 52 68 95 be f6 05 97 3e c3 6a 7d 3e 11 76 8b be
       -0.29181153 0.29496735 0.24747758 -0.27238515
000260 ec ef 26 3e 7d 91 fb 3d 92 37 d2 bd cd a6 74 3e
       0.1630246 0.12283609 -0.102645054 0.23891754
000270 19 c4 50 bd 90 36 4a 3e da 92 bf 3b f4 9e 32 be
       -0.050968263 0.19747376 0.0058463635 -0.17443448
000280 50 86 4b 3d 0a 31 83 be dc 63 8d 3e 95 29 c6 bd
       0.049688637 -0.2562335 0.2761525 -0.096759
000290 0a e1 7b be 8f 74 04 3e 89 3e 17 be 23 e2 02 3e
       -0.24597564 0.12935089 -0.14769949 0.12781577
0002a0 12 c3 87 3d 87 79 90 bd b6 d8 05 3e c7 aa 8a be
       0.066290036 -0.070544295 0.1307095 -0.27083418
0002b0 c3 ce 6f 3e 07 a8 66 bd a4 49 8e be 21 9f 57 bd
       0.23418717 -0.056312587 -0.27790558 -0.05264199
0002c0 f2 c0 7b be 14 e8 6f 3e a7 18 b5 3d a7 ff 07 3e
       -0.24585322 0.23428375 0.08842593 0.13281117
0002d0 cb 4c a8 be 07 fb 7a 3e b8 1e 7f 3e 94 ce 5e 3e
       -0.32871088 0.24509822 0.24914062 0.21758491
0002e0 00 32 30 be 58 6e 55 bd b1 64 56 3e b2 19 9b 3c
       -0.17206573 -0.052107185 0.20936848 0.01893315
0002f0 6f a5 26 3e 5a be e0 3d fd f5 a6 be 8b 98 09 be
       0.16274045 0.10973807 -0.3260955 -0.13437097
000300 cc 82 31 3d c5 2a 15 3e 4a 75 73 be 22 25 11 bc
       0.04333763 0.14567097 -0.23775211 -0.008858951
000310 cf 50 7e bd 0e 6c d6 3d f8 59 e8 bd c4 a8 08 3e
       -0.062088784 0.104698285 -0.11345285 0.13345629
000320 9f ad aa be 0c 8a d1 3d e2 94 ef 3d 81 ef 1c be
       -0.33335587 0.102314085 0.11698319 -0.15325738
000330 0b 89 2c 3e 12 f2 9a 3d 7f a8 81 be 96 e7 22 be
       0.16849153 0.075657025 -0.25323865 -0.15908656
000340 fb c6 40 3e 6e 1d 77 be 58 5a 2c be 0e cd 8f 3e
       0.18825905 -0.2413232 -0.16831338 0.28086132
000350 ca 4d 25 3e e6 ad 72 3e b2 b7 04 3e 1b c1 56 3e
       0.16142955 0.2369915 0.12960699 0.20972101
000360 e8 f7 80 be 77 55 0b 3e 79 32 5f 3e e5 5d 2a bd
       -0.25189137 0.13606821 0.21796598 -0.04159345
000370 69 9c 21 be 36 c9 92 3e 97 61 77 be de b6 8a be
       -0.15782322 0.28669137 -0.24158321 -0.27092642
000380 5f ff 8e be fe ce 09 be 3d d1 dd 3d 61 59 87 3d
       -0.27929208 -0.13457868 0.10830925 0.066088445
000390 37 67 9e be 4d 11 92 bd b6 ad 07 3e 6b f8 e7 bd
       -0.30938122 -0.07132206 0.13249859 -0.11326679
0003a0 62 03 88 be d7 ff 77 be bc 09 f1 bd 6d b4 76 3e
       -0.2656508 -0.24218689 -0.11769435 0.24092264
0003b0 15 5a 79 3d ec 6d 1f be da 15 36 3e 26 e2 a1 bd
       0.060876925 -0.15569276 0.17781773 -0.079044625
0003c0 4a af 96 3d cd ac 44 3d 88 94 f8 bc e9 45 25 be
       0.073576525 0.04801636 -0.030344263 -0.1613995
0003d0 bd 76 56 be 04 c5 75 3e d8 6a 07 be 64 9b 9b 3d
       -0.20943733 0.24000937 -0.13224351 0.07597998
0003e0 16 66 8b be ab 08 d2 3d f2 9d 1c 3e 93 63 22 3e
       -0.27226323 0.102555595 0.15294626 0.15858297
0003f0 81 06 a1 be a9 fd 22 3d aa 03 93 3e 96 a1 e1 3c
       -0.31450275 0.03979269 0.28713733 0.02754287

feature_extractor.0.bias f4 [256]
000000 aa bb 3d be 55 dd 8e 3e ae 4f 70 be 99 90 0b 3e
       -0.1852862 0.27903238 -0.23467895 0.13629378
000010 b8 63 50 3e 6a 32 7c bd bb c2 59 3e 37 35 e1 3d
       0.2035054 -0.061571516 0.2126569 0.10996478
000020 ff a3 8f be 99 16 a2 be 07 82 93 be 3e d7 1a 3e
       -0.28054807 -0.31657866 -0.2881014 0.15121171
000030 9e 07 08 be 64 71 47 be cf 77 5e 3e 60 0c 9d 3e
       -0.13284156 -0.19476849 0.21725391 0.30673504
000040 f8 28 72 bd 26 72 65 3d ea a1 0e 3e 83 74 87 3e
       -0.059121102 0.056017064 0.13928953 0.2645608
000050 51 73 95 bd cf 08 91 be f7 ae 62 be 58 17 1a 3e
       -0.072973855 -0.28327033 -0.22137056 0.15047967
000060 98 d1 93 3e e2 3b 09 be 6c a1 58 3e 17 1f 1f 3e
       0.28870845 -0.1340175 0.21155328 0.15539204
000070 e7 61 e8 bd 7d 2f 4d 3e 03 4c 51 3e 0a 3c 2c be
       -0.113467984 0.20037647 0.20439152 -0.16819778
000080 f7 35 9b 3d 33 0b 03 3d 3b f0 a2 3e 70 9d 61 3e
       0.07578652 0.031993102 0.31823906 0.22032714
000090 ea 46 4a be a3 3e 42 bd 4c 8b 19 3e 8f 11 93 be
       -0.19753614 -0.047423016 0.14994544 -0.28724334
0000a0 11 3b 98 3e 9c e9 81 3e 49 52 67 3e 8d 11 84 3e
       0.29732564 0.25373542 0.22589983 0.2579464
0000b0 3e 03 a0 3d 6d 93 7b be 21 9f 58 be ab 75 80 3e
       0.078131184 -0.24567957 -0.21154453 0.25089774
0000c0 e9 b7 9e be 0c 8a 89 3e 53 c5 1d 3e fc 8f 9f 3e
       -0.30999687 0.26863134 0.15407304 0.3116454
0000d0 2d a8 73 3e 2d 51 1f be 60 d0 87 be 15 54 60 be
       0.23794623 -0.1555831 -0.26526165 -0.21907075
0000e0 d1 88 09 3d 26 35 11 3e b1 37 82 3d f0 52 31 3e
       0.033577744 0.14180431 0.063582785 0.17316794
0000f0 a1 8a 8d 3e a0 62 e3 bd 3f 2a 87 be b4 ad 3d 3d
       0.27644828 -0.111027956 -0.2639942 0.046308234
000100 18 59 a0 bd f8 91 8d bd 78 87 6c be 2c f6 80 be
       -0.07829493 -0.06912607 -0.23098552 -0.25187814
000110 0b 08 c4 bd 17 8a 17 be 9f 5b 8c be 71 f9 6b be
       -0.095718466 -0.14798771 -0.2741365 -0.23044373
000120 44 18 24 be 47 b5 eb bc 53 63 7a 3e bd f2 83 3e
       -0.16024882 -0.028772963 0.24451952 0.25771132
000130 f1 76 39 3d 5c e4 d6 bd 84 4e d8 bd 87 a3 55 3e
       0.045279447 -0.10492775 -0.10561851 0.20863162
000140 4c 9e ff bd 91 45 15 be 0a 57 39 3e 2d 51 94 3e
       -0.124813646 -0.14577319 0.18099609 0.28968182
000150 10 4c 59 3e 4a d2 08 3e d8 54 70 3d 6d 28 27 3e
       0.21220422 0.13361469 0.058674663 0.16324015
000160 6a 02 38 3e 41 8b c9 bb 3c 91 e3 bb a7 82 1c 3e
       0.17969671 -0.0061506336 -0.0069448035 0.15284215
000170 2b b1 54 3e 1f 4d 47 3e a5 43 76 bd 00 92 6b be
       0.20770709 0.19463013 -0.060123105 -0.23004913
000180 16 ee 30 bd 6f 2a a2 be 8f 7f ff bd e0 f8 f5 3d
       -0.043195806 -0.31673 -0.12475502 0.1201036
000190 53 29 61 3e c9 df 78 be ab 8f 91 3e 25 c6 9f 3e
       0.2198842 -0.24304117 0.28429922 0.3120586
0001a0 3e a0 ea 3d 24 65 07 be ee f9 54 3d eb 04 2f be
       0.11456345 -0.13222176 0.051996164 -0.1709172
0001b0 0b f5 98 bd db ec 19 be 11 9b 24 3e 08 ff 61 3e
       -0.07468613 -0.1503176 0.16074778 0.22069943
0001c0 ef d9 7e 3e 2b 93 54 3e 9d 9e 0f bd 88 69 5c be
       0.24887823 0.20759265 -0.035063375 -0.21524632
0001d0 92 07 72 bd af 0b f7 3b 75 92 79 3e 4e af 99 3d
       -0.05908925 0.0075392346 0.24372275 0.0750414
0001e0 e6 7e 49 be 20 40 3f 3e c8 34 89 3c 04 98 14 3d
       -0.19677314 0.18676805 0.0167488 0.036277786
0001f0 94 5f a1 be 47 9d 6c be b2 e8 9d 3e 6f d3 95 be
       -0.31518233 -0.23106872 0.30841595 -0.29262874
000200 7e 01 10 be d4 3e 4b 3e 20 90 f2 bd f4 46 90 bd
       -0.14063069 0.19848186 -0.11843896 -0.07044783
000210 5c ce 74 3e b0 34 92 3e bd ce 0f 3e b2 3d 5a 3e
       0.23906845 0.28555822 0.14043708 0.21312597
000220 0c b3 72 3d 62 de b5 bd 82 7b 1d 3d f3 4c 9b 3e
       0.059252784 -0.08880307 0.038447864 0.30332145
000230 18 be 8e 3e 8a f9 54 3d db 3f 78 be 16 96 24 be
       0.27879405 0.05199579 -0.24243109 -0.16072878
000240 fb 82 10 bd 64 2e 0f be 31 1e cf bd 66 25 77 3e
       -0.035281163 -0.1398254 -0.101131804 0.2413536
000250 69 6a 9a be 59 44 b5 3d f4 dc 29 be ed 1e 0b be
       -0.3015931 0.08850927 -0.16588193 -0.13586016
000260 a9 44 f0 bd 76 18 8c 3e 93 79 7e be 78 7f cb 3d
       -0.11731846 0.27362412 -0.24851064 0.09936422
000270 c4 e6 1b bd c5 01 8a 3e e2 c9 83 be 07 29 10 bc
       -0.038061872 0.26954475 -0.25739962 -0.008798844
000280 3d a3 db 3c 92 03 07 be e8 dd 2f 3e 4a 6f 6c 3e
       0.026811237 -0.13184956 0.17174494 0.23089328
000290 31 bd 08 3e 30 73 32 3d 6c 44 31 bd 1f 81 3d bd
       0.13353421 0.043566883 -0.043278143 -0.046265718
0002a0 3a 60 01 3e 1c f3 8a be 00 e7 0d 3e ab 22 36 3e
       0.12634364 -0.27138603 0.13857651 0.17786662
0002b0 23 ff 04 be 22 f4 45 be 4c d5 8d 3e 1d 29 7f bc
       -0.12987952 -0.1933141 0.27701795 -0.015573767
0002c0 ae 2a 63 be 9f 76 8c 3d 1a 2d 95 3d 41 18 6f be
       -0.2218425 0.06858563 0.07283993 -0.23349096
0002d0 58 cf b6 bc 11 2d 79 3e 0b f7 8a be 0f 56 45 3e
       -0.022315666 0.24333598 -0.27141604 0.1927111
0002e0 f6 cc 21 be 80 2d 30 be dd 48 74 bd d9 d9 8c be
       -0.15800843 -0.17204857 -0.0596398 -0.27509955
0002f0 5e ba 5d be 28 43 c5 bd 40 19 9a 3e 92 6a 76 bd
       -0.21653125 -0.0963195 0.3009739 -0.060160227
000300 bb 00 c4 3d 93 e8 a9 3c bc 12 8a be 3c ff 34 3d
       0.09570452 0.020740783 -0.26967418 0.044188723
000310 e1 ea 6a bc 78 32 8c be f0 43 83 be da 9e 36 be
       -0.014338226 -0.27382255 -0.2563777 -0.17834035
000320 97 b5 bf 3c 97 9c 8a 3d 5b 3a db bd 5b ff 80 be
       0.023402018 0.067681484 -0.1070449 -0.2519482
000330 73 af 7b be fa 8d 6b 3e 00 2b 4e 3d 7b ed 59 3d
       -0.24578647 0.23003379 0.050333977 0.053204995
000340 8f 0a a4 3d 37 a6 04 bd 06 96 90 be fb c8 9a 3e
       0.080098264 -0.032385077 -0.2823946 0.3023146
000350 5b 27 5b be 04 96 96 3d 6a 9b 03 3e 30 54 66 be
       -0.21401732 0.07352832 0.12852255 -0.22493052
000360 23 ca 5d bd 54 3c 95 3e e8 25 97 3e 10 94 53 be
       -0.05414785 0.2914759 0.29521108 -0.2066195
000370 50 0a 63 3e ef dd 94 be 5a a1 17 3d 11 da 28 be
       0.22171903 -0.29075572 0.03701911 -0.16489436
000380 cb 33 8d 3e 08 f6 92 3e e1 12 00 bd e9 0d 34 be
       0.27578577 0.28703332 -0.031268004 -0.17583431
000390 6f 31 8d be da 09 18 be 67 19 1c be 38 af 40 3e
       -0.27576777 -0.14847508 -0.15244065 0.1881684
0003a0 ca e4 c1 3d 69 df 3f 3c ad 90 2d bd 37 28 94 3e
       0.09467466 0.01171098 -0.0423743 0.28936931
0003b0 c4 72 0f 3e 10 35 f5 3d 79 73 6c 3e 3d cb d0 bd
       0.14008623 0.119730115 0.23090924 -0.101950146
0003c0 b0 95 40 3e 0b 47 41 3e fa a1 ca bc c9 d9 a0 be
       0.18807101 0.18874757 -0.02473544 -0.31416157
0003d0 49 0c 7c 3e 01 0c 53 3e 1f 64 1d 3e f6 64 ce bd
       0.24614061 0.20610048 0.15370224 -0.100778505
0003e0 ef b3 69 3e 62 17 7e be 65 2c 83 be 85 8e 1a be
       0.22822545 -0.24813607 -0.25619808 -0.1509343
0003f0 03 44 31 3e 86 13 9e be c2 09 2a 3e b9 94 a1 be
       0.173111 -0.3087427 0.16605285 -0.3155878

feature_extractor.1.weight f4 [256]
000000 87 74 7e 3f 68 5d 7e 3f 74 a9 7d 3f 61 a0 7c 3f
       0.99396557 0.99361277 0.9908669 0.9868222
000010 75 b1 7e 3f 49 b9 7a 3f 48 88 7c 3f b7 31 7e 3f
       0.9948953 0.9793897 0.9864545 0.9929461
000020 c9 f0 7b 3f 47 90 82 3f 88 5d 80 3f 10 94 7d 3f
       0.98414284 1.020028 1.0028543 0.9905405
000030 e5 06 7d 3f 4e 55 7b 3f 01 75 7e 3f 28 0e 82 3f
       0.98838645 0.9817704 0.99397284 1.016057
000040 c9 27 7f 3f 3a ff 7e 3f 83 32 82 3f ca 56 85 3f
       0.9967008 0.99608195 1.0171665 1.0417111
000050 2e 16 81 3f 1d 03 7e 3f 55 d8 80 3f 5c f1 7d 3f
       1.0084894 0.992235 1.0066019 0.9919641
000060 86 d1 7c 3f dd d3 7d 3f 4f 4d 80 3f 7d 23 80 3f
       0.9875721 0.991514 1.0023593 1.001083
000070 4a d1 7e 3f bb 32 7d 3f 81 20 81 3f 4d de 7d 3f
       0.995381 0.98905534 1.0088044 0.9916733
000080 08 ec 7c 3f c7 8f 83 3f 64 6a 83 3f 90 b0 7e 3f
       0.98797655 1.0278252 1.0266843 0.99488163
000090 93 af 81 3f a6 f6 80 3f c5 1c 80 3f ba 7b 7c 3f
       1.0131706 1.0075271 1.000878 0.9862629
0000a0 02 01 7e 3f c2 4f 80 3f 82 f0 7f 3f 99 36 7c 3f
       0.9922029 1.002434 0.9997636 0.9852081
0000b0 30 81 7f 3f 2d 5d 7f 3f 7a c9 7e 3f b6 15 7c 3f
       0.998065 0.9975155 0.9952618 0.9847063
0000c0 56 e2 80 3f 96 3e 7c 3f 69 bd 82 3f 7e a7 81 3f
       1.0069072 0.98533 1.0214053 1.012924
0000d0 7e 78 80 3f f3 48 80 3f 76 03 82 3f bf 9f 80 3f
       1.0036771 1.0022262 1.0157306 1.0048751
0000e0 cb 02 80 3f 42 de 80 3f 0e 08 7f 3f bc 40 82 3f
       1.0000852 1.0067828 0.99621665 1.0176005
0000f0 79 0c 7b 3f de 22 80 3f 6c 07 83 3f 9a a2 7e 3f
       0.98065907 1.0010641 1.023664 0.9946686
000100 c6 d8 7f 3f 4b 0a 7d 3f 10 cd 7a 3f c5 d4 80 3f
       0.99940145 0.9884383 0.9796915 1.0064932
000110 35 bd 7e 3f e5 29 7d 3f 8f bc 80 3f df d2 7e 3f
       0.99507457 0.9889205 1.0057544 0.99540514
000120 d2 a4 79 3f 82 36 81 3f 02 e4 80 3f 2b 37 7d 3f
       0.9751712 1.009476 1.0069582 0.98912305
000130 77 34 7d 3f b0 61 80 3f b6 15 7d 3f 8c 6f 7f 3f
       0.9890818 1.0029812 0.98861253 0.9977958
000140 ee af 80 3f c1 04 80 3f 0a d8 80 3f f8 f1 7b 3f
       1.005369 1.0001451 1.006593 0.9841609
000150 86 59 7e 3f 17 ee 81 3f db c2 7d 3f 40 9c 81 3f
       0.9935535 1.0150784 0.9912545 1.0125809
000160 90 eb 7d 3f ba 12 80 3f 0f 62 80 3f e9 f5 7c 3f
       0.99187565 1.0005715 1.0029925 0.9881273
000170 fe 85 7e 3f 8b c4 7d 3f dc 59 81 3f 9d 86 7a 3f
       0.99423206 0.99128026 1.0105548 0.97861654
000180 82 b1 7f 3f 0a 52 7f 3f d7 aa 7b 3f 44 5f 7e 3f
       0.9988023 0.99734557 0.98307556 0.99364114
000190 97 d3 7c 3f 33 de 7d 3f 13 4e 7b 3f 94 c9 7f 3f
       0.9876036 0.99167174 0.98166007 0.9991696
0001a0 e9 f4 80 3f 8c ae 80 3f d3 98 7f 3f 33 20 82 3f
       1.0074741 1.0053267 0.99842566 1.0166076
0001b0 7d 3f 80 3f 2f 4f 7e 3f d9 10 80 3f bc 56 80 3f
       1.0019375 0.99339575 1.0005141 1.0026469
0001c0 ca b3 81 3f 75 3d 79 3f 11 36 7e 3f f1 0e 80 3f
       1.0132992 0.973594 0.9930125 1.000456
0001d0 ef 2e 81 3f 42 c9 80 3f b9 1b 82 3f d6 87 7f 3f
       1.0092448 1.0061419 1.016471 0.99816644
0001e0 b4 3f 86 3f e7 e2 7d 3f 7a 42 80 3f 76 59 7f 3f
       1.0488191 0.9917435 1.0020287 0.9974588
0001f0 f6 6f 7e 3f 63 9f 7c 3f 81 34 83 3f b8 de 7e 3f
       0.9938959 0.98680705 1.0250398 0.9955859
000200 c4 1f 7f 3f d4 07 7f 3f 07 16 7c 3f 1a 05 83 3f
       0.99657845 0.9962132 0.9847111 1.0235932
000210 f9 52 7a 3f da 24 81 3f c1 d6 80 3f 28 55 80 3f
       0.97782856 1.0089371 1.0065538 1.0025988
000220 b1 5a 81 3f eb a6 82 3f 02 80 7e 3f 14 33 80 3f
       1.0105802 1.0207189 0.99414074 1.0015588
000230 1f fa 7c 3f 17 38 7e 3f c3 f0 7f 3f 5d 2a 83 3f
       0.98819155 0.99304336 0.9997675 1.0247303
000240 a4 bd 83 3f bc ca 80 3f 59 a0 82 3f 35 e1 83 3f
       1.0292249 1.006187 1.0205184 1.0303103
000250 c6 17 80 3f 3b 89 7d 3f 89 7d 81 3f ab f9 7d 3f
       1.0007255 0.9903752 1.0116435 0.9920909
000260 58 f6 7d 3f 67 3d 81 3f 55 ee 7f 3f cf 95 7e 3f
       0.99204016 1.0096864 0.9997304 0.9944734
000270 b3 7c 7c 3f 51 14 80 3f 52 e8 7e 3f f6 00 7c 3f
       0.98627776 1.00062 0.9957324 0.98438966
000280 f7 9e 80 3f b3 ea 7d 3f 2b c8 80 3f 4c d4 7e 3f
       1.0048512 0.9918625 1.0061086 0.9954269
000290 81 43 7f 3f 0f 97 7d 3f 01 48 7f 3f 5b bf 82 3f
       0.9971238 0.9905862 0.99719244 1.0214647
0002a0 6a dc 7b 3f 17 65 82 3f 00 9a 82 3f 2b b5 7e 3f
       0.983832 1.01871 1.0203247 0.9949519
0002b0 39 ec 82 3f 25 60 78 3f 4c 1e 7f 3f 3a 26 81 3f
       1.022834 0.97021705 0.99655604 1.0089791
0002c0 44 5f 80 3f f0 da 7f 3f 9a 39 7d 3f 78 56 81 3f
       1.0029073 0.9994345 0.9891602 1.0104513
0002d0 df 85 80 3f dd 48 81 3f b1 83 7b 3f eb 50 84 3f
       1.0040854 1.0100361 0.9824782 1.0337194
0002e0 ac 13 7c 3f b2 4a 7e 3f 3c 84 7c 3f 22 6e 7f 3f
       0.98467517 0.99332726 0.98639274 0.99777424
0002f0 87 38 7b 3f 53 1a 7e 3f 81 98 82 3f 91 fd 7f 3f
       0.9813313 0.9925892 1.020279 0.99996287
000300 1e 38 7f 3f 99 7d 7d 3f e8 d9 80 3f 23 7c 7d 3f
       0.99695003 0.9901977 1.00665 0.9901754
000310 98 0d 80 3f e7 c0 81 3f ec 7a 7d 3f d7 cd 81 3f
       1.0004148 1.0136994 0.9901569 1.0140942
000320 7b ff 7b 3f 33 bb 7a 3f e6 e7 7f 3f 29 b7 80 3f
       0.9843671 0.97941893 0.99963224 1.0055896
000330 0f db 81 3f 8c 23 7a 3f 31 49 7c 3f 6f cb 7d 3f
       1.0144976 0.9771049 0.9854918 0.9913854
000340 8c f2 7b 3f cb dd 7c 3f 6f f2 80 3f 07 45 82 3f
       0.9841697 0.9877593 1.0073985 1.0177315
000350 19 46 7c 3f d8 09 7e 3f 34 ac 80 3f 82 7e 7c 3f
       0.9854446 0.9923377 1.0052552 0.98630536
000360 a0 29 7f 3f 91 96 80 3f 4c 1f 7f 3f b3 a5 81 3f
       0.9967289 1.0045949 0.9965713 1.0128692
000370 c1 32 83 3f a7 b3 7f 3f 89 92 7c 3f 62 84 7b 3f
       1.0249864 0.998835 0.98661095 0.98248875
000380 47 0f 7e 3f e5 4b 80 3f db c3 7f 3f 46 8c 7d 3f
       0.9924206 1.0023161 0.99908227 0.99042165
000390 c7 d3 7d 3f 47 bd 79 3f 88 bb 80 3f bd 33 7d 3f
       0.9915127 0.9755444 1.005723 0.9890707
0003a0 30 a9 7f 3f 72 d2 7e 3f bc 6a 7d 3f ea 46 80 3f
       0.99867535 0.99539864 0.9899099 1.0021641
0003b0 d4 63 7d 3f 22 46 7e 3f 25 6f 82 3f a1 f8 7d 3f
       0.9898045 0.99325764 1.0190169 0.992075
0003c0 8a 4b 7f 3f b9 10 83 3f 2a d6 7c 3f ed 5f 7c 3f
       0.9972464 1.0239478 0.9876429 0.9858387
0003d0 ea 32 80 3f de ee 7b 3f dc 5b 7d 3f 8d a9 81 3f
       1.0015538 0.9841136 0.9896829 1.0129868
0003e0 73 91 79 3f 9d 0f 7d 3f f6 b6 81 3f 05 63 7d 3f
       0.9748756 0.9885195 1.013396 0.98979217
0003f0 de 24 7d 3f 26 58 7a 3f ed df 82 3f 09 c7 82 3f
       0.9888438 0.97790754 1.0224587 1.0216991

feature_extractor.1.bias f4 [256]
000000 88 74 bd 3b 21 48 1e 3c 51 23 e3 3b fd 01 ba bc
       0.005781714 0.009660752 0.0069317003 -0.022706026
000010 6e ec 2d bc 13 24 bf bc f7 43 db bb ed 60 c9 3a
       -0.010615451 -0.023332631 -0.0066914517 0.0015363969
000020 bc 6e 79 bc ff b5 5c 3c b1 11 2f bc a2 e8 1d bc
       -0.015224155 0.013471126 -0.01068537 -0.0096379835
000030 42 9c e6 bc 4d fb 95 bc 38 04 30 bc 2f 3b 94 3c
       -0.028150681 -0.018308306 -0.010743193 0.018094627
000040 1b ab 19 3b 98 7d 05 bb a7 a2 8c bb 7c c4 48 3c
       0.0023447934 -0.002036905 -0.0042918506 0.012253877
000050 ff bf 8f bc e1 37 76 bc 42 36 e5 3b c5 90 b8 bb
       -0.017547606 -0.015027971 0.0069949934 -0.0056324922
000060 2d c3 71 bc 1d c6 b3 ba e9 79 be 3b ed 8c 3d bb
       -0.014756006 -0.0013715659 0.0058128727 -0.002892311
000070 76 52 5b bc f8 6a 68 bc 1b 37 90 3c e8 c0 6e bc
       -0.013386359 -0.01418566 0.017604401 -0.01457236
000080 8b c2 2c bc 9b f8 d3 3c d2 a8 83 bb c7 3f 41 ba
       -0.0105444295 0.02587538 -0.0040179277 -0.0007371869
000090 0e 28 76 3c 70 9e e4 3b b4 05 26 bc 8c a8 11 3c
       0.015024198 0.006976895 -0.010133196 0.008890282
0000a0 56 92 5f bb 26 cf cc bc 68 71 11 ba 8c 3e ab bc
       -0.0034114323 -0.02500112 -0.000554821 -0.020903848
0000b0 e2 bd 02 bc a3 a6 f6 b9 24 15 b8 bb c1 a3 a8 bb
       -0.007979842 -0.0004704493 -0.0056177545 -0.005146474
0000c0 f0 46 7d ba c0 97 ca bc f0 b1 75 3a 74 6a 31 3c
       -0.00096617546 -0.024730563 0.0009372523 0.010828603
0000d0 22 75 ae 3b 8e 08 bf 3b 89 63 10 3d 6a cf 8e 3c
       0.005324022 0.005829877 0.035251174 0.017432887
0000e0 0e 87 af 3b 98 0d 70 bc ca f2 8c bb 86 57 6f bc
       0.005356676 -0.0146516785 -0.0043014036 -0.01460827
0000f0 ea 42 f2 ba 55 ab 69 3c dc 39 99 3c 98 33 c2 bb
       -0.0018483077 0.01426204 0.018704347 -0.0059265606
000100 12 5a 2b 3b 22 75 94 bc 9d 7c 66 bc f3 9b ba ba
       0.0026146215 -0.01812226 -0.014067796 -0.001423715
000110 29 50 cb bc a2 82 3a bc 0c 45 e6 3c 9e 9c 32 bd
       -0.024818497 -0.011383684 0.028109096 -0.043606393
000120 23 44 bb bc 77 58 80 3c 2c e8 f6 3b 13 1f ea 3b
       -0.022859639 0.015667183 0.0075350013 0.0071448176
000130 dd 0c 13 3b e2 34 e4 bb 7e 01 e5 bc f0 b2 08 3c
       0.0022438087 -0.006964312 -0.027954813 0.008343443
000140 24 49 bd 3c 3a fe 06 3c 42 7a c3 3b 6d f2 c7 bc
       0.023106165 0.008239323 0.005965502 -0.02440759
000150 9a 62 3c bc 99 b0 2e 3c 2f b2 8c bc d3 ba 1e 3c
       -0.011498118 0.010662221 -0.017174808 0.009688097
000160 8f 56 45 bb db 98 f9 bb 16 5f af 3c b6 d5 db bc
       -0.0030111407 -0.0076170987 0.021407645 -0.026835304
000170 df bb eb 3b a3 1e 9b 3b df 25 2b 3c f8 2d 81 bc
       0.007194027 0.004733877 0.010446041 -0.01576899
000180 a6 a6 11 3b 2b d9 24 3c b9 7e 7d bc 97 03 5a 3a
       0.0022224574 0.0100615425 -0.015472108 0.0008316575
000190 5a 32 b9 bc c8 4e 24 bc 2a f8 e2 bc b5 49 cc 3a
       -0.022607017 -0.010028549 -0.027706224 0.0015585931
0001a0 ee 6d 96 b9 e4 b1 9a 3c 7e 68 06 bb 20 66 6a 3c
       -0.00028692133 0.018883653 -0.002050906 0.014306575
0001b0 5b af 1b bd 5e 38 53 3c e2 53 ac 39 63 31 af bb
       -0.03800903 0.012891857 0.00032868894 -0.0053464635
0001c0 6a bd af bc 08 13 bd bc c1 3e a6 bc 8a d6 94 bb
       -0.021452624 -0.023080364 -0.020293595 -0.0045421766
0001d0 6e bb f9 3b 6a 8e 30 bc 3a 24 12 3d 6b c6 cd ba
       0.0076212203 -0.010776142 0.03567908 -0.0015699392
0001e0 d7 69 04 3d 57 1f d1 bb 07 9a be bb c5 9b 85 3b
       0.0323275 -0.00638191 -0.0058167013 0.004077407
0001f0 28 f2 e1 39 cf c4 a6 3a 8e 7e 8e 3c c1 2d 72 bc
       0.00043095765 0.0012723448 0.01739433 -0.014781416
000200 f2 ca b1 3c cb a2 82 bc 77 7b ee bb 5c b9 b0 3c
       0.021703217 -0.015946766 -0.0072779018 0.021572761
000210 6e bb 97 bc 94 c2 b2 3c 0c bb e2 3c 72 5b bc 3b
       -0.01852199 0.021821298 0.027677082 0.005748206
000220 b9 db dd bb 92 ab f8 3c 3b 17 b9 bb 3b ef ac bc
       -0.0067705777 0.030355249 -0.0056485212 -0.021110168
000230 15 85 22 bc 6b eb 4c 3c 9a e0 87 3c 52 cd c3 3a
       -0.009919425 0.0125073 0.01658659 0.001493851
000240 7d c7 02 3d d1 ec 02 ba c3 c0 80 3c 21 dd 89 3c
       0.031928528 -0.0004994395 0.015716916 0.016829075
000250 a3 95 95 ba 7e c4 5f 3b 06 09 a8 bb 2e c2 40 bc
       -0.0011412393 0.0034144218 -0.005128029 -0.011765046
000260 85 78 48 bb 32 f1 0e 3c e7 11 99 3c 85 40 0a bc
       -0.0030589413 0.008724498 0.018685294 -0.008438234
000270 9c da 0b bc 22 a5 54 bc 66 30 cd bc 44 f1 78 bc
       -0.008536007 -0.012978824 -0.025047492 -0.015194241
000280 ab 88 73 bc 24 de a9 bc d5 56 13 ba de 8a 8d 3b
       -0.014864127 -0.020735808 -0.0005620544 0.004319533
000290 eb 29 bd 3b b6 28 50 bc 4b 3c fb 3b b4 95 9f 3c
       0.0057728193 -0.012705019 0.0076670996 0.019480564
0002a0 34 25 ad bc cd 2b 86 bc f4 01 5f bc fc 26 f1 bb
       -0.021135904 -0.016378308 -0.0136113055 -0.0073593836
0002b0 07 72 b8 3c 90 1e 0c bc 0e 24 34 bc 3e b9 d1 bb
       0.02251531 -0.008552209 -0.010994924 -0.0064002564
0002c0 ae c3 86 3c d5 f5 4f bc 8d 24 93 bb d3 63 85 3c
       0.01645073 -0.012692888 -0.004490441 0.016282951
0002d0 74 2e 82 ba 88 ca ea 3b b9 4b c9 bc 8c 3c f7 bb
       -0.0009932057 0.007165257 -0.02457224 -0.0075450595
0002e0 9e 35 8d bc 17 ad 60 bb d1 55 ea bc b7 2c 89 bc
       -0.01723748 -0.0034282857 -0.028605374 -0.016744955
0002f0 90 fa 6f bc d5 90 3b bc 6c 1f 45 3c 16 ed 16 bb
       -0.014647141 -0.011448105 0.012031417 -0.0023029498
000300 7e a6 56 bc d8 51 cf 3b eb 9a 03 bc 3e da 5b bb
       -0.013101218 0.006326895 -0.008032541 -0.003354683
000310 b8 15 18 bc eb 6c 5b 3b 4d af 6a 3b c6 24 e4 3c
       -0.009282522 0.0033481668 0.0035810054 0.027849566
000320 e6 3a db bc 6f 12 0c bd 80 64 dd 39 60 f0 2c bc
       -0.026761483 -0.034197267 0.00042227283 -0.010555357
000330 10 7e a4 3c e9 1b c9 bc 2f f2 80 bc 3d 1a 28 3c
       0.020079643 -0.024549441 -0.015740482 0.010260162
000340 99 e5 26 ba ab 0d 68 bc ca eb 0d 3c b7 56 0f 3d
       -0.000636661 -0.014163415 0.0086621735 0.034994807
000350 ef 3d 5f bc d3 14 0b bc 1c 3e bf 3c a5 c8 ae ba
       -0.013625606 -0.008488852 0.023345046 -0.0013334943
000360 1a 08 b1 3b a6 80 73 bb dd 6b 7d bc a5 0e ca 3b
       0.005402577 -0.0037155538 -0.015467611 0.0061662965
000370 10 f7 04 3d 8a 10 1f 3c 4e 35 fd bb e2 20 94 bc
       0.03246218 0.009708533 -0.0077273017 -0.018082086
000380 ef f0 b5 3b 39 f3 2e bb 45 3e 9c 3c d3 dd 21 bb
       0.005552403 -0.0026695265 0.019072661 -0.0024698868
000390 43 2f 90 3b c5 b4 d7 bc e3 b4 ea bc 4d 2d 47 bc
       0.0044001653 -0.026331315 -0.028650707 -0.012156797
0003a0 8a db 2d 3c c8 ed 82 bb fc 20 3d bc eb ec 8c 3c
       0.010611424 -0.003995631 -0.011543509 0.017202815
0003b0 8d 02 4b bc da 72 ed 3a 8a 8d 7c 3c 4e 48 88 bb
       -0.012390745 0.0018115893 0.015414605 -0.00415901
0003c0 2c 84 4b 3b 9e d9 94 3c 53 47 2a bc 9b 3e 45 bc
       0.0031054122 0.018170174 -0.010392982 -0.012038852
0003d0 63 6f a4 3c 4e 81 2a 3a 28 34 23 3b f5 17 58 3c
       0.020072645 0.0006504253 0.0024902914 0.013189306
0003e0 5b 80 33 bc 0d 83 39 bc d5 52 b3 3a 23 2c d0 bb
       -0.010955895 -0.011322749 0.0013681302 -0.0063529178
0003f0 90 75 0c bb 18 65 6a bc b3 39 b2 3c f1 f3 89 3c
       -0.0021432377 -0.014306329 0.021756029 0.016839953

feature_extractor.1.running_mean f4 [256]
000000 d4 00 1f be 19 e4 c0 3e cc 85 84 be d0 05 0c 3e
       -0.1552766 0.37674025 -0.2588333 0.13674092
000010 50 81 04 3e d4 e3 90 bd aa 78 95 3e 1e c4 6f 3d
       0.12939954 -0.07074705 0.29193622 0.05853664
000020 0d 9e 3a be d4 fd d2 be 78 c3 cb be 74 b5 42 3e
       -0.18224354 -0.4120928 -0.39797568 0.19014531
000030 e0 e7 5f be 62 9d 33 be 05 0d 41 3e 75 64 c6 3e
       -0.21865797 -0.17540506 0.18852623 0.38748518
000040 d2 1d b2 bc 3c 3b 06 3e a8 e2 07 3d 58 d1 1f 3e
       -0.021742735 0.13108534 0.03317514 0.15607202
000050 cc c0 1f be f1 fb af be 75 c3 9a be 92 1b 4c 3e
       -0.1560089 -0.34371904 -0.30227247 0.19932392
000060 14 e3 8d 3e f8 9a 00 be 1b da 83 3e 14 65 76 3e
       0.2771231 -0.12559116 0.2575234 0.24061996
000070 9c eb a0 bd 7c 6a 57 3e 1a 39 76 3e c5 e9 81 be
       -0.07857439 0.21036714 0.2404522 -0.25373664
000080 59 33 4b 3d fc bf 0d 3e 2d d1 3d 3e 5e c8 05 3e
       0.049609516 0.13842767 0.18536825 0.13064715
000090 2f a4 7b be 45 a5 90 bc de 48 8f 3e 16 37 1e be
       -0.2457435 -0.017656932 0.2798528 -0.15450701
0000a0 bd eb a2 3e 7f 87 ac 3e 5c e5 9c 3e ec 5b 4e 3e
       0.3182048 0.33697125 0.30643737 0.20152253
0000b0 b9 20 c7 3d 4b 8b 98 be 5d e3 1a be 17 41 ab 3e
       0.09723038 -0.29793772 -0.15125795 0.33448097
0000c0 42 18 5e be 8a a8 99 3e 31 97 e1 3d ff f4 3e 3e
       -0.21688941 0.30011398 0.110151656 0.18648146
0000d0 3d 3b 0f 3e 03 d4 88 bd 4c 8d af be 88 67 93 be
       0.13987441 -0.06681063 -0.34287488 -0.28789926
0000e0 17 e5 6b 3d 9d 6a bf 3d 0c 97 13 3e 31 a0 bf 3d
       0.057591524 0.09346507 0.14413089 0.09356726
0000f0 71 3d 95 3e 8c 65 8f bd 91 7e b5 be 37 b2 d0 3c
       0.2914844 -0.070017904 -0.35448125 0.025475604
000100 4e 0f 10 bd b7 70 9e bd e0 42 8b be 81 06 09 be
       -0.035170846 -0.077363424 -0.2719946 -0.13381387
000110 4b c7 23 bc 1b d3 d3 bd 35 b4 42 be 8a cc 7b be
       -0.009996246 -0.103429995 -0.19014056 -0.24589744
000120 35 6e 7c bd 43 57 00 be 27 ec a4 3e 5e 7e bf 3e
       -0.06162854 -0.12533288 0.3221142 0.37401098
000130 b1 32 05 3d 03 86 b8 bc 66 e6 90 bd c4 a0 92 3e
       0.032519046 -0.02252484 -0.07075195 0.2863828
000140 a7 e3 aa bd f5 ed d6 bd ac f7 9b 3e ca 0c 8b 3e
       -0.083442025 -0.104946055 0.30462396 0.27158195
000150 da 7f 55 3e 1c 28 73 3e ab 1f 1a 3e c1 b7 f0 3d
       0.20849553 0.2374577 0.15051143 0.11753798
000160 a1 7b 4f 3e 5e 2c db 3d 70 d6 08 be 23 b9 28 3e
       0.20262004 0.10701822 -0.13363051 0.16476874
000170 37 47 1c 3e 14 33 96 3e 54 89 36 3d 18 da b2 be
       0.15261541 0.29335845 0.04456456 -0.34932017
000180 06 cf 09 be f3 e1 cf be 03 37 23 be 3c ed 1c ba
       -0.1345788 -0.40602073 -0.15938954 -0.00059862784
000190 35 59 4a 3e d7 b7 46 be e1 52 97 3e 42 46 67 3e
       0.19760592 -0.19406067 0.2955542 0.22585395
0001a0 e6 4f 2d 3c 70 b6 16 be 85 cc 8c 3d e1 71 29 bd
       0.010578131 -0.14718032 0.068749465 -0.04136837
0001b0 62 88 19 be ec 3b 78 be 0d 33 83 3d 79 d0 21 3e
       -0.14993432 -0.24241608 0.064062215 0.15802182
0001c0 d9 a5 38 3e b7 f9 d3 3d e9 7a 83 3c ce 82 cc bd
       0.18032016 0.10350364 0.016049819 -0.099858865
0001d0 94 a0 9d bd 70 02 18 3e 46 fc 34 3e 8e dc 1a 3e
       -0.076966435 0.1484468 0.1767436 0.15123197
0001e0 99 8f a2 be f3 db a6 3d ea a7 97 3d af 26 24 3e
       -0.3175018 0.08147421 0.07405074 0.16030382
0001f0 87 c9 a4 be e6 ad ea bd 58 44 67 3e a2 0f 9d be
       -0.32185003 -0.1145895 0.22584665 -0.3067599
000200 42 9a 5a bd 73 09 39 3e fc 31 46 bc 79 ba 34 be
       -0.053369768 0.18070011 -0.012096878 -0.17649259
000210 ed 3e 6a 3e 21 d3 4e 3e 78 85 58 3e 66 4f 97 3e
       0.22875567 0.20197727 0.21144664 0.29552764
000220 12 f2 30 3e 48 76 00 be ab ce 90 3d c2 33 b9 3e
       0.17279842 -0.1254512 0.07070669 0.361723
000230 4c 26 43 3e 40 90 25 3d 9d ee c2 be 8a ed 73 be
       0.19057578 0.04042077 -0.38072672 -0.23821083
000240 be f4 15 be 02 95 89 be 17 a0 37 3d c1 f3 bc 3e
       -0.14644143 -0.26871496 0.044830408 0.3690472
000250 1f d1 78 be a5 70 9b bb fb 6f 9c bd 34 50 28 be
       -0.24298523 -0.004743653 -0.07638546 -0.16436845
000260 ed d9 25 be 09 c1 9a 3e 15 29 32 be cb fd 2d 3e
       -0.16196413 0.302254 -0.17398484 0.16991346
000270 39 7d 8b bd 2f 12 33 3e 7d 6e 50 be 91 34 2e 3b
       -0.06810994 0.17487405 -0.20354648 0.0026581625
000280 7d ec 95 bd e6 e7 54 be 6e c8 86 3e 0a 1e 8d 3e
       -0.07320497 -0.20791587 0.2632479 0.2756198
000290 5c fa 70 3e 7d 1d 35 3c 08 cd 00 3d 7a 27 45 be
       0.23533005 0.011054394 0.031445533 -0.1925334
0002a0 13 a4 7c 3d fe 25 bf be 5a c1 fd 3c 33 84 01 3e
       0.06167991 -0.37333673 0.030975986 0.12648086
0002b0 0e 38 80 be b1 ac 7b be 4e 29 9e 3e 6f ed 29 bd
       -0.25042766 -0.24577595 0.30890888 -0.0414862
0002c0 3d da 3e be ca 3a 93 3c 4b 2c 8b bd ff 04 b3 bd
       -0.18637939 0.017972369 -0.067955576 -0.08741187
0002d0 8b 23 ce 3d a1 40 a5 3e 3d 11 85 be 4e b7 cd 3d
       0.10065373 0.3227587 -0.25989714 0.10044728
0002e0 0b c1 2c be 1b 19 70 be 71 9e 11 be c8 b0 90 be
       -0.16870515 -0.23447077 -0.14220597 -0.28259873
0002f0 7b 63 21 be 81 48 b8 3a 66 c2 3c 3e 30 1f e8 bd
       -0.15760605 0.0014059694 0.18433532 -0.113340735
000300 90 61 1c 3d f8 18 8c 3c 79 e9 bf be d8 68 b2 3d
       0.03817898 0.01710175 -0.37482813 0.087114036
000310 96 34 ef 3d f9 72 30 be 03 62 cc be de 3c 8a be
       0.11679952 -0.17231359 -0.39918527 -0.26999563
000320 46 eb dd 3d 56 86 f8 3c ca db 28 be 43 e5 93 be
       0.108358905 0.030337494 -0.16490093 -0.2888585
000330 09 95 d4 bd b9 f9 b2 3e da 7d ad bc 6d b2 8b bd
       -0.10379989 0.34956148 -0.021178175 -0.068211414
000340 01 d8 76 3d 6f 8c c0 3b 91 f3 af be 13 b0 43 3e
       0.06026459 0.005876116 -0.34365514 0.19110136
000350 9d bd 86 be 8b 29 f1 3d 25 e4 4f 3d dc ba 31 be
       -0.26316538 0.11775502 0.050754685 -0.17356437
000360 36 ec e1 3c 8f f3 38 3e 1a a4 6f 3e fb 1a fd bd
       0.027578454 0.1806166 0.23402444 -0.12358662
000370 f6 f9 16 3e e0 bb 33 be b1 26 e9 3c 05 3b 1d be
       0.1474379 -0.17552137 0.028460832 -0.15354545
000380 76 b3 66 3e 57 35 7c 3e d8 d3 25 be c8 16 b7 bd
       0.22529396 0.24629723 -0.16194093 -0.08939892
000390 64 77 b8 be 71 0a 18 be ec 73 3c be 77 f2 12 3e
       -0.36028588 -0.14847733 -0.18403596 0.14350305
0003a0 bc 01 5e 3d cb 52 ea bb 27 19 1d be 18 99 66 3e
       0.054200873 -0.007150983 -0.15341626 0.22519338
0003b0 2c be 4c 3e e9 23 12 3e 16 fb b5 3d 2a 98 97 bd
       0.1999442 0.14271511 0.088857815 -0.0740207
0003c0 60 fb b8 3d 95 8a f0 3d 29 01 10 bd 56 1b 80 be
       0.09032321 0.117451824 -0.035157356 -0.25020856
0003d0 04 e0 1c 3e 94 2d 0e 3e a1 b5 54 3e cc a8 72 be
       0.1531983 0.13884574 0.20772411 -0.23697203
0003e0 d1 92 8f 3e 53 21 02 be 67 0e c3 be 2c d5 0e be
       0.280417 -0.12708025 -0.38096926 -0.13948506
0003f0 4b 2b a4 3d d2 4d c7 be 75 08 2d 3d b0 aa 4e be
       0.0801607 -0.3892656 0.042244393 -0.201823

feature_extractor.1.running_var f4 [256]
000000 b4 0f 8f 3e c6 d6 bc 3e e2 e9 1d 3f bc 8a 50 3e
       0.27941668 0.3688261 0.61685 0.20365423
000010 a5 ff 74 3e 2b 32 49 3e e6 02 a2 3e bd 14 b9 3e
       0.23925646 0.19648044 0.31642836 0.36148635
000020 c1 9e a2 3e ba 22 62 3e 57 1f 81 3e 71 6a 62 3e
       0.31761745 0.2208356 0.25219223 0.22110917
000030 f4 85 1b 3e d8 4d 7f 3e 90 73 9b 3e 5d 2a 80 3e
       0.15187818 0.24932039 0.30361605 0.2503232
000040 85 a2 73 3e 46 ea aa 3e e0 c6 cd 3e d3 e0 86 3e
       0.23792465 0.3338186 0.40190792 0.26343402
000050 91 2e 8c 3e 50 96 8b 3e 40 44 bf 3e fe 56 38 3e
       0.27379277 0.27263117 0.37356758 0.18001935
000060 ed f8 e9 3d c4 69 e8 3e c0 eb fc 3d ec c5 cb 3e
       0.11424432 0.45393193 0.12349653 0.3979944
000070 c2 f5 68 3e 10 96 c3 3e 60 25 77 3e 53 03 df 3e
       0.22749999 0.38200426 0.24135351 0.43557224
000080 f1 ac a2 3e 39 19 37 3e 2b 05 8a 3e 49 71 32 3e
       0.3177257 0.17880715 0.26957068 0.17426027
000090 8a b5 99 3e f4 50 42 3e 11 b1 97 3e 2c ad c9 3e
       0.30021316 0.18976194 0.29627278 0.39389932
0000a0 e0 bf 0a 3e 57 d4 c1 3e be 65 6d 3e 69 6f a0 3e
       0.13549757 0.37857315 0.23183343 0.31335
0000b0 27 05 a6 3d 00 7f b5 3e 18 6b 53 3e 8e b9 5a 3e
       0.081064515 0.35448456 0.20646322 0.21359846
0000c0 38 66 82 3e 04 8e b7 3e 3c 8e 37 3e fc 9a 9d 3e
       0.25468612 0.35850537 0.17925352 0.30782306
0000d0 b0 ee bc 3e 4d e0 03 3f 61 bd f0 3d 42 5b 7c 3e
       0.36900854 0.5151413 0.11754871 0.24644187
0000e0 ca ef 50 3e 73 56 f4 3d 86 0e ac 3e 20 94 e7 3d
       0.20403972 0.119305514 0.3360483 0.113075495
0000f0 ac 7f 06 3e a2 49 4e 3e 0a 68 49 3e b4 3b 98 3d
       0.1313464 0.20145276 0.19668594 0.074332625
000100 9b 54 cb 3e ac 1a cd 3e bd ca 62 3e 04 f8 db 3e
       0.39712986 0.40059412 0.22147651 0.42962658
000110 86 ad a4 3e 5d e7 92 3e 7e fa 14 3f 7c 36 35 3e
       0.32163638 0.2869214 0.5819472 0.17696565
000120 64 dc 35 3e 3b ec 9e 3e 98 48 87 3e bf 39 bd 3e
       0.17759854 0.31039605 0.26422572 0.3695812
000130 44 97 3e 3e 33 9f 94 3e 9a 8f a0 3e cc fb d4 3e
       0.18612391 0.2902771 0.3135956 0.41598356
000140 b5 c5 fe 3e 94 01 d8 3e 6e df ad 3e b2 d1 c9 3e
       0.49760213 0.42188704 0.33959526 0.39417797
000150 50 f4 7c 3e d8 1e 8b 3e 5c 37 b2 3e fb 26 57 3e
       0.24702573 0.2717197 0.3480786 0.21010964
000160 a3 49 10 3e d8 8a 91 3e d0 55 93 3e 05 63 6a 3e
       0.1409059 0.28426242 0.28776407 0.22889335
000170 82 d2 a4 3e 92 35 89 3e eb 9a b2 3e e4 33 de 3e
       0.32191855 0.26798683 0.34883818 0.43398964
000180 d3 20 bd 3e 99 0f a7 3e 56 97 53 3e 81 5b c9 3e
       0.36939105 0.32629088 0.20663199 0.39327624
000190 a5 a2 1b 3e a2 f5 0d 3e ca 2b 87 3e 58 ce 6c 3e
       0.15198763 0.13863233 0.26400596 0.23125589
0001a0 5a 2b 98 3e 4e 96 34 3e e7 4e 26 3e 72 68 c5 3e
       0.29720575 0.17635462 0.16241036 0.38556248
0001b0 d1 45 6f 3e 96 f1 90 3e 25 f4 a9 3e db 26 81 3e
       0.23366477 0.28309315 0.3319408 0.25224957
0001c0 bf 93 8e 3e 21 d3 ca 3e e6 90 69 3e 6e 6f 96 3e
       0.27847096 0.39614204 0.2280918 0.2938189
0001d0 01 ed 75 3e ea ae ab 3e 16 3b 75 3e c1 79 8f 3e
       0.24016191 0.33531886 0.23948321 0.28022578
0001e0 45 98 7a 3e 4b 29 9b 3e 8e 94 82 3e 6e af 7d 3e
       0.24472149 0.30304942 0.25503963 0.24773952
0001f0 2c 7e 99 3e b8 d2 a2 3e c0 97 84 3e be de 1c 3e
       0.29979074 0.3180139 0.25897026 0.15319344
000200 99 d6 2a 3e 5c 5f 7d 3e f9 2c 9d 3e b1 26 47 3e
       0.16683425 0.24743408 0.30698374 0.19448353
000210 e9 c9 d0 3e 87 4a 46 3e 26 dd 65 3e 52 f0 6d 3e
       0.40779045 0.19364367 0.22447643 0.23236206
000220 92 42 78 3e d6 ff 99 3e 50 b2 88 3e cc 2d 5d 3e
       0.24244145 0.30078 0.26698542 0.21599501
000230 12 4e 20 3e 9c 53 d1 3e cb f5 eb 3e d7 ac 45 3e
       0.15654781 0.408841 0.46085963 0.19304214
000240 fd f4 8d 3e 89 4d 70 3e 48 46 a3 3e 48 a1 d1 3e
       0.27725974 0.23467077 0.31889558 0.4094336
000250 29 a9 64 3e 42 b9 95 3e 17 28 8d 3e a4 28 78 3e
       0.22330154 0.29242903 0.2756965 0.24234253
000260 1e 3d 66 3e ef 99 84 3d 61 2d 78 3e 99 33 8d 3e
       0.22484252 0.06474673 0.2423606 0.27578428
000270 88 51 90 3e cd e9 66 3e 2d f7 c3 3e 99 3f 9b 3e
       0.28187203 0.22550125 0.38274518 0.3032196
000280 41 54 93 3e 0f b2 27 3e 01 b9 f6 3e b2 08 f7 3d
       0.28775218 0.16376518 0.48188022 0.120622054
000290 2d 52 cb 3e 48 29 f4 3e 6e ef 8d 3e 04 38 92 3e
       0.39711133 0.47687745 0.27721733 0.28558362
0002a0 cc 81 6c 3e fd 8e 9b 3e 6a cc 52 3e f7 c3 d4 3e
       0.23096389 0.3038253 0.2058579 0.4155576
0002b0 32 73 e8 3e eb 7e b5 3e f6 15 9f 3e 6d f1 8f 3e
       0.45400387 0.35448393 0.31071442 0.2811388
0002c0 1b ab 45 3e 72 77 3a 3e 1c b2 b3 3e 4b cc cc 3e
       0.19303553 0.18209627 0.35096824 0.39999613
0002d0 b0 fd 6c 3e a8 3f 72 3e 62 1b 28 3e 99 93 a4 3e
       0.23143649 0.23657095 0.16416696 0.32143858
0002e0 b0 c4 63 3e e1 c0 c3 3e be 3c 57 3e 9f 94 03 3e
       0.22242999 0.38233092 0.21019265 0.12849663
0002f0 e5 49 f5 3d 48 66 5d 3e d4 cf 5d 3e 61 84 89 3e
       0.11976985 0.21621048 0.21661311 0.2685881
000300 37 3b 49 3e 57 30 9c 3e f4 11 ce 3e f0 04 98 3e
       0.19651495 0.3050563 0.40248072 0.29691267
000310 1d 12 d1 3e a7 4b 9f 3e ea a0 cc 3e b1 61 52 3e
       0.40834132 0.31112406 0.39966518 0.20545079
000320 a1 1c 3f 3e 66 2c 8f 3e 1d e8 8d 3e 1d 07 ae 3e
       0.18663265 0.2796356 0.2771615 0.33989802
000330 dd c5 d4 3e 9c 90 68 3e 10 ae 68 3e 0b 98 c4 3e
       0.41557208 0.22711414 0.2272265 0.3839725
000340 11 9b 5d 3e 73 b3 5e 3e 2b 39 51 3e 5a 8f 66 3e
       0.21641184 0.21748142 0.20431964 0.22515622
000350 89 1c c8 3d 73 a8 d8 3e b6 1f 25 3e 7f 3d de 3e
       0.09771068 0.42316017 0.16125378 0.43406293
000360 ee f8 c5 3e 82 94 d4 3e f2 c6 9d 3e d8 80 77 3e
       0.3866648 0.41519552 0.30815846 0.24170244
000370 22 24 7d 3e 61 59 8e 3e 24 c6 a9 3e a7 7c bc 3e
       0.24720815 0.27802566 0.33158982 0.36813852
000380 ee c7 79 3e 93 ae b4 3e f0 83 e5 3e d5 26 6d 3e
       0.24392673 0.3528944 0.44827223 0.23159344
000390 c7 09 01 3f da 66 cc 3e 52 c6 38 3e 30 df 61 3e
       0.50405544 0.3992222 0.18044403 0.22057796
0003a0 a9 6a f8 3d 05 52 9a 3e b0 23 da 3e ac 43 81 3e
       0.12129719 0.301407 0.42605352 0.25246942
0003b0 0c c6 83 3e dc 7f 9c 3e d6 10 6d 3e a1 e6 32 3e
       0.25737035 0.305663 0.23150954 0.1747079
0003c0 60 5f ab 3e f1 54 80 3e 46 43 98 3e b5 72 5f 3e
       0.33471203 0.25064805 0.29738826 0.21821101
0003d0 ad 0a 53 3e 15 0a 5d 3e 1f fe 98 3e 71 d4 95 3e
       0.20609541 0.21585877 0.2988138 0.29263642
0003e0 16 7b a5 3e c1 39 be 3e f1 69 88 3e fb 25 ab 3d
       0.3232047 0.37153438 0.26643327 0.083568536
0003f0 9a ad f3 3e 10 89 b7 3e e5 7b b7 3e 0c 6c f0 3e
       0.47593385 0.35846758 0.35836712 0.46957433

feature_extractor.4.weight f4 [256, 256]
000000 12 68 0d 3b 63 88 3c 3c c9 58 5f 3d aa 78 f2 bc
       0.0021576923 0.0115071265 0.05452803 -0.029598553
000010 2e 0e 8b 3d df 1a 3f bd b4 9c ca bc ce d2 1c bd
       0.06789814 -0.046656486 -0.024732925 -0.038286977
000020 73 97 30 3d 29 51 f6 3c 44 a7 8d bd a5 03 14 bd
       0.043113183 0.030067997 -0.06916669 -0.03613629
000030 29 08 fd bc 42 b9 9e 3d f1 11 21 3d f6 fa 6f bc
       -0.03088768 0.07750179 0.03932375 -0.014647236
000040 a2 b8 d8 3c eb 19 dc bc af 37 02 bd 29 45 d2 bc
       0.026455227 -0.026867827 -0.031791385 -0.025667744
000050 49 bd 89 bc 6e 78 df 3b 78 fb 25 b7 1e bd 39 3d
       -0.016813891 0.0068197763 -9.893316e-06 0.04534637
000060 1d b1 20 3d be b2 53 bd 64 33 3d 3d c0 58 8c 3d
       0.03923141 -0.051684134 0.046191588 0.06852865
000070 87 92 17 3a ab 9d 58 3d 04 5d cc bb d4 5d 7c bc
       0.0005782027 0.05288474 -0.0062366743 -0.01540323
000080 79 e7 2e 3c 07 6a 64 bd d7 0b 37 3c 2b ae 2d bd
       0.010675305 -0.055765178 0.011172256 -0.042402428
000090 44 8b e7 bc 7e 42 54 3d 5b 57 10 3d a7 e3 42 3d
       -0.02826465 0.051821224 0.03523956 0.047580387
0000a0 4e f2 5a bd e0 f6 2f 3d 23 47 be bc 35 0c 76 bd
       -0.053453736 0.042960048 -0.02322728 -0.060070235
0000b0 25 5c 2b 3d 91 21 e3 38 7e 91 7a bc ba 5e c1 3c
       0.041835923 0.00010830456 -0.015293477 0.02360474
0000c0 13 58 c5 bb a5 64 d1 bc 32 ec 13 3d f6 cc 0b bd
       -0.006022462 -0.025560686 0.036113925 -0.034131013
0000d0 a8 33 b2 3b 2b d7 53 3d 21 08 9c bd 7f 18 a5 bd
       0.005438287 0.051718872 -0.07618738 -0.08061313
0000e0 21 ff a7 bc eb 99 36 bd 22 ac b8 3c 49 1e a7 3c
       -0.020507397 -0.04458038 0.022543017 0.020400183
0000f0 ed c5 36 bd ad 1a 58 bd 3b 60 a2 3c ae 18 39 bd
       -0.04462235 -0.052759815 0.019821277 -0.045189552
000100 40 6c 9e bc 1e 93 b9 bc 89 9a 6b bc 3f 5b 3b 3d
       -0.019338727 -0.022653159 -0.014380106 0.045741316
000110 94 9b 52 3d 16 e7 da 3c 0c cb 38 3d d8 45 2a bd
       0.051417902 0.026721518 0.045115516 -0.041570514
000120 56 ed d6 3c be bc 10 3d 9a 82 2f 3c 86 a4 b8 bc
       0.026236217 0.03533625 0.01071229 -0.022539388
000130 46 44 92 3d ae 87 84 3d 35 d6 50 bd 9a 4f 4a bc
       0.071419284 0.06471191 -0.050985534 -0.01234808
000140 8c 12 70 bb 17 b3 2f 3d bf ed 7f bd b5 6f c3 b9
       -0.0036632149 0.042895403 -0.06248259 -0.00037276527
000150 be 55 79 3d 94 f2 e3 3c 2d 87 31 3d 5b c9 02 bd
       0.060872786 0.027825631 0.043341804 -0.03193031
000160 7f 22 fb bc 9b cc 87 bc 22 03 21 3d 57 87 75 3d
       -0.030656097 -0.016577056 0.03930963 0.059943523
000170 00 f3 a5 3c 64 76 28 3c 04 42 70 3d e0 0b 2b 3c
       0.020257473 0.010282133 0.058656707 0.010439843
000180 fb e1 1e 3d 6f ca 50 bd dc af 91 bc 36 c5 bd bc
       0.03878973 -0.050974306 -0.017784052 -0.023165327
000190 01 1c 83 bc a5 f1 a9 3d 1e de 41 3d 0b fb 06 3d
       -0.016004564 0.08298043 0.047330968 0.032954257
0001a0 17 03 84 bc aa 90 06 bd 2d 28 19 3d 35 17 1b bd
       -0.016114755 -0.032852806 0.03739183 -0.03786393
0001b0 b4 32 3e bc 0d 25 3a 3d 69 b7 7d 3c 25 aa b8 3b
       -0.011608768 0.04544549 0.015485623 0.005635517
0001c0 cf 57 06 bd 26 ee 1c bd f0 46 6c 3d fc 80 05 3d
       -0.032798585 -0.038313054 0.05768484 0.032593712
0001d0 b5 e8 8c bd 0c f3 77 3d 5f fe f0 bc 3b b4 1c 3d
       -0.06880323 0.060534522 -0.029418169 0.03825782
0001e0 4e 46 9a 3c 7b f9 5b 3d f3 67 50 3d 63 db b0 3c
       0.018832352 0.05370472 0.050880384 0.021588987
0001f0 54 8a 40 bd da 81 d8 ba 7a 16 3f bb 39 45 0a bc
       -0.04700692 -0.0016518191 -0.0029157684 -0.0084393555
000200 00 ce 11 bd 6f 60 53 3d 89 ae 52 bd 14 4e 4e 3c
       -0.035596848 0.051605638 -0.05143598 0.012591857
000210 6d fb ad 3c 2b f3 e5 bb a5 e2 6f bd fb 12 03 bc
       0.021238053 -0.0070175133 -0.058565754 -0.008000131
000220 80 df 3e 3d 4a 5d 13 3d 85 ed 85 bb 10 57 4a bd
       0.046599865 0.03597764 -0.0040871524 -0.049399436
000230 c8 65 08 3d 64 8a 04 bd 67 f2 fe 3a 5c ae 3d bd
       0.03330019 -0.032358542 0.0019450904 -0.04630886
000240 c0 29 04 3d 0b fb 7b bd 11 f3 90 3c b0 b7 88 bc
       0.03226638 -0.06151871 0.017694028 -0.016689152
000250 4b 35 20 3d c0 f6 25 3c 3a 49 c0 3c f2 b7 89 bd
       0.039113324 0.010129631 0.023472417 -0.06724538
000260 e3 da 83 bd ca 58 11 3d 5a 2b 5d ba 26 99 52 3d
       -0.06438234 0.035485066 -0.0008436941 0.051415585
000270 f3 fa 53 bb 41 d1 5b bd b6 c2 2a 3d 51 4f b8 3b
       -0.0032345622 -0.053666357 0.041689597 0.0056246896
000280 13 7c 09 3d 36 1c a6 bc a7 b9 be bc 1d d1 88 bc
       0.033565592 -0.020277124 -0.023281885 -0.016701275
000290 f6 84 03 bd 49 5b 3f 3d 5c c2 b0 3c 89 c8 20 bc
       -0.032109223 0.046717916 0.021577053 -0.009813436
0002a0 d7 1c 4c bd b7 7a 32 bc b4 2a 89 3c 90 b9 bd bc
       -0.04983219 -0.010893515 0.016743995 -0.023159772
0002b0 b0 90 08 bd 4d ed c3 3c ce a0 e2 3c 85 58 05 bd
       -0.03334111 0.023916865 0.027664568 -0.032555122
0002c0 d7 c6 f7 3b 91 58 87 3c ee 8e cf bc 8c c4 c7 bc
       0.0075615454 0.016521724 -0.025336709 -0.024385713
0002d0 f9 19 be bb e2 2f c0 bc f0 56 bb bb 5f 78 d8 3c
       -0.005801436 -0.023460332 -0.005717151 0.026424585
0002e0 8e bb 9e 3b 06 2d 3c 3c d4 fe 3f 3d 70 c4 73 bd
       0.0048441356 0.011485344 0.046873882 -0.05951351
0002f0 52 a9 c6 bc cf a1 51 3d 1c 06 93 bd 73 c1 90 3b
       -0.02425066 0.051179703 -0.071789 0.004417592
000300 00 a9 b8 bb 44 96 1b 3d e4 1c 9d bd 19 f6 14 bd
       -0.0056353807 0.0379851 -0.07671526 -0.03636751
000310 99 9c e3 3c 25 cd 33 3c b8 da 31 bd b9 2a 69 3d
       0.027784633 0.010974203 -0.043421477 0.05692551
000320 2e 84 54 3d ad 57 cc 3c a2 15 32 bd 36 b6 6b 3c
       0.05188387 0.02494415 -0.043477662 0.014386704
000330 e1 28 90 3d 0b 83 fe bc 73 64 6d bd 9b 9c 05 3d
       0.07039047 -0.031068346 -0.057957124 0.032620054
000340 a9 e2 75 3d 53 38 d8 bc 22 a2 89 bd da 57 1c 3c
       0.060030613 -0.026394045 -0.067203775 0.00954243
000350 22 75 9b bc 10 2b b6 bc fc 35 32 bc dd bc 2f bc
       -0.018976752 -0.02223733 -0.010877129 -0.010726181
000360 45 06 84 3d fb a0 2b bb f2 e4 d2 bb 2b f0 70 3d
       0.06446508 -0.002618848 -0.006435984 0.058822792
000370 9c f7 dc bc 83 4c bb ba 3f 0d 39 bd c6 a9 da 3c
       -0.026973538 -0.001428977 -0.045178648 0.026692282
000380 33 0d 6a bd 82 98 19 3d 4b 71 b2 bc fd 80 39 bd
       -0.057141494 0.03749896 -0.021782538 -0.04528903
000390 a1 09 55 3d 17 18 13 bd f6 b1 18 bd 9e f8 30 3d
       0.052011136 -0.035911646 -0.03727909 0.04320585
0003a0 d7 f1 48 3d e6 f0 14 bd 0e 51 3d 3d 6b c8 e7 3c
       0.04905876 -0.03636255 0.046219878 0.028293809
0003b0 5d 43 41 3d 6e 9c 57 3d c2 14 51 bc 71 63 9c 3d
       0.047183383 0.052639417 -0.012761297 0.076361544
0003c0 de e0 98 bc c8 59 f5 3c f1 6f 2b bd 49 cb 79 3d
       -0.018661913 0.029950038 -0.041854803 0.060984883
0003d0 98 d4 d7 3c 58 21 c4 bc 15 4c 55 bd 15 a4 83 3c
       0.02634649 -0.02394168 -0.05207451 0.016069451
0003e0 8b 84 60 bd 7c e8 5a 3d 85 16 af bc fa 34 be 3c
       -0.054813903 0.05344437 -0.021373043 0.02321862
0003f0 b3 ca 96 3c 34 6e 2c bd 9c 1f 95 3b 7b cf 85 3d
       0.018407201 -0.042097285 0.0045508873 0.065337144
