models/best_fold3_hd128_do0.5.pth (torch, 118438 bytes, 20 tensors)

layers.0.weight f4 [128, 10]
000000 49 c5 15 bd 44 74 e5 bd e8 64 7f be 68 38 5a 3e
       -0.0365651 -0.112038165 -0.24940836 0.2131058
000010 72 3f 4e 3e bf e9 94 3e a8 90 bc 3d 0b 0a 34 3e
       0.2014139 0.29084584 0.092072785 0.17581956
000020 47 ff 37 3e e5 31 93 3e 3d 74 e1 3d a8 68 33 be
       0.17968474 0.28749004 0.11008499 -0.17520392
000030 8e 6f 19 be 67 18 a2 be df b2 5e 3d 1a bc f7 3d
       -0.14983961 -0.31659243 0.054369804 0.120964244
000040 79 7f 88 3d b5 45 84 bd 91 42 ee 3d cc b6 89 bd
       0.066649385 -0.06458608 0.1163379 -0.06724319
000050 96 35 9f 39 6b ae 39 be 73 cb 1c be e3 fa 0a 3c
       0.00030366768 -0.18132941 -0.15311985 0.008482668
000060 92 64 aa be be 18 8e bd 86 89 3a be a7 7b a0 be
       -0.33279854 -0.06938313 -0.18216524 -0.3134434
000070 2e 09 57 bd a2 4b 6e 3e 10 db 27 3e 62 44 14 bd
       -0.05249899 0.23271039 0.1639216 -0.036198027
000080 d3 0e 77 be 39 6c 27 3e ea c7 3f bd 45 d2 1e 3e
       -0.24126749 0.16349877 -0.046821512 0.15509899
000090 24 ed 57 3e d7 03 8b 3e e5 97 a9 be 71 a5 2b be
       0.21086556 0.27151367 -0.331237 -0.1676233
0000a0 ee 54 e7 bd 93 ab 47 3c 54 60 d6 bd e7 4b 74 be
       -0.11295496 0.012186903 -0.10467592 -0.2385708
0000b0 9f 45 df bd c0 9e 07 3e 5d 7b 4e 3e 4c 25 88 3e
       -0.10901951 0.13244152 0.20164247 0.26590955
0000c0 07 bc c0 3c 29 63 7e 3e 77 fc 81 bd 5e 9d 6e 3e
       0.023527158 0.24842514 -0.06346982 0.23302218
0000d0 9f 85 41 3e 16 08 2c be a5 e3 6b 3e dd e0 94 3e
       0.18898629 -0.1679996 0.23036058 0.29077807
0000e0 51 13 06 3e 2c ab 47 be 15 81 d4 bd ae 26 14 3e
       0.13093306 -0.1949889 -0.10376183 0.1446788
0000f0 72 02 8f bd b6 6a 74 bd 50 3b 02 3d c2 1b 65 3e
       -0.06982888 -0.05967208 0.031794846 0.2237387
000100 4b 22 97 3e e6 93 02 be 4c a9 42 be 7d 4b 51 be
       0.2951835 -0.12751731 -0.19009894 -0.20438953
000110 d1 d1 03 3e 3e 9f 14 be ac ae af be 57 d2 80 be
       0.12873007 -0.14513871 -0.34312952 -0.25160477
000120 35 b0 94 be ad ff 83 be a6 38 fc 3d 1c df 8f 3e
       -0.29040685 -0.25781003 0.12315492 0.28099906
000130 da 0b 19 be 39 74 a1 3c f3 e2 22 3e b1 06 68 be
       -0.14945927 0.01970874 0.15906887 -0.22658803
000140 dc 2b 62 3d be 2f 47 3e ad 99 00 be 8e 3b 21 bd
       0.05521761 0.19451806 -0.12558623 -0.039363436
000150 69 fe 25 3d 54 5f c0 3d dc 74 16 bd b9 47 8c be
       0.040525828 0.093931824 -0.03673254 -0.2739847
000160 ff 43 71 be 5e 78 05 be be b4 8d 3e f9 92 87 be
       -0.23561095 -0.13034198 0.27676958 -0.2647932
000170 0e 32 69 3e 62 6c 3c 3e 3b fa 65 be ea 08 88 be
       0.22773 0.1840072 -0.22458737 -0.265693
000180 17 ea ab 3d 3d 72 88 be 72 e9 53 bd ed cd 80 3d
       0.083942585 -0.26649657 -0.051736303 0.06289277
000190 04 97 fd bd 96 79 80 bd 90 03 2f 3e 5f a5 7d 3e
       -0.123823196 -0.06273191 0.17091203 0.24770115
0001a0 ad 73 28 be e4 1e 8d be 0a 37 62 3e 84 dd 5d be
       -0.16450377 -0.2756263 0.22091308 -0.21666533
0001b0 30 c9 07 be da a5 4c be 79 38 b2 be da 91 63 3e
       -0.1326034 -0.19985142 -0.3480871 0.22223607
0001c0 4a 55 cb bd 16 11 2d 3e 01 98 f3 bd e5 48 16 3e
       -0.09928377 0.16901049 -0.11894227 0.14676245
0001d0 21 6a 79 3e 99 65 8f 3d 7b 89 25 3e 20 f6 8a 3e
       0.24356891 0.070018 0.16165726 0.27140903
0001e0 4f 79 84 3e 6b 00 0b 3e 77 91 b2 bd 7b 50 90 bd
       0.258738 0.13574378 -0.087191515 -0.070466004
0001f0 f0 15 f3 3d e0 8c 3d bd 67 a7 06 bd 6c f0 fb 3d
       0.118694186 -0.046276927 -0.03287449 0.12301716
000200 fd 63 94 3e 1c 17 8a be b7 d4 7e 3e 39 ec 41 3e
       0.28982535 -0.26970756 0.24885832 0.18937768
000210 47 3d 87 3e 38 1b 66 3d b7 d3 56 3e 6e 47 57 be
       0.26413938 0.0561783 0.209792 -0.21023342
000220 93 7d 93 be a6 83 69 3e 70 d1 7d be 44 b4 8a be
       -0.28806743 0.22804126 -0.24786925 -0.27090657
000230 a4 2d 88 3e 59 01 7a be 49 dd 94 3e 32 b9 d5 3d
       0.2659732 -0.24414577 0.29075077 0.10435714
000240 5b f4 b0 bd b4 54 82 be 48 9a 9b be b9 40 0b 3e
       -0.08640357 -0.25455248 -0.30391145 0.13598908
000250 9c eb 95 be fe 32 83 3d b6 09 b9 be 7b 00 08 3e
       -0.29281318 0.0640621 -0.3614022 0.13281433
000260 03 88 6e be bf ba 8d 3e 35 38 90 3e c3 8b a7 3d
       -0.23294072 0.27681538 0.28167883 0.08180954
000270 ab bf 2b be 06 8e 81 3e 61 90 33 3e e6 cc 1d be
       -0.16772334 0.25303668 0.17535545 -0.15410194
000280 fd b5 90 3e 7e 66 46 3b 7f ac 8d be 35 8c 73 3e
       0.28263846 0.0030273492 -0.27670667 0.23783953
000290 55 10 1a 3e 98 6f 84 be f5 18 d9 3d ab a2 8c 3d
       0.15045293 -0.2586639 0.10600463 0.06866964
0002a0 4f 66 a4 3e 68 14 4c be 0a c5 bc be cf 8a 89 be
       0.32109305 -0.1992966 -0.3686908 -0.26863715
0002b0 90 63 76 3e 05 54 37 be 80 24 e1 bd ef 70 bc bd
       0.24061418 -0.17903145 -0.1099329 -0.09201228
0002c0 a1 0c 8c be 9b 8c 03 3e f3 e6 47 3e a9 07 8b be
       -0.27353385 0.12846605 0.19521694 -0.27154282
0002d0 cc 23 b7 be 5c c9 39 be b8 fd 82 3e 7e d4 65 3e
       -0.35769498 -0.18143219 0.25584197 0.2244434
0002e0 af 7b 4c 3d 19 d8 0e be 61 66 35 bc 3a 44 68 bb
       0.04992264 -0.13949622 -0.011071772 -0.0035441057
0002f0 ef 67 0c 3d 83 3b bd 3d ff 9f 0c be a1 b8 d9 3d
       0.034278806 0.092398666 -0.13732909 0.10630918
000300 7e ae fb 3d 50 4d ff 3d a7 e8 80 be 76 17 8c 3d
       0.12289141 0.12465918 -0.251775 0.06840412
000310 0a b9 49 3e a0 bc 81 be f9 59 6f 3e 26 6a 60 bd
       0.19699493 -0.25339222 0.23374166 -0.05478873
000320 07 5e 93 be f3 79 34 be 42 c5 44 3e fd 08 44 bc
       -0.28782675 -0.17624645 0.19215873 -0.011965034
000330 a3 48 19 be ae ca 28 3d c2 d2 1a be d8 ed 2c 3e
       -0.14969115 0.041208915 -0.1511946 0.16887605
000340 32 bc 88 3d 1c e0 48 3d a4 fc ec ba b3 6b 45 3d
       0.066765204 0.049041852 -0.0018080664 0.048198413
000350 54 6c 99 be 47 30 85 bd 9c e1 99 be c1 39 8c bd
       -0.2996546 -0.06503349 -0.3005494 -0.06846953
000360 c6 44 64 3d a8 cf 30 bd 73 c2 fd 3d 5f 56 6a be
       0.05572965 -0.043166786 0.12390604 -0.2288451
000370 15 18 ab bc 93 29 a5 bc 15 bb 03 3e 8d b1 84 3e
       -0.020885507 -0.020161426 0.12864335 0.2591671
000380 56 ee a7 be b3 71 85 be f2 c7 3d be 76 4b 33 be
       -0.32799023 -0.26063308 -0.18533304 -0.17509255
000390 8e b9 1a 3e 89 7a 00 3e a7 ff 91 3e 11 7e 6f 3e
       0.15109846 0.12546743 0.2851536 0.23387934
0003a0 3f 3c 28 be d5 12 0c be a2 59 f1 bd 69 97 47 be
       -0.16429232 -0.13679059 -0.11784674 -0.19491352
0003b0 dc e4 d4 bd 13 77 9a be 90 83 5c be ba 6c 8e be
       -0.10395214 -0.3016897 -0.21534562 -0.27817327
0003c0 4a b2 41 3e fd 96 8f bd 9b 93 a1 3e 6f 29 6a 3e
       0.18915668 -0.070112206 0.31557927 0.22867368
0003d0 df d4 85 3e 69 b1 8a 3e 74 ce 36 3e 12 4f c3 3d
       0.2613897 0.27088478 0.17852193 0.09536566
0003e0 fe d9 06 3e 86 1e 40 be 2a 25 50 3e 69 0a 46 bd
       0.13169095 -0.18761644 0.20326677 -0.04834977
0003f0 49 30 9b 3e d9 cd 90 3e 4c a8 81 be 75 c3 29 3e
       0.30310276 0.2828205 -0.25323713 0.16578467

layers.0.bias f4 [128]
000000 06 36 b7 bd 8d 59 c3 bc fa 55 10 bd 44 b8 98 3e
       -0.08945851 -0.023846412 -0.035238244 0.29828084
000010 76 4f 78 3e 50 9c 45 be c8 3f 4a be a6 1b 65 be
       0.24249062 -0.1929791 -0.19750893 -0.22373828
000020 e8 a9 23 3e 87 a5 5b 3e 94 77 9f be 9b 45 00 bd
       0.15982783 0.21449862 -0.31145918 -0.03131638
000030 45 17 95 be 7e af 48 3e 09 63 22 be 1d 15 47 be
       -0.29119316 0.19598195 -0.15858091 -0.19441648
000040 c2 ff cb bd ad ae 88 be 34 7a 40 be 87 52 db 3d
       -0.09960891 -0.26695767 -0.18796617 0.107091
000050 ae d8 18 3e 09 7d 21 be 0a f1 01 be 89 f6 3f 3e
       0.14926407 -0.15770353 -0.12689605 0.1874639
000060 3a 56 af bd ac 54 cd bc 4a 76 8e be 60 26 8f 3e
       -0.08561368 -0.025064789 -0.27824622 0.27958965
000070 42 a7 97 be 6a 89 84 3e 1b 4d fa 3c b1 28 5a be
       -0.29619795 0.2588609 0.030554345 -0.21304585
000080 5b 94 6f be b3 41 92 3e a6 aa f9 3d ed 14 25 be
       -0.23396437 0.2856575 0.12190752 -0.16121264
000090 04 84 3a 3e 82 a3 1f 3e c8 36 91 be ef ec 46 be
       0.18214422 0.15589717 -0.28362107 -0.1942632
0000a0 19 9c 72 be 53 d2 f3 bd 61 74 a9 3d 21 cc e4 3c
       -0.23692359 -0.119053505 0.08274151 0.027929367
0000b0 cd c5 0f 3d 00 af 76 bd 06 60 0d be 76 f7 98 be
       0.035100747 -0.060225487 -0.13806161 -0.29876298
0000c0 c4 dc 4d be 6b 17 1d 3d 0a db 81 be 6d f5 04 3e
       -0.20103747 0.03835241 -0.25362426 0.12984248
0000d0 9d 3b 6d be 1c 65 36 be 98 15 70 bd c6 ed 20 be
       -0.23167272 -0.17812008 -0.058614343 -0.15715703
0000e0 85 c4 11 3e 7b e9 d1 bd fe 10 a1 3e d8 f0 ca 3d
       0.14235123 -0.10249611 0.31458277 0.099092185
0000f0 4a 10 9e 3e 65 f8 4e be 0a 74 83 be 0a f0 84 be
       0.30871803 -0.20211942 -0.25674468 -0.25964385
000100 3c 80 6e 3e a3 16 ae bd 38 ed bb bd f9 1a 14 be
       0.23291105 -0.08500411 -0.09176105 -0.14463414
000110 5b ff aa bb c2 b2 b0 bd 16 92 0f 3d 4a 75 29 bd
       -0.005218429 -0.08627845 0.035051428 -0.04137162
000120 23 c9 97 be 7b f1 85 3e df b6 2a be b7 43 78 be
       -0.29645643 0.26160797 -0.16671322 -0.24244581
000130 af 3e 81 3e 96 63 54 3e e0 dd 32 3d 1c 58 2e be
       0.25243136 0.20741114 0.043668628 -0.17025799
000140 7b 34 61 3d b9 f8 84 be cc 5d 29 be 57 2a e2 3d
       0.05498169 -0.2597101 -0.16539687 0.11043232
000150 fd 0a 89 3e 4e 04 cd 3d 32 8c a4 bc ce 4a 09 3d
       0.26766196 0.10010587 -0.020086382 0.033518605
000160 9d 23 78 3e cc 91 1c 3e 03 a1 d7 3d ac 16 ab 3d
       0.24232335 0.15289992 0.105287574 0.08353934
000170 03 3b 82 3e 58 dc 9d 3e 53 a5 4e be 66 8b 93 bd
       0.25435647 0.3083217 -0.20180254 -0.072043225
000180 58 ee 2c be aa f9 80 be 42 06 2d 3e ad 44 99 be
       -0.16887796 -0.2519048 0.16896918 -0.29935208
000190 9b 95 67 3e 16 cf 81 be 01 2b dc bc 28 7c 89 be
       0.22615664 -0.25353307 -0.026875975 -0.26852536
0001a0 53 93 2d 3e c4 a0 af bd 1b a4 9b 3e 48 1b 8c 3e
       0.16950731 -0.085755855 0.3039864 0.27364564
0001b0 c0 2d 0a be df 72 45 3e 40 62 32 3b 8e 7f 8f 3e
       -0.13494015 0.19282101 0.0027219206 0.28027004
0001c0 3d 1e 0c 3c b6 68 23 bd a3 27 ca 3d 69 21 c8 3a
       0.008552131 -0.039894782 0.09870841 0.0015268746
0001d0 a5 4f 60 3e bb 37 09 bd 18 3c ac bd 1d 6f 4d be
       0.21905382 -0.033500414 -0.084098995 -0.20061918
0001e0 26 ef 9c be 9c c9 34 bd ac f1 73 3e 67 d3 8b be
       -0.30651206 -0.044137582 0.23822659 -0.27309725
0001f0 a2 9a e2 3d 2f 83 8c 3e 01 5c 2f be 63 b6 9f 3e
       0.1106465 0.27443835 -0.1712494 0.31193838

layers.1.weight f4 [128]
000000 15 b8 7b 3f f8 e9 7e 3f 94 3c 7a 3f 74 f7 7f 3f
       0.9832776 0.9957576 0.97748685 0.9998696
000010 08 c9 7c 3f 06 16 7e 3f 79 d8 7c 3f ef 8b 78 3f
       0.9874425 0.99252355 0.9876781 0.9708852
000020 d7 eb 7e 3f 56 35 81 3f 9f ab 7a 3f 1a ea 82 3f
       0.99578613 1.0094402 0.97918123 1.0227692
000030 b2 da 7f 3f 5d c0 81 3f bc 33 81 3f 89 b1 80 3f
       0.9994308 1.013683 1.0093913 1.005418
000040 a2 9c 80 3f af 03 82 3f fd f4 82 3f 7c 05 7b 3f
       1.00478 1.0157374 1.0231014 0.98055243
000050 a4 83 81 3f be 94 79 3f 19 fe 7a 3f fa 87 80 3f
       1.0118299 0.9749259 0.9804397 1.0041497
000060 ff d2 7c 3f 14 10 7b 3f 81 ce 7b 3f 23 6e 80 3f
       0.98759454 0.9807141 0.98361975 1.0033611
000070 a2 2b 85 3f 8b 46 7d 3f 59 8a 7a 3f c2 01 83 3f
       1.0403941 0.98935765 0.9786735 1.0234911
000080 80 5a 80 3f c2 db 7f 3f 53 bb 7f 3f 03 bf 80 3f
       1.0027618 0.999447 0.9989521 1.0058292
000090 f2 58 81 3f 92 e1 7d 3f 86 ec 79 3f 64 f1 81 3f
       1.0105269 0.9917232 0.9762653 1.0151792
0000a0 3e ea 7c 3f f5 6e 7e 3f 75 37 7c 3f 51 5a 83 3f
       0.98794925 0.99388057 0.9852212 1.0261937
0000b0 9e 5a 7b 3f 39 23 7c 3f 9b 05 83 3f e1 7f 88 3f
       0.98185146 0.98491246 1.0236086 1.0664026
0000c0 60 4b 7c 3f a4 15 81 3f c1 86 7b 3f eb 27 7b 3f
       0.98552513 1.0084729 0.98252493 0.98107785
0000d0 4a 5c 7c 3f 87 1d 81 3f 1a 70 7d 3f c9 0e 82 3f
       0.9857832 1.0087136 0.9899918 1.0160762
0000e0 e1 3f 7d 3f eb 73 81 3f 21 6e 81 3f 89 8a 7f 3f
       0.98925596 1.01135 1.0111734 0.9982076
0000f0 7f 2a 83 3f 40 61 80 3f a4 81 81 3f 9d f8 7c 3f
       1.0247344 1.0029678 1.0117688 0.98816854
000100 19 20 83 3f a4 2c 7b 3f 3f a9 83 3f 1a 1b 7d 3f
       1.024417 0.9811499 1.0286025 0.9886948
000110 39 ab 7c 3f 18 a5 84 3f 9f 0c 7c 3f 15 b7 7c 3f
       0.98698765 1.0362883 0.9845676 0.9871686
000120 52 a6 79 3f 4e 79 81 3f df bf 7d 3f 73 65 85 3f
       0.9751941 1.0115144 0.991209 1.0421585
000130 1f 1b 83 3f bd c6 82 3f 20 c0 80 3f 54 39 80 3f
       1.0242652 1.02169 1.0058632 1.0017495
000140 66 0b 7f 3f 11 43 82 3f 2c 3e 7e 3f 4f a6 7e 3f
       0.9962677 1.0176717 0.99313617 0.99472517
000150 f3 55 78 3f 9c 15 81 3f c3 e7 81 3f fb 67 7e 3f
       0.9700615 1.008472 1.0148853 0.9937741
000160 36 3f 84 3f fb c5 7a 3f 73 f1 80 3f e2 8c 79 3f
       1.033179 0.97958344 1.0073684 0.97480595
000170 33 21 82 3f ee e0 7b 3f 5c 17 81 3f 07 f8 7c 3f
       1.0166382 0.9839009 1.0085254 0.9881596
000180 5c c1 79 3f a6 54 7f 3f d1 9b 76 3f 12 1e 83 3f
       0.9756067 0.9973854 0.96331507 1.0243552
000190 2c dc 7e 3f 90 0c 81 3f 73 4b 7f 3f 29 e9 7a 3f
       0.99554706 1.0081959 0.997245 0.98012024
0001a0 0e af 80 3f 46 72 83 3f 65 47 79 3f 59 4e 80 3f
       1.0053422 1.0269248 0.97374564 1.002391
0001b0 d1 94 80 3f c8 51 7c 3f c4 d6 81 3f e9 75 84 3f
       1.0045415 0.9856229 1.0143666 1.0348483
0001c0 b2 28 7d 3f 2c 06 7d 3f a6 ec 7a 3f d0 d8 76 3f
       0.9889022 0.9883754 0.98017347 0.9642458
0001d0 47 ec 7c 3f 64 6f 7b 3f fe 37 80 3f ed 1a 7e 3f
       0.9879803 0.98216844 1.0017087 0.99259835
0001e0 5d 0d 80 3f dd 5f 7a 3f 43 f7 7e 3f 58 8d 80 3f
       1.0004078 0.97802526 0.9959604 1.0043135
0001f0 49 13 7e 3f 3d f9 80 3f 39 1b 82 3f d7 cd 84 3f
       0.99248177 1.0076061 1.0164558 1.0375317

layers.1.bias f4 [128]
000000 f1 b6 af bc aa 60 7d bc c0 03 83 bc 13 08 2e ba
       -0.021449538 -0.015464941 -0.015993 -0.00066387764
000010 4f f5 2b bc 2c 1a 17 bc 95 b3 be bb 70 63 bb bc
       -0.010495498 -0.009222548 -0.0058197477 -0.022874564
000020 2c c8 13 bc cf 8f 58 3b 3a fd 90 bc 0f 17 c9 3c
       -0.009019893 0.00330447 -0.017698873 0.024547128
000030 3a c0 a9 39 b2 e5 8b 3c cb d6 44 3b 9a 18 2c 3b
       0.00032377412 0.0170773 0.0030035253 0.002625978
000040 7a 56 22 3c 65 a2 73 b9 8c 54 9d 3c f4 83 16 3a
       0.009908313 -0.00023234783 0.019205354 0.00057417084
000050 ed 77 84 3b 8b e2 8d bc 97 54 5b bc fd 8d 5c 3a
       0.0040426166 -0.017319938 -0.013386867 0.0008413492
000060 fb bd eb 3a d0 fc d2 bc 1e 1d 3a bc 38 f8 7f 3b
       0.0017985696 -0.025755316 -0.011359481 0.0039057862
000070 e2 4b 06 3d 72 5b 5a bc 05 b0 ec bc 4d 45 80 3c
       0.03278721 -0.013327466 -0.028892526 0.015658045
000080 e4 48 39 3b 07 c7 2a 3c 89 ec a5 3c b8 4f a3 3c
       0.0028272206 0.010423428 0.02025439 0.019935474
000090 f3 ae 99 3c 33 23 ec bb 9f d6 56 bc 00 11 18 3d
       0.01876018 -0.0072063445 -0.013112693 0.037125587
0000a0 b9 20 a2 bc 6b e3 7c 3c f8 ba 18 bc 93 0d 4c 3c
       -0.019790994 0.01543508 -0.009321921 0.012454408
0000b0 95 ff 81 bc e2 95 44 3a 19 c8 bd b9 43 ee 65 3d
       -0.015868941 0.0007499141 -0.00036197974 0.056135427
0000c0 9f 8b 61 bc c3 18 05 3c e5 72 9a bc c5 e9 3d bc
       -0.013766198 0.008123579 -0.018853614 -0.0115913795
0000d0 e9 8f 6f 3c 85 8a 7a 3c de 6b 5e bc 9e 88 03 3d
       0.014621713 0.015291815 -0.013575522 0.03211271
0000e0 32 5a 0f bb 51 3b 2b 3b 46 92 55 3c 21 7b 2c bc
       -0.002187383 0.0026127885 0.013035363 -0.010527403
0000f0 4c 10 a3 3c 93 1f ec bb c8 75 04 b9 7e bb 53 3b
       0.019905232 -0.0072059124 -0.00012632378 0.00323078
000100 e7 88 ca 3c 54 7f 3b bc 5d 6b 80 3c 05 79 2c bc
       0.024723483 -0.011443932 0.015676195 -0.0105269
000110 fb 2b 6c bc 24 b5 85 3d 5e 03 6c bc 18 9e 8d bb
       -0.014414783 0.065286905 -0.0144051 -0.0043218248
000120 fe d5 99 bc 9f 35 09 3c b8 5f 44 bc 26 92 a6 3c
       -0.018778797 0.008374601 -0.011985712 0.02033336
000130 0a 61 83 3d ef ef c7 3c a9 38 74 3c ee ba 09 3c
       0.06414993 0.024406401 0.014906087 0.008406384
000140 a0 0f 07 3a 00 c2 bf 3c 3c 6b 0e bb 20 38 10 bc
       0.00051521696 0.023407936 -0.0021731397 -0.008802444
000150 ef 22 78 bc 1e 93 92 3b 41 73 4c bc 19 aa 28 3c
       -0.015145048 0.004473104 -0.012478651 0.010294461
000160 34 5b eb 3c ad 1a 40 bc c7 8d d1 3b f8 02 e4 bc
       0.028730012 -0.01172511 0.006395075 -0.027833447
000170 4e af 71 3d 3a 43 72 bc d6 5c 98 3b 8e 6c 71 bc
       0.059005074 -0.014786536 0.004649739 -0.014735354
000180 5b fd 93 bc de 3e 4b bb 34 03 1b bd 81 d4 0c 3d
       -0.018065145 -0.0031012814 -0.03784485 0.034382347
000190 03 4b 2d bc 1e 4c f0 3b 60 a4 85 3c 07 7b 98 bb
       -0.010576966 0.0073332926 0.016313732 -0.004653338
0001a0 c2 9c 58 3a 5d 1f 35 3c 74 d0 f3 bc 7f fc 28 3c
       0.0008263105 0.011054841 -0.029762484 0.010314106
0001b0 12 4d 6d bc 99 65 05 bc 43 ad 83 3c 9e f4 c4 3c
       -0.014483707 -0.008141899 0.016073829 0.024042424
0001c0 25 d8 3f bc a2 31 08 bc 75 de 03 bd 79 fa aa bc
       -0.011709248 -0.008312615 -0.032194573 -0.020871388
0001d0 dd 8a 34 bc df f8 16 3c e4 66 42 bc dd 9a ea ba
       -0.011019436 0.009214609 -0.011865351 -0.0017898936
0001e0 6b fa 21 3c d3 19 81 bc 94 de 28 bb 0f 02 42 3c
       0.009886364 -0.015759384 -0.0025767433 0.011841311
0001f0 75 85 0e 3c 13 44 5c 3c 27 75 06 3d 33 89 1a 3c
       0.008698811 0.0134439645 0.03282657 0.009432125

layers.1.running_mean f4 [128]
000000 fa 83 0f be c7 26 32 bd c3 b1 17 bd 27 b3 ad 3e
       -0.14015189 -0.043494012 -0.03703476 0.33925745
000010 5f 66 11 3e 2d 7e 3a be 80 a3 32 be 8e e6 ce be
       0.14199208 -0.18212195 -0.17445183 -0.40410274
000020 a6 e6 5c 3e d4 89 b6 3e 86 c1 80 be ad e1 ec bd
       0.2157236 0.3565203 -0.25147647 -0.11566482
000030 13 bd 6f be 4b e0 91 3e 7c ba b6 bd c7 82 a0 be
       -0.2341197 0.28491434 -0.08922288 -0.31349775
000040 23 66 76 bb b1 62 d7 be fb 0e 85 be 3f 3e 0a 3e
       -0.00375975 -0.42067483 -0.25987992 0.13500308
000050 60 ab 05 3d 36 c2 2a be 45 58 b4 bd 7e 32 9f 3e
       0.03263414 -0.16675648 -0.088058986 0.3109321
000060 44 fc 26 3c b1 74 9f 3d d5 f2 9c be 38 30 9f 3e
       0.010191981 0.07785929 -0.30654016 0.31091475
000070 dd fa b3 be df e4 bc 3e 29 ec 67 3d 70 5c a8 be
       -0.3515233 0.36893365 0.056621704 -0.32883024
000080 24 ca 95 be 0d 40 66 3e 7e da 83 3c 1e 26 a6 bd
       -0.29255784 0.22485371 0.016095396 -0.08112739
000090 1f 1b 9e 3e c7 2a 0c 3e d7 3f 7a be 30 2e f4 bd
       0.30880067 0.13688193 -0.24438415 -0.11922872
0000a0 26 d8 28 be 22 dc 39 be 9c 86 8e 3d 47 70 85 bd
       -0.16488704 -0.1815038 0.069592685 -0.06515556
0000b0 03 8a 26 bc de 46 b1 3d 05 74 4e be 3c 20 cb be
       -0.0101647405 0.08656095 -0.20161445 -0.3967303
0000c0 e8 92 a6 be 35 e3 12 3e 7d 5c 6e be c5 0b e2 3d
       -0.32533956 0.14344485 -0.23277469 0.11037401
0000d0 24 92 cd bd 7b b7 df bd 3b 61 a7 bd 3b 1b ee bc
       -0.1003764 -0.10923668 -0.08172842 -0.029065719
0000e0 d6 8d 1e 3e e0 bd 04 bd c5 95 91 3e ab ca 01 bd
       0.15483794 -0.03240764 0.28434578 -0.03168742
0000f0 2d 2f b8 3e 50 ee 8f be cd 0a 9a be 2d a8 2f be
       0.35973492 -0.28111506 -0.30086365 -0.17153998
000100 f4 1f b2 3e 78 66 15 be 9e 8f 2b be 9f 5c 4d bc
       0.34790003 -0.1458987 -0.16754004 -0.01253429
000110 7c 0a 8b bc 61 d7 a7 bb 05 79 18 bd ee 39 b0 bc
       -0.016972773 -0.0051221107 -0.03722479 -0.021511998
000120 8f e4 84 be 44 7b 65 3e 65 d3 63 bd ac 58 a4 be
       -0.25955626 0.22410303 -0.055621523 -0.320989
000130 4c c3 b6 3e 27 95 81 3e 80 e5 a7 bd a4 6d db bd
       0.35695875 0.25309107 -0.081980705 -0.10714272
000140 3e 78 0f 3e 48 c8 a3 be 50 a2 5f be 5b c2 c5 3d
       0.14010713 -0.3198874 -0.21839261 0.09656211
000150 a8 77 79 3e a4 59 3a 3d d3 9e 03 3d 8e 00 5f 3d
       0.24362051 0.045495644 0.03213389 0.05444389
000160 16 19 a0 3e a6 59 ff 3d b2 38 2f 3c 95 26 dd 3c
       0.3126914 0.12468271 0.01069467 0.026995936
000170 de eb a9 3e f1 9b c4 3e e5 6a 31 be 80 05 86 bd
       0.33187765 0.38400224 -0.17325933 -0.06544018
000180 63 1c 6a be ad e2 a2 be 92 e3 48 3e 20 04 5c be
       -0.22862391 -0.31813565 0.19618061 -0.21485949
000190 bd 05 1f 3e 69 f5 44 be d6 85 07 3d 4d a4 a9 be
       0.15529533 -0.19234242 0.03308662 -0.33133164
0001a0 18 3b 92 3e 02 61 53 be c4 8c c5 3e 12 17 b3 3e
       0.2856071 -0.20642474 0.38583958 0.3497854
0001b0 67 77 5a be 47 37 fa 3d d7 10 bb b8 eb 61 fb 3d
       -0.21334611 0.122175746 -8.9199915e-05 0.12274536
0001c0 8c 1d 8b 3d 0c 29 81 3c 7f 22 e3 3d 07 a9 66 bd
       0.06792745 0.015766643 0.11090564 -0.05631354
0001d0 5c 03 6f 3e 94 3e 0a be 2d 51 06 be c2 33 af be
       0.23341125 -0.13500434 -0.13116904 -0.34219176
0001e0 85 3a b0 be 0f dd 38 bd ac 3e 71 3e 0d 0e 48 be
       -0.34419647 -0.045132693 0.23559064 -0.1953661
0001f0 b3 a5 15 3e e6 16 ba 3e fe ec 09 be cd 6d 5c 3e
       0.1461399 0.36345595 -0.13469312 0.2152626

layers.1.running_var f4 [128]
000000 da 16 0e 3f 79 44 4f 3e 78 a0 3d 3e 30 6e 90 3e
       0.5550362 0.20240964 0.18518245 0.28209066
000010 96 29 a3 3e 5a 5f a1 3e 2d 67 23 3e 1a e0 e8 3e
       0.31867665 0.3151806 0.15957327 0.45483476
000020 f1 21 2c 3e e1 9b 0d 3f 39 d4 09 3f b0 82 b0 3e
       0.16809823 0.5531598 0.5383945 0.34474707
000030 f1 f0 43 3e 92 0f 92 3e 3f 05 d7 3e 73 8d dd 3e
       0.1913488 0.28527504 0.4199619 0.4327198
000040 03 41 80 3e 79 46 0c 3f 95 7f c0 3e 4c 2a 78 3e
       0.250496 0.5479503 0.37597337 0.24234885
000050 d1 1a 5d 3e 64 ed 8a 3e 78 ed a2 3e 20 f0 12 3f
       0.21592261 0.2713424 0.318218 0.5739765
000060 aa 51 cd 3e 47 58 a1 3e b9 25 b8 3e 2a a5 7d 3e
       0.40101367 0.31512663 0.3596628 0.24770036
000070 9f 6d 38 3e 78 ec 5a 3e 0e b9 8e 3e 8d db bd 3e
       0.18010567 0.21379268 0.2787556 0.37081566
000080 80 e8 b1 3e 42 1e 8f 3e f3 82 82 3e 14 90 6e 3e
       0.34747696 0.27952772 0.2549053 0.23297149
000090 ba 49 70 3e 12 89 df 3e ed 15 32 3e 04 fa d6 3e
       0.23465624 0.43659264 0.17391177 0.41987622
0000a0 67 3f 14 3e 8a 07 84 3e 5b a7 61 3e ae c3 49 3e
       0.14477311 0.25787002 0.22036497 0.19703552
0000b0 1d ef 51 3e 37 5b b1 3e 3c e1 21 3e ff f5 2c 3e
       0.2050137 0.34639904 0.15808576 0.16890715
0000c0 b5 b7 a7 3e cf 13 80 3e 88 26 09 3f 1a c0 2f 3e
       0.32757345 0.25015113 0.5357442 0.17163125
0000d0 dd 93 8e 3e b9 69 01 3e 49 34 11 3e 36 ed d5 3e
       0.27847186 0.12637986 0.14180101 0.4178254
0000e0 d1 c2 cb 3e df 23 19 3e ef 0d b9 3e f9 b9 87 3e
       0.3979707 0.1495509 0.36143443 0.26509073
0000f0 16 be 85 3e 99 fa ee 3d 01 0d 24 3e 0e 3b 94 3e
       0.26121587 0.116688915 0.16020586 0.28951305
000100 e8 65 7b 3e 90 c3 a2 3e fa 95 a2 3e c2 4a af 3e
       0.24550593 0.31789827 0.31755048 0.34236723
000110 86 9e 96 3d 75 62 c1 3d a9 e2 9c 3e 1f 8c 69 3e
       0.07354455 0.09442607 0.30641678 0.22807358
000120 c3 c8 85 3e 1b 99 a9 3e 2d 02 a9 3e 79 e8 31 3e
       0.26129732 0.33124623 0.33009472 0.17373838
000130 5f e6 4a 3e 42 58 5c 3e 3c 2a e8 3e 07 08 7f 3e
       0.19814442 0.21518043 0.45344722 0.24905406
000140 54 da df 3e 7e 3c b8 3e 1d d7 9d 3e b6 83 82 3e
       0.4372126 0.35983652 0.3082818 0.25491112
000150 e7 0e 40 3e 92 c3 38 3e 38 51 48 3e 2b 7d 1c 3e
       0.18755685 0.18043354 0.19562232 0.15282123
000160 b1 0c 9b 3e f3 a1 90 3e 10 67 94 3e 9d 8f 81 3e
       0.3028312 0.28248557 0.2898488 0.2530488
000170 8a dd 41 3e c1 c8 0f 3e 4a 66 18 3e d5 78 69 3e
       0.18932167 0.14041425 0.1488277 0.228
000180 12 57 d1 3e 56 be 98 3e 28 25 8a 3e 77 8f 5c 3e
       0.40886742 0.29832715 0.26981473 0.21539102
000190 43 3e 47 3e c8 a4 6d 3e a3 5e 3e 3e bd ef ae 3e
       0.19457345 0.2320739 0.18590789 0.3416728
0001a0 91 c3 d1 3e 7b 18 89 3e 36 dc 9b 3e fe 6f 57 3e
       0.40969518 0.2677649 0.30441445 0.21038815
0001b0 f7 04 8d 3e cd 90 53 3e 3c 6e 82 3e 30 94 dc 3e
       0.2754285 0.20660706 0.25474727 0.43081808
0001c0 92 eb d0 3e 07 af 8d 3e 92 33 9e 3e 3f be a2 3e
       0.40804726 0.27672598 0.3089872 0.3178577
0001d0 10 7d 82 3e cd 27 a8 3e 2a 90 40 3e 5c b0 d8 3e
       0.2548604 0.32842866 0.18804994 0.42322052
0001e0 7b 7f 53 3e 05 7f 09 3e 16 43 8d 3d 5e 8b c0 3e
       0.20654099 0.1342736 0.06897561 0.3760633
0001f0 b7 79 89 3e a6 77 f2 3e 28 26 6b 3e 79 3d a1 3e
       0.26850674 0.4735691 0.22963774 0.31492212

layers.4.weight f4 [128, 128]
000000 cb 63 6a bd f2 38 13 bd 4f d3 52 bd 9b 05 32 3c
       -0.057224076 -0.03594298 -0.05147105 0.010865594
000010 d7 05 92 bd e2 5c 82 bd 6c a5 59 bc 15 d3 08 3d
       -0.0713002 -0.06365372 -0.013284069 0.03340443
000020 fd 95 42 bd b6 fa 0e 3c 78 d2 b6 3c 4f 26 6f 3d
       -0.04750632 0.008726766 0.022317156 0.058386143
000030 87 47 9a bd 95 f2 84 3d 2f f9 8c bd ba 6a 9e 3d
       -0.07533174 0.06491581 -0.068834655 0.077352
000040 ba 33 65 bd d7 3f c5 3c 09 e9 9b 3c 8f 9f c0 3b
       -0.055957533 0.024078293 0.019032018 0.005878396
000050 18 e7 a0 bd 4c 22 ab 3d e1 3b 75 3d 79 cf 8f 3d
       -0.07856578 0.08356151 0.059871558 0.07021994
000060 6b 5d 62 3d 62 b6 8d 3d c7 26 86 bc 4b 52 32 3d
       0.05526487 0.069195524 -0.016375912 0.043535512
000070 eb 37 81 bc 98 ac 9d 3d f8 e6 2f 3c ea 6a aa bd
       -0.015773734 0.07698935 0.01073622 -0.083211735
000080 7e c9 ac 3d 07 e5 98 3d 24 a6 58 3d 6d 82 19 3d
       0.08436869 0.074655585 0.05289282 0.0374779
000090 11 6b 76 3d bf 39 ed 3a 4b 75 85 bb 3c 6b 59 bd
       0.0601607 0.0018098875 -0.0040728203 -0.053080782
0000a0 4f e9 14 bd 9f 13 3c 3d 9a 65 77 3d b8 59 11 3b
       -0.036355313 0.04591715 0.06039963 0.002217872
0000b0 bd 10 b4 3d e8 16 fe bc f7 91 64 bd 06 68 41 3c
       0.08792255 -0.031016782 -0.055803265 0.011804586
0000c0 36 3d cd 3b d6 1a a5 3d a9 2a d2 3b c3 9c 7d 3d
       0.0062634004 0.08061759 0.006413777 0.061917078
0000d0 a4 1a 13 3d 61 9f 0d 3d ae 73 1f bc 9f 71 46 3d
       0.03591408 0.034575824 -0.00973217 0.0484482
0000e0 ed 03 8d 3d f8 01 97 bd b8 af 9a bd 63 c0 e8 3c
       0.068855144 -0.073734224 -0.07553047 0.02841205
0000f0 32 2f 44 3c 5f 26 9c 3c 95 b8 96 3d a8 1e 51 bd
       0.011974143 0.019061266 0.07359425 -0.051054627
000100 f9 35 67 bd 2e 54 0f 3c ac e3 ae 3d 2d 8d a8 3d
       -0.056447957 0.008748097 0.08539519 0.08230052
000110 7a bf 72 3d a8 75 2c ba 22 15 42 bd d2 a4 15 3d
       0.059264638 -0.00065788114 -0.047383435 0.036534138
000120 74 a4 05 3d 85 42 09 bd a1 af b9 3d 25 80 fb 3b
       0.032627538 -0.033510704 0.09066702 0.007675188
000130 fc f4 be bd d8 b8 ea bc e8 c2 18 bb 67 c4 86 3d
       -0.09324071 -0.028652593 -0.0023309533 0.065804295
000140 44 5d 4b bc 1f a8 69 bd 80 f2 95 bc 4d 48 b1 3c
       -0.012412373 -0.0570451 -0.01830411 0.021640921
000150 83 d3 90 bd 3b 4f 2d bd 0c 72 67 bc 28 60 1d bd
       -0.07071593 -0.04231189 -0.014126312 -0.03842178
000160 ae 32 3f 3c ce a1 d1 3c 5d 85 a8 3d a5 37 30 bd
       0.011669798 0.02558985 0.08228562 -0.043021817
000170 63 25 10 3d a8 87 1d bd 1c ca e7 bc d5 a5 09 3d
       0.035191905 -0.03845945 -0.028294615 0.033605415
000180 0f dd 44 bd e8 12 4e 3c 82 90 23 3c f3 79 8a 3c
       -0.04806238 0.01257775 0.009983184 0.016903853
000190 bd e7 5e 3b 63 35 b0 bd 8b 1e 69 bd 78 96 76 bd
       0.0034012638 -0.08603933 -0.056913894 -0.060202092
0001a0 b0 e8 cd 3c da 11 36 bd bd 2e e5 bc 74 62 8e 3d
       0.025135368 -0.04445062 -0.027976388 0.06952372
0001b0 89 ae ae bd c7 6d c4 3b da 7a 29 b9 3a 2f a2 3d
       -0.08529384 0.005994532 -0.00016162862 0.07919164
0001c0 4b b3 89 bd ee 55 97 bd b1 1e 9c bd 65 16 aa 3c
       -0.067236505 -0.07389437 -0.076230414 0.020762632
0001d0 9d 23 2f bd 79 d9 61 3d e7 a0 91 bd 00 0b 9f 3b
       -0.042758573 0.05513904 -0.07110768 0.004853606
0001e0 0f 7a 29 3c 27 a9 e9 bc 8d 2e 93 3d 4a ab 81 3c
       0.010344042 -0.028523041 0.07186613 0.015828747
0001f0 40 e9 99 3a ca 62 4a bc d4 ab 62 bd 98 82 aa bd
       0.0011742488 -0.012352655 -0.05533965 -0.0832569
000200 4e a1 dd 3c 62 07 d9 3a d1 20 ae 3d 3e b5 3d 3d
       0.027054455 0.0016557986 0.08502353 0.046315424
000210 b9 99 fc bb 21 f2 bb bd 3d 78 44 3d af 27 8e bc
       -0.007708755 -0.09177042 0.04796623 -0.017352907
000220 cd 4e 5f bd 62 b4 7a 3d 1c 1d 9a bd 17 ba b0 3d
       -0.05451851 0.061207183 -0.075250834 0.08629244
000230 2a d0 34 3d c1 77 ba bc a8 9b 24 bd 1b fb 23 3d
       0.044143833 -0.022762181 -0.040187508 0.040034395
000240 0a 4f bb bc 97 3d 29 bd 45 70 21 3a 51 8f b4 bd
       -0.022864837 -0.041318502 0.0006158392 -0.08816398
000250 8d 41 93 bc 11 00 90 3d 78 03 b3 3a 98 5f 82 bd
       -0.017975593 0.07031263 0.001365765 -0.06365889
000260 fb 48 93 bc e5 64 aa 3d bc bb ad bc 47 f8 d2 3b
       -0.017979136 0.08320025 -0.021207683 0.0064382884
000270 a9 4d ef 3c a1 03 47 bd 9e a9 7c 3c 61 43 2a 3d
       0.029211836 -0.048587445 0.015421299 0.041568164
000280 b7 4e 5b 3d 95 4a 61 3d 31 71 b7 3d 49 2f 9e 3c
       0.053541865 0.055002768 0.089571364 0.019309657
000290 24 d0 a3 bd 13 b2 5e 3d 3b 2c a8 bd f1 17 88 3d
       -0.07998684 0.054369044 -0.08211561 0.066451915
0002a0 bf 49 ee 3b 56 30 43 bd 62 a7 3d bd a6 58 96 bc
       0.007271975 -0.04765352 -0.046302207 -0.018352818
0002b0 ce 9f 1b bd 33 e8 ac bd 23 a4 34 bb 2d 56 73 bc
       -0.0379942 -0.08442726 -0.0027563653 -0.014852089
0002c0 c0 92 63 bd 41 85 2c bc de e0 9f 3d 57 e4 3c 3c
       -0.055559874 -0.010529817 0.07806562 0.01152905
0002d0 61 8e c6 3c 94 9f b7 bc f0 96 1e bd 72 15 08 3b
       0.024237813 -0.02241496 -0.038718164 0.0020764736
0002e0 05 f6 64 3d ed 48 4e 3d b3 dc 95 bd 58 14 76 3d
       0.055898685 0.050362516 -0.07317486 0.060077995
0002f0 25 21 fa bc 75 73 3a 3d 66 7d 9f bd 41 97 51 3d
       -0.030533383 0.045520265 -0.0778759 0.051169638
000300 11 32 e5 3c 8f 1a c9 bc 25 58 9a 3d c3 d7 79 bc
       0.027977975 -0.024548797 0.075363435 -0.0152491955
000310 74 d3 d3 bb 54 47 50 bd a3 54 b9 bd f1 b2 cf bc
       -0.006464416 -0.050849274 -0.09049346 -0.02535388
000320 c9 4a 97 bd 13 f1 2d bd 21 1c 22 3d 3e 92 63 3d
       -0.07387311 -0.042466234 0.039577607 0.05555939
000330 b4 11 c1 bc 88 66 01 3d 36 6e 7a 3d e7 57 63 bb
       -0.023568012 0.031591922 0.06114026 -0.0034689845
000340 e5 47 49 3d bf 1e 2d 3d 1c af 12 3d ab 5d 1a 3b
       0.04914083 0.04226565 0.03581153 0.0023554366
000350 8d 94 22 bd da 95 25 bb 4f 40 12 3d 97 1b 97 bd
       -0.03969245 -0.002526632 0.03570586 -0.07378309
000360 2c 17 9f 3d e0 52 72 bd c2 a2 28 3d 4e 09 a3 3d
       0.077680916 -0.059161067 0.041170843 0.07960759
000370 13 10 8f bd bb 31 07 3d d5 4a 42 3d 72 7f 3d 3c
       -0.06985488 0.03300641 0.047434647 0.01156603
000380 54 9c bd 3d 5e cb 74 3d 10 17 41 bd b6 d8 af bd
       0.09258333 0.05976426 -0.047141135 -0.08586256
000390 33 5b d5 3c 4c 80 b0 3d b8 93 ac 3d ee 8e 74 3c
       0.026044464 0.08618221 0.084266126 0.014926655
0003a0 b9 2c f0 bb af 96 91 3a 96 5d b8 bd 5e 84 8a 3d
       -0.00732955 0.0011107529 -0.09002225 0.06763528
0003b0 07 8a 59 bd 20 f8 87 3d 45 28 6a 3d ff eb 75 3d
       -0.05311015 0.06639123 0.05716731 0.060039517
0003c0 32 d8 a9 3d 24 7f a3 bb f1 7b 89 3c b7 62 2e 3d
       0.08293189 -0.0049895216 0.016782733 0.04257461
0003d0 cd f6 09 3d 0d e9 8b bd af 2d 9e 3c 2d 15 0a bd
       0.033682633 -0.0683156 0.019308893 -0.0337116
0003e0 7b 64 37 3d 1d 52 8b 3d 91 a0 9a bd e8 08 da bc
       0.04477356 0.06802771 -0.07550157 -0.026615575
0003f0 a6 97 24 3d 95 e4 d0 bb 7e 49 71 bd 74 2b ee 3a
       0.040183686 -0.0063749054 -0.05890798 0.0018170909

layers.4.bias f4 [128]
000000 99 15 71 3d 4e cd 87 3b 85 f0 80 3d 56 13 8f 3d
       0.058858488 0.0041443473 0.062958755 0.0698611
000010 ee 1b 8b bd 28 a1 8c ba 0b 1e 7e 3d f9 91 5f 3d
       -0.067924365 -0.0010729181 0.06204037 0.05458257
000020 fd ad be 3c 47 3c 99 3d 3e 8f ec 3c 86 41 65 bd
       0.023276323 0.074822 0.028876897 -0.05597069
000030 3d de 28 bd 0d 2b a1 3d d3 e4 57 3d 51 f2 05 bd
       -0.041227568 0.078695394 0.05270846 -0.032701794
000040 8a 19 55 bd 15 35 a5 3d 49 45 ca bc b1 09 94 bb
       -0.05202631 0.08066765 -0.02469124 -0.004517757
000050 a4 7f 32 3d ef 2d cc bb ba 02 91 3d a3 4a 80 3c
       0.04357876 -0.0062310616 0.07080598 0.01566059
000060 b0 25 8f bd 86 d9 0c bd 8b 2b 64 3d d8 09 98 3d
       -0.0698961 -0.034387134 0.05570559 0.074237525
000070 93 e9 25 b7 40 8c 54 3c 20 9d 84 3d 9d 05 32 3d
       -9.88915e-06 0.012972891 0.06475282 0.043462384
000080 93 e2 58 3d c4 f1 46 bc 92 da af 3c 20 81 a8 bd
       0.052950453 -0.012142602 0.021466527 -0.08227754
000090 97 63 1b 3c 1f 43 38 bd 13 c3 b1 bd 97 db 11 3b
       0.009484193 -0.044985887 -0.086797856 0.002225613
0000a0 7f 60 04 bd 67 2d 09 3c 7b 5c 96 3d 47 e9 0e bd
       -0.03231859 0.008372641 0.07341858 -0.03489044
0000b0 5e 36 a2 3d f1 30 78 3d cb 16 b5 bc 1e cb 9b bd
       0.07920526 0.06059355 -0.022105595 -0.07607101
0000c0 e8 8d 8c ba c7 a2 55 3c 72 0f a3 bd df f0 87 3d
       -0.0010723444 0.013039297 -0.0796193 0.066377394
0000d0 07 28 c7 bc 7c 2d 8e bd 2c 1e 98 bd f0 41 06 3d
       -0.024311079 -0.06942269 -0.0742763 0.032777727
0000e0 34 68 15 bc 1e 73 19 3d 88 e3 9d bd c4 7c 94 bd
       -0.009119082 0.0374633 -0.07709414 -0.0725036
0000f0 eb 83 39 3d b7 48 44 3d 23 d5 9a 3d b9 be 2b 3c
       0.045291822 0.04792091 0.07560184 0.010482484
000100 8a cc 79 3d 27 e4 95 bd db c2 c7 bc 82 f4 53 bc
       0.06098608 -0.07318907 -0.024384907 -0.012936713
000110 96 14 91 bd c5 3d 9a bd e3 de c8 3c 22 e7 b0 3d
       -0.070840046 -0.07531313 0.024520343 0.08637835
000120 d7 7c b4 3d 72 65 8f 3d 27 23 33 bd f8 05 95 bd
       0.08812874 0.07001771 -0.043734696 -0.07276529
000130 56 fe 9f 3d 93 2a aa bd b5 e6 ac bd 06 92 05 bc
       0.078121826 -0.08308902 -0.084424414 -0.0081524905
000140 0b ff e9 3c 36 09 fc 3a bf cf 83 bc 95 34 b5 3c
       0.028563997 0.0019228819 -0.016090272 0.0221198
000150 31 9a f9 3c 84 ff ac bd 35 cc 8a bd 12 8a 5f 3b
       0.030469032 -0.08447173 -0.06777231 0.0034109396
000160 0c 40 41 bd 59 2d 44 3d 4f 33 91 3d e5 e2 b0 bc
       -0.04718022 0.04789481 0.070898645 -0.021592567
000170 0a 58 70 3d bc cd 14 3d 3d 06 8d bd 4d ce f2 bc
       0.05867771 0.036329016 -0.068859555 -0.029639388
000180 f5 e7 79 bd d1 97 16 bd 0f ee aa 3c fc e9 09 3d
       -0.061012227 -0.036765877 0.020865468 0.03367041
000190 94 71 6c 3d 80 67 7b 3d 2c f0 db 3c a0 18 ec bc
       0.057725504 0.061378002 0.026847921 -0.028820336
0001a0 2f 8a 16 3d 4d f2 a5 3c 65 db d6 bc d1 ef 21 bd
       0.036752876 0.02025714 -0.026227662 -0.039535347
0001b0 c0 76 4f 3d 51 98 4e bc aa 00 80 3d b4 80 24 bb
       0.05065036 -0.012609557 0.06250127 -0.0025101127
0001c0 99 91 ac bd 14 59 49 bd 49 3c e6 bb dc 66 53 bc
       -0.08426208 -0.049157217 -0.0070262295 -0.012902942
0001d0 40 1c e3 bc b3 2a e7 3c 47 2a b2 3d 59 dd a2 bd
       -0.027723432 0.028218603 0.0869947 -0.07952375
0001e0 80 34 a2 bd a8 4e a4 bd 6e 81 49 3d 92 54 ac 3d
       -0.0792017 -0.08022815 0.0491957 0.08414568
0001f0 2a 52 ab bd c9 0c 37 bc 24 c0 81 bc fb be 19 bd
       -0.08365281 -0.011172482 -0.01583869 -0.03753565

layers.5.weight f4 [128]
000000 43 f4 7a 3f da 79 7c 3f dd b4 85 3f 53 a8 7e 3f
       0.98028964 0.9862343 1.044582 0.9947559
000010 fd 96 80 3f 49 ff 7f 3f 6e e2 7c 3f cd 8b 7e 3f
       1.0046078 0.9999891 0.98783004 0.9943207
000020 21 41 80 3f b4 8f 7a 3f 94 04 7c 3f 13 56 85 3f
       1.0019876 0.97875524 0.98444486 1.0416893
000030 db 1f 81 3f 6f 48 7c 3f cd 0e 82 3f 8f 74 77 3f
       1.0087847 0.98548025 1.0160767 0.9666223
000040 cc 88 7f 3f d1 ea 84 3f 6c f8 7b 3f 59 2b 7e 3f
       0.9981811 1.038416 0.98425937 0.99284893
000050 60 19 81 3f f9 9e 78 3f 4a 85 84 3f e4 dc 7d 3f
       1.0085869 0.97117573 1.0353177 0.9916518
000060 93 89 7f 3f be 0d 7f 3f 8c 34 7e 3f 94 3b 79 3f
       0.99819297 0.99630344 0.9929893 0.97356534
000070 5d 52 7a 3f f5 93 81 3f 7f f8 78 3f 93 86 7d 3f
       0.97781926 1.0123278 0.97254175 0.9903347
000080 8f 8a 81 3f 8a 51 7a 3f c2 bd 86 3f 0b 4a 7a 3f
       1.012041 0.9778067 1.052666 0.9776923
000090 56 29 81 3f 72 b4 7e 3f a7 0e 7c 3f 0b 52 84 3f
       1.009074 0.9949409 0.9845986 1.0337538
0000a0 d7 fb 80 3f ff 88 7b 3f 4c 08 7f 3f 64 22 80 3f
       1.0076855 0.98255914 0.99622035 1.0010495
0000b0 6e 54 7b 3f 03 0c 80 3f 83 bc 81 3f 4c ac 7d 3f
       0.98175704 1.0003666 1.0135654 0.9909103
0000c0 86 78 7b 3f 16 b0 7e 3f 26 13 7a 3f 10 06 7b 3f
       0.9823078 0.99487436 0.9768547 0.98056126
0000d0 1a 1e 80 3f 73 fb 79 3f 6d f8 7a 3f 24 96 7b 3f
       1.0009186 0.97649306 0.9803532 0.9827597
0000e0 78 31 81 3f bd fe 79 3f 24 56 7c 3f 29 52 85 3f
       1.0093222 0.97654325 0.9856894 1.0415698
0000f0 bc d7 7a 3f 4a fe 7e 3f 52 0a 80 3f fc 0a 7d 3f
       0.97985435 0.99606764 1.000315 0.98844886
000100 69 17 82 3f 8a 89 7c 3f 7e c1 80 3f 4f 9d 79 3f
       1.0163394 0.9864737 1.0059049 0.9750566
000110 9a 32 7a 3f d2 aa 80 3f 7a d4 7c 3f c5 61 7a 3f
       0.9773346 1.005213 0.98761714 0.97805434
000120 4a b4 82 3f e2 44 7f 3f 3b fe 79 3f 1c 22 84 3f
       1.021127 0.9971448 0.9765355 1.0322909
000130 6d 4d 7f 3f 7b 63 7f 3f c7 00 80 3f 35 22 7e 3f
       0.9972752 0.9976117 1.0000237 0.99270946
000140 5d 2b 83 3f 16 a4 7f 3f 6b 92 7c 3f 71 da 7f 3f
       1.0247608 0.9985975 0.98660916 0.9994269
000150 6b 7d 83 3f 65 92 79 3f ca 63 7d 3f 16 7a 7d 3f
       1.027265 0.97489005 0.9898039 0.99014413
000160 27 13 87 3f 84 11 81 3f 40 a3 7b 3f 60 83 7a 3f
       1.055272 1.008347 0.98295975 0.9785671
000170 42 ff 76 3f ae 4f 7d 3f 7c d1 81 3f 5e 08 7d 3f
       0.9648324 0.98949707 1.0142055 0.9884089
000180 3e d8 81 3f 21 49 82 3f d6 d2 7a 3f 3a 7a 7f 3f
       1.0144117 1.0178567 0.9797796 0.9979588
000190 de ff 7e 3f 73 f5 7b 3f 39 60 78 3f 25 3b 79 3f
       0.9960917 0.984214 0.97021824 0.9735587
0001a0 f3 2d 7d 3f fa 52 7d 3f 5e 94 89 3f 8b b3 7f 3f
       0.9889824 0.9895474 1.0748403 0.99883336
0001b0 5d 8d 81 3f cb d8 7d 3f 79 78 81 3f e9 18 7a 3f
       1.0121266 0.99158925 1.011489 0.9769426
0001c0 84 61 80 3f d8 44 79 3f 3c aa 7d 3f af cb 84 3f
       1.002976 0.9737067 0.9908788 1.0374659
0001d0 d2 34 7e 3f 41 7a 79 3f b4 d3 83 3f 46 7a 87 3f
       0.9929935 0.9745217 1.0298982 1.058419
0001e0 ec 31 7c 3f fb e4 7e 3f 59 18 87 3f bf 34 80 3f
       0.98513675 0.99568146 1.0554305 1.0016097
0001f0 e3 66 80 3f eb b9 79 3f 54 48 7f 3f b7 58 7c 3f
       1.0031399 0.97549313 0.9971974 0.9857287

layers.5.bias f4 [128]
000000 74 4a a2 bc 1d f5 5d bc 46 7f 1a 3d 03 b5 56 3c
       -0.019810893 -0.013547209 0.037719034 0.01310468
000010 11 99 c5 3b ba 74 53 3c c7 c8 5d bb cf 7d 31 3c
       0.00603021 0.012906248 -0.0033841596 0.010833218
000020 8a ab e8 3c 46 f4 99 bc 2d fd 15 bc d4 a3 74 3d
       0.028402109 -0.018793236 -0.0091546 0.05972655
000030 e1 b4 ee 3c cc 0b f7 bb 22 15 90 3c 07 c4 ca bc
       0.029138984 -0.007539248 0.017588202 -0.024751676
000040 d5 86 67 3b 31 31 08 3d ef 3a b7 bc cf 44 87 bc
       0.003532817 0.033250038 -0.022366969 -0.016512303
000050 66 6c df 3c 4e 01 a3 bc 96 1c 39 3d 57 25 2a 3b
       0.027273368 -0.019898083 0.045193277 0.0025962198
000060 ae 25 5e 3c 82 72 1d 3c 56 80 e3 ba 92 2f b9 bc
       0.013558788 0.00960982 -0.0017356973 -0.022605691
000070 e9 15 8a bc 71 54 c7 3c d4 3c e2 bc 59 5b 4a bc
       -0.01685615 0.024332257 -0.027616896 -0.012350881
000080 65 7f 6e 3c c2 21 90 bc 64 2d 15 3d c9 dc d7 ba
       0.01455674 -0.017594222 0.03642024 -0.0016468997
000090 08 a9 48 3c 5f 57 a5 3c 3b ea c4 bb 64 c4 f8 3c
       0.012247331 0.020183263 -0.0060093678 0.030367084
0000a0 6a c6 d6 3c b1 25 6c bc e9 07 8f bb ba d0 df 3c
       0.026217658 -0.014413283 -0.0043649566 0.027321208
0000b0 30 db 89 bc a1 38 47 3a af 49 99 3c 0a 99 9d 3a
       -0.01682815 0.0007599686 0.018711893 0.0012023759
0000c0 c1 1c 14 bc d9 f8 14 bb 2b bb c5 bc 06 54 ff bb
       -0.009040059 -0.0022731333 -0.0241371 -0.007791999
0000d0 1a 43 2f 3c 6e 07 dd bc ed 41 61 bc bf 41 f4 bb
       0.010697151 -0.026981082 -0.013748628 -0.0074541266
0000e0 8d 79 12 3c 39 35 0e bc 1e 88 2c bc 3d 68 e8 3c
       0.008940113 -0.008679681 -0.0105305 0.028370017
0000f0 c4 3c 79 bc e7 66 06 3c 72 e0 f4 3c f1 f1 4a 3a
       -0.015212242 0.008203245 0.02989218 0.00077417406
000100 ac f7 2c 3c 00 a0 3f bc f1 1c ba 3c 57 b2 b9 bc
       0.010557096 -0.011695862 0.022718878 -0.022668047
000110 84 f2 8d bc 50 0f a2 3b 20 3d 15 bc 8b 15 12 bc
       -0.017327555 0.004945673 -0.009108812 -0.008916269
000120 ed a0 6e 3d d8 4f bc bb 78 4b 7d bc 58 25 ca 3c
       0.05825894 -0.005746823 -0.015459888 0.02467601
000130 c4 a8 ac 3a a5 86 0e 3d 7c f6 27 3b a2 88 1d bc
       0.0013172855 0.034796376 0.0025629094 -0.009615095
000140 0d 1c 92 3c db ee 17 3c c4 5e 03 bc 40 cf 5b 3c
       0.017835641 0.009273256 -0.008018199 0.0134161115
000150 16 24 45 3d 69 42 cb bc b6 80 20 3c 96 0a 31 bc
       0.048130117 -0.02481194 0.009796312 -0.010805747
000160 da 55 7f 3d c9 93 05 3c a7 2a 35 bc 1f 80 a1 bc
       0.062337734 0.0081529105 -0.011057532 -0.019714413
000170 d0 12 02 bd af c5 89 3b 67 a2 9d 3c a6 23 94 bc
       -0.031756222 0.004204474 0.019242479 -0.018083405
000180 4f 52 05 3c 1a 40 df 3b 1a 04 88 bc 8d 45 5b 3a
       0.0081373 0.0068130614 -0.016603518 0.0008364551
000190 a6 a6 89 3c 0f 2b 95 bc 01 6c ef bc 38 ec ab bc
       0.016803097 -0.018209008 -0.029226305 -0.020986661
0001a0 1a 49 11 bc cb 5b 0e bc f0 00 8d 3d 2b 76 78 3c
       -0.008867526 -0.008688877 0.068849444 0.015164892
0001b0 8c ff 09 3d a2 54 18 3b 44 59 bd 3c b4 81 bf bc
       0.033690974 0.0023243804 0.023113854 -0.023377277
0001c0 30 34 91 3c 18 a8 a1 bc 9f aa 17 bc 3b 39 03 3d
       0.01772508 -0.019733474 -0.009256988 0.032037
0001d0 70 fe e7 bb 72 37 3c bc 8f a9 01 3d 1c 9e 03 3d
       -0.007079892 -0.011487829 0.031655844 0.032133207
0001e0 1c 3a 2f bb 10 8b ba 39 90 cd 6a 3d 45 f9 13 3d
       -0.0026737517 0.00035580294 0.057324946 0.036126394
0001f0 3f 4c 42 3c 61 d1 1d bc e1 30 65 3b e6 88 a9 bc
       0.011858999 -0.009632439 0.003497176 -0.020695161

layers.5.running_mean f4 [128]
000000 cb 63 ff 3d 2c a6 1a 3e 3e 63 70 bd 1a 51 84 be
       0.12470206 0.15102452 -0.058688395 -0.25843126
000010 09 95 24 be fc 93 d1 3d bb 31 07 3e d8 b4 21 3e
       -0.16072477 0.10233304 0.13202564 0.15791643
000020 f1 f4 c9 bd bc 79 05 be 49 3b 03 bf 7b 57 e3 3d
       -0.09861172 -0.13034719 -0.51262337 0.1110067
000030 22 74 57 bc 35 39 a5 bc c8 ae 0a be 75 9b 32 3e
       -0.013150247 -0.02016888 -0.13543236 0.17442115
000040 3a 52 7c be 43 0c b9 bd 68 7a 3c be 2b 88 7f 3e
       -0.24640742 -0.09035542 -0.1840607 0.24954288
000050 71 fe d7 3d 43 30 64 bd 3b a9 86 3c 90 21 a7 bd
       0.10546578 -0.05571009 0.016438117 -0.081606984
000060 7a e1 7b bd 49 9e c4 be b8 68 02 be 97 64 9a 3e
       -0.061494328 -0.38402012 -0.1273526 0.3015487
000070 5d bd c6 bd c4 e9 2f be 66 4f 93 bd b2 99 a7 be
       -0.09704087 -0.17179018 -0.071928784 -0.32734448
000080 0d 0d 9f 3e 5f 6e 12 bd f0 f2 d6 be 99 b8 a1 be
       0.31064644 -0.03574979 -0.41982222 -0.3158615
000090 cf e5 36 be 17 90 07 be d9 da a8 be 29 b5 88 3e
       -0.17861103 -0.1323856 -0.32979468 0.26700714
0000a0 93 c8 0a be a7 d4 18 be 05 52 ad bd 52 2c 38 bd
       -0.13553075 -0.1492487 -0.084629096 -0.044964142
0000b0 49 45 08 3e 64 23 89 3e 63 b5 47 3e 80 e1 9e 3e
       0.1330768 0.26784813 0.19502787 0.31031418
0000c0 d0 fe 24 bf f6 3d 22 3e b4 0a 88 be 34 70 62 bd
       -0.64451313 0.15843949 -0.26570666 -0.055282786
0000d0 ff f7 09 3d c2 f8 d5 ba e7 76 22 bf b9 b6 68 bd
       0.033683773 -0.0016324746 -0.6346268 -0.056814883
0000e0 f8 3c cf be eb 9e 46 be 05 e9 71 3d 4b f4 9a bd
       -0.40476203 -0.1939656 0.059060115 -0.075661264
0000f0 e6 b8 bc bb 30 ee 24 be 50 04 ba bd 48 9c a5 3e
       -0.0057593463 -0.16106486 -0.09082854 0.32345796
000100 ff 08 c4 bd 34 d8 ff 3e ca 44 89 ba e0 9a 31 3e
       -0.09572028 0.49969637 -0.0010472771 0.17344236
000110 15 7f 7f 3e 75 03 7e be 3e 62 0f 3f 1c 37 17 3d
       0.24950822 -0.24806006 0.5600928 0.03691779
000120 45 af f8 be ef 84 42 3e b9 9c 85 be fc 33 cd be
       -0.4857122 0.18996023 -0.26096132 -0.40078723
000130 ea 10 d8 bd fe df 70 be a9 a4 e0 3d 30 29 a0 3e
       -0.10550101 -0.23522946 0.109689064 0.31281424
000140 ec 42 98 be 1f c5 87 be 30 6d 61 3e 21 ee fb be
       -0.29738557 -0.2651758 0.22014308 -0.49205115
000150 86 87 a0 bd 8f 31 00 bf 76 36 0a be 78 e0 28 3f
       -0.07838349 -0.5007562 -0.13497338 0.6596751
000160 16 cf 1a 3e 36 fd 4e 3d 45 d9 d4 be 4f 32 04 3f
       0.1511806 0.05053445 -0.41572013 0.51639265
000170 60 55 03 be 1b c0 2e bd db 88 d9 be 6d 83 1d 3d
       -0.12825537 -0.042663675 -0.42487225 0.038455416
000180 75 5a ac 3d 4a 76 a2 bd 18 db e1 3e 79 b0 8f bd
       0.08415691 -0.07932718 0.44112468 -0.07016081
000190 9e b2 21 3e 29 0e 2e 3d 54 9c 81 3e 48 56 9b 3e
       0.15790793 0.042493973 0.2531458 0.30339265
0001a0 df c7 81 be 59 e2 61 be 66 f4 e8 3d 1a 6b 31 be
       -0.25347802 -0.22059001 0.1137474 -0.17326012
0001b0 dc e5 63 3e 8e 73 a4 bb bb b9 66 bc ba 8e 6e 3d
       0.22255653 -0.005018658 -0.0140823675 0.058241583
0001c0 ca 76 ae be cc e8 88 be d0 03 ab be 94 41 08 bd
       -0.34075004 -0.2674011 -0.33401346 -0.033265665
0001d0 15 80 51 be a6 8e cb be 03 48 50 be d7 0a 96 be
       -0.20459016 -0.3975727 -0.2033997 -0.29305145
0001e0 16 79 90 bd c6 2a 4d be 96 c6 0e 3e 46 cd 85 be
       -0.07054345 -0.20035848 0.13942942 -0.26133174
0001f0 83 5a a2 bd 7e e6 1f bd 32 a2 94 3e d9 c9 45 be
       -0.0792742 -0.039038174 0.29029995 -0.1931528

layers.5.running_var f4 [128]
000000 f6 85 6f 3e 65 88 90 3e 22 a0 37 3f c3 82 a3 3e
       0.23390946 0.2822906 0.7172872 0.319357
000010 cc 0e 07 3f 92 b4 c1 3e 1e c3 81 3e d0 c2 00 3f
       0.52756953 0.37833077 0.25344175 0.5029726
000020 ca 8f b6 3e 53 ab b0 3e 50 ff b7 3e 12 6a 1f 3f
       0.35656577 0.3450571 0.35936975 0.62271225
000030 7c 19 e1 3e 3a 0d e8 3e b4 78 c6 3e 95 cc 6e 3e
       0.43964756 0.4532259 0.38763964 0.2332023
000040 0b 66 eb 3e c2 48 46 3f fd 65 ba 3e c8 94 a6 3e
       0.4597629 0.7745477 0.36405936 0.32535386
000050 b8 23 f8 3e 33 94 55 3e b6 89 44 3f 5d 89 c1 3e
       0.4846475 0.20857315 0.7677263 0.37800112
000060 dc c8 82 3e 71 a7 ac 3e 1b c0 b2 3e ca 16 7e 3e
       0.2554387 0.33721498 0.3491219 0.24813381
000070 82 20 97 3e 4d 7a e4 3e 9f b0 91 3e 17 2e 91 3e
       0.2951699 0.44624558 0.28455064 0.28355476
000080 88 33 c9 3e d8 20 ae 3e 51 1f 60 3f a0 43 f9 3e
       0.39297128 0.34009433 0.87547785 0.48684406
000090 5d a8 f0 3e 89 69 e7 3e 21 b6 04 3f ad 25 19 3f
       0.4700345 0.45197704 0.51840407 0.59823114
0000a0 fc f3 f0 3e 2f 22 eb 3e fa a4 c4 3e 28 74 e8 3e
       0.47061145 0.45924518 0.38407117 0.4540112
0000b0 a2 19 3b 3e 86 2d a6 3e 4a 7b 20 3f 6a 51 90 3e
       0.18271497 0.32456607 0.62688124 0.28187114
0000c0 ae 0f f2 3e 94 c8 c9 3e 34 01 71 3e 19 ae b3 3e
       0.47277588 0.3941084 0.23535615 0.35093763
0000d0 76 1c f0 3e 8e b7 af 3e bf 0e 96 3e f1 d1 a4 3e
       0.46896714 0.3431973 0.29308125 0.32191423
0000e0 84 86 d2 3e 03 f5 b9 3e 40 97 cf 3e ed 66 2e 3f
       0.41118252 0.36319742 0.40545082 0.681258
0000f0 e2 9c 82 3e 53 88 01 3f be 16 fb 3e 38 12 be 3e
       0.25510317 0.5059864 0.49040788 0.37123275
000100 aa e2 c8 3e 05 80 c0 3e ac 6b df 3e 23 cf 9d 3e
       0.3923543 0.3759767 0.43636835 0.30822095
000110 a6 44 c7 3e 70 8d dc 3e 09 ad 85 3e 05 23 9f 3e
       0.38919562 0.43076658 0.26108578 0.31081405
000120 76 57 f8 3e f8 e3 b2 3e 57 9e c0 3e 8f 2b 16 3f
       0.48504227 0.3493955 0.37620804 0.58660215
000130 b6 b2 07 3f 89 a9 ce 3e f5 db d3 3e 1d ad c9 3e
       0.53007066 0.4036372 0.4137875 0.39389887
000140 3f ba 0c 3f 5b 92 9f 3e e8 6f da 3e 1a 3a e5 3e
       0.5497169 0.31166348 0.42663503 0.4477089
000150 0b 1c 08 3f 3e 87 b5 3e 54 a6 11 3f 79 60 92 3e
       0.5316779 0.35454744 0.5689442 0.28589228
000160 bb b7 1a 3f 5e 02 f6 3e c2 b2 9d 3e 96 23 b5 3e
       0.604366 0.4804868 0.30800444 0.35378712
000170 16 e8 c6 3e ce 5e 9e 3e e2 b9 05 3f ba 90 d4 3e
       0.38848943 0.30931705 0.5223676 0.41516668
000180 57 37 d3 3e ea b4 e4 3e 95 69 af 3e cd 5f db 3e
       0.41253158 0.44669276 0.3426024 0.42846528
000190 54 80 09 3f 63 85 97 3e a9 21 c1 3e e3 d9 8a 3e
       0.5371144 0.29593953 0.37720993 0.2711936
0001a0 43 73 2d 3e 57 9a 09 3f 97 f9 36 3f ca 68 a9 3e
       0.169385 0.5375113 0.71474594 0.3308776
0001b0 f1 ee f3 3e e8 03 44 3e b9 f3 c4 3e 57 37 a6 3e
       0.47643235 0.19142115 0.38467196 0.32464096
0001c0 6a 9b e9 3e 6b 73 b9 3e 6a 5d 94 3e 20 67 05 3f
       0.45626384 0.3622087 0.2897752 0.5211048
0001d0 d1 1f e1 3e 75 03 f1 3e e9 05 18 3f e3 80 73 3f
       0.43969586 0.4707295 0.5938402 0.9511854
0001e0 6e 8e b2 3e 30 bb 50 3e fc 1e 46 3f 46 e0 11 3f
       0.3487429 0.20383906 0.7739103 0.5698284
0001f0 ce 67 ef 3e ff e6 f4 3e 05 d6 c7 3e d3 5e b6 3e
       0.46758884 0.47832486 0.3903047 0.3561922
