models/best_fold1_hd256_do0.3.pth (torch, 425446 bytes, 20 tensors)

layers.0.weight f4 [256, 10]
000000 43 19 0a be 16 5f a0 be 05 de 30 bd ae 5a 52 be
       -0.13486199 -0.31322545 -0.043180484 -0.20542404
000010 06 77 43 3e 0e b8 8a 3e c9 20 ac 3d 95 f5 69 3e
       0.19088373 0.27093548 0.08404691 0.22847588
000020 14 7c 52 bd 10 79 42 3e b8 e8 92 3e 4c 8e 7d 3e
       -0.05138786 0.18991494 0.28693175 0.24761313
000030 99 e3 0b 3d a8 18 1c 3e c0 2f bb 3d c6 24 03 bd
       0.0341526 0.1524378 0.09139967 -0.03201749
000040 8f da 94 3e 27 63 1c be 23 a8 93 3e 04 6e de 3a
       0.29072997 -0.15272199 0.28839216 0.0016970043
000050 98 59 82 3e 97 df 82 be 1d f3 d2 3d 0f 64 d9 3d
       0.2545898 -0.2556121 0.103002764 0.10614788
000060 29 35 95 3e 19 69 ef 3d ae 97 15 3d 9e a0 17 be
       0.2914212 0.11689968 0.036521606 -0.14807364
000070 08 27 6a be b0 20 22 3c 30 f5 91 be 39 b3 8c be
       -0.22866452 0.009895489 -0.28507376 -0.27480486
000080 3c 0b 9a 3e 61 87 82 3e 7c 5c 97 bd 63 4a bc 3c
       0.30086696 0.2549391 -0.07390687 0.02298469
000090 06 eb 52 3e aa 7c a0 bd ac ac 37 be 60 8f dd 3d
       0.20597467 -0.07836278 -0.17936963 0.10818362
0000a0 c8 c3 4d be e0 01 1b 3e 6a d4 85 3e be 3f 4f be
       -0.20094216 0.15137434 0.26138622 -0.2023916
0000b0 3e 9c 6e 3e 37 a9 13 3d 05 7e 0e 3e 2c 45 6e be
       0.23301789 0.036050048 0.1391526 -0.23268574
0000c0 7c 37 68 be 61 7d ca 3d 20 1c 6f 3d c7 88 1e bb
       -0.22677416 0.098871954 0.05837643 -0.0024190412
0000d0 0b 04 85 3e fb 79 55 3d 73 b5 fe 3c 92 55 0a be
       0.25979647 0.052118283 0.031092381 -0.13509205
0000e0 d1 1c 2d 3e 02 c3 70 bd 88 9d 9c 3e a4 b4 14 be
       0.16905524 -0.058779724 0.30588937 -0.14522034
0000f0 ec 97 3d 3c cb 88 26 be c9 ae 6f be 3d bf 96 3e
       0.0115718655 -0.1626312 -0.23406519 0.29442778
000100 a2 ff e8 3d e3 a3 9a bb 3d 0b 8d bc 7d 01 73 3e
       0.11376883 -0.004719244 -0.017217273 0.23731036
000110 ff d3 00 bc 17 9c 9a 3d 96 ae 18 be d2 46 a0 be
       -0.007863044 0.07549303 -0.14910349 -0.31304032
000120 c5 86 11 be a1 02 59 3e b0 e1 39 be e6 23 81 3e
       -0.14211567 0.21192409 -0.18152499 0.252227
000130 08 10 9b 3e 4d 5e 9c bd 66 80 98 be e6 5f ff bd
       0.30285668 -0.07635174 -0.2978546 -0.12469463
000140 bc f3 81 3d d9 f6 48 be 33 0d f2 3c a2 b6 58 3d
       0.06345317 -0.19625415 0.02954731 0.052908547
000150 c7 1b 0c 3d 3b cd 09 3d 05 6e 74 be b0 27 e1 3d
       0.034206178 0.03364299 -0.23870094 0.10993898
000160 0d 2f 86 3e 8f 1d 9c be 51 d5 84 3e ee 4f b0 bd
       0.26207772 -0.304913 0.25943998 -0.086089954
000170 0a 88 70 3e ee 49 54 3e 0b 58 8c 3e c8 67 2f 3e
       0.23489395 0.20731327 0.2741092 0.17129433
000180 65 4c df bd 7c da f8 3d 4b ef 83 be 5a 0d 55 3a
       -0.10903243 0.121510476 -0.25768504 0.0008127295
000190 ac 46 8c be d7 ae 5a bd 03 fa 81 be b0 53 78 3e
       -0.27397668 -0.053389397 -0.25386056 0.24250674
0001a0 b0 b1 bc 3d 1e 51 ec 3b a4 30 e5 3c 80 18 42 be
       0.09213579 0.0072118184 0.027977295 -0.18954659
0001b0 15 6e fc 3c 2d 50 7e 3e 51 6d a3 3e a0 3b 32 be
       0.03081421 0.24835272 0.3191934 -0.17405558
0001c0 49 90 c0 3d 10 f1 8d be d1 81 10 3e f7 32 ad bb
       0.0940252 -0.2772298 0.14112021 -0.0052856165
0001d0 46 63 3f be 4f b9 8f be 7f f6 a0 3e 31 0d 29 3d
       -0.18690214 -0.28071067 0.31438062 0.041272346
0001e0 ff d1 39 bc 5e 02 86 3b f5 81 0a 3e c1 6e 9e 3e
       -0.011341571 0.0040896377 0.13526137 0.30943874
0001f0 2d 71 36 3d 87 f9 38 3e a7 2b 40 be 32 19 46 3e
       0.044541527 0.18063937 -0.18766652 0.19345549
000200 97 e1 a2 3e 94 04 9f be 79 55 80 3c 5e 37 a1 3d
       0.31812736 -0.3105818 0.015665757 0.078718886
000210 a2 bd 77 3d e9 9b 1e 3d 0a 60 10 be 39 3c 84 be
       0.060483582 0.038722906 -0.14099136 -0.25827196
000220 11 bf a1 be ea e7 9c bc a4 87 8a bd bc f6 52 be
       -0.31591085 -0.019153554 -0.06764153 -0.20601934
000230 92 11 90 be ca 88 69 3e 39 11 20 be ea a6 12 3b
       -0.28138405 0.22806087 -0.1563157 0.002237732
000240 b2 07 14 3e c2 96 f8 3d f2 6b 83 3e 62 81 20 3e
       0.1445606 0.1213813 0.25668293 0.15674356
000250 e1 f2 55 3e 25 b8 1c 3e 49 28 90 bd 02 b7 63 3d
       0.20893432 0.1530462 -0.07038934 0.05559445
000260 74 24 93 be 3b e5 0d 3d f0 d0 8c 3e 28 7f 34 3e
       -0.2873875 0.03464244 0.27503157 0.17626631
000270 a4 62 a0 bd 5e b1 94 be f4 ae 73 3e e1 6a 9b be
       -0.07831314 -0.2904157 0.23797208 -0.3035498
000280 8a 69 50 be 76 ed 8b bc c9 44 ed 3d 2f 4b 90 be
       -0.2035276 -0.017081004 0.11585385 -0.2818236
000290 04 12 93 3e 85 c2 9d 3e a8 72 6d bd 7d a8 1d be
       0.28724682 0.3081247 -0.057970673 -0.15396304
0002a0 1d aa ca bd cb a3 aa 3d 36 32 60 3e 68 b0 92 be
       -0.09895728 0.08332022 0.21894154 -0.28650212
0002b0 7c 8b 64 be 40 d4 b6 3c f1 47 90 3e af ed 7e be
       -0.22318834 0.022318006 0.28179887 -0.24895357
0002c0 c8 ac 46 3a dd 07 8b bd ce 8a 7b be 49 e3 29 be
       0.0007578847 -0.06788609 -0.24564669 -0.16590609
0002d0 06 59 86 be 09 23 77 bb 64 33 65 3e eb d3 00 3e
       -0.26239794 -0.0037710092 0.22382885 0.1258084
0002e0 f4 b6 05 be 0a 45 2b 3d 17 75 93 3d cd 9c 2b 3e
       -0.13058072 0.041813888 0.072000675 0.16759034
0002f0 74 ae 02 bd 5a a0 97 be 67 c8 8c bd 59 f0 97 bd
       -0.031904653 -0.29614526 -0.06874161 -0.074188896
000300 1a 7d 8a 3e f7 a3 04 be 86 c0 65 3e 1a fc 53 be
       0.2704857 -0.12953173 0.22436723 -0.20701638
000310 5c 70 09 be af 92 1f be f0 c5 24 3e 60 9d 91 3e
       -0.13421768 -0.15583299 0.16091132 0.2844038
000320 75 c4 57 bd 76 68 69 be 1c f1 27 bd c7 89 07 3e
       -0.05267759 -0.22793755 -0.041001424 0.13236152
000330 10 0a d1 bd b5 60 30 3d 84 66 84 be 4e bc 3b 3e
       -0.102069974 0.043060977 -0.25859463 0.18333551
000340 f6 6e 8f be 2c ee 8e be 8d 04 71 3e 11 3c 76 be
       -0.28014344 -0.27916086 0.23536892 -0.24046351
000350 2e 19 85 be 4b 42 69 3e 84 d0 49 3e 97 91 f1 3d
       -0.25995773 0.22779195 0.19708449 0.11795347
000360 1d ce 4e be 73 5e a4 bd 8c 39 d3 bd cb 1e 0e be
       -0.20195813 -0.08025827 -0.103137106 -0.13878934
000370 1c d1 cf bc de 37 c2 3d 94 86 5c bd 86 10 eb bd
       -0.025368266 0.09483312 -0.05383928 -0.11477761
000380 e0 a5 3e bd c7 2f 66 bd 46 79 0a 3e 31 db 4a be
       -0.04654491 -0.056197908 0.13522825 -0.19810177
000390 46 cb 31 be a4 19 29 3e 05 73 22 be 26 a0 2e 3e
       -0.17362699 0.16513687 -0.15864189 0.1705328
0003a0 43 81 89 be 0a 19 52 be db 2b 59 bd a3 77 60 3d
       -0.2685643 -0.20517364 -0.05302034 0.054801594
0003b0 98 44 98 3e a2 41 46 be d9 c3 ea bd 5c 11 58 3e
       0.29739833 -0.19360974 -0.11463136 0.21100372
0003c0 07 75 9e be 20 9c 0f be b4 81 e1 bc 0a da 7c 3e
       -0.3094866 -0.140244 -0.027527668 0.2469255
0003d0 cb a2 67 bd 96 78 03 be 4f c6 36 be cc e2 ca 3d
       -0.056551736 -0.12838969 -0.17849086 0.09906539
0003e0 19 99 8a be c7 f2 1f be 23 38 45 3e 46 1e 1b 3e
       -0.2706993 -0.15619956 0.19259696 0.15148267
0003f0 20 ef 97 3d 09 ac 33 3e 68 ec 8b be 57 d3 1a be
       0.07418656 0.17546095 -0.273288 -0.15119682

layers.0.bias f4 [256]
000000 14 87 7e be 5b be b8 bc 6c 90 f6 bd c0 da 6d be
       -0.24856216 -0.022551706 -0.12039265 -0.23227978
000010 82 70 56 3e 65 05 89 be 31 61 ed bd 04 e8 95 3e
       0.20941356 -0.26761928 -0.115908034 0.29278576
000020 27 3c 04 be 61 e0 1a bd 12 3f 67 3d 6c a0 16 be
       -0.12913571 -0.03781164 0.056456633 -0.14709634
000030 82 99 0f 3e 43 16 31 3c 4a 3d 59 3e 72 e4 0a bc
       0.14023402 0.01080853 0.21214786 -0.008477317
000040 3f 39 94 3e 99 5f 69 3e b6 fa 5e 3c c0 96 17 3e
       0.28949925 0.22790374 0.013609579 0.148036
000050 68 4d 4b 3b 9b eb 01 3e a9 24 16 3d d0 1e 52 3e
       0.003102148 0.12687533 0.036656056 0.20519567
000060 01 1a 03 be 5d 7c 86 bd a3 ca 47 3c 13 1c a1 3e
       -0.12802888 -0.06566689 0.012194308 0.3146673
000070 c7 63 4b 3e 52 47 64 be 96 5e 6d bd 3e d9 57 3e
       0.19862281 -0.22292832 -0.057951532 0.21078965
000080 f3 1d 2c be 87 e4 80 be ea 09 45 be 15 6e d0 bd
       -0.168083 -0.25174353 -0.19242063 -0.101772465
000090 dc 85 a1 be a4 78 9d 3e ab 32 48 be f5 ca 3d 3e
       -0.3154744 0.30756104 -0.19550578 0.18534453
0000a0 45 ad 0f 3e 3b 23 88 3e 56 70 cb bd dd 72 62 be
       0.14030941 0.2658938 -0.09933536 -0.2211413
0000b0 a4 43 74 be 9e 09 45 3e 9d 59 6a 3e f2 d1 da 3d
       -0.23853928 0.1924195 0.22885747 0.10684575
0000c0 c2 76 84 be 50 64 b6 bb 90 41 48 be c9 de 40 be
       -0.25871855 -0.0055661574 -0.1955626 -0.18834986
0000d0 ce 0d ce 3d 2e 47 83 3d 02 fd a7 bd a1 58 50 3e
       0.10061227 0.06410061 -0.08202554 0.20346309
0000e0 a8 10 f6 3d 5b c0 5d 3e 4c f7 56 be 79 dc 88 3e
       0.12014896 0.21655409 -0.20992774 0.26730707
0000f0 57 00 54 be ad 75 6a be 02 4a 8e be 39 0c 1e bd
       -0.20703255 -0.22896452 -0.27790838 -0.038585875
000100 90 c0 26 be a8 ba 1c 3e 8a 62 28 3e f0 44 90 3e
       -0.16284394 0.15305579 0.1644384 0.28177595
000110 b3 da 94 be 8c 83 4c bd 87 44 a8 bc 0d ba a0 bd
       -0.29073104 -0.04993014 -0.020540489 -0.07847986
000120 11 94 b9 bd 6d 74 2f 3e ad f8 92 be 2b a3 5e be
       -0.090614446 0.17134257 -0.2870535 -0.21741931
000130 57 3c 71 be c6 fd bb bd 83 84 24 bd 36 f0 a2 3d
       -0.23558174 -0.09179263 -0.040165436 0.07955973
000140 82 a0 9e 3d 94 d3 27 be b4 93 f8 3d 02 d7 f4 3d
       0.07745458 -0.16389304 0.12137547 0.11955072
000150 ad 12 64 be 42 e1 a0 3e cf 6d 17 3e f9 2a 73 3e
       -0.22272749 0.31421858 0.14787982 0.23746862
000160 2f 89 6c 3e 99 be c8 3b 8e b4 55 be 1e f7 6a be
       0.23099206 0.0061262366 -0.20869657 -0.2294583
000170 2b 3d 61 be 94 4c 9c 3e 33 1a ec 3d e0 17 13 3e
       -0.2199599 0.30527174 0.115284346 0.14364576
000180 35 1c 90 3e 8d 53 42 3e fd 9d 8f be 6b 5e 8b be
       0.2814652 0.18977185 -0.28050223 -0.27220473
000190 0a fe 90 3d d3 41 7c 3e 9f 9b 87 3e 55 9c f9 bd
       0.07079704 0.24634485 0.26485917 -0.12188021
0001a0 36 f1 bd 3d 95 0c 96 3e d0 22 03 be c4 cc 88 bd
       0.09274523 0.29306474 -0.12806249 -0.06679681
0001b0 ba 17 a3 3d 48 f3 31 3d 0e 50 48 3e 83 02 f8 bd
       0.0796351 0.0434449 0.19561788 -0.12109854
0001c0 93 4c c0 3d 57 3a 26 3e ea 0f 34 3e 0d de 29 be
       0.093896054 0.16233192 0.17584196 -0.16588612
0001d0 f9 e1 6e be ee 1d a8 3d 10 db 9f 3e dc 9d e4 3d
       -0.23328389 0.08208834 0.3122182 0.11162922
0001e0 73 26 8d 3e a8 02 9a be 58 74 84 be 53 95 08 3e
       0.27568397 -0.30080152 -0.25870013 0.13338213
0001f0 7c e4 a1 be 9e 16 fe b9 12 c2 b0 3d a3 2c b5 3d
       -0.31619632 -0.00048463506 0.08630766 0.088464044
000200 a1 e0 84 3e b3 ad 40 3e e7 de 7c be 14 fa 07 be
       0.25952628 0.18816261 -0.24694405 -0.13278991
000210 68 2a ed bd 0a c3 37 3e 0c d5 8f 3e 24 31 66 bd
       -0.11580354 0.17945495 0.2809223 -0.056199208
000220 20 61 89 3e 50 7c 86 3d 06 db f6 bd 9c 08 4c be
       0.26831913 0.065666795 -0.12053494 -0.19925159
000230 5a 6f ca 3d 26 89 3f bd 7d 51 27 be 2e 0e 8e be
       0.0988452 -0.046761654 -0.16339679 -0.27745193
000240 97 5c f7 bd 0d 21 1f 3e 4a ae 9b be 9c 9f 95 be
       -0.12078207 0.15539952 -0.3040641 -0.29223335
000250 cc 64 fe bc 56 df 6f 3e 1d 6f 97 be 53 bf a5 bd
       -0.031053923 0.2342504 -0.2957696 -0.08093133
000260 ee 51 2d 3e 20 aa 48 be 03 4b e4 bc 5a 2b 74 bd
       0.16925785 -0.19596148 -0.0278678 -0.059611656
000270 dc 1b 26 3e ef 70 8f 3e 9f 6d 49 be 5a 9e 3e 3e
       0.16221565 0.2801585 -0.19670723 0.18615094
000280 38 62 82 3e 4a 57 62 3e d2 f9 98 be 8e 4b b9 bc
       0.2546556 0.2210361 -0.29878098 -0.022619035
000290 2d 51 56 3e da e3 5b 3e 2b 6f 04 3e c4 8c 8a 3e
       0.20929404 0.21473637 0.12933032 0.2706052
0002a0 2a 72 03 3e 03 f2 20 3c 3f ba 9f 3e 51 54 66 3d
       0.12836519 0.009823325 0.31196782 0.056232754
0002b0 4b 59 ed bb c0 90 7c bd 7c 54 20 3d ec 78 48 3c
       -0.0072433106 -0.06166148 0.03914307 0.012235861
0002c0 3b 28 97 3e cf a6 6a 3e a1 17 fc bd 1b 17 98 3e
       0.2952288 0.22915195 -0.12309194 0.29705128
0002d0 10 5f 8a 3e d3 68 db bd 67 18 47 be 69 57 94 3e
       0.27025652 -0.10713353 -0.19442903 0.2897294
0002e0 a7 1f 73 be 6c 37 8b 3e 69 2c 22 be f6 e9 8f 3e
       -0.23742543 0.2719072 -0.15837254 0.28108186
0002f0 85 b0 40 3e 6c ce 72 bd a7 6b 80 be a9 d0 a5 3d
       0.18817337 -0.05927889 -0.25082132 0.080964394
000300 4e d0 30 3e 09 de 13 bd 2e c1 9b bd bf d6 e4 bd
       0.17266962 -0.03610042 -0.076052055 -0.11173772
000310 13 c0 38 be a2 c8 7f be 27 f6 05 be 8b 5f 37 be
       -0.1804202 -0.24978879 -0.13082181 -0.1790754
000320 d3 a7 85 3e e8 a1 83 be 08 52 6e 3e 0c 81 53 3e
       0.26104602 -0.25709462 0.2327348 0.20654696
000330 bd 2a 59 bd c1 22 c5 3d 8a b7 10 3e 36 99 6f be
       -0.053019274 0.096257694 0.14132515 -0.23398289
000340 94 30 02 3e 33 1b e1 3d a6 10 77 3d 46 f1 e9 3d
       0.12713844 0.10991516 0.06031861 0.114229724
000350 33 68 db 3c 56 25 35 be a7 22 85 3e a5 23 75 3d
       0.026783084 -0.17690024 0.26003 0.059848446
000360 69 46 2c 3e 49 a0 36 3e f9 b2 35 3e fe 64 48 3c
       0.16823734 0.17834581 0.17744054 0.01223111
000370 b9 a7 94 be 87 23 82 3d 68 ed 29 be 52 d8 01 3e
       -0.29034212 0.063544326 -0.1659447 0.12680176
000380 88 6d b6 bd bb 58 54 3d 64 44 59 3e aa ea 90 3d
       -0.0890761 0.051842432 0.21217495 0.070760086
000390 c7 0a 5f be 36 94 d7 3d 9b 2b 3b 3e 63 f8 94 bd
       -0.21781455 0.10526316 0.18278353 -0.072739385
0003a0 0c bc 85 be a2 a1 43 be 0d fd 9e 3e c6 b8 82 bd
       -0.2612003 -0.19104627 0.31052437 -0.06382899
0003b0 83 86 86 3c 58 d4 46 be 10 26 41 3d 43 57 d7 bc
       0.016421562 -0.1941694 0.04715544 -0.026286727
0003c0 5d d4 8d 3c 94 4a c9 bd d0 c7 5b 3e 2c 9c a7 bc
       0.017313177 -0.09828678 0.21462941 -0.02046021
0003d0 fb 94 41 3e 01 fb c8 bc b4 ab 68 be 31 11 c8 bd
       0.18904488 -0.02453375 -0.2272175 -0.09768904
0003e0 b0 8f 81 be b7 32 db 3d ad ed 99 bd af 81 a0 be
       -0.25304937 0.107030325 -0.07516036 -0.3134894
0003f0 69 fc b5 3d 57 e4 ca bd 6c a2 b0 bd 7a 18 ea bd
       0.08886034 -0.099068336 -0.086247295 -0.1143045

layers.1.weight f4 [256]
000000 7c 8d 7d 3f a6 4e 7e 3f f3 71 7d 3f fc b4 80 3f
       0.99044013 0.9933876 0.99002 1.0055232
000010 41 64 7b 3f 37 5c 7e 3f 76 b2 7d 3f b1 71 7d 3f
       0.9819985 0.9935946 0.99100435 0.99001604
000020 df 2d 7c 3f b9 6a 80 3f 36 b5 7d 3f f6 6e 81 3f
       0.98507494 1.0032569 0.9910463 1.0111988
000030 67 dd 7b 3f 68 0b 7f 3f e5 32 81 3f c4 fa 7e 3f
       0.9838471 0.9962678 1.0093657 0.9960139
000040 19 e4 7d 3f 98 3b 7f 3f 02 85 83 3f d5 5e 7d 3f
       0.99176174 0.9970031 1.0274966 0.9897283
000050 e9 0a 80 3f 13 b7 80 3f cc 97 7a 3f b6 a0 7b 3f
       1.000333 1.005587 0.97887874 0.982921
000060 2f d5 81 3f 92 e3 7f 3f 70 25 7b 3f 04 d7 7e 3f
       1.0143183 0.9995662 0.98104 0.9954684
000070 e3 38 81 3f 2e 33 7c 3f 1f 32 81 3f 6b e9 7e 3f
       1.0095485 0.98515594 1.0093421 0.9957492
000080 48 69 7d 3f 0e 33 7e 3f d6 09 80 3f df 3e 82 3f
       0.9898877 0.99296653 1.0003002 1.0175437
000090 42 f7 7d 3f 8c 19 80 3f d9 24 7f 3f 9f 5f 82 3f
       0.9920541 1.0007796 0.996656 1.0185431
0000a0 0d 93 7f 3f 62 d9 7b 3f 4d 5f 80 3f c7 18 7f 3f
       0.99833757 0.98378575 1.0029083 0.9964718
0000b0 df a4 7e 3f 59 01 7e 3f c6 57 80 3f fc 31 81 3f
       0.99470323 0.99220806 1.0026786 1.0093379
0000c0 d3 45 81 3f 6a 65 81 3f de 90 85 3f af de 82 3f
       1.0099434 1.0109074 1.0434835 1.0224208
0000d0 96 5c 80 3f 26 6e 80 3f 1e 76 7c 3f 36 15 82 3f
       1.0028255 1.0033615 0.9861773 1.0162723
0000e0 81 05 7d 3f 6a 74 7e 3f 7f 80 81 3f e0 65 81 3f
       0.98836523 0.99396384 1.0117339 1.0109215
0000f0 70 27 81 3f 83 33 7e 3f 6d 48 7e 3f 29 77 7c 3f
       1.009016 0.9929735 0.9932926 0.98619324
000100 68 af 7f 3f 54 02 7d 3f fd 35 82 3f a8 d8 80 3f
       0.99877024 0.9883168 1.0172726 1.0066118
000110 0d 2f 81 3f 7e 74 81 3f d4 be 7f 3f 70 d4 81 3f
       1.0092484 1.0113676 0.99900556 1.0142956
000120 c1 20 7f 3f 4a a1 7f 3f c5 0d 7e 3f 84 95 82 3f
       0.99659353 0.9985548 0.9923976 1.0201879
000130 ec de 7e 3f 92 37 7c 3f 20 70 7f 3f 5f 25 7f 3f
       0.995589 0.98522294 0.99780464 0.996664
000140 f1 6e 7e 3f 10 ad 81 3f 25 b3 7d 3f 4e 89 7e 3f
       0.99388033 1.013094 0.9910148 0.9942826
000150 cd e1 79 3f c6 65 80 3f 59 7e 7d 3f 93 de 80 3f
       0.9761017 1.0031059 0.99020916 1.0067924
000160 06 d4 7d 3f d6 47 7d 3f 9b 17 7e 3f 9b fa 80 3f
       0.9915165 0.9893774 0.9925477 1.0076479
000170 dd 00 80 3f 65 df 7c 3f 46 5d 82 3f 8a 6a 81 3f
       1.0000263 0.98778373 1.0184715 1.0110638
000180 15 02 81 3f 28 20 7f 3f a4 06 80 3f df 4b 7a 3f
       1.007876 0.9965844 1.0002027 0.9777202
000190 88 18 83 3f eb fa 80 3f 3a 1c 7e 3f 1e ec 80 3f
       1.0241861 1.0076574 0.9926182 1.0072057
0001a0 4e 41 7e 3f 0b fb 81 3f 56 f9 82 3f 4e 0e 7c 3f
       0.993184 1.0154737 1.0232341 0.9845933
0001b0 0f 56 7d 3f 00 aa 7b 3f 85 5d 80 3f 81 ff 7c 3f
       0.9895944 0.98306274 1.002854 0.9882737
0001c0 f6 19 7f 3f 51 bd 81 3f b4 af 7b 3f 94 db 7f 3f
       0.9964899 1.01359 0.98314977 0.99944425
0001d0 21 1c 7f 3f fb 44 82 3f 0d 67 81 3f 38 38 7f 3f
       0.99652296 1.0177301 1.0109574 0.9969516
0001e0 d5 5c 7d 3f 95 02 83 3f 07 ef 7d 3f 4a 30 80 3f
       0.98969775 1.0235163 0.9919285 1.0014737
0001f0 74 12 80 3f 5d 31 7d 3f 6c 03 7f 3f 36 a4 81 3f
       1.0005631 0.9890345 0.99614596 1.0128238
000200 79 e6 7c 3f 50 87 80 3f 0b c4 7d 3f 0d b5 7d 3f
       0.98789173 1.0041294 0.9912726 0.99104387
000210 bb 33 7c 3f 42 28 82 3f 4a 24 7f 3f 31 83 81 3f
       0.98516434 1.0168536 0.9966475 1.0118161
000220 ce 45 7b 3f 71 37 80 3f 70 8b 7e 3f b8 62 80 3f
       0.9815339 1.0016919 0.99431515 1.0030127
000230 c5 6e 7e 3f 57 98 83 3f 4a 34 80 3f bc 5e 7e 3f
       0.9938777 1.0280865 1.0015957 0.99363303
000240 d0 e4 81 3f 47 1a 7d 3f 7a aa 80 3f 8d a4 7f 3f
       1.0147953 0.9886822 1.0052025 0.9986046
000250 88 4d 81 3f 59 21 80 3f 67 13 7e 3f 15 54 7d 3f
       1.0101786 1.0010177 0.99248356 0.98956424
000260 65 a7 7e 3f cd 54 81 3f c6 43 80 3f a8 0b 80 3f
       0.99474174 1.0104004 1.0020683 1.0003557
000270 11 50 84 3f 16 94 7d 3f 00 b5 79 3f cc 3f 81 3f
       1.0336934 0.99054086 0.9754181 1.0097594
000280 36 58 7b 3f a5 00 7c 3f 2b 7c 7d 3f 29 8a 80 3f
       0.98181474 0.98438483 0.9901759 1.0042163
000290 cc 42 83 3f bb 6d 7c 3f b2 e5 7c 3f 93 d2 7d 3f
       1.025476 0.98604935 0.9878799 0.99149436
0002a0 1d 33 7d 3f df 30 7f 3f 2a 88 80 3f 32 16 7d 3f
       0.9890612 0.99683946 1.0041554 0.9886199
0002b0 f3 28 82 3f 8f 55 7b 3f db 47 86 3f 2a 52 7f 3f
       1.0168747 0.9817743 1.0490679 0.9973475
0002c0 ce 58 7f 3f 0f ad 80 3f 9e a5 7d 3f 0e ff 81 3f
       0.9974488 1.0052813 0.99080837 1.0155962
0002d0 59 dc 7e 3f 63 34 80 3f 63 9a 80 3f 0f 07 7b 3f
       0.99554974 1.0015987 1.0047115 0.98057646
0002e0 0c db 7c 3f f3 64 7c 3f 82 0e 81 3f b7 d2 7c 3f
       0.9877174 0.98591536 1.0082552 0.98759025
0002f0 dc 30 82 3f d5 73 7d 3f 69 d2 82 3f 2a 1d 80 3f
       1.0171161 0.9900487 1.0220462 1.00089
000300 09 39 7a 3f d7 0c 81 3f 90 d1 7f 3f 11 dd 7d 3f
       0.9774328 1.0082043 0.9992914 0.99165446
000310 44 32 7e 3f f7 cb 81 3f ea e3 7e 3f 93 f7 7c 3f
       0.9929545 1.014037 0.9956652 0.9881527
000320 f2 51 7f 3f b2 58 80 3f 9d 39 7d 3f 29 6d 7f 3f
       0.99734414 1.0027068 0.98916036 0.9977594
000330 2e 19 7e 3f ef 25 7c 3f a5 be 7e 3f 37 7f 7f 3f
       0.9925717 0.9849538 0.9950965 0.9980349
000340 f3 af 7c 3f 18 cd 7f 3f 5d 15 80 3f d9 0f 80 3f
       0.9870598 0.99922323 1.000652 1.0004836
000350 78 d6 7e 3f 55 d0 7b 3f e1 df 7d 3f ed 4d 7f 3f
       0.99546003 0.98364764 0.9916974 0.9972828
000360 f5 69 7c 3f d5 ef 7d 3f 35 8c 80 3f 83 26 81 3f
       0.9859918 0.9919408 1.0042788 1.0089878
000370 89 9d 7d 3f e6 27 7f 3f 8d 5c 82 3f 9d 62 80 3f
       0.99068505 0.99670255 1.0184494 1.0030094
000380 b9 a7 7d 3f e6 55 80 3f 48 c2 7e 3f 29 dc 7e 3f
       0.9908405 1.0026214 0.995152 0.9955469
000390 0b 52 81 3f fb 9b 7b 3f 9f d2 7d 3f 18 0f 7b 3f
       1.0103163 0.9828488 0.9914951 0.98069906
0003a0 b5 af 82 3f de 35 7d 3f ff d6 83 3f 02 25 7a 3f
       1.0209872 0.9891032 1.0299987 0.9771272
0003b0 a3 d9 7f 3f c2 b5 7a 3f 99 ef 82 3f 7c 50 7f 3f
       0.9994146 0.9793359 1.0229369 0.99732184
0003c0 7d ff 82 3f 16 e6 7d 3f 92 0e 80 3f 61 41 80 3f
       1.0234219 0.9917921 1.0004447 1.0019952
0003d0 79 8b 7b 3f 63 0e 80 3f 3d 83 7d 3f 4c 59 81 3f
       0.98259693 1.000439 0.9902838 1.0105376
0003e0 e4 ff 7e 3f 0c 72 84 3f 58 21 7e 3f af 2d 80 3f
       0.9960921 1.0347304 0.9926963 1.0013942
0003f0 14 08 7d 3f cb d1 80 3f 6d ce 7f 3f 93 3a 7f 3f
       0.9884045 1.0064024 0.99924356 0.9969875

layers.1.bias f4 [256]
000000 0a 6f 27 bc 0f 57 3b bc 6b 3e b1 ba cc 85 4f bc
       -0.010219345 -0.011434331 -0.001352263 -0.012666177
000010 51 45 82 bc d4 18 0c bc 19 e7 d9 bc 95 a1 44 bc
       -0.015902193 -0.008550841 -0.026599454 -0.012001415
000020 a1 fd 54 bc b5 6b 04 3b cb 5d 5f 3b 60 58 30 3c
       -0.012999923 0.00202058 0.0034083005 0.010763258
000030 4f 99 77 bc b0 cc 5b ba 35 82 9e 3c 4c 24 32 bb
       -0.015112235 -0.0008384688 0.019349197 -0.002718228
000040 21 df 3b bc 01 3c c4 bb 0c 4e 5c 3c 77 e8 9a bc
       -0.011466772 -0.0059885983 0.013446342 -0.018909676
000050 42 3e d0 3a 63 2b dd ba 02 a9 c4 bc 4f 39 1a bc
       0.0015887695 -0.0016873892 -0.02400637 -0.0094130775
000060 c8 9f 9a 3c b1 f0 40 3c 5c 7c c9 bb 7f 99 ac 3a
       0.018875018 0.011776135 -0.006148858 0.0013168304
000070 8e d8 02 bc dc 2e 99 bc e6 5f a4 3c 49 26 92 bc
       -0.007986201 -0.018699102 0.02006526 -0.017840521
000080 ca 04 ce bb 15 c9 82 bc 3b fa 3a bc 0d 0d 95 3b
       -0.006287192 -0.015965024 -0.011412199 0.004548675
000090 ea 16 a6 39 ce b6 13 3c 55 6d 9e bb d3 19 e7 3c
       0.0003167906 0.009015752 -0.0048348107 0.028210556
0000a0 be f6 3d ba 47 bc 37 bc 45 b9 ac bb c2 85 dc 3b
       -0.0007246545 -0.011214322 -0.0052711093 0.0067298124
0000b0 80 78 29 ba 4e 64 e3 bb 2c 63 ca 3c db c7 4c bc
       -0.0006464794 -0.0069394475 0.024705492 -0.012498821
0000c0 40 52 cf 3a 4a a2 b2 3b d0 02 d9 39 99 8b 0b 3d
       0.0015817359 0.0054514753 0.0004139156 0.034068678
0000d0 81 73 2c 3b a8 80 bd bb a9 dd dd 3a 8e 51 d6 3c
       0.0026313963 -0.0057831593 0.0016927022 0.026161935
0000e0 0d 34 1f 3a 1e 8b 48 3b da 3c 11 bb 57 ed 31 3c
       0.0006073125 0.0030600498 -0.0022161514 0.010859809
0000f0 82 93 86 3c 06 13 c1 ba 1c 88 9e bb e7 38 1d bc
       0.01642776 -0.0014730401 -0.004838003 -0.009596086
000100 df 22 fe bb 0c d5 a2 3b 02 00 c6 3c 10 6b 2f 3c
       -0.007755622 0.004969245 0.024169926 0.010706678
000110 58 e1 6e 3c e0 f8 88 3c 64 02 33 3c f7 35 ab bb
       0.014580093 0.016720235 0.010925863 -0.005224939
000120 f0 59 02 3c c8 4e 79 3a 79 d2 96 39 9e 16 2c 3c
       0.007956013 0.00095103355 0.00028767044 0.010503439
000130 e3 07 af bc 4e 58 af bc 92 ad d5 3b 40 71 70 3c
       -0.021366065 -0.021404412 0.0065209353 0.014675438
000140 ba 32 0c bb 8c 73 8b 3b ea 9b f2 bb a2 a9 85 b8
       -0.002139254 0.0042557176 -0.0074038403 -6.373531e-05
000150 19 ff d4 bc 02 7d 8d 3c a3 37 3f 3b 22 8d 53 3c
       -0.026000546 0.017271522 0.002917745 0.012912067
000160 71 79 51 bc 0b d3 27 bc a4 1f 1b bc 3d de 8d 3b
       -0.012785302 -0.010243188 -0.009467993 0.0043294714
000170 d1 eb 72 3c 7a 14 94 3b cd 30 8f 3b c4 58 a6 3b
       0.014826731 0.0045190426 0.004369831 0.0050764997
000180 30 e9 9e 3c de 0f 98 bb 0c 3c 8f b8 d8 0f 28 bc
       0.019398302 -0.0046405634 -6.829956e-05 -0.010257684
000190 5d 8b 30 bc 9e ea 68 3b fd 9d 3b bc 9f a4 8f 3c
       -0.010775414 0.0035540233 -0.011451242 0.017534552
0001a0 aa 07 39 bc 6f 81 39 3c db c2 31 3c 41 0b 5c bc
       -0.011293331 0.011322363 0.01084968 -0.0134304175
0001b0 a6 16 96 3b 8e 3b c5 bb 4e 24 91 bb 24 c1 b4 bc
       0.0045803366 -0.0060190624 -0.0044293767 -0.022064753
0001c0 e7 b0 0a bb d7 53 be bb 1a f4 ca bc c3 60 56 3c
       -0.002116257 -0.0058083343 -0.0247746 0.013084593
0001d0 5d f0 23 bc ba 4d f6 3c 67 b1 f7 3b 96 cd e4 3a
       -0.010006038 0.03006636 0.00755899 0.0017456289
0001e0 0c 3f 97 bc 7d 8d 98 bb 2c 09 61 bb 69 6b 9c bb
       -0.01846268 -0.0046555386 -0.0034337742 -0.0047735465
0001f0 54 5b 46 3b 6f e9 9c bb 71 60 94 ba 52 19 6a 3c
       0.0030266838 -0.0047885696 -0.0011320246 0.014288263
000200 b1 83 ad ba 96 3b ad bb 55 27 7c 3b a6 40 f7 bb
       -0.00132381 -0.005286644 0.0038475592 -0.0075455485
000210 34 42 98 bc a0 c0 d6 3c 10 d2 57 bc 99 18 3c 3c
       -0.018586256 0.026214898 -0.013172641 0.011480474
000220 e8 ec 54 bc a2 ab 79 3a f1 3e 83 bc 00 8d ff 3b
       -0.012995936 0.00095241715 -0.016021224 0.007798791
000230 b3 55 07 bc 23 eb bc 3c e3 8a 9f 3c 92 68 81 3c
       -0.008260178 0.02306134 0.019475406 0.015796933
000240 4f ba 0e bc 7e aa 84 bb cb 9d 04 3c b6 af fe 3c
       -0.008711412 -0.0040486446 0.008094261 0.031089645
000250 c8 33 ed 3b a7 c8 c5 bb 94 b6 1e 3c 2c 68 a2 bb
       0.007238839 -0.0060358825 0.009687085 -0.004956266
000260 f2 b2 18 bb 46 8f 35 3c d0 26 52 3c f6 37 2f bc
       -0.002330002 0.011081522 0.012826636 -0.0106944945
000270 04 d8 17 3c c0 31 63 bb 76 98 7b bc 2d b0 7f 3c
       0.009267811 -0.0034667104 -0.015356174 0.015605968
000280 dd f4 7b bc 5d f7 04 bc 94 c5 61 3b f8 6d 40 3c
       -0.015378204 -0.008115617 0.003445004 0.011744969
000290 3e c0 3a 3c b4 d6 b0 bb 49 54 70 bc e0 ac cd ba
       0.011398373 -0.0053966884 -0.014668533 -0.001569178
0002a0 72 5c ec bb 84 af 05 bc f6 a8 e9 3c 4d fb 8f 3b
       -0.007213169 -0.008159522 0.02852295 0.004393971
0002b0 30 7f aa ba f3 8c 6e bc b0 24 dc 3c a4 c8 86 bb
       -0.0013007876 -0.014559972 0.026872963 -0.0041132737
0002c0 1c 82 a6 bb 23 4e d9 bb 68 a4 b5 bb 63 20 ac 3c
       -0.005081428 -0.006631629 -0.0055432804 0.021011537
0002d0 ef dc 01 bc 21 70 3b bb e1 31 83 3c 60 c0 8b bc
       -0.00792621 -0.002860077 0.016014995 -0.017059505
0002e0 98 68 1e bc c5 7e b2 bc 88 65 dd 3c 38 ed cd bb
       -0.009668492 -0.021788964 0.027025953 -0.006284382
0002f0 74 88 5a 3c 7f 6d 2e bc f2 c5 af 3b f8 07 2f ba
       0.013338197 -0.010646223 0.005364173 -0.00066769077
000300 a9 ba bb bc 0e 70 97 3b 0a 43 34 bb bc ce 00 bc
       -0.022916155 0.0046215123 -0.0027505779 -0.007861789
000310 9b a9 31 bc 1e 64 b4 3c 4f 74 b9 bb cd 11 29 bb
       -0.01084366 0.022020396 -0.005659617 -0.0025797964
000320 28 9b 20 bc a4 c8 cf 3b 39 b2 07 3c 80 e4 d2 bb
       -0.009802617 0.006341057 0.008282238 -0.0064359307
000330 b4 17 af bc 70 e2 28 bc 06 23 02 bb 52 74 96 ba
       -0.021373607 -0.010307893 -0.0019857301 -0.0011478758
000340 8a db 7e bc 65 de 20 3c 04 34 96 3a aa 4c 1c 3c
       -0.015555272 0.009818648 0.0011459594 0.0095397625
000350 17 77 bf 3a c2 c7 1d bb 07 8b 98 ba cb c7 82 bb
       0.0014607635 -0.0024075364 -0.0011638113 -0.0039911023
000360 b0 aa a2 3b d8 c8 db bb 51 cc 2f 3c 6e 82 ed bb
       0.004964195 -0.006707292 0.010729865 -0.0072482144
000370 06 a9 02 bc a3 12 f7 3c 1c ae 8e 3c 74 cd ae 3a
       -0.007974869 0.030160254 0.017417006 0.0013336376
000380 06 5d 7c bc eb e1 58 3c fc bf 53 bc 18 bb fd bc
       -0.015403038 0.013237457 -0.012924191 -0.030973002
000390 db ab 6e bc 1f 3d 37 bc f6 5e 0a 3a 23 c6 b4 bc
       -0.014567341 -0.011184006 0.00052784325 -0.022067135
0003a0 6c 3e 27 3d be 6d a9 bb 85 6e 1d 3d f1 ee 88 bc
       0.040831015 -0.005170553 0.038435478 -0.016715499
0003b0 5f d8 70 3c 7e c0 60 bc 52 d5 3c 3c 7b 3d 29 b9
       0.014700024 -0.013717769 0.011525469 -0.00016139999
0003c0 95 07 71 3c e4 43 2d bc 41 fd 26 bc c9 ef 09 3d
       0.01471128 -0.010575268 -0.010192216 0.033675943
0003d0 3e 5d 16 bc 31 41 b9 bb 64 84 49 3c d8 42 49 bb
       -0.009177504 -0.0056535234 0.012299631 -0.0030710008
0003e0 50 3d 02 bc 99 8f 24 3d 5e 1a b1 3b 6d 06 18 bc
       -0.007949188 0.040176008 0.0054047545 -0.009278876
0003f0 34 60 74 bc a6 11 77 3b 9c 45 60 bc 4b 7f 85 bc
       -0.014915515 0.0037699728 -0.013688471 -0.01629605

layers.1.running_mean f4 [256]
000000 71 d9 b8 be d9 94 c1 3d ec e7 c6 3c cc 63 9a be
       -0.36103395 0.094522186 0.02428051 -0.30154264
000010 1e ab b0 3d aa 96 60 be 8c e5 b3 bd 12 75 80 3e
       0.08626388 -0.21932474 -0.08784017 0.25089318
000020 c4 70 5d bd 01 6d ef 3d 2b 44 3a bd 6f f7 cf bb
       -0.05406262 0.11690713 -0.045475166 -0.006346635
000030 03 b3 4b 3e 1f 4b 90 3d 3c e7 a4 3c c0 eb 03 bd
       0.19892506 0.07045578 0.020129792 -0.03220725
000040 e4 b6 20 3e a5 14 b2 3e ef 53 8d bd 56 73 00 3e
       0.15694767 0.34781376 -0.06900775 0.12543997
000050 75 33 20 3d a6 a8 90 3e 68 b1 d9 bb 7e ce 60 3d
       0.039111573 0.2825367 -0.006643463 0.054884426
000060 22 0c 49 be 43 de a7 3d 39 de 98 bd 27 81 a7 3e
       -0.19633535 0.0819669 -0.074642606 0.32715723
000070 e8 eb 3b 3c f3 d8 e8 bd cf 41 4c be 23 dc 30 3e
       0.011469819 -0.11369505 -0.19946979 0.17271475
000080 25 37 6f bd 9b ab 97 be dc 7b 53 be 6f f4 74 be
       -0.0584022 -0.29623112 -0.20652717 -0.23921369
000090 c9 75 24 be f4 5f bb 3e 85 5e 6e be 69 ae 5b bb
       -0.16060556 0.36596644 -0.23278244 -0.0033520705
0000a0 38 8a 88 3e ce 2e 6e 3e 20 65 12 bd 8c 6f b1 be
       0.26667953 0.23260042 -0.03574097 -0.34655416
0000b0 fd b3 58 be 83 14 2f 3e 4b 5a 40 3e c5 4b 4b 3c
       -0.2116241 0.17097668 0.18784444 0.012408202
0000c0 30 8b b0 be 25 8b 9e 3c fd 6c 90 be d0 f9 9a be
       -0.34481192 0.019353459 -0.2820815 -0.30268717
0000d0 15 01 3e 3e f8 5b 4c 3e a6 af ee 3d 8b c6 b0 3e
       0.185551 0.19956958 0.11654596 0.34526476
0000e0 c4 57 9d 3d 9c 82 ad 3e e9 d7 cc bd 20 8a d5 3e
       0.076827556 0.3388871 -0.10002119 0.41706944
0000f0 2d 4b 97 bd 48 15 aa be f8 c3 c4 be 0a 8c d0 bd
       -0.073873855 -0.3321936 -0.38430762 -0.1018296
000100 aa d9 16 bd f5 dd 7b 3e 73 9d 44 3e da b3 28 3e
       -0.036828674 0.24596389 0.19200687 0.16474858
000110 76 24 d8 be e1 60 a2 3d 3d cc 16 3e da 57 0c be
       -0.42215317 0.079286344 0.14726348 -0.13705388
000120 c3 c1 91 be 88 c5 2c 3e a3 48 85 be 20 c7 b3 be
       -0.2846814 0.16872227 -0.2603198 -0.35112858
000130 15 37 8d be 70 af bd bd e9 39 94 3d 3a ec 4a 3e
       -0.27581087 -0.09261978 0.07237608 0.19816676
000140 3f 9b 24 3e bd 22 e9 bc 1b 46 4e 3d d0 ec bc 3d
       0.16074847 -0.028458947 0.050359827 0.09224856
000150 53 2f ed bd 21 c6 d3 3e 3d 21 18 3e eb e9 07 3e
       -0.11581292 0.41362098 0.1485643 0.13272826
000160 b1 1b 5a 3e e8 d2 88 3d 8a e2 55 be 84 74 6e be
       0.21299626 0.06680852 -0.20887199 -0.23286635
000170 94 25 c1 be 28 b7 48 3e 21 bf 08 3c e3 33 51 3d
       -0.37723982 0.19601119 0.00834635 0.051074874
000180 58 d3 37 3d 43 75 52 3e 75 ee 0b be a5 97 94 be
       0.044879287 0.20552544 -0.13665183 -0.29021946
000190 4f a3 bc 3c 1d c7 47 3e 2b 96 9d 3e 13 a4 7b be
       0.02302709 0.1950955 0.30778632 -0.24574308
0001a0 dd a5 c6 3d bb bb 01 3e 17 9e 83 be b9 b9 a2 bd
       0.09699605 0.1266927 -0.2570655 -0.0794558
0001b0 05 8d 29 3e ea e1 18 3e f4 ba 95 3e e9 63 07 be
       0.16557701 0.1492993 0.29244196 -0.13221706
0001c0 f9 f3 8b bd 3a 00 8c 3e 1b ae 41 3e 57 91 2e bc
       -0.068336435 0.27343923 0.18914072 -0.010654769
0001d0 3f ca 32 be c6 9b 6d bc 77 77 2e 3e d4 d5 22 3e
       -0.17459963 -0.014502471 0.1703776 0.15901881
0001e0 29 9c 97 3e 09 35 ea be 6b 0f 80 be 07 d8 4c 3c
       0.29611328 -0.45743588 -0.25011763 0.012502677
0001f0 89 b1 b8 be 67 47 4e bc 8f 67 23 bc d2 5b a6 bd
       -0.3607295 -0.012590266 -0.009973421 -0.08122982
000200 d1 18 43 3e a0 7a 41 3e f6 da 2e be 66 c1 4f be
       0.19052435 0.18894434 -0.17075714 -0.2028862
000210 fd 24 22 be 88 4b 83 bc b0 06 4b 3e 27 85 bb bd
       -0.15834422 -0.016027227 0.1982677 -0.09156256
000220 0b 01 46 3e a9 29 53 3e aa 43 92 be e3 fc b1 bd
       0.19336335 0.20621361 -0.2856725 -0.086908124
000230 f6 5c 2f 3d d0 1d cb 3d 10 87 83 be e1 60 a1 be
       0.042813264 0.09917796 -0.25688982 -0.31519225
000240 e2 39 6b bd 9e 1b a2 3e e6 ba e4 be 87 d6 02 be
       -0.05742825 0.31661695 -0.44673842 -0.12777148
000250 8f e9 07 be 83 e9 45 3e e1 ba b3 be eb be f0 bb
       -0.1327269 0.19327359 -0.35103515 -0.007346978
000260 26 d3 a2 3e 37 eb 16 be 74 73 f9 bd 53 f8 47 be
       0.31801718 -0.14738165 -0.12180224 -0.19528322
000270 75 31 5b ba 0d 3f a2 3e c3 02 55 be d4 34 ef 3c
       -0.00083615567 0.3168873 -0.20801835 0.029199995
000280 9d b6 2e 3e 58 9c 5c 3e 0e 83 83 be aa 9d bb 3d
       0.17061849 0.21544015 -0.25685924 0.091609314
000290 23 75 3a 3c aa 9c f4 3d 5b 93 13 3e 50 a9 a5 3e
       0.011380467 0.11943944 0.1441168 0.32355738
0002a0 b1 d3 eb 3d 44 1f 1c 3d 90 83 df 3e 11 7e 88 bd
       0.11514986 0.038115755 0.43655062 -0.0666467
0002b0 a8 cf f5 bd 5a f5 42 bd ee 77 ae bd 34 a5 bc 3d
       -0.12002498 -0.047597267 -0.085189685 0.092111975
0002c0 bd 0a 20 3e ec eb 6d 3e a5 49 47 be ee 14 4b 3e
       0.15629096 0.23234528 -0.19461687 0.19832203
0002d0 da 40 a9 3e 3b c4 4e be b5 a1 09 be 70 3c 8b 3e
       0.3305729 -0.20192043 -0.13440593 0.27194548
0002e0 13 86 68 be e2 2e 6d 3e 20 82 ae be 36 84 5d 3e
       -0.22707395 0.23162416 -0.34083652 0.21632466
0002f0 bc 3e 6f 3e 9a d4 a4 3b 41 45 e7 be e9 d6 1b 3c
       0.23363775 0.005030227 -0.45170024 0.009511688
000300 f2 40 4a 3d 35 ff 5c 3b fd f6 b0 3d 09 d4 54 be
       0.049378343 0.0033721451 0.08640859 -0.2078401
000310 ca 8e 89 be d3 dd 45 bd e6 92 61 be fb 8f 82 be
       -0.26866752 -0.04830725 -0.22028694 -0.25500473
000320 27 82 38 3e ab 0c 13 be af bc 5f 3e f2 25 0d 3e
       0.18018399 -0.14360301 0.21849321 0.13784006
000330 c0 97 a0 bd e8 ae d0 3d f6 4a 7f 3e 33 de ad be
       -0.07841444 0.10189611 0.24930939 -0.33958587
000340 8c 28 a4 3e 55 03 89 bd 63 c0 9b bd 70 a3 3c 3e
       0.32062185 -0.06690089 -0.07605054 0.18421721
000350 f4 58 d3 bd 0f a4 66 be 18 68 f7 3d 9e 20 a1 3c
       -0.10319701 -0.22523521 0.12080401 0.019668873
000360 d3 ca 42 3e e8 b7 bd 3d 2c a9 0b 3e d9 72 3c be
       0.19022684 0.09263593 0.13638753 -0.18403186
000370 d8 73 9d be aa a3 1a 3e 43 2e 8b be 95 27 7b 3e
       -0.30752444 0.15101495 -0.27183732 0.24526818
000380 cf 5a 69 bd b1 52 46 bd 8a 8a 8f 3e 4a bd 34 3e
       -0.056971367 -0.048418704 0.28035384 0.17650333
000390 cc 87 21 be f4 03 56 3e 8e 86 67 3e 06 bc 20 bd
       -0.15774459 0.20899945 0.22609922 -0.039241813
0003a0 f2 bf d2 be c8 db 4d bd 1b a9 39 3e c3 1c 9f 3b
       -0.41162068 -0.050258428 0.18130915 0.0048557236
0003b0 29 45 2a 3d 69 9c 4e be 8e 91 a0 bd 37 72 bf bd
       0.041569863 -0.20176853 -0.07840262 -0.09347957
0003c0 eb 3a 09 be 38 29 70 be 83 8d 54 3e a8 52 d4 bd
       -0.13401382 -0.23453224 0.20757107 -0.10367328
0003d0 b1 35 14 3e 49 da c1 bd 1e 23 cd be 0f 26 97 bd
       0.14473607 -0.09465463 -0.40065855 -0.07380306
0003e0 2f c2 6d be ab 0f 88 bd b6 f2 5c be ad e6 82 be
       -0.23218606 -0.066436134 -0.21576962 -0.25566617
0003f0 13 8a 87 3d ed f5 48 be f6 61 71 be 50 4c 29 be
       0.066181324 -0.19625063 -0.23572525 -0.16533017

layers.1.running_var f4 [256]
000000 4b 3c b1 3e bf b0 cd 3e ef f3 7f 3e 94 07 e1 3e
       0.34616312 0.4017391 0.24995397 0.43951094
000010 cc f7 9b 3e af b9 31 3e 37 6b b4 3e dd 8f de 3e
       0.30462492 0.17355989 0.35238048 0.43469134
000020 8f 2b 13 3e 64 05 a7 3e 3b 86 82 3e 6c 31 df 3e
       0.14372085 0.326213 0.25493035 0.43592393
000030 7a b8 4e 3e 51 da 88 3e f0 29 cf 3e 12 3f 0d 3e
       0.2018756 0.26729062 0.40461683 0.1379359
000040 16 a4 7c 3e b0 90 4a 3e 5b da 65 3e 32 77 44 3e
       0.24671969 0.19781756 0.22446577 0.19186094
000050 34 19 81 3e 1c 65 a2 3e 04 8f a5 3d 3f ed 8a 3e
       0.2521454 0.31717765 0.08083919 0.2713413
000060 18 3b b6 3e a6 a7 ae 3e 7f 7e 2a 3e 90 69 91 3e
       0.3559196 0.3411228 0.16649817 0.2840085
000070 58 09 9f 3e d5 f5 28 3f c5 14 7d 3e ea f3 95 3e
       0.31061816 0.6600011 0.24714954 0.29287654
000080 0b f9 b3 3e b2 fd 20 3f c1 7c 40 3e 10 b6 00 3f
       0.35150942 0.6288711 0.1879759 0.50277805
000090 b3 a1 94 3e 5d d1 d3 3d 4a bb 5f 3e aa 04 ce 3e
       0.29029617 0.10342667 0.21848789 0.40237933
0000a0 40 d3 8c 3e 33 4d 12 3e 86 16 3f 3e 2d d8 7b 3e
       0.2750492 0.14287262 0.18660936 0.24594183
0000b0 a6 b0 3a 3e 00 6f 4e 3e 90 3b 6c 3e 9f 2d 2a 3e
       0.18231449 0.2015953 0.23069596 0.16618966
0000c0 76 18 b6 3e dd 12 b6 3e 3f f2 d0 3d f4 8e 2d 3e
       0.35565537 0.35561267 0.10202455 0.16949064
0000d0 62 c7 9a 3e 5f 55 03 3f 58 c9 00 3f 6c 7d ac 3e
       0.30230242 0.5130214 0.50307226 0.3368944
0000e0 bd ce f2 3d 00 73 81 3e 19 24 36 3f 40 45 93 3e
       0.118558384 0.2528305 0.7114883 0.2876377
0000f0 8c 21 9f 3e 3a 51 a6 3e fd 09 70 3e 82 fd a2 3d
       0.31080282 0.32483846 0.2344131 0.07958509
000100 90 69 8c 3e e8 8d f3 3e 2e e2 2b 3e 17 79 84 3e
       0.27424288 0.47569203 0.167855 0.25873634
000110 86 72 0f 3f b5 22 90 3e 56 70 b5 3e e7 af d6 3d
       0.56034124 0.2815148 0.35437268 0.104827695
000120 4d 94 a9 3e a8 63 3a 3e df 1c 9a 3e 6e d5 67 3e
       0.33120957 0.18202078 0.30100152 0.2264001
000130 98 90 86 3e 0b 22 03 3e 76 65 6c 3e 85 ea 73 3e
       0.2628219 0.12805955 0.2308558 0.23819931
000140 b1 5c 60 3e 7a 8a 9f 3e c0 eb 06 3f f8 9a 51 3e
       0.21910359 0.31160337 0.52703476 0.20469272
000150 57 d2 f6 3e 0f bd a0 3e 05 6b d2 3e 56 b4 90 3e
       0.48207352 0.3139424 0.41097274 0.28262585
000160 b1 ee 1e 3e ef 5d 97 3e 01 7a be 3e b9 91 24 3e
       0.15520741 0.29563853 0.37202457 0.16071214
000170 6d 10 a2 3e c2 c1 8d 3e 97 87 4a 3e 70 88 68 3e
       0.31653157 0.27686888 0.19778286 0.22708297
000180 cf 15 b8 3e 0e 9e 33 3e df a2 db 3e a6 ae 0f 3e
       0.3595414 0.17540762 0.42897698 0.14031467
000190 c8 8e 46 3e cc d0 3e 3e 4e fd 95 3e 99 3c 5d 3e
       0.19390404 0.18634337 0.2929482 0.21605147
0001a0 a0 95 99 3e 8d 23 b3 3e 36 71 21 3e 51 16 8e 3e
       0.29996967 0.3498806 0.15765843 0.277514
0001b0 d9 3d bf 3e 8e 6c b8 3e df 0d a8 3e fe ef 5e 3e
       0.37351874 0.3602032 0.32823083 0.21771237
0001c0 2e 19 be 3e b5 86 6c 3e 59 e5 63 3e 77 1f 90 3e
       0.37128586 0.23098262 0.22255458 0.28149006
0001d0 67 eb 2b 3e a7 58 7e 3e 39 50 76 3e b9 f4 80 3e
       0.16789018 0.24838506 0.2405404 0.2518671
0001e0 73 27 50 3e 06 e5 e5 3e 8f 78 47 3e 22 9d a1 3e
       0.20327549 0.44901294 0.19479583 0.31565195
0001f0 46 12 16 3e 06 df de 3e 32 ed 28 3e 6d 25 bf 3e
       0.14655408 0.43529528 0.16496733 0.3733324
000200 9c e3 ca 3e 02 11 a6 3e 3e d7 90 3e eb bc 89 3e
       0.39626777 0.3243485 0.28289217 0.26901945
000210 09 e2 70 3e 2c 9c 95 3e b5 51 f7 3e ba ac a0 3e
       0.23523726 0.29220712 0.48304525 0.3138178
000220 36 43 b3 3e 45 53 ab 3e c6 e1 c2 3e 2b d3 38 3e
       0.35012215 0.33461967 0.38062876 0.18049304
000230 e4 61 ef 3d 1c 21 21 3e e8 3d 56 3e 16 93 f0 3d
       0.11688593 0.15735286 0.20922053 0.117468044
000240 97 c7 56 3e 2e 6a 8a 3e e5 51 8b 3e 28 fc 9f 3e
       0.20974575 0.27034134 0.27210918 0.31247067
000250 09 d2 92 3e e0 d2 5e 3e 08 be b4 3e 75 bf 00 3e
       0.2867587 0.2176013 0.35301232 0.12573035
000260 eb 95 a1 3e a8 df 8a 3e 8c cf 38 3e 83 93 ea 3e
       0.3155969 0.2712376 0.18047923 0.45815668
000270 75 5e a7 3e e3 2e 59 3e 05 38 6d 3e 1f 30 31 3e
       0.32689252 0.21209292 0.23165901 0.17303513
000280 96 0b 67 3e cd 63 3b 3e f4 6a 0c 3e 50 4a 99 3e
       0.22563013 0.1829979 0.13712674 0.29939508
000290 c3 d3 8f 3e d3 44 ec 3e 1d e6 82 3e c2 1e 69 3e
       0.2809125 0.4614626 0.25566188 0.2276564
0002a0 e7 79 52 3e f8 44 ac 3e 79 2e 11 3f e9 21 92 3e
       0.20554315 0.3364637 0.56711537 0.28541496
0002b0 3e 9e 8a 3e 58 eb 83 3e 69 66 44 3e 82 49 20 3f
       0.27073854 0.2576549 0.19179691 0.62612164
0002c0 be 5b b2 3e e7 d3 8c 3e cc bb 0f 3e 67 e9 b5 3e
       0.3483562 0.2750542 0.14036483 0.35529634
0002d0 df 37 f7 3e 6b 1b 4a 3e 94 81 a7 3e 87 f4 ea 3d
       0.48284814 0.19737022 0.32716048 0.11472421
0002e0 53 1c 8f 3e 6e 63 94 3e 7c 9a d8 3e 04 7f c3 3e
       0.27951297 0.2898211 0.42305362 0.38182843
0002f0 9d e5 0f 3e 0a d0 65 3e 12 56 c2 3e 92 62 1c 3e
       0.14052434 0.22442642 0.3795629 0.15271977
000300 4b 68 a9 3e 8c 31 75 3e a3 45 08 3f bd 8a 75 3e
       0.33087382 0.23944682 0.5323126 0.23978706
000310 ca f2 95 3e f0 a2 9e 3e 50 70 b5 3e dc 2f 0a 3e
       0.29286796 0.30983686 0.3543725 0.1349482
000320 d2 ba d6 3e f5 70 ba 3e 6e 5d 7c 3e b3 b0 9b 3e
       0.41939408 0.36414304 0.24645016 0.30408248
000330 9e cb 99 3e c0 3e 62 3e bf 8e 7e 3e 1e eb b8 3e
       0.3003816 0.2209425 0.24859141 0.3611688
000340 86 d3 91 3e 9e 95 a8 3e ac d4 d5 3e 0b b8 cf 3e
       0.28481692 0.3292665 0.41763818 0.405701
000350 22 66 38 3e f6 bd 10 3e 1a 6a c2 3e d9 f8 99 3e
       0.1800771 0.14134964 0.37971574 0.30072668
000360 f7 8c 9b 3e fc 7f ff 3e eb 26 3b 3e d7 e6 08 3f
       0.30380985 0.49902332 0.18276565 0.53477234
000370 18 a8 5f 3e 24 3d b7 3d 52 7f 0c 3e 5f 97 a3 3e
       0.21841466 0.089472085 0.13720444 0.31951424
000380 ad 09 c3 3e c9 61 f2 3e 52 f6 9f 3e 40 71 97 3e
       0.3809332 0.4734023 0.31242615 0.2957859
000390 f4 c7 42 3e 6f 1e b0 3e bd d7 1c 3e 8c 48 61 3e
       0.19021589 0.3439822 0.15316673 0.2200033
0003a0 fd fe d0 3e 45 11 aa 3e 5d d1 97 3e ad 0d 93 3e
       0.4081954 0.332163 0.2965192 0.2872137
0003b0 e5 52 84 3e 5e 0c 78 3e 01 3f 5d 3e e1 5c 92 3e
       0.25844494 0.24223468 0.21606065 0.28586486
0003c0 4c e0 83 3e fc 8f ef 3e 54 68 f9 3d 65 2e 58 3e
       0.25757062 0.4678954 0.12178102 0.21111448
0003d0 b3 1d d5 3e e3 27 b3 3e d5 0f 9d 3e 3f 73 c0 3d
       0.4162422 0.3499137 0.3067614 0.093969814
0003e0 01 f5 82 3e 0c d0 62 3e bb 0c d9 3e 3d d2 76 3e
       0.25577548 0.22149676 0.42392525 0.24103637
0003f0 19 fd 19 3e 39 68 a8 3e 1c 91 cf 3e 01 ee 30 3e
       0.15037955 0.32892016 0.40540397 0.17278291

layers.4.weight f4 [256, 256]
000000 a4 ca f2 bc ee 40 6b bc 70 64 d0 3a 22 67 03 bc
       -0.029637642 -0.014358742 0.0015899073 -0.008020194
000010 7b ef 0b 3a b0 76 a4 3c 5d 87 43 3d 2c d6 ed 3c
       0.00053381146 0.020076126 0.047736514 0.02903279
000020 b7 bc 39 3b f4 a8 7d 3d a0 32 af 3c bc c4 0f bd
       0.0028341243 0.061928704 0.021386445 -0.03509973
000030 06 70 e7 bc 0f 51 17 bd b4 d8 d1 bc be fc 6b 3d
       -0.02825166 -0.036942538 -0.025616027 0.05761408
000040 c3 e1 45 3d 89 d3 57 bc 2d 65 70 3b 4b 30 13 3c
       0.048311006 -0.0131729925 0.00366814 0.008983682
000050 bc 3b 6b bd 3c b4 c9 3c ce cf f8 3b f4 94 ff 3b
       -0.057430014 0.024622075 0.0075931316 0.007799739
000060 a6 c1 5a bc f9 54 d0 3b 00 21 8a bc 9a 45 92 3c
       -0.013351833 0.006357786 -0.016861439 0.017855454
000070 92 b3 f3 3c 46 b6 16 3d 1a e3 67 bd 0a 13 46 bd
       0.029748712 0.036794923 -0.056613065 -0.048358
000080 c8 0c 01 bc 8f 95 2e 3d e0 a8 3b bd 94 da bf 3c
       -0.007876582 0.0426231 -0.04581535 0.023419656
000090 92 ca c5 3b fd 36 14 3d 88 40 a2 3c 94 0c 9f bc
       0.006036111 0.036185253 0.019806162 -0.019415177
0000a0 ca fa 73 bd 63 7e 2f bd 38 14 10 3b 15 ce 4d 3d
       -0.059565343 -0.04284514 0.0021984708 0.050245363
0000b0 35 52 2a bd 12 42 9a bc 45 11 73 bd 99 eb 1b 3d
       -0.041582305 -0.018830333 -0.05934264 0.03806648
0000c0 d9 d9 86 bc 9c f5 14 3c 90 b0 dc bc 95 c8 4b bd
       -0.0164613 0.009091761 -0.02693966 -0.049751837
0000d0 7b 68 86 3d 70 0c 1b 3d e8 1d f9 bc ba 81 aa 39
       0.06562897 0.03785366 -0.030409768 0.0003252158
0000e0 4f 23 2e 3d 95 68 0c 3d 4f 45 53 bd 25 5e ee 3c
       0.04251414 0.034279425 -0.05157977 0.029097626
0000f0 a2 a5 84 3d 3a 5f 18 3d 07 81 10 bd dc 64 0d 3d
       0.064769045 0.03720019 -0.0352793 0.034520015
000100 48 e4 87 bd 67 29 11 bd a3 b2 c5 bc e9 ad ad bc
       -0.06635338 -0.035439875 -0.024133032 -0.02120109
000110 39 7e 61 bd 57 00 61 bd 30 17 18 bd 56 e1 e8 3c
       -0.055052016 -0.054931965 -0.03713149 0.028427761
000120 41 e7 1b 3d 5f d3 12 bd 30 84 9c 3c dd d0 18 bd
       0.038062338 -0.03584611 0.019106 -0.037308563
000130 c7 d4 85 3c 04 04 cd bc fb 4a 11 3d eb 55 58 3d
       0.016336812 -0.025026329 0.035471898 0.052816313
000140 4a 82 6b 3d 0b 4c 88 3d 70 20 6a 3d ab 75 60 bd
       0.0574973 0.06655129 0.05715984 -0.054799717
000150 4e 04 2a bc ab ee 73 3c 74 bb eb bc 24 ba a0 bc
       -0.010377003 0.014888446 -0.028775908 -0.019620009
000160 7b ba 1a 3d 27 5c 6e 3d 49 f9 8f 3b 73 1e 1d bd
       0.037775498 0.058193352 0.004393731 -0.038359117
000170 6c e8 19 3d f3 aa 3a bc 61 8e d9 bc 64 7c 27 bc
       0.03757517 -0.0113932965 -0.02655715 -0.010222528
000180 d6 c3 4c bc 8c 02 68 3c a8 39 30 bc ee f5 a2 3b
       -0.012497863 0.0141607635 -0.010755934 0.0049731648
000190 b0 45 d8 bc 7d 80 7e bd 50 d8 fb 3c 1f fc 22 3d
       -0.026400417 -0.062134255 0.030742794 0.039791223
0001a0 0e 8d e5 bb ec c6 0a 3d 05 f5 a4 bd 09 63 56 bd
       -0.0070053404 0.033881113 -0.08054546 -0.05234054
0001b0 f4 17 28 bd 37 81 26 bd be fe 4f 3d d7 79 1c 3d
       -0.04103847 -0.040650573 0.05078005 0.038202133
0001c0 8c 03 7d 3b 28 7b 8b bb 7a 6a 99 bb b1 59 a2 3c
       0.003860685 -0.0042566247 -0.0046818824 0.019818159
0001d0 db 03 86 bc 7b 8b 4d bd 61 d2 bc bc f2 37 9e bb
       -0.01635926 -0.050181847 -0.023049535 -0.0048284465
0001e0 dc 7f 23 bd b6 52 28 3d 79 bd a0 ba df e7 0e bd
       -0.039916858 0.041094504 -0.0012263499 -0.0348891
0001f0 57 a2 1b bd 98 57 0c 3d 0e e0 23 3d 39 5c 7f bd
       -0.037996616 0.034263223 0.040008597 -0.06234381
000200 c5 68 28 bd 58 67 fa 3c a6 e0 5b 3d 36 26 18 bd
       -0.04111554 0.030566856 0.05368104 -0.037145816
000210 63 66 f8 bb f0 ed 93 bd db c7 0d bd 7e 53 99 3b
       -0.007580565 -0.07223117 -0.034614425 0.0046791425
000220 8f c4 76 bd ee f0 19 bd fe c1 22 bd 03 f1 a3 3c
       -0.060246047 -0.037583284 -0.039735787 0.020012384
000230 7f 64 32 3d 5f 44 a2 3d 13 98 08 bd 1e c4 c2 bc
       0.04355287 0.07923197 -0.033348154 -0.023775157
000240 77 7c 02 3c 27 6c 1e bc ab f7 01 bc d1 27 3f bc
       0.007964245 -0.00966934 -0.007932584 -0.011667208
000250 78 dc 28 3d 1f a1 8c bd 8d a6 17 3d b9 1b 2a 3d
       0.04122588 -0.06866669 0.03702407 0.041530345
000260 29 ad b8 bc 12 06 19 3b dc 9e 44 3d bb 5c 2d bd
       -0.022543507 0.0023349565 0.048003063 -0.042324763
000270 34 56 59 3c f2 27 ba 3c ec 06 4c bc 06 82 8f bd
       0.013265181 0.022724126 -0.012452822 -0.07007222
000280 58 81 61 bb 11 3d 2e 3d 7b 21 14 bd 7d fd 97 bc
       -0.003440937 0.042538706 -0.036164742 -0.01855349
000290 c7 93 d1 bb 26 6b 67 bd 6d ac dc bc c5 6e 8e bc
       -0.0063957903 -0.05649867 -0.026937688 -0.017386803
0002a0 ca 0d 6b bd 76 c9 03 bd 1b b6 7b bc 47 31 51 bd
       -0.057386197 -0.03217455 -0.015363242 -0.051072385
0002b0 f9 15 69 3c 74 9a e4 3c d2 45 65 bd 1b d5 32 bd
       0.01422643 0.02790568 -0.05597479 -0.043660264
0002c0 3c 35 c0 bc ec f1 ae 3c 07 43 9e 3c 5b 42 23 3d
       -0.023462884 0.021355592 0.01931907 0.039858203
0002d0 65 31 35 3d 40 e1 d7 bb 0d ee 92 bc 3e 1c 3c bd
       0.04423656 -0.006588131 -0.017935777 -0.04592537
0002e0 9f 83 e2 3c c2 62 15 3d c7 6e 13 bd c6 c3 93 3c
       0.027650652 0.036471136 -0.035994317 0.018037688
0002f0 17 e4 e7 3a b8 2a d6 3c 09 4a 64 bd bc 19 3b bd
       0.0017691877 0.026143417 -0.055734668 -0.04567884
000300 0e b2 6d bc a2 fe 12 bd d8 44 51 bd 45 f9 cf bb
       -0.014507784 -0.035887368 -0.051091045 -0.006346854
000310 25 9d 75 bd bd 75 29 3c 9c 07 9f 3b ac b0 d7 bb
       -0.059964318 0.010343012 0.004853202 -0.00658234
000320 4f 94 d5 ba d0 68 ef bc 1a d1 79 3c 54 43 f3 3c
       -0.001629481 -0.029224783 0.015247608 0.02969519
000330 e7 6a 19 bc a4 6f 58 bd e8 08 b1 3c 4b af 33 bd
       -0.009363866 -0.052840844 0.021610692 -0.043868344
000340 e2 71 64 3d 8e 65 68 bc 5e f4 1f bc a3 bf 3c 3c
       0.05577267 -0.014184369 -0.0097628515 0.011520299
000350 d4 e9 e5 bb 5b e0 17 bd b4 94 d7 bc 04 b3 94 ba
       -0.0070164 -0.037079196 -0.026316024 -0.0011344855
000360 f5 48 76 bd 45 c9 db 3c 07 81 82 3d bf 2c 54 bd
       -0.06012817 0.026829371 0.06372266 -0.051800486
000370 31 f8 0d 3d d3 3d e1 3c 68 07 22 bd 97 b1 10 bd
       0.034660522 0.0274953 -0.039557844 -0.035325613
000380 fe fa 7e bb 04 c2 ce bc b2 3b 61 bd da d0 10 3d
       -0.0038906927 -0.025238998 -0.05498857 0.035355426
000390 c1 5a 0a 3d 06 33 61 3d c9 6b 36 3d 76 61 0f bd
       0.033777956 0.0549803 0.044536386 -0.035005055
0003a0 c5 5e 12 bd 84 77 4a 3d e5 d2 09 bd eb 99 cc bc
       -0.03573491 0.049430385 -0.03364839 -0.024975738
0003b0 93 54 91 3c 7e 8a 3b bc ca da 07 bd 16 02 e4 bc
       0.017740523 -0.011446593 -0.033167638 -0.027833026
0003c0 ec a6 34 bb 31 e8 66 bc e2 e5 9c 3c c7 c7 40 bd
       -0.0027565314 -0.014093445 0.019152585 -0.047065523
0003d0 91 e7 a6 bc 12 01 d1 3b 71 80 c7 bc f8 a9 99 bc
       -0.020374091 0.0063783014 -0.024353238 -0.018757805
0003e0 a3 cc 1e 3b ea a5 2d bd c9 71 01 3d 20 46 74 bd
       0.002423086 -0.042394556 0.031602655 -0.05963719
0003f0 08 11 7b 3d 74 54 ae 3c 08 2b 2f 3d 65 ca 66 3b
       0.06129554 0.021280505 0.042765647 0.0035215851
