models/best_fold2_hd128_do0.3.pth (torch, 118438 bytes, 20 tensors)

layers.0.weight f4 [128, 10]
00000000: 3f48 693e 6a72 1e3e 934e 893d cd85 923e
00000010: 8c1c 0cbe 875c 65be a8ac 973d 47d2 aa3d
00000020: 392c 773e 0fb3 333e d462 7cbe 6488 833e
00000030: 89d9 c43d 14a6 f9bd 7b5f 9b3e 9b72 7bbe
00000040: 33a2 6abe a264 58be 1fb9 4fbe b42a 24be
00000050: b817 a6be 62f1 02be da22 603e 6469 8c3e
00000060: f9d4 fe39 eb7e 553d a2d9 953e 16c3 2d3e
00000070: 187d 32be d222 9bbe 2d9a d23d b270 d03d
00000080: bc78 003e 66a1 8e3e fd17 82be 5791 553e
00000090: 745b 22be 8deb 7abe f331 0d3d 7470 cebd
000000a0: a30b b53d ce38 943e d720 1dbe a278 9fbe
000000b0: 5069 a4bd 32a0 4f3e 5a37 4ebe d653 343d
000000c0: 31cf 7bbb 9e2f b6bd eecf 9abe 0c2b a2be
000000d0: 8d6f 2ebe 798f 903e 3e29 cc3d 2849 40bd
000000e0: 16fa 75be d3f0 173e 12c9 643e e2e2 d53d
000000f0: 7234 363e 9163 653e 1818 81be cf70 6abe
00000100: a25e c73d 3160 823e 6028 d4bd 93f4 06be
00000110: 01a4 813e 5543 c03c 7e41 963e 1713 0fbe
00000120: 5c73 8c3e 8286 a03e 8970 833e 4e9a 643e
00000130: 5430 973e 14d6 a23e c0b4 88bc 5500 28be
00000140: d0a7 6b3e e436 f93c 382d b0bb 1f5d f93d
00000150: dc83 84be 80eb 993e 8db1 4c3e dc25 55be
00000160: b543 803d 284d debd 56e0 e53c 22b9 97be
00000170: 8888 823e 18ca cebd 0f1e a23e c83b 96be
00000180: b426 993e 52fe 85be 4501 dcbc 3853 6d3d
00000190: 8977 3a3e c188 37be 5ce7 4b3d 4c5b 833e
000001a0: 9ed8 873d 8146 6e3e 2798 58be dcee 78bd
000001b0: 93f8 a4b9 2ceb 5e3d b788 97bc 7375 83bd
000001c0: f675 2fbd fcc4 68bd 957d 85be 5b0d 0cbe
000001d0: ba0d 17be bbd9 dd3d 6acb 7ebe c599 f6bd
000001e0: 454e 52be 896b dabd 66cc 893e fd62 773e
000001f0: bc31 8abd 55af 34bd c687 a0be 3da5 09be
00000200: 7f93 78be 730e 2dbe a2af 743e 3f77 6d3e
00000210: 2d43 15be ea36 973e 6edc 163e b372 35bd
00000220: c189 913e cbc7 88be a33b 6fbe 3707 903d
00000230: 2c49 66be 471a f53d 343b 34be b9ff 4e3d
00000240: 3ff3 863c 4886 653c 5d2a d43c e631 833e
00000250: af89 bfbd f665 1d3e 4860 7c3e 970e 0e3e
00000260: 04ed f6bd 7a1e 933e 3bc2 903e 2ded 033d
00000270: c0f6 113d b233 adbd 4ecd 1ebd 2e40 b53b
00000280: 19c2 113e e9a7 84bd f213 0d3e 4e9d 53bc
00000290: fc45 9d3e 501a 51ba 6a4c 6a3e dc81 993e
000002a0: 77e1 5abe 0691 973e 910c a5be 729c dfbd
000002b0: 989f 27be a7da 983e 9daa 53be 916c 4e3d
000002c0: 9a22 143e 3ed9 d4bd ac10 673e a54d afbc
000002d0: 6a67 04be 4e4a bcbd af81 953d 8a56 9bbd
000002e0: 149f f43d 76a0 1abe a0b9 ef3d 9af7 3b3d
000002f0: 78be 66be d164 463e 82c8 4a3d ef1a 57be
00000300: 0767 96be 898d 1a3e 535c 983d e250 90bd
00000310: 7160 a4be 5c9c 2dbe cec8 8f3d eecd a23d
00000320: c925 583e 77ae 9dbe cce1 80be e973 9a3e
00000330: 7477 973e 6512 763d b87a 013e 4e32 4bbc
00000340: 83dc 89bb 4cf7 4f3e f314 45be 3aaf 853e
00000350: 01d2 063e 44ae ba3d dd99 1e3d 581c 513c
00000360: 29ba c73d 75bc 15be e1ba 5b3e 1f4e 28be
00000370: 9049 8e3e 9e9a ebbd cfa4 333e 70af 213e
00000380: 0628 8e3d 0b9e 76bd 45d0 25be 459d 9b3e
00000390: a872 833e edbf 74be cedf 9a3d 857b f2bd
000003a0: 9b4e 03be b68d 273e 6c8c 1a3e e5d5 82bd
000003b0: 0bec b4bb 8e47 f23c 30d3 9c3d a3ef d2bd
000003c0: 63f4 88be c737 8fbe a61e efbd d720 b13d
000003d0: 079e 003e 1f93 163e 9246 55be c69a 9b3c
000003e0: 3a28 eb3d e13d 693e 3dd9 863e 1bd7 85be
000003f0: 56d7 62be b864 9cbe d2b1 843e a173 29be
0.22781466 0.15473333 0.0670444 0.28617707 -0.13682765 -0.22398578 0.074059784 0.083408885
0.24137963 0.17548774 -0.24647075 0.25689995 0.09611804 -0.1218988 0.30346283 -0.24555437
-0.22913437 -0.21132138 -0.20285462 -0.16031915 -0.3243997 -0.12787393 0.21888295 0.27424157
0.00048605332 0.05212299 0.29267603 0.1696895 -0.17430532 -0.30300003 0.10283313 0.10177745
0.12546057 0.27857512 -0.25408927 0.20856224 -0.15855199 -0.24503918 0.034471463 -0.100800425
0.0884011 0.2894959 -0.15344559 -0.31146723 -0.08027899 0.20275953 -0.20138302 0.044025265
-0.0038423056 -0.08895801 -0.30236763 -0.31673467 -0.17034741 0.2823446 0.09968804 -0.046944767
-0.24021181 0.14837961 0.22342327 0.10443665 0.17793444 0.22401263 -0.25213695 -0.22894596
0.09734847 0.25464013 -0.103592634 -0.13179235 0.25320438 0.023469606 0.29346842 -0.13972126
0.27431762 0.3135262 0.25671795 0.22324488 0.2952906 0.31803954 -0.01668775 -0.16406377
0.23013234 0.030421682 -0.0053764842 0.121759646 -0.2588185 0.30062485 0.19989605 -0.20815223
0.06262914 -0.1085456 0.028061073 -0.29633433 0.2549479 -0.1009714 0.31663558 -0.29342484
0.2991234 -0.26170594 -0.026856074 0.05794069 0.18209662 -0.17923261 0.04978119 0.2565559
0.06633113 0.23269083 -0.21151792 -0.06077467 -0.0003146572 0.054423496 -0.018497808 -0.06418886
-0.042837106 -0.056828484 -0.26072374 -0.1367697 -0.1475133 0.108325444 -0.24882284 -0.12041048
-0.2053767 -0.10665042 0.26913756 0.24158855 -0.06747767 -0.044112522 -0.31353587 -0.1344194
-0.24275015 -0.16900043 0.23895124 0.2319002 -0.14576407 0.29534084 0.14732525 -0.04429884
0.2842541 -0.2671493 -0.23362593 0.07032626 -0.2248885 0.11967903 -0.17600709 0.050536845
0.01647341 0.014009066 0.025899107 0.25624007 -0.09352433 0.15370926 0.24646103 0.13872753
-0.12056926 0.2873419 0.28273186 0.03220861 0.03563571 -0.08457126 -0.038770013 0.0055313325
0.14234199 -0.06477339 0.1377714 -0.012915922 0.30717456 -0.0007976638 0.22880712 0.29981887
-0.2137507 0.29602832 -0.3223615 -0.109185115 -0.16369474 0.29854318 -0.20670553 0.050396506
0.14466324 -0.10392998 0.22564954 -0.021399328 -0.12930074 -0.0919386 0.07300126 -0.075848654
0.11944404 -0.15100273 0.11705327 0.045890428 -0.22533596 0.19374396 0.049507625 -0.21006368
-0.2937548 0.15093054 0.074394844 -0.07046677 -0.3210483 -0.16954178 0.07020722 0.07949434
0.21108164 -0.3079717 -0.2517227 0.30166557 0.29583323 0.060076136 0.1264447 -0.01240213
-0.0042071952 0.2030918 -0.19246273 0.2611025 0.13166048 0.0911527 0.038720954 0.012763105
0.09752304 -0.14622672 0.21458007 -0.16436051 0.277905 -0.115041 0.17543338 0.1578958
0.069412276 -0.060209315 -0.1619273 0.30393425 0.25673413 -0.23901339 0.075622186 -0.11839966
-0.12822954 0.16362652 0.15092629 -0.063884534 -0.0055213026 0.029575136 0.07657468 -0.10299613
-0.26748952 -0.27972242 -0.116757676 0.08648842 0.12560283 0.1470456 -0.20827702 0.0189947
0.11482282 0.22777511 0.26337615 -0.26140675 -0.22152457 -0.30545592 0.25916916 -0.16548015

layers.0.bias f4 [128]
00000000: bfba 913e 3bf2 8c3d d357 973e c925 173d
00000010: 5ff2 0b3d ebe2 923d 54ce 09bd 927c ba3d
00000020: f435 3bbc d6fb 9c3e f12d 53be 4e10 65be
00000030: c8f0 10be 21fc 41be 30be 91bd 2374 e6bd
00000040: 92c7 05be d9a4 1cbe 95e9 5b3e eb46 6fbd
00000050: 65e2 57be f99f 3dbe 1863 863e d2cf 823e
00000060: 1832 663d a4ea 9bbd 2838 05be 28a0 85bd
00000070: d59b 243e 9112 29be b18e 943e deb7 a3bd
00000080: b8b1 fdbd 571c a53b b499 b83d 7260 953c
00000090: 7942 0c3e a0af 733e 62ac c83d 109f 36bd
000000a0: 1e3f 8abe c9f4 acbd de96 30bc 6cd9 c3bd
000000b0: ea19 4d3e 65aa de3a ae7f c8bd 1f1a 8dbe
000000c0: 3a0a 5a3e 2542 ba3d df64 903e c642 7fbd
000000d0: c8a7 983d 517f 93be bd2c e23a 5bde 15be
000000e0: 25c4 803e 1c67 9f3e fb56 9cbe 8791 713d
000000f0: 2229 9bbe b990 1abd 8597 733e 4347 d03d
00000100: da1e af3c 6422 7cbe 61f2 22bd d445 ae3d
00000110: 7195 ee3c 3ad5 76be 25b5 403d 83b5 263d
00000120: 48bf 7abd cffb ab3b 66ca 163d 3ced 0cbe
00000130: cc9d 31bc 95d1 6dbd c681 69be 0c96 f83d
00000140: 7e09 81be ff6a 413c 60d0 753c eabd 383d
00000150: 9896 41be b89c 0c3e 6221 a03e 778d 42be
00000160: 8647 433e 724b 94be 9d20 3a3e 885f 8e3d
00000170: c18e 75be 7310 babd af98 5d3e 4358 e53d
00000180: 3d24 2f3e 8ba4 6b3e 090d 71be 3fcb fdbc
00000190: 335c 843e 7c97 613d ddf6 98be 5025 953e
000001a0: c387 b7bc 3aeb b5bd 2168 133d 6e19 8ebe
000001b0: ac55 053d bd45 143e 773e 31be 2977 40be
000001c0: 3f3c 5ebe 2ca9 76be 8889 db3d ec08 25be
000001d0: d095 8dbe 35e4 8abe 77bb 763d 6b3d 783e
000001e0: eb59 99be ae43 943e 723e a63c ba12 8b3d
000001f0: e7e1 593e 9ed8 99bd 456d 1e3d 5e2b 95be
0.28462788 0.06882139 0.29559192 0.03690127 0.03416669 0.071721874 -0.033644035 0.09105791
-0.011426438 0.30660886 -0.20622994 -0.22369501 -0.14154351 -0.18943836 -0.071163535 -0.1125262
-0.13064411 -0.1529726 0.21475823 -0.058417242 -0.21082456 -0.18518056 0.26247478 0.2554918
0.056200117 -0.076131135 -0.13009703 -0.06524688 0.1607507 -0.16510989 0.29015115 -0.07994054
-0.12387413 0.0050387788 0.090136915 0.018234465 0.13697232 0.23797464 0.097985044 -0.044585288
-0.2700128 -0.084451266 -0.010778157 -0.09562954 0.20029417 0.0016988037 -0.09789978 -0.2755899
0.21292964 0.09094647 0.2820196 -0.06231954 0.07453877 -0.28808072 0.0017255765 -0.14635603
0.25149646 0.31133354 -0.3053511 0.058976676 -0.3030482 -0.037735675 0.23788269 0.10169842
0.021377016 -0.24622494 -0.03978193 0.085094124 0.029123994 -0.24104777 0.047047753 0.040700447
-0.061217576 0.005248524 0.036814116 -0.13762373 -0.010840844 -0.0580612 -0.22803411 0.12137994
-0.25202554 0.011805295 0.015003294 0.04510299 -0.18905103 0.13731658 0.3127547 -0.18999277
0.19070253 -0.2896381 0.18176503 0.06951815 -0.23980238 -0.09085169 0.21640275 0.11198475
0.17103668 0.23011987 -0.23540129 -0.030980704 0.25851592 0.055076107 -0.29875842 0.2913003
-0.022403603 -0.088827565 0.035987977 -0.27753776 0.032552406 0.14479728 -0.17308985 -0.18795456
-0.2170267 -0.24087971 0.107195914 -0.16116685 -0.2765336 -0.27127233 0.060237374 0.24242179
-0.29951414 0.28957886 0.020293448 0.06790681 0.21277581 -0.075120196 0.038678426 -0.2913465

layers.1.weight f4 [128]
00000000: 105b 7e3f 1c8a 813f 0767 823f f93c 803f
00000010: 0715 7f3f f3a3 7e3f 8771 7f3f d5e3 7f3f
00000020: 8a12 823f 92ea 803f 0c6d 7d3f 2dd3 7c3f
00000030: 8d71 813f 1d4a 813f d764 813f 9db5 7d3f
00000040: 8f00 7f3f 943f 823f 4de5 823f 03d1 7d3f
00000050: 2647 7f3f cab8 803f a73a 813f 7d95 803f
00000060: 8a92 823f 3010 7e3f bdd7 7c3f db63 803f
00000070: c321 803f 66a6 7c3f 2eaa 833f cf6b 813f
00000080: 4e60 813f 8d4d 7f3f 9c52 7d3f 4e97 7e3f
00000090: 7d62 7f3f 2b55 803f 58a0 7f3f 48be 7b3f
000000a0: 467d 7d3f 3085 833f afad 803f 1871 823f
000000b0: 415d 813f 56be 7d3f 5b45 803f f448 803f
000000c0: b7ca 7c3f 12b3 7c3f 7336 7f3f 125a 803f
000000d0: d415 843f 7731 7e3f a915 803f c1c5 7f3f
000000e0: 2267 803f 8e2f 7f3f bb27 813f 2348 7e3f
000000f0: 1747 803f 0eab 7e3f bd80 803f ab28 7c3f
00000100: 58b1 7d3f 82a3 7e3f b14d 803f ec5f 7c3f
00000110: 5551 7c3f c488 7e3f 4a55 7c3f 5e27 803f
00000120: 4e2a 813f 9330 7c3f 0cdc 7f3f 8aa6 803f
00000130: cb3e 7e3f 1476 823f d5c8 7f3f 63bf 7d3f
00000140: 2306 7e3f e609 803f 327a 7e3f 85f5 7f3f
00000150: 6470 803f 9815 7f3f 2a39 7d3f fbf8 7e3f
00000160: d1ea 803f 3822 7c3f 5118 7e3f 809f 7d3f
00000170: 2797 7d3f fced 803f 7e32 7e3f 75b6 7e3f
00000180: d2da 813f 5b5e 7d3f 64a1 803f abeb 7d3f
00000190: 70d9 803f 7cd3 7c3f 82e4 7f3f 2657 7e3f
000001a0: 917b 7f3f 8598 803f 4888 803f 7421 833f
000001b0: eda3 803f 8b5c 7c3f 9b78 7f3f d1a4 7f3f
000001c0: e6d2 7e3f 70e6 7f3f 8e06 7f3f 09e4 7f3f
000001d0: 63c2 7f3f 8e94 803f 1249 7d3f 0c80 803f
000001e0: ae7e 7f3f f013 7f3f fd99 803f c158 7e3f
000001f0: 329c 803f 63a6 7e3f e303 803f 3bff 7e3f
0.993577 1.0120273 1.0187691 1.0018607 0.9964146 0.99468917 0.99782604 0.9995702
1.0161908 1.0071585 0.9899452 0.9875973 1.0112778 1.0100743 1.0108899 0.99105245
0.9961023 1.0175653 1.0226227 0.9914705 0.9971794 1.0056393 1.0096024 1.004562
1.020097 0.9924345 0.9876669 1.0030473 1.0010303 0.98691404 1.028631 1.0111026
1.0107515 0.9972771 0.98954177 0.9944962 0.99759656 1.0025991 0.9985404 0.9833722
0.9901928 1.0275021 1.0053004 1.0190763 1.0106584 0.99118555 1.0021166 1.0022264
0.9874682 0.9871074 0.9969246 1.0027487 1.0319161 0.9929423 1.000661 0.99911124
1.0031474 0.9968194 1.009025 0.9932882 1.0021695 0.9947976 1.0039288 0.98499554
0.9909873 0.99468243 1.002371 0.98583865 0.985616 0.9942744 0.9856764 1.0012014
1.0091035 0.9851162 0.9994514 1.0050824 0.99314564 1.0192285 0.9991582 0.9912016
0.99228114 1.0003021 0.99405205 0.9998401 1.0034299 0.99642324 0.9891535 0.99598664
1.007166 0.98489714 0.99255854 0.990715 0.99058765 1.0072627 0.99295795 0.9949716
1.0144904 0.989721 1.0049253 0.99187726 1.0066357 0.987602 0.9995805 0.9935173
0.9979792 1.0046545 1.004159 1.0244584 1.0050026 0.9857871 0.99793404 0.99860865
0.99540555 0.99960995 0.99619377 0.9995733 0.99905986 1.0045335 0.9893962 1.0039077
0.9980267 0.996398 1.0046993 0.9935418 1.0047667 0.99472636 1.0001186 0.996082

layers.1.bias f4 [128]
00000000: 5a38 083b 944e 9f3b 5be1 513c 072f 68ba
00000010: d544 493b 9154 113c aa53 063b 87d5 0bbc
00000020: 29f5 ea3c 3762 4f3b 912d 81bb ff4d 91bb
00000030: 1568 f53b 5331 643c 2240 d23b 33e8 95bb
00000040: bd9a 013c 0c10 283c 5ddc 713c d42c b8bb
00000050: cb7b 33bb f0b0 e13b efcf d43b fe5a a43b
00000060: ea9b 593c a94f daba 6b5e 66bc 64af ce3b
00000070: a707 31bb 2cce b8bb 8de0 a23c c19b c73c
00000080: d672 083b 2d11 47bb 949a 16bc f7b1 aebb
00000090: 6b52 eb39 88c2 dd3b f856 373c e0ae 4fbc
000000a0: 67d1 eaba 7c79 a13c d4ba df3b 8f05 983c
000000b0: 961b 913c 4a29 5abb eae2 ab3b 03e6 973b
000000c0: 832c dfbb d173 5cbc f9bc 3cbb 2d65 a63b
000000d0: 7f2a a23c 4087 11bc be92 633b 101c d3ba
000000e0: e7c4 fb3b fd7a 0a3c 9715 c83b 0177 abbb
000000f0: 6903 693c 2405 ebbb b622 263c 535b 2fbc
00000100: 5240 bd3b d6e3 59bc 1ed1 7d3b f236 48bc
00000110: 1bbc 1a3a e71d 983b 56d0 3fbc c908 4ebb
00000120: 2931 9e3c bb90 25bc be36 f23a 0c9c 493c
00000130: ed5b 14bc f03d 623c 8a48 833b 610c bb3a
00000140: d7b1 91bb 5383 3ebc 5f81 0e3a 6de4 fcba
00000150: 1b73 833c dd5e a5bb 8de4 02bc a804 cdba
00000160: 3548 483b f236 1bbc 6a52 1b3b c1d5 37bc
00000170: bbde da3a e046 bc3c aeb3 04bb c8b2 3e39
00000180: 0a06 393c f3cb fabb 59d2 563c 5a04 73bb
00000190: fb51 64bb bc6d cbbb 730f 83ba 1870 08bc
000001a0: e036 05bc 9d1c 68ba 0679 dc3b 69ff 8d3c
000001b0: aa00 263c 7b76 45bc 9bf8 c7bb 1763 903b
000001c0: cbd4 193b 7d75 303c 8d25 f23a 7b47 a8bb
000001d0: d38e 583c 85b9 91bb 0c21 33bc cc61 8039
000001e0: 1739 51bb 65fc 59bb 97ee 343c 8935 58bb
000001f0: e229 733b 1a48 933b c209 21bc 19b4 b33a
0.0020785541 0.004861662 0.012810077 -0.0008857105 0.0030711193 0.00887026 0.0020496645 -0.008534796
0.028681355 0.0031644234 -0.0039421995 -0.0044343467 0.007489214 0.013927775 0.0064163366 -0.0045747994
0.007910428 0.010257732 0.014762011 -0.0056205783 -0.0027387019 0.0068875477 0.006494514 0.00501573
0.013281802 -0.0016655821 -0.014060597 0.0063075293 -0.0027012618 -0.005639812 0.019882465 0.024366261
0.00208204 -0.0030375228 -0.009192128 -0.0053312737 0.000448841 0.0067675747 0.011190169 -0.012675971
-0.001791519 0.019711249 0.0068276916 0.018557338 0.01771335 -0.003328877 0.005245556 0.004635574
-0.006810726 -0.013455347 -0.002879916 0.005077979 0.019795654 -0.008882344 0.0034724916 -0.0016106386
0.0076833847 0.008452174 0.0061060893 -0.005232692 0.014222004 -0.0071722437 0.010140112 -0.010702926
0.00577549 -0.013298949 0.003872938 -0.012220131 0.00059026637 0.0046422365 -0.011707386 -0.0031438342
0.01931055 -0.010105307 0.0018479449 0.012305271 -0.00905512 0.013808712 0.00400645 0.0014270657
-0.004446249 -0.01162799 0.0005436148 -0.001929415 0.016046098 -0.005046709 -0.007989061 -0.0015641646
0.0030560617 -0.009473549 0.0023700246 -0.0112203965 0.0016698459 0.022983015 -0.00202487 0.00018186413
0.011292944 -0.007653707 0.013111674 -0.003708145 -0.0034838903 -0.0062081497 -0.0009999111 -0.0083275065
-0.008130759 -0.00088543614 0.0067282943 0.017333703 0.010131994 -0.012052174 -0.006102634 0.0044063437
0.0023472782 0.010770199 0.0018474326 -0.0051354743 0.013217646 -0.0044471645 -0.010933172 0.00024486927
-0.0031924897 -0.003326201 0.011043212 -0.0032990894 0.0037103822 0.004494679 -0.009828987 0.001371029

layers.1.running_mean f4 [128]
00000000: b1b4 c03e 30c3 afbc 15e7 5c3e ada7 eb3d
00000010: 4702 4137 d5e0 863d 80ed 35bc 8caa 6a3e
00000020: 61f0 8f3d f0ca a23e 1a80 84bd d20f 6ebe
00000030: e4b0 0fbe 2420 89bd 23eb 1abe 5436 013d
00000040: 0593 c7bd 74ca 55be c609 263e 10e9 453d
00000050: fab7 28bd 5195 87be 6a58 c53e 0957 a93e
00000060: ccc7 e53c eab3 ceba 14de fdbc b438 9a3c
00000070: 2f98 783e a689 75be 2fe6 1e3e b96f 493c
00000080: 7760 cabd d71c b13d 8a08 023e 8c5e a93b
00000090: 5d60 e93d 5915 623e 4663 3c3e 2fe7 98bc
000000a0: f4de c2be 89d7 37be 9f23 b03d e8a7 1ebd
000000b0: 43ab 223e 1b71 49bd 17c9 7ebc 5224 99be
000000c0: ad78 4a3e 9378 a33d edaf 1c3e 9b82 823c
000000d0: 04cc a7bd 052c 47be 1479 863b 42da 7abe
000000e0: 3d9a 933e b422 b83e f470 cfbe 3a8b 4ebd
000000f0: 5d1b cbbe 1702 b9bd a303 063e 063d e63d
00000100: 8883 a23d d859 94be 1177 d23d 3220 3e3e
00000110: 072f e63d 4e30 58be 4a40 6e3c 43bb 9f3b
00000120: a0d4 9b3d 5ec6 613c 51f7 103e 8e73 36be
00000130: 53f7 38bb 935a 3cbe c491 8dbe fb81 853d
00000140: 3f98 91be 5510 183d b010 c43c 9369 c1bb
00000150: e287 57bb a588 153e 32ef 8d3e 7ea0 bfbd
00000160: 56f5 8c3e 5b64 7cbe c3d0 7b3e fd50 633c
00000170: 9e87 11be 8763 3fbc 188b 813e e694 013d
00000180: 6970 8d3d 60b9 0e3e 197c 1bbe 18f5 8e3d
00000190: c30c 383e ce9c 4c3e c28c b8be 53df a63e
000001a0: f84b ef3c 0918 a3bd 2528 023e 43e1 c0be
000001b0: b5b2 613e 4775 2f3e 9894 73be e052 80be
000001c0: c82a 0cbe 0e42 c9bd a974 dc3d ba8b 22be
000001d0: 615a 4bbe fa52 d0be 01d1 8d3d 86f5 6b3e
000001e0: 7352 babe 0419 b33e a9c6 623d 8713 513e
000001f0: 9bfe 3b3e 91bf 41bb c3ad fc3c 9916 33be
0.37637857 -0.021455377 0.21572526 0.11506591 1.1504227e-05 0.06585852 -0.011103988 0.22916621
0.070282705 0.31795454 -0.06469746 -0.23248222 -0.14032322 -0.066955835 -0.1512876 0.031545952
-0.097448386 -0.20878011 0.16214666 0.04831797 -0.04119108 -0.26481107 0.38544017 0.33074215
0.028049372 -0.0015770171 -0.030989684 0.018825866 0.24276803 -0.2397829 0.15517496 0.012294703
-0.098816805 0.08648079 0.1269857 0.0051687416 0.11395333 0.22078456 0.18397245 -0.018664924
-0.38060725 -0.17953314 0.08600544 -0.038734347 0.15885644 -0.04918013 -0.015550873 -0.29910523
0.19772597 0.07981982 0.15301485 0.015931418 -0.0819321 -0.19450386 0.004103789 -0.24497321
0.28828612 0.35963976 -0.40515864 -0.050425746 -0.39669314 -0.09033602 0.13087325 0.11242108
0.07935244 -0.28974795 0.10276616 0.18566969 0.112394385 -0.21112177 0.014541695 0.0048746183
0.076089144 0.013780205 0.14156844 -0.17817518 -0.0028223589 -0.18393926 -0.27650273 0.065189324
-0.28436467 0.03712495 0.023933738 -0.005902478 -0.003288739 0.14602907 0.27721554 -0.09356783
0.27530926 -0.24647658 0.24591355 0.01387429 -0.1421189 -0.011681444 0.25301433 0.03163614
0.06906206 0.13937902 -0.15184058 0.06980342 0.17973618 0.19981691 -0.3604489 0.32592258
0.02921103 -0.07963569 0.12710626 -0.3767186 0.22040828 0.17134582 -0.23787153 -0.2506323
-0.13688195 -0.09827052 0.10764439 -0.15873614 -0.19858696 -0.40688306 0.0692463 0.23042879
-0.3639103 0.34980023 0.05536524 0.20417605 0.18358843 -0.0029563645 0.030844575 -0.17489089

layers.1.running_var f4 [128]
00000000: fb78 383e 5872 8a3e cc67 d23e 986c 983e
00000010: 21cd 8f3e 33bc 3e3f d11e be3e 01ae 0d3f
00000020: d7a3 5e3e db18 c13e 5357 9b3e 3ce7 6c3e
00000030: 75f6 153f 43a6 023f dc4f 893e eab1 a93e
00000040: e9bc dc3e f5d5 983e a90e a43d c8f5 ad3e
00000050: 5b58 053f 6f95 4f3e 089b 6e3e 8c55 b03d
00000060: 3646 ed3e 48cf 093f c76f 833e b02d c33e
00000070: 12a1 b33e 8009 0d3f 2de8 6c3e 57a4 133e
00000080: 5e4a e03d 2e02 a53e 267c e63e e078 033f
00000090: 3b54 1d3e fdb0 833e aa5f ee3d 8026 9e3d
000000a0: 039c 0b3f ab62 fb3d a872 7a3e 4531 a33e
000000b0: 19ec 633e 6d35 363e cb38 c43e 7d4f 213f
000000c0: b345 dd3d 8f3d fa3e 6f62 aa3e 6cdb a13e
000000d0: 065a 753e 62c4 eb3e b257 683e 0969 153f
000000e0: 02c9 bc3e ad1d 0d3f dd64 ca3e 0608 843e
000000f0: d7fc 7d3e 2dac 8d3e 2470 a73e 4533 2e3e
00000100: 8534 e03e 0b10 873e 21e3 073f cf20 6e3e
00000110: b6fa e13e f09d c63d 9fcf aa3e 6a6a 203e
00000120: 0403 f43e 0d3c 8b3e 86b3 913e 5926 803e
00000130: 9d99 be3d 7406 693e 412f 6d3e 7574 4c3e
00000140: e3fe b63e a42b b03e b391 823e acb7 963e
00000150: 5c7d d03e 30a0 cc3e 786c 593e 9663 793e
00000160: 0164 ac3e 70df 853e e664 b53e b9f5 a03e
00000170: 329d 813e 9fed a83e 61de 9d3e 6361 813e
00000180: 61b7 bb3e 8466 993e 4879 8a3e 74d4 a73e
00000190: 4431 7d3e e203 ce3e 2b48 0b3e 63be 933e
000001a0: f226 903e 0f8b 133f d7f8 703e 5478 503e
000001b0: dabd a13e 070f 0c3e 01b1 b63e 9999 283e
000001c0: 6aae aa3e eb82 bf3e 464d 553e 29ba ce3e
000001d0: 891b ff3d f5dc 4e3e e43d 263e 3857 8a3e
000001e0: f9c2 6b3e 4dd7 9e3e 038f cb3e 77b6 2b3f
000001f0: cbec a83e 3429 f53e 7b15 b03e 90b7 863e
0.180149 0.27040362 0.41094816 0.2977035 0.28086188 0.7450592 0.37132886 0.55343634
0.21742187 0.37714276 0.3034006 0.23135084 0.5857919 0.51034945 0.2681874 0.3314355
0.43112877 0.29850736 0.08010609 0.3397658 0.52087945 0.20271848 0.23301327 0.08610067
0.4634263 0.5383191 0.25671217 0.38120794 0.35083824 0.5509262 0.23135443 0.1441816
0.109516844 0.32228225 0.45016593 0.51356316 0.15364163 0.2572097 0.1163934 0.07722187
0.5453493 0.12274679 0.244578 0.31873527 0.22258033 0.17793818 0.3832458 0.63011914
0.1080431 0.4887509 0.33278224 0.31612718 0.23960122 0.46048266 0.22689703 0.58363396
0.36872107 0.55123407 0.39530078 0.2578737 0.24803482 0.27670422 0.32702744 0.17011745
0.4379007 0.26379427 0.53080946 0.23254703 0.4413659 0.09698093 0.33361527 0.15665594
0.4765855 0.27194253 0.28457278 0.25029257 0.09306643 0.22756368 0.23162557 0.199663
0.35741338 0.34408295 0.25501785 0.29437006 0.40720642 0.39965963 0.21232784 0.24354395
0.33670047 0.26147032 0.35428542 0.31437472 0.25315243 0.3299379 0.30833724 0.25269613
0.36663345 0.29961026 0.27045655 0.32779276 0.24725825 0.40237337 0.13601749 0.2885619
0.28154713 0.5763406 0.23532425 0.20358402 0.31590158 0.13677607 0.35681918 0.16464843
0.33336192 0.3740457 0.20830259 0.40376404 0.12456424 0.20201476 0.16234547 0.27019668
0.23023595 0.31023636 0.39757547 0.67075294 0.3299316 0.47882998 0.34391388 0.26311922

layers.4.weight f4 [128, 128]
00000000: ef28 2abd b3d3 4dbd 42dd 8cbc f3ae 22bd
00000010: 1a04 3b3c f301 903d e498 953b b1c5 423d
00000020: 5878 47bc 7350 823d ce15 493d 3d0a 63bd
00000030: c3ab 53bd cb57 eebc a87b 19bd c9aa 123d
00000040: 829f 903c 9614 523c f27f b9bc 672a 593d
00000050: 8269 4b3d 0a7d eebc 4f1d 8dbc 3c4a 2f3d
00000060: 4ac6 3ebc 67df 1fbc 1962 b83c f84f 83bd
00000070: d02e 44bb 5c4f 0d3b ff83 5a3d bdaa 57bd
00000080: 0a25 d739 76d3 223d 1707 4fbd ebeb 83bb
00000090: 8e77 e13c ab7e 123c 7238 173c b10d 2e3c
000000a0: b4f3 d53c b593 cbbd 7b08 51bd ee57 4a3d
000000b0: fe65 f23c 10e0 9fbd 44fa 53bc 157b 10bd
000000c0: 51cf 8e3d dc52 af3c e1f0 f3bc 18a7 eb3c
000000d0: 683d 0cbd 1eb0 413d 3d95 15bd 45ff 593d
000000e0: f25a 7a3d e3c8 c33d c1e1 9e3d f26a 013b
000000f0: 973a d63c 7d52 4e3d c6d2 6dbd 4327 87bc
00000100: 6ce6 42bc 3fdb a3bd b811 75bd cdd8 973d
00000110: cf36 9abd d7c4 993c 4eca 1c3d a151 933d
00000120: e362 6ebd c754 10bd 8744 e53c 50bf c2bd
00000130: 7542 323d e851 fcbc 4081 8dbd 56a1 3abd
00000140: 7758 0bbc 39f7 b3bd adb8 143d 689b 46bd
00000150: de5a e03c f04f b03c 17e7 1c3d 7ef4 a9bd
00000160: d5e1 cb3c 9186 23bc 3be5 c1bc 77d7 f23c
00000170: deb8 763d fd61 64bd d856 ae3d 6f06 b9bb
00000180: f1d2 4f3b 731d 5b3d ea24 32bc 5d59 793c
00000190: 317f a7bd a021 993d 3c0d d9bc b2e0 5dbc
000001a0: 66fb 8e3b 59d0 693c b5b4 99bc d85a 043b
000001b0: 3c17 763d ccde 173d 671a 92bd fb73 aebd
000001c0: 5183 09bd 0069 91bd 7dc4 87bd 7b8e 35bd
000001d0: 8330 023d 8e29 2ebd 226b b23c df90 97bc
000001e0: aa8f 76b9 87da a9bb 9378 193d a2ba c33c
000001f0: b9a6 17bd 8af4 a03d 4322 2d3d 2c38 013d
00000200: 3933 53bd c24d 35bd 10a5 a53c 2cd0 ab3d
00000210: 79b2 d93c dd11 6e3d 2e07 143b 7b8c 983d
00000220: 65a3 60bd 4f53 9f3d a1d7 143d 0e77 49bd
00000230: 825e b23d 82d0 8a3c 58b5 3a3d 9522 9a3d
00000240: 8fdb 58bd 806e 69bd 9f0c 583d 15a2 3abc
00000250: f097 78bd 63b8 4b3c a2b9 7fbd e002 953d
00000260: 992e 16bd 3d5e 6fbd 3c58 583d 4999 983d
00000270: f496 ad3c 7774 923d f6b3 6abc 8e81 8abd
00000280: a8da 073d edc5 b4bc 70e2 c0bc 63ef adbd
00000290: 65b0 04bb 24b5 2cbd 6e88 36bc 2d63 6e3c
000002a0: 57be 51bd a159 343d 12b4 b63d 9835 a4bc
000002b0: 3ecf 89bd 015d 983c 2e0e e2ba 6195 9ebd
000002c0: 9f0f 9f3c ea7d 5d3d 4016 983c d1dc 8b3c
000002d0: ffe7 223d 7072 853d 2231 71bc 0dc6 303d
000002e0: 1e87 95bd 4711 3b3d ac08 053d b75e a8bd
000002f0: 93ef a63c c79f 81bd 9010 943d 7510 a0bd
00000300: 2583 67bc 0bb3 743d 6f73 3c3b 525c 063c
00000310: 3857 b739 f11d f03c 3cd6 e43c 8be7 26bc
00000320: 44ad b33d b68e 1f3d c0fe 983d 0564 933c
00000330: 22a5 1f3c 8bf2 bc3c d46c 12bc 9f8a 083c
00000340: b417 9f3d 254d 5a3d 6cc3 adbd 2550 3d3d
00000350: e011 ae3c 2311 cf3c 77e5 4dbd 5d68 2f3d
00000360: 0a6a 65bd 3c48 85bd 5027 79bd 2dce b43a
00000370: 3538 943c a55a dc3b d2d2 733d e6a5 c43c
00000380: a1d4 94bd 8121 8fbc 891f 973d 7d8b ba3d
00000390: 87c7 90bd cd10 b03d 15f3 d5bc 95d3 193d
000003a0: a5cd 033d bb31 23bc c1ac 29bd f306 84bd
000003b0: fb03 883d 7c51 313d 586b 64bd b988 b7bc
000003c0: 8681 a13d a6ca 83bd 8b59 7a3d 1546 a93c
000003d0: efdd aa3d ccc7 9dbd ea37 af3d f388 803c
000003e0: 9213 b7bc dc0b f03a a67f bdbb 112b 1d3d
000003f0: 0e38 a5bd 9027 68bc 3b1e 99bd bef1 b13d
-0.041542944 -0.05025072 -0.017195348 -0.039717626 0.011414552 0.07031622 0.004565345 0.047551814
-0.012174688 0.06363001 0.04909306 -0.055429686 -0.051677477 -0.029094597 -0.037471443 0.035807405
0.017654184 0.012822291 -0.022644017 0.053018954 0.049661167 -0.029112358 -0.01722589 0.042795405
-0.0116439555 -0.009757853 0.022507714 -0.06411737 -0.002993513 0.0021562194 0.053348538 -0.052653063
0.00041035592 0.039752446 -0.05054387 -0.0040259263 0.027522828 0.008941333 0.009229766 0.0106233815
0.026117183 -0.09940282 -0.05103348 0.049400263 0.02958965 -0.078064084 -0.012938086 -0.03527363
0.06973136 0.021401815 -0.029777946 0.0287662 -0.03423825 0.0472871 -0.036519278 0.05322196
0.06112189 0.095598005 0.07757903 0.0019747582 0.026150985 0.050371636 -0.058062337 -0.016498214
-0.011895757 -0.08000802 -0.05983135 0.07414398 -0.07529985 0.018770618 0.03827887 0.07193304
-0.058199774 -0.0352371 0.027986778 -0.09509146 0.04352041 -0.030800775 -0.06909418 -0.04556402
-0.008504978 -0.08787388 0.036308933 -0.04848805 0.027387079 0.021522492 0.038306322 -0.08298586
0.024887959 -0.009980814 -0.023668876 0.029643757 0.060234897 -0.05575751 0.08512658 -0.005646519
0.0031711424 0.05349488 -0.010873059 0.01521906 -0.08178557 0.074771166 -0.026495568 -0.013542341
0.004363465 0.014270865 -0.018762926 0.0020195749 0.06008075 0.03707771 -0.07133942 -0.08518215
-0.0335725 -0.07100105 -0.06629274 -0.044325333 0.031784546 -0.0425201 0.0217796 -0.018501697
-0.00023513907 -0.005183521 0.037468504 0.023892704 -0.037024233 0.07859142 0.042269003 0.03154771
-0.05156252 -0.04426361 0.02022031 0.08389315 0.02657436 0.058122505 0.0022587287 0.074486695
-0.054843325 0.07779562 0.036338452 -0.049185805 0.08709432 0.016945127 0.0455831 0.07526127
-0.052943762 -0.056990147 0.05274641 -0.011391182 -0.060691774 0.012434098 -0.062432893 0.07275939
-0.036665533 -0.058439482 0.05281852 0.07451112 0.021190144 0.0715112 -0.014325133 -0.06762992
0.03316751 -0.022067035 -0.023545474 -0.08492925 -0.002024674 -0.042164937 -0.011140926 0.014550013
-0.051206913 0.04403079 0.089210644 -0.020045087 -0.067289814 0.018599035 -0.0017246658 -0.077433355
0.019416628 0.05407516 0.018565297 0.017073067 0.03977203 0.06515968 -0.014721187 0.043157626
-0.07301162 0.045670774 0.032478973 -0.082211904 0.02037791 -0.06329303 0.072297215 -0.07815639
-0.014130388 0.05974106 0.0028755327 0.008200722 0.00034969463 0.029311152 0.027934186 -0.01018704
0.08773282 0.03895446 0.07470465 0.017992029 0.009743961 0.023064872 -0.008937079 0.008333831
0.07768193 0.053296227 -0.084845394 0.04621901 0.021248758 0.025276726 -0.050267663 0.042824138
-0.05600933 -0.06507918 -0.060828507 0.0013794355 0.018093208 0.006724673 0.059527226 0.024004888
-0.07267118 -0.01747203 0.07379062 0.091086365 -0.07069307 0.085969545 -0.026116887 0.037555296
0.03217854 -0.009960587 -0.041424517 -0.06446638 0.06641384 0.0432906 -0.055766433 -0.022404062
0.07886033 -0.064351365 0.06112055 0.0206633 0.08343112 -0.07704124 0.08555587 0.015690302
-0.022348199 0.0018314081 -0.005783039 0.03837115 -0.08067332 -0.014169589 -0.07476469 0.08688687

layers.4.bias f4 [128]
00000000: 7c68 a4bc a123 9f3d 651a 983d 380b 9abd
00000010: f03a 933d 54d0 b23d a29d 4a3d 7adb 9bbd
00000020: 2569 2dbc 1389 81bc ef42 a5bc e721 6c3d
00000030: 2760 9f3d bed8 a33d ccdd ccbc f330 a4bc
00000040: 7e0d acbd 0deb 143d ed20 c03c 567b d6bc
00000050: 30ea 0b3c 202b 96bd ebe4 9a3d 7b8e c73c
00000060: 6f2a 54bd f0cb 903c 429b 8bbd 26ff 1abd
00000070: 9a41 31bd d276 093b 96ac 2dbd 66c2 5cbd
00000080: 1b7e 84bd c557 b03c 1e57 4f3d f4ac cebc
00000090: c68d 4cbb e295 083c 30d4 6ebc 5149 a13d
000000a0: 4cc8 283d fe71 b1bd 5fae 25bd f5d7 e6bb
000000b0: 188b 8b3a 72b6 94bd 43ee 583d 6700 b53d
000000c0: 93b5 68bc 88e7 54bd c5ff fcbc 7650 b23c
000000d0: e607 9dbd bf5d 3b3d a398 253d 25c0 a3bd
000000e0: 849c 173c 9bbd 66bd 1d2d 063c ee1b 613b
000000f0: 5998 52bd 6185 213d 6d59 c9bc 9254 f5bb
00000100: 9730 49bd fdac 40bc 5cff 2d3d d985 e93c
00000110: 3046 9cbd 8715 8ebc 896b 58bd bdb6 24bd
00000120: edad 893d d469 93bd a34f 08bd 200e 95bd
00000130: 19ee 5dbd 537f 1cbd 49a9 733d 1930 cdbb
00000140: 3e2b 86bd 43b3 143d a1e1 8f3d 3195 e3bc
00000150: e2db 123d 0365 64bd 2167 bdbc 1f92 6fbd
00000160: 8e50 9ebd cae3 7b3d 6980 843d 26ec 9c3d
00000170: a6f0 903d f243 653d 088f a0bc e0ee 593d
00000180: a7ef 013d a58b 453d fd6a 01bd 09b4 a1bd
00000190: 807a 7cbd dd15 a1bd 5b72 b73c b58c 6b3c
000001a0: 86e2 1dbd 42e0 9cbd 1d69 99bb e49a cb3c
000001b0: e118 afbd 9112 83bd 04c5 f63b 7621 8f3d
000001c0: 4a2b b73c f261 b2bd 5132 2c3d 301a 8f3c
000001d0: 9fc7 53bd 14a4 27bd 8774 493d ba2e ad3d
000001e0: b609 ff39 faca 9cbd 2b88 7bbd da2a b2bd
000001f0: 4911 88bd 7555 623d 7d41 5d3d 68d1 453d
-0.020069353 0.077704675 0.07426909 -0.07521671 0.07188976 0.08731142 0.049466737 -0.07610221
-0.01058415 -0.015812432 -0.020173518 0.05764952 0.077820115 0.08000325 -0.025008105 -0.020042872
-0.08401011 0.036356974 0.0234532 -0.026181858 0.008539721 -0.07332444 0.07563194 0.024359932
-0.05179828 0.01767537 -0.068167225 -0.037840985 -0.043275453 0.0020975363 -0.04240092 -0.05389633
-0.06469365 0.021526227 0.05062019 -0.025228955 -0.0031212433 0.008336516 -0.014576957 0.07875312
0.041206643 -0.086643204 -0.040449496 -0.007044787 0.0010646312 -0.07261361 0.0529616 0.08837967
-0.014203447 -0.051978618 -0.03088368 0.021766882 -0.07667522 0.0457437 0.04042877 -0.07995633
0.009253625 -0.056333166 0.008189467 0.0034348923 -0.05141482 0.03943384 -0.024578774 -0.007486888
-0.049118605 -0.011759994 0.042479858 0.028506206 -0.07630575 -0.01734425 -0.05283693 -0.040213335
0.06722627 -0.071979195 -0.033279072 -0.07278085 -0.054182146 -0.038207363 0.059487615 -0.006261837
-0.065512165 0.03630377 0.07025457 -0.027781101 0.035854228 -0.055760395 -0.023120465 -0.05848896
-0.07730208 0.061496533 0.06469805 0.07662229 0.0707715 0.055973 -0.019599453 0.053206325
0.03172269 0.04822888 -0.031596173 -0.07895667 -0.061640263 -0.07865498 0.022393396 0.014376809
-0.038546108 -0.07659961 -0.00468172 0.024854131 -0.08549667 -0.06400026 0.0075308103 0.06988804
0.022359509 -0.08710088 0.042040173 0.017468542 -0.051704045 -0.04092796 0.049183395 0.08456178
0.00048644625 -0.07655902 -0.061409157 -0.086995795 -0.06643922 0.05525728 0.054017533 0.04829541

layers.5.weight f4 [128]
00000000: 687a 813f a3dc 7e3f 3238 7c3f e218 7f3f
00000010: c66d 813f 2cbe 803f 0092 7f3f 216b 7c3f
00000020: 76bc 813f 02bd 7e3f b8b2 813f 5550 7c3f
00000030: 2eae 7d3f e750 803f 8ecd 7c3f f111 7d3f
00000040: a51d 823f 8c4c 843f 503f 813f 2141 7e3f
00000050: bef5 7d3f 68ba 7c3f eba5 823f b572 7c3f
00000060: 4900 813f 2ee6 7d3f 0836 7f3f 3e83 813f
00000070: deae 803f 385c 7f3f e3fc 803f 0f4d 7d3f
00000080: 4374 833f 97e2 803f 7fb9 7f3f e6e3 803f
00000090: f0c9 7f3f c5ac 823f 7632 823f 2811 7c3f
000000a0: 2b0b 7d3f f1e7 7d3f 0178 7b3f b75f 7c3f
000000b0: 07b0 7e3f 0f9a 7e3f f4f4 7d3f 861a 823f
000000c0: 818c 7f3f 575a 7d3f b4a7 7f3f 55d5 7d3f
000000d0: d675 7d3f 6605 813f 022e 803f 610c 813f
000000e0: e269 803f 1b88 7e3f a3f6 7e3f 45eb 803f
000000f0: c408 803f 203c 7e3f 1f0a 813f 55a8 803f
00000100: cef1 813f 9a63 803f c2bf 803f 3f80 7d3f
00000110: 5c9e 823f 93cf 803f 8ff2 7b3f d268 7c3f
00000120: 4951 7c3f b6c9 7d3f 4f28 7e3f 9891 813f
00000130: 517a 803f f106 813f 31e9 803f ffee 7c3f
00000140: a861 7f3f 8bb8 803f b43e 813f 197d 7d3f
00000150: 2272 803f 4235 833f ccac 833f 8746 7d3f
00000160: 3a12 813f 981c 7f3f 3383 7d3f 00c5 813f
00000170: 6baf 803f 3ea1 7d3f 823d 823f 7543 823f
00000180: 28b8 7d3f 8eb0 7d3f 9446 803f aace 803f
00000190: 61d8 803f 22a7 813f 0ceb 803f ad13 7e3f
000001a0: 70b4 7c3f 671e 7f3f 7946 813f a12c 803f
000001b0: c680 803f 7e8c 7d3f ee15 7f3f 3412 7f3f
000001c0: 82f1 813f dcba 7c3f 309e 7d3f 770e 803f
000001d0: 2ba6 7d3f 772a 7f3f ddb7 7e3f 9959 7f3f
000001e0: bd94 7b3f 88c4 7f3f cd02 7f3f fbdd 7b3f
000001f0: d350 803f 9aa4 7e3f 3c22 7e3f f6da 7c3f
1.011548 0.99555415 0.9852325 0.99647343 1.0111625 1.0058036 0.99832153 0.98600966
1.0135639 0.99507153 1.0132666 0.98560077 0.990939 1.002469 0.9875115 0.988555
1.0165297 1.033586 1.0097446 0.9931813 0.992031 0.98721933 1.0206884 0.9861253
1.0078212 0.9917935 0.9969182 1.0118177 1.0053365 0.9975009 1.0077175 0.9894571
1.0269855 1.006915 0.9989242 1.0069549 0.9991751 1.0208975 1.017165 0.9846368
0.98845166 0.9918204 0.98229986 0.9858355 0.99487346 0.99453825 0.99201894 1.0164344
0.99823767 0.9896597 0.9986527 0.99153644 0.9900793 1.0079772 1.001404 1.0081903
1.0032313 0.9942643 0.9959509 1.0071799 1.0002675 0.99310493 1.0081214 1.0051371
1.0151918 1.0030396 1.005852 0.99023813 1.0204577 1.0063347 0.9841699 0.98597443
0.9856153 0.9913591 0.99280256 1.0122557 1.0037328 1.0080243 1.0071164 0.9880218
0.99758387 1.0056318 1.009726 0.9901901 1.003483 1.0250628 1.0287108 0.9893574
1.0083687 0.99653006 0.9902832 1.0138245 1.0053533 0.9907416 1.0175021 1.0176836
0.99109125 0.99097526 1.0021539 1.0063069 1.0066034 1.012913 1.0071731 0.9924877
0.98712826 0.99655765 1.0099632 1.001362 1.0039299 0.990425 0.9964284 0.9963715
1.0151827 0.98722625 0.990695 1.0004414 0.9908168 0.9967417 0.99499303 0.9974609
0.9827383 0.9990926 0.9961365 0.9838559 1.0024666 0.9946991 0.9927099 0.9877161

layers.5.bias f4 [128]
00000000: a53d 503c f02b 97bb f94a 52bc 2172 083c
00000010: 196f 833c 9acf e13b 1cd2 963a b113 47bc
00000020: e88d 103c afb9 a53a c9d0 653c c826 a3bb
00000030: 7b66 eabb 03f9 b13b 4de2 bfbb eb28 15bc
00000040: 55b8 873c 90dc f43c 29b6 ab3c a6ed ccbb
00000050: 8afe 34bc 6e88 0abc 173c d03c 748b 3dbc
00000060: 3734 383c 34dc b9b9 dec8 46bb cfb2 ab3c
00000070: 6333 243c 0946 f239 0256 aa3b 2deb cdbb
00000080: 4573 b93c 7cc5 9f3c d782 a5bb ae4e 043c
00000090: d596 98ba 7e7e 8a3c 8e43 99b8 ea3f 96bc
000000a0: f2b9 4cbc bb59 3cbc ae99 3bbc 0924 77bc
000000b0: c916 64ba a229 94bb 8e95 1fba 8bee 9d3c
000000c0: 475f 9bba f898 d7bb e212 c93a 604b 9b3a
000000d0: 2e66 3bbc 3c1f b73a b1dd 0aba 255a 813c
000000e0: a7e7 0e3c 5742 bcbb 63b1 633c 1887 863c
000000f0: e1c5 3dbb d2a2 3fbc f8ee 2c3c 807a 413b
00000100: 8c5f 733c 2124 a53b f233 593c 64f8 0abc
00000110: e317 8c3c a2bc 0bbb 749a 87bc fa67 adbb
00000120: bb32 2fbc 632b 83bb d394 cfbb b106 e73b
00000130: 82b2 8e3c 3075 0e3c 33de b73c e4b5 29bc
00000140: 7d2e 883b f68a 143c d323 793c 88cd 19bc
00000150: 39e5 35bb b25f 9e3c b34b ce3c ebf7 93bb
00000160: 70a8 433c 94df 1b3b 825b 1abc b9e6 9a3c
00000170: 96e7 743c 36df 18bb 3ea8 6e3c 9881 003c
00000180: f443 f7bb 84a2 49bc a852 083b 7634 213c
00000190: f56d 0f3c 9cac c33c 2049 0c3c 7cf2 60bb
000001a0: 9a28 39bc 51c0 083c 4873 233c dd43 963b
000001b0: 45a6 9e3b cadf 0dbc deac c43b 8139 0fbc
000001c0: a489 bb3c 8563 85bc 548c 2bbc d176 173b
000001d0: fbff 2abc a9c0 243b 7b66 023b 231f a03a
000001e0: 8e35 85bc 0436 843b 967a 0e3c 500b 6bbc
000001f0: 59fc d83b 450e 02bc 1c53 003c 3950 44bc
0.01271001 -0.004613392 -0.012835258 0.008327992 0.016044186 0.006891203 0.0011506709 -0.012150691
0.008822896 0.0012643839 0.014026829 -0.0049789883 -0.00715333 0.005431296 -0.0058558346 -0.009103994
0.016567389 0.029890329 0.020960884 -0.006253916 -0.011047015 -0.008455379 0.025419278 -0.011568893
0.011242918 -0.00035450014 -0.0030332129 0.020959286 0.010022017 0.00046210017 0.005198241 -0.0062841387
0.022637973 0.019503348 -0.0050509977 0.008075399 -0.0011641631 0.01690602 -7.3081916e-05 -0.018341023
-0.012495505 -0.011496003 -0.011450214 -0.015084275 -0.0008700905 -0.0045215646 -0.0006087654 0.019278785
-0.0011853956 -0.0065795146 0.001534071 0.0011848025 -0.011437936 0.00139711 -0.0005297317 0.015790055
0.008722222 -0.005745213 0.013897273 0.01642184 -0.0028957056 -0.011696534 0.010555021 0.0029522479
0.014854323 0.0050397073 0.013257014 -0.0084820725 0.017101234 -0.002132215 -0.016553141 -0.005291936
-0.010693247 -0.004002975 -0.00633488 0.007050358 0.017419104 0.008694932 0.02244482 -0.0103583075
0.0041559325 0.009066334 0.015206295 -0.009387381 -0.0027755036 0.01933274 0.02518258 -0.004515638
0.011942014 0.0023784386 -0.009421231 0.018908845 0.0149477925 -0.0023326403 0.014566479 0.007843398
-0.0075459424 -0.012306813 0.002080122 0.009839168 0.008754243 0.023886018 0.008562356 -0.003432422
-0.011301184 0.008346633 0.009976216 0.0045857267 0.004841598 -0.0086593125 0.0060020527 -0.008741737
0.02289278 -0.016282806 -0.010470469 0.0023111592 -0.010437007 0.0025139248 0.001989751 0.0012216311
-0.016260888 0.0040347595 0.008696219 -0.014345959 0.006621879 -0.007937972 0.007832315 -0.011982017

layers.5.running_mean f4 [128]
00000000: 80e1 79bd ad2e bc3e 6596 83be 6e96 0e3e
00000010: 9023 2dbe b42a 7e3e 097b 0abd e986 a5be
00000020: 87c8 4a3e dd82 97be 0c5a 16bf 8d3e 9f3e
00000030: 4fec d23e b2a0 2c3e b7b7 e33e 4ffc bb3d
00000040: 5cdb 20be 3240 2e3e 463f 0f3d 409f 28bf
00000050: 1ad0 62be afc3 d0be 8e02 b53e 8019 673e
00000060: 8715 72be ebdc d93c d577 bbbe 9d0d 7c3d
00000070: d820 8bbc 7a23 d23c d319 1bbe be59 e23e
00000080: e928 033e da62 0abe 2d42 603e c17a 94be
00000090: e857 343e 4d9b 263d b414 76bd 5efa b23d
000000a0: af20 80bd 57b5 8b3e 4b98 73bd 475f 1e3e
000000b0: e380 bdbe 1fe4 72be 03a8 c9be 2d1e 193f
000000c0: bc7b 9a3d cfcc babe d25b 4bbe 86ab 14be
000000d0: df41 b0bd ae1a f9bd eb3b aabe 9d72 993d
000000e0: 1b81 bcbc 2692 383e 95df 393e 1865 60bc
000000f0: 8ae0 4dbd 3d25 94bd d2cd a0bd c964 b8bd
00000100: 42b7 d9be f6d0 f93e dd5e 57bc 276f 333e
00000110: 1e83 90be fc88 c03d 1bab 57be e48a b6bd
00000120: 0e2a debd d531 8a3e b29f ed3e e3dc 80be
00000130: d544 24be 50d4 eabd 5928 07be ed2c 8d3d
00000140: 2d09 16bf b96d 94bd 8d12 48bd 43b0 d63c
00000150: 92dc 3b3e 47db 153e c062 143e a42d 9d3d
00000160: 2e81 8d3c f1e5 d03d 4292 3f3e cb8b 05be
00000170: 131a 35be a775 49be fa8c 033e 8eb0 c1be
00000180: 8d35 32be 3ec0 0dbe c1ce 2ebd 592f 05bd
00000190: 8d69 0b3d 55ae 27be 16a8 cdbd 5e30 ca3e
000001a0: 7676 36be ac79 823d cd92 1bbe 1aaf c2bd
000001b0: d2d0 64bd 2839 5f3e eb6b 953c d96f b03e
000001c0: c450 a53e 59ff 8ebe bcaf d93d a6ea 9abd
000001d0: 7c79 8b3e a414 aabe 8581 033b b557 57bc
000001e0: 9ce7 a33d 23c4 efbd 95c1 c53d f877 0b3e
000001f0: d84c 05be 1ff2 15be ca1f bf3e f8ec 813e
-0.06100607 0.3675436 -0.2570068 0.13924572 -0.16908097 0.24820977 -0.03380874 -0.3232949
0.19803058 -0.29592028 -0.5873115 0.3110241 0.41195914 0.16858175 0.444761 0.091789834
-0.15708679 0.17016676 0.03497245 -0.65867996 -0.22149697 -0.40774295 0.35353512 0.22568321
-0.23641025 0.0265946 -0.36614862 0.06153642 -0.016983435 0.025651682 -0.1514657 0.44209093
0.12808575 -0.13514271 0.21900244 -0.28999904 0.17611659 0.04067545 -0.060078338 0.0873916
-0.06256234 0.2728679 -0.05947141 0.15466033 -0.37012395 -0.23719834 -0.39385995 0.5981167
0.07543132 -0.36484382 -0.19859245 -0.14518556 -0.08606314 -0.12163292 -0.3324884 0.07492564
-0.023010781 0.18024501 0.18151696 -0.013695978 -0.050262965 -0.07233665 -0.07851757 -0.09003598
-0.42522627 0.48792237 -0.013145176 0.1752287 -0.28225034 0.09401128 -0.21061365 -0.0891321
-0.10847865 0.26991144 0.464109 -0.25168523 -0.16041882 -0.11466277 -0.13198985 0.068933345
-0.5860775 -0.072474904 -0.048845816 0.026207095 0.1834586 0.14634429 0.14490795 0.07674721
0.017273512 0.10200108 0.18708137 -0.13041608 -0.17685728 -0.19673787 0.12846747 -0.37830013
-0.1740324 -0.13842866 -0.042677645 -0.032515857 0.034036208 -0.16375096 -0.100418255 0.39490026
-0.17818627 0.06370863 -0.15192719 -0.09506054 -0.05586321 0.21799147 0.018239936 0.34460333
0.32288182 -0.2792919 0.10629222 -0.07564287 0.27241123 -0.33218873 0.0020066213 -0.01314347
0.0800316 -0.11707332 0.096560635 0.13619983 -0.13017595 -0.14643143 0.3732894 0.25376105

layers.5.running_var f4 [128]
00000000: f166 503e fb13 b03e b981 a73e 0420 9c3e
00000010: d72e 713e f192 ae3e 0609 493e 53b0 963e
00000020: 8cb7 3a3e 30ef 283e 525b ce3e 0cab 7e3e
00000030: 2047 823e 2f65 793e dc3c 683e 4468 313e
00000040: e907 6e3e 9cdd b13e 0b66 4f3e 3848 783e
00000050: b795 253e 9729 943e ada0 b03e d683 303e
00000060: 77b7 853e c80b c03e 2be1 923e 4272 a43e
00000070: 92c9 813e 2297 193e 274b 373e 69a1 313e
00000080: f5ca 5c3e a25c 423e 97b2 203e c098 f43e
00000090: 3a2b a63e 1d3d 943e 36ef 873e c7dd 1c3e
000000a0: 7911 843e 5530 5b3e ec1d 383e 6cfa b43e
000000b0: 3f11 5b3e 2b7b 863e ce45 623e a902 873e
000000c0: f9b3 0a3e e453 1f3e 21fc 473e 58c4 413e
000000d0: 816f 183e 27bf d23e 2dd1 873e 9636 713e
000000e0: 3ac1 ce3e 7a36 923e 2718 413e 2aac 533e
000000f0: f344 293e 40a4 783e 1097 ef3d c2ce 8f3e
00000100: 3cbf 933e ed45 643e e34a 123e ec3b 413e
00000110: 080c 5c3e 914f 1a3e 4849 773e ed39 443e
00000120: 5b2d 873e 069b f93d f77b e53e 0ceb 7e3e
00000130: 1274 bf3e c705 813e 4eb5 903e 0610 5b3e
00000140: d579 613e 7c32 633e 2941 383e a601 743e
00000150: 3869 733e b958 3c3e fed5 713e 1848 1e3e
00000160: a1f8 6d3e 7961 5f3e af7e 623e 7f59 4e3e
00000170: 06a8 673e fce7 093e 165c 8f3e f5d5 ad3e
00000180: f2be 413e 1c89 4b3e 44aa 5f3e 87f0 e33d
00000190: 58a9 233e b929 563e 532a 353e a473 903e
000001a0: e1bd da3d 5d85 503e dba9 403e e516 4a3e
000001b0: 0e29 383e 851a 863e 689e 783e c340 303e
000001c0: 0969 483e 8bfe 4e3e bfdf 383e cb1d 843e
000001d0: 64e6 f53e f530 6c3e cae7 3d3e b807 533e
000001e0: 41a0 0a3e e090 483e 8050 983e 3083 733e
000001f0: 13e8 7b3e 3545 ed3e 542f 403e 3adc 033e
0.20351769 0.34390244 0.32716158 0.30493176 0.23553024 0.34096482 0.19632348 0.294314
0.1823408 0.16497493 0.40304047 0.24869937 0.2544489 0.24355005 0.22679466 0.1732493
0.23245205 0.34739387 0.2025377 0.242463 0.16170393 0.2893798 0.34497586 0.17237791
0.26116535 0.37508988 0.28687415 0.32118422 0.25349098 0.14999059 0.17899762 0.1734673
0.21561797 0.18980649 0.15693127 0.4777279 0.32454854 0.28952876 0.2654969 0.15318976
0.2579458 0.21405156 0.17980164 0.35347307 0.21393298 0.26265845 0.22096941 0.26369217
0.13545217 0.15559345 0.19529773 0.18922555 0.14886285 0.41161463 0.26526776 0.23555979
0.40381795 0.28557187 0.1885687 0.20671144 0.16530208 0.24281406 0.11698735 0.2808743
0.28856838 0.222923 0.1428638 0.18870515 0.21488965 0.15069415 0.24149048 0.19162722
0.2640179 0.121877715 0.4482114 0.24894351 0.37393242 0.2519972 0.28263324 0.21392831
0.22019131 0.22187227 0.17993607 0.23828754 0.23770607 0.1839322 0.23616788 0.15457189
0.23239376 0.21814527 0.22118638 0.20151328 0.2262269 0.13467401 0.27999943 0.339523
0.18920496 0.19876522 0.21842295 0.11129861 0.15982568 0.20914353 0.17691927 0.28213227
0.10680748 0.20363374 0.18814795 0.19735296 0.17984411 0.26192108 0.24279177 0.17212205
0.19571318 0.20214288 0.18054102 0.2580398 0.48027337 0.2306555 0.18545452 0.20608413
0.13537695 0.19586515 0.29748917 0.23780513 0.24600248 0.46341863 0.18768054 0.12876979

layers.8.weight f4 [64, 128]
00000000: 8fcc d4bb 4f40 81bd 6633 44bd 4234 74bc
00000010: 8685 c43d 105b af3d 8d39 bd3c 848a d83a
00000020: fb3e 5c3d 164e 8d3c b0f1 3bbd a46b a0bb
00000030: 60ed 673d 7d2c 2f3d e22d e83c 387a a1bd
00000040: 1c84 853c c1f1 dcbc 7129 a73c 7b88 26bd
00000050: 273b 3b3d cc88 03bd a687 bebd 4834 47bd
00000060: 0d26 253d 847a 6c3d cbfb 9ebd 874f 13bd
00000070: 250a 153d 00d2 cd3c 7f5c 35bd 4fbb ce3c
00000080: 22d4 393d 1f2c a03c 1dac 75bd c8dd 56bd
00000090: d49d a73d 754f 8abd 3190 f7bb ef23 f7bb
000000a0: a5bc b53d f6c3 2cbd 1592 303d a442 5abd
000000b0: 3385 a13d b8f8 7bbd a92c 013d bc03 113d
000000c0: 68b2 32bd 49f2 3d3d f224 70bd 5ce9 af3d
000000d0: 1579 d73b 5909 633d 19b9 cfbd 322f 59bd
000000e0: a5e8 863d 8395 793d e06c 78bb 9b48 273d
000000f0: 8e49 313d 0aa5 a73d 4e15 83bd b023 e73c
00000100: 7c89 cc3d 4c1d 283c c429 4dbd acb4 9c3d
00000110: fa1b 4c3d 9f44 483d dabb 423d 001a ab3c
00000120: b257 983c 7ab2 b4bd e3bf fcbc 1eee 8cbb
00000130: 1f8e 31bd 535f 983d c386 a1bc 4296 5fbd
00000140: 198d ff3c 9b6f 64bd 28a7 8bbd b965 afbd
00000150: 5ebf c3bd 36e4 bcbd 0983 103d 37b2 c43d
00000160: 5fae e6bb 1390 873d 034e 68bc 5e50 053d
00000170: 9de1 ae3d df97 803c 2833 163c 2425 8c3d
00000180: bf3a bd3c b9ce afbd 3c15 1e3d e303 753d
00000190: 7b01 91bd ff3c 8a3d 4655 14bd 1eb2 bcbc
000001a0: 30c7 0bbd 07a5 71bc 242a a03d 6d3b 923d
000001b0: 031d 013d 7b45 c13d 8f89 f23c a7f5 2c3c
000001c0: 914f 85bd 2163 3b3b 57ca 55bc eac2 1bbd
000001d0: 631f 5a3b 6c6d 613c 124f aebd 5584 7fbd
000001e0: 79be 9d3d 5255 c4bd c374 533b 15e9 41bc
000001f0: 8dee 33bd ef00 1abd cf9d 543d 9049 5a3d
00000200: 6d09 c6bd d439 973c f4f2 87bd 371b 54bd
00000210: 3ad4 6a3c 46d2 563c 7ca2 a43d ae24 2b3d
00000220: 8d16 c03d e2cb 87bd 80bb da3c 27ab 1bbd
00000230: 7d53 ebbc 504d 99bd dc03 853d 098d ae3d
00000240: c9c0 c73d c47d b0bc d150 793d eb16 6abd
00000250: e829 35bd 7e70 0d3d 6d6a 94bd 572d 20bc
00000260: fc64 113d 3713 663c 794c 3d3d 1fa4 953b
00000270: 8109 34bc 5687 9f3d 51ee e93c 610e 65bc
00000280: 3021 d43c 5287 63bd b062 563c 3524 a03d
00000290: eed6 01bc 15be 6dbd dd53 c93d f92c 8abd
000002a0: 2789 d8bb 0afe 663d 2981 723b 7452 debb
000002b0: e0b1 8e3d 90bd 72bc 41d2 223d 5d3d 60bd
000002c0: 48ec 3fbd 33d6 adbd 1fbd b63c d2d1 3a3d
000002d0: 9822 233d fd08 553d c4f0 f03c a9fa 173d
000002e0: 6389 973c f522 1fbd b31a 6fbc 889d 3ebc
000002f0: 56f4 99bd 68ae 5b3d f1eb 0fbc f0de 173d
00000300: 0edf 86bd 2424 5cbd a69c 1c3d b2f0 0d3d
00000310: 02c0 923c f4ff 023d 01ce 2fbd af62 35bc
00000320: c8fa 453d 5611 b1bd a8d2 9abc 7596 ae3d
00000330: b7ef 90bc d682 62bd 1be8 8f3d 9314 903d
00000340: 1d6e 7bbd 9eb4 373c 1ada a8bd b240 913d
00000350: d0fd 933c bd76 c03d c3d9 593d 2e10 b2ba
00000360: dc32 a13d 45fc 82bd 1d1a 90bd 50e2 8a3c
00000370: ff98 28bd a531 4b3d 8545 0b3d 2493 253d
00000380: 61f2 7a3d ff4b a23c 12ec 83bd 222d 69bd
00000390: d9c7 23bd 66bd 6c3c 33c4 b33c aa4a aabd
000003a0: 39a6 92bd f151 303d 0c49 88bd ff24 e43c
000003b0: 8398 8f3c 0179 0fbd 0c90 a5bd 9045 f4bc
000003c0: 0d86 1dbd 3034 123c 5402 033d 4420 30bc
000003d0: bd70 00bd d955 1e3d 428a 58bd 45f1 c2bc
000003e0: e923 dd3b a1da a03d 364c 15bd b95e 75bc
000003f0: 9a07 053d d73b 28bd e0da e1bc a138 b2bd
-0.006494112 -0.06311094 -0.04790058 -0.014905037 0.0959578 0.08562291 0.023098731 0.0016520773
0.053771 0.017249148 -0.045884788 -0.0048956443 0.056622863 0.042767037 0.028342191 -0.078846395
0.016298346 -0.026970746 0.020405503 -0.0406575 0.04571071 -0.03211288 -0.09303217 -0.048633844
0.04031949 0.057734028 -0.077628694 -0.035964515 0.036386628 0.02512455 -0.044277664 0.0252358
0.04536832 0.019552289 -0.059978593 -0.0524576 0.081844 -0.067534365 -0.0075550308 -0.0075421254
0.08873872 -0.04217907 0.043108065 -0.05328621 0.07886734 -0.061516494 0.031536732 0.035403952
-0.043627173 0.04637364 -0.058628984 0.08589432 0.0065757134 0.055428836 -0.101427265 -0.053023525
0.06587342 0.0609336 -0.0037906691 0.040840726 0.043283038 0.081857756 -0.06400548 0.02821526
0.099871606 0.010260891 -0.05008866 0.07651648 0.049831368 0.048893567 0.04754243 0.020886421
0.018596504 -0.08823104 -0.030853217 -0.0043008467 -0.043348428 0.07440057 -0.01971758 -0.054586656
0.03119521 -0.055770498 -0.06818992 -0.08564324 -0.09557985 -0.09223215 0.035281215 0.09604304
-0.0070398296 0.06619277 -0.014178756 0.032547347 0.08539126 0.015697418 0.00916747 0.068430215
0.023099301 -0.08584351 0.03859447 0.05981816 -0.070803605 0.06749915 -0.036214136 -0.023034152
-0.034125507 -0.014748818 0.07820538 0.07140241 0.03152181 0.094370805 0.029606609 0.010556615
-0.06509317 0.002859302 -0.01304873 -0.03802768 0.0033282868 0.013758998 -0.08511175 -0.06238206
0.077023454 -0.09586586 0.003226564 -0.011835356 -0.04392867 -0.037598547 0.05190831 0.05329281
-0.096697666 0.018460192 -0.066381365 -0.051783767 0.014332825 0.0131116565 0.08038804 0.041783027
0.09379301 -0.066306844 0.026700735 -0.03800502 -0.028726334 -0.07485449 0.06494877 0.08522994
0.09753568 -0.021544345 0.06086809 -0.057150763 -0.044229418 0.03453111 -0.072468616 -0.009776435
0.035496697 0.014042667 0.046215508 0.004566684 -0.010988594 0.07789485 0.02855602 -0.013980479
0.025894731 -0.055548973 0.013085052 0.07819406 -0.007924778 -0.058042604 0.09830449 -0.06746859
-0.0066081467 0.056394614 0.0037003255 -0.0067847315 0.06967521 -0.014815703 0.039751295 -0.05474602
-0.046856195 -0.08488121 0.022306977 0.045610256 0.039827913 0.052010525 0.029411681 0.037104283
0.018498128 -0.038851697 -0.014593768 -0.011634238 -0.075173065 0.053633124 -0.00878428 0.037077844
-0.06585513 -0.053745404 0.03823533 0.034653373 0.017913822 0.031982377 -0.04292107 -0.011070891
0.048334867 -0.08645885 -0.018899277 0.08524791 -0.01769243 -0.055300556 0.070266925 0.07035174
-0.06138431 0.011212496 -0.082447246 0.07092418 0.018065363 0.093976475 0.05318619 -0.0013585144
0.07871029 -0.06395773 -0.07036231 0.016953617 -0.041161533 0.04960789 0.034001846 0.040423527
0.061266307 0.019811628 -0.06441511 -0.056927808 -0.03998551 0.014449453 0.021944141 -0.08315022
-0.07160611 0.043046895 -0.066545576 0.027849672 0.017528778 -0.035027508 -0.080841154 -0.029818326
-0.03845792 0.008923575 0.031984642 -0.01074988 -0.031357516 0.03865609 -0.052866228 -0.023796687
0.0067486656 0.078542 -0.036449634 -0.014976197 0.032477953 -0.041072693 -0.027570188 -0.08702207
