models/best_fold5_hd128_do0.3.pth (torch, 118438 bytes, 20 tensors)

layers.0.weight f4 [128, 10]
000000 dc 37 49 3e 8c 41 73 be 21 b0 66 be 3b 14 7f 3e
       0.19650215 -0.23755473 -0.22528125 0.24910061
000010 0e ba 5e 3d 50 d2 49 3d 2d 6f 93 3e 11 c8 45 3e
       0.054376654 0.049272835 0.28795758 0.193146
000020 b9 8c 95 be 66 94 6a 3d 55 e7 87 bd 19 4e a9 3d
       -0.29208925 0.05727043 -0.0663592 0.08266849
000030 4e 92 50 bd 2f f8 ba bc 56 e4 c3 bc e2 19 62 3e
       -0.050920777 -0.022823421 -0.02391259 0.22080186
000040 aa 67 14 bd a8 db 59 be 1d e5 96 3e 5f 61 92 3e
       -0.036231674 -0.21275198 0.29471675 0.28589913
000050 ba 4c 4e be bc 7e 95 3e e9 8d 74 3e fb a3 ec 3d
       -0.20146456 0.29198253 0.2388226 0.11554714
000060 5b 2b f8 3b b1 8f b2 3d 0e 4f 47 be 91 ae d7 3d
       0.0075735277 0.08718813 -0.1946375 0.10531343
000070 54 f3 98 be 41 74 01 3e 66 03 3a 3e e6 1d 7f be
       -0.29873145 0.12642004 0.18165359 -0.24913749
000080 2e 15 60 3e 07 5d 3b be d0 0d 1d be 67 05 25 3d
       0.2188308 -0.18297206 -0.153373 0.040288355
000090 da 37 8a 3e c9 fe e5 bd 27 34 85 3e 7f 61 8d be
       0.26995736 -0.11230237 0.26016352 -0.27613446
0000a0 fa 7b 28 3c 0b 16 8b bd dc 7f 58 3e f7 56 60 3c
       0.010283465 -0.06791314 0.21142524 0.013692609
0000b0 af 2f 20 3e 62 d7 41 3d 24 11 6b 3e da 4e 68 3e
       0.1564319 0.047324546 0.22955757 0.2268633
0000c0 83 ca 66 be fc ca 1a bd 35 c9 15 3c 3b 9e 67 3e
       -0.2253819 -0.037791237 0.00914221 0.22618954
0000d0 07 77 e4 3d c4 66 39 3c 05 9c 86 be 5c 29 1e 3e
       0.11155515 0.011316005 -0.26290908 0.15445465
0000e0 f7 9e 96 3d 3d 46 9d bd e5 02 06 be e2 d0 b8 3d
       0.07354539 -0.076794125 -0.13087042 0.09024216
0000f0 37 1f 92 be 08 83 56 be 3d 96 d6 bc 0b 14 f8 3d
       -0.2853944 -0.20948422 -0.026194686 0.12113198
000100 d8 0b 00 3e 80 e8 35 3e c8 3a 7d be 03 5e 28 be
       0.12504518 0.17764473 -0.24729455 -0.16442113
000110 9f 94 87 3e f1 64 18 3e c7 6e 93 be b3 3c 7c 3e
       0.26480576 0.14882256 -0.28795454 0.2463253
000120 8e d6 83 3c c6 91 8f 3e cf 39 8a 3d 24 a0 56 3d
       0.016093519 0.28040904 0.06749307 0.052398816
000130 a4 dc 3b be 6b b5 fe 3c a0 b1 09 3e 7b 22 6f 3d
       -0.18345886 0.031092366 0.13446665 0.058382493
000140 b1 20 63 3e 7b 54 f4 3d e7 29 95 3e d4 80 53 be
       0.2218044 0.11930176 0.2913353 -0.20654613
000150 c0 e9 da bd e0 8a 97 3e 6d a3 2a 3e 2b 4a f8 bd
       -0.106891155 0.2959814 0.16663904 -0.121235214
000160 10 93 eb 3d 2c b5 3b 3d 51 4c 25 3e 7c 37 97 3e
       0.11502659 0.045827076 0.16142394 0.2953452
000170 87 a8 8a 3e a4 1a 79 3b b9 9c c6 3d 50 ea dc bc
       0.270817 0.0038010264 0.09697861 -0.026967198
000180 1a a4 50 3d 1b 38 e4 3d 67 04 5d 3e a3 60 93 bd
       0.05093775 0.11143514 0.2158371 -0.07196166
000190 f5 4f 0d 3e 8b 5d 0c 3e 40 b2 94 be 8f 7a 38 3d
       0.13800032 0.13707559 -0.29042244 0.045038756
0001a0 f9 ab bd 3d 1a 88 75 3e d5 85 02 3e 00 bd 82 3e
       0.09261317 0.239777 0.12746365 0.2553482
0001b0 a6 6e e9 3d 80 6b 93 b8 80 c2 97 bc 4a f4 77 bd
       0.11398058 -7.02953e-05 -0.018525362 -0.060535707
0001c0 ef f2 57 3e 0a 6f a7 be 87 c4 c6 bd f6 4e fd 3d
       0.21088766 -0.32701904 -0.09705453 0.12368576
0001d0 c7 21 b1 bd 3f 1e c5 3d a4 f0 59 be d2 06 31 be
       -0.08649021 0.096249096 -0.21283203 -0.17287758
0001e0 8f bb 8f 3d 8d b7 4f bd 37 9f 91 3e 77 28 61 3e
       0.07018196 -0.050712157 0.28441784 0.21988092
0001f0 62 36 0c bc 00 2b 7b 3e 55 2a 1c be 77 63 9e be
       -0.008557888 0.24528122 -0.15250523 -0.3093526
000200 3e 58 a3 3d a4 77 3e bd 2f f9 63 3e f3 02 4b 3e
       0.07975815 -0.046500817 0.22263025 0.19825344
000210 f0 5b 44 be 73 4f 8e bd 4e 8d 91 3e 63 6d 46 be
       -0.19175696 -0.069487475 0.2842812 -0.19377665
000220 8e eb 94 3e 7c a5 40 3e cc 34 93 be d6 7c 33 be
       0.29085964 0.18813127 -0.28751218 -0.1752809
000230 5e dc cf bd ed 07 81 be d1 b4 7c be f7 78 53 be
       -0.101494536 -0.2520136 -0.24678351 -0.20651613
000240 c4 08 d9 bc 95 89 a3 3e 81 d6 93 3d f7 5b 95 3e
       -0.026493438 0.31940904 0.07218648 0.29171726
000250 34 ce 8f 3e 66 02 8c be 30 13 09 3e 7d 46 03 3c
       0.28087008 -0.2734558 0.13386226 0.008012411
000260 47 7a 1f 3d 06 04 30 bb c5 64 74 3e 53 03 78 3e
       0.038934972 -0.0026857867 0.23866566 0.24220018
000270 0c 0c 9c 3e 00 cb f1 3c ac 83 f2 3d f2 4c 00 3e
       0.3047794 0.029515743 0.11841521 0.12529352
000280 43 75 77 bd 63 53 87 3e e3 32 02 be 6b b0 26 be
       -0.060414564 0.26430807 -0.12714724 -0.16278236
000290 28 e6 4c 3e 4b d2 dd 3d 98 f6 41 be 09 4c 67 be
       0.20009673 0.10831126 -0.18941724 -0.22587599
0002a0 a0 86 88 3c b3 2e 40 be d7 3b 50 be 26 99 b8 3d
       0.016665757 -0.18767814 -0.20335327 0.09013586
0002b0 1c be fd bc ae 0f 8f be be 0a da bd 51 e8 1c 3e
       -0.03097444 -0.2794165 -0.1064658 0.15322997
0002c0 a7 b1 97 be 76 63 21 be aa e2 12 3d 82 62 95 be
       -0.29627725 -0.15760598 0.035860695 -0.29176718
0002d0 ca 30 95 be 60 00 ad 3c 44 51 84 be 80 00 6b 3d
       -0.29138786 0.021118343 -0.2584325 0.057373524
0002e0 b0 13 3f 3e 87 47 e7 3d 9d 63 89 3e e8 59 39 be
       0.18659854 0.1129294 0.2683381 -0.18100703
0002f0 82 08 3f bc e3 8c aa bd f6 98 f6 3d d9 66 92 be
       -0.011659743 -0.08327653 0.12040894 -0.28594092
000300 43 c6 8b be 92 48 4f 3e 25 7d ea bd 5c 86 8c 3e
       -0.272997 0.20242527 -0.11449651 0.27446258
000310 84 1f fe bd c5 d2 9d 3e 4f d6 70 3e 49 dd 72 be
       -0.12408355 0.30824867 0.23519252 -0.23717226
000320 08 15 cc 3d b9 71 2e 3e 2c 71 56 3e e1 69 83 be
       0.09964949 0.17035569 0.20941609 -0.25666717
000330 6a cb b6 3b b8 c7 8e 3e ae 86 2f be b3 5d 92 be
       0.005578448 0.27886748 -0.1714122 -0.28587112
000340 3b b6 6d be 3f e7 42 3e 18 fe 84 3e e9 01 6f 3e
       -0.23214047 0.19033526 0.25975108 0.23340572
000350 10 89 8e bd 4c 98 09 be e8 fd 23 bd 33 66 61 be
       -0.06959736 -0.13437003 -0.040037066 -0.22011642
000360 ae e8 fe 3d bf ed f6 bd 5f 26 5a 3c 53 ab 84 3e
       0.12446724 -0.12057065 0.013314812 0.2591196
000370 19 88 5c be f5 aa 8a bd 23 a3 6e be 1a 13 4c bc
       -0.21536292 -0.06770889 -0.23304419 -0.012455726
000380 46 bd 4b be b6 8c 81 bc e5 ca 48 be ea 2e 27 3d
       -0.19896421 -0.015814167 -0.19608648 0.040816225
000390 ce 89 9e bc 09 ea 9c be b2 81 8e 3d 4c 4a f3 3d
       -0.01935282 -0.30647305 0.06958331 0.118794054
0003a0 75 16 86 be 12 9d 96 3d 15 e9 04 3e 91 22 81 be
       -0.26189008 0.073541775 0.12979539 -0.25221685
0003b0 99 21 0b 3d a1 d1 aa 3c 0a a9 db 3c b7 1f 87 be
       0.033967588 0.020851912 0.026814003 -0.26391384
0003c0 5a 92 32 3e 15 35 50 be db 74 ed 3d 29 94 91 be
       0.17438641 -0.20332749 0.11594554 -0.2843335
0003d0 e9 2b 87 3e 45 cd 0d be aa 50 e4 3d 09 cf b7 bd
       0.26400688 -0.13847835 0.11148198 -0.08975036
0003e0 37 60 85 be 8f 7c e0 bd eb 92 90 bd 9a 49 df 3d
       -0.2604997 -0.10961258 -0.070592724 0.1090271
0003f0 1b 4d 49 be 7d d5 3d be 2e 13 46 3e f8 b6 95 3d
       -0.1965832 -0.1853847 0.19343254 0.07310289

layers.0.bias f4 [128]
000000 cf a9 9c be 81 fb 73 be 37 e6 24 3e 43 26 3c 3d
       -0.30598304 -0.2382641 0.16103445 0.045934927
000010 6f 3b 56 be 36 00 a1 bd 3f 7b 41 bd 98 b3 3d be
       -0.2092111 -0.07861368 -0.047236677 -0.18525541
000020 ed 9a 47 3d 08 4e 9c be 0e 92 86 be 87 18 9e bd
       0.048731733 -0.30528283 -0.26283306 -0.07719522
000030 2e 1b 57 bc 9a 81 bf bd af 6e 36 be e3 5b 89 3d
       -0.013129039 -0.093508914 -0.1781566 0.06706979
000040 70 d9 85 3d 17 c0 a5 3d 40 6e 8e be 14 79 32 3e
       0.065356135 0.08093279 -0.2781849 0.17429
000050 92 4f 3c 3e b5 aa 17 be d8 4a 39 3e 8e 64 c0 bd
       0.18389729 -0.14811213 0.18094957 -0.09394179
000060 52 28 0f 3e f0 5b 57 be d1 b9 3e 3d 19 61 8b 3e
       0.13980225 -0.21031165 0.046563927 0.27222517
000070 f6 a0 90 bc 6b c0 8f be dd da 74 3e 32 2e 10 3d
       -0.017654877 -0.2807649 0.23911615 0.035200305
000080 ab 91 c1 bd 1b f2 6d 3d cc 9c 2a 3e 44 df cc 3c
       -0.09451612 0.058092218 0.16661376 0.025008805
000090 a5 72 68 be 4c 94 2e 3e b4 1d 29 bd 6c b2 dc 3d
       -0.22699983 0.17048758 -0.041288093 0.10776219
0000a0 9f 95 69 be 18 86 6b be bc 29 2e 3d e9 49 e2 3d
       -0.22810982 -0.23000371 0.04252027 0.110492535
0000b0 ab 4b 2e be 7b 99 16 3e d2 83 05 be 07 c9 7a 3e
       -0.17021053 0.14706986 -0.13038567 0.24490748
0000c0 ec f2 86 3e d0 ab 88 3e 5a a7 7d 3e fc 48 91 be
       0.2635721 0.26693583 0.24770871 -0.28375995
0000d0 d6 b4 05 be f6 f7 48 3d 6d 58 3f 3e f6 be 78 3d
       -0.13057265 0.0490646 0.18686076 0.06072899
0000e0 6c 70 90 be 2e f3 9c be cc 7a 1d 3e 6d de 9e 3e
       -0.2821077 -0.3065428 0.15378875 0.31029072
0000f0 cd 8e 0a 3e ea 02 67 3e 1f b4 ae bd 55 70 b0 3d
       0.13531037 0.22559705 -0.08530449 0.08615176
000100 47 af 2e 3d b5 2a 75 3e 66 c2 97 3e 40 47 76 be
       0.042647626 0.23942073 0.29640502 -0.24050617
000110 99 5a 81 3e 60 18 6c be 66 27 d4 3d 6b ae 77 be
       0.25264433 -0.23056173 0.10359077 -0.24187629
000120 e8 ac 70 be db 9b 9e be 1a 63 cc bd 81 9d 6b 3e
       -0.23503458 -0.30978283 -0.099798396 0.23009302
000130 01 9e 7c be 07 d5 cf bd b9 92 7c be 65 b9 9d bd
       -0.24669649 -0.101480536 -0.24665345 -0.07701377
000140 fb 7a ab bd 92 b2 50 3e c7 5b 60 bc cc 41 8c 3e
       -0.08373066 0.20380619 -0.013693756 0.2739395
000150 ad ee 6e be 32 72 46 3e 84 cb 69 3e 1b e6 86 be
       -0.23333235 0.193795 0.22831541 -0.26347432
000160 b7 ac 13 3e c5 7b 3e be 10 3a 8b 3e b4 62 cc 3c
       0.14421354 -0.18601902 0.27192736 0.024949409
000170 5d 9b 2f 3e de c0 87 3d 14 29 7a 3e ff 95 79 3e
       0.1714911 0.06628583 0.24429733 0.24373625
000180 60 af 45 3e b4 6a 67 3d 79 6a 06 be 59 13 3d bd
       0.19305182 0.056498244 -0.13126554 -0.04616103
000190 fc a6 10 be 9a ec 97 be 31 a5 c3 3d 84 06 8d 3c
       -0.141262 -0.296727 0.09552992 0.017215021
0001a0 f5 c3 c7 bd fe d4 72 bd c5 89 8e be 4a 01 3f bc
       -0.09754173 -0.059285156 -0.27839485 -0.011658022
0001b0 92 3e dc bd d6 5d c1 3d d3 8d a1 be 3b cc 77 3d
       -0.10754122 0.09441726 -0.31553516 0.060497504
0001c0 c4 b2 99 3d 66 42 96 be 81 3b 1e 3d 40 8c a0 3e
       0.075048 -0.29347533 0.038630966 0.31357002
0001d0 7a 28 1c 3e f5 5a 5b bd 1d 4f 57 be 2e 4b 6c be
       0.15249816 -0.05355354 -0.21026273 -0.23075554
0001e0 19 0c 58 bd da b2 39 bd 15 fc 8e 3e bd ca 82 3d
       -0.052745912 -0.04533658 0.27926698 0.063863255
0001f0 05 2d 9c bd 2a 99 9c 3e 81 3c ba 3d f3 8c 55 3c
       -0.07625774 0.30585605 0.090935715 0.013034093

layers.1.weight f4 [128]
000000 0f d6 7b 3f 70 95 7c 3f 68 53 7d 3f 9a 6f 7d 3f
       0.983735 0.98665524 0.9895539 0.98998415
000010 3d 0b 7e 3f 5b 8d 81 3f 05 88 81 3f 24 36 80 3f
       0.992359 1.0121263 1.0119635 1.0016522
000020 94 2b 7e 3f be cf 7b 3f 49 17 7a 3f a0 36 7a 3f
       0.99285245 0.98363864 0.9769178 0.977396
000030 dc 38 7f 3f a7 29 80 3f 7f 49 7e 3f df 78 7f 3f
       0.99696136 1.0012711 0.99330896 0.9979381
000040 b0 ae 7b 3f 2d 62 7e 3f 3b 2b 83 3f 30 c5 7a 3f
       0.98313427 0.99368554 1.0247568 0.97957134
000050 e5 2f 7b 3f 94 23 7c 3f e4 4d 80 3f c9 ca 7d 3f
       0.98119956 0.9849179 1.002377 0.9913755
000060 09 b1 7f 3f 7c 06 7f 3f 67 17 7d 3f bd 8c 80 3f
       0.9987951 0.9961927 0.98863834 1.004295
000070 3c 3e 7b 3f 83 c9 7c 3f 61 00 80 3f 66 40 7b 3f
       0.9814184 0.9874498 1.0000116 0.9814514
000080 45 31 7e 3f ef 30 7c 3f ac b1 7f 3f 28 64 84 3f
       0.9929393 0.98512167 0.9988048 1.0343065
000090 f1 6a 80 3f af 71 80 3f 20 f8 82 3f 12 32 80 3f
       1.0032636 1.0034693 1.0231972 1.001528
0000a0 ff 85 79 3f d7 cc 7c 3f a0 5e 81 3f ce 47 84 3f
       0.97470087 0.9875006 1.0107002 1.0334413
0000b0 fd 2c 83 3f d1 8b 7e 3f 07 eb 7d 3f 5f 1e 7d 3f
       1.0248104 0.9943209 0.9918675 0.9887447
0000c0 a5 c2 81 3f 9e ea 81 3f 25 df 7f 3f 5d 58 82 3f
       1.0137526 1.0149724 0.99949867 1.0183216
0000d0 69 42 7f 3f 0b 5e 80 3f e4 a3 7b 3f 36 9c 80 3f
       0.9971071 1.00287 0.9829695 1.0047672
0000e0 34 a8 80 3f 38 99 80 3f 59 d4 7c 3f 0a a2 80 3f
       1.0051332 1.0046759 0.98761517 1.004945
0000f0 5a 46 81 3f ce 01 7c 3f 79 bf 80 3f a1 a0 80 3f
       1.0099595 0.98440254 1.0058433 1.004902
000100 37 87 7d 3f 83 6b 81 3f e2 f8 7c 3f 2f 9b 7c 3f
       0.99034446 1.0110935 0.98817265 0.9867429
000110 e6 1c 80 3f e7 b2 82 3f 48 e5 7b 3f b4 ff 7d 3f
       1.0008819 1.0210847 0.9839673 0.99218297
000120 2a 2b 80 3f 58 ab 82 3f ed ef 7a 3f 63 2e 7c 3f
       1.0013173 1.020854 0.9802235 0.9850828
000130 d7 03 84 3f 6d 85 7f 3f c9 30 7b 3f ac 69 80 3f
       1.0313672 0.99812967 0.98121315 1.0032248
000140 23 cf 7f 3f 7e db 7c 3f 99 30 7d 3f 66 dc 7d 3f
       0.9992544 0.9877242 0.9890228 0.99164426
000150 37 8e 7d 3f 42 96 7e 3f da 16 7e 3f 27 90 7b 3f
       0.9904513 0.99448025 0.9925362 0.98266834
000160 53 6d 80 3f dd 07 82 3f 97 e3 79 3f b2 a0 80 3f
       1.0033363 1.015865 0.976129 1.004904
000170 f2 4e 80 3f fa f5 7b 3f f9 f8 7b 3f 93 cc 82 3f
       1.0024092 0.98422205 0.9842678 1.0218681
000180 e9 6c 80 3f 9b e1 82 3f 9a 85 7e 3f b5 f2 83 3f
       1.0033237 1.0225099 0.9942261 1.0308443
000190 ee 06 7f 3f 64 de 7b 3f a3 26 81 3f 1a 56 83 3f
       0.9961995 0.98386216 1.0089916 1.0260651
0001a0 ed 76 7e 3f 63 42 86 3f 0e 1d 7e 3f 74 eb 7f 3f
       0.99400216 1.048901 0.99263084 0.9996865
0001b0 00 48 80 3f 8c 6f 81 3f 29 af 82 3f 1a 96 83 3f
       1.0021973 1.0112166 1.0209705 1.0280182
0001c0 e2 dc 83 3f 0f 50 82 3f 71 b7 84 3f ef d1 80 3f
       1.0301783 1.0180682 1.0368482 1.0064067
0001d0 12 05 7e 3f b3 0b 80 3f 53 6f 80 3f ae dd 7f 3f
       0.99226487 1.000357 1.0033973 0.9994763
0001e0 9c 40 80 3f d8 49 7c 3f 51 35 7c 3f c2 84 7a 3f
       1.0019717 0.98550177 0.98518854 0.9785882
0001f0 3d b5 80 3f 45 77 7b 3f af 4c 80 3f 7e 9b 7f 3f
       1.005531 0.98228866 1.0023402 0.9984664

layers.1.bias f4 [128]
000000 24 a1 98 bc b3 bd 39 bb 13 01 91 b9 cf 36 13 bc
       -0.018631525 -0.002834183 -0.00027657356 -0.008985235
000010 73 92 cd 38 70 49 48 3c 1a 3b c0 3c bc cc bb 3c
       9.80244e-05 0.01222454 0.023465682 0.022924773
000020 7c 88 45 b9 97 0c 82 bc 67 ad 3f bc 4e 8f 9d bc
       -0.00018838228 -0.015875144 -0.011699057 -0.019233372
000030 ee 99 cd bb 16 88 99 bb 41 f6 c1 ba 2b a0 ab 3c
       -0.0062744534 -0.004685412 -0.0014798121 0.020950397
000040 14 56 55 bc 8a ee 80 bc 10 96 a0 3c 34 75 67 bc
       -0.013021011 -0.015738744 0.019602805 -0.0141270645
000050 6e 12 95 bc 8d 72 a7 ba 86 2b 9f bb b0 57 4b bc
       -0.018197265 -0.0012775228 -0.0048574833 -0.012411043
000060 95 66 6c 3c be 67 87 bb 83 76 60 bc 5f 63 6a 3a
       0.014428754 -0.00413224 -0.01370013 0.0008941199
000070 81 a6 6e bc 2b 15 66 bc f3 28 85 bb 33 82 50 bc
       -0.014566065 -0.014043133 -0.0040637194 -0.012726354
000080 5d c6 2f bc 80 3a 2a bc 62 8a 8e bb bc a8 52 3d
       -0.010728446 -0.010389924 -0.0043499926 0.05143045
000090 46 49 73 bc aa 26 1a 3c b2 64 a3 3b 7e ca 92 3c
       -0.014849013 0.009408632 0.004986369 0.017918821
0000a0 bd ee a2 ba 38 ee 68 bc 6c 69 23 3d 30 82 ae 3c
       -0.0012430769 -0.014216952 0.03989546 0.021302313
0000b0 c2 3a 09 3d 21 ba bc bb 0f 20 32 3b e4 2d ba 39
       0.0335033 -0.005759493 0.0027179753 0.00035510876
0000c0 39 d7 74 3c 14 38 3f 3c 53 47 da 3c 75 b7 1a 3d
       0.014943891 0.011671085 0.026645338 0.037772615
0000d0 4e 4f 13 bc 37 d5 84 bb f6 25 af bb ef 0c cb 3b
       -0.008991076 -0.0040537375 -0.0053451015 0.00619661
0000e0 c3 ce cb 3b 51 f1 c6 3c 35 aa 63 bc 90 33 96 3c
       0.0062197163 0.02428499 -0.013895561 0.018335134
0000f0 56 4a 1a 3d 09 76 ac bc ad ad c5 bb 51 28 9e 3c
       0.03766855 -0.021052377 -0.0060326667 0.019306334
000100 e3 ff a9 bb 3d 2b 71 3c 75 73 c5 bc 92 27 78 bc
       -0.005187975 0.0147197815 -0.024102906 -0.015146153
000110 f1 f6 8d bb 71 5d d5 3c 8b c4 24 bc f9 2c cd ba
       -0.004332416 0.026045533 -0.010056625 -0.0015653662
000120 6d db ca 3b e9 a9 87 3b 67 50 15 bc 90 bc b5 ba
       0.0061907084 0.004140128 -0.009113408 -0.00138654
000130 b9 ed d2 3b b9 a4 5c 3c 51 9d 1d bc 94 8d d3 b8
       0.00643703 0.013467007 -0.009620027 -0.00010087635
000140 a4 4b 0e 3c 1f 19 56 bc 63 30 49 bc 79 cc b5 bb
       0.008685026 -0.013067513 -0.012279603 -0.0055480567
000150 64 4b ec bb be b5 8f ba 71 8c 97 bc 66 7b 33 bc
       -0.0072111357 -0.0010964198 -0.018499585 -0.010954713
000160 06 f8 1e 3c 05 6f 00 3c df e7 51 bc 26 eb 06 bb
       0.009702688 0.007838969 -0.01281163 -0.0020586937
000170 0e 36 07 3c 23 fc c8 bb b0 e7 89 bc 84 6c b2 3c
       0.008252634 -0.0061335727 -0.01683411 0.02178026
000180 74 6d 97 3a c0 22 82 3c ba dc 57 bc 0e a9 30 3d
       0.0011553005 0.01588571 -0.013175184 0.043129973
000190 61 a4 8d 3c f2 3e f3 38 3d 0e 31 3c de a6 21 3d
       0.017290296 0.000115988674 0.010806617 0.039465778
0001a0 b7 4a cd bb c3 06 07 3d 50 23 27 bc 6d 2a 80 bc
       -0.00626501 0.032965433 -0.01020129 -0.01564523
0001b0 6c f2 1e 3c 6f 59 43 3c 78 91 08 3d 18 be 55 3c
       0.009701353 0.011923178 0.033341855 0.01304581
0001c0 3d e7 8e 3c 04 71 b3 3b ce 72 d8 3c 3a d8 a6 3c
       0.017444247 0.005476119 0.02642193 0.020366777
0001d0 d0 56 fa bb f2 0a 8a 3b 70 e7 a8 3c ed 0c 35 3c
       -0.0076397434 0.0042127306 0.02061817 0.011050445
0001e0 52 b1 1e bb ea a5 3d bc 39 2f c7 bb 69 bd 75 bc
       -0.0024214578 -0.0115752015 -0.0060786274 -0.014998772
0001f0 f7 43 67 3b 1c d9 5f bc fb b5 0e 3d 3e 44 7a bc
       0.0035288313 -0.013662603 0.03484152 -0.015275059

layers.1.running_mean f4 [128]
000000 99 3c 85 be ac fd 7f be b7 1f 21 3d ff b8 41 3e
       -0.26022795 -0.24999112 0.039336886 0.18918227
000010 cc 95 57 be 55 1f b3 bd f3 eb 08 be 06 a6 a0 be
       -0.21053237 -0.087462105 -0.13371257 -0.31376666
000020 06 41 27 3e 0c ba 71 be 72 c1 7a be 06 f6 ae bd
       0.16333398 -0.23606128 -0.24487856 -0.08543019
000030 7b 13 52 3d 63 39 18 bd 87 9d 54 be 85 07 07 3e
       0.05128811 -0.037164103 -0.20763217 0.13186462
000040 8f 67 45 3d 57 c7 86 3c 91 46 bc be 12 34 52 3e
       0.048194464 0.016452475 -0.36772588 0.20527676
000050 07 1f 5f 3e 99 96 71 bd 8c 3c bb 3d 34 fa 94 bd
       0.2178918 -0.05898151 0.09142408 -0.07274285
000060 8c 1f 6c 3e c8 11 8e be 52 55 7b 3d 80 4f 27 3e
       0.23058909 -0.2774794 0.061360665 0.1633892
000070 1b 52 30 bd 2b d8 8c be c6 88 98 3e 5d 06 db ba
       -0.043047052 -0.27508673 0.2979185 -0.001671027
000080 03 a5 09 be 36 82 bd 3c 78 65 49 3e 87 52 ae bd
       -0.13441853 0.023133378 0.19667614 -0.085118346
000090 b7 11 9b be 05 d2 8b 3e e0 7e 00 be 3a 34 82 3e
       -0.30286953 0.2730867 -0.12548399 0.2543047
0000a0 98 77 15 be b0 a9 8f be 1c 61 e7 bd 2e 16 26 bd
       -0.14596403 -0.2805915 -0.11297819 -0.040548496
0000b0 9c e2 b9 bc a6 ff 63 3e 2f a2 56 be 3d 5b 8d 3e
       -0.022691064 0.22265491 -0.20960306 0.27608672
0000c0 ad b9 c3 3e b8 85 bd 3e 66 a3 c1 3e cd f4 b0 be
       0.38227597 0.37016082 0.37819976 -0.34561768
0000d0 87 84 19 be 15 74 98 3d 11 42 2f 3e 57 b8 50 3e
       -0.14991961 0.07444016 0.17115046 0.2038282
0000e0 85 c3 72 be a8 0e 4f be f6 55 2c 3e 04 3f d7 3e
       -0.23707397 -0.20220435 0.16829666 0.42040265
0000f0 cc 19 86 3e fd f0 5f 3e c1 45 54 be 96 f6 69 3e
       0.26191556 0.21869273 -0.20729734 0.22847971
000100 dc 63 c0 3d e3 bb ba 3e 7e 1b 51 3e 95 6d 49 be
       0.09394047 0.3647147 0.20420644 -0.19670708
000110 be 7c ae 3e a3 2a 03 be 5f 5f 99 3d 2e 27 2e be
       0.34079546 -0.12809233 0.07488894 -0.17007133
000120 00 c0 1f be 3a 3d e1 be a4 fd 0d be 19 d0 da 3d
       -0.15600586 -0.43992025 -0.13866287 0.10684223
000130 df 51 a2 be 0d 59 5d be 30 af 65 be 98 b0 af bc
       -0.31703088 -0.21616001 -0.2243011 -0.021446511
000140 8c 4a d2 bc 00 45 ad 3e 20 fe e4 bd de 2b 97 3e
       -0.025670312 0.33841705 -0.11181283 0.29525656
000150 bb a5 3e be fb 8b 20 3e af d4 45 3e 90 f0 a8 be
       -0.18617909 0.15678398 0.19319414 -0.32996035
000160 52 0a 2a 3e 4b 39 9c be 98 a9 6e 3e 6a e0 da 3c
       0.166055 -0.3051246 0.23306882 0.026718337
000170 ae a6 81 3e 72 44 97 3d ed 19 5a 3e e6 cb a5 3e
       0.2532248 0.07386102 0.21298952 0.32382125
000180 6d b0 7f 3e ca 24 14 3e c4 e3 7a be b9 6f 16 be
       0.24969645 0.14467159 -0.24500948 -0.14691056
000190 59 ce 89 bd 24 3a 73 be 04 f0 6d 3d 67 c0 f3 bd
       -0.06728811 -0.23752648 0.058090225 -0.11901932
0001a0 22 9d c8 bd f0 6c 3f be 0f 5f 59 be a2 4e 60 bd
       -0.09795596 -0.186939 -0.21227668 -0.05476249
0001b0 d0 3e 4d bd 69 2b 85 3d 89 e6 54 be cb 9d 8a bd
       -0.05010873 0.065024205 -0.20791067 -0.06768378
0001c0 1e f4 8b bd 5e ba e2 be 7a 1b 53 bd 48 3e d6 3e
       -0.06833671 -0.44282812 -0.051539876 0.41844392
0001d0 94 78 c0 3d 39 26 82 ba 9f e4 ea bd 90 10 b5 bd
       0.093979985 -0.0009929604 -0.11469387 -0.0884105
0001e0 a7 10 e6 bd 02 a4 58 bd b4 02 48 3e aa 63 15 3e
       -0.11233645 -0.052890785 0.19532281 0.145888
0001f0 27 1a a8 bd 6e 29 a3 3e d2 9d 41 3e 73 85 6b bd
       -0.08208113 0.31867546 0.1890786 -0.057500314

layers.1.running_var f4 [128]
000000 00 25 d3 3e 9a ea 64 3e a5 9c 84 3e 79 39 d1 3e
       0.41239166 0.22355118 0.2590076 0.4086416
000010 01 51 2c 3e 0c 52 ce 3d a1 e2 97 3e 43 c0 88 3e
       0.16827776 0.10074243 0.29665092 0.26709184
000020 51 15 97 3e f7 e1 5c 3e f3 23 de 3e fb bf 33 3e
       0.2950845 0.21570574 0.43386802 0.17553703
000030 99 53 a9 3e 5b ca 8c 3e d8 a0 fd 3e 3e 8e c1 3e
       0.33071592 0.27498135 0.49536777 0.37803835
000040 96 bd 3a 3e 00 16 89 3e 03 af 74 3e f7 74 c9 3e
       0.18236384 0.26774597 0.23894887 0.3934705
000050 8a b9 ae 3e 24 ee 38 3e 05 01 9e 3e d9 c7 fc 3d
       0.3412593 0.18059593 0.30860153 0.123428054
000060 d5 ba 43 3e 60 76 8e 3e 9c 4f 70 3e f8 22 d9 3e
       0.1911424 0.27824688 0.23467869 0.42409492
000070 ec 1c 2b 3e 33 69 8d 3e e5 3e 89 3e d4 51 08 3f
       0.16710252 0.27619323 0.26805797 0.5324986
000080 19 89 08 3f 83 a8 5c 3e 0f 30 fb 3d d7 81 22 3e
       0.53334194 0.21548657 0.12265026 0.15869842
000090 53 a9 82 3e 66 94 d7 3e 93 c0 a5 3e b8 72 a6 3e
       0.2551981 0.42105407 0.32373485 0.32509398
0000a0 96 dd d0 3e 85 ef 82 3e a5 c8 e0 3e b4 88 75 3e
       0.40794057 0.25573364 0.4390308 0.2397793
0000b0 5f 48 83 3e f6 95 47 3e 63 2f 66 3e c6 dc 6b 3e
       0.25641152 0.194908 0.22479014 0.23033437
0000c0 da 81 f4 3e 16 bd a4 3e 04 04 13 3f 1d 86 27 3e
       0.4775532 0.3217551 0.57428 0.16359754
0000d0 58 98 42 3e 03 85 dc 3e 26 ac 3d 3e 7e 37 d4 3e
       0.19003427 0.4307023 0.185227 0.41448587
0000e0 34 19 ed 3d 46 65 90 3e 07 5f 97 3e d8 e4 9f 3e
       0.11577073 0.28202266 0.29564688 0.3122928
0000f0 0c bb 88 3e 73 a2 a5 3d 6f 54 a3 3e e3 ab 8d 3e
       0.26705205 0.08087625 0.31900355 0.27670202
000100 88 12 9b 3e e9 27 5f 3e 64 d5 77 3e 30 97 37 3e
       0.30287576 0.21792568 0.24202496 0.17928767
000110 67 6b 8d 3e 81 40 51 3e 5e 20 a3 3e 32 cc 93 3e
       0.27621004 0.20434763 0.31860632 0.28866726
000120 c5 c6 4f 3e 6a 9c 6a 3e 74 45 89 3e 97 b8 09 3f
       0.20290668 0.2291123 0.268108 0.53797287
000130 7d 74 be 3d ce 32 00 3f 47 df 26 3e 56 5f 8d 3e
       0.09299562 0.5007752 0.16296111 0.27611798
000140 65 43 78 3e 8f 77 f0 3e b3 19 f0 3e 83 18 57 3e
       0.24244459 0.46966216 0.46894607 0.21005444
000150 cf ac 8a 3e c9 4b 06 3e 0f 0e 6d 3e 3d b4 3a 3e
       0.27084967 0.13114847 0.23149894 0.18232818
000160 26 bc 06 3f 2a d8 d6 3e cc 2b 3b 3e 71 fc 06 3e
       0.5263084 0.41961795 0.18278426 0.13182236
000170 d9 3a 75 3e 4a d5 63 3e 08 d7 c5 3e 31 4b 15 3e
       0.2394823 0.22249332 0.38640618 0.14579464
000180 7a 45 89 3e 35 ce 05 3f 5e 4e f5 3e 96 a9 1d 3e
       0.2681082 0.5226777 0.47911352 0.15396723
000190 33 67 5f 3e 7f ec 72 3e d5 5b 46 3e db ba 89 3e
       0.21816711 0.23723029 0.19370969 0.26900372
0001a0 e7 81 a1 3e fe 6d 57 3e 72 09 a9 3e 5c 3c 61 3e
       0.3154442 0.21038052 0.3301502 0.21995682
0001b0 fc 22 30 3e 05 06 1f 3e 05 46 2f 3e 31 fd 71 3e
       0.17200845 0.1552964 0.17116554 0.23631741
0001c0 86 2f 78 3e 64 92 9a 3e 16 b9 71 3e 47 71 7d 3e
       0.24236879 0.30189812 0.23605761 0.24750243
0001d0 f2 46 de 3d 36 c2 8d 3e 0e 62 9b 3e 35 c6 be 3e
       0.108533755 0.27687234 0.30348247 0.37260595
0001e0 3a a7 87 3e b7 bd 03 3f 73 f6 4f 3e 49 bb 53 3e
       0.2649477 0.51461357 0.20308857 0.20676912
0001f0 75 9d ab 3e 8c a2 6f 3e 26 24 36 3e dd 03 6a 3e
       0.33518568 0.2340185 0.17787227 0.22853036

layers.4.weight f4 [128, 128]
000000 08 06 20 bd 87 3c 94 bd 43 8d 9b bd 3e ef ff bc
       -0.03906825 -0.07238107 -0.07595303 -0.03124201
000010 4d 8e 07 3d e3 c6 1f 3d d5 47 03 bd fb 1b 78 bd
       0.033094693 0.039008033 -0.032050926 -0.06057356
000020 69 9a a2 bd db 94 84 3c f6 66 bf 3b e3 b1 3b 3d
       -0.07939608 0.016184261 0.0058411313 0.045823943
000030 06 04 1c bc 7f 3f 3e 3c 4f f1 3c bc d5 86 71 bd
       -0.009522444 0.011611818 -0.011532142 -0.058966476
000040 8e 99 a0 3d 3f 97 be 3c 69 42 53 3c 91 af 59 3d
       0.07841788 0.02326548 0.012894251 0.05314595
000050 31 4a a8 3d cd 46 6f 3d 1d a2 83 bd 05 b0 8a 3d
       0.08217276 0.05841713 -0.06427405 0.06771854
000060 6e ff 7a 3b a1 aa 31 3d a9 3e b4 3d 1d 0b 85 bd
       0.003829922 0.043375615 0.08801014 -0.0649626
000070 e9 1a 99 3d 62 0e 9c 3d fc 95 24 3d 31 bd 48 bd
       0.07475836 0.07619931 0.0401821 -0.049008552
000080 9c bf ad bd 26 cf 05 bd 33 0c a6 3c f4 16 8a 3c
       -0.08483812 -0.032668255 0.020269489 0.016856648
000090 64 99 43 3b c5 52 c3 bc 93 5a 3e 3c 21 c8 95 bd
       0.0029846067 -0.023843179 0.011618274 -0.07313562
0000a0 2b 6c 13 3d 0a 5d 47 bd 41 13 16 bd 63 f3 b4 bd
       0.03599183 -0.048672713 -0.036639456 -0.08835485
0000b0 d0 08 9c bc da cd 84 3c 89 57 0e 3b bd 5e 42 bd
       -0.01904717 0.016211439 0.0021719655 -0.04745363
0000c0 60 0f 86 3d 68 d2 bc 3d 28 45 86 bd 06 78 5c 3c
       0.06545901 0.09219819 -0.06556159 0.01345635
0000d0 ea 06 bd bb b7 fc 26 bd f4 0a 80 bd 5a 64 94 3d
       -0.0057686465 -0.04076835 -0.06252089 0.07245703
0000e0 2e 67 9f 3c d2 0c 74 3d 1e b7 e2 3c 9c 58 11 bd
       0.01945838 0.05958254 0.027675208 -0.035484895
0000f0 18 c7 5f bd 2c 57 56 3d aa 63 b9 bc 7e 86 3c bd
       -0.05463323 0.052329227 -0.022630531 -0.0460267
000100 af d4 58 3c 70 a9 52 bd 73 a5 a7 bd f3 b4 09 3d
       0.0132343015 -0.05143112 -0.08185854 0.033619832
000110 59 b4 73 bd 4b 73 0f bd fe d8 2d bc c7 5c 89 3c
       -0.059498165 -0.03502206 -0.010610817 0.016767872
000120 51 0d b8 bd e9 db ad 3c d9 3b 97 bd 13 6d 00 3c
       -0.08986915 0.021223025 -0.07384462 0.007838505
000130 8e e6 12 bd de ac ae 3c 76 89 a1 bc fe ca 33 bc
       -0.035864405 0.021322664 -0.019718867 -0.01097369
000140 e3 da 96 3d 71 68 9b bd 4e 61 8d bd a7 aa 63 bd
       0.07365968 -0.0758828 -0.06903325 -0.05558267
000150 7d bf 67 3c 99 37 62 bc 69 0d a3 3b d6 39 5b 3c
       0.014144775 -0.013807201 0.004975964 0.013380488
000160 75 10 2d bd 4e 04 ca bc 41 b0 33 bd 5f 38 89 3c
       -0.042252023 -0.024660256 -0.04386926 0.016750513
000170 90 71 65 3d d6 90 46 3d cf 93 e6 3b 2d 46 38 bc
       0.056016505 0.04847797 0.007036663 -0.0112472
000180 b3 3a 22 3d c5 22 93 3d f2 de 3a bd 3f 0f 66 bc
       0.03960676 0.07184366 -0.045622773 -0.014041721
000190 19 fb 85 3d 1b c5 ad bd ee 12 97 bd 41 f2 5f 3d
       0.06542034 -0.084848605 -0.073766574 0.05467439
0001a0 ab 13 db bb cb b7 20 bc 68 64 b1 3c d1 dc 3e 3d
       -0.006685694 -0.009809445 0.021654323 0.046597306
0001b0 eb db 79 bd 96 01 58 bd be fb 7d bd 2c 88 ec 3c
       -0.061000746 -0.052735887 -0.06200766 0.028873526
0001c0 6d ee 2a bd 4b 1a 8c bb bf 05 63 bd b7 8f a2 3d
       -0.041731287 -0.0042755953 -0.0554254 0.07937568
0001d0 f4 42 81 bc f4 b5 41 3d fd df 89 bd 74 5e fd 3c
       -0.015778996 0.047292665 -0.067321755 0.030928828
0001e0 f7 40 2f 3d 77 de 36 3d 7e 51 ad bc ec 50 ec bc
       0.042786565 0.044645753 -0.021157023 -0.02884718
0001f0 d0 af 46 3c d6 db 85 bd 89 57 70 bc d7 3f a7 bd
       0.012126878 -0.06536071 -0.0146693075 -0.08166473
000200 41 10 78 bd 62 55 fe b8 c0 ad a7 bd c9 c7 f1 3c
       -0.060562376 -0.000121275676 -0.08187437 0.02951421
000210 d1 c2 00 3d 35 3e 3b bd bd 0e 1c bd b7 32 02 3d
       0.03143579 -0.045713622 -0.038099993 0.031786647
000220 bf 8f ad 3c 6d a3 28 3d 69 2f 97 bd 25 54 11 3d
       0.021186708 0.04117148 -0.0738209 0.035480637
000230 98 6a 3e 3c 78 b0 4b 3d ca da 13 3d e2 b1 ae 3d
       0.011622094 0.04972884 0.036097325 0.08530022
000240 84 c7 85 3d 9d 54 60 3d cc 42 10 3d b7 df 93 3a
       0.06532195 0.054768194 0.035219952 0.0011281882
000250 5f 66 b0 bc 70 fd d5 bc ec 92 12 bc 3b 58 c4 bc
       -0.02153319 -0.026121825 -0.008946162 -0.023967853
000260 63 a1 70 3d be f3 ff 3c 8e a5 95 3c b2 22 91 bd
       0.05874766 0.031244155 0.01826742 -0.07086696
000270 6b 15 92 bd 76 ec 5d 3d d0 ce 88 3d ae 74 6f bd
       -0.071329914 0.054180585 0.06680071 -0.058460884
000280 1e 6f 8c bd 0b 2e 82 3c b1 3b d7 bc 6a dd 90 3d
       -0.068571314 0.015891096 -0.02627358 0.070734814
000290 74 45 47 bb 54 33 89 3d f4 1c a5 bd b6 ec c0 3c
       -0.0030406388 0.06699243 -0.08062163 0.023550373
0002a0 30 0f 7d 3b 1a 7d 5d 3d 9c 25 80 bd 31 d1 47 3d
       0.0038613789 0.054074384 -0.062571734 0.048783485
0002b0 33 6d d4 bb 36 61 5e bd 4a 70 64 bd 80 65 90 bd
       -0.006482744 -0.054291926 -0.05577115 -0.070506096
0002c0 42 c8 03 bd 9b 27 04 3d 57 07 17 3d a7 77 56 3d
       -0.032173403 0.032264333 0.036872234 0.052360203
0002d0 61 a6 c7 3c 51 a2 13 bd fe 3f 6e 3d bd cf a9 3d
       0.024371328 -0.03604347 0.058166496 0.08291576
0002e0 c8 c8 8f 3d 2d de b3 bd 44 81 6a bc 39 e4 e2 3c
       0.07020718 -0.08782611 -0.014313046 0.027696716
0002f0 16 55 ac bd 66 dd 4d bd ce 35 9c bd e7 55 34 bd
       -0.08414666 -0.05025997 -0.0762745 -0.044027235
000300 bd 20 93 3d 70 45 8a bc cc fd 4e 3d 67 be c3 3c
       0.07183979 -0.016878814 0.05053501 0.023894502
000310 1b b7 a5 3d b3 39 95 bb 53 3e 84 3d 16 95 8d 3d
       0.08091565 -0.0045539974 0.064572 0.069132015
000320 26 9c 65 3c 5f 93 a1 bd 34 ff 63 bd 93 ca 9a 3d
       0.0140142795 -0.07889437 -0.055663303 0.07558169
000330 ab f4 86 3d 50 34 b2 3d 5c cd 23 bd d6 e0 8a bd
       0.065896355 0.08701384 -0.039990768 -0.06781165
000340 72 d3 27 bd 96 6d 6d bd 92 8b ee 3c 46 8b 15 bd
       -0.040973134 -0.057965837 0.029119287 -0.036509775
000350 72 2d 8e bd fb 6f 5f bd 5a 24 9d 3d 08 59 a1 3d
       -0.06942262 -0.054550152 0.07672949 0.078783095
000360 f1 36 84 3d 0f c6 85 3d fc 16 b2 bd 1f 7b c2 bd
       0.06455792 0.06531917 -0.0869579 -0.0949614
000370 45 7c 7f 3d 0a d0 7f 3d e1 e7 9e bd 51 df 42 3d
       0.062374372 0.06245426 -0.07759071 0.047576252
000380 5f f9 94 3d 98 80 ad bd a0 81 95 3b c5 b8 c5 bd
       0.07274126 -0.08471793 0.0045625716 -0.096543826
000390 3f 95 3b 3d c2 f6 60 bd a3 80 64 bb e0 ec 76 bd
       0.04579663 -0.054922827 -0.0034866713 -0.060284495
0003a0 5c 57 6f 3d 73 0f 9b bd b4 56 46 bc 96 ce 3d 3d
       0.05843292 -0.07571306 -0.012105633 0.046339594
0003b0 d0 37 3c 3d 93 19 eb 3c 9f 54 bd bc b9 22 7b 3d
       0.045951664 0.028698718 -0.02311164 0.06131241
0003c0 c2 55 81 bd 1e 56 9c bd 7b e9 07 bc 7b 6f 21 3c
       -0.06315185 -0.07633613 -0.008295412 0.009853239
0003d0 fa 95 15 bd 28 1f 27 3d dc 03 b6 bc 6e 30 9b bc
       -0.036519982 0.040801197 -0.022218637 -0.018943992
0003e0 dd c2 99 bd 89 52 b4 3d e3 3d 9b 3d 74 2c 7d bd
       -0.0750787 0.08804805 0.07580163 -0.061809972
0003f0 c8 a0 18 3b f6 5d 11 3d 4f 30 ad bc 61 ec 3a bb
       0.0023289192 0.03549 -0.0211412 -0.002852224

layers.4.bias f4 [128]
000000 74 fe 8f bd 66 00 7d bd 16 2c 8d 3d 55 62 29 3d
       -0.07030955 -0.061767958 0.06893174 0.041353542
000010 c7 06 6f 3d 43 3e ec bc 04 65 05 bd b2 9c 2d 3d
       0.058356073 -0.028838282 -0.03256704 0.042385764
000020 50 af 76 3d 7d 5b 8f bb 75 22 01 3d f1 66 b2 bd
       0.060225785 -0.00437492 0.031527 -0.08711041
000030 07 03 87 bd 77 7f 82 bd c7 22 54 bd 88 40 3a bd
       -0.06592374 -0.06371968 -0.05179098 -0.045471698
000040 1d 0f 58 bc 0e 49 56 3c 82 72 ef 3b 39 69 a2 bb
       -0.013187197 0.013078941 0.0073073516 -0.004956391
000050 91 10 a4 bc 63 38 b4 bc 1a c4 57 bc b7 01 2e 3d
       -0.02002743 -0.021999544 -0.013169313 0.042482104
000060 87 51 8e bd 3f 4a 11 bd 04 95 4d 3c b7 4d 65 3d
       -0.06949144 -0.035471197 0.012547735 0.055982318
000070 ee 7a 90 3d 34 9b 6e 3c f6 bf 18 bd 79 53 82 bc
       0.07054697 0.0145633705 -0.037292443 -0.015908943
000080 a9 b0 aa bd e2 30 55 3c a2 d1 f6 3a 6c ba de 3c
       -0.083344765 0.013012143 0.0018830786 0.027188502
000090 68 a8 b4 bd a9 e9 ae bd 6c cc d5 bc 20 4f fe bc
       -0.088211834 -0.08540661 -0.026098453 -0.03104359
0000a0 82 0a 70 3c 0c c9 cb 3c a3 e6 9f bd d7 ad 84 bd
       0.014650943 0.02487614 -0.07807662 -0.0647847
0000b0 9c 91 e6 bc 4d 08 84 3d 5d 98 3f bd 8b 27 8d 3a
       -0.028145604 0.06446896 -0.046776164 0.0010769231
0000c0 ee d4 b3 bc 70 4a 92 3d 62 3c a5 bd f5 89 de 3c
       -0.021952119 0.07143104 -0.08068158 0.027165392
0000d0 61 a1 81 bc fe f6 b0 3c 18 7b 27 bd 84 0c a5 bd
       -0.015824022 0.02160215 -0.040888876 -0.08059028
0000e0 ff d6 f9 bb 53 dc 38 3d db a1 05 3b 12 91 a3 bc
       -0.0076245065 0.045131993 0.0020390663 -0.019966636
0000f0 26 c3 97 3d ce 70 3d 3d 7d 3b 20 bd a1 7d c0 3c
       0.074102685 0.046250157 -0.039119232 0.023497405
000100 33 a3 9c bd dd fe 78 3a 9c 7b 08 3c 6c 8b 5c bd
       -0.07648315 0.0009498427 0.008330252 -0.0538439
000110 e1 98 77 bd 3e 82 b0 bd 50 bb 31 bd 03 b5 6d bc
       -0.06044853 -0.08618592 -0.043391526 -0.014508489
000120 33 a3 6f 3d 66 17 b2 bd f5 b7 ad 3c 14 27 66 bd
       0.05850525 -0.08695869 0.021205882 -0.05618961
000130 82 cd a8 bd 4f 77 5a bd 29 18 3e 3d cc eb 58 3d
       -0.082423225 -0.053336438 0.04640976 0.05295925
000140 d9 ea 8d bd cd 0b 72 bd 99 53 f9 bc e9 bd 51 bc
       -0.06929559 -0.059093285 -0.03043537 -0.012801626
000150 03 fc a6 bd f6 c2 43 3d b9 df 8a 3c a0 02 0f bd
       -0.08153536 0.04779335 0.016952382 -0.034914613
000160 8c 25 ae bc ee 31 26 3c c9 9e ac bd 53 1e 59 bd
       -0.021258138 0.01014374 -0.08428723 -0.053007435
000170 ae 44 67 3d 1c 9e 9f bc 21 af b2 3b 35 c6 b1 3d
       0.056461982 -0.019484572 0.005453006 0.08680383
000180 4b 9f 11 bd 8a 10 86 3d 21 a8 8c 3d 5a e8 22 bd
       -0.035552304 0.06546123 0.068680055 -0.03977237
000190 3e 4a 01 3d ab 89 6b bc b9 e9 8c bd 35 a0 2f bc
       0.031564943 -0.014376084 -0.068805166 -0.010719349
0001a0 ea 2f ad 3c 19 59 ef 3c ab 0b 5a 3c ff 0c 84 bd
       0.021141011 0.02921729 0.013308446 -0.06447791
0001b0 dd 38 01 bd 79 12 f3 bc 96 48 4e bd 49 95 b0 bd
       -0.03154837 -0.029671894 -0.050362192 -0.08622224
0001c0 f0 57 61 bb 16 18 1c 3d 85 fc 5e bd 55 86 4e bc
       -0.003438469 0.038108908 -0.05444004 -0.012605269
0001d0 73 8e 32 bd 6d 48 83 bc 72 cd 82 3d 61 64 07 bd
       -0.04359288 -0.016025746 0.06386842 -0.033054713
0001e0 50 e1 68 bd 82 76 7d 3c fa 2a 9b bd 2f b3 84 3c
       -0.0568555 0.015470149 -0.075765565 0.016198723
0001f0 32 1d 9e bd 32 5e ea 3c 3b f9 76 b9 47 a1 91 bc
       -0.07720412 0.028609369 -0.00023553234 -0.017777098

layers.5.weight f4 [128]
000000 10 47 7d 3f 1f 31 7c 3f 52 a7 7b 3f 81 f0 7f 3f
       0.9893656 0.9851245 0.98302186 0.99976355
000010 95 f9 7c 3f d0 65 7c 3f 90 31 83 3f 78 d0 82 3f
       0.9881833 0.98592854 1.02495 1.021987
000020 7c 28 7b 3f ba 95 7a 3f 8a fc 7b 3f 4f be 7a 3f
       0.9810865 0.97884715 0.9843222 0.9794664
000030 d9 7f 7c 3f 66 63 82 3f e4 be 7b 3f cc 33 82 3f
       0.9863258 1.0186584 0.9833815 1.0172057
000040 1e f4 80 3f 08 19 7b 3f 1b 4b 7d 3f 2c a6 80 3f
       1.0074499 0.9808507 0.98942727 1.0050712
000050 d7 47 81 3f f7 d0 7d 3f 99 12 85 3f 2f 2b 7b 3f
       1.0100049 0.9914698 1.03963 0.9811277
000060 38 2a 80 3f 05 48 7e 3f e1 d5 7b 3f 7b 5e 7d 3f
       1.0012884 0.99328643 0.9837323 0.9897229
000070 7d 81 7a 3f 2f e9 7d 3f 64 d4 7f 3f 60 00 82 3f
       0.97853833 0.99183935 0.9993346 1.0156364
000080 ba d4 7e 3f 97 3b 7b 3f fb 45 7a 3f 48 dc 7b 3f
       0.99543345 0.981378 0.9776303 0.98383
000090 02 e7 81 3f 3d 5d 84 3f 8e 0a 84 3f bf b2 7b 3f
       1.0148623 1.0340954 1.0315721 0.9831962
0000a0 b4 8a 7d 3f 9f f7 82 3f e1 06 7d 3f 92 96 7a 3f
       0.9903977 1.0231818 0.9883862 0.97886
0000b0 ab 42 7d 3f 9c 83 7e 3f 90 9e 7f 3f 5b 36 7d 3f
       0.9892985 0.9941957 0.9985132 0.98911065
0000c0 dd 71 83 3f 26 de 81 3f 18 fe 7b 3f 4d 78 7b 3f
       1.0269123 1.0145919 0.9843459 0.9823044
0000d0 60 b1 79 3f 42 ee 80 3f 66 12 81 3f e4 20 80 3f
       0.9753628 1.007271 1.008374 1.0010037
0000e0 9f 2b 79 3f 70 f4 7b 3f 91 45 84 3f 19 ed 78 3f
       0.97332186 0.9841986 1.033373 0.9723678
0000f0 ed ce 7d 3f 44 57 7d 3f c6 5b 78 3f 22 83 7c 3f
       0.9914387 0.9896128 0.97015035 0.9863759
000100 b4 2f 83 3f dc 99 7d 3f d4 e8 7f 3f 0b 9e 80 3f
       1.0248933 0.99062896 0.9996464 1.0048231
000110 9d 71 83 3f bd 77 7b 3f 9d 66 7b 3f ac c8 81 3f
       1.0269047 0.9822958 0.9820345 1.0139365
000120 4f 1c 78 3f 7d a5 79 3f 89 31 82 3f 9c 55 7b 3f
       0.96918195 0.9751814 1.0171367 0.98177505
000130 b0 1a 7c 3f d4 5b 7c 3f d8 f7 7f 3f e2 70 7a 3f
       0.9847822 0.9857762 0.99987555 0.97828496
000140 21 01 83 3f 53 ca 81 3f 68 64 85 3f e5 19 7b 3f
       1.023472 1.013987 1.0421267 0.98086387
000150 f4 2b 7a 3f 68 82 7e 3f 72 a9 7f 3f f5 a5 7c 3f
       0.9772332 0.99417734 0.9986793 0.9869073
000160 e5 62 7b 3f d8 a6 7c 3f 63 a9 7c 3f 00 86 80 3f
       0.98197776 0.98692083 0.98695964 1.0040894
000170 d6 f3 7e 3f d1 f7 7c 3f 1a 85 83 3f 17 66 84 3f
       0.99590814 0.9881564 1.0274994 1.0343655
000180 a0 53 80 3f 87 4f 80 3f 4a f1 7b 3f f2 b2 82 3f
       1.002552 1.002427 0.9841505 1.021086
000190 1e 90 7b 3f ad b9 79 3f 5c 6a 82 3f 8a a5 7c 3f
       0.9826678 0.97548944 1.0188708 0.9869009
0001a0 76 fd 7f 3f 60 b6 81 3f 60 30 79 3f ce cc 7f 3f
       0.99996126 1.0133781 0.9733944 0.9992188
0001b0 f7 05 7c 3f 53 1e 80 3f c8 5f 7a 3f 56 4e 81 3f
       0.984466 1.0009254 0.978024 1.0102031
0001c0 c2 41 7d 3f 43 85 82 3f 38 74 84 3f bb 15 7d 3f
       0.98928463 1.0196918 1.0347967 0.98861283
0001d0 db 72 84 3f ed df 83 3f e1 73 83 3f dc d4 83 3f
       1.0347551 1.0302712 1.0269738 1.0299335
0001e0 71 84 7b 3f 1a 94 80 3f ce 91 7c 3f bd 6c 7e 3f
       0.98248965 1.0045197 0.9865998 0.9938467
0001f0 46 aa 85 3f 2f 88 80 3f b7 5a 84 3f 56 5e 83 3f
       1.0442588 1.004156 1.0340184 1.0263164

layers.5.bias f4 [128]
000000 d3 be 7a bc e5 99 a5 bb de 05 4b bc ee ec 51 bb
       -0.015304285 -0.005053746 -0.012391536 -0.003203209
000010 93 49 1b bc 5c ea 27 bc 70 35 ca 3c 7e 91 e2 3c
       -0.009477991 -0.010248747 0.024683684 0.027657267
000020 03 50 1c bc 6d 7a 40 bc cb 7d 3a 3c a7 1d 6c bc
       -0.009540561 -0.011747939 0.01138253 -0.014411367
000030 ba 74 2e bb 80 f7 e3 3c 9c 76 7f bc 7b 3e 7c 3c
       -0.0026619867 0.027827978 -0.0155922435 0.015395756
000040 e8 1d 43 3c 98 33 aa bb f2 03 54 3c 76 6e af 3c
       0.011908986 -0.0051941387 0.012940394 0.021414977
000050 84 78 f9 3c 4e 81 c4 ba fe b1 26 3d d6 8a 64 bc
       0.030452974 -0.0014992149 0.04069709 -0.013949117
000060 43 13 7f 3c a0 d6 1b bc 45 bf ac 3b f7 78 0b bb
       0.015568557 -0.00951162 0.0052718245 -0.0021281817
000070 41 eb 8c bc c0 c6 78 3c ea 28 30 3c 47 b5 bb 3c
       -0.017202022 0.015184104 0.010751942 0.022913588
000080 69 d4 3f 39 5c dd 95 bc cf e0 72 bc e8 fb 23 bc
       0.00018294308 -0.018294029 -0.014824106 -0.01000879
000090 ac b9 09 3d df 1e 0c 3d 9e 95 bf 3c 94 c6 58 bc
       0.033624336 0.03420913 0.023386773 -0.013230938
0000a0 6d 74 89 3a 8e 5d 09 3d 94 11 0e 3b db 60 c8 bb
       0.0010486968 0.033536486 0.0021677958 -0.0061150617
0000b0 b3 f7 9b ba 30 5f 09 bc 89 32 37 bb 19 c3 3a bc
       -0.0011899382 -0.008384511 -0.0027953705 -0.011399054
0000c0 1a ca 38 3d 1d d7 60 3b a4 57 d1 bb c9 74 50 bc
       0.045114614 0.0034307905 -0.0063886214 -0.012723156
0000d0 e2 19 97 bc c5 cd 62 bb 1c 36 f7 3c 16 99 c5 3c
       -0.01844496 -0.0034607511 0.030177169 0.024120849
0000e0 b1 ac 99 bc ff 1f b9 bb c2 87 2b 3d 4e b3 a9 bc
       -0.018759103 -0.005649566 0.041877516 -0.020715382
0000f0 fc 2d d4 3a 4a 82 8a 3b da 37 e9 bc 09 a6 da 3b
       0.0016188021 0.0042269574 -0.028469015 0.006672625
000100 e4 40 cc 3c 3f c0 9c bc 98 11 79 3c c9 8e 88 3b
       0.024933286 -0.019134639 0.015201949 0.004167412
000110 e7 93 c4 3c 57 2d 88 3a fb f2 74 bc 88 46 b1 3c
       0.023996307 0.0010389489 -0.014950509 0.021640077
000120 e9 aa bd bc 93 fc cf bc 2c 03 06 3d 27 93 17 bc
       -0.023152785 -0.025388991 0.03271787 -0.009251392
000130 13 fe 71 bc db 13 59 bb 65 bb 57 3c dd 48 26 bc
       -0.014770049 -0.0033123407 0.013167237 -0.010149208
000140 b9 0c 0f 3d 88 6c cb 3c 45 1f 31 3d 3e 34 7b bc
       0.034924243 0.024832025 0.04324271 -0.01533228
000150 66 69 9f bc ba ff 9c 3c ea 45 95 3c f9 e2 dd bb
       -0.019459438 0.019164909 0.018221814 -0.006771442
000160 5e ba 3c bc e7 07 61 bc 99 e1 3d bc 88 07 63 3c
       -0.011519043 -0.013734794 -0.011589431 0.013856776
000170 02 14 ec bb 71 a5 50 bc 65 0e bd 3c 34 2a 1d 3d
       -0.0072045336 -0.012734757 0.023078153 0.038370326
000180 33 52 74 3b 59 9b 1a 3b cc 4b a6 bc 03 63 03 3d
       0.003728044 0.002359113 -0.020299815 0.032076847
000190 2c a5 83 bc 7c b2 a5 bc 49 cc 06 3d cf 79 8c bc
       -0.016069971 -0.02022671 0.032909665 -0.017147927
0001a0 ea 2e 5e 3c 5f a8 0c 3d e7 ff a0 bc dc 81 9f 3a
       0.01356099 0.03434026 -0.019653274 0.0012169438
0001b0 86 14 77 bc 99 85 92 3c fa aa 92 bc c0 8f a6 3c
       -0.015080577 0.01788597 -0.017903794 0.020332217
0001c0 1d 45 22 bb 3c 32 cd 3c ff b9 0f 3d 4d fe 35 bc
       -0.0024760433 0.025048368 0.03508949 -0.011107993
0001d0 c9 ef 3a 3d 7a 59 08 3d ed 9a b5 3c eb e4 ac 3c
       0.045638833 0.033288456 0.022168601 0.02110525
0001e0 76 31 18 bc 14 6f c9 3b a6 34 98 3c e4 f0 66 bb
       -0.009289136 0.0061472747 0.018579792 -0.0035238797
0001f0 9a 93 14 3d 84 cd a3 3c 48 98 13 3d ff d6 1d 3d
       0.036273576 0.019995458 0.0360339 0.038535114

layers.5.running_mean f4 [128]
000000 49 82 9c be 8a a5 3a bc 46 e5 e6 bd 4d 52 cb be
       -0.3056815 -0.011392007 -0.11274199 -0.39711228
000010 7a e2 3b be ef 71 ce 3d 12 02 ca 3d b0 1e fb 3d
       -0.18348113 0.10080325 0.09863676 0.122617126
000020 3c 7e bd be 22 26 da 3d c3 6c 9f 3e 09 ec 83 be
       -0.37010372 0.106518045 0.31137666 -0.25766018
000030 bc 3b 34 3d 07 3f 6c 3c 3a 47 9e 3e 5b 33 0a bf
       0.04400228 0.014419324 0.30913717 -0.5398461
000040 34 4a b7 be 2f 60 33 3d e0 e2 e4 bd b5 c1 48 bd
       -0.357988 0.0437929 -0.111760855 -0.04901286
000050 28 e9 b7 be 97 a2 4e be 02 0e 68 bd c6 c0 7d 3e
       -0.35920072 -0.2017921 -0.056653984 0.24780568
000060 bf 66 2c 3e 97 73 b8 3e 33 6c 9b 3d b4 67 b5 3d
       0.1683607 0.36025688 0.07588997 0.088576704
000070 a2 5d b4 3d 1a d9 1a be 93 51 d5 be 58 1e f7 be
       0.088069215 -0.1512188 -0.416638 -0.48265338
000080 9c 0f 9d be 9e 96 14 3d e6 10 47 3c bc cd 9d be
       -0.30675972 0.036276452 0.012150025 -0.30821025
000090 84 d7 b4 bd 28 11 30 be 9d 35 4c 3d e7 e2 3b bd
       -0.08830169 -0.17194045 0.049855817 -0.045870688
0000a0 e8 bc 48 bd 73 fc 0e 3d 17 d8 4c be f6 78 9c 3e
       -0.04900828 0.034908723 -0.20004307 0.30561036
0000b0 95 1f 85 3e 62 d4 dc bd d6 92 fd be 55 64 05 bf
       0.26000658 -0.10782696 -0.4952609 -0.5210622
0000c0 42 54 28 bd 5f ee fa bc 11 1c a5 be e5 1e ca be
       -0.04109598 -0.030631242 -0.32247975 -0.39476696
0000d0 24 7c 0d be b8 db 90 bd 73 20 27 3e 29 db 06 bf
       -0.13816887 -0.07073158 0.16320972 -0.5267816
0000e0 7e af d5 bd e5 1b 64 3e 7a 00 7f bd a8 31 db bd
       -0.10433863 0.22276266 -0.062256314 -0.107028306
0000f0 ec f8 a5 bd 6a 76 0f 3f 73 c1 b1 3d 2f bb 87 be
       -0.08104119 0.5604006 0.08679476 -0.26509997
000100 71 5e b3 bd 5e 0d 35 be 3c bc ea be ef 5e 15 be
       -0.08758248 -0.1768088 -0.45846736 -0.14586996
000110 01 05 1a be 59 58 ce bd 5b 69 58 be f0 9a a1 be
       -0.15040971 -0.10075445 -0.2113394 -0.3156352
000120 b6 df 26 be 34 32 42 be 12 78 c7 be 7e 94 b3 be
       -0.16296276 -0.18964463 -0.38958794 -0.35074228
000130 ee 2e 90 bc 17 74 a5 3e 54 84 e1 3b 37 f9 1c be
       -0.017600503 0.32315132 0.00688223 -0.15329443
000140 fc 86 db be 2d 1d 0f be 70 49 5b bc 89 de 29 3e
       -0.42876422 -0.13975973 -0.013384208 0.16588797
000150 91 35 c0 bd ff a4 8c be f8 c4 e2 be 3f 2e ac 3e
       -0.09385217 -0.27469632 -0.442909 0.33629033
000160 59 45 00 bd 46 95 20 be a7 a7 92 3e c3 e3 07 bf
       -0.031316135 -0.15681943 0.28643534 -0.5308191
000170 c6 c5 5f bc e4 92 09 3e 5c 03 20 bd d5 20 c9 bc
       -0.013657993 0.1343494 -0.039065704 -0.024551788
000180 02 8e a4 bd 93 5d 99 3d 18 4e 7e 3e 54 dd 15 3e
       -0.08034898 0.07488551 0.24834478 0.14635211
000190 4a 0d 82 be af f5 83 3d c5 73 01 bf 93 2c 11 bc
       -0.25400764 0.06443345 -0.50567275 -0.008860725
0001a0 6e fa c0 be d9 d3 a0 be 5b 7b e8 bc 39 8a 7e 3d
       -0.37691063 -0.31411627 -0.028379133 0.06214354
0001b0 59 66 01 3e eb f2 5b be 6a d1 05 bf a2 2d 88 3d
       0.12636699 -0.21479385 -0.52272666 0.06649329
0001c0 12 7e e5 be d2 d9 ab be 99 82 2d be 3f 12 2d 3d
       -0.44822747 -0.3356462 -0.1694435 0.04225373
0001d0 7b 58 17 be c7 25 4e be 99 01 09 be 88 aa e1 be
       -0.14779846 -0.20131598 -0.13379516 -0.44075418
0001e0 f0 da 6e be 10 03 e3 be 2f c2 ab bd 3e 06 4e 3d
       -0.23325706 -0.44338274 -0.08386647 0.05029892
0001f0 4f 07 01 be 6d de df 3d 71 d7 21 bd 98 9b 00 bd
       -0.12600444 0.10931096 -0.0395121 -0.031398386

layers.5.running_var f4 [128]
000000 cb 23 56 3e ca 0d 93 3e 4c e2 1c 3e 8b e2 ac 3e
       0.20912091 0.28721458 0.153207 0.3376659
000010 69 7c 3f 3e dc 83 34 3e 46 aa de 3e 3a 5b 90 3e
       0.18699802 0.17628425 0.43489283 0.281946
000020 9e ea ac 3e eb e0 48 3e b9 81 a6 3e 59 2e 0e 3e
       0.3377275 0.1961705 0.32520846 0.13884868
000030 5e 15 47 3e 9c cb d0 3e 88 07 57 3e 54 57 aa 3e
       0.19441745 0.40780342 0.20998967 0.3326975
000040 92 0d 8c 3e 77 cb 43 3e af 93 62 3e c3 fd 98 3e
       0.27354103 0.19120584 0.2212665 0.29881105
000050 e7 8c 81 3e 58 b8 67 3e 51 db 30 3f 24 56 4a 3e
       0.25302812 0.22628915 0.6908465 0.19759423
000060 c6 22 a5 3e 6d de 44 3e 02 b5 80 3e ea 2d 64 3e
       0.32253093 0.19225474 0.25138098 0.2228314
000070 6d 4a 30 3e 22 ca 6f 3e 38 8e fc 3e 35 fb 4f 3e
       0.17215891 0.23416951 0.49327254 0.20310672
000080 47 c1 80 3e 57 df c1 3e 91 ac 5e 3e 0d 0d 35 3e
       0.2514746 0.37865707 0.21745516 0.1768076
000090 a4 23 bd 3e 13 4a e3 3e 53 ca 21 3f 97 0a 83 3e
       0.36941254 0.44392452 0.6319935 0.25594017
0000a0 6b 12 68 3e 05 8e d2 3e d0 7c 92 3e 5f b0 5e 3e
       0.22663276 0.41123977 0.2861085 0.21746968
0000b0 d3 59 6f 3e 00 e5 3b 3e a9 9d 4d 3e 5e 8f 71 3e
       0.23374109 0.18349075 0.20079674 0.23589846
0000c0 25 32 e0 3e 18 de 6d 3e af 4e 70 3e 81 d1 0d 3e
       0.43788257 0.23229253 0.23467515 0.1384945
0000d0 8f 28 66 3e 1e 43 c8 3e 19 55 96 3e 55 91 83 3e
       0.2247641 0.39113706 0.293618 0.25696817
0000e0 a5 1f a8 3e 68 0d 41 3e c1 79 f7 3e ca 8c 27 3e
       0.32836643 0.1885277 0.48335078 0.163623
0000f0 94 22 90 3e d5 c6 93 3e dd 35 05 3e 6f fe b9 3e
       0.2815138 0.28862634 0.13008828 0.3632693
000100 c0 cd c0 3e 06 a6 19 3e 31 3f 7e 3e 90 35 87 3e
       0.37656975 0.15004739 0.24828793 0.26408052
000110 f7 f0 da 3e 81 4d a8 3e ae e1 a7 3e 04 26 d7 3e
       0.42761967 0.3287163 0.32789367 0.4202119
000120 33 6c b5 3e ff c0 48 3e dc a1 88 3e 5a a9 1a 3e
       0.35434112 0.19604872 0.2668599 0.15103665
000130 d2 94 15 3e cf 03 91 3e 5d 9c 15 3f c9 2f 9d 3e
       0.14607552 0.28323218 0.58441716 0.3070052
000140 67 90 91 3e ec 55 83 3e ac 63 15 3f a4 ec 19 3e
       0.28430483 0.2565149 0.5835521 0.15031677
000150 75 c1 30 3e 05 9b 43 3e 88 47 97 3e 37 38 d7 3e
       0.17261298 0.19102104 0.29546762 0.42035076
000160 5f 47 49 3e 05 a8 53 3e 30 70 32 3e bb e3 b3 3e
       0.19656132 0.20669563 0.17425609 0.35134682
000170 61 61 a3 3e 1c 49 3e 3e 60 b6 f7 3e a6 76 c8 3e
       0.31910232 0.18582577 0.4838133 0.39153022
000180 ea c6 d3 3e e9 53 6a 3e 46 9f 1d 3e 99 79 c8 3e
       0.41362697 0.22883572 0.15392789 0.39155272
000190 a9 ca 7b 3e a4 9d 86 3e 40 df 6e 3e 1f 69 6c 3e
       0.24589027 0.26292145 0.2332735 0.23086976
0001a0 7e 6a 97 3e 36 35 8f 3e c7 ae 24 3e 52 80 49 3e
       0.29573435 0.27970284 0.16082297 0.19677857
0001b0 01 53 aa 3e b5 bf a0 3e bf 06 81 3e 36 4c 0e 3f
       0.33266452 0.3139626 0.2520046 0.5558504
0001c0 23 3e 8a 3e 77 21 8a 3e 7f 9d 0b 3f d4 14 a4 3e
       0.27000532 0.26978657 0.54537195 0.3204714
0001d0 cd d6 02 3f c0 e0 15 3f c9 87 fc 3e 22 24 f6 3e
       0.5110901 0.58546066 0.49322346 0.48074442
0001e0 2f 0b 34 3e a8 45 8f 3e 43 56 7a 3e 6d c6 a0 3e
       0.17582391 0.2798283 0.24446969 0.31401387
0001f0 80 89 ce 3e 57 9a 9f 3e 27 24 d9 3e 37 51 c6 3e
       0.4033928 0.3117244 0.42410395 0.38733837
