models/best_fold4_hd128_do0.5.pth (torch, 118822 bytes, 20 tensors)

feature_extractor.0.weight f4 [128, 10]
000000 3f 92 16 be e5 0e 0a 3e 13 f7 97 3e ed 5b 2a be
       -0.14704226 0.13482244 0.2968069 -0.1663663
000010 b3 67 b8 bd f9 ec a0 be 36 c7 9e 3c 71 d9 bc bd
       -0.09004154 -0.31430796 0.0193821 -0.09221161
000020 d5 d2 60 bd 4e 9c e0 bd 2a 9a 3a be 36 8c b9 3d
       -0.054888565 -0.10967313 -0.18222871 0.09059946
000030 df be 2f 3e 98 72 48 3d 76 9d 9c bd 71 d9 24 be
       0.17162655 0.04893741 -0.07647221 -0.16098572
000040 ce 06 aa 3d bd ed cd ba 66 ec 3c be 87 59 9a 3e
       0.08302079 -0.001571111 -0.18449554 0.3014643
000050 29 06 0c 3e 37 1e 6c 3e bd 34 29 be 28 86 cb bd
       0.13674225 0.23058401 -0.16524024 -0.09937698
000060 25 f3 27 be 4c 76 10 3e 43 af 4d 3e 2a 52 a0 3e
       -0.16401346 0.14107627 0.20086388 0.31312686
000070 af e0 2c 3d c7 07 e7 bd 94 0e 3b be 7f 14 95 39
       0.042206462 -0.1128078 -0.1826728 0.00028434765
000080 39 2f 0a 3e da c5 91 be 62 14 39 3e 1f 5c e4 3d
       0.13494577 -0.2847126 0.18074182 0.11150383
000090 ce cb 02 3d ab 17 f4 3d b6 39 2a be 2c e5 32 be
       0.031932645 0.11918577 -0.16623577 -0.17470235
0000a0 1f 8b 05 be a2 cc d0 bd f8 5a cc 3d 0b 6f 7c be
       -0.13041352 -0.101952806 0.099782884 -0.24651735
0000b0 f0 5e f7 3d 99 c4 f8 3d 93 a2 55 be c4 64 6d 3b
       0.12078655 0.12146873 -0.20862798 0.003622339
0000c0 33 b1 9c 3e f9 17 a9 3d 47 38 84 be d5 2f 81 3d
       0.30603942 0.082565255 -0.25824186 0.06307951
0000d0 4c 4a 38 3e 3d bf 92 bc 83 fe 00 be ea 00 d6 bd
       0.17997092 -0.017913455 -0.12597089 -0.10449393
0000e0 f1 04 9e bc 19 5a c2 3d 16 02 61 bd 7d b4 36 3e
       -0.019289466 0.09489841 -0.05493363 0.17842288
0000f0 fe 58 be be ce 92 13 bd 9a 80 f8 bd 0b e9 0a be
       -0.3717727 -0.036028676 -0.12133904 -0.13565461
000100 5c 89 48 be 94 58 74 be 31 64 4f 3e af f7 59 bc
       -0.19583648 -0.23861915 0.20253064 -0.013303681
000110 bb 6f 27 be 92 e0 d7 3d ca e2 75 3e ea 3f 8f 3e
       -0.16351216 0.1054088 0.24012294 0.2797845
000120 a3 43 8d 3e cd 2d 11 bd f8 22 b6 bd 7e 52 2e 3b
       0.27590665 -0.03544407 -0.088933885 0.0026599462
000130 71 bd a5 bd c3 f9 76 3d 33 ac c2 bc d3 57 94 3d
       -0.08092774 0.060296785 -0.023763752 0.07243314
000140 01 a3 aa be dc e3 8b 3c ae 88 f5 bc 5e b2 84 be
       -0.33327487 0.017076425 -0.0299724 -0.25917333
000150 b9 e9 42 3e d8 ba 74 3c 6f 8c 32 be 88 0d 86 be
       0.1903447 0.014937125 -0.17436384 -0.261822
000160 ad 5f 04 3e e8 ff 1c 3e bb ed 45 3e 59 f3 9d be
       0.12927122 0.15331995 0.19328968 -0.30849722
000170 51 6e 70 be c8 4b 09 3e 2e e3 7c bd 57 19 49 3e
       -0.23479582 0.13407815 -0.061740093 0.19638573
000180 9e fe 00 3c 14 fe 89 3e 49 05 0f be a9 07 54 be
       0.0078732055 0.2695166 -0.1396686 -0.20706047
000190 99 cd 7d be 27 d1 58 be 76 8a b5 bd 53 8b 1f 3e
       -0.2478546 -0.21173535 -0.088643 0.15580492
0001a0 08 30 08 3e 8c 96 76 be 61 78 1e be be 48 80 3e
       0.13299572 -0.24080867 -0.15475608 0.25055498
0001b0 b5 e1 0c 3e 79 f8 01 3d 65 c3 5d be 05 fd 9a 3e
       0.13757975 0.031731103 -0.21656568 0.30271164
0001c0 51 26 f8 bd fb aa e7 bd d0 4a 98 3e 62 51 8c 3e
       -0.12116683 -0.11311909 0.29744577 0.2740584
0001d0 3b 23 2d be 2b 62 42 3d 46 be 59 be c3 a9 43 3d
       -0.1690797 0.0474569 -0.2126399 0.04776932
0001e0 6d e0 cc 3c c4 cd 34 be c1 4d 1a be 84 92 d3 3d
       0.025009358 -0.17656618 -0.15068723 0.1033068
0001f0 f7 b3 66 be be cf 6b 3e c3 fb 33 3e 4f aa 97 be
       -0.22529589 0.23028466 0.17576508 -0.29622123
000200 c7 21 85 be ae 74 87 3e 41 44 ca 3d 8c ac b4 3d
       -0.26002333 0.26456207 0.098763 0.08821973
000210 c7 39 95 be 74 68 3b 3e f9 b7 1d 3e 2c 44 3e 3e
       -0.29145643 0.18301564 0.15402211 0.18580693
000220 81 13 bd 3d 31 ce 55 3d 27 b4 a0 bd d4 68 28 3e
       0.09232236 0.052198593 -0.07846861 0.16446239
000230 2d f1 8a be 6c 1b 8f bd d6 04 0c 3e 13 fd 69 3b
       -0.27137128 -0.06987652 0.1367372 0.0035703823
000240 6d ca 23 3d 00 62 47 be ff b0 0f 3e 13 17 f5 bd
       0.03998797 -0.19470978 0.14032362 -0.11967292
000250 09 62 73 3d 5c 34 84 3d 72 06 f8 3d 35 90 85 bd
       0.059419665 0.06455299 0.12110604 -0.06521646
000260 f2 bf bf 3d cb 22 b3 bd a0 a7 f6 3c d4 96 56 3e
       0.093627825 -0.087468706 0.030109227 0.20955974
000270 10 eb 2d 3e 79 8d 99 3d 7c 6c 7f 3e f2 3c 89 3d
       0.169842 0.07497687 0.24943727 0.067010775
000280 d9 bd 36 bd 50 b4 9c bd 2c 56 85 3e 48 f9 e5 bd
       -0.044614647 -0.076515794 0.26042306 -0.11229187
000290 ab 18 4c 3e da 37 61 3e 4c 89 0e 3e 74 4b 89 3e
       0.19931285 0.21993962 0.13919562 0.2681538
0002a0 f7 82 e8 3c ed 51 4d bd 73 92 9f 3d 7e 4e 73 bd
       0.028382761 -0.05012696 0.07791605 -0.059401028
0002b0 a4 1c 81 be 6d fd 53 be 10 04 5c 3e ab 04 1e be
       -0.25217164 -0.20702143 0.21485925 -0.15431468
0002c0 b9 86 80 3d fd 75 36 ba 0f 4f 9e 3e f5 09 89 be
       0.06275696 -0.00069603306 0.30919692 -0.2676541
0002d0 8d 16 a0 be 00 8c 95 be a5 1c 14 be 63 2a 97 3e
       -0.31267205 -0.29208374 -0.14464052 0.29524526
0002e0 6b 60 b6 bb 24 2b 0f be 05 82 41 3e d7 92 c0 3d
       -0.005565693 -0.139813 0.18897255 0.094030075
0002f0 56 ba 37 3e c2 d4 e2 bd b7 81 4d be 02 46 76 be
       0.17942175 -0.110757366 -0.20069014 -0.24050143
000300 a9 b0 92 3e 6f ff d2 bd af 49 93 bd 3d 93 85 be
       0.28650406 -0.10302626 -0.071917884 -0.26088896
000310 90 b4 1a 3e 7f a0 94 be af 69 85 3d 94 21 98 3e
       0.15107942 -0.290287 0.06514298 0.29713118
000320 65 8d 81 bc 71 49 e8 bd 99 c3 70 3e fd f0 18 b9
       -0.015814492 -0.11342133 0.23512115 -0.00014585625
000330 fa 5d 87 3e 05 fe 52 be c1 70 fe bd 09 1a f4 3d
       0.26438886 -0.20604713 -0.1242385 0.11919028
000340 9f a7 25 3e 44 dc 1a be b1 74 7e 3e 34 ee 5c 3e
       0.16177224 -0.15123087 0.24849202 0.21575242
000350 37 75 15 3e 43 0b 93 be cb 20 4f be fa 48 4e bd
       0.14595495 -0.2871953 -0.20227353 -0.050362565
000360 03 1b 62 be 21 17 92 be 7a 25 37 bc 32 f1 87 3e
       -0.22080617 -0.2853327 -0.011178369 0.26551205
000370 20 90 5c 3c dc b0 a9 3c de 7d 32 be 36 5b 26 3d
       0.013462096 0.020714216 -0.17430827 0.04061433
000380 60 bb 64 be 8c 18 89 bd 13 1b 87 3e b8 43 93 be
       -0.22337103 -0.06694135 0.26387843 -0.28762603
000390 27 43 e2 3d 0c 32 f0 3d 62 fa 37 3d 9a 6a 5e 3e
       0.110479645 0.11728296 0.044916518 0.21720353
0003a0 8b fc 8b be 6d cd 19 bc a8 d3 69 3d 2d de 06 3e
       -0.27341112 -0.009387356 0.057086617 0.13170691
0003b0 d3 c7 20 bb 4e af 88 bd c2 c9 fc bd bd 6e 34 be
       -0.0024533167 -0.06674062 -0.1234317 -0.17620368
0003c0 f7 ca bb 3d 4e 84 3f 3d f4 b2 87 be b7 f5 c3 bd
       0.09169572 0.046757035 -0.26503718 -0.09568351
0003d0 2f 8e 13 be 34 75 80 bc ca a7 b9 3d 82 96 92 3e
       -0.14409707 -0.015680887 0.09065206 0.28630453
0003e0 db b1 60 bd 1e 0e 39 3e 6c b8 73 bd 23 97 86 3e
       -0.054857116 0.18071792 -0.05950205 0.26287183
0003f0 8c 6f 53 be 2c 01 2a 3e 1b 7c 26 be 5e 5f d7 3c
       -0.2064802 0.1660201 -0.1625828 0.026290592

feature_extractor.0.bias f4 [128]
000000 9f 5a 25 be f7 9e 07 bd 55 9f 16 3e 18 f1 f6 bd
       -0.1614785 -0.033110585 0.14709218 -0.12057704
000010 0c 7a 94 3e 06 44 21 3e 09 19 56 3d 1c 70 6c 3e
       0.28999364 0.15748605 0.05226997 0.23089641
000020 a3 dc 0a 3e f3 1a 0a 3e 83 22 36 3e 73 c2 7c bd
       0.13560729 0.13486843 0.17786603 -0.06170888
000030 f6 e2 5c be ca 41 3b be 2e 8f 48 3c 48 62 5d 3e
       -0.21570954 -0.18286815 0.012241168 0.21619523
000040 68 2f bd 3d 3a 7b 9f 3e c2 9b 8d 3e cb 7b 20 3c
       0.09237558 0.31148702 0.27657896 0.00979514
000050 63 83 41 3c 72 66 3e be e1 da 8c 3e 34 51 3a 3d
       0.01181111 -0.18593767 0.2751074 0.045487598
000060 11 2f 4e bd 32 90 89 3d 7d 3e ad 3d 1a 4c 15 3e
       -0.050337855 0.06716956 0.08459184 0.14579812
000070 dc 0c 58 3e 1b 50 7a 3e 66 1e 30 bc 5f c0 11 be
       0.21098655 0.2444462 -0.010749435 -0.1423354
000080 16 11 8e 3e cd f5 f5 3d 09 13 26 3c 1f f7 80 3e
       0.2774741 0.120097734 0.010136374 0.25188538
000090 2e b6 9b 3e ba 7e 6c be 57 a0 34 be 31 98 4d be
       0.3041243 -0.23095217 -0.1763929 -0.20077588
0000a0 4f e8 b1 bc bd e1 80 be ba ae df b9 9e a9 94 be
       -0.021717219 -0.25172225 -0.00042664056 -0.29035658
0000b0 94 cf 94 3e 4a d7 47 3e df bf fb bd 66 60 21 3e
       0.2906462 0.1951572 -0.12292456 0.1575943
0000c0 8f 53 29 3e 0e f3 75 3e 19 23 0a 3e 72 99 96 3e
       0.16535781 0.240185 0.13489951 0.29413944
0000d0 d2 67 ac 3d d8 de d8 3d 4d 0d 0c 3e 5b 65 90 3e
       0.0841824 0.10589379 0.13676949 0.28202328
0000e0 0f 49 54 be 34 b0 82 3e 70 88 6c 3e 00 34 15 3d
       -0.20730995 0.25525057 0.23098922 0.036426544
0000f0 7d 37 98 be 20 bc 66 be 29 ec 72 be af 96 4e 3e
       -0.29729834 -0.22532701 -0.237229 0.20174669
000100 ee e0 9f bd 15 0c 43 be 77 25 8e 3e 5d ce 73 3d
       -0.07806574 -0.19047578 0.27762958 0.059522975
000110 09 9e b5 bd d4 d4 e0 3d 53 93 fe 3d 54 26 49 3d
       -0.088680334 0.10978094 0.124304436 0.04910882
000120 f7 2a 9b 3e f8 e0 53 3e a6 48 d3 bd bc bf a1 be
       0.30306217 0.20691288 -0.10316591 -0.31591594
000130 4c fe 80 3e 85 31 70 be 56 fd 95 be 95 30 8e 3e
       0.25194013 -0.2345639 -0.29294842 0.2777144
000140 65 ac d1 3b f5 ce bf bd 05 fd 1b be f1 d1 af bd
       0.006398725 -0.09365646 -0.15233238 -0.08584965
000150 e2 32 84 3d a8 53 0f 3e 26 09 9e be 7d 0d 3f 3e
       0.064550176 0.13996756 -0.30866355 0.18657489
000160 e5 23 2c be 68 bd ee 3d a8 a0 b3 3d 0a 7a e0 bd
       -0.16810568 0.1165722 0.08770877 -0.10960777
000170 54 4d 38 3d 61 0d 6b 3e d5 3b 51 be a2 40 23 be
       0.04499562 0.22954322 -0.2043298 -0.15942624
000180 fb 36 a8 3d 05 0b b6 bd 9c 66 9a 3e 32 4e 31 be
       0.08213612 -0.088888206 0.3015641 -0.17314985
000190 c7 46 57 3e ea e0 6b be 30 b7 50 3e d4 ed eb bd
       0.21023093 -0.23035017 0.2038238 -0.115199715
0001a0 89 eb c0 bd 41 68 99 be db 02 24 bd 65 b9 4d be
       -0.09419925 -0.29962352 -0.040041786 -0.20090254
0001b0 79 89 74 be a7 9f 14 be e0 e5 22 be 4c 4b 04 be
       -0.23880567 -0.14514028 -0.15908003 -0.12919348
0001c0 d1 bd b2 bd 15 fe b9 bd 11 1a a3 3d eb 29 97 3e
       -0.08727611 -0.090816654 0.07963956 0.29524168
0001d0 f0 f1 d7 bd 0b 65 4c 3e fb 18 25 3d c7 3b 03 3e
       -0.10544193 0.1996042 0.040307026 0.12815772
0001e0 5b bb 01 be 72 34 ef 3c d6 8a 22 3d 8f 90 16 b9
       -0.12669127 0.029199813 0.039683186 -0.00014358967
0001f0 b9 3c b7 3d e2 8a 9b 3e 4a 52 fc bd 37 d4 71 be
       0.08947129 0.30379397 -0.12320383 -0.2361611

feature_extractor.1.weight f4 [128]
000000 34 2c 80 3f 30 b9 82 3f 54 dc 7c 3f 4b ee 80 3f
       1.001349 1.0212765 0.98773694 1.0072721
000010 45 ab 79 3f ca 22 84 3f fb 51 85 3f 35 d7 80 3f
       0.9752696 1.0323117 1.0415643 1.0065676
000020 23 c5 81 3f 8f 84 7a 3f 0f ac 81 3f 7f 46 7a 3f
       1.0138286 0.9785852 1.0130633 0.9776382
000030 1d ab 7a 3f 80 0a 80 3f 05 5d 83 3f 34 d4 83 3f
       0.9791735 1.0003204 1.0262762 1.0299134
000040 f4 83 7b 3f 17 59 7a 3f 61 51 80 3f fe d5 7e 3f
       0.9824822 0.9779219 1.0024835 0.99545276
000050 bc 87 7b 3f 24 c5 7e 3f f4 01 7c 3f b9 38 7c 3f
       0.9825399 0.9951956 0.9844048 0.9852405
000060 ce 3d 7d 3f a0 94 7d 3f 03 84 81 3f b0 37 80 3f
       0.9892243 0.9905491 1.0118412 1.0016994
000070 ac e6 7f 3f 99 20 7b 3f 52 5d 84 3f c7 b8 79 3f
       0.9996135 0.98096615 1.0340979 0.9754757
000080 c9 50 7e 3f 7e de 7c 3f 8b 1f 7d 3f 69 5e 81 3f
       0.9934202 0.98776996 0.98876256 1.0106937
000090 b1 eb 7c 3f cd b4 7f 3f 9b 0f 80 3f a9 5b 79 3f
       0.98797137 0.99885255 1.0004762 0.9740549
0000a0 b6 03 83 3f 7d 9f 7a 3f b6 ae 7d 3f 64 9a 7e 3f
       1.0235507 0.9789961 0.9909471 0.9945433
0000b0 62 00 79 3f 90 3b 83 3f 6b 3d 7b 3f db 9f 7c 3f
       0.9726621 1.0252552 0.9814059 0.9868142
0000c0 13 ab 80 3f cf ab 80 3f ca 79 7d 3f 8a 40 7c 3f
       1.0052208 1.0052432 0.9901396 0.9853598
0000d0 85 01 81 3f 59 5f 7c 3f 20 8b 84 3f be 4d 80 3f
       1.0078589 0.9858299 1.0354958 1.0023725
0000e0 7f cc 7e 3f cb 5d 81 3f fc fd 87 3f 29 c3 80 3f
       0.99530786 1.0106748 1.0624385 1.0059558
0000f0 95 ce 7c 3f 9f 05 84 3f 8d 02 81 3f c8 4a 7b 3f
       0.9875272 1.0314215 1.0078903 0.9816098
000100 f2 2a 7d 3f 2c 45 83 3f 3b 16 7e 3f ff 20 7b 3f
       0.98893654 1.0255485 0.9925267 0.98097223
000110 99 fb 7d 3f 2b 8a 7f 3f 5b 94 82 3f bd 6a 7f 3f
       0.9921203 0.998202 1.0201524 0.99772245
000120 a0 aa 82 3f 20 b6 7a 3f 54 cd 83 3f c9 bd 7f 3f
       1.0208321 0.9793415 1.0297036 0.99898964
000130 66 bc 7a 3f ae b6 7e 3f 48 6e 7a 3f ce 3f 7f 3f
       0.97943723 0.994975 0.97824526 0.99706733
000140 69 42 7f 3f 92 a0 7b 3f c0 a3 83 3f 2b 13 81 3f
       0.9971071 0.98291886 1.0284348 1.0083975
000150 2a 9d 7d 3f b5 9f 80 3f f2 f2 7a 3f 81 24 81 3f
       0.9906794 1.0048739 0.98026955 1.0089265
000160 64 72 7e 3f 17 f3 7c 3f 05 80 7f 3f 30 bc 82 3f
       0.99393296 0.98808426 0.9980472 1.021368
000170 6b 47 80 3f 33 70 7a 3f 53 bd 7c 3f 3f 0c 82 3f
       1.0021795 0.9782745 0.98726386 1.0159987
000180 ec f6 7e 3f 94 d1 7e 3f ee ea 7b 3f d7 de 7e 3f
       0.9959552 0.9953854 0.9840535 0.99558777
000190 02 bd 7f 3f 5f e6 7a 3f ce 47 80 3f 28 f5 7f 3f
       0.9989778 0.9800777 1.0021913 0.99983454
0001a0 41 22 7b 3f 36 b6 82 3f b0 f9 84 3f 84 c1 84 3f
       0.9809914 1.0211856 1.0388699 1.0371556
0001b0 cd 70 79 3f 3a 3c 7f 3f 7f 46 7c 3f 3e 72 7c 3f
       0.97437745 0.99701273 0.9854507 0.9861182
0001c0 cd 09 83 3f 7e 55 80 3f 30 c9 7c 3f c0 1d 7f 3f
       1.0237366 1.002609 0.9874449 0.9965477
0001d0 62 4f 7d 3f 69 85 77 3f 83 42 84 3f 8f 5b 7d 3f
       0.98949254 0.9668794 1.0332798 0.9896783
0001e0 06 67 80 3f 13 31 81 3f 33 63 81 3f 96 e9 80 3f
       1.003144 1.0093101 1.0108398 1.0071285
0001f0 d5 cb 82 3f ff fa 82 3f b5 9b 7f 3f 90 4e 7e 3f
       1.0218455 1.0232848 0.99846965 0.99338627

feature_extractor.1.bias f4 [128]
000000 f6 af 36 3a df e3 a9 bb d1 3c 89 bc 13 4b 84 3b
       0.0006968969 -0.005184635 -0.016752632 0.00403727
000010 78 a6 0b bc 6d 25 bb 3c 54 c0 05 3d b6 db b2 3a
       -0.008523576 0.022844994 0.03265412 0.0013645801
000020 41 14 1b 3c 8f 38 b6 bc 97 bd f0 ba 45 48 fc bb
       0.009465278 -0.022243766 -0.0018367049 -0.007699045
000030 0a 6d 82 bc 7e 85 bf ba 07 72 41 39 0f 23 c3 3c
       -0.015921135 -0.0014611927 0.00018448393 0.023820428
000040 20 70 30 bc 5c 3b e3 bc c6 1d 62 bb 31 f2 85 bb
       -0.01076892 -0.027738266 -0.003450261 -0.0040877094
000050 bf 5e de bb 32 6a 27 bc 50 18 4f bc 97 6b 03 bc
       -0.006786197 -0.01021819 -0.012640074 -0.008021257
000060 dd 64 3f bc 5a 2d eb ba 20 fd 82 3c 88 35 5e bb
       -0.0116817625 -0.0017942593 0.01598984 -0.0033906419
000070 a2 08 d2 bb 31 7e e6 bc 40 b0 00 3d 01 30 86 bc
       -0.0064097205 -0.028136345 0.031418085 -0.016380312
000080 b1 b3 a4 bb dd 37 04 3a b1 54 7d bc 20 e0 22 3c
       -0.0050263037 0.00050437247 -0.015462087 0.009941131
000090 ec fe 6d bc 4f 0e 44 bb c7 b2 e3 bc 20 f6 eb bc
       -0.01452611 -0.0029915755 -0.027795209 -0.028803885
0000a0 20 f7 b4 3c 5b f1 80 3b 16 01 f0 ba aa 6a ea bb
       0.022090495 0.003935022 -0.001831087 -0.0071538286
0000b0 34 f8 c1 bc fa d5 d2 3c 21 09 85 bc 12 4d a6 bc
       -0.023677923 0.025736798 -0.016239705 -0.020300422
0000c0 df d0 73 3b 61 36 b5 3a cb 77 f7 bb 0e 53 4f ba
       0.0037203354 0.001382541 -0.007552122 -0.00079087995
0000d0 14 28 8a 3c e9 7b ac bc 5c b9 d2 3c a8 a0 39 bb
       0.016864814 -0.021055179 0.025723152 -0.0028324518
0000e0 1e 4f c8 bb a8 07 93 3c e5 c4 13 3d b8 3f 34 bb
       -0.006112947 0.017947987 0.036076445 -0.00275038
0000f0 be 67 ed bb 12 78 00 3d 30 22 28 3d 0e 32 86 bc
       -0.007245033 0.031364508 0.04104823 -0.01638129
000100 81 e1 f1 3b 7c 2e fb 3c 82 a7 1d bc 5b 55 9e bc
       0.0073816185 0.030661814 -0.0096224565 -0.01932781
000110 cf e4 18 bc d0 ef 05 bb 6b 2f 8f 3c 2c cb e4 ba
       -0.009331896 -0.002043713 0.017478665 -0.001745557
000120 82 ef 16 3d 26 c8 5a bc 7a 5c 08 3d a3 73 fa bb
       0.036849506 -0.013353383 0.033291318 -0.0076431795
000130 3a a2 a1 bc 18 55 fb bb 44 ad e1 bc 37 96 01 bb
       -0.019730676 -0.007670056 -0.02754844 -0.0019773373
000140 3c 0b 89 bb 8c a3 f7 bb e3 0c 38 3c bf 6d 0e 3c
       -0.0041822474 -0.007557338 0.011233541 0.008693158
000150 c5 ab e0 bb ba 9b ec 3a 95 aa af bc 2b 05 90 3b
       -0.006856414 0.0018051781 -0.021443645 0.0043951473
000160 40 ba db 3a ca 84 90 bc 2c 26 16 3c 26 bc cd 3c
       0.0016763881 -0.017641444 0.009164374 0.02511413
000170 f5 fa b0 3b 64 cd 54 bb fe 65 cf bc 39 92 aa bb
       0.00540101 -0.0032471055 -0.025317188 -0.0052054194
000180 16 04 0a 3d ce 08 d3 bb ac 45 df bb 0e 0a 83 3c
       0.033695303 -0.0064402586 -0.0068137255 0.015996005
000190 05 28 c3 3b ee 34 50 bc 61 fb fd 3c d9 a1 b1 3b
       0.0059556984 -0.012707932 0.031003656 0.005420905
0001a0 8d 90 66 b9 c2 a4 9a ba 24 77 ad 3c ba 74 6c 3d
       -0.00021988359 -0.0011798369 0.021174975 0.057728507
0001b0 74 4f a7 bc 96 d3 6b ba 62 d4 a1 bc 62 db 3a bc
       -0.020423628 -0.00089960673 -0.019754592 -0.011404844
0001c0 c3 f0 9e 3c 61 40 d1 3b 85 9d 8b bc e8 27 fc ba
       0.019401914 0.0063858484 -0.017042885 -0.0019237967
0001d0 25 c8 c3 bb 87 e6 07 bd 35 8f 0b bb e3 0e ec 3b
       -0.005974787 -0.033178832 -0.0021295075 0.007203923
0001e0 d1 a5 7e 3b 22 df 25 ba c8 5c 7a b9 e9 87 2b 3c
       0.0038856158 -0.00063275 -0.00023876422 0.010469415
0001f0 b9 ef 8b 3c 83 0e 0f 3d 92 b6 46 39 ae 4e 31 bc
       0.017082082 0.03492595 0.00018950764 -0.010821981

feature_extractor.1.running_mean f4 [128]
000000 9d a6 39 be 3d c2 d0 bd 84 c8 c5 3d 34 9b 63 be
       -0.18129964 -0.10193298 0.09657386 -0.22227174
000010 d2 f8 5b 3e 5f d0 06 3d fe 1d ef bd 68 7e a3 3e
       0.21481636 0.032913562 -0.116756424 0.31932378
000020 da 98 17 3c 6c 58 3d 3e 75 56 21 3d b2 16 67 be
       0.009252751 0.18490762 0.039389092 -0.22567251
000030 7c 3e 12 be 65 e3 40 be a7 a0 5d bd 8d 30 7b 3e
       -0.14281648 -0.18836744 -0.05410829 0.2453024
000040 f5 9e 12 3d e8 21 a3 3e 87 f7 25 3e f4 ca c3 3c
       0.035796124 0.31861806 0.16207705 0.023900487
000050 3e 7d b2 3c 28 0e 68 bd 39 f6 a4 3e 46 99 1a 3d
       0.021788236 -0.056654125 0.32219103 0.03774383
000060 ae ae f6 bd ba e2 35 3d fb 8d ed 3d 3f 7a 3e 3e
       -0.12045036 0.044405676 0.11599346 0.1860132
000070 cc a4 dd 3d 1b 34 8f 3e fb 45 21 be 8c 8a 05 be
       0.10822448 0.2796944 -0.15749352 -0.13041133
000080 1d 2e bb 3e 9b dd 71 3e 5e 04 18 bd 8f c0 f5 3d
       0.3655862 0.23619692 -0.03711354 0.11999618
000090 06 fd a8 3e 62 df b6 bd d1 fc a1 be be ff 6c be
       0.33005542 -0.08929326 -0.31638196 -0.23144433
0000a0 d7 16 20 be f3 cf ae be a3 8d 15 be 28 b7 de be
       -0.15633713 -0.34143028 -0.14604811 -0.43499112
0000b0 80 6c 9c 3e 9f dc b1 3c 43 82 54 be b0 32 86 3e
       0.3055153 0.021711646 -0.20752816 0.26210546
0000c0 cc 6f 7c 3e 6a 1f a8 3e 1d 14 c4 3d 8c 73 54 3e
       0.24652022 0.32836467 0.09574149 0.20747203
0000d0 19 f2 28 3e 8c a3 d3 3d c8 97 06 bd 34 ae b0 3e
       0.16498603 0.103339285 -0.032859594 0.34507906
0000e0 b8 49 2f be 5f 8c a4 3e 9d 6a c3 3d 48 55 2b 3e
       -0.17117965 0.32138345 0.09541819 0.16731751
0000f0 b7 b4 9a be 8b 14 d2 bd ca eb 81 bd 4d f9 0e 3e
       -0.30216 -0.102578245 -0.06343801 0.13962288
000100 6a aa c5 3c 8e 2b d7 be 2e 8e 34 3e e1 81 23 3e
       0.024129111 -0.42025417 0.17632362 0.15967514
000110 6b f6 f7 bd 0a a7 29 3e 38 e9 73 3e 2f b7 15 3d
       -0.121075474 0.16567627 0.23819435 0.03655165
000120 e9 09 ed 3e eb 41 5f 3e 7a 65 9c be 87 78 44 be
       0.46296623 0.2180249 -0.3054617 -0.19186603
000130 bd 43 42 3e 9a fb f4 bd 95 92 b5 be a8 35 be 3e
       0.18971153 -0.11962052 -0.35463396 0.3715031
000140 ea 25 ea 3d 3e ed 06 be f9 95 a4 be 0d 99 93 be
       0.11433013 -0.13176438 -0.3214567 -0.28827706
000150 ca 6f a1 3d 3c 21 81 3e 67 68 bc be cb 1d 81 3e
       0.0788265 0.25220668 -0.36798403 0.25218043
000160 e3 29 11 be 32 95 98 3d f4 29 2d 3e b8 dd 9c bc
       -0.14176135 0.07450332 0.16910535 -0.019148692
000170 18 23 d1 bb f1 de 64 3e 38 05 30 be f5 d6 b3 be
       -0.0063823573 0.2235067 -0.17189491 -0.35124937
000180 51 49 4e 3e e8 24 1d be 85 94 b2 3e 24 e0 eb bc
       0.20145155 -0.1534611 0.34878936 -0.028793402
000190 58 1f f0 3c 2e 61 80 be 08 ec ab 3e e5 ed 62 be
       0.02931182 -0.25074142 0.33578515 -0.22161062
0001a0 63 dc ed 3b db 8c c4 be bf aa 50 be ee a3 b0 bd
       0.007258938 -0.38388714 -0.20377634 -0.08625017
0001b0 c5 91 b0 be b9 a0 a2 be ba 6f 2c be 62 d0 29 be
       -0.34486213 -0.31763247 -0.16839495 -0.16583398
0001c0 f2 1c 02 3e 43 29 32 be d3 bd 1a 3e 00 9e b1 3e
       0.12706354 -0.17398553 0.15111475 0.34690857
0001d0 a8 51 dc bc 79 18 39 3e 8c d8 da bd 9f 4a 39 3e
       -0.026894405 0.18075742 -0.10685834 0.18094872
0001e0 a3 33 ed 3a 7f c6 07 be fb 4a b5 bd 75 58 f8 3d
       0.0018097054 -0.13259314 -0.08852192 0.12126247
0001f0 97 c0 82 3e 3d 08 1e 3e 85 bb 24 be da 3a 8a be
       0.2553756 0.1543283 -0.16087158 -0.26998025

feature_extractor.1.running_var f4 [128]
000000 2e 41 a9 3e 55 bd cc 3d 0c cd 3b 3e 47 23 2b 3e
       0.3305754 0.0999705 0.18339938 0.16712676
000010 8a 6f 18 3e fa 3c 08 3e 84 b4 a1 3e 62 46 5a 3e
       0.14886299 0.1330451 0.31583035 0.21315911
000020 69 6f 5c 3e d7 78 9f 3e 96 0f 88 3e 69 4e e0 3e
       0.21526875 0.3114688 0.2657439 0.43809822
000030 92 f3 23 3e 64 2d a8 3e 4c 44 29 3e 26 fe d0 3d
       0.16010883 0.3284713 0.1652996 0.10204725
000040 d2 48 59 3e f3 54 39 3e bd 33 e5 3e d8 98 96 3e
       0.21219185 0.18098812 0.44766036 0.29413486
000050 09 33 ae 3d bb 08 dc 3e 65 8c 20 3e 40 b0 ee 3d
       0.08505828 0.4297541 0.15678556 0.11654711
000060 66 45 3c 3e 31 8a 73 3e 9b 42 1d 3e 90 61 52 3e
       0.18385848 0.23783185 0.15357439 0.2054503
000070 72 b1 64 3e 67 89 36 3e c0 1f 91 3e 5d 7f a6 3e
       0.22333315 0.17825852 0.28344536 0.32519045
000080 49 a5 7c 3e 40 a1 1e 3e 64 81 d0 3d 92 37 df 3e
       0.24672426 0.154912 0.10180929 0.43597084
000090 6c d3 61 3e 49 f6 c2 3e 39 6a 96 3e 59 59 71 3e
       0.22053307 0.38078526 0.29377916 0.2356924
0000a0 26 37 24 3e ff 02 47 3e 6a 7e 2b 3e 44 2f 97 3e
       0.16036662 0.19434737 0.16747442 0.29528248
0000b0 84 5f 92 3e 82 fb a2 3e f9 3f 82 3e 4e 9a bf 3e
       0.28588498 0.3183251 0.25439432 0.37422413
0000c0 e1 f6 45 3e b2 7f 49 3e 87 cd e7 3d 5b 0e c9 3d
       0.19332458 0.19677618 0.11318498 0.09817191
0000d0 9a 84 92 3e 6b ad 3b 3e b6 b0 6f 3e 0d 8c df 3e
       0.28616792 0.18327872 0.23407254 0.43661538
0000e0 50 92 45 3e 2a 88 5e 3e b7 3d 32 3e 42 11 7e 3e
       0.19294095 0.2173163 0.17406355 0.24811271
0000f0 5d db 49 3e 37 04 82 3e 26 92 a6 3e 2f 53 ab 3e
       0.19712587 0.2539384 0.32533377 0.33461902
000100 90 bb 5c 3e c8 2b 9d 3e f2 0e 4a 3e 08 9d af 3e
       0.21555924 0.30697465 0.19732264 0.34299493
000110 26 30 1a 3e ce 07 04 3e 4d 2b 24 3e 31 c3 88 3e
       0.1505743 0.12893602 0.16032143 0.2671142
000120 e7 7a ae 3e 35 4d 62 3e 02 55 fb 3e 28 e9 81 3e
       0.34078142 0.22099765 0.49088293 0.25373197
000130 aa ab e9 3d 3c e4 aa 3e df 33 32 3e 46 df d9 3e
       0.114096954 0.33377254 0.174026 0.42553157
000140 d9 d6 42 3e 5f cb d1 3e 5e c9 c4 3e a7 ea 90 3e
       0.1902727 0.40975472 0.3843488 0.28304026
000150 7c 57 1e 3e ab b1 44 3e 41 8f da 3e 1d dd 43 3e
       0.1546306 0.192084 0.4268742 0.19127317
000160 47 e0 38 3e b0 66 ab 3e ce 8c c8 3e 11 a1 a8 3e
       0.18054305 0.33476782 0.39169925 0.32935384
000170 1b f2 02 3f c0 10 97 3e b4 d9 63 3e eb 50 ce 3e
       0.51150674 0.29504967 0.22251016 0.4029611
000180 74 82 ab 3e ea 15 30 3e 50 f8 8b 3e 53 ef 11 3e
       0.33497965 0.1719586 0.27337885 0.14251451
000190 41 da d0 3e 4f 6a 8d 3e 52 4b 81 3e b3 ff 75 3e
       0.40791515 0.2762017 0.25252777 0.24023323
0001a0 6d f2 44 3e 31 d1 88 3e 0d 8b 53 3e bd cb b8 3d
       0.19233103 0.267221 0.20658512 0.09023235
0001b0 e4 de a0 3e 2c 28 c6 3e e0 62 dc 3d 0f 36 67 3e
       0.31420052 0.38702524 0.107610464 0.22579215
0001c0 81 26 b5 3e 91 00 55 3e ec 6c a3 3e 4f be cd 3e
       0.3538094 0.20800997 0.31919038 0.40184256
0001d0 3a 29 d3 3e bb ad 6c 3e d4 70 5b 3e 9a 36 50 3e
       0.4124239 0.23113148 0.2142976 0.20333329
0001e0 82 4a 0e 3e 9c 52 ab 3e 52 da b6 3e 44 e7 48 3e
       0.1389561 0.33461463 0.3571344 0.19619471
0001f0 4b 00 89 3e 70 db 86 3e 4a 83 be 3d db ce 2c 3e
       0.26758036 0.26339293 0.09302385 0.16875784

feature_extractor.4.weight f4 [128, 128]
000000 fd b2 4c bc 7a ea 51 3d 1e d6 59 3d 91 50 4f 3d
       -0.012493846 0.051249005 0.053182714 0.050613943
000010 a2 b3 30 bd 06 fc 33 3d 28 48 73 3d c2 31 92 bc
       -0.04314006 0.04394152 0.059394985 -0.017845992
000020 ce 70 3b 3d ce 2b b4 bd 10 93 63 bd cb 4c 65 bd
       0.045761876 -0.087974176 -0.05556017 -0.05598144
000030 5e 77 91 bd f7 ca 87 3d 91 66 89 3d d6 cd 2c 3c
       -0.071028456 0.06630509 0.06709016 0.010547122
000040 14 52 61 3b 4f 1d 2a 3b 82 42 26 bd 68 da a4 3d
       0.0034381198 0.002595741 -0.04059077 0.0804947
000050 a0 0e 2b bd df c0 0a bd f6 17 bd 3c 02 b4 49 3d
       -0.041761994 -0.033875342 0.023082715 0.049243934
000060 f2 eb 8a bd 9a dc d9 bb e6 28 ad bd 08 a8 91 3d
       -0.06783284 -0.006648612 -0.084550664 0.071121275
000070 24 b8 d2 3c b0 29 5d 3d 8b 65 87 3c 34 13 fb 3b
       0.02572257 0.053994834 0.016527912 0.0076622013
000080 76 a5 6f 3c 96 d3 a3 bd a8 51 8f 3d a5 52 b3 3d
       0.014626851 -0.07999341 0.069979966 0.087559976
000090 29 86 89 bd df f8 c2 bb 25 fa 9b 3d 2e 1d 31 bd
       -0.06715042 -0.005950078 0.07616071 -0.04324072
0000a0 ff d9 be 3d 81 90 97 3d c8 49 7e bd ac ab 63 bd
       0.09318923 0.07400609 -0.062082082 -0.05558364
0000b0 9a ef d1 bc d0 41 46 3d e4 f8 3c bc 60 5e f0 3c
       -0.025626946 0.048402607 -0.0115339495 0.029341877
0000c0 f9 fc 6c bc 87 44 3b 3d 7f 8b 58 3d 84 ad 29 bd
       -0.01446461 0.04571965 0.05286741 -0.041425243
0000d0 de 26 81 bd 30 9c 69 3d 13 9a 58 bd da 39 3d bd
       -0.063062415 0.057033718 -0.05288131 -0.04619775
0000e0 13 0f 64 3d ed 19 e9 3c bd 26 41 3d b7 3e be bd
       0.05567844 0.028454745 0.047156084 -0.09289306
0000f0 aa 3b 20 bd 74 7e bb bc ed a9 32 bb ad b6 9a bd
       -0.0391194 -0.022887446 -0.0027261928 -0.07554374
000100 b2 dd a2 bd d5 99 d7 3d 7f 12 97 bc f5 e8 f7 3a
       -0.07952441 0.10527388 -0.018441437 0.0018914031
000110 c3 aa 12 bd e7 af 7a bd b6 44 bc 3c b8 c9 04 3d
       -0.035807382 -0.06120291 0.022981983 0.032418936
000120 23 d2 58 bd 57 14 9e bd 30 db be 3d c7 20 94 3d
       -0.052934777 -0.07718723 0.093191504 0.07232814
000130 a1 24 c7 3c 1b b2 8c 3d 12 7a e0 3c ff 8b 20 bd
       0.024309458 0.068699084 0.027401958 -0.03919601
000140 02 d7 37 bd 0c c0 b7 3c 42 59 74 3d 0c d1 d4 bc
       -0.04488278 0.022430442 0.059655435 -0.025978588
000150 1e a5 91 bd c6 d6 9d 3b 2d 40 a3 bc 96 e1 df bc
       -0.07111572 0.0048168628 -0.019928062 -0.027329247
000160 7b fc 10 3a 45 5f 52 bc a9 bc e2 bc 81 54 9f bd
       0.00055307866 -0.012840097 -0.02767785 -0.0777979
000170 5a ff 47 bd db 57 4a bd 77 90 13 3d 0d 16 84 3d
       -0.048827507 -0.04940019 0.036026444 0.06449518
000180 98 da ad bd 10 0e 3b 3d e8 db 31 3d d0 0e 75 3d
       -0.08488959 0.045667708 0.04342261 0.05982858
000190 a6 f5 ac 3d 24 4f e7 3b 95 0e 7e 3d 87 7f a7 3c
       0.08445291 0.007058995 0.062025625 0.020446552
0001a0 7f ae 63 bd d7 7d 93 3c 88 be f9 3c 22 05 b9 bd
       -0.055586334 0.018004341 0.03048636 -0.09034182
0001b0 9e 97 dd bc 23 9e a1 3d 02 96 29 bd 60 ce 07 bd
       -0.027049836 0.0789149 -0.041402824 -0.0331558
0001c0 46 38 96 3c 4d 42 8b 3b 0b 71 97 bd 9e a0 c0 3c
       0.01833738 0.004249847 -0.07394608 0.023514088
0001d0 21 72 49 bc 35 06 6f bd 13 a3 13 bd 45 00 7b bc
       -0.012295277 -0.05835553 -0.03604419 -0.0153198885
0001e0 fa 70 d2 3a e6 69 ca 3b fa 01 41 3d 4f 94 e6 3c
       0.0016055398 0.006177175 0.047121026 0.02814689
0001f0 e8 2d 8b 3c a2 fb 7f 3d 5d b0 6a 3c bf 54 47 3b
       0.016989663 0.062495835 0.014324275 0.0030415503
000200 d3 0c ec 3b ed fb c7 bd 76 70 63 bc 2a 69 a5 bd
       0.007203677 -0.09764848 -0.013881793 -0.08076699
000210 b4 9a 35 bc 3a 9a 9e bc 96 5f b4 3c 7e fc 5b 3d
       -0.011084247 -0.01936065 0.022018235 0.053707592
000220 2e 26 3d bd d2 63 70 bd 81 1e 8a bd 2b e9 58 3d
       -0.04617899 -0.058688946 -0.067440994 0.05295674
000230 e7 eb 4d 3d 2a 3f 00 bd 36 13 0c bd 69 7e 1b bd
       0.050273802 -0.031310238 -0.03419801 -0.03796235
000240 f1 82 a2 3c 36 66 2a 3c 66 75 94 bc 81 1f 2f bc
       0.019837828 0.010400346 -0.018122386 -0.010688663
000250 0d f2 46 bd c4 ec e1 3c 8c ce 09 3d 4b e7 69 bd
       -0.04857068 0.027578719 0.033644244 -0.057105344
000260 02 ba fb bc 08 e2 47 3d 6a 2f 6d 3c aa 91 d3 3d
       -0.030728344 0.048799545 0.014476636 0.103305176
000270 73 8a 60 bd 1e c8 ab bd 31 db 8f 3d ad 0f f5 3c
       -0.054819535 -0.08387779 0.07024229 0.029914701
000280 12 0a 75 bc d4 63 76 3d 7a a1 9a bd 98 2f 60 ba
       -0.014956014 0.060153797 -0.075503305 -0.0008552014
000290 f9 1b 16 bd 13 be 4d bd 8f e9 8f bd 80 65 55 3d
       -0.03664777 -0.050230097 -0.0702697 0.05209875
0002a0 f4 41 23 bd 20 26 14 bd 46 75 ac 3c 76 a8 50 3d
       -0.03985782 -0.03616917 0.021052014 0.050941907
0002b0 69 49 a7 3d 9e 1f 71 bd aa e7 02 bd 37 63 df 3c
       0.08168299 -0.058868043 -0.031959213 0.027268989
0002c0 c5 0d 16 3d 92 85 ac 3d e7 ab 25 3d 9d 60 df 3c
       0.036634225 0.08423914 0.040447142 0.027267748
0002d0 02 f8 54 bc 08 b8 66 bd 0f 51 05 bd 84 08 a0 bd
       -0.012998583 -0.05632785 -0.032548007 -0.07814124
0002e0 79 10 84 3d 09 4d 61 3d 5f 71 6a bd fa 51 0a bd
       0.064484544 0.055005107 -0.057237025 -0.033769585
0002f0 ca 84 58 bd 52 3b ea 3d 53 2a 8e 3c ee 7e cf bc
       -0.052861013 0.11437096 0.017354166 -0.02532908
000300 0a 57 bc 3a db b2 df 3b 15 df 19 3d 11 8b 76 3d
       0.0014369201 0.006826741 0.037566263 0.060191218
000310 3b d9 93 bc 3c 16 6d 3d a3 11 07 bd ba 9c 58 bd
       -0.01804792 0.057882532 -0.032975804 -0.05288384
000320 d7 93 ec bc f4 b2 6f 3d e6 cf 5a 3d b6 91 5d bc
       -0.02887909 0.058520272 0.053420924 -0.01352351
000330 eb b1 74 bd f1 0e a0 bd fe 64 a4 3c 88 2f a1 3b
       -0.05973999 -0.0781535 0.020067688 0.0049189962
000340 fb a2 5b 3d e5 49 b3 3d a1 3b c1 bd db 87 66 3d
       0.053622227 0.08754329 -0.094352014 0.056281906
000350 54 7c 9d bd 13 de 9e bc 49 46 27 b9 09 ac 29 3d
       -0.07689729 -0.019393003 -0.00015952544 0.04142383
000360 99 0b 9c 3d 28 13 a2 bc 32 45 83 3d 5c 03 86 bd
       0.076193996 -0.019784525 0.06409682 -0.065436095
000370 55 0b 96 3d ee c6 22 bd 4f 99 8e 3d b4 6c c5 bd
       0.0732638 -0.039740495 0.06962835 -0.09639874
000380 1b 32 6f 3d df fb 17 3d b5 54 5a bd 7a 1f 75 bd
       0.058397394 0.037105437 -0.05330344 -0.05984447
000390 d8 72 16 3c db 29 a6 3d 9b 18 2c bc bf b2 c9 bd
       0.009182654 0.08113452 -0.010503913 -0.09848546
0003a0 84 06 7b 3d 9f 7c cf bc 0b 6c 90 bd c6 ff 3b 3d
       0.06128551 -0.025327979 -0.070518576 0.04589822
0003b0 8f b1 2a bd 5d 27 5d 3d 6f 36 8e 3c a1 3d 45 bc
       -0.04167324 0.053992618 0.01735994 -0.012038619
0003c0 2d 60 84 3d 6f 72 48 bd 94 0b 90 3c 4e f6 34 bc
       0.064636566 -0.048937257 0.017583646 -0.011045052
0003d0 52 e3 b2 bd 79 1d 10 bd 3a 21 13 3d 09 e2 44 bd
       -0.08734764 -0.035184357 0.03592036 -0.048067126
0003e0 ad 2d 4c bd 7b ce 45 3d 77 e1 8d bd 87 1a 68 3b
       -0.049848247 0.04829262 -0.0692777 0.0035416202
0003f0 ba ae ae 3d 26 b2 5f bc bb b7 18 3b 02 69 8b bc
       0.0852942 -0.013653314 0.0023302871 -0.017017845

feature_extractor.4.bias f4 [128]
000000 99 31 0b 3d e6 18 83 3d 59 68 42 3d aa 40 33 3d
       0.033982847 0.064012334 0.047462795 0.04376284
000010 ba d4 67 3c 3c 72 02 3d e6 6c 31 bd d9 23 9b 3d
       0.014149839 0.031847224 -0.043316744 0.07575197
000020 30 ef 29 3c 9e d9 b4 bc cb d8 2f bb a3 34 1f bb
       0.010371968 -0.022076424 -0.00268321 -0.0024292849
000030 de 9d d7 3c a8 ef 48 bd ff 3f a1 3d 01 92 2e 3d
       0.026320394 -0.04905668 0.078735344 0.04261971
000040 a6 03 63 bd 1b 0d a9 3c a5 12 e6 b9 6c b0 96 3d
       -0.0554234 0.020636132 -0.0004388291 0.073578686
000050 58 f8 8f bd 2b 52 5f bc 8b f8 96 3d be 3d 2e bd
       -0.0702979 -0.01363043 0.073716246 -0.04253935
000060 7b 90 12 3c fa c8 29 3b c9 a6 83 bc ea 04 a1 3c
       0.00894558 0.0025907145 -0.01607074 0.019655664
000070 6c f3 9a bd 49 2c ab 3c fc 1b 7e 3d 05 db c4 3c
       -0.0756596 0.02089514 0.062038407 0.024030218
000080 54 46 96 3b 5c f4 00 bd 07 a5 e9 3c bd ba 0d bc
       0.0045860205 -0.03148304 0.028521074 -0.008650479
000090 f4 3a 15 bd be df 8d bc 46 ba 38 bd 4b 37 93 bd
       -0.036433175 -0.017318603 -0.04509952 -0.07188281
0000a0 b4 40 a9 3d e7 f7 f3 bc 6b ba d0 bc 3d 22 81 bd
       0.08264294 -0.029781295 -0.025479516 -0.063053586
0000b0 e1 ce 2c 3b ac 53 97 bd e2 2c 09 bb ad 2e 5f bc
       0.0026368427 -0.07389006 -0.0020931293 -0.013621968
0000c0 8e 75 81 bd 66 f2 d7 3c a2 f1 ac bd 78 48 89 3d
       -0.0632125 0.026360702 -0.08444525 0.067032754
0000d0 75 2d 12 bd 12 35 a4 bd e1 79 86 bd 6d bf 47 3d
       -0.035687882 -0.08017935 -0.06566215 0.048766542
0000e0 33 cc 91 3d 26 5e 41 3b 0e 1a 74 3c f5 88 8e 3d
       0.07119026 0.002950558 0.01489879 0.06959716
0000f0 f0 ae 02 bd f4 70 51 bd b9 7d 48 bd 2f da 57 bd
       -0.031905115 -0.05113311 -0.048948023 -0.05269831
000100 c7 0e 4d 3d fc ea e8 bc 05 51 15 bd 76 01 80 3d
       0.05006292 -0.028432362 -0.03645422 0.06250279
000110 d3 46 d6 3b fb 5a 82 3d 82 2b 8a bd 0d db 62 bd
       0.0065392046 0.063650094 -0.0674658 -0.055384684
000120 b5 ef 84 bd d3 2f 24 3d 18 1b 41 bd 44 3a 3d bd
       -0.06491033 0.04008467 -0.04714498 -0.046198145
000130 cf 06 86 3d 2f 43 e3 3c f8 5e b1 bd 2d 1e 9b bd
       0.065442674 0.027741997 -0.08660692 -0.07574115
000140 41 0f 2a 3d 74 6c af 3c 20 38 41 bd 12 d2 94 3d
       0.041518454 0.02141402 -0.047172666 0.0726663
000150 d4 4f 01 bb 65 50 30 3a 88 e9 fc 3c fc 8d a4 3d
       -0.001973142 0.0006725847 0.030873075 0.08034894
000160 83 ed 26 3b ff 5c 12 bd 60 b7 ae 3d e0 27 7e 3d
       0.0025471158 -0.03573322 0.0853107 0.062049747
000170 45 95 42 3c 27 41 27 3d 1d f9 57 bc 4f 8c 80 3d
       0.011876409 0.04083362 -0.013181952 0.06276762
000180 11 55 b0 bd 60 d7 b5 bc ed 46 a4 bd a1 99 a1 3c
       -0.08609975 -0.022197425 -0.080213405 0.019726576
000190 90 88 9e 3d 59 0c b5 3d 5b 11 99 bc 01 8d 2e bd
       0.07740891 0.08840246 -0.018685034 -0.04261494
0001a0 2c eb 34 3d 61 9d 1f 3d bf 8a a3 3c a9 51 e4 bc
       0.04416959 0.038968448 0.01996362 -0.02787097
0001b0 33 aa 91 ba f2 40 46 3c cd f3 3d 3c 67 bd 4a bd
       -0.0011113345 0.012100445 0.011593771 -0.049497034
0001c0 3f b1 87 bd 51 9f 9b 3d fa 0e 80 3b 93 f1 84 bd
       -0.06625604 0.075987466 0.0039080353 -0.06491389
0001d0 66 14 61 3d d9 9f 59 3c 61 e5 6a bd e0 00 85 3d
       0.054951094 0.01328274 -0.05734766 0.064943075
0001e0 44 52 af bd a1 39 72 bd 77 cf 38 3d e5 91 54 bd
       -0.08560613 -0.05913699 0.04511973 -0.05189695
0001f0 df 38 aa 3c b3 10 71 3d 54 67 94 bd 9b 21 98 3c
       0.020779071 0.058853816 -0.07246271 0.018570712

feature_extractor.5.weight f4 [128]
000000 3d 02 84 3f 75 ff 7c 3f e1 74 79 3f 9e d0 7f 3f
       1.0313183 0.98827296 0.9744397 0.999277
000010 24 5e 84 3f 83 d8 82 3f 69 db 7c 3f e4 4d 82 3f
       1.034123 1.0222324 0.98772293 1.018002
000020 06 1e 80 3f fc 81 7d 3f 62 1f 7e 3f 70 c3 7b 3f
       1.0009162 0.99026465 0.99266636 0.9834509
000030 1e 69 7e 3f 47 ff 7a 3f 7b cc 7d 3f 68 85 80 3f
       0.99379146 0.9804577 0.9914014 1.0040712
000040 e4 cf 7c 3f a6 b7 82 3f 35 7e 82 3f 81 41 85 3f
       0.98754716 1.0212295 1.0194765 1.0410615
000050 a5 6f 7e 3f 23 9b 7b 3f 04 8d 78 3f 03 73 83 3f
       0.99389106 0.98283595 0.9709017 1.0269474
000060 42 4e 7c 3f 2c 81 7d 3f 70 9d 7e 3f 20 fb 7c 3f
       0.9855691 0.99025226 0.9945898 0.98820686
000070 58 80 7b 3f 16 1d 82 3f 11 3e 7d 3f 6b 72 7c 3f
       0.9824271 1.0165126 0.9892283 0.9861209
000080 98 52 7d 3f 06 b2 7d 3f 7c 8c 7c 3f 31 75 86 3f
       0.98954153 0.9909977 0.9865186 1.0504514
000090 59 42 7d 3f b8 fb 7c 3f 55 f5 7a 3f a5 c5 7b 3f
       0.98929363 0.9882159 0.98030597 0.98348457
0000a0 b9 fd 7e 3f 2e 43 81 3f 80 58 83 3f f2 60 83 3f
       0.996059 1.0098627 1.0261383 1.026396
0000b0 d5 ad 80 3f 04 25 80 3f 71 70 83 3f 42 9e 7c 3f
       1.0053049 1.0011296 1.0268689 0.9867898
0000c0 3f f0 7d 3f 67 ea 7f 3f 27 98 81 3f c2 ac 80 3f
       0.9919471 0.99967045 1.0124558 1.0052722
0000d0 06 59 83 3f 20 a1 82 3f 11 e5 7d 3f 01 b8 7e 3f
       1.0261543 1.0205421 0.9917765 0.9949952
0000e0 42 85 7b 3f 3e cf 79 3f f1 b3 79 3f b8 51 7c 3f
       0.9825021 0.9758185 0.97540194 0.9856219
0000f0 ef 17 7b 3f 08 e4 7b 3f f7 14 7a 3f da e0 80 3f
       0.98083395 0.98394823 0.9768824 1.0068619
000100 71 4f 81 3f df 43 7c 3f 7d 81 7b 3f 4b e5 7b 3f
       1.0102369 0.98541063 0.9824446 0.9839675
000110 50 59 7d 3f 8f d8 7a 3f 00 0f 81 3f 2b c9 7e 3f
       0.98964405 0.9798669 1.0082703 0.9952571
000120 84 50 7d 3f 77 f6 88 3f 96 6c 7c 3f e4 e0 7e 3f
       0.9895098 1.0700215 0.9860319 0.99561906
000130 9a e7 83 3f 3f ff 7e 3f ea 20 7d 3f 4e 27 80 3f
       1.0305054 0.99608225 0.9887835 1.0011995
000140 48 8a 84 3f 82 eb 82 3f 99 49 7f 3f 10 ee 7f 3f
       1.03547 1.0228121 0.99721676 0.9997263
000150 c9 d2 80 3f 6f b3 80 3f 7e 24 7b 3f f4 31 81 3f
       1.0064327 1.0054759 0.9810256 1.009337
000160 da 3d 81 3f 15 e6 81 3f 9b 5c 7c 3f d0 8b 7e 3f
       1.0097001 1.014834 0.98578805 0.99432087
000170 48 72 7d 3f 86 76 7d 3f ff 90 7b 3f 5f 71 7d 3f
       0.99002504 0.9900898 0.9826812 0.99001116
000180 69 d3 7d 3f 6e d9 80 3f a4 ed 7b 3f b7 ec 7c 3f
       0.9915071 1.0066354 0.98409486 0.987987
000190 57 a1 7a 3f b3 8e 7d 3f 18 a2 81 3f cf 70 7c 3f
       0.97902435 0.99045867 1.0127592 0.9860963
0001a0 85 2b 7b 3f 98 69 7b 3f f0 e8 83 3f 2d 7c 7b 3f
       0.9811328 0.98208 1.0305462 0.9823635
0001b0 32 25 7b 3f cd 82 7d 3f e1 a9 81 3f f3 5b 7b 3f
       0.9810363 0.9902771 1.0129968 0.9818718
0001c0 82 57 85 3f 97 b4 82 3f 56 c6 7a 3f 2b 2e 7c 3f
       1.041733 1.0211362 0.97958887 0.98507947
0001d0 ef b9 80 3f a4 30 7c 3f f0 4e 7c 3f 3c a1 80 3f
       1.0056742 0.9851172 0.9855795 1.0049205
0001e0 a2 97 81 3f 8e d1 7e 3f 92 35 7a 3f c4 d4 7c 3f
       1.01244 0.99538505 0.9773799 0.98762155
0001f0 a5 64 7b 3f 7c 1f 7d 3f c8 cd 7b 3f 21 49 7c 3f
       0.98200446 0.98876166 0.9836087 0.98549086

feature_extractor.5.bias f4 [128]
000000 53 37 b3 3c 51 0a a0 bb 27 74 9c bc ed 1d ae 3c
       0.021876967 -0.0048840423 -0.019098355 0.021254504
000010 01 44 aa 3c c8 20 c9 3c e5 f6 1e bc bc 13 31 3c
       0.02078438 0.024551764 -0.009702419 0.010807928
000020 da 50 ff b7 9f 2a 2c bc 9e 63 94 bb 56 0a 44 ba
       -3.0436018e-05 -0.010508209 -0.004528477 -0.0007478347
000030 fc 28 5a 3b 80 f9 38 bc cc b6 5d bc ee b6 74 3c
       0.0033288589 -0.011289954 -0.013532352 0.014936192
000040 26 2d 3c bc 81 bd df 3c 17 ce 22 3d cb ad 0b 3d
       -0.011485374 0.027312042 0.039747324 0.03410129
000050 e9 2f a7 bb 40 ba 41 bc 85 92 7c bc f3 1d 2d 3c
       -0.005102147 -0.011824191 -0.015415792 0.0105662225
000060 71 98 3b bc 94 78 be ba 95 a4 e8 bb 46 10 2b bc
       -0.011449919 -0.0014531785 -0.007099698 -0.010440892
000070 27 83 33 bb 0b 57 a5 3c a0 04 1c bb 14 df 6f bc
       -0.0027391405 0.020183107 -0.0023806468 -0.014640588
000080 9d 38 cb bb ed 1a 3d bc b5 4c 7f bc 8a d3 59 3d
       -0.006201817 -0.011542064 -0.015582253 0.053180255
000090 8d 7b 00 bc f5 59 28 bc 5a 26 b2 bc 52 6a e3 bb
       -0.007841957 -0.010275354 -0.021746803 -0.0069401646
0000a0 f9 e8 85 bb e6 26 06 3c 44 0e ca 3c e7 9a 0a 3d
       -0.0040866104 0.008187985 0.024665006 0.033839133
0000b0 4d 2c 15 3c ee 64 4c bb 85 fd 24 3d b9 dd 6d bc
       0.0091048 -0.0031188088 0.040280838 -0.014518195
0000c0 38 7e e7 bb 15 6a 9a 3c 6e 86 02 3c ec fb 57 3c
       -0.007064607 0.018849412 0.007966621 0.013182621
0000d0 11 a6 26 3d 39 d9 03 3d 3b af 66 ba 76 f2 c6 bb
       0.040685717 0.03218958 -0.0008799915 -0.006071384
0000e0 65 5a 5c bc 57 16 5a bc ed 3f 86 bc f9 fe 38 3b
       -0.013449286 -0.01331099 -0.016387904 0.0028228147
0000f0 33 0c 86 bc f9 c2 60 bc 5a a6 d9 bc ea be 33 3c
       -0.016363239 -0.01371836 -0.02656858 0.01097081
000100 72 84 3e 3c 0a cf f1 ba 5e 59 2d bc ad a0 03 bc
       0.011628257 -0.0018448543 -0.010580389 -0.008033914
000110 24 be a7 bc 0c c6 12 bc d0 54 4b 3c 9b ed 5b bb
       -0.020476408 -0.008958351 0.012410358 -0.0033558372
000120 bb 77 a5 bb 50 99 32 3d f6 ce 2e bc f0 39 97 bb
       -0.0050496734 0.04360324 -0.0106694605 -0.004615061
000130 61 1d b7 3c d6 62 ca 3b 9c be cd bb 70 96 51 3b
       0.022352876 0.006176333 -0.006278826 0.0031980537
000140 2c 6b 2c 3d 72 89 b3 3c d3 ee 16 3c 08 b1 48 3c
       0.042094395 0.021916125 0.009212214 0.012249239
000150 69 9d ad 3c 87 19 4b 3b cd 95 05 bc 5d be b3 3c
       0.021193223 0.0030990557 -0.008153391 0.021941358
000160 e0 c0 ca 3c 05 71 a0 3c aa 56 6b bc 55 75 91 ba
       0.024750173 0.019585142 -0.014363924 -0.001109759
000170 c1 d3 80 bb 14 32 b5 bc 9e 0b c8 bc e0 2b 8e bb
       -0.003931493 -0.022118606 -0.024419602 -0.0043387264
000180 5f 57 23 3b 92 c5 2d 3c 5b 22 c3 bb d5 d0 15 bc
       0.0024923903 0.010606186 -0.005955023 -0.009144028
000190 ae 6f 6f bc 6c 5d 69 bc ba 2c bd 3c 83 6f 7a bc
       -0.014614029 -0.014243465 0.023092616 -0.0152853755
0001a0 f7 7e 70 bc 50 3e 30 bc b5 d4 0a 3d 65 d1 08 bb
       -0.014678708 -0.010757044 0.03389426 -0.0020876762
0001b0 3d cc 88 bb 8f 08 43 bb 29 cd b0 3c fe bb 9c bc
       -0.0041747377 -0.002975974 0.021582203 -0.01913261
0001c0 1b 1b 27 3d 23 24 fc 3c 41 63 ab bc 57 af 23 bc
       0.040797334 0.03077895 -0.020921351 -0.009990535
0001d0 e6 e9 6d 3c 71 e5 c3 bb 1b ad 05 bc 6b c8 d2 3c
       0.014521098 -0.0059782793 -0.008158947 0.025730332
0001e0 bd cd 98 3c ea 07 f9 ba 07 b6 ae bc 37 6a e7 bb
       0.018652791 -0.0018999551 -0.021327032 -0.0070622223
0001f0 3f 59 00 bc 24 5c 02 3c cf 3c f5 ba d7 43 3c bc
       -0.007833778 0.007956538 -0.0018710139 -0.011490784

feature_extractor.5.running_mean f4 [128]
000000 d2 a6 17 3e ff c3 1a bd a8 70 04 bf ea 28 ef 3d
       0.1480973 -0.037784573 -0.517344 0.116777256
000010 e0 72 c0 3d 9e f7 ff 3d a0 3f ce 3e a4 6d c2 bd
       0.09396911 0.12498401 0.40282917 -0.094935685
000020 81 01 33 be 0a 7f 4a 3e 74 cd c1 3c 78 d1 9a 3d
       -0.17481042 0.19775024 0.023657538 0.07559484
000030 ac e8 82 3c f1 17 95 be 3e 83 98 bd 01 74 38 3e
       0.015980087 -0.29119828 -0.074469075 0.18013002
000040 26 44 1d be 9e 97 a0 bd e6 19 0c bf 6f f0 68 be
       -0.15358028 -0.07841419 -0.5472702 -0.22747968
000050 e2 19 56 bd a8 d6 60 3e 4a 09 13 3f 78 57 03 3c
       -0.052270778 0.21956885 0.5743605 0.00801646
000060 fe 48 54 3e ca c4 a0 3d 68 78 dd be 0a 3d a6 bd
       0.2073097 0.078500345 -0.43255925 -0.08117111
000070 a1 80 2a 3e bc cf 91 3d a5 4c 40 be c7 fb e2 bd
       0.1665063 0.071197 -0.18779238 -0.11083179
000080 24 a7 97 bd f5 05 bf be e4 46 bd be f8 6e 1f 3e
       -0.074049264 -0.37309232 -0.36968148 0.15569675
000090 34 3c b1 3e 6a 96 e5 be 4f 5d cf be 32 f9 84 bd
       0.34616244 -0.4484132 -0.40500876 -0.06492843
0000a0 d2 ae 17 bd c4 dd e2 be 4a 7c b2 bc 6a 64 b8 3c
       -0.037031956 -0.4430982 -0.021787781 0.022508819
0000b0 37 58 83 3e a8 f3 6c bd 08 5d 19 bf 7c 29 e1 bd
       0.2565324 -0.057849556 -0.5990758 -0.10994241
0000c0 38 87 81 be b3 8b 1c be ad 5e 7c 3e 9f 4f 2c be
       -0.25298476 -0.15287666 0.24645491 -0.16827248
0000d0 b2 18 7e be 2e 6e dc bd c8 6a 8e bd 3f 3e 1b 3e
       -0.24814108 -0.107632026 -0.06953961 0.15160464
0000e0 b9 e9 23 3e db 08 74 3e 20 cd 07 3f 0b cc 3f bd
       0.16007127 0.23831503 0.5304737 -0.04682545
0000f0 96 71 9f be ec 79 7c be 52 7f 6a bd e8 9e 0e be
       -0.31141347 -0.24655885 -0.05725033 -0.13927805
000100 61 91 95 3d 6e 0c 37 bc 7f 36 c0 bd cc 1a c1 3d
       0.073031195 -0.011172397 -0.09385394 0.09428939
000110 ec bd ee be 13 92 12 3e 2c 94 07 be 44 17 cf be
       -0.46629274 0.14313535 -0.13240117 -0.40447438
000120 0d 30 13 3b 00 cc 2c 3e 80 54 e0 be 27 6a de bb
       0.002245906 0.16874695 -0.43814468 -0.0067875567
000130 be 78 8e be 43 36 26 be 29 79 d0 be 1f 9d 96 3e
       -0.27826494 -0.16231637 -0.40717438 0.2941675
000140 92 bd 7a 3e be 8f 01 3e 1c 39 6c 3e ba 54 32 be
       0.24486378 0.1265249 0.2306866 -0.17415133
000150 b4 d9 87 3d d0 3b 81 be dc 85 da 3d 7d ec 43 bd
       0.066333205 -0.25240946 0.10670063 -0.047832955
000160 75 e4 c6 bd 70 12 0b be 58 ca af 3e c6 fe 27 bf
       -0.097115435 -0.13581252 0.34334064 -0.6562313
000170 89 de 7b be b2 db ad 3e 22 a2 2f bd 0e a9 c6 3d
       -0.24596609 0.33956677 -0.04287923 0.097002134
000180 53 ff 82 be 5f e9 88 be f7 c2 dd be 25 66 79 be
       -0.25585422 -0.26740548 -0.4331281 -0.24355371
000190 b2 ba ec 3e 85 07 94 be af b6 20 3e ad 47 c7 be
       0.46236187 -0.28911987 0.15694688 -0.38921872
0001a0 9f 25 f2 3d 87 6c 82 be 60 3a 83 bd aa 53 1c 3b
       0.11823582 -0.25473425 -0.064076185 0.0023853579
0001b0 af 7e d9 3e 84 04 54 3c a3 59 b2 3d 2c 32 9d 3e
       0.42479464 0.01294053 0.08708503 0.3070234
0001c0 19 eb 5e bd b9 a7 72 3e 6e 54 3e be da a6 ba be
       -0.054423425 0.23696794 -0.18586895 -0.36455423
0001d0 61 3c 75 3e 23 64 71 bd d5 2c 07 bf 51 c3 6f 3d
       0.23948814 -0.05893339 -0.52802783 0.058535878
0001e0 00 12 24 be 01 d6 a1 3d 5f 2b 81 be 7a ec 84 bd
       -0.16022491 0.07902146 -0.25228402 -0.06490417
0001f0 d2 20 3c be 90 0a 19 3e c1 97 a8 be 8b 88 4e 3f
       -0.18371895 0.14945436 -0.3292828 0.806771

feature_extractor.5.running_var f4 [128]
000000 71 98 04 3f 2c be cb 3e 10 9b 93 3e c6 94 1c 3f
       0.5179511 0.39793527 0.2882924 0.6116451
000010 93 2e 17 3f 99 d3 09 3f 36 71 d0 3e 78 aa 35 3f
       0.5905544 0.538385 0.40711373 0.7096324
000020 2d ce a3 3e 89 7c 91 3e 56 48 80 3e 52 4a af 3e
       0.31993237 0.28415325 0.25055188 0.3423639
000030 10 74 5d 3e e9 95 cb 3e 13 8d 86 3e 69 4d 15 3f
       0.21626306 0.3976281 0.26279506 0.58321244
000040 51 72 9b 3e f7 2f 01 3f 8b 9b f6 3e 84 86 0b 3f
       0.30360654 0.50463814 0.48165545 0.5450213
000050 c8 f8 e3 3e 53 37 8f 3e 13 94 d1 3e 0e 3c cb 3e
       0.44525743 0.27971897 0.40933284 0.39694256
000060 dc 03 83 3e 09 e5 e3 3e 65 d7 b1 3e 46 8a 84 3e
       0.25588882 0.44510677 0.34734645 0.25886744
000070 18 58 e7 3e 7b 91 c6 3e 49 39 8f 3e a2 92 97 3e
       0.45184398 0.38782868 0.27973393 0.2960406
000080 70 a4 a3 3e 7e c8 0a 3f 24 58 a4 3e 1f 71 61 3f
       0.31961393 0.54212177 0.32098496 0.88063234
000090 7c 09 b8 3e 0f a6 09 3f ae f0 0c 3f 58 24 a4 3e
       0.35944736 0.5376901 0.5505475 0.32058978
0000a0 50 99 06 3f 92 89 af 3e 99 41 19 3f ca 7b 19 3f
       0.52577686 0.34284645 0.5986572 0.5995451
0000b0 9c 5f c7 3e 75 a8 e7 3e 12 0f 32 3f 4e ba f4 3e
       0.38940132 0.4524571 0.69554245 0.4779839
0000c0 d8 88 76 3e c1 1b cb 3e fd 9d f6 3e 3b 7b e9 3e
       0.24075639 0.39669612 0.4816741 0.4560183
0000d0 36 2d a3 3e b7 9a d3 3e 11 23 0b 3f 39 2f 71 3e
       0.3187043 0.41328976 0.5435038 0.2355317
0000e0 5b 9d 94 3e 65 ac 61 3e 2e ac bd 3e eb 2e 04 3f
       0.29026303 0.2203842 0.37045425 0.5163409
0000f0 2c 97 bc 3e 86 11 83 3e c6 be 82 3e b3 e1 e7 3e
       0.36834085 0.25599307 0.25536174 0.45289382
000100 59 5f fc 3e 03 34 96 3e 06 bb 89 3e 04 17 ba 3e
       0.49291494 0.29336557 0.269005 0.36345685
000110 0c e9 a0 3e db c4 3f 3e f2 97 cd 3e 3a 7e 14 3f
       0.314278 0.18727438 0.40154988 0.58005106
000120 9e 70 78 3e a4 ce 20 3f ce 5c 00 3f d2 22 b7 3e
       0.2426171 0.6281531 0.5014161 0.35768753
000130 78 b6 fe 3e ef 24 ec 3e 4f 5a 98 3e a4 6c fd 3e
       0.49748588 0.46121928 0.297564 0.4949695
000140 f6 9f 61 3f 0b a8 cb 3e a7 2d a9 3e 44 6b cc 3e
       0.88134706 0.39776644 0.33042642 0.39925587
000150 4b fb fa 3e fe c7 00 3f 86 4b b9 3e 5e e5 a8 3e
       0.49019846 0.50305164 0.36190432 0.32987493
000160 11 9d 2d 3f ed 49 8d 3e 10 10 b2 3e d7 57 2b 3f
       0.6781779 0.27595463 0.3477788 0.6693091
000170 f7 5c 0c 3f b5 5b a8 3e 4e 90 ac 3e 66 ca d5 3e
       0.54829353 0.32882467 0.33703846 0.4175598
000180 0c 97 ad 3e 46 77 1e 3f c6 96 da 3e 68 a3 77 3e
       0.33904302 0.61900747 0.42693156 0.24183428
000190 56 6d a0 3e ca d9 b5 3e bc 50 17 3f 97 e6 dd 3e
       0.31333417 0.35517722 0.59107566 0.4333999
0001a0 3f 7e 92 3e 83 d0 8c 3e 90 39 03 3f f2 28 89 3e
       0.28611943 0.27502832 0.5125971 0.2678905
0001b0 98 40 aa 3e 84 4b 04 3f f5 19 cd 3e 46 ec f4 3e
       0.33252406 0.5167773 0.40058866 0.47836512
0001c0 45 1c 34 3f 48 6b 04 3f 39 0f 8d 3e 41 36 b4 3e
       0.70355636 0.517262 0.27550676 0.35197642
0001d0 ad 8f b0 3e 03 5f 58 3e 83 1c d2 3e b4 cb 1a 3f
       0.34484616 0.21129994 0.41037378 0.60467076
0001e0 ca cc ec 3e cc f8 78 3e f6 a8 9c 3e 07 b8 7d 3e
       0.46249992 0.24313658 0.30597657 0.24777232
0001f0 2c 2a a3 3e ef 25 8f 3e 8f 46 b9 3e c3 fc fe 3e
       0.31868112 0.2795863 0.36186644 0.49802217
