models/best_fold5_hd256_do0.3.pth (torch, 425766 bytes, 20 tensors)

feature_extractor.0.weight f4 [256, 10]
0	0x3df805dd	0.12110493
1	0x3e991659	0.29899862
2	0xbe943e0c	-0.28953588
3	0xbdee3b88	-0.116324484
4	0xbde0c68b	-0.10975369
5	0xbd3f202b	-0.046661537
6	0x3deaf17b	0.1147184
7	0xbe562497	-0.20912395
8	0x3c50ac76	0.01273643
9	0x3d36d44f	0.044636067
10	0x3e2ab83b	0.16671841
11	0x3e6ef249	0.23334612
12	0xbe4059be	-0.18784234
13	0xbe93802c	-0.28808725
14	0x3d9f67d3	0.07783475
15	0x3db39500	0.08768654
16	0x3e2cf6f2	0.16891077
17	0xbd2252c0	-0.039629698
18	0xbe820e1a	-0.25401384
19	0xbdf2319b	-0.11825868
20	0xbea7ebb4	-0.32797015
21	0x3e1cebc8	0.15324318
22	0x3c80d463	0.015726274
23	0xbd3757c7	-0.044761445
24	0xbdbce1aa	-0.092227295
25	0x3e0872b4	0.13325006
26	0xbe8ee407	-0.27908346
27	0xbd0d2cad	-0.034466434
28	0x3d3689ac	0.044564888
29	0x3e61b656	0.22042212
30	0x3e15d55b	0.1463217
31	0x3e2877c8	0.16451943
32	0xbdd4a891	-0.10383714
33	0x3d4e93b2	0.050433822
34	0x3dbbc464	0.09168318
35	0x3d1d4f0f	0.038405474
36	0xbd922ef0	-0.07137859
37	0x3e3fd2d4	0.18732768
38	0x3e3b35ed	0.1828229
39	0x3e89d344	0.26918995
40	0xbd5aed9d	-0.053449262
41	0xbe84747a	-0.25870115
42	0xbc10b263	-0.008831593
43	0xbde79828	-0.113083184
44	0xbe93a3ad	-0.28835812
45	0x3d6f312c	0.058396503
46	0xbe644685	-0.22292526
47	0x3e2082c9	0.1567489
48	0x3e17d49c	0.14827198
49	0x3e57322f	0.21015237
50	0x3cd7f564	0.026362129
51	0xbe37482a	-0.17898622
52	0xbdad1803	-0.084518455
53	0x3d7718af	0.060326274
54	0x3bbcacb9	0.005757895
55	0x3d5c9078	0.053848714
56	0xbe1f07a6	-0.15530261
57	0x3d649f19	0.05581579
58	0x3e23603e	0.15954682
59	0x3e273d19	0.163319
60	0x3d911b80	0.07085323
61	0x3d9a10b9	0.07522721
62	0xbe80eb6a	-0.25179607
63	0xbe3f17eb	-0.18661468
64	0xbafa3636	-0.0019089642
65	0x3dc5bb04	0.09654811
66	0xbc76d47e	-0.0150653105
67	0x3e50a101	0.20373918
68	0xbe5be97e	-0.21475789
69	0x3e62db62	0.22154
70	0xbd99393e	-0.07481621
71	0xbe7d1315	-0.2471431
72	0x3e08ca53	0.1335843
73	0xbe97e996	-0.296704
74	0x3b8791ca	0.0041372525
75	0x3e1fe01f	0.15612839
76	0xbda301fb	-0.07959362
77	0xbe8f38ed	-0.27973118
78	0x3d783b3d	0.06060337
79	0xbe92ad5c	-0.28647888
80	0x3e9f72df	0.31142327
81	0xbe061905	-0.13095482
82	0xbda17223	-0.07883098
83	0x3e3e2c55	0.18571599
84	0xbc1ee58a	-0.009698281
85	0x3e381acc	0.17978972
86	0x3e6b2fa8	0.22967398
87	0x3e8b1a14	0.27168334
88	0xbe752edd	-0.23943658
89	0xbe509b85	-0.20371826
90	0x3e977dcd	0.29588166
91	0xbde226d4	-0.11042562
92	0x3e66e282	0.22547343
93	0x3e4bc989	0.19901098
94	0xbe4e7b55	-0.20164235
95	0x3e2786e1	0.16360046
96	0xbd8479d9	-0.06468553
97	0xbe9e4178	-0.30909324
98	0x3cf37f03	0.02972365
99	0x3e9253d3	0.28579578
100	0xbe76efff	-0.24114989
101	0xbe6c295d	-0.23062654
102	0x3e0e8f9d	0.13921972
103	0xbe0a22ee	-0.13489887
104	0xbbed911e	-0.0072499653
105	0xbe3d50d0	-0.18487859
106	0xbdcf98b8	-0.10136551
107	0x3e5c4411	0.2151034
108	0xbdada1e5	-0.084781446
109	0xbe7d1763	-0.24715953
110	0xbe0ca681	-0.13735391
111	0xbc6ceeb9	-0.014461213
112	0xbcee48ff	-0.029087542
113	0x3e3c3b8b	0.18382089
114	0x3e1006fd	0.14065166
115	0x3d926912	0.07148947
116	0x3dbb9fa4	0.091613084
117	0xbe8d184d	-0.27557603
118	0x3e5d58b0	0.21615863
119	0x3e1d55d8	0.15364778
120	0x3e82698b	0.25471148
121	0x3e57c2b8	0.21070373
122	0x3e3df312	0.18549755
123	0xbdef3d04	-0.1168156
124	0xbd7f5377	-0.062335458
125	0x3e724722	0.23659948
126	0x3e5a03bf	0.21290492
127	0xbe9d1587	-0.30680487
128	0x3da3b704	0.07993892
129	0xbddcd831	-0.10783423
130	0x3e8b78a6	0.27240485
131	0xbe0d14c5	-0.13777454
132	0x3e3184c1	0.17335798
133	0xbd85b4d9	-0.065286346
134	0xbe9364b7	-0.28787777
135	0x3e9d59d8	0.30732608
136	0xbd5d4a0c	-0.054025695
137	0xbe08521b	-0.13312571
138	0x3bd0e2a0	0.006374672
139	0x3d8959ba	0.06706567
140	0xbe47bfad	-0.19506712
141	0x3e0c8684	0.13723189
142	0x3dedbbde	0.116080984
143	0xbc21543d	-0.009846744
144	0xbde13945	-0.109972514
145	0x3dca8e16	0.09890382
146	0x3deb3105	0.11483959
147	0x3c926a4b	0.01787295
148	0xbdc2519b	-0.09488221
149	0x3e90edab	0.28306326
150	0x3dac1fad	0.08404479
151	0xbcc9985d	-0.024608785
152	0xbda6cfcd	-0.081451036
153	0xbe798ea6	-0.24370822
154	0x3df45288	0.11929804
155	0xbe134469	-0.14381565
156	0x3e9c98a9	0.3058522
157	0x3e8b3b61	0.2719374
158	0x3bc2b6eb	0.0059422157
159	0x3e443224	0.19159752
160	0x3e9a16ac	0.30095422
161	0xbccbafaa	-0.024864037
162	0x3e09f948	0.13474
163	0x3dc358b6	0.09538405
164	0xbbafdba7	-0.005366761
165	0x3ddaff9a	0.106932834
166	0x3e63e49e	0.2225518
167	0x3df7af69	0.12094004
168	0x3e0a2a1f	0.1349263
169	0xbe8da1ce	-0.2766251
170	0x3ea6e823	0.3259898
171	0x3e39d4f8	0.18147647
172	0x3da6db85	0.08147339
173	0x3e8a355a	0.2699383
174	0xbe06ed7e	-0.13176534
175	0x3e970669	0.29497078
176	0x3e845dd8	0.25852847
177	0xbe1f4d34	-0.15556794
178	0xbdd0cb54	-0.10195032
179	0x3cff9e0c	0.031203292
180	0xbd1b54db	-0.03792272
181	0x3ddcb047	0.1077581
182	0xbe489ec7	-0.19591819
183	0xbe6aa486	-0.22914323
184	0x3e156256	0.14588293
185	0xbdc4784c	-0.09593257
186	0x3e93d85e	0.28876013
187	0x3db17175	0.08664218
188	0x3e79b9d7	0.24387299
189	0xbc1ee17e	-0.009697316
190	0xbe6fe1ff	-0.23426054
191	0x3e775b86	0.24156007
192	0xbddb7ae7	-0.10716801
193	0xbd3a051e	-0.045415036
194	0xbe227dae	-0.15868255
195	0xbe5dab2d	-0.2164733
196	0xbde6dc5f	-0.11272501
197	0xbce72ba5	-0.028219054
198	0x3e346ebe	0.1762037
199	0xbd995522	-0.07486941
200	0xbd30b81f	-0.04314434
201	0x3dd52d29	0.10409004
202	0x3d88ef40	0.06686258
203	0xbdf83a21	-0.12120462
204	0x3e886ee7	0.26647112
205	0xbe489a91	-0.19590212
206	0xbe5ff76d	-0.21871729
207	0xbe768b84	-0.24076658
208	0xbda1c576	-0.07898991
209	0x3e173da2	0.14769605
210	0x3cc94a3f	0.024571536
211	0xbc657be5	-0.01400659
212	0xbe59b22a	-0.2125937
213	0xbe19e46d	-0.15028544
214	0xbe1b93fa	-0.15193167
215	0x3d92c920	0.07167268
216	0x3e179577	0.1480311
217	0xbd8d4f46	-0.06899886
218	0xbe807b1c	-0.25093925
219	0xbe8173a7	-0.25283548
220	0x3e9788e9	0.29596642
221	0xbe8bac6a	-0.2727998
222	0x3dca81b0	0.09888017
223	0x3dad658d	0.08466635
224	0x3d232081	0.03982592
225	0xbe637e3a	-0.2221612
226	0xbbcf7525	-0.0063311034
227	0x3bda3d8d	0.0066601695
228	0x3d79ab02	0.0609541
229	0x3ded4209	0.11584861
230	0xbdc0f170	-0.094210505
231	0x3e1296df	0.14315365
232	0x3e9f47d2	0.31109482
233	0xbe0ec7b5	-0.1394337
234	0xbd5066f8	-0.05087945
235	0xbe1e910a	-0.15485016
236	0x3c893cd4	0.016752638
237	0xbe96f711	-0.29485372
238	0x3e8d8464	0.2764007
239	0xbe99f3ac	-0.3006872
240	0x3db2d261	0.08731533
241	0xbe785b9f	-0.242537
242	0x3e01b468	0.12666476
243	0x3d125827	0.0357286
244	0x3d9545ba	0.0728869
245	0x3e58ee19	0.21184577
246	0x3e596631	0.21230389
247	0xbdefac38	-0.1170277
248	0xbe6047e2	-0.21902421
249	0xbe43c4ca	-0.19118038
250	0x3e4b726f	0.19867872
251	0x3e67799d	0.22604986
252	0x3da64fe6	0.08120708
253	0x3e181509	0.14851774
254	0xbc1c4991	-0.009539024
255	0xbe61d8e3	-0.22055392

feature_extractor.0.bias f4 [256]
0	0x3e1526d0	0.14565587
1	0x3e4e9255	0.20173009
2	0x3e5abd04	0.21361166
3	0xbd1a111b	-0.03761397
4	0xbe83f3a6	-0.25771827
5	0x3e5f99bc	0.21835989
6	0xbd384df4	-0.044996217
7	0x3e9172c3	0.2840787
8	0xbe9ca6a7	-0.30595896
9	0x3deca404	0.11554721
10	0x3e61677a	0.2201213
11	0xbde92dd2	-0.11385693
12	0xbe3f0de7	-0.18657647
13	0x3d61e860	0.05515325
14	0x3e87ff87	0.2656214
15	0xbe6482c8	-0.22315514
16	0xbd88a11e	-0.06671356
17	0xbdf21d68	-0.11822015
18	0x3e86e73f	0.26348302
19	0xbd833daa	-0.06408246
20	0x3e00e3c9	0.12586893
21	0x3e6f103c	0.23346037
22	0xbe34fa12	-0.17673519
23	0xbe4b3e02	-0.19847873
24	0xbdb7a097	-0.08966177
25	0xbe3e57b2	-0.1858814
26	0xbcce0c32	-0.0251523
27	0x3e0f1f50	0.13976789
28	0x3df789c4	0.120868236
29	0xbe3d2d0c	-0.18474215
30	0x3de36d85	0.111048736
31	0x3e444a98	0.1916908
32	0xbe994b95	-0.29940477
33	0x3e895d44	0.2682897
34	0x3d8c41be	0.06848477
35	0x3e935ebb	0.2878321
36	0xbe58a521	-0.21156742
37	0x3e41b62a	0.18917146
38	0xbe8de53b	-0.2771395
39	0x3e27e3e9	0.16395535
40	0xbde21f67	-0.11041146
41	0xbcea4fc4	-0.028602488
42	0x3dc713d4	0.09720579
43	0x3d226f48	0.039656907
44	0xbe3aa29e	-0.18226096
45	0xbda73fc7	-0.081664614
46	0xbe8ce78b	-0.27520403
47	0xbe387fff	-0.18017577
48	0x3c2a9815	0.010412236
49	0x3e82fc44	0.25583088
50	0x3e25a066	0.16174468
51	0xbe99618f	-0.29957244
52	0x3e13b99a	0.1442627
53	0xbe4654c8	-0.19368279
54	0x3d8e31b3	0.06943073
55	0x3e975e9a	0.29564363
56	0x3e1574e4	0.14595371
57	0xbe3d170a	-0.1846582
58	0xbc9a283f	-0.018818019
59	0xbe8ab97b	-0.27094635
60	0xbe12cec7	-0.14336692
61	0xbe8db1aa	-0.2767461
62	0xbe84058a	-0.25785476
63	0x3e964d94	0.29356062
64	0xbd8a5421	-0.067543276
65	0xbe5c8c45	-0.21537884
66	0xbc3d7879	-0.011564367
67	0xbe1fd7f5	-0.15609725
68	0xbe8df73d	-0.2772769
69	0xbe42f3f7	-0.19038378
70	0xbced9491	-0.029001506
71	0xbe077b37	-0.13230596
72	0x3e9bd72b	0.30437598
73	0x3e960a48	0.2930472
74	0xbe96ddfd	-0.2946624
75	0x3e6b08e7	0.22952615
76	0xbe315970	-0.17319274
77	0xbd4c6498	-0.04990062
78	0x3e3d1a95	0.18467171
79	0xbe7c5121	-0.24640323
80	0x3e9f9cec	0.3117441
81	0xbdb411ea	-0.08792479
82	0x3c3791f2	0.01120423
83	0xbe8ae784	-0.27129757
84	0xbe7f1f7d	-0.24914356
85	0xbdbf27b5	-0.093337454
86	0xbdab2c7e	-0.083580956
87	0x3e890998	0.26765132
88	0x3a400ef8	0.0007326449
89	0x3e2fa79d	0.17153783
90	0x3e04eaed	0.12980242
91	0xbe9c0bbd	-0.30477706
92	0x3d7e899f	0.062142964
93	0xbd62dde8	-0.055387408
94	0x3d8f82cb	0.07007369
95	0xbe9c970c	-0.3058399
96	0xbdc7d380	-0.09757137
97	0x3e19c37e	0.1501598
98	0x3e8501e9	0.2597802
99	0xbddb3c91	-0.107049115
100	0x3e0b7423	0.13618521
101	0xbd1c92c8	-0.03822592
102	0x3e1e1203	0.15436558
103	0x3e8ec00d	0.27880898
104	0xbe84faa4	-0.25972474
105	0xbe0f5acb	-0.13999479
106	0xbe49b1a0	-0.19696665
107	0x3df29322	0.118444696
108	0x3e409694	0.18807441
109	0xbe3d90de	-0.18512294
110	0x3d651151	0.055924717
111	0x3e12489f	0.14285515
112	0xbdd59503	-0.10428812
113	0x3e9a385e	0.3012113
114	0x3e013f65	0.1262184
115	0xbe9c733f	-0.30556676
116	0xbe0eada9	-0.13933434
117	0x3e24a142	0.1607714
118	0xbdc0494a	-0.09388979
119	0x3e9c4f61	0.3052931
120	0x3e6d86cb	0.2319595
121	0x3e5849ea	0.21121946
122	0x3b655f2f	0.003499936
123	0x3e2a6445	0.16639812
124	0x3e8ec6c3	0.27886018
125	0xbe87b8d4	-0.265082
126	0x3e8189b5	0.25300375
127	0xbe8884e5	-0.2666389
128	0xbe945ba3	-0.28976163
129	0x3e855f15	0.26049104
130	0xbb3a8af1	-0.0028464163
131	0xbd7e43f2	-0.062076516
132	0xbe3f4b2b	-0.18681018
133	0xbe1179b7	-0.14206587
134	0xbe72a4de	-0.23695704
135	0x3cc3d5c2	0.023905639
136	0xbe9555ec	-0.29167116
137	0x3d41682b	0.047218483
138	0xbe9b1faf	-0.3029761
139	0x3d7c776f	0.06163734
140	0xbe41ba39	-0.18918695
141	0x3e8af957	0.27143356
142	0xbe3468de	-0.17618129
143	0xbe82cc92	-0.255467
144	0x3e221885	0.15829666
145	0x3e0916b5	0.13387568
146	0xbe367f25	-0.1782194
147	0xbd3e89a6	-0.04651799
148	0xbe9928bf	-0.299139
149	0xbd090300	-0.033450127
150	0x3e2cc036	0.16870198
151	0xbe8ff146	-0.28113765
152	0x3e03f904	0.1288796
153	0xbe5f8230	-0.21827006
154	0xbda7e40d	-0.08197794
155	0xbe7f669e	-0.24941489
156	0xbe86e2db	-0.26344952
157	0xbe98e7a0	-0.29864216
158	0x3b759ba0	0.0037476793
159	0x3dfcfe0f	0.12353145
160	0xbdc86507	-0.097848944
161	0x3d5599db	0.05214868
162	0x3dbc4797	0.09193342
163	0x3e90bd45	0.282694
164	0xbd6c77f4	-0.057731584
165	0xbcf8d616	-0.030375522
166	0xbe3cf2b4	-0.18451959
167	0xbd82fc03	-0.06395724
168	0xbdadd514	-0.08487907
169	0xbe91de46	-0.28489894
170	0xbe45e647	-0.19326125
171	0xbe1395c2	-0.14412597
172	0xbc77ddd1	-0.015128569
173	0x3e839422	0.25698954
174	0x3e4e80e7	0.2016636
175	0xbe1fbeb6	-0.15600094
176	0x3e98aa90	0.2981763
177	0xbe33f6c0	-0.17574596
178	0x3e8efae8	0.279258
179	0xbe8d5244	-0.27601826
180	0xbe569387	-0.20954715
181	0x3cc55276	0.024087172
182	0xbe865624	-0.26237595
183	0x3e81ab9c	0.2532624
184	0x3e0a55f4	0.13509351
185	0xbdbc8839	-0.0920567
186	0xbe9bd908	-0.3043902
187	0x3e02b407	0.12763987
188	0x3e6f56fd	0.23373027
189	0xbe53bd2b	-0.2067763
190	0x3db10658	0.08643788
191	0xbd5f6d8f	-0.054547843
192	0xbe029e99	-0.12755813
193	0x3e462c16	0.19352755
194	0x3e9047d2	0.28179795
195	0xbe1099b5	-0.14121135
196	0xbe1f8e2d	-0.1558158
197	0xbdde7229	-0.10861618
198	0x3de49c25	0.11162595
199	0x3e867c45	0.26266685
200	0x3e90f4bf	0.28311726
201	0xbe519073	-0.20465259
202	0x3dee7820	0.11644006
203	0x3dd7dd75	0.105402865
204	0xbe1ad06a	-0.15118566
205	0xbdcd8136	-0.10034411
206	0xbe9bbc5a	-0.30417138
207	0xbe937a4c	-0.28804243
208	0x3e681b5e	0.2266669
209	0xbe39d728	-0.18148482
210	0xbe9cfc13	-0.30661067
211	0xbe442d2d	-0.19157858
212	0xbe57cdd0	-0.21074605
213	0xbd076273	-0.033052873
214	0x3e171065	0.14752348
215	0x3de88496	0.11353414
216	0xbd96ab98	-0.07356948
217	0x3c5d7721	0.013517172
218	0xbe220cd9	-0.15825213
219	0xbe42543e	-0.18977448
220	0x3da8ba20	0.082386255
221	0xbea16a5d	-0.3152646
222	0xbe5464af	-0.20741533
223	0xbe839e01	-0.25706485
224	0x3e873390	0.26406527
225	0xbddb1684	-0.10697654
226	0xbe7723b0	-0.24134707
227	0x3e3dce9f	0.18535851
228	0xbe9d88b9	-0.30768374
229	0x3e2b5692	0.16732243
230	0x3d797a45	0.06090762
231	0xbd07fffd	-0.033203114
232	0x3b9e9bc2	0.004840345
233	0xbe8a663c	-0.27031124
234	0xbd820c6e	-0.06350027
235	0xbe7731f8	-0.24140155
236	0x3e73ae42	0.23796943
237	0x3e68d269	0.22736515
238	0xbe9dfb38	-0.30855727
239	0xbe781879	-0.24228086
240	0xbd9de99f	-0.07710575
241	0xbd58757a	-0.05284641
242	0xbe891a58	-0.2677791
243	0xbe89d8eb	-0.26923308
244	0x3d8d72df	0.069066755
245	0x3d9adff2	0.075622454
246	0xbdb6a7b4	-0.089187056
247	0x3e27cdcc	0.16387099
248	0x3df0ce2c	0.11758074
249	0xbe8996e2	-0.26872927
250	0x3e675a18	0.22592962
251	0xbe89b680	-0.2689705
252	0xbe82abc4	-0.25521672
253	0x3e5e74c7	0.21724235
254	0xbe33fe40	-0.17577457
255	0xbaf77b5a	-0.0018881366

feature_extractor.1.weight f4 [256]
0	0x3f7cf0e9	0.988051
1	0x3f7fb5cf	0.9988679
2	0x3f82dd3e	1.0223768
3	0x3f7c6663	0.9859373
4	0x3f815618	1.0104399
5	0x3f7c998e	0.98671806
6	0x3f7df8b4	0.99207616
7	0x3f7d8ead	0.9904583
8	0x3f7da2ae	0.99076355
9	0x3f8166d6	1.0109508
10	0x3f80e84e	1.0070894
11	0x3f8153a4	1.010365
12	0x3f7dae8e	0.99094474
13	0x3f812500	1.0089417
14	0x3f81df36	1.0146244
15	0x3f7e9ca5	0.9945777
16	0x3f824af5	1.0179125
17	0x3f80fbd0	1.0076847
18	0x3f7d439a	0.98931277
19	0x3f822152	1.0166419
20	0x3f7a1d92	0.9770137
21	0x3f7f42fc	0.99711585
22	0x3f80b244	1.0054402
23	0x3f7f3512	0.99690354
24	0x3f7f5be7	0.99749607
25	0x3f821e36	1.016547
26	0x3f819830	1.0124569
27	0x3f7ff6ed	0.99986154
28	0x3f801f33	1.0009521
29	0x3f7e085e	0.9923152
30	0x3f8250cd	1.0180908
31	0x3f7d223a	0.9888035
32	0x3f80a6bd	1.0050884
33	0x3f7d75cc	0.9900787
34	0x3f819157	1.0122479
35	0x3f7f4965	0.99721366
36	0x3f8130d6	1.0093029
37	0x3f8024c7	1.0011224
38	0x3f7ee5aa	0.9956919
39	0x3f7eb11c	0.99489
40	0x3f7d3550	0.98909473
41	0x3f802367	1.0010804
42	0x3f81c25a	1.0137436
43	0x3f80643d	1.003059
44	0x3f803c51	1.0018407
45	0x3f80360a	1.0016491
46	0x3f80bef6	1.0058277
47	0x3f809318	1.004489
48	0x3f814e33	1.010199
49	0x3f82b1e2	1.0210536
50	0x3f825582	1.0182345
51	0x3f80aae5	1.0052153
52	0x3f81ee84	1.0150914
53	0x3f7e7dba	0.99410594
54	0x3f7f3254	0.9968617
55	0x3f7f1ae9	0.99650437
56	0x3f810e68	1.0082521
57	0x3f7cdec8	0.9877744
58	0x3f81be6f	1.0136241
59	0x3f80430a	1.0020459
60	0x3f7fbfb4	0.9990189
61	0x3f7c9dff	0.9867858
62	0x3f7e03ee	0.99224746
63	0x3f8363a0	1.0264778
64	0x3f802fa6	1.0014541
65	0x3f810df4	1.0082383
66	0x3f817b42	1.011574
67	0x3f7d0695	0.9883817
68	0x3f82e67f	1.0226592
69	0x3f7c9d40	0.98677444
70	0x3f7d46b3	0.98936003
71	0x3f7fd48e	0.9993371
72	0x3f7d8941	0.9903756
73	0x3f7edabb	0.99552506
74	0x3f80ba0b	1.0056776
75	0x3f7e6745	0.99376327
76	0x3f7f1787	0.99645275
77	0x3f808b08	1.0042429
78	0x3f7cbea4	0.98728395
79	0x3f807d2f	1.0038203
80	0x3f7f0419	0.9961563
81	0x3f7eae97	0.9948515
82	0x3f7fe298	0.9995513
83	0x3f7e0b39	0.99235874
84	0x3f8089a7	1.0042008
85	0x3f8049cf	1.0022525
86	0x3f81549a	1.0103943
87	0x3f7f1ee6	0.9965652
88	0x3f7dec5b	0.99188775
89	0x3f818ebd	1.0121685
90	0x3f7dadd7	0.99093384
91	0x3f7e4fff	0.99340814
92	0x3f7e259d	0.99276143
93	0x3f81d635	1.0143496
94	0x3f80848e	1.0040452
95	0x3f7fcd01	0.99922186
96	0x3f7edf30	0.9955931
97	0x3f7fef45	0.9997447
98	0x3f81a5cf	1.0128726
99	0x3f7d2868	0.9888978
100	0x3f809520	1.0045509
101	0x3f80703c	1.0034251
102	0x3f7f0dd7	0.9963049
103	0x3f7b5caa	0.9818827
104	0x3f7d494d	0.98939973
105	0x3f827c6c	1.019422
106	0x3f80c05f	1.0058707
107	0x3f803e62	1.0019038
108	0x3f80e047	1.0068444
109	0x3f7f4042	0.99707425
110	0x3f7edee0	0.9955883
111	0x3f7fdeec	0.99949527
112	0x3f7f3d4b	0.997029
113	0x3f7c8f07	0.9865574
114	0x3f7bd87b	0.983772
115	0x3f825a72	1.0183852
116	0x3f7a1d29	0.97700745
117	0x3f7f8ee5	0.99827415
118	0x3f7d6ef2	0.98997414
119	0x3f80fc19	1.0076934
120	0x3f7d49ed	0.98940927
121	0x3f808a84	1.0042272
122	0x3f7c0ef0	0.9846029
123	0x3f7fe40d	0.9995735
124	0x3f7cfe52	0.9882556
125	0x3f7f4b90	0.99724674
126	0x3f7d4cf7	0.98945564
127	0x3f7d12c7	0.98856777
128	0x3f8028de	1.0012472
129	0x3f7ffcea	0.9999529
130	0x3f8239e0	1.0173912
131	0x3f81a7a3	1.0129284
132	0x3f8055ab	1.0026144
133	0x3f7cb30f	0.9871072
134	0x3f7d48a2	0.98938954
135	0x3f7e00ce	0.9921998
136	0x3f7f497a	0.9972149
137	0x3f7ecee0	0.99534416
138	0x3f7cf2f3	0.9880821
139	0x3f7e695d	0.9937952
140	0x3f7ff576	0.9998392
141	0x3f8180c2	1.0117419
142	0x3f7d7b08	0.99015856
143	0x3f7dcd70	0.991416
144	0x3f80292a	1.0012562
145	0x3f7e4364	0.9932158
146	0x3f8048de	1.0022237
147	0x3f8237e7	1.017331
148	0x3f803e35	1.0018984
149	0x3f7ea3e2	0.99468815
150	0x3f80bf78	1.0058432
151	0x3f7d9b29	0.9906488
152	0x3f7fbc28	0.9989648
153	0x3f80d3e8	1.0064669
154	0x3f807a02	1.0037234
155	0x3f7ef619	0.99594265
156	0x3f8101b7	1.0078648
157	0x3f7c4b48	0.9855237
158	0x3f7c67af	0.9859571
159	0x3f812c49	1.009164
160	0x3f7e5319	0.99345547
161	0x3f804942	1.0022357
162	0x3f7b037a	0.9805218
163	0x3f7fbd29	0.9989801
164	0x3f7dfc67	0.9921326
165	0x3f80a6bc	1.0050883
166	0x3f804205	1.0020148
167	0x3f7d684e	0.9898728
168	0x3f7c9a9b	0.9867341
169	0x3f7f69cb	0.997708
170	0x3f7dc63b	0.991306
171	0x3f82c9de	1.0217855
172	0x3f7f60fa	0.9975735
173	0x3f80c8ee	1.0061319
174	0x3f7ed07a	0.9953686
175	0x3f7dec7a	0.9918896
176	0x3f7dfc65	0.9921325
177	0x3f801711	1.0007039
178	0x3f809910	1.0046711
179	0x3f7c0440	0.98443985
180	0x3f81a69a	1.0128968
181	0x3f7c797a	0.9862286
182	0x3f8103f3	1.007933
183	0x3f7cde8c	0.9877708
184	0x3f7bf772	0.98424447
185	0x3f7de9ce	0.9918488
186	0x3f7dd51e	0.99153316
187	0x3f7d4a82	0.98941815
188	0x3f7fb786	0.9988941
189	0x3f833a51	1.0252172
190	0x3f81ba2d	1.0134941
191	0x3f7c7184	0.9861071
192	0x3f83ed6a	1.0306828
193	0x3f800854	1.0002542
194	0x3f80e1e2	1.0068934
195	0x3f7e7382	0.99395
196	0x3f7ef38a	0.9959036
197	0x3f7ed996	0.9955076
198	0x3f8154ed	1.0104042
199	0x3f7f6ed7	0.99778503
200	0x3f7f67fb	0.99768037
201	0x3f7d789f	0.9901218
202	0x3f8045d2	1.0021307
203	0x3f7d3a07	0.9891667
204	0x3f80ef4d	1.0073029
205	0x3f7ff6e8	0.99986124
206	0x3f7c4062	0.9853574
207	0x3f7cf3a6	0.9880928
208	0x3f7e89b3	0.9942886
209	0x3f806aeb	1.0032629
210	0x3f7ff2a7	0.99979633
211	0x3f7e1729	0.9925409
212	0x3f7e5df1	0.99362093
213	0x3f7c190d	0.98475724
214	0x3f8232e2	1.0171778
215	0x3f80c7fa	1.0061028
216	0x3f7c9341	0.9866219
217	0x3f80552e	1.0025995
218	0x3f812e87	1.0092324
219	0x3f818eeb	1.012174
220	0x3f813641	1.0094682
221	0x3f7d72cc	0.9900329
222	0x3f821017	1.016116
223	0x3f80df02	1.0068057
224	0x3f810b6b	1.008161
225	0x3f7d86a8	0.99033594
226	0x3f7ee7e5	0.9957259
227	0x3f818a34	1.0120301
228	0x3f7b465b	0.9815423
229	0x3f7c7784	0.98619866
230	0x3f805973	1.0027298
231	0x3f7f3425	0.9968894
232	0x3f7c315b	0.9851281
233	0x3f7d5ee7	0.98972934
234	0x3f8009f4	1.0003037
235	0x3f7f160c	0.99643016
236	0x3f818222	1.0117838
237	0x3f80b91d	1.0056492
238	0x3f8340b3	1.025412
239	0x3f7f500e	0.9973153
240	0x3f819e25	1.0126387
241	0x3f8069dc	1.0032306
242	0x3f8068da	1.0031998
243	0x3f7e8e98	0.9943633
244	0x3f802e88	1.00142
245	0x3f7edac6	0.9955257
246	0x3f7e1f1a	0.9926621
247	0x3f8081a8	1.0039568
248	0x3f800675	1.000197
249	0x3f7f6d9e	0.9977664
250	0x3f7d502a	0.98950446
251	0x3f7fc261	0.99905974
252	0x3f80ab7e	1.0052335
253	0x3f7fb1b8	0.9988055
254	0x3f7eb6f9	0.99497944
255	0x3f7efda1	0.99605757

feature_extractor.1.bias f4 [256]
0	0xbc3f4932	-0.011675166
1	0x3bde7134	0.006788397
2	0x3d281a7d	0.041040886
3	0xbc121bdc	-0.008917775
4	0xba113081	-0.00055385387
5	0xbc5e6c0f	-0.013575568
6	0xbc755101	-0.014972926
7	0xbbf46e3b	-0.0074594296
8	0xbb810fc6	-0.003938648
9	0x3c89af23	0.016807145
10	0xbc4a3dfd	-0.012343881
11	0x3bd6755d	0.0065447525
12	0xbc1cfc87	-0.009581692
13	0xbb1cf8e8	-0.002395207
14	0x3c46d500	0.012135744
15	0xbb954880	-0.004555762
16	0x3bad079d	0.0052804486
17	0x3b4b822c	0.003105293
18	0xbb2399af	-0.0024963429
19	0x3c853819	0.016262101
20	0xbc9fc940	-0.019505143
21	0xbc12f233	-0.008968878
22	0x3cf59c5b	0.029981783
23	0xbab49d0e	-0.0013779716
24	0xbaea1a20	-0.0017860569
25	0x3bc0bef3	0.005882138
26	0xbc1d03d0	-0.0095834285
27	0x3c81fb6b	0.015866956
28	0xba246bf4	-0.000627219
29	0xbbb3c89b	-0.0054865605
30	0x3cd8285d	0.026386434
31	0xbb840b77	-0.004029687
32	0x3b7fa5f0	0.0039008819
33	0xbc2afb1d	-0.010435847
34	0x38a9bbbe	8.093518e-05
35	0x3b6ddc5d	0.0036294677
36	0x3c14f5fe	0.009091852
37	0xbb33d70b	-0.0027441408
38	0xbbed5705	-0.0072430396
39	0x3b9da466	0.0048108576
40	0xb9379228	-0.00017506687
41	0x3b935b5d	0.0044969753
42	0x3c0f6dba	0.008754188
43	0xbb6b3b4b	-0.0035893496
44	0x3b61b3a5	0.0034439352
45	0xba8b63a1	-0.001063455
46	0x3b955bf4	0.004558081
47	0x3c177703	0.009244683
48	0x3c971e1a	0.01844697
49	0x3cf40a0c	0.029789947
50	0x3c802b57	0.015645666
51	0x3be60bf1	0.0070204665
52	0x3c7d8cf8	0.015475504
53	0xbae6abf1	-0.001759885
54	0xbc1a6eb4	-0.009425808
55	0x3acba4fa	0.0015536838
56	0x3ce1d4f0	0.027567357
57	0xbc55a089	-0.013038763
58	0x3c1a2ff7	0.00941085
59	0xbb7f63d9	-0.0038969426
60	0x3bfbcded	0.0076844604
61	0xbc4870b9	-0.012233906
62	0xbb13f41e	-0.0022575925
63	0x3cd8ad88	0.026449934
64	0x3c334e09	0.010943898
65	0x3c16b3f2	0.009198176
66	0x3c2a2add	0.010386196
67	0xbbf6af06	-0.0075281886
68	0xbc000c58	-0.007815443
69	0xbc69bc0c	-0.014266025
70	0xbbfe55f8	-0.007761713
71	0xbc8a590a	-0.01688816
72	0xbbfe8ca3	-0.00776823
73	0xbace4d2f	-0.0015739555
74	0x3c81ac99	0.015829371
75	0xbc4d380a	-0.012525568
76	0x3b1fb2b3	0.0024367988
77	0x3a35633f	0.0006919391
78	0xbbefec10	-0.007321842
79	0xbbcf4f07	-0.0063265595
80	0x3bc2b70a	0.00594223
81	0x3bef5e04	0.0073049087
82	0xbc217129	-0.00985364
83	0x3ac57e03	0.0015067462
84	0x3b900a02	0.0043957243
85	0x3a492fc9	0.0007674662
86	0xbc1abbf9	-0.00944423
87	0xbc738f95	-0.014865776
88	0xbc3e66cc	-0.011621188
89	0x3ce585ef	0.028017966
90	0xbbfccf99	-0.0077151773
91	0xbc01cd75	-0.00792252
92	0x3b18b7cf	0.0023302918
93	0x3c8b4adf	0.017003475
94	0x3afa0b6b	0.0019076889
95	0xbc3b8280	-0.011444688
96	0xbb69396c	-0.0035587205
97	0x3c6b1361	0.014347882
98	0x376a270a	1.3956576e-05
99	0xbbedce87	-0.007257286
100	0xba613a9a	-0.0008591801
101	0xbb0001c3	-0.00195323
102	0xbb15da3b	-0.0022865671
103	0xbc88f960	-0.016720474
104	0xbc4ad5ed	-0.012380105
105	0x3cbba270	0.022904605
106	0x3a6ee7ca	0.0009113519
107	0x3c2d383a	0.0105724875
108	0x3c3b4769	0.0114306
109	0xbc651f81	-0.013984562
110	0xbbd5bc46	-0.006522688
111	0xbaaf15d7	-0.0013357949
112	0xbac6c80b	-0.0015165819
113	0xbc4562a2	-0.012047442
114	0xbc494c70	-0.0122862905
115	0x3c139b64	0.009009216
116	0xbc8c00d2	-0.017090235
117	0xb7847ab4	-1.5792764e-05
118	0xbc058f97	-0.00815191
119	0x3cd4baae	0.025967922
120	0xbc8763b9	-0.016527044
121	0x3b85adb0	0.004079543
122	0xbc45b622	-0.01206735
123	0xbb8a7fdb	-0.0042266673
124	0xbc5b112f	-0.013370796
125	0x3b951046	0.004549059
126	0xbc5dc3c1	-0.013535441
127	0xbc498631	-0.01230006
128	0x3b23f150	0.002501566
129	0x3baebf7f	0.0053328867
130	0x3cb14ca7	0.021642996
131	0x3c4699a0	0.012121588
132	0x3a359c2d	0.0006927874
133	0xbc6e815f	-0.014557212
134	0xbc3ed004	-0.0116462745
135	0x3a78d1e7	0.0009491727
136	0x3bbf305b	0.005834622
137	0x398c16f0	0.0002671997
138	0xbc0a328d	-0.008434904
139	0xbafdae21	-0.0019354263
140	0xbc711648	-0.014714785
141	0x3ccfa62e	0.025347795
142	0xbb8c3acc	-0.00427947
143	0xbbe42b1b	-0.0069631464
144	0xbc2cac04	-0.010539059
145	0x3c41d929	0.01183156
146	0xbc057414	-0.008145351
147	0xbc45f518	-0.012082361
148	0x3ba84e3d	0.00513628
149	0xbb816581	-0.003948868
150	0x3a4f49e6	0.0007907435
151	0xbc485325	-0.012226854
152	0x3c0e78e2	0.008695813
153	0xbc05d644	-0.008168761
154	0x3bcd95cf	0.006273962
155	0xbc4d3f8e	-0.01252736
156	0x3bdad06f	0.0066776793
157	0xbc4d6c57	-0.012538037
158	0xbbfbcee9	-0.0076845777
159	0x3c15f6bd	0.009153065
160	0x3b6513ab	0.003495435
161	0xbbfe3d4a	-0.007758771
162	0xbc5ed72f	-0.013601108
163	0x3c42b6ad	0.011884374
164	0xbc6eb2bd	-0.014568982
165	0x3ca9762e	0.020686235
166	0x3bc65a2d	0.0060532303
167	0xbc2ddc49	-0.010611602
168	0xbc8cfe1f	-0.017211018
169	0xbbe2b2d1	-0.0069182892
170	0xbaf0e05f	-0.0018377415
171	0xba83f6a5	-0.0010068013
172	0x3caa33ab	0.02077659
173	0x399796c3	0.0002891329
174	0xbb9e9792	-0.004839846
175	0xbb7c4d12	-0.0038498086
176	0x3c915eba	0.017745364
177	0x3c780ce9	0.015139797
178	0x3bba872d	0.0056923837
179	0xbc222613	-0.009896773
180	0x3ca232a7	0.019799544
181	0xbc15d5bd	-0.009145197
182	0xbc61abb2	-0.0137738455
183	0xbc81a258	-0.015824482
184	0xbca50e18	-0.020148322
185	0xbbbb4868	-0.0057154186
186	0xbb7e0817	-0.0038762146
187	0xbc35dc79	-0.011099928
188	0xbc104889	-0.008806356
189	0x3c4498e8	0.011999346
190	0x3bdc62d4	0.0067256484
191	0xbc7e7d31	-0.015532778
192	0x3caaf2c9	0.020867722
193	0x3bf098ea	0.0073424475
194	0x3cf35f54	0.029708542
195	0xbc440723	-0.011964592
196	0xbbb8df71	-0.0056418707
197	0xbba2cf4e	-0.0049685603
198	0xbac98d97	-0.001537728
199	0x3a2477d7	0.0006273961
200	0x3bab59bb	0.0052292026
201	0xbb8a5523	-0.004221575
202	0x3bd985a9	0.006638248
203	0xbab05622	-0.0013453404
204	0x3c80aee0	0.015708387
205	0x3c12b99b	0.008955385
206	0xbaa14868	-0.0012304904
207	0xbc84f86b	-0.016231736
208	0xbbafcb02	-0.0053647766
209	0xbc3ec755	-0.011644204
210	0x3b7f48ba	0.003895326
211	0x3a5d1ba9	0.00084346026
212	0xbbfea54d	-0.00777117
213	0xbc55ab67	-0.013041354
214	0x3b956097	0.0045586335
215	0x3b191a27	0.0023361535
216	0xba0ab4ea	-0.00052912405
217	0xbba90c94	-0.00515897
218	0xbc601159	-0.013676011
219	0x3b1362a4	0.0022489214
220	0x3c94a00f	0.018142728
221	0xbb2226f6	-0.002474246
222	0xbb095bb1	-0.0020959193
223	0xbadbf419	-0.0016781121
224	0xbb8e137c	-0.004335819
225	0xbc327f25	-0.010894571
226	0xbc300f5c	-0.010745849
227	0x3afd2356	0.0019312899
228	0xbc488ed0	-0.01224108
229	0xbb6d4b80	-0.0036208332
230	0x3c03eb0b	0.008051644
231	0x3c23b76c	0.009992462
232	0xbad872b1	-0.0016513673
233	0xbc63a46f	-0.0138941845
234	0xbaa55623	-0.0012614172
235	0xb96a28e7	-0.00022331216
236	0x3c56b900	0.013105631
237	0x3c86d4b3	0.016458845
238	0x3c856023	0.016281193
239	0xbba6d0ff	-0.0050908322
240	0x3bcacb8a	0.0061888145
241	0xba28d478	-0.0006440352
242	0x3c220eca	0.009891221
243	0xbbd5c23b	-0.006523398
244	0xbc7f43db	-0.015580143
245	0x3c410bd4	0.011782605
246	0xbbf00874	-0.0073252264
247	0xbbd6b1b6	-0.0065519465
248	0xbcacbf6b	-0.021087369
249	0x3c878257	0.016541643
250	0xbbf0b7dd	-0.007346137
251	0x3c6da4b9	0.014504605
252	0x3ac1d141	0.0014787094
253	0x3bd82aca	0.0065968977
254	0xbb9c2107	-0.0047646794
255	0xbc5a7a77	-0.013334862

feature_extractor.1.running_mean f4 [256]
0	0x3e8daab1	0.2766929
1	0x3ea0e4ee	0.3142466
2	0x3dbd93b9	0.092566915
3	0x3c9fd3d0	0.01951018
4	0xbea1285d	-0.31476107
5	0x3e5b9ce2	0.21446565
6	0xbcb84571	-0.02249405
7	0x3e910ad3	0.2832857
8	0xbe70eb89	-0.2352735
9	0x3e65d8dd	0.22446008
10	0x3d967632	0.07346763
11	0xbe066d40	-0.13127613
12	0xbd0a22e3	-0.033724677
13	0x3e19b1e6	0.15009269
14	0x3e31b54d	0.17354317
15	0xbe567769	-0.20943989
16	0x3d14908f	0.036270674
17	0x3cae3ca9	0.02126916
18	0x3e95de7b	0.29271302
19	0xbde3abc9	-0.1111675
20	0x3e0b0726	0.13576946
21	0x3e8a3e0b	0.2700046
22	0xbdbfd218	-0.09366244
23	0xbe3b5487	-0.18293963
24	0xbda1bf0d	-0.07897768
25	0xbdf46d6e	-0.119349346
26	0xbe04de43	-0.12975411
27	0x3e64ebec	0.22355622
28	0x3e867e9c	0.2626847
29	0xbe72a742	-0.23696616
30	0x3e4cb3dc	0.19990486
31	0x3e4f6a28	0.20255339
32	0xbe7cacc3	-0.24675278
33	0x3ed513a7	0.41616556
34	0x3e9554f2	0.2916637
35	0x3e638adf	0.22220944
36	0xbe1a3b3a	-0.15061656
37	0x3dc10f44	0.0942674
38	0xbe4c8007	-0.19970714
39	0x3e3aff79	0.18261518
40	0x3bf4cf28	0.007470984
41	0xbdb44037	-0.088013105
42	0x3c37203b	0.011177118
43	0xbce01995	-0.027355948
44	0xbe127255	-0.14301427
45	0xbcf3de9a	-0.02976923
46	0xbe060ba6	-0.13090381
47	0xbe7b4880	-0.24539375
48	0x3e16b512	0.1471751
49	0x3dc6741b	0.09690114
50	0x3e85baa4	0.26118958
51	0xbe74593b	-0.23862164
52	0x3e3e75e8	0.18599665
53	0xbe64a36c	-0.22327965
54	0x3d0bf98e	0.03417354
55	0x3ebccef2	0.36876637
56	0x3e85b4cb	0.26114497
57	0xbdc8eab7	-0.09810393
58	0xbe09a87c	-0.13443178
59	0xbeaf9497	-0.34293053
60	0xbde51bab	-0.11186918
61	0xbe8676cc	-0.2626251
62	0xbe9f7e7c	-0.31151187
63	0x3e63a4e4	0.2223087
64	0x3de2bc77	0.11071103
65	0xbeb1dd7a	-0.34739286
66	0xbdda4336	-0.10657351
67	0xbe5001f7	-0.2031325
68	0xbedfadb9	-0.43687227
69	0xbdfe84bb	-0.1242766
70	0xbdbf892a	-0.09352334
71	0xbe0c3e3b	-0.13695614
72	0x3eb5e9c2	0.35529906
73	0x3ecd8f34	0.40148318
74	0xbe2e5cc5	-0.17027576
75	0x3ea412d2	0.3204561
76	0xbde7d538	-0.11319965
77	0xbdf42b02	-0.119222656
78	0x3e4ce9d8	0.2001108
79	0xbe1a9aa5	-0.15098055
80	0x3ec201b1	0.37891915
81	0x3cb41f8d	0.0219877
82	0x3d1ddda6	0.03854146
83	0xbeac5a17	-0.33662483
84	0xbe98d45d	-0.2984952
85	0x3cf1d8d3	0.029522335
86	0xbe2e6229	-0.17029633
87	0x3e157934	0.14597017
88	0xbdc742f5	-0.09729568
89	0x3e8eacf3	0.27866325
90	0x3d94508b	0.07241925
91	0xbec50467	-0.3847992
92	0x3dd908cb	0.1059738
93	0x3d0b2ec4	0.033980146
94	0x3d7cff2e	0.061766796
95	0xbed9420a	-0.42433196
96	0xbde27957	-0.110583
97	0x3e7b7e5c	0.24559921
98	0x3e2865f5	0.16445144
99	0xbe08349a	-0.13301316
100	0x3c67f082	0.014156463
101	0xbd7d8f24	-0.061904088
102	0x3dfd2065	0.123596944
103	0x3e88f817	0.26751778
104	0xbe816c52	-0.25277954
105	0xbe830a63	-0.25593862
106	0xbe625075	-0.22101004
107	0x3e2c22f3	0.16810207
108	0x3e5d3267	0.21601258
109	0xbe843efd	-0.25829306
110	0xbdbb863e	-0.09156464
111	0x3e61324e	0.21991846
112	0xbd753a94	-0.059870318
113	0x3e9a7997	0.3017089
114	0x3e663c8c	0.22484034
115	0xbed082e6	-0.40724868
116	0xbddc685c	-0.107620925
117	0x3db80440	0.089851856
118	0xbda88dea	-0.08230193
119	0x3ea7347b	0.32657227
120	0x3e4cda89	0.2000524
121	0x3d8861a0	0.066592455
122	0xbd2b1c6a	-0.041775145
123	0x3db1211c	0.08648893
124	0x3e892746	0.26787776
125	0xbe53c84a	-0.20681873
126	0x3e8dbb43	0.27681932
127	0xbe889da7	-0.2668278
128	0xbee0ae58	-0.43883014
129	0x3e8ac299	0.2710159
130	0xbd79e838	-0.061012477
131	0xbe4e8322	-0.2016721
132	0xbe333733	-0.17501526
133	0xbdd1f2c2	-0.102513805
134	0xbe49a645	-0.19692333
135	0x3d5999cf	0.0531252
136	0xbebd66b6	-0.36992425
137	0x3d958846	0.07301383
138	0xbea43cce	-0.3207764
139	0x3db0b3d4	0.086280495
140	0xbe812d9c	-0.2523011
141	0x3e0d0247	0.137704
142	0xbe79677a	-0.2435588
143	0xbe94a350	-0.29030848
144	0x3de6b6fc	0.1126537
145	0x3ea307e1	0.3184195
146	0xbdf7a55e	-0.12092088
147	0xbe065bbc	-0.13120931
148	0xbea48ac4	-0.3213712
149	0x3cac3371	0.021020623
150	0x3e129fa8	0.14318717
151	0xbe759165	-0.23981245
152	0x3e8cf144	0.2752782
153	0xbd052a60	-0.032511115
154	0xbd4612fc	-0.04835795
155	0xbe94773c	-0.2899722
156	0xbe2e27f4	-0.17007428
157	0xbe72456e	-0.23659298
158	0xbd6f2f41	-0.058394674
159	0x3e6487ae	0.22317383
160	0xbd8e59f6	-0.069507524
161	0x3d86c004	0.06579593
162	0x3e27fd0a	0.1640512
163	0x3e0443ca	0.12916484
164	0xbd29b0d5	-0.041428406
165	0xbe364e04	-0.17803198
166	0xbde2f2c5	-0.11081461
167	0xbdb06576	-0.08613102
168	0xbcb4e5b0	-0.02208218
169	0xbea37b24	-0.31929886
170	0xbde5ff8c	-0.11230382
171	0xbe92b212	-0.28651482
172	0x3b24e150	0.002515871
173	0x3e94e1b4	0.29078448
174	0x3d76c64e	0.06024771
175	0xbe43a0ba	-0.19104281
176	0x3eb5c430	0.35501242
177	0xbe4023f2	-0.18763712
178	0x3ea9d1a8	0.33167768
179	0xbe8bf39a	-0.2733429
180	0xbe2ea96b	-0.17056815
181	0xbc81dfb7	-0.015853746
182	0xbecbe59d	-0.3982362
183	0x3e70770e	0.23482916
184	0x3e326a2a	0.17423311
185	0xbcfccefb	-0.030860415
186	0xbe5b8b2a	-0.21439806
187	0x3e6bdbdd	0.2303309
188	0x3e8f303c	0.27966487
189	0xbdbb87fb	-0.091567956
190	0x3df7b17e	0.12094401
191	0xbd8202ff	-0.06348228
192	0xbe64be15	-0.22338136
193	0x3e7ea835	0.24868853
194	0x3ecdd018	0.40197825
195	0xbd47f270	-0.04881519
196	0xbe3a56d5	-0.18197186
197	0xbde343f5	-0.11096946
198	0x3e58254f	0.21107982
199	0x3e62e3dd	0.22157235
200	0x3e902706	0.28154773
201	0xbe6762be	-0.22596261
202	0x3e698173	0.22803287
203	0x3db1d697	0.08683508
204	0xbd271967	-0.04079571
205	0xbe201fdd	-0.15637155
206	0xbe96e24d	-0.2946953
207	0xbe9b95e1	-0.30387786
208	0x3e526e79	0.20549954
209	0xbdad28bb	-0.08455034
210	0xbea50585	-0.32230774
211	0xbe54eb11	-0.20792796
212	0xbe1a0b87	-0.1504346
213	0xbd319160	-0.04335153
214	0x3d378e79	0.044813607
215	0x3e1835c5	0.14864261
216	0xbc70d5d3	-0.014699417
217	0xbdafd40c	-0.085853666
218	0xbe693ca4	-0.22777039
219	0xbe36e837	-0.1786202
220	0x3e5a2b10	0.2130549
221	0xbed40300	-0.4140854
222	0xbeb233eb	-0.34805235
223	0xbe683a72	-0.22678545
224	0x3e3bfa00	0.18357086
225	0xbe31700f	-0.17327903
226	0xbe8891f8	-0.26673865
227	0x3e5eb53d	0.21748824
228	0xbe52f0c5	-0.20599659
229	0x3e1ca64d	0.15297814
230	0x3e1934f6	0.14961609
231	0xbd990c14	-0.07473007
232	0xbd084856	-0.03327211
233	0xbe9e2450	-0.3088708
234	0x3bbce9d0	0.0057651773
235	0xbe4ead90	-0.20183396
236	0x3e0daf29	0.1383635
237	0x3eb1c470	0.34720182
238	0xbefc8931	-0.4932342
239	0xbe7e661d	-0.2484364
240	0xbdeea402	-0.11652376
241	0x3d39cc73	0.045360994
242	0xbec746a2	-0.38921076
243	0xbe44aaed	-0.19205828
244	0xbcf85b2c	-0.030316912
245	0x3df0dbb8	0.11760658
246	0xbdc9be17	-0.0985071
247	0x3e853a89	0.2602122
248	0x3d4ce607	0.05002406
249	0xbe477225	-0.19477136
250	0x3eb1794e	0.3466286
251	0xbe9f0a57	-0.31062576
252	0xbe6a2c01	-0.22868349
253	0x3e99169c	0.29900062
254	0x3cc377f6	0.023860913
255	0xbe3a38ae	-0.18185684

feature_extractor.1.running_var f4 [256]
0	0x3e54d538	0.20784461
1	0x3e896428	0.26834226
2	0x3ea244f6	0.31693238
3	0x3ec57fd4	0.38574088
4	0x3e5cc04e	0.21557733
5	0x3e19d602	0.15023044
6	0x3e89041a	0.26760942
7	0x3e806d12	0.25083214
8	0x3ec66b4d	0.3875374
9	0x3ec00642	0.37504774
10	0x3eab8b51	0.33504727
11	0x3e60d0e7	0.2195469
12	0x3eb36112	0.35034996
13	0x3e35099d	0.17679448
14	0x3de00957	0.109392814
15	0x3ea06318	0.31325603
16	0x3e6f43f3	0.23365764
17	0x3ed09025	0.40734974
18	0x3e8f3f48	0.27977967
19	0x3e8af196	0.2713744
20	0x3e0d02cc	0.13770598
21	0x3e8f1187	0.2794306
22	0x3e70dea3	0.23522429
23	0x3ef07081	0.46960834
24	0x3e5678b7	0.20944487
25	0x3e0fe60f	0.14052604
26	0x3ea61111	0.32434896
27	0x3e8a57df	0.27020165
28	0x3e91b057	0.2845485
29	0x3f346837	0.7047152
30	0x3e986ef0	0.2977214
31	0x3ea02141	0.3127537
32	0x3ec98ce3	0.393653
33	0x3e6d9383	0.23200803
34	0x3eb1b2b9	0.34706667
35	0x3f07d205	0.5305484
36	0x3ea9a02d	0.33130017
37	0x3ea3c863	0.3198882
38	0x3e92724c	0.28602827
39	0x3e87e8fc	0.2654494
40	0x3ed78aa8	0.42097974
41	0x3e82afd4	0.2552477
42	0x3f032c53	0.5123951
43	0x3f01d499	0.50715023
44	0x3eb24d43	0.3482457
45	0x3f2eb920	0.6825123
46	0x3e8c6c16	0.27426213
47	0x3ec27e9d	0.37987223
48	0x3ea74fb4	0.32677996
49	0x3e6aa60b	0.22914903
50	0x3e1c6b4d	0.15275307
51	0x3e21b0a0	0.15790033
52	0x3daafddc	0.08349201
53	0x3e54eefc	0.2079429
54	0x3e02b409	0.1276399
55	0x3ee1a028	0.44067502
56	0x3e609fd1	0.21935965
57	0x3de2f039	0.11080975
58	0x3e9a297f	0.30109784
59	0x3e8a1f56	0.26977032
60	0x3e9ac939	0.30231646
61	0x3dc07932	0.09398116
62	0x3e3c85b5	0.1841038
63	0x3e2f50cd	0.17120667
64	0x3ef1b0d9	0.47205237
65	0x3e615749	0.22005953
66	0x3efe0467	0.49612734
67	0x3ddb3e59	0.10705251
68	0x3ea51a56	0.32246655
69	0x3e115367	0.14191972
70	0x3e14a3c9	0.14515604
71	0x3e14cf46	0.14532194
72	0x3e834a19	0.2564247
73	0x3ea752ff	0.32680508
74	0x3e60f986	0.21970186
75	0x3e4e3bdc	0.20140022
76	0x3eafec4e	0.34359974
77	0x3e0ae681	0.13564493
78	0x3e65638e	0.22401258
79	0x3ef9a165	0.48755947
80	0x3de67c50	0.112541795
81	0x3e233cc6	0.15941152
82	0x3e44953f	0.19197558
83	0x3e84b674	0.2592045
84	0x3e463ef3	0.1935995
85	0x3e8376a8	0.25676465
86	0x3e9801a4	0.29688752
87	0x3f01a698	0.50644827
88	0x3eef9dd2	0.46800095
89	0x3e788a31	0.24271466
90	0x3ecb3f73	0.39696845
91	0x3e621e50	0.22081876
92	0x3e7200e6	0.23633155
93	0x3e7ebc13	0.24876432
94	0x3e337c5b	0.17527907
95	0x3e1c8474	0.15284902
96	0x3e33e5a8	0.17568076
97	0x3e9c5e18	0.30540538
98	0x3e50b470	0.20381331
99	0x3edc450b	0.43021426
100	0x3f025871	0.509162
101	0x3e979c23	0.2961131
102	0x3e514e86	0.2044011
103	0x3e791fd6	0.2432855
104	0x3e3c9e50	0.18419766
105	0x3e46149b	0.19343798
106	0x3e113531	0.14180447
107	0x3ed2ecd3	0.41196308
108	0x3eab6012	0.33471733
109	0x3e58abcb	0.21159284
110	0x3ead309e	0.33826154
111	0x3ebd13f6	0.3692929
112	0x3eab1bf8	0.33419776
113	0x3e56a4d4	0.20961314
114	0x3f4a94d5	0.7913335
115	0x3e843ebd	0.25829116
116	0x3efe5eed	0.49681798
117	0x3eb31be9	0.3498223
118	0x3e3f00d4	0.1865266
119	0x3e28688b	0.1644613
120	0x3ed2fc29	0.41208008
121	0x3e96e687	0.29472753
122	0x3e19979b	0.14999239
123	0x3e060d08	0.13090909
124	0x3e4c58b1	0.19955708
125	0x3e533322	0.20624974
126	0x3e25a1f7	0.16175066
127	0x3e42618b	0.18982522
128	0x3eba6880	0.36407852
129	0x3e661061	0.22467186
130	0x3e03fe15	0.12889893
131	0x3ea00673	0.3125492
132	0x3efcd06b	0.4937776
133	0x3f097528	0.5369439
134	0x3f1a6b7d	0.60320264
135	0x3e7bbc8e	0.24583647
136	0x3f2ec4df	0.6826915
137	0x3edbebda	0.42953378
138	0x3e589a10	0.2115252
139	0x3dcbcf57	0.09951656
140	0x3e59c6c2	0.21267226
141	0x3e2cadef	0.16863225
142	0x3e182e42	0.14861396
143	0x3e8647be	0.2622661
144	0x3e200be8	0.15629542
145	0x3ec1c383	0.37844476
146	0x3dd2ee14	0.10299316
147	0x3f026ea8	0.509501
148	0x3e52f5da	0.20601597
149	0x3ea991b3	0.33118972
150	0x3de5782a	0.1120456
151	0x3e478787	0.19485293
152	0x3e905e01	0.2819672
153	0x3e92ab50	0.28646326
154	0x3e3b8927	0.18314038
155	0x3f251983	0.6449205
156	0x3e0c9a31	0.13730694
157	0x3e8707d7	0.2637317
158	0x3e7bdce2	0.24595979
159	0x3eaf7778	0.34270835
160	0x3e780769	0.24221577
161	0x3e5721ed	0.21009035
162	0x3e504ba5	0.20341356
163	0x3ebb2245	0.36549583
164	0x3e6a19ff	0.22861479
165	0x3eab2a72	0.3343082
166	0x3e78a006	0.24279794
167	0x3e4b9cc5	0.19884022
168	0x3e830048	0.25586152
169	0x3ee03169	0.43787697
170	0x3e6be58d	0.23036785
171	0x3eca9e30	0.39573812
172	0x3dfb7928	0.12278968
173	0x3eaabbcd	0.33346406
174	0x3e9ec518	0.31009746
175	0x3ec1d8a3	0.37860593
176	0x3e68f6a6	0.22750339
177	0x3e8b3a6b	0.27193007
178	0x3e2f519b	0.17120974
179	0x3e68628a	0.2269384
180	0x3ecccf7b	0.40002045
181	0x3e4de66d	0.20107432
182	0x3ecccfc2	0.40002257
183	0x3ec9c14e	0.39405292
184	0x3f74dccf	0.9564943
185	0x3dd80d1b	0.10549375
186	0x3eae9e61	0.3410521
187	0x3ea5e938	0.32404494
188	0x3ee630a4	0.44958985
189	0x3e3f9707	0.18709956
190	0x3e8abe7c	0.27098453
191	0x3e0370e0	0.12836027
192	0x3e9956dc	0.2994908
193	0x3e832e2e	0.2562117
194	0x3ea09701	0.31365207
195	0x3e878ce1	0.2647467
196	0x3f0fcb84	0.56169915
197	0x3efc8311	0.49318746
198	0x3e6e896f	0.23294614
199	0x3f4800df	0.7812633
200	0x3ea87b77	0.32906696
201	0x3df4cafe	0.1195278
202	0x3ea8700b	0.32897982
203	0x3e56a6b1	0.20962025
204	0x3e1fd8bd	0.15610023
205	0x3f18837b	0.59575623
206	0x3dd06dba	0.10177179
207	0x3e99223c	0.2990893
208	0x3e89cdac	0.26914728
209	0x3ec7e5f1	0.3904262
210	0x3e45d79f	0.19320534
211	0x3ebf4b8f	0.37362334
212	0x3eacadbb	0.33726296
213	0x3e033a57	0.12815224
214	0x3e363773	0.1779459
215	0x3f2f27b2	0.68419945
216	0x3dcd7435	0.1003193
217	0x3e6a8979	0.22904004
218	0x3e69ef8b	0.22845285
219	0x3e8ad448	0.27115083
220	0x3e8d25b9	0.27567843
221	0x3e756d04	0.23967367
222	0x3e6a5783	0.22884946
223	0x3dccdc92	0.10003008
224	0x3e6c9c58	0.23106515
225	0x3f3544b2	0.70807946
226	0x3e9a77fa	0.3016966
227	0x3e7fab00	0.24967575
228	0x3e4d8e68	0.20073855
229	0x3e42c090	0.1901877
230	0x3e83a99c	0.2571534
231	0x3ebe4a8d	0.37166253
232	0x3e4aee16	0.19817385
233	0x3dda1030	0.10647619
234	0x3ee17637	0.44035503
235	0x3e1cf082	0.15326121
236	0x3e26de88	0.16295826
237	0x3e701723	0.23446326
238	0x3e9271c8	0.28602433
239	0x3ecb844a	0.39749366
240	0x3eb0a663	0.34501943
241	0x3eac1b32	0.33614498
242	0x3f451aab	0.7699382
243	0x3e8739f5	0.26411405
244	0x3e61e6b7	0.22060667
245	0x3e8c08f4	0.2735058
246	0x3e66ab59	0.22526301
247	0x3e789f85	0.24279602
248	0x3e13689d	0.14395376
249	0x3e99c07b	0.30029663
250	0x3e5bc50d	0.21461888
251	0x3e9f7534	0.31144106
252	0x3e4b99bf	0.19882868
253	0x3e09ea04	0.13468176
254	0x3e8fd5ea	0.2809289
255	0x3e989883	0.29803857

feature_extractor.4.weight f4 [256, 256]
0	0x3d3b1956	0.04567846
1	0x3d33a876	0.04386183
2	0xbd82f72a	-0.06394799
3	0x3c76325d	0.015026656
4	0xbc6628cc	-0.014047813
5	0xbcab3912	-0.020901237
6	0xbc5f6fd6	-0.013637504
7	0xbd1dfe72	-0.038572736
8	0xbd2d7e97	-0.042357054
9	0x3d8c82d9	0.06860895
10	0x3c92f926	0.017941069
11	0x3d0d8e69	0.03455964
12	0x3cae0ee2	0.021247331
13	0xbd3f0eed	-0.046645094
14	0xbd5cc065	-0.05389442
15	0xbd1716d2	-0.036886998
16	0xbd17098e	-0.036874346
17	0xbcd62a30	-0.026143163
18	0xbcc37e4b	-0.023863932
19	0xbbb4e3cf	-0.005520321
20	0xbd60ca75	-0.054880578
21	0x3cf616a2	0.030040089
22	0xbd6843c3	-0.056705248
23	0xbcf0d8d5	-0.029400269
24	0x3cf52020	0.029922545
25	0x3d5be70d	0.053687144
26	0xbd225552	-0.03963215
27	0x3cff3723	0.03115422
28	0xbcae43e9	-0.021272616
29	0xbd033863	-0.032036196
30	0xbd353a24	-0.0442449
31	0xbd5e9ca8	-0.054348618
32	0x3c61b4ec	0.013776045
33	0x3d0d2e53	0.034468006
34	0xbb81458f	-0.0039450596
35	0xbd48f6bb	-0.049063426
36	0x3d04ffd6	0.032470547
37	0xbb1ae09f	-0.002363242
38	0xbd05e747	-0.032691266
39	0xbcadc088	-0.02120997
40	0xbcc2ea7b	-0.02379345
41	0xbd7dd8fb	-0.061974507
42	0xbd6b95d0	-0.05751592
43	0xbced86ce	-0.028994944
44	0x3b2feec3	0.0026845194
45	0x3b310d06	0.002701582
46	0x3cc3abc2	0.023885611
47	0x3c67b122	0.014141353
48	0xbd5a9aea	-0.053370394
49	0xbc262528	-0.010140695
50	0x3c7ea0e5	0.01554129
51	0x3d69b6d0	0.05705911
52	0x3d71ecaf	0.05906361
53	0xbc7c241d	-0.015389469
54	0xbd74665d	-0.059667934
55	0xbd0c7f38	-0.034301013
56	0x3d223af1	0.039606992
57	0x3d05645e	0.03256642
58	0x3c1f9efe	0.009742497
59	0xbd88b369	-0.06674845
60	0x3c3c25f8	0.011483662
61	0xbd1324eb	-0.03592388
62	0xbd8028a4	-0.062577516
63	0xbcba65f7	-0.022753699
64	0x3d0252a0	0.03181708
65	0x3c985123	0.018593377
66	0xbca2fb72	-0.01989529
67	0xbc848f59	-0.016181635
68	0xbb8a201e	-0.0042152544
69	0x3c814702	0.01578093
70	0xbcffeb01	-0.031239988
71	0xbd19075b	-0.03736053
72	0x3d6e8dcf	0.058240708
73	0x3cc8c811	0.024509462
74	0x3c107257	0.008816323
75	0xbd4735dc	-0.04863535
76	0x3d4a166f	0.0493378
77	0x3d2c6050	0.04208404
78	0x3cb3485b	0.021885088
79	0xbd5a0011	-0.05322272
80	0xbb337594	-0.0027383314
81	0x3d76d406	0.060260795
82	0xbcea7b7e	-0.028623339
83	0x3d04fe93	0.032469343
84	0x3bcf63a5	0.006329017
85	0x3d1c3f0e	0.03814607
86	0x3c22489e	0.009905009
87	0xbd365419	-0.044513796
88	0xbd4bb687	-0.04973462
89	0xbd69ccfb	-0.05708025
90	0xbd5ea0a5	-0.05435242
91	0xbd8207fc	-0.06349179
92	0x3b9c267b	0.0047653294
93	0x3d604ff4	0.05476375
94	0xbc9fb263	-0.019494241
95	0x3d489299	0.04896793
96	0x3d0365af	0.032079395
97	0x3ca36ca8	0.019949272
98	0x3d5005d2	0.0507868
99	0x3c2d705d	0.0105858715
100	0xbb51deea	-0.0032023736
101	0x3ccc4607	0.024935735
102	0x3cc42dfa	0.023947705
103	0x3d5a9af6	0.05337044
104	0x3bd1e760	0.006405756
105	0x3d11c170	0.035584867
106	0xbce0fa82	-0.027463201
107	0x3d15deea	0.03658954
108	0x3d486b24	0.048930302
109	0xbc3cde4a	-0.011527607
110	0x3cdb0b24	0.02673871
111	0x3c8f0709	0.01745941
112	0xbc126d9f	-0.0089372685
113	0x3d213dc4	0.039365545
114	0x3d4f3b82	0.05059386
115	0xbd81b2bf	-0.06332921
116	0xbbe967d0	-0.007122971
117	0xbd2f694d	-0.042825032
118	0xbd7403fa	-0.059574105
119	0x3c9b4dc6	0.018957984
120	0xbb944edb	-0.004526002
121	0x3d534eef	0.05158895
122	0x3d49faab	0.04931132
123	0x3c5a7152	0.013332682
124	0xbd31db17	-0.04342183
125	0xbcaddaa4	-0.02122242
126	0xbc13a58a	-0.009011636
127	0xbd589c7f	-0.05288362
128	0xbc8c7ddb	-0.017149856
129	0x3c6883a1	0.014191539
130	0x3c0bd9ce	0.008535815
131	0x3d2c0bda	0.04200349
132	0xbc27d24d	-0.010243011
133	0xbc70cd2d	-0.014697355
134	0x3d44f08c	0.048080966
135	0xbd166b1e	-0.03672325
136	0xbca789ef	-0.020451514
137	0x3d79e5c5	0.06101014
138	0xbce66abc	-0.028127067
139	0x3d08782e	0.033317737
140	0xbcdb3404	-0.026758201
141	0xbc1cd0aa	-0.009571234
142	0x3c893536	0.016749006
143	0x3cb7de24	0.022444792
144	0xbd1f4296	-0.03888186
145	0x3d58d11a	0.05293379
146	0x3c904029	0.017608719
147	0xbd66f4cb	-0.056385797
148	0x3cbbf2c8	0.022942916
149	0x3c91a0bb	0.017776838
150	0x3d160da0	0.036634088
151	0x3c2e914d	0.01065476
152	0xbd044f93	-0.03230245
153	0xbd04a952	-0.03238804
154	0xbd53883d	-0.0516436
155	0xbb46f600	-0.003035903
156	0xbd72feb1	-0.059324924
157	0xbd40bd69	-0.047055636
158	0xbc098c14	-0.008395214
159	0x3a8f78b7	0.001094601
160	0x3d5bd936	0.053673945
161	0xbd4ba197	-0.04971465
162	0xbcc9f00c	-0.024650596
163	0xbd4ce206	-0.05002024
164	0x3ce01175	0.027352074
165	0xbd23d9c6	-0.040002607
166	0x3d219abc	0.039454207
167	0xbd7af41d	-0.06126796
168	0x3d4760b0	0.048676193
169	0x3d164536	0.0366871
170	0xbbebae6b	-0.007192423
171	0x3cc6cc5e	0.024267372
172	0xbc86b082	-0.016441587
173	0x3ae4c552	0.0017453826
174	0xbd8be46e	-0.06830679
175	0x3d0ca31f	0.034335252
176	0xbcb83796	-0.022487443
177	0x3c3d7ab3	0.011564898
178	0xbce27c67	-0.02764721
179	0x38ec3a6e	0.0001126424
180	0xbc9127e5	-0.017719219
181	0x3beb5781	0.007182062
182	0xbd205f98	-0.039153665
183	0x3d3828b4	0.044960693
184	0xbc145178	-0.009052627
185	0xbca0e3a8	-0.019639805
186	0x3d1a4d0d	0.037671138
187	0xbceb504d	-0.028724814
188	0xbb5164d9	-0.003195098
189	0x3d0457da	0.032310344
190	0xbd12fbbb	-0.0358846
191	0xbc81c770	-0.01584217
192	0xbd18294a	-0.03714875
193	0xbc22fddb	-0.009948219
194	0x3d63bf23	0.055602204
195	0xbc9d458b	-0.0191982
196	0xbd90bffd	-0.07067869
197	0x3c1547d4	0.009111363
198	0xbb29e33a	-0.002592279
199	0x3cb26254	0.021775402
200	0xbd1ac3e8	-0.037784487
201	0x3cdfb57f	0.027308224
202	0xbd53bb90	-0.051692545
203	0x3d82a97a	0.06379981
204	0x3d3d99df	0.04628932
205	0xbd5d64d9	-0.054051254
206	0x3cf42c5e	0.029806312
207	0x3ced3ed1	0.028960617
208	0xbd14f3aa	-0.03636519
209	0xbcecf6f7	-0.028926356
210	0x3cb70c63	0.022344774
211	0xbd86a752	-0.065748826
212	0xbd2357ed	-0.039878774
213	0xbd886fad	-0.066619255
214	0x3cbd15c6	0.023081671
215	0xbd6d5770	-0.057944715
216	0x3b9ad493	0.004725048
217	0xbd69c939	-0.057076667
218	0x3c344892	0.01100363
219	0xbc9d1106	-0.019173156
220	0x3bd98fc8	0.0066394545
221	0x3d0261f5	0.0318317
222	0x3ce0e193	0.027451312
223	0x3d4e32e9	0.05034152
224	0xbcbdd4f1	-0.023172827
225	0xbd693489	-0.056934867
226	0xbd06b37b	-0.03288601
227	0xbd30f33b	-0.043200713
228	0xbd88ebb7	-0.06685584
229	0x3d56b608	0.052419692
230	0x3ce8b2ab	0.028405508
231	0x3d09347e	0.033497326
232	0xbd434887	-0.04767659
233	0xbcad5ab9	-0.021161424
234	0xbb05c4d9	-0.002041152
235	0x3cbabe8d	0.02279594
236	0x3cf83dd7	0.030302925
237	0xbc2b717e	-0.01046407
238	0x3cec5104	0.028847225
239	0xbc92cb17	-0.017919106
240	0x3cae1948	0.02125229
241	0x3b850e80	0.0040605664
242	0x3b9720c9	0.0046120626
243	0xbd00033b	-0.03125308
244	0xbc42b6b6	-0.011884382
245	0xbc95315e	-0.018212017
246	0x3ca6bcc9	0.020353692
247	0xbc401991	-0.0117248455
248	0x3d02be52	0.031919785
249	0x3d244ced	0.040112425
250	0x3d0c7bfa	0.03429792
251	0xbd638d33	-0.05555458
252	0x3cf9b510	0.030481845
253	0x3b00f97f	0.0019679961
254	0xbbfd0b50	-0.007722296
255	0xbd96b6d1	-0.07359088
