models/best_fold3_hd128_do0.3.pth (torch, 118438 bytes, 20 tensors)

layers.0.weight f4 [128, 10]
000000 54 ab ff 39 3e 56 82 3e 26 79 71 be 17 7f ed 3d
       0.0004876504 0.25456423 -0.2358137 0.11596506
000010 d1 50 0a be 08 9a 14 3e 4b 45 5f 3e 8d d2 24 3e
       -0.13507392 0.14511883 0.21803777 0.16095944
000020 6b 53 89 3e 55 be 2b be 49 da 4d 3e 9f 2a 8b be
       0.26821455 -0.16771825 0.201028 -0.27180955
000030 22 ef 12 3d 48 ee a3 3c c2 70 8a 3e 8b 70 26 3e
       0.035872586 0.020011082 0.27039152 0.16253869
000040 31 cf 62 be dd a5 99 3e 42 14 88 3e 90 76 a3 bd
       -0.2214935 0.30009356 0.26577955 -0.079815984
000050 ec 3c aa 3e 6a 79 5e 3e 17 f2 67 be b7 cf 17 be
       0.33249605 0.21726003 -0.22650944 -0.1482533
000060 43 d2 3e 3e af a2 84 bb 2f 0b 49 3e ff 7d c1 bd
       0.18634896 -0.0040477137 0.19633172 -0.0944786
000070 dc b3 86 bd 53 22 8a be c8 1c 6d 3e 30 32 cb bd
       -0.06577274 -0.26979312 0.2315551 -0.09921682
000080 6d 4b 7c 3e 4d 49 81 bd 31 8c 02 3e 67 7a 61 3e
       0.24638148 -0.06312809 0.12748791 0.22019349
000090 04 fa 6f 3e 65 e7 c3 3d 93 2b 57 bd 25 83 93 ba
       0.23435217 0.095656194 -0.05253179 -0.0011254294
0000a0 d0 ec 88 be 9b 46 a9 bd ac cb 6c bd 99 79 8e be
       -0.26743174 -0.0826542 -0.057811424 -0.27827147
0000b0 01 ed d9 bd ce b9 83 3e db 46 28 3d 8e b7 3e 3e
       -0.10640908 0.25727695 0.041083198 0.18624708
0000c0 83 ca 78 be 35 1a cb bd 15 81 14 3e 40 e6 ab bd
       -0.24296002 -0.09917108 0.14502366 -0.08393526
0000d0 8d 72 37 be a6 8b 7f be 8e b1 ce bd fa fd 94 bd
       -0.17914791 -0.24955615 -0.100924596 -0.07275005
0000e0 d4 02 3c 3e 21 3b 3a bd 2d 16 d6 bd 35 c2 9a 3e
       0.18360454 -0.045466546 -0.104534484 0.30226293
0000f0 a5 5c 87 3e d1 4a c8 bd cd d2 83 be 89 8d 99 bd
       0.2643787 -0.09779895 -0.25746766 -0.07497699
000100 ff 98 5a be 82 ae 8c be 13 41 f3 bd 59 82 28 3e
       -0.21347426 -0.2747689 -0.11877646 0.16455974
000110 55 8a cb bd 5b cb a3 3c da 10 e0 bb 3c 09 27 3e
       -0.09938494 0.019994428 -0.0068379464 0.16312116
000120 35 ed 0f 3e f3 6b 8a be ae 16 82 be a2 b4 9d 3e
       0.14055331 -0.27035484 -0.25407928 0.30801874
000130 f8 1d d5 bd a5 c6 86 be f2 27 01 be fe aa 94 bd
       -0.10406107 -0.2632343 -0.12612894 -0.07259177
000140 50 fc 70 3e 04 6b d0 bb b7 c7 11 bd eb a3 b1 bd
       0.2353375 -0.0063604135 -0.035590854 -0.08673843
000150 db 93 51 3e c4 49 86 be 55 bc 9c 3e 6b 51 8f 3d
       0.20466559 -0.26228154 0.30612436 0.06997951
000160 57 1e 65 3d eb c3 a5 3d 84 71 d0 bd 38 65 0f 3e
       0.055937137 0.08094009 -0.101779014 0.14003456
000170 b3 14 a1 3c f9 1e 06 3e 60 f9 5f be ad aa 85 be
       0.01966319 0.13097753 -0.21872473 -0.26106778
000180 fb 55 e9 bd 55 c2 b1 bb a1 f0 77 3d 27 68 0d 3d
       -0.113933526 -0.0054247775 0.060532216 0.034523156
000190 10 af 77 3e 22 66 da 3c d1 d6 ec bd e4 b5 9a 3d
       0.24187875 0.026660029 -0.115644105 0.07554224
0001a0 b4 47 9f be 26 da 8a bc b1 17 99 3e c6 94 30 be
       -0.31109393 -0.016949724 0.29900888 -0.17244253
0001b0 aa f8 12 bd 6b da 2e 3e 52 ba 52 3e f8 05 85 3e
       -0.035881676 0.17075507 0.20578888 0.25981116
0001c0 5b da 26 be 5c 16 86 be 46 28 27 be 74 78 c4 bb
       -0.16294234 -0.26188934 -0.16323957 -0.0059958044
0001d0 ec e7 3c bd 16 e5 9c 3c bd bc 95 be 07 c9 99 be
       -0.046119615 0.019152205 -0.29245558 -0.30036184
0001e0 1e 67 9c 3e ca 47 0e 3e 3c e7 91 bd 8c ea 81 3e
       0.30547422 0.13894573 -0.071241826 0.25374258
0001f0 7f a9 81 3e 52 4a 19 bd e0 4e 16 be cb 88 d0 3d
       0.25324628 -0.037424393 -0.14678526 0.10182341
000200 b3 64 c0 bd a9 bd 13 3d ed ab 2b be 71 a2 84 be
       -0.09394207 0.036069546 -0.16764803 -0.25905183
000210 02 48 83 be 4c da 7f be 1a cd 48 bd d5 96 d6 3c
       -0.25640875 -0.24985617 -0.049023725 0.02619497
000220 d6 2e 76 3e 5d cb d2 bd 46 bd 58 be af 1b 51 bd
       0.24041304 -0.10292695 -0.21165952 -0.05105179
000230 7a 54 a1 be 1b 32 65 3e b7 3c 65 3e e6 c4 80 be
       -0.31509763 0.22382395 0.22386442 -0.25150222
000240 06 a5 8a be 3e a3 90 be 32 2c 36 3e c6 8c 89 be
       -0.27079028 -0.28249544 0.17790297 -0.26865214
000250 2b 59 f8 bd d6 36 f6 3d bb b0 77 be 18 45 12 be
       -0.121263824 0.12022178 -0.24188511 -0.1428417
000260 56 17 12 be 57 ac af bd de e0 5e 3e e2 d8 95 3d
       -0.14266714 -0.08577793 0.21765468 0.07316758
000270 a4 5d 33 bd b7 68 fe bd f2 77 1a 3e 4d 1d 39 3d
       -0.043790475 -0.124223165 0.15084818 0.04519396
000280 ac ae 33 be 55 29 f5 bd d2 ee 57 be 80 af 8e 3e
       -0.17547101 -0.11970774 -0.21087196 0.2786827
000290 a0 12 40 3e 2f 1e 2b 3e 2f da 20 3e 04 99 af bd
       0.18757105 0.16710733 0.1570823 -0.08574107
0002a0 ca 4a 54 3e f3 15 06 3a 38 0c 72 3e db b1 c0 bd
       0.20731655 0.0005114965 0.23637474 -0.09408923
0002b0 32 85 8c 3e d8 17 87 be 8f 13 94 3e b8 0e 10 be
       0.2744537 -0.2638538 0.28921172 -0.14068115
0002c0 48 1a 66 3e 56 17 21 3e df 3a fe bc 2f c8 6d be
       0.22470963 0.15731558 -0.031033931 -0.23220895
0002d0 34 25 8c be 23 71 7a be 98 b2 5c 3e 5e 0d 39 3e
       -0.27372134 -0.2445722 0.21552503 0.18071505
0002e0 33 f8 69 bd 87 7a 73 be 6b 0b 25 3d 37 a5 7b 3e
       -0.057121467 -0.23777209 0.040294092 0.24574743
0002f0 26 08 e7 bd 28 33 56 be 87 c5 fb bd 5a 95 7b be
       -0.11280851 -0.20917952 -0.12293535 -0.24568692
000300 d7 ca 9e bd 00 03 f4 3d 31 a5 70 be 6b 92 be 3d
       -0.077535324 0.11914635 -0.23500516 0.09305271
000310 91 ff 89 be 5d 35 e0 bd 8d 7a e1 bd e6 4e 98 bd
       -0.26952794 -0.10947678 -0.11009703 -0.07436924
000320 0e 40 99 be ec 25 36 bc 17 cf 4d be 41 44 50 3e
       -0.29931682 -0.01111744 -0.2009853 0.20338537
000330 cf 05 12 3e f7 79 fd bc 63 bd 80 bc a3 7c 3a be
       0.14260028 -0.030941946 -0.015715307 -0.18211608
000340 74 15 79 be 63 fd 0c 3e 2d e8 fd 3d 20 cd 77 3d
       -0.2432459 0.13768534 0.123978 0.060498357
000350 a7 9c 7c 3e 3d 98 45 be 61 8d d3 3d cd f8 13 be
       0.24669133 -0.19296356 0.103297 -0.14450379
000360 80 51 75 be 10 75 9f 3d 74 50 21 be 8e c7 32 bd
       -0.23956871 0.07786 -0.15753347 -0.04364734
000370 44 09 09 be 09 ef 9b bd dc a1 ea 3c 00 56 90 3e
       -0.13382441 -0.07613952 0.028641634 0.28190613
000380 d8 5c a3 3d 19 88 49 bb 81 73 58 be ea 9a 8c be
       0.07976693 -0.0030751287 -0.21137811 -0.2746194
000390 4a 62 8d 3d f5 c6 8d be 72 90 96 be 78 96 07 3e
       0.06903513 -0.27690855 -0.29407078 0.13240993
0003a0 6e b9 73 be 61 0b 71 3d 43 22 89 3d 11 58 5a be
       -0.23801205 0.058848742 0.06695988 -0.21322657
0003b0 e6 0b 5c 3e 32 2a 90 bd 03 f1 0d 3d 94 dc 4b bc
       0.21488914 -0.07039298 0.034653675 -0.012442727
0003c0 88 1a 37 be 5f aa 11 bc b1 42 97 bd eb 01 49 3e
       -0.17881215 -0.008890717 -0.07385767 0.19629638
0003d0 d2 66 dd 3d d1 e9 b5 3d a0 cc f1 bc 88 c7 1d be
       0.10810627 0.088824876 -0.029516518 -0.15408146
0003e0 8f 4c da bd 14 82 70 3e d5 49 5b be 09 49 1f 3d
       -0.10659134 0.23487121 -0.21414883 0.03888801
0003f0 c0 11 6f 3e d8 64 3f be 54 ba 39 3e 95 d8 95 be
       0.23346615 -0.18690813 0.18137485 -0.292668

layers.0.bias f4 [128]
000000 45 e5 a0 3e 0b 37 b5 bd e6 12 28 3d f5 bb 04 3d
       0.3142492 -0.08848389 0.041033648 0.032405812
000010 6d ea 34 be d9 78 86 be 6b 2e d9 3d 85 6f ce 3d
       -0.17667551 -0.26264074 0.10604557 0.100798644
000020 6b b8 f4 3d 59 9c 63 3e 24 3a 29 3e 0f 3a 20 3e
       0.119492374 0.2222761 0.16526085 0.15647148
000030 d4 5f 52 be cd 94 35 be b9 3c 64 3e 5d 79 33 3e
       -0.20544368 -0.17732544 0.22288789 0.17526765
000040 09 37 1c 3e fc e3 24 bd 33 42 4a 3e 43 f4 a1 be
       0.15255369 -0.040256485 0.19751815 -0.3163167
000050 59 bd e2 3d 46 44 b9 3c 4d 97 83 3e 02 65 5b 3d
       0.110712714 0.022615563 0.2570137 0.053563125
000060 bf b0 81 be 6b b5 20 3e 30 36 4e ba 05 48 2a be
       -0.2533016 0.15694205 -0.0007866351 -0.16629036
000070 46 70 61 bd d5 61 ab bb 82 e2 03 be 50 cc 02 be
       -0.055038713 -0.0052301683 -0.12879375 -0.12773252
000080 7a 1a d2 3d 71 fb ad 3c 86 3f 10 be 56 28 9c bd
       0.10258956 0.02123806 -0.14086732 -0.07624881
000090 cd 1a 27 be 15 95 94 3d b8 85 50 be 03 02 93 be
       -0.16318817 0.07254998 -0.2036351 -0.28712472
0000a0 34 29 4a 3d b5 db 51 3d 3c e4 9e 3d 93 a7 ce 3d
       0.0493557 0.05123492 0.07758376 0.10090556
0000b0 c6 b6 0f be e2 27 cd bd 59 64 2a 3e 3c 66 37 be
       -0.14034566 -0.10017373 0.16639842 -0.17910093
0000c0 82 6d 59 3e ae 79 51 be 28 dc ff 3d 02 88 ab bd
       0.2123318 -0.20456573 0.12493163 -0.08375551
0000d0 b9 39 49 3e 0c 6e 8f 3d df ed a1 be 35 0c 8e be
       0.19650926 0.07003412 -0.31626794 -0.27743688
0000e0 2f c9 8f 3e 8e 56 7f 3e 16 19 9d bd 39 bf 19 3e
       0.28083178 0.24935362 -0.076708004 0.15014352
0000f0 6d de 39 3e ba 46 8c 3d a2 93 91 3c 74 90 32 3e
       0.18151255 0.068494275 0.017770592 0.17437917
000100 5c 37 72 be 67 de 06 3e 09 13 9a bd b9 9a 93 be
       -0.2365393 0.13170777 -0.07523162 -0.28828982
000110 b7 29 39 3d 01 b4 8f be 7b a9 b5 bd 6f 84 a2 3d
       0.045205798 -0.2806702 -0.088702165 0.07935416
000120 5f f2 74 3e 20 8e 60 3e 72 48 95 3d b2 a8 a4 3d
       0.23920582 0.21929216 0.072892085 0.080399886
000130 28 15 88 be 51 95 59 3e eb d8 ad 3d 69 1b 30 3e
       -0.2657864 0.21248366 0.084886394 0.17197956
000140 5b b6 04 3e a6 af 85 bd 33 d6 82 be d3 03 9d 3d
       0.12960188 -0.06527643 -0.25554046 0.07666745
000150 30 f4 55 be 2f 22 b9 3d 77 0b 86 3e 3c 4e 3b 3e
       -0.20893931 0.09039723 0.26180622 0.18291563
000160 ba 0e 79 3e c2 b3 1a be 09 27 8e be 39 d1 82 3e
       0.24322024 -0.15107635 -0.27764156 0.2555025
000170 26 a6 a8 3c e9 b7 e1 bd 7a 1c b6 3d 15 8b 86 3d
       0.020587038 -0.11021406 0.0889215 0.065694965
000180 30 bd 5e be 3a 5c 76 3e 40 bc 27 be 88 58 0d 3e
       -0.21751857 0.24058619 -0.16380405 0.13803303
000190 2f bb d1 3d 67 74 fc bc 70 0b 31 3e 38 d6 00 3d
       0.102407806 -0.030817224 0.1728952 0.031454295
0001a0 52 24 c4 bd 9e 81 98 be 29 42 9c 3e 3d d0 7d be
       -0.0957724 -0.2978639 0.30519226 -0.24786468
0001b0 5d 54 94 3e 96 87 8f 3e b9 36 70 3e 85 df 2c be
       0.28970614 0.2803313 0.23458375 -0.16882141
0001c0 10 3f 21 3e d5 65 2c be 32 71 40 3d 4c cf 27 3e
       0.15746713 -0.16835721 0.04698295 0.16387671
0001d0 ad 4c 8d 3e 4f 63 16 be fc 9d 80 be ae 48 3b 3e
       0.2759756 -0.1468632 -0.25120533 0.18289444
0001e0 2c c5 52 be b1 4b 9c 3d 08 b7 a5 bd 2e 22 cc bd
       -0.20583028 0.076316245 -0.08091551 -0.09967457
0001f0 d9 94 53 3e b1 3f 86 be a2 aa 1d 3e 07 7d 26 3e
       0.2066225 -0.26220468 0.15397123 0.16258632

layers.1.weight f4 [128]
000000 95 2d 7b 3f 96 56 7f 3f 15 79 80 3f 3e 19 82 3f
       0.9811643 0.99741495 1.0036951 1.0163953
000010 a4 e3 83 3f 72 05 82 3f 67 81 80 3f b2 fc 7a 3f
       1.0303845 1.0157912 1.003949 0.9804183
000020 83 35 81 3f f8 ac 7b 3f ee d3 81 3f 32 93 81 3f
       1.0094455 0.98310804 1.0142801 1.0123045
000030 f7 ce 81 3f e9 e8 7c 3f d8 76 7e 3f 01 ce 80 3f
       1.0141286 0.9879289 0.9940009 1.0062867
000040 6a bd 79 3f b3 92 7f 3f 1a ba 80 3f 65 0b 7a 3f
       0.9755465 0.9983322 1.0056794 0.97673637
000050 71 eb 81 3f 7b 15 7f 3f dd 95 7c 3f 68 22 83 3f
       1.0149976 0.9964215 0.98666173 1.0244875
000060 ef 3f 7d 3f 26 d8 83 3f 89 86 80 3f 33 57 7d 3f
       0.9892568 1.0300338 1.0041057 0.9896118
000070 07 59 7a 3f bf 85 80 3f d4 3f 7c 3f 74 5b 83 3f
       0.97792095 1.0040816 0.98534894 1.0262284
000080 26 de 7a 3f df 5e 7c 3f fa 7e 7b 3f 66 0d 80 3f
       0.9799522 0.9858226 0.98240626 1.0004089
000090 37 78 80 3f 23 4e 79 3f 9a 7b 7e 3f c8 db 7b 3f
       1.0036687 0.9738485 0.9940735 0.98382235
0000a0 27 7f 80 3f 6d aa 7b 3f 73 dd 7f 3f 0b cd 7c 3f
       1.0038804 0.98306924 0.9994728 0.9875037
0000b0 50 20 78 3f 21 89 77 3f 53 1b 80 3f c4 a9 80 3f
       0.96924305 0.9669362 1.0008339 1.0051808
0000c0 30 be 85 3f 56 e0 7b 3f d1 25 7f 3f 10 c4 7f 3f
       1.0448666 0.98389184 0.9966708 0.9990854
0000d0 40 dd 80 3f 33 2f 7d 3f e4 89 7b 3f 78 4a 7d 3f
       1.006752 0.98900145 0.9825728 0.98941755
0000e0 17 42 7d 3f b3 c2 7f 3f b7 00 81 3f 55 8b 7f 3f
       0.9892897 0.9990646 1.0078343 0.9982198
0000f0 29 65 82 3f 10 64 7c 3f 88 27 80 3f f3 26 82 3f
       1.0187122 0.98590183 1.0012064 1.0168136
000100 03 6c 7b 3f d9 50 80 3f ce 7b 7e 3f d3 67 80 3f
       0.9821169 1.0024673 0.9940766 1.0031685
000110 55 37 83 3f f0 02 81 3f f0 54 7b 3f 4d d7 82 3f
       1.0251261 1.0079021 0.9817648 1.0221955
000120 43 d1 7b 3f a7 ad 7f 3f 25 e2 7a 3f 2f 42 7f 3f
       0.98366183 0.9987435 0.9800132 0.99710363
000130 83 ac 7d 3f 87 de 81 3f a5 9d 7b 3f 65 fe 7a 3f
       0.99091357 1.0146035 0.9828742 0.98044425
000140 ea 41 80 3f 82 22 82 3f bb 43 7f 3f a9 4b 81 3f
       1.0020115 1.0166781 0.99712723 1.0101215
000150 78 82 7c 3f d4 1a 7f 3f 9f fc 80 3f 75 46 7d 3f
       0.9863658 0.9965031 1.0077094 0.98935634
000160 89 7b 7b 3f 30 65 7c 3f 5d 3a 80 3f 12 ab 86 3f
       0.98235375 0.985919 1.0017811 1.0520957
000170 5b 5c 80 3f c9 c6 7e 3f 4f 65 7c 3f 02 60 7b 3f
       1.0028185 0.9952207 0.98592085 0.9819337
000180 47 ce 7f 3f 84 a4 7f 3f 6e 8b 81 3f 0a 22 7d 3f
       0.9992413 0.99860406 1.0120676 0.98880064
000190 a0 19 80 3f 7a e2 7b 3f 11 76 7e 3f 85 d1 7f 3f
       1.000782 0.9839245 0.99398905 0.99929076
0001a0 78 77 7d 3f b4 90 84 3f 75 b3 80 3f d3 2c 7e 3f
       0.9901042 1.035666 1.0054766 0.99287146
0001b0 33 16 7b 3f c2 97 7e 3f 24 1d 80 3f 8f cf 82 3f
       0.9808075 0.99450314 1.0008893 1.0219592
0001c0 28 44 7c 3f d4 6c 7f 3f 16 65 80 3f 01 fd 7b 3f
       0.985415 0.99775434 1.0030849 0.9843293
0001d0 42 48 84 3f ba 20 81 3f 81 85 7e 3f b7 f1 79 3f
       1.0334551 1.0088112 0.9942246 0.9763445
0001e0 b0 b3 7d 3f 6b fb 7c 3f 01 8e 83 3f 06 6f 7b 3f
       0.99102306 0.98821133 1.0277711 0.98216283
0001f0 54 ff 84 3f 8c ca 7f 3f f7 51 84 3f c1 d4 7f 3f
       1.039042 0.99918437 1.0337514 0.9993401

layers.1.bias f4 [128]
000000 2e 0a 6c bb 3b 8d 07 bc 94 5c b7 3c 18 92 7b 3c
       -0.003601681 -0.008273418 0.022383012 0.015354656
000010 5e 1e da 3c c3 d2 6b 3c 7a 92 03 3c 4c b2 97 bc
       0.026625808 0.014393511 0.008030528 -0.018517636
000020 4b 2d 23 3d b3 5a 74 bc 42 66 a5 3c 87 29 97 3c
       0.039838117 -0.0149142025 0.020190362 0.018452419
000030 b6 04 0a 3d c6 ad ee bb 15 ff 85 bb 05 02 be 3c
       0.0336959 -0.007283899 -0.004089246 0.023194322
000040 c0 1d 6d bc d7 7b a0 bb 6e 48 86 bc ff 4a 85 bc
       -0.014472425 -0.0048975754 -0.016391959 -0.016271112
000050 1a 24 05 3c 34 fc 1a 3c 24 04 3b bc 8c 4d 20 3d
       0.008126283 0.009459544 -0.011414561 0.039136454
000060 ef e7 16 bc 7f b3 ac 3b 8b 55 84 3c cf e6 12 bc
       -0.009210571 0.005270421 0.016154071 -0.008966162
000070 91 b1 43 bc 34 6a 9e b9 b4 3b a6 bb 36 f8 df 3c
       -0.011944191 -0.00030215236 -0.005073035 0.027340036
000080 ac f4 be bc cb 52 94 bc f0 7d 7e bc 56 bd dc b9
       -0.023310028 -0.018105885 -0.0155329555 -0.00042102736
000090 80 81 87 bb 06 9b 78 bc df 12 cb bb 7f ea ba bb
       -0.0041353106 -0.015173679 -0.006197318 -0.0057042236
0000a0 12 e2 9c 3c 0a 5c f8 bc bf 10 8f bc 45 e8 82 3b
       0.019150767 -0.030317325 -0.01746404 0.003994974
0000b0 ba c0 d7 bc da 29 c9 bc 73 d6 b1 3b 32 1e 99 bb
       -0.026337016 -0.02455609 0.0054271757 -0.004672789
0000c0 e0 22 e9 3c a3 3b 9b bb 9a 24 e2 ba 3e 2b f7 3c
       0.028459013 -0.004737334 -0.001725334 0.030171987
0000d0 57 69 14 3b e4 eb db ba 95 8d 30 bc 3d c8 3e bb
       0.0022645795 -0.0016778675 -0.010775943 -0.002911105
0000e0 f7 f1 9d bb 64 ba eb ba ce 50 06 3c 4f 25 a8 3b
       -0.004820104 -0.0017984626 0.008197976 0.0051314007
0000f0 a9 18 f0 3c 15 dc 4f bc 2d 42 b6 3c 0e b4 f0 3b
       0.029308634 -0.012686749 0.022248352 0.007345683
000100 70 d4 92 bc 79 dd 68 3c a9 6d ec bb 30 af 75 3c
       -0.017923564 0.014212959 -0.007215221 0.014995381
000110 04 01 08 3d c4 57 19 3c 37 2c 91 bc 4b f1 98 3b
       0.033204094 0.009359304 -0.017721279 0.0046674362
000120 a3 57 2e bc 9c b2 75 3c 28 01 88 bc 52 d0 c7 bb
       -0.010641011 0.014996197 -0.016602114 -0.0060978318
000130 b6 32 7e bc 8e ab 46 3c 33 47 93 bc ca e3 2a bc
       -0.01551502 0.012125863 -0.017978286 -0.010430286
000140 85 b1 77 3b 8b ff 74 3c 57 52 d4 bb ae 6d c3 3b
       0.003779502 0.014953504 -0.0064795422 0.0059640026
000150 b3 39 6f 3c 1f 5b c1 3c d2 1f af 3b 89 cf 90 bc
       0.014601159 0.02360302 0.0053443694 -0.017677085
000160 34 12 2e bc ff 12 80 3c 56 45 5e bc 85 1a 17 3d
       -0.010624457 0.015634058 -0.013566336 0.036890525
000170 b5 c0 15 bc 43 9c 10 3c d3 bc 28 3b 29 94 0f bc
       -0.009140183 0.008826318 0.0025747314 -0.0087633515
000180 4c 35 4a 3c 71 e9 d0 3a 4f 6c 68 3b 4b 91 5e bc
       0.0123418085 0.0015938712 0.0035464948 -0.013584445
000190 8d 76 11 3c e4 15 8d bc 77 b9 1e 3c d3 82 90 ba
       0.008878362 -0.017222352 0.009687773 -0.0011025317
0001a0 1a 05 b6 bc 76 83 e2 3c ef e2 69 3c d0 da ad bb
       -0.02221923 0.027650576 0.014275297 -0.0053056255
0001b0 94 77 97 bc a1 5b 95 bc 17 09 d3 3a 5f 57 ca 3c
       -0.018489636 -0.018232169 0.0016100731 0.024699865
0001c0 d5 f1 26 bc 0b 44 35 bc 1b 44 fa bb 4a 69 b2 bb
       -0.010189493 -0.011063586 -0.0076375133 -0.0054446803
0001d0 30 4b 93 3b 38 38 7c 3c de 00 4e 3c bf 25 2d bc
       0.004495047 0.015394263 0.012573449 -0.010568081
0001e0 45 13 5c bb 93 40 4b bc 07 b8 29 3d 24 6c 38 bc
       -0.0033580821 -0.012405532 0.041435268 -0.0112562515
0001f0 95 6f 11 3d 35 d1 33 39 ba 1b 6d 3d 10 32 69 bb
       0.035506804 0.00017148706 0.05788777 -0.0035582818

layers.1.running_mean f4 [128]
000000 83 b8 75 3e 2f 46 2d bd 1d 9c 29 3e 22 39 14 3d
       0.23996167 -0.04230326 0.16563459 0.0361873
000010 8b 99 9f be f8 b0 59 be a9 01 7e 3e 90 3c 23 3e
       -0.3117183 -0.21258914 0.24805321 0.15941072
000020 50 e3 12 3e 46 cc 60 3e 7f 19 75 3e 1b a2 90 3e
       0.14344525 0.21952924 0.23935507 0.28248677
000030 48 28 69 bd 15 d9 83 be 12 b8 f2 3d 2c a1 c9 3d
       -0.05692318 -0.25751558 0.11851515 0.09845194
000040 2a df 36 3d e6 78 0a bd f2 98 11 3d d5 60 92 be
       0.04464642 -0.033806704 0.03554625 -0.28589502
000050 be 6f 3b 3d 91 e2 ed 3d a7 e8 8c 3e 10 29 a0 bd
       0.045760863 0.1161548 0.2752125 -0.07820332
000060 9a 4e 94 be 7e 86 4c 3c 4a 16 dd 3d 0c 50 34 be
       -0.28966218 0.012483237 0.10795267 -0.1760866
000070 f5 4e 82 3d df 0a ac 3d dd 96 02 be e6 b1 86 be
       0.06362716 0.08400511 -0.12752862 -0.263076
000080 06 53 84 3d e5 83 a4 bc 8c 23 0c be 23 17 a8 bd
       0.06461148 -0.020082423 -0.13685435 -0.08207538
000090 1c c1 fb bd ee 99 0a 3e 7a 70 d2 bd 44 d9 8e be
       -0.12292692 0.13535282 -0.102753595 -0.27900136
0000a0 c8 21 0f bd 34 06 ba 3b fd 8b 50 bc 2b 82 e1 3d
       -0.034944326 0.005677009 -0.012728688 0.11011156
0000b0 99 21 bd bd 8e 0a 3b 3c 0d 1f 7e 3e 07 4c cb be
       -0.09234924 0.011416091 0.24816532 -0.39706442
0000c0 1e 53 7a 3d 92 ce 3e be b4 35 76 3e 63 3e e7 bd
       0.061114423 -0.18633488 0.24043924 -0.11291196
0000d0 0c cc 9a 3e 10 e6 4d 3e b1 cc b6 be 76 73 1d be
       0.302338 0.20107293 -0.35703042 -0.15376076
0000e0 08 9d 6d 3e 21 c3 17 3e 9a 1e e7 bd 0c 6f c0 3d
       0.23204434 0.1482053 -0.11285134 0.093961805
0000f0 96 af 95 3e 0f 99 a9 3c 07 74 06 3e 5d 4b dd 3d
       0.29235524 0.020702867 0.13130198 0.1080539
000100 f6 dd a5 be ce 04 89 3c e2 ad 8e bd 41 49 06 be
       -0.32395905 0.016725924 -0.06966759 -0.13113882
000110 09 53 69 3e 18 68 c2 be a7 bd 87 bc 25 7a e5 bc
       0.22785582 -0.37970042 -0.016569925 -0.028012345
000120 ed 54 39 3e af 92 ac 3e d0 a6 48 bd 40 30 d4 3c
       0.18098803 0.3370566 -0.04898721 0.025901914
000130 ca 4c a3 be 69 17 93 3e a8 29 16 3e 0b ff ad 3d
       -0.31894523 0.28728798 0.14664328 0.08495911
000140 ab dc 57 3e 01 8b 16 be 49 7f a2 be 6c 1f 97 3a
       0.21080272 -0.14701463 -0.31737736 0.001152975
000150 19 e8 ba be 9b 30 0c 3e d8 34 b7 3e d0 a7 81 3e
       -0.365052 0.13690417 0.35782504 0.25323343
000160 fb 28 72 3e 0f 89 93 bd d6 94 6d be 12 49 09 3e
       0.23648445 -0.07203876 -0.23201308 0.1340678
000170 05 52 a7 3d ba f7 8e 3d a9 bf 3f 3e 20 e7 53 3d
       0.08169941 0.06980844 0.18725456 0.05173409
000180 0c 9d 9a be 39 81 8b 3e 40 5f 95 bd b2 08 c1 3c
       -0.30197942 0.27247027 -0.07293558 0.023563717
000190 e9 4f a7 ba 7c 5c 2e be 32 38 5f 3e b0 e3 aa bd
       -0.0012764904 -0.17027467 0.2179878 -0.08344209
0001a0 7b 8d 37 bd e5 ef d9 be c1 aa 9e 3e 9a 36 69 be
       -0.04481266 -0.42565838 0.3098965 -0.22774735
0001b0 46 b3 8e 3e f5 78 3a 3e e1 98 aa 3e 09 f7 60 be
       0.2787115 0.18210204 0.33319762 -0.21969236
0001c0 07 79 51 3e 54 6c fd bd bc 36 e1 3d eb 00 34 3e
       0.20456325 -0.123741776 0.10996768 0.17578475
0001d0 99 4f 20 3e 6a 9a a4 be 43 b2 c7 be f6 5e 61 3e
       0.15655364 -0.3214906 -0.3900319 0.22008881
0001e0 09 19 19 be ed 32 cd bc 30 1c 68 be 4a cb c9 bd
       -0.14950956 -0.025048697 -0.22667003 -0.098532274
0001f0 9b 39 80 bc aa e6 c4 bd de 2c ad 3d 0b 13 7e 3e
       -0.015652468 -0.09614308 0.08455823 0.24811952

layers.1.running_var f4 [128]
000000 46 08 7e 3e 1f fd db 3e ed 01 8f 3e ff 3e 8f 3e
       0.24807844 0.42966554 0.27931157 0.2797775
000010 d0 c8 bb 3e a2 8c 25 3e c1 16 c2 3e 2b dd 76 3e
       0.36676645 0.16166928 0.37907985 0.24107806
000020 35 06 5b 3e 3b 9d 1c 3e 8e 1b 52 3e 58 ad 84 3e
       0.21389087 0.15294354 0.20518324 0.259135
000030 d6 00 0e 3f f6 21 00 3f 21 70 33 3f 93 26 01 3e
       0.55470026 0.5005182 0.7009297 0.12612371
000040 95 6e 9a 3e ca 54 88 3e 7d 7d e8 3e 03 4f 62 3e
       0.30162492 0.2662719 0.4540824 0.22100453
000050 a3 26 65 3e 18 56 92 3e 80 95 8b 3e 3f 62 ac 3e
       0.2237802 0.2858131 0.27262497 0.33668706
000060 69 6d 11 3e cb 42 d5 3e 47 e1 83 3e e8 3b de 3d
       0.14201893 0.41652521 0.2575781 0.1085127
000070 5f 4a f7 3e 65 fd 98 3e 06 36 e2 3e 0e 91 db 3e
       0.48298928 0.29880825 0.44181842 0.42884105
000080 c3 a4 9c 3e b4 dd 5a 3e bf b7 0c 3e 48 46 85 3e
       0.30594453 0.21373636 0.13741969 0.26030183
000090 e9 fe 77 3e 72 d0 d0 3e 6c 6f f9 3e be a6 45 3e
       0.24218334 0.4078403 0.4871782 0.19301888
0000a0 b4 97 8c 3e ba 47 11 3e 39 43 3b 3e 86 86 8c 3e
       0.2745949 0.14187518 0.18287362 0.27446383
0000b0 d8 0d 6e 3e f3 34 08 3f 8f d7 bc 3e dd e4 33 3f
       0.23247468 0.53205794 0.36883208 0.7027109
0000c0 5f 40 02 3f 24 47 11 3f 88 99 d2 3e 38 54 0e 3e
       0.5087947 0.56749177 0.4113276 0.13899314
0000d0 88 be 9f 3e ef 30 f2 3e 09 0c a6 3e 30 30 84 3e
       0.3120005 0.47302958 0.32431057 0.25818014
0000e0 af 3c 89 3e 79 0d d6 3e 64 0e a8 3e ac 94 5d 3e
       0.2680411 0.41807154 0.3282348 0.21638745
0000f0 ef 19 cc 3e b3 58 aa 3e 4b d1 93 3e 0b c5 12 3e
       0.39863536 0.33270797 0.28870615 0.14332978
000100 6f 43 97 3e f5 30 4d 3e 01 72 4a 3e 35 81 d0 3e
       0.29543635 0.20038207 0.19770052 0.40723577
000110 27 99 b8 3e 82 0a 8c 3e d3 24 5a 3e 92 aa 59 3e
       0.36054346 0.27351767 0.2130311 0.21256474
000120 49 10 63 3e f5 85 8f 3e d4 2c af 3e 6f d4 0f 3f
       0.22174181 0.2803189 0.3421389 0.5618352
000130 1e 1f 3e 3e 54 ec 10 3f 39 60 6c 3e ab 1b 6f 3e
       0.18566558 0.5661061 0.23083581 0.23350398
000140 db f3 b0 3e 5c 41 79 3e d1 b1 f0 3e bf c3 b1 3e
       0.34561047 0.24341339 0.47010663 0.34719655
000150 06 17 a1 3e 1e 47 90 3e 05 8c 1f 3e a5 4a 47 3e
       0.31462878 0.28179258 0.15580757 0.19462068
000160 49 9a 78 3e 3a 70 96 3e da 6b 96 3e 1b e8 39 3e
       0.24277605 0.29382497 0.2937916 0.18154947
000170 29 9e d0 3e 7c 49 3e 3f 54 bf d9 3e 56 f3 8d 3e
       0.40745667 0.7433088 0.42528784 0.27724713
000180 6f 4f 56 3e c3 e0 de 3e c3 ae e1 3e 4c 8d 55 3e
       0.20928739 0.43530855 0.44078645 0.20854682
000190 53 68 29 3e 15 68 87 3e 23 d4 2a 3e 3b ef f7 3e
       0.16543703 0.26446596 0.16682486 0.48424706
0001a0 c4 af 7f 3e 80 f3 8b 3e a2 5a 93 3e 0b f6 83 3e
       0.24969393 0.27334213 0.28780085 0.25773653
0001b0 83 ed cc 3d 92 30 b2 3e 04 2d c1 3e 7b 63 f8 3d
       0.10006239 0.3480268 0.37729657 0.121283494
0001c0 91 fe c3 3e 20 ab b3 3e 81 65 b2 3e 1e 73 be 3e
       0.38280156 0.35091496 0.34843066 0.37197202
0001d0 ce 8c 84 3e df 78 8d 3e 54 c5 63 3e 13 30 3b 3e
       0.25888675 0.2763128 0.22243243 0.18280058
0001e0 95 92 ec 3e 7d 7e 94 3e d0 bb cb 3e 30 b8 28 3e
       0.46205583 0.29002753 0.39791727 0.16476512
0001f0 dc ad 0a 3f 7e f5 04 3f 4d c5 9a 3e d8 01 5a 3e
       0.5417154 0.5193709 0.30228654 0.21289766

layers.4.weight f4 [128, 128]
000000 b1 fa 88 bc ca f8 82 bd 87 5b d6 bd f5 51 05 bd
       -0.016721101 -0.06395109 -0.10466676 -0.032548863
000010 88 34 47 bc 54 14 5a 3d 7b 81 97 3c 6a 09 2f bd
       -0.0121585205 0.053242043 0.018494358 -0.042733587
000020 21 20 27 bd 18 70 93 bc 17 ee 6c 3d 94 2b 37 bd
       -0.040802125 -0.017997786 0.057844248 -0.044719294
000030 68 39 9b 3a 1d 5d 4a bd 3b 5d 52 bd af 5e 0b bc
       0.001184267 -0.049405206 -0.051358443 -0.008506461
000040 3f b1 75 3d 8d a7 f7 bc 12 2c 00 bd a6 74 76 bd
       0.05998349 -0.030231262 -0.03129203 -0.06016984
000050 bd cd 1b bc 33 dd 81 3a 05 3d 95 bd d7 7c 9c 3c
       -0.009509501 0.0009907841 -0.07287029 0.019102497
000060 b8 79 3e bb 1e 7b 18 bd 58 39 d7 bc 94 73 be 3c
       -0.002906425 -0.03722679 -0.02627246 0.023248471
000070 e9 82 82 3d 0f 52 10 bd 6f 9e 72 bd 48 73 63 bc
       0.063726254 -0.035234507 -0.059233125 -0.013882466
000080 8e 62 57 bb 06 69 f5 bc b2 70 60 3d 1a dc 33 3d
       -0.003286514 -0.029957306 0.054794975 0.043911077
000090 16 98 6d 3d 45 fd 46 bd 1a 41 56 3d a9 e2 b0 bb
       0.05800637 -0.04858138 0.05230818 -0.0053981137
0000a0 84 31 96 3d 90 a7 6e bc 58 9d bf 3d 22 64 16 bd
       0.07333663 -0.014566317 0.09356183 -0.036716588
0000b0 3a 7d 05 3c cf ab c8 3a e4 2f 19 3d e3 b1 49 3d
       0.008147532 0.0015309992 0.037399188 0.04924191
0000c0 dc 98 a4 bc 1c de 74 bd 3d d7 93 bd 65 08 a9 3d
       -0.02009242 -0.059782133 -0.07218788 0.08253554
0000d0 85 99 1a 3b 6a 06 7e 3d 34 34 4c 3c 97 17 0f bd
       0.002359004 0.062017836 0.012463618 -0.034934606
0000e0 0d 88 85 ba 95 2c 6f 3d 54 f9 5e bd a5 1a 85 3d
       -0.0010187641 0.058392126 -0.054436997 0.06499223
0000f0 78 cb 94 bd 71 72 4f bd 16 b3 26 3d 32 00 27 3d
       -0.07265371 -0.05064625 0.040698133 0.04077167
000100 9a ba de ba 7a 2a b8 bc f1 7c c8 3d e2 49 80 bd
       -0.0016992867 -0.022481192 0.09789456 -0.06264092
000110 fb f3 c9 bc be 03 8a bb ae f8 8f bc 17 3d a2 bc
       -0.024652472 -0.004211872 -0.017574634 -0.01980452
000120 4d 4c cc bc 23 1e 07 3c 6e 12 a0 bc cc 2b 9d bb
       -0.024938727 0.008246931 -0.019540038 -0.0047964808
000130 a3 26 0a bd 1f 61 58 3c 0a c1 65 bd bd f9 ed bc
       -0.033728253 0.013206749 -0.0560923 -0.029049749
000140 7b 97 2a bd 46 d1 62 3c e0 e3 8f bd a4 e9 a2 bd
       -0.04164837 0.01384384 -0.070258856 -0.0795472
000150 80 04 0a bd 50 b1 0a 3c bd a8 c4 bc bd c4 52 bd
       -0.033695698 0.008465126 -0.024006242 -0.051457155
000160 e2 f6 99 3c 77 e8 95 bd 87 d3 3f bd 06 0f d4 3d
       0.01879448 -0.0731973 -0.046832588 0.10354428
000170 47 11 89 3d e6 32 77 bc c1 8f b7 bd e6 9b 9a bd
       0.066927485 -0.015087819 -0.08962966 -0.075492665
000180 b8 f1 5e 3b 04 e7 97 3d e4 56 e4 3c b4 ca 86 3d
       0.0034018587 0.074171096 0.027873464 0.06581631
000190 1b 96 81 3c 79 f2 3a 3c c5 61 b6 3c 56 50 d8 3c
       0.015818646 0.011410349 0.022263417 0.026405495
0001a0 b8 7a 05 3d 45 58 c3 3d 48 9b 8c 3c d5 15 7d bd
       0.032587737 0.095383205 0.017163888 -0.0617884
0001b0 13 33 4c bd bd a2 21 3c 9b 7e 1e bd 72 e4 b4 3d
       -0.049853396 0.00986546 -0.03869496 0.08832635
0001c0 9b 66 10 bd e5 c3 fa 3c 85 6e 4d 3d cd ca a3 3d
       -0.035254102 0.030610988 0.050154228 0.079976656
0001d0 92 79 80 3d c5 52 65 bd 79 94 6e 3d d1 b1 85 bc
       0.06273188 -0.05598714 0.058247063 -0.016320141
0001e0 62 98 94 3d 9f be 37 bd 3b f0 03 3d 8b 1d c7 3d
       0.07255627 -0.044859525 0.032211524 0.09722432
0001f0 64 b8 f0 bc 1a 2c 79 3c 05 34 25 3c 86 5f e1 bc
       -0.0293848 0.015208269 0.010083203 -0.02751137
000200 5f 93 e7 3c 03 13 1e bd 02 70 4d bd 10 c7 76 3d
       0.028268514 -0.03859235 -0.050155647 0.060248435
000210 35 1b 8f bd 24 71 2d bd 09 00 b7 3c 39 67 c0 3d
       -0.06987611 -0.042344227 0.022338884 0.09394688
000220 a2 0d 13 bd 2c aa c4 bc 36 ee 51 3d 45 d9 7a 3c
       -0.035901673 -0.024006926 0.051252566 0.01531059
000230 3d 34 27 3d ff 84 db 3c 5c 9e 4c bd 32 ef 3b bd
       0.040821303 0.026796816 -0.04995571 -0.04588241
000240 45 91 9b bd 4f 4f 71 3d bf 45 04 3c 1f 34 92 3b
       -0.07596067 0.058913525 0.008073269 0.0044617797
000250 40 54 82 bd c9 a3 c5 3c a8 3d 75 bc fd 18 6f 3d
       -0.06363726 0.02412595 -0.014968313 0.05837344
000260 62 f3 3b bd 3a 88 ae 3c 61 f0 37 bc 7d 28 9f 3d
       -0.045886405 0.021305192 -0.011226744 0.077713944
000270 a5 e4 f9 bc 98 e6 8e 3c 8c ce 84 3d 36 db 8f bd
       -0.030504534 0.01744394 0.06484708 -0.07024233
000280 15 27 3d 3d 85 03 4e ba 41 db d0 bc 8e 82 1c 3d
       0.04617985 -0.0007858801 -0.025495173 0.038210444
000290 48 60 c2 3b f1 6a 96 3d 32 cb 1b bd 08 29 5f bd
       0.005931888 0.07344616 -0.03803558 -0.05448249
0002a0 96 da 07 bb 67 dc ba 3d 3d d6 35 bd ed 2f 1f 3c
       -0.0020729653 0.0912407 -0.044393767 0.009716016
0002b0 ad 02 26 3d 04 89 8b bd 14 4a 3d bd 5a f1 ab 3c
       0.040529896 -0.06813243 -0.046213225 0.020989109
0002c0 81 45 77 bd 4a eb cd 3c 7b cb 9f 3d c0 59 2a bd
       -0.06036902 0.025136609 0.07802483 -0.0415895
0002d0 16 b0 9f 3d 5f b7 7f 3d 4d 13 9f 3b b6 a8 f1 3c
       0.077972576 0.062430736 0.0048545958 0.029499393
0002e0 d0 cc 96 3c fc 29 80 bd 08 aa b0 3d 72 ee cd bc
       0.01840821 -0.06258008 0.08626181 -0.025138114
0002f0 e9 fb af bb d7 40 59 b8 a9 a0 4a 3c 9f e8 01 bd
       -0.005370606 -5.179722e-05 0.012367406 -0.031715985
000300 d6 a2 d1 bd df f4 72 bd bf 3a a5 3c e3 8c 03 bb
       -0.102361366 -0.05931556 0.020169614 -0.0020072989
000310 8f 27 bd 3c ca 51 c8 bd 91 ff 2c bc d7 4f 69 bd
       0.023090152 -0.09781225 -0.010558979 -0.056960907
000320 1b 3b f9 bb bc 00 53 3d ce 88 48 bd 76 b9 90 3d
       -0.007605923 0.051514372 -0.048958592 0.07066624
000330 d9 01 2e bd 21 a7 81 bd 2a fb bf bc ad ae 8b bd
       -0.04248223 -0.063307054 -0.023435194 -0.06820426
000340 8b ea b9 bd c4 cf b7 bc 89 4e e3 3c d2 0e 6e 3d
       -0.09077939 -0.022437938 0.02774741 0.058119603
000350 a7 20 a1 3a a0 8a 02 3c 9d c6 aa 3d 71 b7 76 bd
       0.0012293056 0.007967621 0.08338664 -0.060233537
000360 39 dd 84 3d 48 05 a3 bd 59 78 12 bd d4 6c 8f bd
       0.064875074 -0.07959992 -0.035759304 -0.07003179
000370 6f a8 4e 3d 12 54 66 bd 15 c9 f0 bb 64 31 08 bd
       0.0504536 -0.05623252 -0.0073481896 -0.033250228
000380 17 ae b4 3c 05 11 b0 bb 72 76 91 bc 3e 28 34 bb
       0.022055669 -0.0053731226 -0.017756674 -0.0027489807
000390 54 72 9b bc 36 bb 8c bc a4 15 f1 bc c5 61 9b 3c
       -0.018975414 -0.017179113 -0.029429264 0.018967519
0003a0 84 a0 ac bd 3a af 94 bd b8 01 b2 3c 60 08 74 3d
       -0.084290534 -0.07259984 0.021729335 0.0595783
0003b0 4e 23 92 bd dd 9c 85 3d c6 94 2b bd fe af cb bd
       -0.0713564 0.0652406 -0.04188993 -0.09945677
0003c0 03 39 b3 3d b7 ca 43 bc 78 34 28 bd 3f c3 89 bd
       0.087511085 -0.011950186 -0.041065663 -0.06726693
0003d0 83 d5 43 bd 61 e3 94 3b 9e 43 93 bd 28 de 38 bc
       -0.047811043 0.0045437072 -0.07190631 -0.011283435
0003e0 8c 97 c7 bb be 13 74 bd c9 a6 91 bc 01 1d 55 bc
       -0.006091064 -0.05958914 -0.017779725 -0.013007403
0003f0 22 21 f7 3a 85 35 36 3d 3a 9f 7a 3c 2c 57 9b 3d
       0.0018854479 0.044484634 0.015296752 0.07584986

layers.4.bias f4 [128]
000000 99 67 80 bd 83 50 1c 3d dc c7 85 3d 35 64 91 3d
       -0.0626976 0.03816272 0.06532261 0.07099191
000010 54 d5 b4 3d 46 9e a4 3d 59 2c 9c bd 16 ff 1d 3d
       0.088297516 0.08038001 -0.07625646 0.038573347
000020 2a 91 2b bd 18 59 0d 3d c1 89 6d 3d a7 b4 a5 bd
       -0.041886486 0.034508795 0.0579927 -0.08091097
000030 74 f1 ee 39 de ac f6 bc 0e b0 ee 3c 3a ec 52 3d
       0.00045574794 -0.030111726 0.029136684 0.051494814
000040 9c 59 af b9 44 4c 88 bc 24 22 d0 3c 85 6b a4 3d
       -0.00033445365 -0.016637929 0.025406905 0.0802832
000050 59 41 a4 bd 56 09 73 3d f8 c5 a1 bc 0a 69 9e 3d
       -0.080202766 0.059335075 -0.01974772 0.07734878
000060 b7 f0 45 3c 1b 1c 4f 3d f6 db 84 bd 19 19 ce bc
       0.012081317 0.050563913 -0.06487267 -0.025158452
000070 ff c6 66 bd af 25 59 3d 10 fd 4f bd bc e0 6b bc
       -0.05634212 0.053014454 -0.05077845 -0.014396843
000080 83 01 6d 3d 62 46 2e bd ce ed 30 3c 06 17 52 3d
       0.05786277 -0.04254759 0.010798885 0.051291488
000090 03 5d 64 bc a5 fe 72 bd 7f 23 17 3d 83 95 a2 3d
       -0.013938191 -0.05932488 0.036899086 0.07938673
0000a0 34 bc 84 bd 68 9c 9f 3c 88 c2 66 bd d9 6e a9 3d
       -0.064812094 0.01948376 -0.056337863 0.08273096
0000b0 5e 07 7a 3d d3 e8 92 bd c6 2b 98 3d 42 8b e9 3c
       0.061042182 -0.07173314 0.07430224 0.028508786
0000c0 ce bd 21 bd e9 71 50 3d 60 3e 75 bd 6a ae 47 bd
       -0.039487652 0.050889883 -0.05987394 -0.04875032
0000d0 d2 61 8c bd d1 59 a8 bb a7 98 9d 3d b4 7d 15 bc
       -0.06854595 -0.00513766 0.07695132 -0.009124208
0000e0 cd f2 53 3c 70 95 a5 bd 8b 44 77 3d 3e 3d 83 bd
       0.012936306 -0.080851436 0.060368102 -0.064081654
0000f0 b9 cb 95 3d b2 7c a3 bd 2a 55 ef bc e9 ee 21 3d
       0.07314248 -0.07982768 -0.029215414 0.039534483
000100 34 27 93 3d 07 eb be bc cb 7b 16 3d 7f b3 b4 bc
       0.07185212 -0.02330543 0.036739152 -0.022058247
000110 8b a0 2b bd db 15 a6 bd 5c a8 5b 3d 50 0b 67 bd
       -0.041901153 -0.08109637 0.053627357 -0.056407273
000120 89 46 1a bd 8d 03 d3 3c 31 68 7c bd 82 76 81 3d
       -0.037664924 0.02575853 -0.061622802 0.06321432
000130 69 cc 80 3d 2c d3 46 3d 08 5c 56 3d df fc 7d 3d
       0.06288988 0.048541233 0.05233386 0.062008735
000140 46 8d 15 bc 1e 19 0d bd 7c f7 a0 3d b6 1a 2f bd
       -0.0091279205 -0.03444778 0.07859704 -0.042750083
000150 18 25 26 bc 29 16 76 bd a5 fc d9 3c 3e 93 b3 bd
       -0.01014068 -0.060079727 0.026609728 -0.087683186
000160 67 e9 86 bd c3 1d 8d bd be 24 91 3d df 81 00 3d
       -0.06587487 -0.06890442 0.07087086 0.031373855
000170 7a 91 17 bd 11 1d 9b bd b9 7e 90 3d cc 1e 4c bd
       -0.03700397 -0.07573903 0.070554204 -0.049834058
000180 6d 36 29 3d 1c 6a aa bb f5 09 40 bd d7 b4 81 3d
       0.04131167 -0.0052006375 -0.046884496 0.063333206
000190 87 25 17 3d 63 bb a7 3c 38 45 5b bd b2 cd 9c bd
       0.036901023 0.020475095 -0.05353281 -0.07656421
0001a0 1f af 39 bd 20 b5 98 bd bb 06 8a 3d 61 39 94 3d
       -0.045333024 -0.07456422 0.06739565 0.07237507
0001b0 cb e3 38 bc e1 ee a5 3d 16 41 f8 bb bf 01 5d 3d
       -0.011284779 0.08102203 -0.007576118 0.053956743
0001c0 62 18 c9 3b 0d c5 69 3d 63 de 2a bd 3b 47 a5 bd
       0.00613694 0.057072688 -0.04171599 -0.08070227
0001d0 34 f0 96 3d 51 fa 1b 3d 2c ac f8 bc ed 7e 4c ba
       0.07370034 0.038080517 -0.030355535 -0.0007800896
0001e0 a4 83 9e bc ba 0e 01 3c ca 7a ae 3d d3 a6 8c 3d
       -0.01934988 0.007877046 0.08519514 0.06867757
0001f0 fa fb 6a bd 0f 7f 88 bd 37 af 9c 3d cf 87 f5 3a
       -0.05736921 -0.066648595 0.07650607 0.0018732491

layers.5.weight f4 [128]
000000 7a 16 7f 3f 63 e5 80 3f bf bf 7e 3f 9a 96 7b 3f
       0.9964367 1.0070003 0.9951133 0.98276675
000010 18 c8 82 3f 13 50 80 3f 6c 4f 7b 3f cb 87 7d 3f
       1.0217314 1.0024437 0.98168063 0.9903533
000020 31 50 7d 3f 59 9a 80 3f 92 d5 7f 3f bf 3d 7e 3f
       0.9895049 1.0047103 0.9993526 0.9931297
000030 f5 d7 82 3f 55 8e 7d 3f 03 9c 7d 3f c1 06 83 3f
       1.0222155 0.99045306 0.9906618 1.0236436
000040 7f 66 7e 3f 05 2e 80 3f 66 cc 7d 3f 6f cf 7e 3f
       0.99375147 1.0014044 0.9914001 0.9953527
000050 63 84 7c 3f 04 06 7d 3f e6 67 7d 3f 1b 77 80 3f
       0.98639506 0.98837304 0.9898666 1.0036348
000060 fb b7 7b 3f bb f8 7f 3f 74 ad 7f 3f 12 37 81 3f
       0.98327607 0.9998891 0.99874043 1.0094931
000070 e5 ef 80 3f 24 3d 80 3f 7e c3 7b 3f 10 80 7a 3f
       1.007321 1.0018659 0.9834517 0.9785166
000080 c1 e9 7b 3f 2a e4 80 3f ad 55 7d 3f 19 d7 7b 3f
       0.98403555 1.006963 0.98958856 0.9837509
000090 2d 8e 7b 3f 5b 3d 80 3f c2 8e 80 3f 71 53 83 3f
       0.9826382 1.0018724 1.0043566 1.0259839
0000a0 fe 03 7b 3f 21 31 7d 3f 1e ab 7c 3f a6 7f 80 3f
       0.98052967 0.9890309 0.98698604 1.0038955
0000b0 3e 4c 7c 3f 84 1a 7f 3f a9 9f 79 3f da df 7c 3f
       0.98553836 0.99649835 0.9750925 0.9877907
0000c0 b3 36 82 3f 5e 4a 82 3f 15 b3 79 3f ed e9 7f 3f
       1.0172943 1.0178945 0.9753888 0.9996632
0000d0 e8 59 81 3f fd df 84 3f a1 5e 7f 3f 83 b5 7f 3f
       1.0105562 1.0380856 0.9975377 0.9988634
0000e0 4b b0 7c 3f 5a 84 7b 3f 66 0d 83 3f 19 42 79 3f
       0.987065 0.9824883 1.0238464 0.9736648
0000f0 79 6a 80 3f c6 c2 80 3f c9 0b 7c 3f e6 f4 7d 3f
       1.0032493 1.005944 0.9845548 0.9920181
000100 04 87 7d 3f 1c 0f 7e 3f 25 76 80 3f cd 0a 7e 3f
       0.9903414 0.99241805 1.0036055 0.9923523
000110 30 7a 83 3f a9 b0 80 3f 60 84 80 3f d5 bd 7b 3f
       1.0271664 1.0053912 1.0040398 0.98336536
000120 f5 d2 83 3f 4b 8e 7c 3f 9b 1c 7e 3f d0 60 7d 3f
       1.0298754 0.9865462 0.992624 0.9897585
000130 9a 2f 81 3f b2 61 7e 3f f2 54 81 3f 73 25 85 3f
       1.0092652 0.9936782 1.0104048 1.0402054
000140 a8 6a 7e 3f 97 be 7f 3f 4e 4e 7d 3f 64 a1 81 3f
       0.99381495 0.9990019 0.9894761 1.0127378
000150 83 d8 80 3f 72 01 7f 3f b8 36 7a 3f dd 09 82 3f
       1.0066074 0.9961158 0.97739744 1.015926
000160 e2 f2 84 3f e6 e3 78 3f db 2d 82 3f da aa 7b 3f
       1.0386622 0.97222745 1.0170244 0.98307574
000170 eb b5 80 3f fe 14 83 3f 2e 7c 82 3f e9 45 82 3f
       1.0055517 1.0240781 1.0194147 1.0177585
000180 56 e5 80 3f 66 3b 85 3f 24 25 80 3f 1f 5d 84 3f
       1.0069988 1.0408752 1.0011334 1.0340918
000190 13 5e 7b 3f da 33 81 3f 1a c1 83 3f 49 de 7b 3f
       0.9819042 1.0093949 1.0293305 0.98386055
0001a0 04 f3 79 3f ed 07 82 3f 49 75 7d 3f d5 51 7e 3f
       0.9763644 1.0158669 0.9900709 0.99343616
0001b0 77 2c 7b 3f da 6b 7e 3f 48 70 80 3f 3b f8 7c 3f
       0.9811472 0.9938332 1.0034266 0.9881627
0001c0 35 89 79 3f 1c 1e 81 3f ca a6 80 3f 0c c5 79 3f
       0.97474986 1.0087314 1.00509 0.97566295
0001d0 8c 4b 7b 3f 48 d7 7c 3f 2f 75 7a 3f cb 21 7e 3f
       0.9816215 0.98765993 0.9783506 0.99270314
0001e0 6a 13 84 3f 8b 7f 7f 3f e2 f1 7c 3f df f4 79 3f
       1.0318425 0.9980399 0.98806584 0.9763927
0001f0 f2 f7 7b 3f 7d 91 81 3f a0 25 7d 3f fa 11 7d 3f
       0.9842521 1.0122524 0.98885536 0.98855555

layers.5.bias f4 [128]
000000 8a a1 11 3c a0 eb 28 3c 33 75 f7 3a ed 6f 8f bb
       0.008888612 0.010310084 0.0018879533 -0.0043773563
000010 72 f6 03 3d 22 e7 8a 3c 67 20 3f bc 98 b3 d5 bb
       0.03221745 0.016955916 -0.01166544 -0.0065216534
000020 db 2d 15 3b 39 b3 2b 3c a2 0a 54 3c 3b 0e 8c 3b
       0.0022762928 0.010479742 0.012941988 0.0042741573
000030 90 77 95 3c 0d b1 1b bc 4e fd 2b 3b 08 82 96 3c
       0.018245488 -0.009502661 0.002624351 0.01837255
000040 f9 8a 79 39 a7 e4 c9 3b 84 88 b1 bb 6c c3 26 39
       0.00023798262 0.0061612907 -0.0054178853 0.00015903794
000050 7e fc 4f bc 0b b3 dd bb e8 1a 53 3c 44 5c ad 3c
       -0.012694476 -0.0067657284 0.012884833 0.02116216
000060 e7 c8 e5 bb 2b 24 95 3c 8c 83 8d 3c 7e 7c d3 3c
       -0.007012475 0.018205723 0.01727464 0.025816198
000070 5d cd f5 ba 56 87 b7 3b 45 14 22 bc 66 1a 96 bc
       -0.001875322 0.00560085 -0.009892528 -0.018323135
000080 d0 8f 00 bc af 4e 9c 3c 1c a4 40 bc 63 02 5a bc
       -0.007846788 0.019080488 -0.011757877 -0.013306233
000090 4f cf ee bb 3b 6d 5b ba 51 c6 bf 3b b2 c3 1a 3d
       -0.0072878967 -0.00083704636 0.0058524986 0.037784286
0000a0 07 dd 54 bc 2d c6 49 bc 74 7e f5 bb e1 3b 8b 3b
       -0.01299215 -0.012315315 -0.007491881 0.0042490815
0000b0 45 35 5b bc d5 97 f3 ba 08 df ae bc e7 27 c2 bb
       -0.0133794 -0.0018584678 -0.021346584 -0.005925167
0000c0 ac 61 7d 3c 78 ca bb 3c 17 48 af bc 52 1e 62 3b
       0.015465181 0.022923693 -0.02139668 0.0034502936
0000d0 62 2c 79 3c 32 0d 32 3d 30 d8 45 3c f6 37 a9 39
       0.015208336 0.043469615 0.012075469 0.00032275886
0000e0 0a b9 2e bc 67 53 8d bc df 76 94 3c d7 a0 f5 bc
       -0.010664234 -0.017251683 0.018123088 -0.029983921
0000f0 1e 4f 65 3c e9 b5 5a 3c fc c5 a7 bb 39 37 0b 3c
       0.013995914 0.013349035 -0.005120037 0.008497053
000100 53 94 8c bb c7 4a 28 bc 18 49 04 3b 7c f7 f2 bb
       -0.0042901426 -0.010271735 0.0020185169 -0.0074147563
000110 41 05 0e 3d ef 5a fe 3c b4 87 9b 3c 31 89 d3 bb
       0.03467298 0.03104922 0.018985607 -0.0064555635
000120 8a bb 04 3d 43 16 32 bc cf 82 95 bb e0 aa 86 bc
       0.032405414 -0.010869565 -0.0045627127 -0.016438901
000130 f8 d2 d1 3b 5f 14 ad 3a e9 4a 98 3c b5 df 02 3d
       0.0064033233 0.0013204924 0.018590407 0.031951625
000140 73 ae 59 3a df 35 06 3b dc 29 af bb 25 d9 97 3c
       0.0008303888 0.0020478887 -0.005345566 0.01853616
000150 b4 21 c3 3b 09 d9 9d bb f0 ad 8a bc 6e 87 ed 3c
       0.0059549455 -0.0048171324 -0.016928643 0.028995242
000160 8c b2 c9 3c f2 63 83 bc 4a dc 5d 3c f8 50 3e bc
       0.02462127 -0.016038869 0.013541291 -0.011615984
000170 80 2e a9 3c 41 28 02 3d 30 28 0d bb 13 0d e1 3c
       0.020652056 0.03177667 -0.0021538846 0.027472055
000180 47 f8 f8 ba 72 4e 27 3d 29 2d c0 3c 7e fc 22 3d
       -0.0018994891 0.040846296 0.023459034 0.039791577
000190 0d a5 53 bc 8a d0 e4 3b 6b c7 36 3d 9d 6d 41 bc
       -0.012917769 0.0069828676 0.044623774 -0.011805919
0001a0 43 1a f8 bb a2 ca f9 3c 38 bf 12 bc 5c 7e b6 3b
       -0.00757149 0.03049213 -0.008956723 0.0055692624
0001b0 45 fb 1e bc 22 34 f6 bb f1 17 0d 3c 6c fe fa bb
       -0.009703462 -0.007513539 0.008611665 -0.007659724
0001c0 c7 ad 9f bc d1 87 39 3c ec 76 04 3d e7 66 11 bc
       -0.019492043 0.011323885 0.032339975 -0.0088746315
0001d0 10 09 86 bc 19 32 e7 bb 7a e8 9f bc 67 24 da 3b
       -0.016361743 -0.0070555327 -0.019520033 0.0066571715
0001e0 bc 35 e3 3c f6 80 43 3c 54 11 42 bc 11 06 88 bc
       0.027735583 0.011932602 -0.011844952 -0.016604455
0001f0 95 c2 5f bc ad 79 95 3c f8 e9 31 3c fb 6d 89 bb
       -0.013657232 0.018246496 0.010859005 -0.004194019

layers.5.running_mean f4 [128]
000000 13 e4 be bd 26 9a 89 be 35 b4 b5 3d b1 6c 5e 3e
       -0.093208455 -0.26875418 0.088722624 0.2172115
000010 e6 f3 b8 be 0d d0 54 be 79 23 87 be ee 20 89 be
       -0.3612358 -0.2078249 -0.2639425 -0.26782936
000020 1d 30 d4 3d fa ab fe 3d b8 5e b7 3d f2 ba 78 be
       0.103607394 0.12435146 0.08953613 -0.24290064
000030 32 fa 2a be 56 fc 8f be de 61 50 3e e0 17 05 3e
       -0.16697004 -0.28122205 0.20349833 0.12997389
000040 cd b8 bd be 20 fb e3 be a6 ee a8 be 0f e8 ba bd
       -0.37055054 -0.4452753 -0.32994574 -0.09126293
000050 7e 03 88 be b7 b9 f7 bc fa 19 9d bd b4 88 5a bd
       -0.26565164 -0.030239923 -0.0767097 -0.053353027
000060 83 27 c7 bd 5d 59 66 bd fd 7e 3b 3e 13 ea 7b 3e
       -0.09724333 -0.056237567 0.18310161 0.24601011
000070 c4 20 74 be 76 e5 87 3d 13 46 b6 be e6 5c 80 3e
       -0.23840624 0.06635563 -0.35600337 0.25070876
000080 fd 98 ba 3e 3f af 69 bc 0c b5 e5 3e 6f df 22 bb
       0.36444846 -0.014262973 0.4486469 -0.0024852415
000090 99 f2 e1 be e4 2a e1 bc 0b e0 93 3c b6 dc fa bd
       -0.441304 -0.027486272 0.018051168 -0.122491285
0000a0 84 4e 7f be 3f 98 39 3d 8e df 1c bf b2 c3 c8 bd
       -0.24932295 0.04531121 -0.6127862 -0.09802951
0000b0 d2 5c cc 3d 2d 9d 0f bd f7 f7 7a bc 69 3d c2 bd
       0.099786416 -0.035062004 -0.0153179085 -0.09484369
0000c0 7a c6 31 be 93 10 87 3e 6b 4f f8 3d a4 37 9e be
       -0.17360869 0.26379833 0.12124523 -0.30901825
0000d0 db 5d b9 3d 87 4a 87 bd 76 73 b5 3e fc eb 87 3e
       0.09051105 -0.06606012 0.35439652 0.2654723
0000e0 12 9b bc 3d 4e 44 d9 be 10 28 58 be 88 54 34 be
       0.09209265 -0.42434925 -0.21109033 -0.17610371
0000f0 0e 5e 38 bd ac 2d 19 be 1c ed 07 bb 71 0b be be
       -0.045011573 -0.14958829 -0.0020740693 -0.37118104
000100 3a 83 a6 3e 78 c4 29 39 41 8a 18 3f 9e a1 5e 3e
       0.32521993 0.00016190286 0.5958596 0.2174134
000110 fe 35 88 be 7f 37 06 bf dc ce 76 3d 49 d0 8d be
       -0.26603693 -0.5242843 0.06025587 -0.2769797
000120 cd 08 1e 3e 0c 3b ca 3e 40 7d 85 be d1 81 e2 3e
       0.15433045 0.39498174 -0.2607212 0.44239667
000130 2c db 81 be 20 85 7f be 16 2e ec be db 7a 33 be
       -0.25362527 -0.24953127 -0.4612891 -0.17527334
000140 76 9d 4e 3e 16 15 3d be d8 d3 9d 3e c2 bc ce bd
       0.20177254 -0.18465075 0.30825686 -0.100945964
000150 d3 ad d7 be d0 a8 bb be d9 eb fb 3d 61 40 0e be
       -0.42124805 -0.3665223 0.12300844 -0.13891746
000160 42 f9 60 be ba 41 65 3e 08 dc 2c 3e 33 8e f2 39
       -0.21970084 0.22388354 0.1688081 0.00046263784
000170 92 3c d3 be f4 97 40 3e 06 ac 14 3d 54 7c 18 3e
       -0.4125715 0.18807966 0.036296867 0.14891177
000180 5f e6 0e be c1 18 65 3e 75 1e 02 be 1f d6 05 be
       -0.13955067 0.22372724 -0.12706931 -0.13069962
000190 2e f8 89 3d b0 3e 9f 3d 23 e1 0d bf 53 c5 5f be
       0.0673679 0.077756286 -0.55421656 -0.21852617
0001a0 d8 c4 c4 bd 85 f5 51 be c0 de 0f 3e 03 35 35 bc
       -0.096078575 -0.20503815 0.14049816 -0.011060002
0001b0 c7 2a 3e bd 85 e5 88 3e ba 61 a0 bd df 72 14 bd
       -0.046427514 0.2673761 -0.0783114 -0.036242362
0001c0 b9 ff 8d bc 4f 41 84 3d 3c 75 f0 bd 64 f2 a9 bc
       -0.017333852 0.06457769 -0.11741111 -0.020745464
0001d0 99 73 d5 be 86 a4 a8 bd c1 97 83 be 27 1e 21 bd
       -0.41689757 -0.08234505 -0.25701717 -0.039335396
0001e0 9d 96 b4 3d a4 28 89 be a8 fc cd 3e 89 35 ef be
       0.0881779 -0.2678882 0.40231824 -0.46720532
0001f0 1b 5d dd bd c1 64 b8 be 85 68 b6 3e 24 95 49 3e
       -0.10808774 -0.3601437 0.35626617 0.19685799

layers.5.running_var f4 [128]
000000 2f 03 4e 3e b7 75 6d 3e 8c 46 02 3e 15 5f 2b 3e
       0.20118402 0.23189436 0.12722224 0.1673549
000010 ce bb ae 3e fb 5a 8d 3e ed 95 9d 3e bb 16 68 3e
       0.3412766 0.27608475 0.30778447 0.22664921
000020 5f 8e 8f 3e 95 c2 9b 3e f3 45 fe 3e ea aa 8d 3e
       0.28038308 0.30421892 0.49662742 0.2766946
000030 38 c8 b0 3e 71 61 5b 3e 7f 60 77 3e 10 9a f7 3e
       0.34527755 0.2142389 0.24157904 0.48359728
000040 ff 74 b6 3e 5b 70 78 3e 0a a9 63 3e e8 c6 81 3e
       0.35636136 0.2426161 0.22232452 0.25347066
000050 34 f7 8d 3e 6f dd 08 3e 42 e3 78 3e 07 7f 9a 3e
       0.27727664 0.1336572 0.24305442 0.3017504
000060 75 66 11 3e 47 43 84 3e a0 59 bd 3e c2 93 cf 3e
       0.1419924 0.2583258 0.3698244 0.40542418
000070 c1 54 26 3e c7 5a ce 3d f3 e0 c0 3e f9 52 46 3e
       0.16243269 0.10075908 0.37671623 0.19367589
000080 16 a8 95 3e c1 68 64 3e f5 73 b2 3e 8d ae 80 3e
       0.29229802 0.22305585 0.34854093 0.25133172
000090 15 fc 39 3e b7 49 1f 3e e1 ef 75 3e 26 ae 0e 3f
       0.18162568 0.15555464 0.24017288 0.5573448
0000a0 04 ac cb 3e 0f c7 5b 3e b2 1f 98 3e 18 0e bb 3e
       0.39779675 0.21462654 0.29711682 0.3653419
0000b0 29 e0 25 3e 4f 80 d4 3e d4 88 7f 3e 47 4c d8 3e
       0.16198792 0.41504142 0.2495454 0.42245695
0000c0 d4 95 d3 3e 02 ba e2 3e 26 1b 6c 3e 70 2f 53 3e
       0.41325247 0.44282538 0.23057231 0.20623565
0000d0 53 fb b2 3e b3 9c de 3e 9c 06 63 3e 35 89 8c 3e
       0.3495737 0.43478927 0.2217049 0.2744843
0000e0 47 78 7d 3e 7c cc 41 3e e0 51 ff 3e 44 84 28 3e
       0.24752913 0.18925661 0.49867153 0.16456705
0000f0 b7 66 89 3e 01 a2 bb 3e 53 ba 59 3e a2 84 53 3e
       0.26836178 0.36647037 0.21262483 0.20656064
000100 1d db 0f 3e 5d 19 58 3e 50 ef b0 3e 52 c2 67 3e
       0.14048429 0.21103425 0.3455758 0.22632721
000110 51 f5 d5 3e d2 80 b5 3e 76 fe b6 3e e8 5b a8 3e
       0.41788724 0.35449845 0.35741013 0.3288262
000120 46 c6 c2 3e d4 a4 9e 3e 44 1e 8e 3e 1d 23 7b 3e
       0.38041896 0.3098513 0.27757466 0.24525113
000130 fa 76 d1 3e 31 a3 09 3f a5 ff cc 3e 70 ea 04 3f
       0.40911084 0.53764635 0.4003879 0.51920223
000140 e7 fb 46 3e f9 a1 06 3f f5 15 44 3e 2f 24 00 3f
       0.1943203 0.525909 0.19149001 0.5005521
000150 75 be 92 3e 49 9b 9c 3e e9 5b 5a 3e d1 94 b7 3e
       0.28660932 0.30587223 0.21324123 0.35855725
000160 06 ef ce 3e 68 8a 71 3e 02 5f 04 3f 60 45 5c 3e
       0.40416735 0.23587954 0.5170747 0.2151084
000170 c2 20 a0 3e e3 c8 65 3e 24 d4 00 3f 00 cd 8a 3e
       0.31274992 0.22439913 0.503237 0.27109528
000180 1c 28 a0 3e 2c 64 ea 3e 99 12 7e 3e da 9f c6 3e
       0.312806 0.4577955 0.24811782 0.38793832
000190 63 51 4b 3e 40 39 f7 3e 32 c6 af 3e 74 18 cd 3e
       0.19855265 0.48285866 0.343309 0.4005772
0001a0 fd dc 1b 3e d3 55 9e 3e 27 3c a6 3e b0 ae 90 3e
       0.15221019 0.30924854 0.32467768 0.28258276
0001b0 5b b7 83 3e dd 0a 58 3e cb 24 d2 3e ef cf 97 3e
       0.25725827 0.21097894 0.41043696 0.29650828
0001c0 3b b5 81 3e c0 d5 fe 3e 1a 34 60 3e 40 4a 3b 3e
       0.2533358 0.49772453 0.21894875 0.18290043
0001d0 4b 46 9f 3e 95 aa 22 3e 63 a1 7f 3e a1 c2 65 3e
       0.31108317 0.15885384 0.24963908 0.22437526
0001e0 d5 56 cd 3e 47 b9 6c 3e c1 ff 87 3e ea 0e 9e 3e
       0.4010531 0.23117553 0.26562312 0.30870754
0001f0 8c a4 63 3e af be 83 3e 4f 05 bd 3e f6 2b 7c 3e
       0.22230738 0.25731418 0.36918113 0.24626145
