models/best_model.pth (torch, 47906 bytes, 14 tensors)

layers.0.weight f4 [128, 10]
000000 37 5f 9b bd 31 5b 91 be 57 10 98 be b8 d4 19 be
       -0.0758652 -0.28389886 -0.29699966 -0.15022552
000010 02 4f 25 be bd e0 d0 3d 6f ce c2 bd a0 a8 f6 bd
       -0.1614342 0.101991154 -0.0951203 -0.120438814
000020 84 19 9a 3e 2e 68 e6 3d 25 fe 61 3e 2d 49 1c be
       0.30097592 0.112503394 0.22069605 -0.1526229
000030 20 ce 06 be 20 bc f6 3d ef e6 59 be ec f1 4f be
       -0.13164568 0.12047601 -0.212795 -0.2030713
000040 b5 2f 3d bc fd 49 e6 bd 1e 74 71 be 9c 33 3e 3e
       -0.011547019 -0.11244581 -0.23579451 0.18574375
000050 95 56 84 3e 3f db 49 3d ec ef 50 bd 25 37 96 be
       0.25847307 0.049281355 -0.051010057 -0.29338947
000060 46 df e7 bd 1c f8 a5 3d 97 fd 17 3e 58 bf 19 bd
       -0.11321883 0.08103964 0.1484283 -0.037535995
000070 9c 5b 02 be 54 1a 38 3e 0c 24 7d be 3b a7 4c 3e
       -0.12730259 0.17978793 -0.24720782 0.19985668
000080 fd 87 f3 bd 8b 88 2d 3b 3a 64 82 bd e9 0f 0c 3d
       -0.11891172 0.002647909 -0.06366773 0.03419486
000090 1d 63 cc bd ab 8c 67 3e 8e 60 4a bc b1 60 80 3e
       -0.09979842 0.22612254 -0.012352122 0.2507377
0000a0 aa 3b 99 3e 0f b1 20 be ca 9e 6a be e4 b4 83 3e
       0.29928333 -0.15692542 -0.22912136 0.25723946
0000b0 d6 b4 7e 3e 32 eb 77 be 62 7f a7 bc e1 4a a0 be
       0.24873671 -0.24210814 -0.020446483 -0.31307128
0000c0 89 40 82 be ef fc 73 3d e0 11 b3 3d 0f 13 80 3d
       -0.2543986 0.05956739 0.08743644 0.06253635
0000d0 a3 1c b3 bd 5b 3b 93 3e 53 38 36 3d 39 cc 41 be
       -0.087456964 0.28756222 0.04448731 -0.18925561
0000e0 38 cb a7 bc 58 ed 9c 3d 27 4d e1 3d 14 76 64 be
       -0.020482644 0.07662457 0.11001044 -0.22310668
0000f0 7e dd f2 3d bc df 29 be cd 16 86 be ea f4 30 be
       0.118586525 -0.16589254 -0.2618927 -0.17280927
000100 7f 3e 9c 3e c1 1b 8a 3e 35 10 92 3e 09 06 3e 3e
       0.3051643 0.269743 0.2852799 0.1855699
000110 d8 d3 72 3e 5e 1d 39 bd 92 3d 2d be 19 22 21 3e
       0.23713624 -0.045194022 -0.16918018 0.15735663
000120 c2 39 29 be db 2a 5d be f1 4e cf bd 0f 90 7f 3d
       -0.16525939 -0.2159838 -0.10122479 0.062393244
000130 3a 3a 29 3e cf b9 01 be 79 0b 3b be 54 97 39 3d
       0.16526118 -0.12668537 -0.18266095 0.045310333
000140 e6 ef 39 be fd 7f 57 be b1 d1 28 3e 28 e6 5b bd
       -0.1815792 -0.21044917 0.16486241 -0.05368629
000150 7c b2 93 3e ed 0d 9d 3e 47 4b ba 3d 0e f6 d5 3d
       0.2884711 0.30674687 0.09096389 0.10447322
000160 73 f5 8f 3d 26 af 92 3b 6a 09 e0 bc 7a 97 04 3b
       0.070292376 0.0044764457 -0.027348239 0.0020231889
000170 56 0f f1 3d c1 12 95 3e 0c 4c ac bd 14 33 09 be
       0.11770503 0.2911587 -0.08412942 -0.13398391
000180 e9 3d 9b bd 04 a8 1a be 25 4f 58 3d ca ce 71 3e
       -0.07580168 -0.15103155 0.052809853 0.2361404
000190 59 ef 79 3e a0 70 11 3e 2e 73 6e be 55 2d 2f be
       0.2440771 0.1420312 -0.23286125 -0.17107137
0001a0 78 37 92 bd e8 ea 74 bd 38 ad e6 3c 4f c4 92 be
       -0.07139486 -0.059794337 0.028158769 -0.28665397
0001b0 16 6f c1 3d de e1 77 be 04 d1 51 be 56 5c 86 be
       0.09445016 -0.24207255 -0.2048989 -0.26242322
0001c0 70 1f 8d 3e 1c 5e 99 be 1a cd 73 3e 8b 4e 38 bc
       0.27563047 -0.29954612 0.23808709 -0.011249195
0001d0 83 4b 15 bd 63 13 4f 3e 69 c7 d7 bc 28 e6 4a 3e
       -0.036448967 0.20222239 -0.026340203 0.1981436
0001e0 9f 1c 6e 3e b6 40 8b be 61 dc f8 3d f7 83 81 3d
       0.23253106 -0.27197808 0.12151409 0.063239984
0001f0 0c df 90 3d 0d 73 44 3d 8b f1 b6 3d 44 81 1d be
       0.07073793 0.047961283 0.089327894 -0.15381342
000200 5c d6 32 bd 34 3f 9b 3e 45 ab 5e 3e 1d 27 23 bc
       -0.04366146 0.30321658 0.21745022 -0.009958056
000210 e8 fd 98 be a3 4c 38 3c 66 1f 5e be fc 9f 81 3e
       -0.29881215 0.01124874 -0.21691665 0.2531737
000220 5c 91 48 be 7e f4 cd bc b3 72 96 bd 10 aa 6a 3d
       -0.195867 -0.025140997 -0.07346096 0.05729109
000230 e4 f7 95 3e a5 ac e6 3c 5b b6 3f 3e bc 2e 7d 3e
       0.29290688 0.028158495 0.18721907 0.24724859
000240 f2 06 82 3e 1d 6e e2 bd b0 33 90 bd 43 0d 1d 3e
       0.25395924 -0.11056159 -0.070411086 0.1533709
000250 81 e7 af bd 06 bd 15 3e 93 92 83 bd eb d1 56 be
       -0.08589078 0.14622888 -0.06424441 -0.20978515
000260 55 c2 07 3e a8 4d 4d 3d e9 a3 14 3e 2f 99 a2 3e
       0.13257726 0.050122887 0.14515652 0.31757495
000270 b6 cf 59 3e 18 03 97 3e f3 8f 75 3c 98 3f 89 be
       0.21270642 0.29494548 0.014987933 -0.2680633
000280 29 c3 67 be 82 da 4c be 3b e8 8c be 20 06 22 be
       -0.22633041 -0.20005229 -0.27520928 -0.15822649
000290 80 c4 96 be 4b fc 96 be 57 62 3f be e4 db 9e be
       -0.29446793 -0.2948936 -0.18689857 -0.31027138
0002a0 17 2b 4a be e0 19 f0 3d 2d a4 84 3e 61 dd c1 bd
       -0.19743 0.11723685 0.25906506 -0.09466053
0002b0 69 ab b6 bd d1 2d 2f 3e 3e 5b 1c be 03 ce 14 be
       -0.08919413 0.17107321 -0.15269181 -0.14531712
0002c0 88 cc 45 3e b3 ef 8a be 92 e2 1f 3d a1 8d 90 3e
       0.19316304 -0.27136 0.039034434 0.28233054
0002d0 b9 0f 72 3d 4b 3f b2 3d 18 1a 3d be be bd b0 bb
       0.059097026 0.087034784 -0.18466985 -0.005393713
0002e0 e6 b5 90 3c 87 e6 97 3d e7 fc f3 3d 1c ed 8a 3e
       0.017664861 0.074170165 0.11913472 0.27134025
0002f0 4d b8 77 be db dd 23 3c 67 8b 26 be b6 38 82 be
       -0.24191399 0.010001625 -0.16264115 -0.25433892
000300 6e 22 b6 bc d4 43 8f be ec 79 5e 3e 2c 13 0c 3d
       -0.022233214 -0.27981436 0.21726197 0.03419797
000310 c7 02 32 be a5 d0 29 3e c8 92 98 be 2d a6 fb bd
       -0.17383872 0.16583498 -0.29799485 -0.12287555
000320 19 28 69 bd 9f c1 87 be 78 09 4d be 60 0e 53 bd
       -0.056923006 -0.2651491 -0.20023143 -0.05152738
000330 35 54 79 3e 2d 58 9c 3e 93 80 4a 3e 6a 8d 44 be
       0.24348529 0.30536023 0.1977561 -0.1919457
000340 10 f0 4e be fb 0b 8f 3e 33 bb ee 3d a5 6c 17 3c
       -0.20208764 0.27938828 0.11656799 0.0092422115
000350 c4 80 3e 3d fe 95 81 be 1d 2d d2 bd 2b a8 9c 3e
       0.04650952 -0.25309747 -0.10262511 0.30597052
000360 1d bf a7 bd 69 bb a6 bc 7c ed 86 be 78 86 31 be
       -0.08190749 -0.020353036 -0.2635306 -0.17336452
000370 78 e0 cb bb c1 89 4d be 5a 4b 21 bd c0 52 03 3e
       -0.006221827 -0.2007208 -0.0393785 0.12824535
000380 a8 6f 9d be fd aa bf 3d ec ff 53 be 7d 05 1c be
       -0.3074925 0.09358785 -0.20703095 -0.15236469
000390 e9 d3 00 3e 7b 03 7e 3e 86 ad b7 bd 9e 82 09 be
       0.12580837 0.24806015 -0.08968644 -0.13428733
0003a0 ee 77 92 be a2 c3 24 be 5b 94 8f be 84 ed 91 bd
       -0.28607124 -0.16090253 -0.28042874 -0.07125381
0003b0 cd 76 8d 3d 42 2f 96 be 7b 71 8b 3e 68 16 4a 3e
       0.06907425 -0.2933293 0.27235016 0.1973511
0003c0 69 07 a1 be ee b4 1d be 62 a8 ca 3d d3 cc 84 bd
       -0.31450966 -0.1540105 0.09895398 -0.064843796
0003d0 69 60 20 bd 86 e0 16 be 43 52 80 3e 78 58 30 be
       -0.039154444 -0.14734086 0.2506276 -0.17221248
0003e0 34 9f 88 3e 48 22 82 3c 52 a3 7c 3d 8e 3a 80 3e
       0.26683962 0.015885487 0.061679192 0.25044674
0003f0 c4 43 52 bd be 8c 33 be 4a b5 4f bd 74 79 83 3e
       -0.051334158 -0.17534158 -0.05071 0.256786

layers.0.bias f4 [128]
000000 9e fd 47 3d 93 7f 1a 3e e3 e5 96 be 68 5b 46 3a
       0.048825853 0.15087728 -0.29472265 0.0007566721
000010 34 3d 8f be 49 6d dc 3d 7e b4 66 be 2e cf e6 bd
       -0.27976382 0.10763032 -0.2252979 -0.11269985
000020 d0 5c 62 3e f4 ba 9a 3e 8b 6a 42 be a1 b9 33 be
       0.22105718 0.3022076 -0.18985955 -0.1755128
000030 51 62 20 3d e1 94 fe 3d c2 f8 52 bd 38 32 ca bd
       0.03915626 0.1243074 -0.051506765 -0.0987286
000040 67 b3 54 be 43 3c 0a 3e d5 a2 9e 3e 43 c2 1c be
       -0.20771562 0.1349955 0.30983606 -0.1530848
000050 3d bb 18 3e a6 1d 1e 3e 10 22 82 3e ab 78 13 bd
       0.14915176 0.15440997 0.25416613 -0.03600375
000060 6e 91 23 3c 3f e4 6d 3e 3e b0 4c 3e 39 eb 9f 3e
       0.009983404 0.232316 0.19989106 0.31234148
000070 72 96 b9 bd 9a 22 00 3e ae 1e 62 3e 1f cf 5b be
       -0.09061898 0.125132 0.22082016 -0.21465729
000080 fe a0 80 3d f2 e7 90 bd 53 26 50 3e 11 76 11 be
       0.06280707 -0.0707549 0.2032712 -0.14205195
000090 e2 92 b5 3c a8 bd 41 3e cc 53 94 be 63 b6 88 be
       0.022164766 0.18920004 -0.28970182 -0.2670165
0000a0 c8 e0 25 be da b2 4f 3e a4 22 59 3e d2 28 5d be
       -0.16199028 0.2028307 0.2120462 -0.21597603
0000b0 f8 05 77 3d a1 96 2b be 0c 4c 16 be 03 a3 8b 3e
       0.060308427 -0.16756679 -0.14677447 0.27272806
0000c0 c8 67 1c 3e b8 1f b1 bd 54 a8 3e 3d 4b 02 7b 3d
       0.15273964 -0.08648628 0.04654725 0.061281484
0000d0 fc b1 97 3d e9 a6 dd bd 6c b2 3e be 33 64 56 3e
       0.07406995 -0.10822851 -0.1862275 0.2093666
0000e0 b7 0d 2e 3d 27 8e 07 3e 93 4a f5 bd 9e d4 1c 3e
       0.04249355 0.1323782 -0.119771145 0.15315482
0000f0 f2 a9 6b 3e b2 ef 44 3e 6e 17 b0 3d 7b 4b 9f 3e
       0.23014048 0.19232062 0.08598219 0.31112275
000100 b1 da 32 ba 31 e0 89 3d 70 d6 99 3e ae 59 9d 3e
       -0.00068227487 0.06732214 0.30046415 0.30732483
000110 7e bb 08 be b8 d8 91 3e 58 05 ef 3d e8 fe 10 bd
       -0.13352773 0.28485656 0.11670941 -0.035399348
000120 e0 5e 8d 3e 5c c0 27 be c7 66 52 3e 1a 71 a0 3e
       0.27611446 -0.16381973 0.20547019 0.3133629
000130 7d 56 5f be 3c 13 3f be 03 74 a0 be a7 0f 69 bd
       -0.21810336 -0.18659681 -0.3133851 -0.056899693
000140 82 0c 93 be 22 e9 d8 bd e1 9d c4 3d 65 e4 64 3e
       -0.2872048 -0.105913416 0.096004255 0.2235275
000150 0d 61 34 3e be ba 33 3e 97 55 06 3e 28 d9 48 be
       0.17615147 0.17551705 0.13118587 -0.19614089
000160 df 8d 80 be e8 c5 56 3c fd be 99 3e ce e8 91 3c
       -0.2510824 0.013108708 0.30028525 0.017811205
000170 27 d4 de bc 37 ca 5b be 47 91 20 be e8 9d 79 be
       -0.027200771 -0.21463858 -0.15680419 -0.24376643
000180 a7 a2 81 3e 42 09 53 bd 65 07 8f be 7a 03 0b 3d
       0.25319406 -0.0515225 -0.2793533 0.033938862
000190 d4 04 bc 3c f9 02 20 bd 7f d6 e7 3d 0a 23 2e 3e
       0.022951521 -0.039065335 0.11320209 0.17005554
0001a0 4b 43 98 be a4 13 78 be 43 f8 78 bc b6 18 96 be
       -0.2973884 -0.24226242 -0.015195909 -0.29315728
0001b0 69 12 93 be ca f3 8e 3e 96 f4 c4 bc bb 17 20 be
       -0.28724983 0.2792037 -0.024042409 -0.15634052
0001c0 94 31 de bd f7 d2 7c be cf b6 7c 3e bf 6f 8c bd
       -0.108493 -0.24689852 0.24679111 -0.068572514
0001d0 07 09 36 be 2c 95 75 be fc 3e 3d 3e bf 0a 33 bd
       -0.17776881 -0.23982686 0.18481058 -0.04371142
0001e0 6f 24 08 bd cd d5 a8 bd 61 50 1c be f3 69 66 3d
       -0.03323787 -0.08243904 -0.15265037 0.056253385
0001f0 a6 23 79 3e d1 ad 3b be 2e 33 78 3c 52 43 76 be
       0.24330005 -0.18328024 0.015148921 -0.24049118

layers.1.weight f4 [128]
000000 46 81 80 3f 89 24 80 3f 49 18 80 3f 40 32 80 3f
       1.0039451 1.001115 1.0007411 1.0015335
000010 4e 8e 80 3f e0 74 7f 3f e7 5d 7f 3f 79 06 80 3f
       1.0043428 0.9978771 0.9975266 1.0001975
000020 2c df 7f 3f 54 20 80 3f 6a 0f 80 3f 28 07 80 3f
       0.9994991 1.0009866 1.0004704 1.0002184
000030 c4 72 80 3f 5f 13 80 3f 97 0a 80 3f 4c a3 7f 3f
       1.0035024 1.0005912 1.0003232 0.99858546
000040 40 00 80 3f c0 8c 80 3f 91 46 80 3f f9 75 80 3f
       1.0000076 1.0042953 1.0021535 1.0036002
000050 a7 b3 7f 3f 20 85 80 3f ac ee 7e 3f b6 25 80 3f
       0.998835 1.0040627 0.99582934 1.0011508
000060 cd b4 7f 3f 4a e8 7e 3f 87 0b 80 3f df 62 80 3f
       0.99885255 0.99573195 1.0003518 1.0030173
000070 94 ed 7e 3f d4 e7 7f 3f 9b 30 80 3f fa 1b 7f 3f
       0.99581265 0.99963117 1.0014833 0.99652064
000080 96 3e 7f 3f 3d b1 7f 3f 13 3b 7f 3f fd 7e 80 3f
       0.99704874 0.9987982 0.99699515 1.0038754
000090 11 2c 80 3f 0b 8c 80 3f e8 54 7f 3f 5b 6f 7f 3f
       1.0013448 1.0042738 0.9973893 0.9977929
0000a0 b3 82 7f 3f f8 39 80 3f 67 e4 7f 3f a0 6c 80 3f
       0.99808806 1.0017691 0.9995789 1.003315
0000b0 31 fe 7e 3f 95 2f 80 3f 16 d4 7f 3f 7c 52 7f 3f
       0.99606615 1.0014521 0.9993299 0.99735236
0000c0 b1 39 7f 3f ed 61 7f 3f cd 80 7f 3f e1 2b 80 3f
       0.99697405 0.997588 0.9980591 1.0013391
0000d0 4e c7 7e 3f 97 09 7f 3f 4a 24 7f 3f 17 2a 80 3f
       0.99522865 0.9962401 0.9966475 1.0012845
0000e0 46 81 80 3f b0 86 80 3f a3 bf 7f 3f 83 31 80 3f
       1.0039451 1.0041103 0.9990179 1.001511
0000f0 97 8b 7f 3f 78 0c 80 3f 8c 02 80 3f 99 2f 80 3f
       0.9982237 1.0003805 1.0000777 1.0014526
000100 23 2c 80 3f 0c 99 7f 3f 54 05 80 3f 2b f8 7f 3f
       1.001347 0.99842906 1.0001626 0.9998805
000110 9b 1c 7f 3f be 15 80 3f e0 bc 7f 3f b5 7a 80 3f
       0.99653023 1.0006635 0.99897575 1.0037447
000120 05 96 80 3f 9a 2b 80 3f 71 70 80 3f 28 0c 80 3f
       1.0045782 1.0013306 1.0034314 1.000371
000130 34 95 80 3f 1c c6 7f 3f 81 de 7e 3f fa 21 80 3f
       1.0045533 0.99911666 0.99558264 1.0010369
000140 a5 5f 80 3f 4d 57 7f 3f c0 1f 80 3f 63 d4 7f 3f
       1.0029188 0.99742585 1.0009689 0.9993345
000150 2c 33 80 3f c6 3f 80 3f af c9 7f 3f c8 1b 7f 3f
       1.0015616 1.0019462 0.9991712 0.99651766
000160 70 bf 7f 3f 00 24 80 3f 91 21 80 3f 66 55 80 3f
       0.99901485 1.0010986 1.0010244 1.0026062
000170 ca 98 7f 3f 17 e0 7f 3f 21 08 80 3f 52 45 80 3f
       0.9984251 0.9995131 1.0002481 1.0021155
000180 64 50 80 3f a0 61 80 3f 21 19 80 3f ec 48 7f 3f
       1.0024533 1.0029793 1.0007669 0.99720645
000190 05 fd 7f 3f 64 7a 7f 3f 87 11 80 3f 31 f0 7e 3f
       0.9999545 0.9979613 1.0005349 0.99585253
0001a0 a0 cf 7f 3f af df 7f 3f b7 30 80 3f f3 74 80 3f
       0.99926186 0.9995069 1.0014867 1.003569
0001b0 fd 4d 7f 3f a9 c2 7f 3f 23 a2 7f 3f 49 c8 7f 3f
       0.99728376 0.999064 0.99856776 0.99914986
0001c0 fd 67 80 3f 3d 57 7f 3f 2e 02 80 3f f7 07 80 3f
       1.0031735 0.9974249 1.0000665 1.0002431
0001d0 0f fb 7e 3f 0a 0b 7f 3f 16 28 80 3f 5f 19 80 3f
       0.99601835 0.9962622 1.0012233 1.0007743
0001e0 41 4d 7f 3f 04 64 7f 3f ec e8 7e 3f bc 88 80 3f
       0.99727255 0.99761987 0.9957416 1.0041728
0001f0 27 77 7f 3f 09 74 80 3f 88 11 80 3f 72 ad 7f 3f
       0.9979119 1.0035411 1.000535 0.9987403

layers.1.bias f4 [128]
000000 ff 02 8c 3b bf 8a af 3a 47 f7 a3 b9 e9 8d d5 3a
       0.004272818 0.001339279 -0.0003127402 0.0016292903
000010 8b 45 2b 3b b9 be 17 bb e5 6c 14 bb c0 9a ff ba
       0.002613398 -0.002315445 -0.0022647914 -0.0019501075
000020 12 51 32 bb 42 4d 96 b9 be af a3 39 1b e8 86 bb
       -0.0027208966 -0.0002866779 0.0003122072 -0.0041170246
000030 7d 89 c5 3a 96 83 ad 3a 10 59 10 3a 58 b7 26 bb
       0.0015070882 0.0013238068 0.00055064354 -0.0025438871
000040 70 84 d9 b9 91 ca 96 3b c8 26 22 3b b4 9e 49 3b
       -0.0004148814 0.0046017845 0.0024742354 0.003076476
000050 8a 05 d0 ba 63 46 68 39 8f f5 2b bb 85 c1 c7 3a
       -0.0015870791 0.00022151465 -0.0026238894 0.0015240168
000060 0e d5 4b bb 3e 0c 57 bb 04 1c 85 bb 3a 8e 82 3b
       -0.0031102332 -0.0032813693 -0.0040621776 0.00398424
000070 21 09 6c bb 4b ed c2 3a f2 2d a2 bb 3b e3 7d ba
       -0.0036016183 0.0014871744 -0.0049493248 -0.0009685044
000080 d8 99 a5 ba 21 e4 2a ba 7d bc 00 bb e0 7c 6e 3b
       -0.001263435 -0.0006518979 -0.0019643598 0.003639035
000090 ff e5 9a 3a 5f 51 05 3b a3 42 5c bb 86 46 f1 ba
       0.0011817812 0.002034269 -0.0033609055 -0.0018407858
0000a0 76 03 c1 3a 55 e9 d4 3a dc 6c b0 b9 07 1c 3b 3a
       0.0014725763 0.0016243855 -0.00033650442 0.000713766
0000b0 bb e6 e4 3a 5d da 08 3b 2a cb f2 ba 37 2d 94 bb
       0.0017463783 0.0020882108 -0.0018523682 -0.0045219916
0000c0 03 35 51 bb 3c a5 86 bb 22 55 b8 39 e7 23 84 3b
       -0.0031922467 -0.004109053 0.00035158644 0.0040326
0000d0 4e e6 8c ba f6 39 8e bb 28 17 24 bb 27 06 e6 b9
       -0.0010749788 -0.0043404056 -0.0025038216 -0.00043873602
0000e0 bf d9 49 3b a4 8d 4a 3b b9 92 08 ba f6 53 92 3b
       0.0030799953 0.0030907178 -0.00052098517 0.0044655753
0000f0 e2 6f 19 bb b7 19 f2 39 05 52 70 ba b4 bf bd 3a
       -0.0023412635 0.00046176996 -0.00091674953 0.0014476688
000100 c8 4c 46 3a b6 ef c8 3a 11 98 ae ba 61 89 c8 b9
       0.0007564542 0.0015330228 -0.0013320466 -0.00038249328
000110 81 90 81 bb cb 11 d6 b9 c6 04 de 39 a3 96 97 3b
       -0.003953994 -0.00040830518 0.00042346696 0.0046261116
000120 69 c0 8c 3b 84 a6 6b 3b 0c b3 32 3b 20 a5 90 3a
       0.004295398 0.0035957405 0.0027267365 0.0011035539
000130 5d 2b 8e 3b 54 60 8e bb 32 ee a1 bb 92 4c 1a b9
       0.0043386654 -0.0043449793 -0.004941725 -0.00014715109
000140 64 91 a7 3a 16 90 51 bb 63 6d 6b bb 47 6c 0d 3b
       0.0012784419 -0.003197675 -0.0035923354 0.002157943
000150 5e 28 93 3b 6a 5a 78 3b 0f 2c 78 3a ce fa 5a bb
       0.004490896 0.0037895688 0.00094670145 -0.0033413651
000160 a9 c9 f8 ba 59 83 50 3b d2 bf 81 3b 3d 94 61 3b
       -0.0018980998 0.003181657 0.0039596343 0.0034420632
000170 74 d1 d3 3a 5c f9 a2 b9 7c b9 69 3b 68 fc 00 3b
       0.0016160444 -0.00031084835 0.0035663536 0.0019681696
000180 f7 c8 13 3b cf 5d 45 3b a3 dd 1f 3b 5c 9f 4a bb
       0.0022550204 0.0030115729 0.002439358 -0.003091774
000190 02 af 9c 39 41 8a 43 bb 11 23 f4 3a ee c4 7f bb
       0.0002988503 -0.0029837044 0.0018626173 -0.0039027291
0001a0 ac af 87 3a 50 35 93 bb 0a b7 86 3a 92 54 47 3b
       0.0010352037 -0.0044924393 0.0010277939 0.0030415398
0001b0 51 19 4c bb 8b d4 12 b9 57 d1 57 3b 4d f4 83 3b
       -0.003114302 -0.00014002823 0.0032931173 0.0040269257
0001c0 e9 69 87 3b d7 ef 52 bb 81 fa 71 b8 df 9e 14 b9
       0.0041324985 -0.0032186413 -5.7692178e-05 -0.00014173564
0001d0 85 79 17 bb c7 70 8b bb 20 0a 36 3b 4f 15 cf 3a
       -0.0023113203 -0.0042553875 0.002777703 0.0015799197
0001e0 d7 9f 4c bb ed d4 d0 3a 31 a2 95 bb ce 86 84 3b
       -0.0031223202 0.0015932597 -0.004566454 0.0040443903
0001f0 1f 7c 99 b7 5b bc 48 3b e3 6d 7d bb e7 48 82 bb
       -1.829682e-05 0.0030629847 -0.0038670234 -0.003975976

layers.1.running_mean f4 [128]
000000 41 33 28 40 34 26 e7 c0 ac be ba 40 84 e4 74 40
       2.6281283 -7.2234135 5.8357754 3.8264475
000010 96 7a 16 c1 5f 63 30 c1 c0 90 25 41 e3 ee e9 3f
       -9.404928 -11.0242605 10.347839 1.8276027
000020 05 98 65 41 32 e1 e8 bf 21 26 d9 c0 f8 2f 72 40
       14.349614 -1.8193724 -6.7859044 3.7841778
000030 72 3d ec 40 0b 26 16 41 f3 55 bc 3e 8f 9d 23 41
       7.3825006 9.384288 0.36784324 10.225966
000040 6d db 67 c1 6c 40 2e c0 ae 55 32 40 42 31 15 bf
       -14.491071 -2.722682 2.7864795 -0.58278286
000050 1e 79 7f 41 2a 19 28 41 29 1a b6 40 c8 47 5a c0
       15.96707 10.506144 5.6906934 -3.4106312
000060 6e 74 ca c0 a8 da 53 41 a8 bb cd c0 d7 2c 0b c0
       -6.3267126 13.240883 -6.4291573 -2.1746118
000070 52 5e 4f c0 f5 37 1f 41 2f 26 97 bf fc 23 9c 3f
       -3.2401319 9.951161 -1.1808528 1.2198482
000080 dc 9e 9a c0 b5 ef 7e 41 aa e8 19 41 07 c9 17 41
       -4.831892 15.933522 9.619303 9.486579
000090 00 cc 25 41 ec b2 a1 bf a4 50 01 41 0a 61 59 41
       10.362305 -1.2632728 8.082188 13.586191
0000a0 a3 df b8 c0 a9 1e 08 41 91 04 ac c0 85 e8 4a c1
       -5.7772994 8.507485 -5.3755574 -12.681767
0000b0 31 01 63 41 c1 53 4b 41 dc d5 14 c1 25 83 07 40
       14.187791 12.707948 -9.302212 2.1173794
0000c0 38 75 82 40 0c 2a a4 c0 71 1e dd c0 0f 95 1e c0
       4.076809 -5.1301327 -6.909966 -2.4778478
0000d0 b8 dd 80 c0 a7 34 e4 c0 87 3f 95 40 61 f1 b5 bd
       -4.0270653 -7.1314273 4.664005 -0.0888393
0000e0 a5 48 8a c0 21 70 8f 41 2e 1d 04 c1 5d b8 32 c1
       -4.3213677 17.92975 -8.257124 -11.170011
0000f0 63 d8 a7 c0 45 85 87 40 ea 2b 2a c1 96 77 8e 3f
       -5.2451644 4.2350183 -10.635721 1.1130245
000100 2d 5b 06 c1 cc d1 dc c0 54 54 41 41 ce 1d 14 c1
       -8.39726 -6.90061 12.083088 -9.257277
000110 70 cd 21 c1 9e ef 54 41 5d fb 10 41 b1 b4 05 40
       -10.112656 13.3085 9.061368 2.0891535
000120 1a 81 fd 3f 61 e1 58 c1 3d e3 3d 40 38 d3 84 41
       1.9805024 -13.555024 2.9669945 16.603134
000130 de aa 9d c0 a6 be a7 bf b2 2f a3 40 16 47 9d bf
       -4.927108 -1.3105056 5.099572 -1.2287319
000140 35 a0 52 41 82 62 b3 c0 72 71 99 c0 02 d9 19 41
       13.164113 -5.605775 -4.7950983 9.61548
000150 00 0b 35 bf e7 27 5e c1 fe df 37 c1 61 20 49 40
       -0.7071991 -13.884742 -11.492186 3.1426013
000160 32 b7 ad 40 9d d3 f9 40 5b f2 e8 3e d1 8b 69 3f
       5.4286127 7.8070817 0.45497403 0.9122897
000170 75 72 d6 40 9b 1a 15 c0 07 b2 7f c0 76 db 56 c0
       6.701472 -2.3297489 -3.995241 -3.3571448
000180 c9 da d6 40 ea 4e f1 40 01 40 6b c1 92 96 2f c1
       6.714207 7.540883 -14.703126 -10.97426
000190 c2 5b 56 c0 8f 8d 56 3e e7 b4 a0 bf 5f 72 e9 3e
       -3.3493505 0.20952438 -1.2555207 0.4559507
0001a0 bb d2 14 c0 fb ed f7 c0 50 7e 85 41 cd 79 0b c1
       -2.325362 -7.7478004 16.686676 -8.7172365
0001b0 ee f3 17 41 a4 69 00 41 bb 23 0c 41 83 30 97 40
       9.497053 8.025791 8.758723 4.724672
0001c0 d7 94 81 c0 62 59 63 bf 21 40 bb c0 3e a6 20 c1
       -4.049419 -0.8880826 -5.851578 -10.040586
0001d0 31 59 12 c0 1f 5f ee bf 4e 8c 00 41 8d fc 02 41
       -2.2866938 -1.8622779 8.034254 8.186658
0001e0 52 00 99 40 38 67 f6 bc 15 9d 10 41 aa 88 de 3f
       4.781289 -0.030078515 9.03835 1.7385457
0001f0 f7 79 4b c1 57 bd 0f c0 c3 1a 3f c0 0a 03 a4 3f
       -12.717277 -2.2459314 -2.9860084 1.2813427

layers.1.running_var f4 [128]
000000 31 d3 34 44 19 76 2a 43 40 f0 e6 42 b4 99 88 43
       723.29987 170.46132 115.46924 273.2008
000010 2e 68 c3 43 3a 92 54 43 46 1d fa 43 f4 05 3e 43
       390.8139 212.5712 500.2287 190.02325
000020 49 31 4d 43 76 bf 18 43 3d 29 e0 43 82 51 02 44
       205.19252 152.7479 448.32217 521.27356
000030 5b 00 8c 43 aa c3 21 44 69 5b 76 43 6a 12 47 43
       280.00278 647.05725 246.35707 199.07193
000040 41 2d 11 44 9b af 33 43 4f c9 5e 43 cb e0 73 42
       580.7071 179.68596 222.78636 60.969524
000050 33 c1 28 44 63 0a 14 42 54 ea 35 43 cb 1a 23 44
       675.01874 37.010143 181.91534 652.41864
000060 dd e5 90 42 3a 00 48 43 b5 d9 fc 42 ea 90 7e 42
       72.44895 200.00089 126.42521 63.641518
000070 2a 9c 2b 44 5e d1 0a 44 48 81 ae 43 a5 ed 7c 43
       686.44006 555.27136 349.01 252.9283
000080 86 33 e6 42 7a 04 47 44 d4 50 9f 43 a4 c1 42 42
       115.10063 796.06995 318.63147 48.689102
000090 5c a7 ab 42 1a 85 b0 43 db 65 8d 43 b1 c9 e1 43
       85.82687 353.03986 282.79575 451.5757
0000a0 5b 37 08 42 7e 48 65 43 31 cc b2 43 ad de f7 43
       34.054058 229.28317 357.59525 495.73965
0000b0 d3 2c eb 42 1c 2a ae 43 8a 60 e9 43 38 5b 88 43
       117.58755 348.32898 466.7542 272.71265
0000c0 c5 f8 ec 43 f3 3c ab 42 51 49 1b 44 6c 7d 05 42
       473.9435 85.61904 621.14557 33.372482
0000d0 20 3d 15 43 f3 7e 6b 43 db cd ec 43 c2 8e ce 43
       149.23877 235.4959 473.60825 413.1153
0000e0 d7 06 1c 43 b7 ab e7 43 f0 96 e3 43 71 10 07 42
       156.02672 463.34152 455.1792 33.766056
0000f0 83 08 c8 42 6e 0f a4 43 d0 89 c6 43 12 a1 63 43
       100.016624 328.12054 397.07666 227.62918
000100 29 18 f7 42 32 eb e6 42 41 e9 ca 43 43 d2 84 43
       123.54719 115.459366 405.8223 265.64267
000110 cb 0d 13 44 36 06 18 44 48 22 6b 43 99 7f dc 42
       588.2155 608.09705 235.13391 110.249214
000120 c1 8c a0 43 8c f3 91 43 d6 28 45 43 2c f1 58 44
       321.09964 291.9027 197.15952 867.7683
000130 2c 74 93 43 63 de c1 43 8e 37 94 42 16 57 d6 43
       294.9076 387.7374 74.108505 428.68036
000140 1d 7c a7 43 16 1a 11 44 be 5b e3 43 93 24 48 42
       334.96964 580.4076 454.71674 50.035717
000150 b6 18 0c 44 38 2d 58 43 58 26 5d 43 5b f4 12 44
       560.3861 216.17664 221.14978 587.81805
000160 34 66 b9 43 f7 c3 20 44 62 45 ad 43 9c f2 93 42
       370.79846 643.06195 346.54205 73.97385
000170 2a fb 82 43 7b 68 5a 43 51 db 27 43 00 f5 89 43
       261.96222 218.40813 167.8567 275.91406
000180 05 3b d2 43 37 cf 43 44 15 fe 13 44 26 de bd 41
       420.4611 783.23773 591.97003 23.73347
000190 66 5f b0 42 f4 6a 9a 43 63 0d 24 43 1a f5 d1 43
       88.186325 308.83557 164.05229 419.91486
0001a0 24 46 5b 43 a4 17 e2 42 24 0a 17 44 e5 a2 05 43
       219.27399 113.04617 604.15845 133.6363
0001b0 1d 3f 15 43 9e aa 16 44 4e 98 7a 43 f5 75 fd 43
       149.24654 602.6659 250.59494 506.92154
0001c0 25 d9 b8 41 67 66 1a 43 25 dd f2 42 ed bc 04 43
       23.106028 154.40001 121.43192 132.73799
0001d0 4d 10 9e 42 7e aa 18 43 6c 13 55 42 89 85 c6 42
       79.03184 152.66599 53.268967 99.26081
0001e0 f1 ac ed 42 0c f8 90 42 ee 38 2c 43 87 57 2d 44
       118.837776 72.48447 172.22238 693.3676
0001f0 84 d3 2c 44 05 9f 66 43 9c 52 b3 43 24 c9 29 43
       691.30493 230.62117 358.6454 169.7857

layers.4.weight f4 [64, 128]
000000 74 55 31 bd 0b ce 9e 3d b9 74 a4 3b f5 f3 b6 3d
       -0.043294385 0.07754143 0.0050187972 0.0893325
000010 3d c4 3a bc 24 95 34 bd ed e4 47 bd b8 17 9c 3d
       -0.011399326 -0.044087544 -0.048802305 0.076217115
000020 53 53 87 bd 71 0e 48 3d 75 f5 b2 3c fb ed f1 3c
       -0.0660769 0.048841897 0.021845559 0.029532423
000030 25 66 59 3d dc 2f cd bc 9b d6 52 3d b0 26 8b bd
       0.05307593 -0.025047235 0.051474195 -0.067944884
000040 28 70 07 bd 0c d9 82 3d 62 47 c1 3c 69 96 01 bc
       -0.033065945 0.06389055 0.023593608 -0.007909396
000050 ec e3 b6 bc 0e 7b 6d bd a6 0e 50 3d 12 ae c1 bb
       -0.022325478 -0.057978682 0.05079522 -0.0059106434
000060 fe ed 00 b9 db a4 9b 3c ca fd 8b 3d b7 2c 42 bd
       -0.0001229569 0.018999508 0.06835516 -0.047405925
000070 0a f0 00 bd a8 3f 7a 3d 10 a5 55 3d 5a b6 27 bd
       -0.03147892 0.061095864 0.05215937 -0.04094539
000080 a6 64 b2 bd 3e c1 5f 3c 89 a7 3f 3d b8 b7 cb 3c
       -0.087106034 0.013656912 0.046790633 0.024867877
000090 ea 99 6f 3d 8a 96 94 bd 9c c7 41 3d 96 eb 5a bd
       0.058496393 -0.072552755 0.047309503 -0.05344733
0000a0 7f 60 5a 3d 88 13 89 3d e1 de f4 3c c0 d1 8b 3d
       0.053314682 0.066931784 0.029891433 0.06827116
0000b0 2c d6 7d bd f8 20 9e bd dd 7e a8 bd 56 6e 69 3d
       -0.06197183 -0.07721132 -0.08227322 0.05698999
0000c0 82 88 fe 3c ee c4 8a bd 9c 37 35 3d 2e 91 a0 3d
       0.031070951 -0.067758426 0.044242486 0.07840191
0000d0 85 33 ab bd 5e 4b 7d 3d c1 95 4d 3c 17 bb fd 3b
       -0.08359436 0.061839454 0.012547911 0.00774325
0000e0 a3 86 a0 3d af 86 ac 3d 18 7f 16 3d 45 42 8c 3d
       0.0783818 0.08424126 0.0367423 0.068485774
0000f0 24 24 0a 3d 5f 88 50 3c 7e 75 9f bd 05 e1 4e 3c
       0.033725873 0.012727826 -0.07786082 0.012626891
000100 b4 ef 74 bd 71 e8 cd 3c 56 fc 61 3c bb a8 cf 3a
       -0.05979891 0.02513525 0.013793072 0.0015843132
000110 38 74 6e bd 4a a8 61 bd 0f 68 7d 3d 4f 99 41 3d
       -0.058216304 -0.055092134 0.061866816 0.047265347
000120 9a 20 49 3d 6e ff ba bc 11 81 6a bc 68 58 bd bc
       0.049103357 -0.022826876 -0.014312998 -0.023113444
000130 c6 72 6f 3d 26 6d 19 bd 50 f7 71 3d ef e1 6e 3d
       0.058459066 -0.037457608 0.059073746 0.058320936
000140 5e 6d a0 bd 37 85 a9 3a 72 f7 65 bc 0b e5 43 bd
       -0.0783336 0.0012933378 -0.014036046 -0.047825854
000150 f3 6f 1d 3d c1 1c 30 bc d4 0e 9b 3d 37 6b 5c bd
       0.03843684 -0.010749043 0.075711876 -0.053813186
000160 09 cd 2c 3d ac 54 95 bd 3d 6a 34 bd 2f 26 47 3b
       0.042187724 -0.072915405 -0.04404663 0.003038775
000170 4d d9 95 3d 85 36 42 3d 81 aa 9a bd b4 d3 dd 3b
       0.073168375 0.047415275 -0.07552052 0.0067696217
000180 68 09 45 bd 51 ec a9 3b fb 6e 9c bd f0 6e b5 bc
       -0.048104674 0.005185642 -0.07638355 -0.022147626
000190 1f ec 83 3d 90 24 9d bd 84 4c a4 bd d7 23 8a 3c
       0.06441521 -0.07672989 -0.08022407 0.016862793
0001a0 71 9c 7d 3c 50 04 52 bc f8 7b 9d 3d ef 07 5e bd
       0.015479193 -0.012818411 0.07689661 -0.054206785
0001b0 05 3a 52 bd 33 fb 86 bd 78 2c 84 bc ab 4c af bc
       -0.051324863 -0.06590881 -0.016134486 -0.021398863
0001c0 07 f5 6c 3d 48 9f 9b bb b1 d5 f6 3c 16 f6 23 bd
       0.057850864 -0.0047492124 0.030131193 -0.040029608
0001d0 cc cf 99 3d 43 9f 93 3d 19 07 a8 bd 8a 7f c9 bc
       0.07510337 0.07208111 -0.08204479 -0.024596948
0001e0 4d f0 9d bd e2 8e 1e 3d 0c 20 9a bd 14 54 1c bd
       -0.07711849 0.038710482 -0.07525644 -0.03816612
0001f0 a2 81 bb 3d 0f 2f a5 bd d3 dd 82 3d 11 a3 5c 3b
       0.09155585 -0.08065616 0.06389966 0.003366653
000200 34 84 8e 3d ab 8b 32 bd bd 0a 7a 3d 2c ae 3a 3c
       0.069588095 -0.04359023 0.061045397 0.011394065
000210 bc a2 ee 3a 26 13 64 3d 04 a0 ae bd 2b 23 8e bd
       0.0018206458 0.055682324 -0.08526614 -0.069403015
000220 75 ee af 3d 8e 26 59 bd 2d 4f 82 bd e0 f8 bd bb
       0.08590404 -0.053015284 -0.06362758 -0.0057974905
000230 75 31 c3 bc b7 f2 25 bc 74 40 7c bd 55 e6 f5 3c
       -0.023827294 -0.0101286685 -0.061584905 0.030017057
000240 11 ff 9e bd bc 09 29 3c 67 10 5e 3d 7f 1a 4d 3c
       -0.07763494 0.010317262 0.05421486 0.012518524
000250 d0 5b 6e 3c 22 3d 37 3c f8 f5 b0 bc b6 5f 60 bc
       0.014548257 0.011184009 -0.021601662 -0.013694694
000260 db e8 12 bd 39 fc 65 bd 14 ba 46 bd 0a 1b b8 3d
       -0.0358666 -0.05614874 -0.0485173 0.08989532
000270 4d 31 3f bc 3a b3 f7 3c d7 49 6f 3d 89 27 dd bb
       -0.011669469 0.03023683 0.05842003 -0.0067490977
000280 c9 3f 4f bd 71 61 68 bd 7d de ff bc de 9e f7 3c
       -0.05059794 -0.056733552 -0.03123402 0.030227121
000290 02 91 9a bd bc 6e 05 bc 25 04 07 3d 67 88 89 3d
       -0.07547189 -0.008144077 0.032962937 0.0671547
0002a0 f2 df ca 3c 31 1c 8a 3c 3a 8d 70 3d 69 f5 24 3d
       0.024764989 0.016859146 0.058728434 0.040273104
0002b0 a4 38 0d 3d 1d fd f6 bc e9 4e 98 bd 77 5e a9 bc
       0.034477845 -0.03014999 -0.07436926 -0.020674927
0002c0 b2 c0 89 bc 29 65 48 3b 5a 4b 07 bc 31 d4 05 3d
       -0.016815517 0.0030577874 -0.008257711 0.032673065
0002d0 49 ad 5d 3d e2 de 24 bd f2 ad a4 bd b8 27 4c bd
       0.054120336 -0.04025162 -0.0804099 -0.049842566
0002e0 2a 4d 37 bd 61 5e 5d 3d 7b 06 6e bd f7 9e 53 bc
       -0.044751324 0.054045085 -0.05811165 -0.012916318
0002f0 66 9f 9e bc 9a 8a 55 bd 09 6a 1d 3d 64 42 1e bd
       -0.019363116 -0.052134134 0.0384312 -0.038637534
000300 a8 a4 00 bc a0 86 6f bd 4b f2 ea bb 9e 9b 38 3c
       -0.007851757 -0.058477998 -0.007169997 0.011267571
000310 f7 ba da bb 1d e5 fd bc 47 ab e8 3c 41 5e af bc
       -0.00667512 -0.030993039 0.028401984 -0.021407248
000320 51 bd 56 bd 6e b8 8d bd 96 53 b6 bc b5 25 b0 bd
       -0.05242664 -0.06919943 -0.022256654 -0.08600942
000330 8f 36 9b 3d b9 d9 36 bd 34 3f 23 bd 48 84 29 3c
       0.075787656 -0.04464123 -0.039855197 0.01034648
000340 63 36 c2 3c ef 63 3a bc d9 15 76 3d 28 93 49 bd
       0.023707574 -0.011376365 0.06007943 -0.049212605
000350 b4 df 02 3d 43 15 89 bb 86 e3 90 bd 2c 5c 16 bd
       0.03195162 -0.004183443 -0.07074647 -0.036708996
000360 2d a0 a6 3c cc d2 90 3c 77 bd 80 3d b2 82 76 3d
       0.02034005 0.01767864 0.062861376 0.060183235
000370 0a 25 3f bd 65 46 23 bd 54 c5 bd bc f8 98 7f bd
       -0.046666183 -0.039862055 -0.023165382 -0.06240174
000380 ad 9b e3 bc bb 51 99 bd 7a 65 0c 3d 18 b2 70 3d
       -0.027784193 -0.07486292 0.034276463 0.058763593
000390 30 e5 3e 3b da 57 84 bd 32 fd 8c bd 06 32 0c bd
       0.0029128306 -0.06462069 -0.06884231 -0.034227394
0003a0 93 0f df 3c f8 21 1f b9 8f d0 83 3c 75 d2 a1 3d
       0.027229106 -0.00015176076 0.01609066 0.079014696
0003b0 7f 34 34 3d 2c ae a6 3c 27 8f 6c bc 0b b5 2b 3d
       0.043995377 0.020346723 -0.014438427 0.041920703
0003c0 7c 88 e3 3c e1 88 9b bd da 9e 5f bd c7 a3 8a 3b
       0.027775042 -0.07594467 -0.054594852 0.0042309496
0003d0 4c dd f0 3c 4b 03 34 3d d8 0c 67 bd 05 83 bb bd
       0.029402398 0.043948453 -0.056408733 -0.09155849
0003e0 6e 9c 31 bb 85 c3 3a bc 57 3e c0 3c d8 0c e8 bc
       -0.0027101296 -0.011399155 0.023467226 -0.028326437
0003f0 85 f4 85 3d a6 02 6d 3b 09 df 87 3d e7 db 69 bd
       0.06540779 0.0036164909 0.066343375 -0.05709448

layers.4.bias f4 [64]
000000 53 1f 3f 3d 9c 33 3f bb a4 05 a6 bd 07 6b b1 3d
       0.046660732 -0.0029175049 -0.081065446 0.08662992
000010 c0 16 ba 3c 77 b8 a5 3d 41 82 2e 3c 9e fc 47 3c
       0.022715926 0.080918245 0.010651172 0.012206225
000020 a5 9c 82 3d c1 32 76 bd 7c 96 ac 3d 4b 9c 68 bd
       0.06377534 -0.060106996 0.0842714 -0.056789678
000030 4f f4 02 3c 5a 97 69 bd 77 a1 6f bd 59 76 8b 3d
       0.007992818 -0.057029106 -0.058503594 0.068096824
000040 2f c0 c0 bc 80 46 89 bc 8f 68 8d 3d 84 30 b2 3d
       -0.02352914 -0.01675725 0.069047086 0.0870066
000050 23 67 a3 bd e5 33 ef ba 72 16 d6 3c b5 88 ac 3d
       -0.07978656 -0.0018249719 0.02613375 0.08424512
000060 0a 7e 0d bd 96 bc ec bc 22 c1 51 bd 2f 4e b9 3c
       -0.03454403 -0.028898519 -0.051209576 0.022620289
000070 ec 17 b0 3c f3 55 1a bb f2 6b 18 bc b4 b3 79 bd
       0.021495782 -0.0023549765 -0.00930308 -0.060962394
000080 24 3b 14 bd e8 9e 09 bd 14 bd c0 3c d5 0a 1f 3d
       -0.036189213 -0.03359881 0.02352766 0.03882869
000090 3d e6 2d 3d de f2 89 bd 48 9f cc bb 8b 7f 8c bc
       0.0424559 -0.06735776 -0.0062445737 -0.017150661
0000a0 9a 6a b4 3d cf 93 82 3d f5 f0 86 bd 25 2a 47 bd
       0.08809395 0.063758485 -0.06588928 -0.048624177
0000b0 01 d6 8a bd 77 87 c2 bc 08 7b 9e bd ca 11 30 3d
       -0.06779099 -0.023746235 -0.0773831 0.042985715
0000c0 69 2c 1c bd 22 57 37 bd c6 4b 79 3b 41 eb e7 bc
       -0.03812829 -0.04476083 0.003803955 -0.02831042
0000d0 56 6d 88 3d 15 11 a7 3d 7b a1 a1 bd e6 a0 21 3d
       0.06661479 0.08157555 -0.07892128 0.039460085
0000e0 56 2b f7 3a de 3c 3d 3d 66 00 0b bd d3 1b e0 bb
       0.001885752 0.046200626 -0.033935927 -0.0068392544
0000f0 be 7d 21 bb 5f b7 f6 3c 0c 20 34 3d b6 12 0e 3d
       -0.0024641599 0.030116735 0.043975875 0.034685813

layers.5.weight f4 [64]
000000 2a 0d 7f 3f 5a 93 80 3f 6d d9 7e 3f 3f c6 7e 3f
       0.9962946 1.0044968 0.99550515 0.9952125
000010 70 9c 80 3f da bc 7e 3f 51 d6 7e 3f 3b 97 80 3f
       1.0047741 0.99506915 0.9954577 1.0046152
000020 5e 8b 80 3f e5 d9 7e 3f 1e 7e 80 3f df 9f 80 3f
       1.0042531 0.9955123 1.0038488 1.0048789
000030 97 49 80 3f 1e e6 7e 3f 8e 6c 80 3f bc 96 80 3f
       1.0022458 0.9956988 1.0033128 1.0046
000040 66 9a 80 3f 72 98 80 3f a5 cc 7e 3f 43 8f 80 3f
       1.0047119 1.0046523 0.9953101 1.004372
000050 b2 bf 7e 3f 48 b8 7e 3f de 75 80 3f c0 bc 7e 3f
       0.99511254 0.9949994 1.003597 0.9950676
000060 dc 81 80 3f 49 49 80 3f 85 9d 80 3f 95 15 7f 3f
       1.003963 1.0022365 1.0048071 0.99642307
000070 95 d8 7e 3f 3a ca 7e 3f 04 cb 7e 3f d6 8f 80 3f
       0.9954923 0.99527323 0.9952853 1.0043895
000080 59 e3 7e 3f 36 3f 80 3f e4 8f 80 3f dd c0 7e 3f
       0.99565655 1.001929 1.0043912 0.99513036
000090 31 98 80 3f 80 66 80 3f ed cd 7e 3f 57 94 80 3f
       1.0046445 1.003128 0.9953297 1.004527
0000a0 8d 9c 80 3f 9b 9c 80 3f 78 95 80 3f 72 a0 80 3f
       1.0047776 1.0047792 1.0045614 1.0048964
0000b0 25 79 80 3f 7b bf 7e 3f a6 c2 7e 3f 7c 73 80 3f
       1.003697 0.99510926 0.9951576 1.0035243
0000c0 0d 09 7f 3f 9e 7b 80 3f d4 21 7f 3f 29 ef 7e 3f
       0.99623185 1.0037725 0.9966099 0.9958368
0000d0 c4 cd 7e 3f 61 d2 7e 3f 8a 83 80 3f 76 e7 7e 3f
       0.99532723 0.9953976 1.0040143 0.9957193
0000e0 61 26 7f 3f bb ec 7e 3f b6 e0 7e 3f 90 9a 80 3f
       0.99667937 0.9957997 0.9956163 1.0047169
0000f0 8a e6 7e 3f 74 9d 80 3f 98 d8 7e 3f d1 cb 7e 3f
       0.99570525 1.0048051 0.99549246 0.9952975

layers.5.bias f4 [64]
000000 7a d6 81 bb f7 51 9f 3b eb 8a 9c bb f8 41 97 bb
       -0.003962335 0.004862066 -0.0047773025 -0.0046160184
000010 7b ea 9f 3b d4 1d 9e bb a2 56 99 bb ea c5 9e 3b
       0.004880247 -0.004825333 -0.004679517 0.0048453705
000020 4c 54 9d 3b e2 95 9d bb ff 59 a0 3b 94 ae a1 3b
       0.0048013087 -0.004809127 0.004893541 0.0049341414
000030 13 ba 9d 3b a5 4a 9c bb e6 16 9c 3b cc 2a 9d 3b
       0.0048134415 -0.0047696405 0.004763472 0.0047963616
000040 3e 50 99 3b 7b 63 9f 3b 9d 5b a3 bb b4 49 9b 3b
       0.004678755 0.004864154 -0.0049852864 0.0047390107
000050 2a c3 9f bb 0c fa a3 bb 45 c4 92 3b 94 d6 9d bb
       -0.0048755603 -0.005004173 0.0044789636 -0.0048168395
000060 82 50 88 3b 5d 94 92 3b 23 30 a0 3b 81 2e 9c bb
       0.004159988 0.0044732527 0.004888551 -0.004766286
000070 c1 90 a1 bb c3 32 a2 bb e8 40 9f bb e1 dc 95 3b
       -0.004930586 -0.004949899 -0.0048600323 0.00457345
000080 98 25 97 bb 3e de 99 3b 69 ee 9d 3b c5 76 9b bb
       -0.004612636 0.004695683 0.0048196805 -0.004744383
000090 85 1a a2 3b 14 0a 98 3b 1e 92 99 bb 4a 15 99 3b
       0.004947009 0.0046398733 -0.004686608 0.0046717273
0000a0 d3 5d a1 3b 90 af a2 3b c1 dc 9b 3b ab 66 a3 3b
       0.004924515 0.0049647763 0.0047565405 0.004986604
0000b0 35 00 8d 3b 41 9a a0 bb bf f8 a0 bb 39 91 98 3b
       0.004303003 -0.004901201 -0.0049124653 0.0046559838
0000c0 77 73 90 bb 80 fe a1 3b a0 83 9f bb 41 25 9a bb
       -0.0044082957 0.004943669 -0.004867986 -0.004704148
0000d0 ac 27 97 bb 1e c8 a0 bb 35 bc 95 3b 74 8c 92 bb
       -0.0046128836 -0.0049066683 0.004569555 -0.0044723097
0000e0 85 c1 87 bb 5c 5c 9b bb 0e 84 a1 bb cb 6c a2 3b
       -0.0041429424 -0.0047412347 -0.004929072 0.004956817
0000f0 02 b1 9e bb b4 bb a1 3b 6b 1b 99 bb 4b b1 9d bb
       -0.0048428783 0.004935706 -0.004672458 -0.0048123947

layers.5.running_mean f4 [64]
000000 df 85 79 3d 6c 67 16 be 37 5e f8 3d 94 c0 20 be
       0.060918685 -0.1468789 0.12127345 -0.15698463
000010 79 46 8f bd 69 b2 10 3e 1b f2 2d bd b2 48 10 3e
       -0.069958635 0.14130558 -0.042467218 0.14090231
000020 32 58 00 3e b9 5f 5f bd 82 ab d1 3d a4 7e 30 be
       0.12533644 -0.054534648 0.10237791 -0.1723581
000030 33 46 9e bc 58 9b 47 be 6c 34 98 3c 2b 1a fa 3b
       -0.019320583 -0.19492853 0.018579684 0.007632514
000040 ca 6d 66 3d 47 a3 20 3d d9 79 1e 3c 75 f3 3c 3d
       0.056257047 0.039218213 0.009672605 0.046130616
000050 e9 e6 8a be 96 f8 80 bd 4d b1 f0 3d f9 54 13 3e
       -0.27129295 -0.06297414 0.117525674 0.14387883
000060 c2 fa 07 3d 59 71 2c 3e b2 57 86 3d 7f ce c1 3d
       0.033198126 0.16840114 0.06559695 0.09463214
000070 8f 05 95 bd bf df 63 3e a6 6d 12 3d eb 83 18 3d
       -0.07276451 0.22253321 0.0357491 0.03723518
000080 d0 72 5d be c8 8c 87 bd 13 93 a8 bd b6 d4 12 bd
       -0.21625829 -0.06618649 -0.08231177 -0.03584739
000090 5e 17 52 3e cf 74 81 3d 62 aa a1 3d 0b 35 b7 bb
       0.20516726 0.063211076 0.07893826 -0.00559104
0000a0 85 3b 7d bc c0 53 c7 bc a2 9e af 3c b9 af 20 bd
       -0.015456085 -0.024331927 0.021437947 -0.039230082
0000b0 cf 09 2f 3d 6b 46 92 bc 37 97 6b be 5a 3c 1d 3d
       0.042733964 -0.017855844 -0.23006903 0.038387634
0000c0 31 ac 49 be 2a ad 37 bd 25 d5 38 3e 24 cd 1e 3d
       -0.19694592 -0.044842876 0.18050058 0.038769856
0000d0 f9 a7 0b 3e fb 06 87 bd fe 4b b6 bc 7b f4 20 bc
       0.13638295 -0.06593128 -0.022253033 -0.009823914
0000e0 df 97 71 3d 7f 6c 52 3e 64 0d 11 3d 93 08 1d be
       0.058982726 0.205492 0.03541316 -0.15335302
0000f0 b2 a9 11 3e 19 32 51 bb 83 b2 cb 3d 41 fe b9 bd
       0.1422489 -0.003192073 0.09946158 -0.09081698

layers.5.running_var f4 [64]
000000 e2 b3 26 3f be b8 21 3f 93 0b 2a 3f c1 2a 5d 3f
       0.6511823 0.6317252 0.6642391 0.8639336
000010 24 bc 39 3f 91 65 22 3f 6c e5 1d 3f 07 e7 25 3f
       0.72552705 0.6343623 0.61678195 0.64805645
000020 0a f8 28 3f 0f 12 1d 3f 23 ed 2f 3f 6c 03 36 3f
       0.6600348 0.6135568 0.68721217 0.7109897
000030 6c 84 20 3f f5 3c 23 3f 84 96 26 3f 48 96 39 3f
       0.6270206 0.6376489 0.6507342 0.72494936
000040 84 ec 43 3f 0c 29 32 3f d2 4f 1f 3f 5f ec 2f 3f
       0.7653277 0.6959388 0.6223117 0.6872005
000050 f9 c6 25 3f 25 2b 3d 3f 16 ea 24 3f a0 e7 2e 3f
       0.64756733 0.7389396 0.64419687 0.6832218
000060 ef c9 2b 3f 40 44 26 3f 0c b9 26 3f f4 31 20 3f
       0.67105 0.6494789 0.6512611 0.6257622
000070 de 4c 26 3f 25 d4 26 3f e8 b1 3a 3f 56 a5 37 3f
       0.6496104 0.65167457 0.72927713 0.7173666
000080 a2 4f 2b 3f c5 56 2e 3f 94 4e 1f 3f 9c 06 3e 3f
       0.66918385 0.6810115 0.62229276 0.74228835
000090 e1 5a 25 3f 2b 20 29 3f 0f e3 1f 3f 82 23 21 3f
       0.64591795 0.6606471 0.6245584 0.62944806
0000a0 ab 5c 25 3f a3 3f 26 3f d2 85 24 3f 4e b6 2d 3f
       0.64594525 0.6494085 0.64266694 0.678563
0000b0 bc f3 23 3f a6 9e 24 3f 44 3d 40 3f 2e 90 2a 3f
       0.64043784 0.6430458 0.75093484 0.6662625
0000c0 97 df 2a 3f ed 9d 25 3f cc d5 27 3f 67 46 29 3f
       0.6674742 0.646941 0.65560603 0.6612305
0000d0 81 54 2a 3f d2 72 20 3f bb 34 2e 3f fa 7c 20 3f
       0.6653519 0.626752 0.6804921 0.626907
0000e0 28 83 28 3f e5 13 2a 3f 33 c1 24 3f d8 75 36 3f
       0.6582513 0.66436607 0.643573 0.71273565
0000f0 f7 4b 23 3f d9 14 2f 3f a8 99 2c 3f 2a 84 29 3f
       0.6378779 0.68391186 0.6742196 0.6621729

layers.8.weight f4 [2, 64]
000000 ac 2d 3e 3c 66 71 d5 bd b4 5f 9c bd ac cb 9b bd
       0.011607569 -0.1042202 -0.076354414 -0.07607207
000010 94 72 04 be b1 1d eb 3d d7 69 7a bd ab 9d b3 bd
       -0.12934333 0.114802726 -0.061136093 -0.08770307
000020 81 46 79 bd 35 b3 81 3d 84 5d a8 bd 98 f2 df bd
       -0.060858253 0.06333009 -0.08220962 -0.10934943
000030 24 58 c4 bd a5 bc bd 3c cd 37 0a bc e9 5e f0 bd
       -0.09587124 0.023161242 -0.0084361555 -0.11736853
000040 c8 c3 b8 bd af 53 e7 bd e4 f8 1b 3d 78 ae 55 3d
       -0.09021717 -0.11295258 0.038079157 0.05216834
000050 c6 43 86 3c 70 85 38 bd eb 86 90 bd 9d 2f 36 3d
       0.016389739 -0.04504913 -0.070569836 0.044479
000060 f0 c3 05 bd 8b f5 b6 bc b0 89 3b bd 25 e7 94 3c
       -0.032657564 -0.02233388 -0.045785606 0.018176625
000070 44 35 cb 3c 89 a4 c8 3d be b2 d9 3d 76 e9 15 bd
       0.024805672 0.097970076 0.106297955 -0.0365996
000080 1b 88 68 3c 05 16 af bd 1e 2f c9 bd ac 4f ca 3d
       0.014192606 -0.08549122 -0.0982344 0.098784775
000090 c1 2a 25 3c d3 bb 85 bd 6a 33 6e 3d ae 1e 3c 3d
       0.010080994 -0.06529965 0.0581545 0.045927696
0000a0 91 ed 23 3d c9 fa 44 3d 9b 60 0a 3b ac 62 c4 bd
       0.040021483 0.04809073 0.002111471 -0.09589133
0000b0 5a 24 eb bd c9 e5 ef 3d 0d c3 a8 3d f1 f1 ce bd
       -0.11481543 0.1171375 0.08240328 -0.101047404
0000c0 c8 e1 c0 3d a9 29 f7 bd 87 64 a3 3d 0b 73 a9 3d
       0.09418064 -0.12068493 0.079781584 0.08273896
0000d0 db 47 97 3d cc c9 45 3d 77 7f a3 bd cc 55 6d bd
       0.07386752 0.04828815 -0.07983296 -0.05794315
0000e0 d3 16 c2 3c 5e b8 38 3d d6 71 d7 3d ad 6c 64 3a
       0.023692524 0.0450977 0.10519759 0.0008713704
0000f0 49 3d 41 3d 66 2d cb bd df d4 f4 bc f3 6b 8e 3d
       0.047177587 -0.099207684 -0.029886661 0.069541834
000100 c4 8d 64 3c d2 98 d3 3d 24 1b c4 bd 1a dd a0 bd
       0.013949815 0.103318825 -0.09575489 -0.07854672
000110 81 83 34 3d 20 47 99 b9 1d 6f d1 bd ae 5e 6d 3d
       0.044070724 -0.00029235426 -0.10226271 0.05795162
000120 47 0f 1a 3c a5 6a 0e 3d d0 48 00 3d 08 7b a6 bd
       0.009403056 0.034769673 0.03131944 -0.08128935
000130 0e b8 a6 bd 33 00 c4 bd ce bf c0 3d 1f 22 83 bd
       -0.081405744 -0.095703505 0.09411584 -0.064029925
000140 64 1c f0 3d 63 90 10 bd c1 ff 04 3d 63 83 fd 3d
       0.11724165 -0.035293948 0.03247047 0.12378576
000150 9a ad 7e bd 66 91 e8 bd 83 23 b1 3c 6c 92 ae bd
       -0.062177278 -0.113558576 0.021623379 -0.085240215
000160 36 28 95 3d 4a d7 54 3d 5a 54 c3 3d ac 9d 1a bc
       0.0728306 0.05196313 0.09537573 -0.009437006
000170 cf 00 9e bd dd 39 e2 bd e6 b1 9b bd 68 00 ed 3d
       -0.07714998 -0.11046193 -0.07602291 0.11572343
000180 ce 48 b7 bc 4c bc b6 b9 7b 43 b5 bc f8 78 71 bd
       -0.022373583 -0.00034854037 -0.022126904 -0.058953255
000190 ea 14 db 3d 58 85 ef bc 46 4a 65 bd 6c bf f5 3d
       0.106973484 -0.029238388 -0.055979036 0.119994015
0001a0 34 e6 a2 3d e6 43 92 3d 54 cd c0 3d a4 69 98 bd
       0.07954064 0.07141857 0.09414163 -0.07442024
0001b0 ed db 35 3d e3 de f4 bc 78 d9 18 3c 8d 9d 7f 3d
       0.04439919 -0.029891437 0.009329192 0.06240611
0001c0 bc 7d 1a bd f7 75 01 3e 07 74 82 3b 7d 52 9c 3d
       -0.037717566 0.12642656 0.0039811167 0.07632921
0001d0 ad 71 84 3c 14 4a ed bd 23 ab 90 bd 32 70 cc bd
       0.016167486 -0.11586395 -0.07063892 -0.09982337
0001e0 54 bf 91 3c 92 21 a3 bd 08 9f c2 bd 32 f9 00 3d
       0.017791428 -0.079653874 -0.09502989 0.03148765
0001f0 b2 49 d7 bd 4e 76 81 bd bc 5c 9c bd e1 c6 86 3d
       -0.10512103 -0.06321393 -0.07634875 0.06580902

layers.8.bias f4 [2]
000000 b5 90 e0 3d a5 70 47 3d
       0.10965101 0.04869141
