models/best_fold5_hd256_do0.5.pth (torch, 425446 bytes, 20 tensors)

layers.0.weight f4 [256, 10]
000000 20 e3 29 be ca 8e 27 3e f9 11 e1 3c ed 06 e2 3d
       -0.16590548 0.16363063 0.02747439 0.11036477
000010 fd ad d7 bd fd e7 58 3e fa bc 1a 3e a8 06 26 3e
       -0.105312325 0.21182247 0.15111151 0.16213477
000020 db de ee bd e7 0d 48 be 98 88 4f 3e 38 fd bc bd
       -0.116636 -0.19536553 0.2026695 -0.09227985
000030 52 b4 42 3e e8 80 39 3e 96 a8 55 be a2 36 ce bd
       0.19014099 0.1811558 -0.20865092 -0.10069014
000040 66 46 a8 3d 33 5d 41 3e 84 cc 99 3d b8 ab 50 be
       0.082165524 0.18883209 0.075097114 -0.20378006
000050 41 0f b9 be 58 3f e6 bd 68 aa 90 be 72 7f c7 3c
       -0.3614445 -0.112425506 -0.2825501 0.024352763
000060 a5 fe 9a be 2e f9 16 3e b5 1a b9 ba e5 5d f4 3d
       -0.30272403 0.14743492 -0.0014122339 0.119319715
000070 f4 a3 d7 3d 98 c0 55 3e d5 85 8e bd d0 c5 99 be
       0.105293185 0.2087425 -0.0695912 -0.3003373
000080 75 55 9c 3e 57 aa 00 3e 51 1b 26 be a7 e7 8a 3d
       0.3053395 0.1256498 -0.16221358 0.067824654
000090 0f 65 12 3e 02 54 d2 3d 0d b7 3c 3d 1c 66 88 3e
       0.14296363 0.102699295 0.04607301 0.26640403
0000a0 5a a3 fd 3d 6d 14 ae bd df 0c 89 3e 13 9a ee bd
       0.123846725 -0.0849999 0.26767632 -0.11650481
0000b0 96 aa 54 bd f7 c2 0c 3e 63 53 78 be 9f 1c 71 bd
       -0.051920496 0.13746248 -0.2425056 -0.058865186
0000c0 72 dc 17 3e 73 48 4e 3e f7 2d c1 be c0 31 48 be
       0.14830187 0.20144825 -0.3773038 -0.19550228
0000d0 8b e3 e8 3d bd 73 09 bd 2d 29 83 3b f9 1e 89 3e
       0.113715254 -0.033557642 0.0040027113 0.26781443
0000e0 42 07 ea bd 53 90 b9 3d f4 5a 20 be 06 b3 6f be
       -0.114271656 0.09060731 -0.15659696 -0.23408136
0000f0 b3 5e a4 3e fc 35 12 3d 7c b0 89 be 82 76 1b 3d
       0.321035 0.035696015 -0.2689246 0.037954815
000100 b3 f0 a5 3d 13 c3 9f bd 88 bb 80 3e 15 69 06 3d
       0.0810255 -0.07800879 0.25143075 0.032815058
000110 1b e4 cb bd 1f cf 3c 3d e9 ae 27 be c5 b5 8c 3e
       -0.09955617 0.046095964 -0.16375317 0.2748243
000120 9d 3e 8d 3e 48 41 a2 3e cf 40 86 be 9a ce 8f bc
       0.27586833 0.3169043 -0.2622132 -0.01755457
000130 a7 41 65 be 6a 80 56 be 7c c1 87 bc 53 b7 60 3d
       -0.22388326 -0.20947424 -0.016571753 0.05486233
000140 18 3c 95 be 8e a0 8c be a3 0f 28 bd 5c 07 47 3e
       -0.2914741 -0.27466244 -0.041030537 0.19436401
000150 74 c6 44 3e 3f de e1 bd 6f 34 96 bd 7e 9d 66 3d
       0.19216329 -0.11028718 -0.0733422 0.05630254
000160 05 46 be bd 02 14 61 3e 55 09 4a bd e0 38 61 bc
       -0.09290699 0.21980289 -0.049325306 -0.01374647
000170 1c 21 09 3d dd 26 9e 3d 3e a0 62 be a7 2b 81 be
       0.03347884 0.07722256 -0.2213144 -0.25228617
000180 fe a6 4d 3e 74 2d e2 3d d9 54 ab bd 54 b8 61 3e
       0.20083234 0.11043826 -0.08365793 0.22042972
000190 6a a5 54 3e 93 97 36 3e 33 0e 38 be 22 f5 a0 bd
       0.20766225 0.17831258 -0.17974167 -0.078592554
0001a0 89 48 81 3e 95 9d 81 bd b1 6a ac 3d b9 25 7a 3e
       0.25250652 -0.063288845 0.08418787 0.24428453
0001b0 eb 61 74 be cf 8b 32 be ca b6 b1 be 06 e5 36 be
       -0.23865478 -0.17436145 -0.3470977 -0.17860803
0001c0 bf 35 3c be 10 7f 64 be 29 e4 86 3e 5f 4e 37 3e
       -0.18379878 -0.22314095 0.26345947 0.1790099
0001d0 b0 92 1a be 43 b7 36 3e ac 57 78 be 0c 4f f9 3d
       -0.1509502 0.17843346 -0.24252194 0.1217328
0001e0 e9 04 58 be 9c 29 4b bb 77 d0 0d be 11 5c 05 bd
       -0.21095623 -0.0031000143 -0.13849054 -0.032558504
0001f0 b7 df 8b ba 66 d7 9e 3d 26 3d 68 be ae b2 54 3b
       -0.0010671531 0.07755928 -0.22679576 0.0032455134
000200 65 8d 23 be d6 d4 96 bd ab 73 ca 3d dd f0 05 3e
       -0.15971906 -0.07364814 0.09885343 0.13080163
000210 cf 31 c4 3c 4a 09 9f be f8 c8 fd 3c 4d 93 9b 3d
       0.023949532 -0.31061774 0.030979618 0.07596455
000220 bd a4 08 bd 58 41 ee 3c 88 0b 21 be 70 15 4a 3e
       -0.03336023 0.029083893 -0.15727055 0.1973474
000230 aa 6e a8 3c 6c ce 35 be 81 d8 41 3e 36 31 8e bd
       0.020560581 -0.17754525 0.18930246 -0.0694298
000240 38 44 03 3e e7 be 8b 3d 65 0e b0 3d 77 59 a0 be
       0.12818992 0.06823521 0.085964955 -0.31318256
000250 c4 b2 2f 3e e3 e8 88 3d ee be 31 3e 91 29 8c 3e
       0.17158037 0.066850446 0.1735799 0.27375463
000260 6a cf 7a be 02 06 10 bd ba a6 92 3e 2f 9d 1d be
       -0.24493185 -0.03516198 0.28642827 -0.15391992
000270 f7 23 d2 3d 42 76 87 bd 83 bc 01 3e b1 9b 90 3d
       0.10260766 -0.06614353 0.12669568 0.07060946
000280 ef c9 8f be 5a 4c 1c 3e 2a b5 c0 bd 17 97 0c 3e
       -0.2808375 0.15263501 -0.09409554 0.13729511
000290 e4 de 8a 3d 57 07 57 bd 44 2f 1e 3e 6e a7 ee bd
       0.06780794 -0.052497234 0.15447718 -0.116530284
0002a0 8d 09 e3 3c b4 de 81 bd 2f 43 89 bd 1c 51 8a 3e
       0.027714515 -0.063413054 -0.067022674 0.27015007
0002b0 0b 57 8e 3c 3a 84 0a be fe 2e 9e 3e 08 91 96 be
       0.01737549 -0.13527003 0.30895227 -0.29407525
0002c0 bf ef 27 bd 93 1c 67 3e 93 63 58 be c3 42 3b 3e
       -0.041000124 0.22569494 -0.21131735 0.18287186
0002d0 e3 53 b0 be 63 28 17 be 5b b5 df 3d cc 54 ef 3c
       -0.34439 -0.147615 0.10923263 0.029215239
0002e0 09 43 11 be b4 aa 89 3e 00 a3 3a 3e a1 62 84 bd
       -0.14185728 0.2688805 0.18226242 -0.064641245
0002f0 3a 4c 07 be 37 12 a4 3e af 6e b9 be b1 33 8a bb
       -0.13212672 0.32045147 -0.36217257 -0.004217588
000300 eb a3 6b 3e bd 4e ce bd c2 16 56 bd 79 4b 6d bc
       0.23011748 -0.10073612 -0.052267797 -0.014483326
000310 37 1d 3a 3d b5 87 21 3e 86 ed 33 be 4d 40 8f 3e
       0.045438018 0.15774424 -0.17571077 0.27978745
000320 65 e2 75 be e8 b7 44 3d 4d 46 73 be 07 5c b5 bc
       -0.24012144 0.04802695 -0.23757286 -0.022138609
000330 0d f3 a8 3d f0 7b b7 3d dc de 3a be 03 0d 5a be
       0.08249483 0.08959186 -0.18249077 -0.21294026
000340 7b 96 38 3d 39 ef a0 bd af e8 14 3d 5e ba d4 bd
       0.045065384 -0.07858128 0.036354717 -0.10387109
000350 3f 08 32 be 09 9d 9a be 47 d5 8e bc b5 cb cb bd
       -0.17385958 -0.30197933 -0.017435683 -0.099509634
000360 84 a0 9d 3c 35 dc 10 3e a3 aa 0d be b4 0b 21 3e
       0.019241579 0.14146502 -0.13834624 0.1572712
000370 b3 5a 5e be 98 48 9f bd 9d 54 7b 3e 08 d4 6f 3c
       -0.21714287 -0.07777518 0.24543996 0.0146379545
000380 49 4c 65 3d d9 b3 ba 3d 5f fe 8a be 40 e2 bc bd
       0.055980954 0.091163345 -0.27147195 -0.09222841
000390 ed 2f 61 3e c3 74 bf bc 4a eb a9 be 46 1b 7e be
       0.21990938 -0.023371106 -0.33187324 -0.24815091
0003a0 cf ff 94 3e c3 23 7b 3e 19 b0 93 bc 64 15 05 3e
       0.29101416 0.24525361 -0.018028306 0.12996441
0003b0 7d e2 03 3d a2 67 64 3e 81 2e 35 3e ac a0 05 3e
       0.032198418 0.22305158 0.17693521 0.13049573
0003c0 cb b0 79 be de ef 64 3e d0 0c 95 3e 71 5b 13 be
       -0.24383847 0.22357127 0.29111338 -0.14390351
0003d0 30 b1 01 be 57 01 2e 3e 10 df 06 3e 13 8e 38 3e
       -0.12665248 0.16992699 0.13171029 0.18022947
0003e0 51 d8 ba bd 8a e8 4f 3e b8 dc 1e 3e a3 02 91 bd
       -0.0912329 0.2030355 0.15513885 -0.07080581
0003f0 87 1a 9d be 99 b5 92 be 17 b2 e2 bd bb 51 a4 3d
       -0.306843 -0.28654173 -0.11069124 0.08023401

layers.0.bias f4 [256]
000000 19 1d 08 be 8d 45 fb 3d f9 80 84 3e fa 96 4a be
       -0.1329235 0.12269125 0.25879648 -0.19784155
000010 76 f3 8e bd f3 78 d4 3d 76 9b 21 be f3 fb 2a bc
       -0.0698003 0.10374632 -0.1578196 -0.010436046
000020 48 d4 fb 3d 72 b6 83 bd 03 8b 63 be a1 a2 2f 3d
       0.12296349 -0.06431283 -0.22220998 0.042879704
000030 e8 2d 6d be c3 eb 07 be 4e 8b fa 3c 36 90 84 3d
       -0.23162043 -0.1327353 0.030584004 0.064728186
000040 5b 26 e0 bd f1 f0 b4 bd 29 40 9a be 43 cc 23 3e
       -0.10944816 -0.088350184 -0.30127075 0.15995888
000050 aa 44 f6 3a 01 f2 83 3e 72 39 db bb 0d 6c a6 bc
       0.0018788774 0.25770572 -0.0066901976 -0.020315195
000060 35 97 24 be 78 4b 3f be f8 43 9d 3e 39 4d b5 bc
       -0.16073306 -0.18681133 0.3071592 -0.02213155
000070 18 87 5d bd 4e a6 23 be 91 b6 58 3e 6a ab 48 be
       -0.054083914 -0.15981409 0.21163394 -0.1959664
000080 6c 5e e3 bd f6 67 0c 3e 0a c1 83 3e e0 41 d5 3d
       -0.11101994 0.13711533 0.25733215 0.10412955
000090 d0 80 29 3e 5c 26 94 be a9 0a 83 3d 7f 45 97 bd
       0.16553044 -0.28935516 0.06398518 -0.07386302
0000a0 15 1b 6d bc 13 ed 1e 3e 8a d9 47 3b f7 15 5a be
       -0.014471789 0.15520124 0.0030494654 -0.21297441
0000b0 b6 d8 47 3e 2a 1e f3 3d ce b8 e0 3d 3b fe 07 be
       0.19516262 0.11870988 0.10972749 -0.13280575
0000c0 6b 02 94 3e 4f 63 a2 bd db 95 59 bc d0 18 5a 3e
       0.28908095 -0.07929098 -0.013280357 0.21298528
0000d0 a2 de 80 3e 7b a5 9e 3e 8b 4d 8f be 75 87 40 be
       0.25169855 0.30985627 -0.27988848 -0.18801673
0000e0 fa ea 21 3c f5 b3 8e be 3d 60 99 be ea 8c 77 3c
       0.009882683 -0.2787167 -0.29956236 0.01510928
0000f0 84 8f 11 be 42 ea 2a be 13 bc 25 be b2 64 9f be
       -0.14214903 -0.16690925 -0.16185026 -0.31131512
000100 3b cf 43 3e 83 a8 08 3e 86 eb 62 3e e5 db 1d be
       0.19122021 0.13345532 0.22160158 -0.15415914
000110 ba 0c 43 be 61 7c de bc 27 f5 9e 3e 08 a3 86 3e
       -0.19047824 -0.027158918 0.3104641 0.26296258
000120 f3 c9 62 3e 58 f9 ad bc bd a2 52 3e ce 00 a1 be
       0.2214735 -0.02123706 0.20569892 -0.31445926
000130 e9 f2 31 3e 5f 9a a0 be 62 31 97 be 9a fc 49 be
       0.17377819 -0.31367776 -0.29529864 -0.19725266
000140 d9 63 47 3e f9 79 71 be 90 79 86 3d 18 3e 65 3e
       0.19471683 -0.23581685 0.06566155 0.22386968
000150 a4 39 b6 3d 04 ee 0e 3e d5 5c 95 3d 65 d4 ab 3d
       0.08897713 0.13957983 0.07293097 0.083901204
000160 7d 68 8e be db e8 4c 3e 88 ea 9c 3e 7e c5 0b be
       -0.27814093 0.20010702 0.30647683 -0.13649556
000170 5f 92 72 3e 5d c6 25 be 40 99 05 3d 7e 2b 66 3e
       0.23688649 -0.16188951 0.032616854 0.22477528
000180 73 36 7e be 53 76 34 3d 7e f8 e6 bc 0a f2 8f 3b
       -0.24825458 0.044058155 -0.028194662 0.004392867
000190 9b de 70 3e 68 7d 71 3e 2b 82 4b 3e d5 2c ce bd
       0.23522417 0.23582995 0.19873874 -0.10067145
0001a0 55 db 90 be fb 5e 62 3d c2 2f 5d 3e cd 87 87 be
       -0.28292337 0.05526636 0.2160025 -0.26470795
0001b0 c8 d3 7b 3e 56 9d 5c be cc 1a 0e 3e bc dc bb bd
       0.24592507 -0.21544394 0.1387741 -0.09172961
0001c0 af 94 cb 3d d2 8d 41 3e df 1a 89 be d3 33 f1 3d
       0.099404685 0.18901756 -0.26778314 0.11777463
0001d0 50 48 cc bd fb 7f 3b be 63 0d 80 bd fe a4 0f be
       -0.0997473 -0.1831054 -0.06252553 -0.14027783
0001e0 b4 03 03 be 39 40 f8 bd b5 52 82 3e b6 58 d0 3d
       -0.12794381 -0.121216245 0.25453725 0.1017317
0001f0 9c 2d 99 3e a0 af 9c 3e 0a da a4 bc 38 43 8f be
       0.2991761 0.3060274 -0.0201235 -0.2798097
000200 f3 80 93 3e 79 0a b8 3d d7 90 64 3e 63 85 8c bd
       0.28809318 0.089863725 0.22320877 -0.06861379
000210 25 50 50 be 8d 19 fe bd 60 f6 99 bd 24 5b 3b be
       -0.20343073 -0.12407217 -0.075176954 -0.18296486
000220 c6 38 84 be a4 38 9c 3e 81 4d be bc 29 6d 9a 3e
       -0.25824565 0.30511963 -0.023230316 0.30161408
000230 6b 65 19 be 64 16 19 be 18 f4 7f 3e 5f 28 1f 3e
       -0.14980094 -0.14949948 0.24995458 0.15542744
000240 56 91 86 be 62 b0 2c be 3d 9e 2d be 30 18 e5 3d
       -0.26282758 -0.1686416 -0.16954894 0.11186254
000250 84 91 c2 3d 67 0b 7b bd 28 d7 4b bd 49 ea c5 bd
       0.09500411 -0.06129017 -0.049765736 -0.09663827
000260 e2 0d 48 3e e6 0f 57 be 23 96 27 3e 97 4a 8c bd
       0.19536546 -0.21002159 0.16365866 -0.068501644
000270 20 62 53 3e df cd 3a be 85 e3 3e be 19 ab c9 bd
       0.206429 -0.18242596 -0.1864148 -0.098470874
000280 4c 31 17 bd 9a cf 6f 3e c8 75 80 be f9 67 13 3d
       -0.036912248 0.23419037 -0.2508986 0.035987828
000290 09 f3 2b be 5a 2a 5f be 81 bb 61 3e cc 3c e8 3b
       -0.1679193 -0.217935 0.22044183 0.0070873257
0002a0 82 49 f2 3c 20 6d 8e be 05 4e 2e be 9c 77 2b be
       0.029576067 -0.2781763 -0.1702195 -0.16744846
0002b0 d0 b4 3d bb c0 4b 86 bd e5 a8 cf bc 1a c8 17 3e
       -0.0028946884 -0.06557417 -0.02534909 0.14822426
0002c0 1d ee cd bd a6 ea 35 bb 71 b8 05 3e a3 f4 6a 3b
       -0.10055182 -0.002775827 0.1305864 0.0035851381
0002d0 f0 78 86 3e 46 4e 18 3e ad cb ac 3c dd 21 a0 3e
       0.26264143 0.14873609 0.021093214 0.31275836
0002e0 d6 f4 81 3c 62 20 33 3e 44 5e 8c be 3d 72 c0 3c
       0.015863817 0.17492822 -0.2741567 0.023491973
0002f0 85 c2 91 be cb 25 6a 3e a3 89 e4 bb cb c7 9a 3e
       -0.2846872 0.2286598 -0.0069744154 0.30230555
000300 a9 bc 80 be 2a c6 4d be 8f c1 61 be ba 4c 05 be
       -0.25143936 -0.20095125 -0.22046493 -0.1301755
000310 29 74 9e be 08 84 0a be fd ae 70 3e 99 b4 35 3c
       -0.30947998 -0.13526928 0.23504253 0.011090421
000320 68 bc 69 be ad 92 23 be 10 7f 61 3e 6a 08 dc 3d
       -0.22825778 -0.15973921 0.22021127 0.10743792
000330 ba 3c 0c 3e 24 59 20 3b f5 21 93 3d c6 55 61 be
       0.1369504 0.0024467194 0.07184211 -0.22005376
000340 ad a9 3b be b8 e1 89 be 92 2c 20 be 4b 02 62 3e
       -0.18326445 -0.26930022 -0.15642002 0.22071187
000350 41 96 86 3e c2 47 c8 3d 5c 0a 91 be 95 05 71 be
       0.2628651 0.09779312 -0.28328216 -0.23537286
000360 d2 58 35 be 1b 60 95 be 6f 42 32 3e e4 28 2c be
       -0.17709664 -0.29174885 0.17408155 -0.16812474
000370 19 38 82 3e e9 4c 7d 3e f1 9f 05 be 8a 89 af 3d
       0.25433424 0.2473637 -0.13049294 0.08571155
000380 48 c0 8e be 20 78 d5 bd fb 23 d9 bd fb 3f 8b be
       -0.27881074 -0.10423303 -0.10602566 -0.2719725
000390 3f a7 21 3e 2e a6 5e 3d ec 9d 44 3e 5e a9 93 3e
       0.15786456 0.0543577 0.19200867 0.28840154
0003a0 0d f8 99 be 74 c3 02 3e 24 75 88 bd 02 f8 34 3e
       -0.3007206 0.12769872 -0.06662968 0.17672732
0003b0 d7 ea 39 be 29 02 3b 3e 04 67 21 3e a6 9d 44 bd
       -0.1815599 0.18262543 0.15761954 -0.048001908
0003c0 41 21 89 be 77 7e df bd d4 70 d5 3d 30 96 d9 3c
       -0.26783183 -0.10912793 0.10421911 0.026560873
0003d0 3b 61 e2 3c 23 55 21 3e c4 81 3f be a2 f4 31 3e
       0.027634254 0.15755133 -0.18701845 0.17378476
0003e0 a2 25 16 3d 49 85 fa bd 50 8a 5b 3e e1 37 38 bd
       0.036656983 -0.122324534 0.21439481 -0.044975165
0003f0 c5 0a 5d be d1 d2 8a be 84 cc fd bd 23 13 88 3e
       -0.2158614 -0.27113965 -0.12392524 0.265771

layers.1.weight f4 [256]
000000 89 ad 80 3f 4c 30 80 3f d3 a0 81 3f 8d b0 7b 3f
       1.0052959 1.0014739 1.0127205 0.9831627
000010 41 41 81 3f 28 13 85 3f 5c 61 81 3f ae b8 7f 3f
       1.0098039 1.0396471 1.0107837 0.99891174
000020 68 a4 80 3f a4 dc 79 3f c2 e8 7a 3f 44 5f 80 3f
       1.0050173 0.97602296 0.9801141 1.0029073
000030 fa ff 82 3f 57 90 7b 3f 99 be 7a 3f 55 fd 7e 3f
       1.0234368 0.9826712 0.9794708 0.99605304
000040 8d fc 7e 3f 20 a6 7a 3f 42 60 85 3f 8e e4 83 3f
       0.9960411 0.97909737 1.042 1.0304124
000050 ac 79 81 3f 6b b4 7e 3f 3c 1a 80 3f 55 5c 79 3f
       1.0115256 0.99494046 1.0008006 0.9740651
000060 5f 41 7d 3f 54 cf 81 3f a2 18 81 3f 61 61 81 3f
       0.98927873 1.0141397 1.0085642 1.0107843
000070 d7 7f 81 3f 43 9f 7d 3f 0b 2f 81 3f 9c 1f 81 3f
       1.0117139 0.9907114 1.0092481 1.0087771
000080 4b 4d 7f 3f 68 93 83 3f 31 c5 7e 3f 3b a3 7e 3f
       0.99727315 1.027936 0.9951964 0.9946782
000090 33 a8 7d 3f 60 d9 80 3f 04 53 7e 3f e1 89 81 3f
       0.99084777 1.0066338 0.9934542 1.0120202
0000a0 37 b8 77 3f 9a 13 7e 3f de 96 7f 3f 76 4c 7b 3f
       0.96765465 0.9924866 0.9983958 0.98163545
0000b0 d0 12 83 3f 7f f2 7d 3f f1 06 7b 3f 39 c7 7c 3f
       1.0240116 0.99198145 0.98057467 0.9874149
0000c0 e8 c6 7f 3f 65 21 7e 3f 55 43 81 3f 25 b5 7f 3f
       0.9991288 0.99269706 1.0098673 0.9988578
0000d0 73 9f 79 3f 2b 8b 7c 3f 8d 8d 7c 3f a8 a9 7d 3f
       0.97508925 0.98649853 0.9865349 0.99087
0000e0 eb 89 7d 3f 2f 1a 80 3f aa 6a 83 3f c2 1c 7b 3f
       0.9903857 1.0007991 1.0266926 0.98090756
0000f0 64 4b 7d 3f e0 4f 7b 3f a1 a9 7f 3f 5d 15 81 3f
       0.9894316 0.98168755 0.9986821 1.0084645
000100 2e e9 81 3f d5 ba 82 3f 69 d7 78 3f 74 0a 81 3f
       1.0149286 1.0213267 0.9720369 1.0081315
000110 27 16 7d 3f 13 65 81 3f 5f ba 7c 3f f2 85 7e 3f
       0.98861927 1.010897 0.9872188 0.99423134
000120 c9 b3 80 3f 7f 30 79 3f 46 a5 7a 3f 65 c7 7e 3f
       1.0054866 0.97339624 0.9790844 0.99523
000130 b4 66 7b 3f 23 26 7f 3f 5d c6 80 3f 9b 12 7e 3f
       0.9820359 0.99667567 1.0060536 0.9924714
000140 57 2a 7a 3f e5 a9 7f 3f d5 df 7f 3f a0 b5 7c 3f
       0.97720855 0.99868613 0.99950916 0.9871464
000150 ba b6 85 3f 43 9a 7e 3f 58 92 81 3f 46 5a 80 3f
       1.0446389 0.99454135 1.0122786 1.0027549
000160 9f 91 7c 3f e1 c6 84 3f 59 b2 7f 3f 68 64 7e 3f
       0.986597 1.0373193 0.9988151 0.9937196
000170 52 31 81 3f 58 bf 80 3f 77 ea 7c 3f 48 e9 7e 3f
       1.0093176 1.0058393 0.98795265 0.9957471
000180 ff 26 80 3f 38 fd 80 3f 1f 40 7b 3f 71 12 82 3f
       1.0011901 1.0077276 0.98144716 1.0161878
000190 5d 48 81 3f 98 dc 81 3f dd e8 82 3f 76 3b 7b 3f
       1.0100209 1.0145445 1.0227314 0.98137605
0001a0 f0 4b 83 3f 6d d0 81 3f 10 2a 7e 3f 7e 3d 7e 3f
       1.0257549 1.0141732 0.9928293 0.9931258
0001b0 8d 5e 7c 3f 94 9e 7c 3f 4d 04 7c 3f 7a 39 7f 3f
       0.98581773 0.9867947 0.9844406 0.9969708
0001c0 3c f8 7a 3f 33 a7 7f 3f 45 6e 81 3f 93 71 80 3f
       0.98035026 0.998645 1.0111777 1.003466
0001d0 9f a4 7f 3f 07 33 7b 3f f2 41 84 3f a0 d4 7f 3f
       0.99860567 0.98124737 1.0332625 0.99933815
0001e0 83 87 80 3f c2 27 85 3f d8 69 7e 3f f2 82 77 3f
       1.0041355 1.0402758 0.99380255 0.9668418
0001f0 c2 4b 7c 3f 83 17 7e 3f df 68 7d 3f 0a 24 7f 3f
       0.985531 0.99254626 0.98988146 0.99664366
000200 7b 21 7f 3f e8 3e 81 3f c3 61 80 3f cf 85 7c 3f
       0.9966046 1.0097322 1.0029835 0.98641676
000210 63 76 80 3f b9 09 82 3f c6 c2 7e 3f d0 ba 7d 3f
       1.0036129 1.0159217 0.9951595 0.9911318
000220 e0 b0 7f 3f 41 60 86 3f e7 74 7c 3f 70 75 7c 3f
       0.99879265 1.0498124 0.9861588 0.98616695
000230 25 34 82 3f ec fa 7d 3f 0d 00 7f 3f f5 4c 7c 3f
       1.0172163 0.99211 0.9960945 0.9855493
000240 eb 2d 7c 3f ce d5 82 3f 65 d8 7d 3f e7 65 7a 3f
       0.98507565 1.0221498 0.99158317 0.9781174
000250 85 7d 84 3f b7 cb 7a 3f 1c b3 7e 3f 39 ca 7b 3f
       1.0350806 0.97967094 0.9949205 0.9835544
000260 72 c6 82 3f 0c 13 7c 3f 9e b9 80 3f 0f 9f 7d 3f
       1.0216811 0.98466563 1.0056646 0.9907083
000270 d5 dd 7e 3f 7e 1c 82 3f 93 14 80 3f 9b 58 78 3f
       0.9955724 1.0164945 1.0006279 0.970102
000280 63 ff 7c 3f ef 12 7b 3f b8 6b 81 3f df 96 77 3f
       0.9882719 0.98075765 1.0110998 0.96714586
000290 5d 4c 80 3f ff 0a 7b 3f d3 fc 7e 3f da 2d 7c 3f
       1.0023304 0.98063654 0.9960453 0.98507464
0002a0 ae d2 7f 3f e1 22 83 3f d6 90 80 3f 15 6a 7f 3f
       0.99930847 1.0245019 1.00442 0.99771243
0002b0 7f f8 7f 3f f8 22 81 3f 47 f0 7c 3f 43 01 81 3f
       0.9998855 1.0088797 0.98804134 1.007851
0002c0 4e 77 7c 3f 34 8b 7e 3f af 0f 7d 3f e7 4c 7f 3f
       0.98619545 0.9943116 0.98852056 0.9972672
0002d0 21 d9 7f 3f 4b c2 81 3f 75 9b 7b 3f 01 43 7d 3f
       0.9994069 1.0137419 0.98284084 0.98930365
0002e0 ec f6 7c 3f 46 61 7e 3f 1c 7e 81 3f 3e b4 81 3f
       0.9881427 0.9936718 1.011661 1.013313
0002f0 1d f4 83 3f a1 66 7a 3f 6c c9 7e 3f 90 b6 7d 3f
       1.0308872 0.9781285 0.99526095 0.99106693
000300 eb 1e 7b 3f 0f eb 83 3f 95 73 80 3f 9b 2b 80 3f
       0.9809405 1.0306109 1.0035273 1.0013307
000310 18 a8 80 3f 65 d5 81 3f ea 2b 7b 3f a2 b6 7d 3f
       1.0051298 1.0143248 0.9811388 0.991068
000320 43 79 84 3f 63 ae 7f 3f 6a b7 84 3f 12 04 7c 3f
       1.0349506 0.9987547 1.0368474 0.9844371
000330 a8 40 81 3f 74 af 83 3f d2 66 7a 3f 12 f9 7d 3f
       1.0097857 1.0287919 0.9781314 0.99208176
000340 f0 be 80 3f 47 f8 7c 3f 68 a1 7b 3f 75 78 7c 3f
       1.005827 0.9881634 0.9829316 0.986213
000350 f2 1c 81 3f 44 85 80 3f 2a a9 7e 3f b9 49 79 3f
       1.0086958 1.004067 0.99476874 0.97378117
000360 6f fe 80 3f 9a 40 78 3f bb db 7d 3f 11 5a 80 3f
       1.0077647 0.96973574 0.9916341 1.0027486
000370 e8 5e 80 3f 38 5b 7e 3f 04 54 7e 3f 73 c7 7e 3f
       1.0028963 0.9935794 0.9934695 0.99523085
000380 52 96 7c 3f 11 38 7d 3f 36 b8 81 3f e7 aa 7e 3f
       0.9866687 0.98913676 1.0134342 0.99479526
000390 75 54 79 3f c5 4b 79 3f 42 3a 7c 3f 40 b1 7d 3f
       0.97394496 0.9738124 0.98526394 0.9909859
0003a0 0d 22 83 3f 18 89 81 3f b2 66 82 3f 50 62 82 3f
       1.0244766 1.0119963 1.018759 1.0186253
0003b0 34 f4 7f 3f 58 a0 7d 3f 08 ca 80 3f 3c 6c 7e 3f
       0.99982 0.9907279 1.0061655 0.993839
0003c0 e7 3e 81 3f 41 c3 81 3f 84 94 85 3f 6c 62 7c 3f
       1.0097321 1.0137712 1.0435948 0.9858768
0003d0 2e b2 7f 3f 3f 15 7e 3f 77 b1 80 3f f9 04 7d 3f
       0.99881256 0.9925117 1.0054158 0.9883571
0003e0 50 ff 89 3f a2 cb 80 3f 49 96 81 3f f6 6c 80 3f
       1.078104 1.0062144 1.0123988 1.0033252
0003f0 a5 79 7e 3f 64 f3 7d 3f 31 16 7c 3f 53 d2 79 3f
       0.99404365 0.9919951 0.9847136 0.97586554

layers.1.bias f4 [256]
000000 2c 74 b1 3c 33 71 13 3c 26 6f 5c 3a 74 c6 5b bc
       0.02166184 0.008999157 0.00084088964 -0.013414014
000010 7d 31 8a 3c af b4 2c bc e8 e5 62 3a cf 44 d8 ba
       0.016869301 -0.010541125 0.00086554745 -0.0016499999
000020 ca c5 36 bc 37 89 eb bc 61 27 ad bc 25 56 97 bc
       -0.011155555 -0.028751953 -0.021136941 -0.018473694
000030 e5 ba c1 3c 12 aa 36 bc cf 6f 99 bc 8e d9 29 b9
       0.023648689 -0.011148946 -0.018730072 -0.00016198141
000040 13 d4 23 3c 8f 5b 45 bc fa d5 5c 3c 55 06 e4 3c
       0.009999293 -0.012045755 0.01347875 0.02783505
000050 2b 1a 32 bc fd 58 48 bc 68 87 bc 3b 4d 21 d1 bb
       -0.010870497 -0.012228248 0.0057534464 -0.0063821436
000060 a2 e0 e5 bc 56 dc 0e 3c 07 87 18 bc 2a ec 8f bb
       -0.028061215 0.008719524 -0.009309537 -0.0043921666
000070 6b 17 35 3d 8a f7 d5 bb 9e 33 cc ba 0f 3a eb 3c
       0.044211786 -0.006529753 -0.0015579348 0.028714208
000080 01 16 0f 3c c3 06 a6 3b c9 91 6e ba 85 bd 87 3a
       0.0087332735 0.005066724 -0.0009100703 0.0010356164
000090 1e b0 08 bc ce f9 00 3c e4 10 c3 bb ff 2a 18 3c
       -0.008342771 0.007872058 -0.0059529413 0.009287595
0000a0 51 2f 06 bd b3 cf 60 bc 14 1d 90 bc c0 99 54 bb
       -0.03275997 -0.013721394 -0.01759199 -0.0032440275
0000b0 45 61 05 3d 9f 6a 92 bb 71 bf 9a bc fa 10 d5 ba
       0.032563467 -0.0044682766 -0.018890115 -0.001625567
0000c0 40 c7 92 3c 21 6f 41 3b fe 96 65 3c 2f ef df bb
       0.017917275 0.00295157 0.01401305 -0.006833933
0000d0 3d 14 05 bd aa 1e af bc b5 02 01 bc 08 04 ef 39
       -0.032490004 -0.021376926 -0.007874181 0.00045588636
0000e0 d8 0e 54 bc 6e 02 a3 ba 95 06 07 3c 48 8b e4 bc
       -0.012942992 -0.0012436637 0.008241315 -0.027898446
0000f0 6a 3b 90 bc 48 1c 22 bc db d9 b1 3b b4 38 63 3c
       -0.017606456 -0.009894438 0.0054275817 0.0138685
000100 cf ad dc 3c 89 8b 3d 3d d0 c9 df bc b0 e5 67 bb
       0.026938347 0.04627565 -0.027317911 -0.0035384707
000110 18 f9 5f bc b6 d9 15 3c 4b e7 96 bb 0f e0 ba 3c
       -0.013670228 0.009146145 -0.004605209 0.022811918
000120 da 8f f7 bb 9a a5 c2 bc 30 dc d1 bc fc c6 93 3b
       -0.0075549902 -0.023760606 -0.025617689 0.004509805
000130 f5 12 8a bc 66 56 89 bc 50 83 be bc ac b8 b6 3b
       -0.016854743 -0.01676483 -0.023255974 0.005576214
000140 48 b7 6a bc 98 24 6e bc e0 d8 1f bc 52 07 a4 bc
       -0.014325924 -0.014535092 -0.009756297 -0.020023022
000150 f2 ba f0 3c dd f0 96 bc 9d 39 a3 3c f2 4b 58 3a
       0.029386017 -0.0184254 0.019924933 0.0008251063
000160 bc bb 65 bc a4 d6 09 3d e4 25 9f 3b 92 89 98 3b
       -0.01402181 0.033651963 0.004856812 0.0046550715
000170 07 51 dc 3b 37 c0 10 3d cc 36 a8 3b ea f9 52 bc
       0.0067235264 0.03533956 0.0051334854 -0.012876967
000180 6d 61 3f bb 36 06 47 bc d7 f3 42 bc 74 68 6c 3c
       -0.0029202357 -0.012147477 -0.011898956 0.0144292
000190 38 58 f3 3c 19 36 f9 bb cf 9a 3b 3c be 99 a4 bb
       0.029705152 -0.007605326 0.011450483 -0.0050232103
0001a0 28 8c bb 3c 7a 1f a6 3b b3 22 c6 3b 95 16 c5 bb
       0.02289398 0.0050696703 0.006046617 -0.006014655
0001b0 6c 52 c7 bc f0 79 2c bc f7 76 d9 bc 6a 54 78 bc
       -0.024331294 -0.010527119 -0.026545985 -0.015156845
0001c0 04 49 21 bc 0b 09 40 3c 78 13 1a 3b 3c b3 97 3a
       -0.009844068 0.011720906 0.002351014 0.0011573802
0001d0 c4 28 77 3b fa ef ae bc ce e8 a1 3c e5 0e 9b ba
       0.0037713507 -0.021354664 0.01976433 -0.001183
0001e0 38 ec 22 3c ea ef ae 3c 37 70 ea bc 5f 5f 19 bd
       0.009944014 0.021354634 -0.028617961 -0.03744447
0001f0 a6 42 c3 3b ab 17 ea 3a b2 9e 56 ba 43 6b da bb
       0.005958873 0.0017859837 -0.00081870996 -0.0066656186
000200 88 85 6d bc 00 80 da 3b fe fc c4 ba cd 66 b3 bc
       -0.014497168 0.006668091 -0.0015029011 -0.021899605
000210 1e 28 9b 3c c9 8a 8d 3b 5f df e3 bc 16 24 b4 bc
       0.018940028 0.004319523 -0.027816473 -0.021989863
000220 50 7a 24 bc a7 4c d3 3b 25 e0 82 bc 99 d8 48 3c
       -0.010038927 0.0064483467 -0.015976021 0.012258672
000230 93 c7 5a 3c 94 f9 db 3b 04 ad 4e 3c 10 aa c0 bc
       0.013353246 0.0067131016 0.012614492 -0.023518592
000240 63 95 9a bc 31 a3 ae 3c 4a fe ac bc 7f 47 d8 bc
       -0.018870061 0.02131805 -0.021117348 -0.02640128
000250 4e 6a 24 ba ca 60 e7 bc 47 c8 01 bc 47 67 cc bc
       -0.0006271944 -0.028244395 -0.007921285 -0.02495159
000260 bb 2f 18 3c 3d 30 e1 bc f5 e7 75 bc fb 09 2d 3c
       0.009288724 -0.027488822 -0.015008916 0.010561462
000270 0e e7 82 bb 52 cd df 3a 4d 33 96 3b d9 7c 70 bc
       -0.003994829 0.001707474 0.0045837522 -0.0146782035
000280 8b 86 02 bc 0f 15 92 bc 11 c2 1a 3d a6 70 e2 bc
       -0.007966648 -0.017832307 0.037782732 -0.027641606
000290 e2 6d e2 bb 3f 9e 44 bb 71 b1 ab 3b 4b 07 13 bc
       -0.0069100717 -0.0030001549 0.0052396585 -0.008973907
0002a0 2b 5f ab bc dc 7e 4c 3d 00 5d c2 3b 2d 80 d1 3b
       -0.020919403 0.04992567 0.0059314966 0.0063934536
0002b0 9b 93 1f bc 19 30 78 3c 2c e8 8c bc b2 c3 0f 3d
       -0.009739782 0.015148186 -0.017200552 0.03509874
0002c0 30 16 6e bc 24 52 3d bc b9 2d 37 3b c8 23 bf bc
       -0.014531657 -0.011555228 0.0027950837 -0.023332492
0002d0 fd 0d 1e 3c 82 0f d5 b9 53 c8 a4 bc d5 5c f0 bc
       0.00964689 -0.0004063808 -0.020115053 -0.02934114
0002e0 3e 8c 63 bc 6f 1e 23 bc c8 78 5f 3c a0 37 68 bc
       -0.013888417 -0.009955986 0.013639636 -0.014173418
0002f0 15 ca 19 3d 8d 6b a3 bc a3 51 8d bc b3 a9 e1 bb
       0.037546236 -0.019948745 -0.017250841 -0.006886685
000300 cf 97 91 bc b6 b5 b6 bb 8b a0 04 3c b1 ab 3a 3d
       -0.017772583 -0.005575861 0.008094917 0.045573894
000310 46 8e 13 bb 5f 99 ab 3c cd a3 87 bb 9b a0 71 3a
       -0.0022515221 0.020947156 -0.0041393996 0.00092173525
000320 8a 61 87 3b 24 f6 d5 ba bf 06 e3 3c e6 d8 fe bc
       0.0041315006 -0.0016323966 0.027713178 -0.031109285
000330 dc 1d d2 3b fd 60 21 3d 68 0f b5 bc 5a 8e 8c bb
       0.006412251 0.039399136 -0.022102073 -0.0042894306
000340 da 52 ec 3c d8 f4 29 3c a3 57 9e bb 07 7f cb bb
       0.0288481 0.010373317 -0.0048322245 -0.006210211
000350 87 84 46 3c 6c 64 bb ba 14 79 b0 bb 0e a6 5b bc
       0.012116558 -0.0014296896 -0.0053855274 -0.01340629
000360 d1 63 77 3c 9f e5 b9 bc e9 3a 1a bc 67 31 e9 3b
       0.015099482 -0.0226925 -0.009413459 0.007116485
000370 9e 00 f0 3c ff 2a d3 3b f7 b1 04 3c dd f8 2c bc
       0.02929717 0.0064443345 0.008099071 -0.0105573805
000380 f4 2a 15 bc 5f f2 16 3b 7b 98 f8 bb f2 a6 9e b9
       -0.009104479 0.0023032648 -0.0075865365 -0.00030260492
000390 1c 94 10 bd 41 68 a0 bc 7a 28 04 bc 07 23 45 3c
       -0.035297498 -0.019580962 -0.008066291 0.012032277
0003a0 01 c8 cc ba 7e 39 3b 3c 16 c5 e1 3c 30 f0 af 3c
       -0.0015623571 0.011427281 0.027559798 0.021476835
0003b0 f0 c0 3a b7 b0 9f 84 bc 10 2e 02 3d 53 3b ec bb
       -1.1131386e-05 -0.016189426 0.03178221 -0.0072092204
0003c0 93 24 ea ba 7a 5c 59 3c 88 cf 5c 3d d0 5c d4 bb
       -0.0017863683 0.013266677 0.053908855 -0.0064807907
0003d0 8f 82 ff 3b 37 ae c1 bb 05 e2 c4 3b b7 ac 10 bc
       0.007797546 -0.0059106606 0.006008389 -0.008830241
0003e0 39 95 34 3d 6c c7 41 bb e9 3b d0 3c 45 18 1a bc
       0.044087622 -0.0029568328 0.025419192 -0.0094052
0003f0 7c 2b 55 bc a4 27 76 ba cc 30 8f bc 20 73 be bc
       -0.013010856 -0.0009390062 -0.017479323 -0.023248255

layers.1.running_mean f4 [256]
000000 aa db 54 be 56 97 61 3e e5 f3 bd 3d 97 32 5f be
       -0.2078692 0.22030386 0.09275035 -0.21796642
000010 9f 29 b0 bb 6f 67 21 bd cb 14 1f bd 66 22 a5 bd
       -0.0053760554 -0.039405283 -0.03883819 -0.080632016
000020 82 fd 2b bb 95 32 b9 bd 97 b9 16 be ff 53 dd bd
       -0.0026243632 -0.09042851 -0.14719234 -0.108070366
000030 13 d6 a4 be 0f 36 c4 bd 10 66 60 3d f8 f0 f2 3d
       -0.32194576 -0.09580623 0.054784834 0.118623674
000040 b8 99 72 be 9b a6 04 be e1 88 e6 be 7a ae 0a 3c
       -0.23691452 -0.1295418 -0.45026305 0.00846445
000050 10 94 d4 bd 48 d0 8a 3e 2e c0 a7 bd 3b 24 1c be
       -0.10379803 0.2711203 -0.08190952 -0.15248196
000060 77 a4 88 be 1c a3 02 be 92 36 cd 3e 37 df 0a be
       -0.26687977 -0.12757534 0.40080696 -0.13561712
000070 35 5a 7d 3d 87 a2 40 bd 42 7b 8f 3e bd 54 fe bd
       0.061853606 -0.04703 0.28023726 -0.12418506
000080 06 75 d7 3b bb 0a 80 3e 22 b3 9c 3e aa 7e 83 3d
       0.0065752296 0.25008187 0.30605417 0.06420644
000090 18 c4 be 3d b9 ac c2 be 6b 47 19 3c c9 08 37 3d
       0.09314746 -0.38022402 0.009355406 0.044686113
0000a0 d0 0f d8 3c b0 d6 57 3e 87 de 68 bd c4 92 54 be
       0.026374727 0.2107799 -0.056852844 -0.20759112
0000b0 b4 e6 4c 3d 54 cb 40 3d 13 65 26 3e cc 42 ae bc
       0.050024703 0.04706891 0.16249494 -0.021272086
0000c0 92 4e 2e 3e a3 36 25 be 4d 3b 0c be 79 c5 20 3e
       0.1702216 -0.16134124 -0.13694496 0.1570033
0000d0 f1 bb 77 3e b3 2d cc 3e 12 99 95 be c6 14 5d be
       0.24192788 0.39878616 -0.29218346 -0.21589956
0000e0 85 23 ef bd 2b e2 d3 be d1 1b c2 be 52 e5 b6 bb
       -0.11676697 -0.4138349 -0.37911847 -0.0055815363
0000f0 a1 48 84 bd e0 ea 4b be d2 07 9e be dc db b4 be
       -0.06459165 -0.19913816 -0.3086534 -0.3532399
000100 fd cc 87 3e 74 bf 7a 3e 48 7d 65 3e ba eb 03 bd
       0.2652358 0.24487096 0.22411072 -0.03220723
000110 df 8a 73 be 5d f2 a4 3d 64 af 97 3e c1 84 b4 3e
       -0.23783444 0.080540396 0.29626 0.35257533
000120 b4 50 b3 3e d7 3f 7f bd 9d 2c 71 3e 7d fe 35 be
       0.3502251 -0.06231674 0.23552175 -0.17772861
000130 86 89 66 3e ad a9 be be 8f fc de be b5 e2 8b be
       0.22513399 -0.37238827 -0.43552062 -0.273214
000140 84 2a 46 3e db 13 37 be dc 40 f5 bc 3d f0 aa 3d
       0.19352156 -0.17878668 -0.029938154 0.08346603
000150 dc ed 79 bd d6 21 f5 3d 2d dc ed 3b 85 f2 4a 3e
       -0.061017856 0.11969344 0.007258913 0.19819076
000160 44 21 80 be 10 04 23 3d a0 7a c8 3e d1 ef 71 be
       -0.2502538 0.039798796 0.39156055 -0.23626639
000170 b4 7b c7 3e 30 45 1f bd a8 be b8 3d 9c e1 4c 3e
       0.38961565 -0.03888434 0.0902074 0.20007938
000180 45 e7 3e be e4 d9 a2 3c 2a 87 f0 bc 69 64 25 3e
       -0.1864291 0.019879289 -0.029361326 0.16151585
000190 ee 8a b9 3e e3 bf a1 3d 46 d8 54 3d 41 ff 2e bd
       0.36238807 0.078979276 0.051964067 -0.042723898
0001a0 95 4a 36 be dc d2 0b 3e 77 21 64 3d fa c6 1b be
       -0.17801888 0.13654655 0.055695977 -0.15212622
0001b0 f5 13 3e 3e e8 12 61 be 36 1e f9 3d de 28 20 be
       0.185623 -0.21979868 0.121639654 -0.1564059
0001c0 11 3d 12 3e dc 70 90 3e 39 7b 25 be 99 70 e4 3d
       0.14281107 0.28211105 -0.16160287 0.11154289
0001d0 33 0b 6e be a6 29 d9 bd 13 d8 45 be 25 14 27 be
       -0.2324646 -0.10603647 -0.19320707 -0.16316278
0001e0 41 3b 6e be 05 d6 84 be d5 1d 15 3e 82 04 f2 3d
       -0.23264791 -0.25944534 0.14562161 0.11817266
0001f0 04 d2 c9 3e 5f c4 3f 3e 79 37 5e bd d0 cb 99 be
       0.39418042 0.18727253 -0.05425212 -0.3003831
000200 d8 8e 62 3e 84 f8 57 3e d0 e5 d0 3d 85 32 db bd
       0.22124803 0.21090895 0.10200083 -0.10702995
000210 99 93 19 be 6e d8 80 be c1 67 53 bd 57 f6 74 be
       -0.1499771 -0.25165123 -0.05161262 -0.23922096
000220 c1 b5 74 be 11 63 2b 3e c0 b3 15 be 3c 6c 3e 3e
       -0.23897459 0.1673701 -0.1461935 0.18595976
000230 f9 ad 08 bc 8f c5 e7 bd 63 b7 56 3e b9 10 02 3d
       -0.00834226 -0.11316978 0.20968394 0.03175423
000240 37 ab 0f be b6 43 ab be 27 99 9f bd 30 8b 05 3e
       -0.14030157 -0.33450097 -0.07792883 0.13041377
000250 87 11 8c bc f2 dd b7 bd c9 53 f3 3c d5 19 33 bd
       -0.017098201 -0.089778796 0.029703038 -0.043725807
000260 fb 27 85 3e 5a da 9d be 89 29 ee 3d 0c 25 35 be
       0.26007065 -0.30830652 0.11629016 -0.17689914
000270 ac 85 34 3e 75 fd 94 be 4a 58 8d be ba 5f 9d bd
       0.17629117 -0.29099622 -0.27606422 -0.07684274
000280 3a 50 a5 3c 1a d9 81 3e 4c 4a fc bd e0 4d 71 3d
       0.020179857 0.25360948 -0.123188585 0.058912158
000290 7f be 61 be 81 5a f0 bd e5 76 92 3e 3c c6 c9 bd
       -0.22045325 -0.11736012 0.28606334 -0.09852263
0002a0 d2 43 a0 bd 8f 00 29 be ac 3b f8 bd f6 09 90 be
       -0.07825436 -0.1650412 -0.121207565 -0.281326
0002b0 e4 bf c8 3d b3 54 49 be f7 42 93 3d e9 1a 29 3d
       0.09802225 -0.19661216 0.07190507 0.04128543
0002c0 2f 0d ac bb 7e b5 1c 3c ee 07 3f 3e 1e 40 ba 3c
       -0.005250595 0.0095647555 0.18655369 0.022735652
0002d0 c3 63 a9 3e db de 80 3e bd 50 00 3c c4 72 6b 3e
       0.33083925 0.25170025 0.0078317495 0.22992998
0002e0 4a e1 95 3d 3d 7d 95 3d be 52 d7 be 21 57 eb 3d
       0.07318361 0.07299278 -0.42055315 0.11491228
0002f0 a8 b7 25 be 6e 99 98 3e 22 bd 75 bc 13 b5 7a 3e
       -0.1618334 0.29804558 -0.014998706 0.24483137
000300 02 10 84 be 7e db a9 be 2e cf 9e be 72 22 8c be
       -0.25793463 -0.33175272 -0.3101744 -0.2737003
000310 e9 33 42 be 93 ed 82 bd a1 11 4e 3e 5b 96 f9 3c
       -0.18965115 -0.0639297 0.20123912 0.030467203
000320 f2 9c b4 be 9d ea f8 bd 37 1c 95 3d 0c 21 e6 3d
       -0.3527599 -0.12154124 0.07280772 0.11236772
000330 5d 38 9c 3c 4a 24 ab 3d 58 7d 00 3e c4 0e 59 be
       0.019069845 0.08356531 0.12547815 -0.21197039
000340 de 98 8e bd fb c4 d6 be 2f 26 11 be 6d 0d 4c 3e
       -0.06962751 -0.4194716 -0.14174722 0.19926997
000350 71 38 a7 3e 80 dc 72 3e f8 7d a3 be e3 c0 34 be
       0.3266025 0.23716927 -0.31932044 -0.17651705
000360 74 ed 76 be 1e dc b3 be 0e 09 a9 3d ca d9 ad be
       -0.24114019 -0.35128874 0.0825368 -0.33955222
000370 9b 98 c2 3e 6e e0 b5 3e 42 75 9f bd 82 5c 09 3e
       0.38007054 0.3552279 -0.07786037 0.13414195
000380 78 98 78 be 57 25 83 bc 4f d4 70 be b5 c0 85 be
       -0.24276912 -0.016009016 -0.2351849 -0.26123586
000390 97 68 d5 3d 43 cd 23 3d 75 d2 36 3e f0 22 92 3e
       0.104203396 0.039990675 0.1785372 0.2854228
0003a0 94 a5 d8 be 7b fe de 3b 1b 68 54 3c 9e d6 b7 3c
       -0.42313826 0.006805239 0.012964274 0.022441205
0003b0 6a 91 50 be 10 12 ea 3d 07 b9 7e 3e 75 0f 49 3c
       -0.20367971 0.114292264 0.2487527 0.012271752
0003c0 08 f3 b7 be 7b cd 75 be e4 23 7d 3e a7 95 8b 3b
       -0.35927606 -0.24004166 0.24720722 0.0042597833
0003d0 dd 89 cf bd 2d 06 16 3e 10 e7 85 be c0 d5 03 3e
       -0.10133717 0.14650793 -0.2615285 0.12874508
0003e0 96 52 c8 bd 14 19 77 bd b3 75 ac 3e 24 9b 22 bd
       -0.09781377 -0.06032665 0.33683547 -0.039698735
0003f0 a0 1f 34 be 3b f0 58 be e5 48 53 be 1a c7 95 3e
       -0.17590189 -0.2118539 -0.20633276 0.29253465

layers.1.running_var f4 [256]
000000 88 9a fa 3d 50 7c 8d 3e 30 a4 b3 3e e3 59 68 3e
       0.12236506 0.27633905 0.35086203 0.22690539
000010 8b cf 56 3e ab cb 7f 3e 54 16 6e 3e 33 bc f7 3e
       0.20977609 0.24980037 0.23250705 0.48385772
000020 d9 d2 8d 3e dd 11 cd 3d 3a bd 71 3e 99 db 30 3f
       0.27699926 0.10013173 0.2360734 0.6908508
000030 a4 3e ff 3d 27 87 5f 3e 52 65 0b 3e 51 4d 66 3e
       0.124631196 0.218289 0.1361287 0.22490431
000040 da be 3d 3e 7b b7 4f 3e 00 7f a9 3e d5 54 96 3e
       0.18529835 0.20284836 0.33104706 0.29361597
000050 a9 b6 18 3e f5 a3 42 3e 9b 35 40 3e eb b9 d5 3e
       0.1491343 0.19007857 0.18770449 0.41743407
000060 38 e9 9e 3e f9 6b 3f 3e fe 9f 6e 3e 8d f7 5c 3e
       0.31037307 0.18693532 0.2330322 0.21578808
000070 3d 3d 95 3e 14 3d e1 3e d4 b9 13 3e 51 8d cb 3d
       0.29148284 0.4399191 0.14426357 0.09939063
000080 9a 59 2f 3f ef 7a ba 3e 9e 5b 05 3f ba bc 9e 3e
       0.68496096 0.36421916 0.5209292 0.31003362
000090 bd 9e 70 3e a4 9e 02 3e b7 ef 45 3e 24 e3 c5 3e
       0.23498054 0.12755829 0.19329725 0.38649857
0000a0 4c 52 c6 3e fc 08 fa 3d 51 f1 1b 3e ab c1 a3 3e
       0.38734663 0.12208745 0.15228774 0.31983694
0000b0 df 17 ad 3e 24 7d a0 3e 98 0a bc 3e 48 fa e5 3e
       0.33807275 0.31345475 0.36726832 0.44917512
0000c0 44 23 9e 3e e9 37 df 3e 20 ab 88 3e 81 8f 61 3e
       0.3088628 0.43597344 0.26693058 0.22027399
0000d0 7b 83 b4 3e 4e e5 f0 3e b9 30 b9 3e 64 39 b4 3e
       0.35256562 0.47049946 0.36169985 0.35200036
0000e0 10 5c 82 3e 79 10 19 3f f6 ee bb 3d 00 2b 15 3e
       0.25460863 0.5979076 0.091764376 0.14567184
0000f0 eb 6f 8a 3e dd 07 13 3e dd 39 c7 3e d6 30 8c 3e
       0.27038512 0.14358468 0.38911334 0.2738101
000100 d6 c1 ec 3e 2d 30 3f 3e 67 bc 51 3e f8 3a a6 3e
       0.46241635 0.18670721 0.20482026 0.32466865
000110 e5 92 78 3e 37 99 aa 3e 3d c8 a5 3d 2e ca 18 3e
       0.24274786 0.3332002 0.08094833 0.14920875
000120 e9 2f 71 3e b0 7f 42 3e f7 dc 84 3e c8 a8 a7 3e
       0.23553433 0.18994021 0.25949833 0.32745957
000130 82 8e b5 3e 67 20 ff 3d c6 21 05 3f 92 20 b0 3e
       0.35460287 0.12457352 0.5200466 0.3439985
000140 76 4b 89 3e ae 4e 18 3e 0c 69 2d 3e 09 33 d2 3e
       0.26815385 0.14873764 0.16934603 0.41054562
000150 9b 6c 79 3e 7f 06 c1 3e 22 ac 67 3e 79 99 f6 3e
       0.24357836 0.3770027 0.22624257 0.48163965
000160 d2 28 47 3e 12 1a 81 3e 44 e2 2f 3e ea 43 8d 3e
       0.19449165 0.25215203 0.17176157 0.27590877
000170 df 62 fe 3e f1 46 83 3e 64 6f b0 3e 45 6f dd 3d
       0.49684808 0.25640061 0.34459984 0.108122386
000180 61 37 8d 3e 90 b7 23 3e 3f 6a 3f 3e c5 9f 95 3e
       0.27581313 0.15987992 0.18692873 0.29223457
000190 fc 2f 8f 3e 98 46 e8 3e 07 9e 9d 3e 7c e5 b4 3e
       0.27966297 0.4536636 0.30784628 0.35331333
0001a0 87 3d 90 3e 48 d6 35 3f 69 5d d0 3e 55 02 4f 3e
       0.28171942 0.7103009 0.40696266 0.20215733
0001b0 42 e9 be 3e 57 ff 7c 3e c2 ec ed 3d 65 c2 67 3e
       0.37287337 0.2470678 0.116174236 0.2263275
0001c0 a6 27 af 3e 1e 92 a9 3e a9 60 9b 3e 6f 5c 49 3e
       0.34209937 0.3311929 0.30347183 0.19664167
0001d0 90 a2 86 3e a0 d2 30 3e e6 0e 42 3e b8 b0 0b 3e
       0.262959 0.17267847 0.18950996 0.13641632
0001e0 2a 46 98 3e 54 bd 97 3e 47 3a 8a 3e 5d 8d b7 3e
       0.2974103 0.29636633 0.26997587 0.3585004
0001f0 d9 bf 89 3e 20 9d 90 3e 38 af 1a 3f 98 a5 c1 3e
       0.2690418 0.28244877 0.6042361 0.3782165
000200 ee 19 a9 3e cf 8b 83 3e 80 7f 5f 3e 8e ac 9c 3e
       0.33027595 0.25692603 0.21825981 0.306004
000210 3c d9 72 3e 63 0d 4b 3e 82 3a e7 3d 5f eb 08 3e
       0.23715681 0.19829325 0.11290456 0.13371037
000220 ec 98 90 3e 00 da 75 3e 2c ba 92 3e 36 f7 2a 3e
       0.2824167 0.24008942 0.28657663 0.16695866
000230 96 74 75 3e 97 37 c5 3e 1d f8 03 3f 50 54 b4 3e
       0.23970255 0.38518974 0.51550466 0.35220575
000240 b5 01 08 3f de 78 a3 3e b0 a5 cd 3e 52 88 0f 3f
       0.53127605 0.31928152 0.40165472 0.56067383
000250 aa 1d 7e 3e 7e c5 26 3e 73 4d cf 3e 2b 16 64 3e
       0.24816003 0.16286275 0.40488777 0.22274081
000260 40 d9 96 3e 6c b3 87 3e 1d 13 bc 3d 39 03 5f 3e
       0.29462624 0.26504076 0.09183333 0.21778573
000270 0e ea cb 3e d6 f3 86 3e 2c cf cc 3e 7e 07 eb 3e
       0.39827007 0.26357907 0.4000181 0.45904154
000280 9e a3 e6 3d 64 f2 45 3e dd 64 f1 3e 10 9c 38 3e
       0.11261676 0.19330746 0.47147265 0.18028283
000290 b3 f8 43 3e 1e 91 d3 3e 8a d3 0c 3e fd 8b 30 3f
       0.1913784 0.41321653 0.13752571 0.68963605
0002a0 b5 3c 19 3e 28 39 4a 3e 75 6f 6a 3e c5 ce 85 3e
       0.14964564 0.19748366 0.2289408 0.26134315
0002b0 f2 5f a3 3e b6 30 9a 3e 77 8c 8d 3e 90 7d 25 3e
       0.31909138 0.30115288 0.2764623 0.1616118
0002c0 78 1e 08 3f 43 e3 9f 3e 66 62 b1 3e f4 73 86 3e
       0.5317149 0.31228074 0.34645385 0.2626034
0002d0 20 16 13 3e 70 9e 9d 3e 71 26 bc 3e da a1 bd 3e
       0.14363909 0.3078494 0.36748078 0.37037545
0002e0 71 f6 66 3e ae 31 fa 3e 24 f1 f4 3e 49 38 69 3e
       0.22554947 0.48866028 0.47840226 0.22775377
0002f0 04 a5 42 3e 81 92 cb 3e 54 c5 78 3e c5 94 da 3e
       0.19008261 0.3976021 0.24294025 0.42691627
000300 19 0c b7 3d 92 76 14 3f e5 3b 82 3e a4 8e e3 3e
       0.08937854 0.57993424 0.2543632 0.44444764
000310 3c c6 74 3e ad 72 26 3e dd 5f 43 3e 8e c3 aa 3e
       0.23903745 0.16254683 0.19079538 0.3335232
000320 c9 5a 92 3e a7 74 31 3f e7 f7 57 3e b7 b5 85 3e
       0.2858489 0.6931862 0.21090661 0.261152
000330 10 2a 96 3e c7 2a 05 3e b2 e2 90 3e aa 80 be 3e
       0.29328966 0.130046 0.28297955 0.37207538
000340 ac dc 75 3e 98 02 ca 3e 62 b6 9e 3e 21 f8 2b 3e
       0.24009961 0.39455104 0.30998522 0.16793872
000350 12 a7 c4 3e 8e 2b df 3e 5d 0f b8 3e 3f 90 cd 3e
       0.38408715 0.43587917 0.3594922 0.40149114
000360 cd 83 d6 3e 98 86 5a 3e f5 38 7d 3e 1f 7b b5 3e
       0.4189743 0.21340406 0.24728759 0.35445496
000370 7e 82 69 3e 05 b2 0b 3e 04 c3 2f 3e e3 56 2f 3e
       0.22803685 0.13642128 0.17164236 0.17122988
000380 0e cf 93 3e 49 69 83 3e ec 55 8e 3e a2 73 bd 3d
       0.28868908 0.25666264 0.27799928 0.09250571
000390 29 ff 00 3e 91 ce 9c 3e 7c a7 cf 3d 35 ff 16 3e
       0.12597336 0.30626348 0.10139367 0.14745791
0003a0 91 ef 74 3e 34 d2 66 3e aa 0d 6f 3e 69 16 bb 3e
       0.23919512 0.22541124 0.23345056 0.36540535
0003b0 68 71 78 3e 06 a7 bf 3d 6c d8 ab 3e 09 18 99 3e
       0.24262011 0.09358029 0.33563554 0.2990115
0003c0 3d fe e8 3e 0a c7 df 3e 71 d3 93 3e 53 58 a6 3e
       0.45506468 0.43706542 0.28872254 0.3248926
0003d0 cd 25 bb 3e b2 10 dc 3e 33 d2 9b 3e 5e 69 c3 3e
       0.36552277 0.42981488 0.30433807 0.38166326
0003e0 09 fa 5d 3e 8b b2 b0 3e e4 bf 9f 3e 3f 30 23 3f
       0.21677412 0.34511217 0.31201088 0.6374549
0003f0 3e 4f 47 3e 5b e1 f1 3d 90 b0 b9 3e fa d7 cc 3d
       0.19463822 0.11810561 0.3626752 0.10002132

layers.4.weight f4 [256, 256]
000000 6b 0d 31 3d 1a e6 d8 3c 10 6d 0e bd 8f 58 19 3c
       0.043225687 0.026476908 -0.03477198 0.009359493
000010 76 6d 61 bd 97 8a 64 bc c5 31 60 3c 21 4b 06 3d
       -0.05503603 -0.013949058 0.013683741 0.032786492
000020 99 3a 4b bd 6a 9d 51 3d 9f ec 8b bc 3d fa 5f bd
       -0.04961643 0.051175512 -0.017080603 -0.054682005
000030 e0 e5 67 3d 0f 7c 0f 3d 51 21 1d bd 0f 45 4e bd
       0.05661571 0.03503042 -0.03836185 -0.05035883
000040 34 3f 3c 3d 5b c2 0f 3b ad 0f f8 bc 1a c0 4c 3d
       0.045958713 0.0021935913 -0.030280912 0.04998789
000050 dc 24 08 bd 65 84 34 3d 8e 9f ee bb be 7a 20 bd
       -0.033238277 0.044071574 -0.007282204 -0.039179556
000060 a1 82 88 bc 29 d4 75 bd b7 7b 32 3d 49 25 96 3c
       -0.016663851 -0.060016785 0.043575015 0.018328326
000070 0a a4 22 bd db 38 2e bd a6 e6 91 3b 39 bf 9a 3b
       -0.03970722 -0.04253469 0.0044525443 0.0047225025
000080 88 7c 01 bc 93 69 26 3d 80 c5 a5 3b 04 9c 90 3c
       -0.007903226 0.040628027 0.005058944 0.017652519
000090 66 e4 b4 3c 1f 30 8b 3c d9 bf bd 38 cc e0 61 3d
       0.022081565 0.01699072 9.047957e-05 0.055146024
0000a0 6a 2b b8 3b 20 e5 49 bc e9 12 ac 3a be 9e 8c 3d
       0.0056204097 -0.012322694 0.0013128194 0.06866215
0000b0 e4 85 cf bc cb 0b 48 bc 2c d8 44 3d fc ff da bc
       -0.025332399 -0.012209843 0.04805772 -0.026733391
0000c0 2c 0f 61 bd 99 58 04 bd ad ac ed 3b 4e 3a 04 3d
       -0.05494611 -0.032311056 0.0072532506 0.032282166
0000d0 05 e2 27 bd ba d6 f8 3c 0a 88 2b 3d 48 59 9d bb
       -0.040987033 0.030375827 0.041877784 -0.004801903
0000e0 54 da b3 bc 03 e6 85 bd 97 7b 45 3c 5a f0 7e ba
       -0.021954693 -0.06538012 0.012053392 -0.0009725146
0000f0 f9 fa 79 3c 30 d5 7c bd 84 e3 dd bc 1a 39 49 3c
       0.01525759 -0.06172675 -0.027086027 0.0122816805
000100 50 5e ec 3c 52 c2 6c bd bd 7e 14 bd 16 30 a6 3c
       0.028853565 -0.057802506 -0.03625368 0.020286601
000110 04 97 2a 3d 48 c2 96 bc 74 43 22 bd c9 92 79 bd
       0.041647926 -0.018403187 -0.03961511 -0.060931
000120 c0 5b 63 bd 52 6b 16 39 25 bc 40 3d 14 3c 11 3c
       -0.05550742 0.00014345095 0.04705443 0.008864421
000130 a2 b7 30 3c c9 97 37 3c fa c5 a8 bc c9 05 04 3d
       0.010785969 0.011205622 -0.020602215 0.03223208
000140 4b 8d 24 3d 8b 4c 03 3c e6 25 18 bd 72 cf 4e 3c
       0.04017381 0.008013855 -0.037145518 0.012622701
000150 f3 c3 62 3d 92 a0 7b 39 cb 72 68 3d ea e9 e4 bc
       0.055362653 0.00023997042 0.0567501 -0.02794357
000160 3e 00 ee bc d5 c6 68 3d 02 f8 be 3c d3 2f 2a bd
       -0.02905285 0.056830246 0.023311619 -0.041549515
000170 67 cd 95 bd 31 cd 4d bd 4d 45 db bb fe e0 b6 bc
       -0.07314568 -0.050244514 -0.006691611 -0.022324082
000180 3a 0b cb 39 d9 cd 5c bd db dc 4e bd c2 5a 32 3c
       0.00038727542 -0.05390725 -0.050503593 0.010885896
000190 c2 7d 20 3d 84 09 55 3d 4e c4 20 3d bf 86 f5 bc
       0.039182432 0.052011028 0.03924971 -0.029971479
0001a0 28 c8 31 bd 5d f8 80 bd 10 37 79 bc f2 dc 1f bd
       -0.043403774 -0.062973715 -0.015210882 -0.03902907
0001b0 82 a1 07 3d df ad 27 bb 72 46 c7 3c 22 5a 4a bd
       0.03311301 -0.0025585813 0.024325583 -0.049402364
0001c0 f3 f0 55 3c d1 14 4f bd 42 15 a5 3c 44 fb 5c 3d
       0.013057935 -0.05055696 0.020151738 0.053950563
0001d0 95 42 84 bb c1 e7 63 bc b7 8c 8b 3d 93 65 d1 3c
       -0.0040362575 -0.013910235 0.068139486 0.02556113
0001e0 11 da 6d 3d 3b 09 85 3d 17 42 97 3c 00 f3 29 3d
       0.058069292 0.06495901 0.018464131 0.04149151
0001f0 04 2b 41 bd fd 31 f3 3c 40 a7 c9 bc 9d 9a 54 bd
       -0.047160164 0.029686922 -0.024615884 -0.051905263
000200 f7 0e 41 3c 65 50 85 bd 7d e8 1c bd 95 ab ec 3c
       0.011783353 -0.06509475 -0.038307656 0.02889041
000210 53 ac 1d 3c 95 fc 1a 3d 9d e0 49 bc 11 56 3f bd
       0.009623605 0.037838537 -0.012321618 -0.04671294
000220 21 62 73 bd 1f 5e 16 3c d2 18 9e bb ca 04 78 bd
       -0.059419755 0.009177714 -0.004824736 -0.060551442
000230 7b 56 2e bd 97 16 f5 3c 7d a2 29 3d 8d e2 60 3d
       -0.042562943 0.029917998 0.041414727 0.054903556
000240 7d 6a 6e bd d6 97 f2 bc 73 76 48 bd 36 d1 1c 3d
       -0.058207024 -0.029613417 -0.048941087 0.038285457
000250 a8 ec aa 3c a3 9d 22 bb d1 0c 7c bb 9a 03 44 bd
       0.0208648 -0.0024813197 -0.0038459788 -0.047854997
000260 0f 12 f5 3b 83 f7 51 3a 20 df 29 bd 2e 3e c2 39
       0.0074789594 0.00080095994 -0.041472554 0.0003704889
000270 01 b9 09 bd 64 4e 80 3d 4f 76 3f bd 61 82 43 bd
       -0.0336237 0.06264952 -0.046743687 -0.04773176
000280 a3 7b a0 3c d6 8d 0f 3d ee 42 52 3d a5 4b 67 3d
       0.019590205 0.035047375 0.05133336 0.056468625
000290 2c 15 9d 3b 83 c0 9f bc 4a c0 b5 3c 0e f5 7b bd
       0.0047937836 -0.019500976 0.022186417 -0.061513
0002a0 ae 7a 1d bd 5e e8 e1 bc 5e a7 f1 3c 46 2e 75 3d
       -0.038447075 -0.027576622 0.029498752 0.059858583
0002b0 4a 3a 5f 3d 05 95 58 3d ae eb 4b bd 1f e7 60 bd
       0.05449895 0.05287649 -0.04978531 -0.054907914
0002c0 1d 33 a7 bc 0b de 2e bb 77 8e 25 3b db 14 0a bd
       -0.020410115 -0.002668264 0.0025261918 -0.033711296
0002d0 9c 51 36 bc ae db c5 b9 a8 ae 09 3d ed c8 09 3c
       -0.011127856 -0.00037738442 0.03361383 0.008409721
0002e0 8c 3b 39 3d d0 d1 6e bd 48 0c 0c 3c 81 57 92 3c
       0.045222804 -0.05830556 0.00854785 0.01786399
0002f0 a2 8d a5 3b b3 c3 71 bd 53 24 02 bc 15 f8 bf bb
       0.0050522843 -0.059024524 -0.007943231 -0.005858431
000300 88 68 2c bd 5e 99 6a 3d c7 20 14 bd b7 5f 01 3d
       -0.042091876 0.05727517 -0.03616407 0.03158542
000310 38 90 b1 bc c0 6d a1 bc ad 1f 0c 3c d5 ef 83 bb
       -0.021675214 -0.019705653 0.008552474 -0.004026393
000320 6c 21 a7 bc 6d b3 53 bd ce 01 6d 3d 8d 2d 89 bc
       -0.020401679 -0.051684786 0.05786305 -0.016745353
000330 8c 25 8a 3d 63 fa 49 bd 31 1a b5 bc 61 7f 53 bd
       0.06745443 -0.049311053 -0.022107216 -0.05163515
000340 99 e9 92 bc 9f 95 47 3d 33 8c 09 3d 1a 4d f3 bc
       -0.017933654 0.048726674 0.03358097 -0.02969985
000350 b4 b9 8c 3c 64 a7 ef 3c 3f 49 29 bb 28 61 2e 3c
       0.017178394 0.029254623 -0.0025831012 0.010643281
000360 f7 21 98 3c 8c 95 c0 bb e1 cc ec bc 6c 33 b1 bb
       0.018570883 -0.0058772024 -0.028906288 -0.0054077413
000370 08 5d 7f bd 04 26 26 bd 13 7d 8a bc 11 7a 81 b9
       -0.06234458 -0.0405636 -0.016905343 -0.00024695744
000380 bb f9 d2 bc 2d cd 5b 3d 57 76 c6 bc 0e 86 30 3d
       -0.025753846 0.053662468 -0.02422635 0.043096595
000390 5c f9 1c bd 21 09 6c 3b 45 5e 37 bd 6a cd 75 3d
       -0.038323745 0.0036016183 -0.044767637 0.06001035
0003a0 d2 43 e5 bb da d2 65 bd 65 d2 db bc 91 f6 a4 3c
       -0.00699661 -0.056109287 -0.026833722 0.020137103
0003b0 0b ca a0 3c 4d 59 9e 3c 59 d9 1a 3d ed 67 0e bc
       0.019627592 0.019329691 0.037804935 -0.00869177
0003c0 1a 40 87 3d a8 29 a6 3d 80 fc 5c bd dd f3 7e 3d
       0.06604023 0.08113414 -0.05395174 0.062244285
0003d0 6f f9 bc 3c c8 a8 fb bc 84 6b 24 3c bf 99 22 bd
       0.023068158 -0.03072013 0.010035399 -0.039697405
0003e0 f8 c4 5d 3c a8 82 2f bd 86 a8 1c bc 9e 75 05 3d
       0.013535731 -0.042849213 -0.0095616635 0.03258287
0003f0 d5 71 2a 3d fc a7 16 3d d8 10 66 3d 7c 88 b6 3c
       0.041612465 0.036781296 0.056168407 0.022281878
