models/best_fold4_hd128_do0.3.pth (torch, 118438 bytes, 20 tensors)

layers.0.weight f4 [128, 10]
000000 06 56 43 be 2a 1e 4c 3e 33 07 ff 3c e6 ca 17 be
       -0.19075784 0.19933382 0.031131363 -0.14823493
000010 0e ae 0b 3d 54 d6 e2 3c ca 43 71 3e bf 6f 7b 3e
       0.03410154 0.02769009 0.23561016 0.24554347
000020 09 c0 a0 3b e3 af 70 bd a5 7a 9b 3e e0 d5 8c 3e
       0.004905705 -0.05876149 0.30367008 0.27506924
000030 c5 1f 14 bd b7 16 85 3e 2e 01 21 3e d3 ae e4 bd
       -0.03616311 0.25993893 0.15723106 -0.111661576
000040 54 68 39 bd ba f3 3e 3e e5 84 8b be e3 cc 1b be
       -0.04526551 0.18647662 -0.27249828 -0.15214877
000050 a1 e4 17 bb bd 90 76 3e d6 02 2b 3e 9e b0 c7 3d
       -0.0023177045 0.24078651 0.167003 0.09750484
000060 22 cc cb 3c 6c 97 76 3d 56 e4 53 3d 19 f2 76 be
       0.024877612 0.060203 0.05173143 -0.2411579
000070 3a 4b 96 bc 3a ef 41 be 56 b6 88 3e df 40 27 be
       -0.018346418 -0.18938914 0.2670161 -0.1633334
000080 7c ca 55 3e 12 4d 20 3d 70 ec 25 3e 13 5f 53 bb
       0.20878023 0.039136 0.16203475 -0.0032252714
000090 79 77 95 3e 92 02 8b 3e 02 a4 8c be a9 ae 67 bd
       0.29192713 0.27150398 -0.27468878 -0.056563053
0000a0 4c ea 17 3e e1 60 93 3d db e6 ba 3b 7b ea 6b be
       0.14835471 0.071962126 0.0057037896 -0.23038666
0000b0 b6 3d 79 3e fa 6c 93 3e cb 90 4f be 05 39 9c 3e
       0.24339947 0.2879408 -0.20270078 0.30512252
0000c0 34 ec 93 bd 3d a7 a1 bd 13 06 6c 3e 68 80 39 be
       -0.072227865 -0.07893226 0.23049192 -0.1811539
0000d0 94 39 70 be f4 95 79 be d1 8d 65 3e e8 2f 93 3d
       -0.23459464 -0.24373609 0.2241738 0.07186872
0000e0 1a 20 9c 3e eb 68 78 3c 11 be 39 3e e8 a8 1c 3e
       0.30493242 0.015161733 0.18138911 0.15298808
0000f0 c7 29 68 be 9f 11 97 be dc f7 2d 3e f9 9c 66 3e
       -0.22672187 -0.2950563 0.16989082 0.22520818
000100 a3 db c3 3d e6 9a 99 be 11 61 14 be 13 83 84 be
       0.09563377 -0.3000099 -0.14490153 -0.25881252
000110 6e 64 86 bd 98 87 64 3d 3b 95 c0 3d 7f e3 31 be
       -0.06562124 0.055793375 0.094034635 -0.17371939
000120 08 84 e5 3c a5 06 c7 3d 03 04 2e be a4 c5 67 3d
       0.028017059 0.09718064 -0.16993718 0.05658497
000130 1d b4 94 bd 55 90 0e 3e 6e d1 81 3e 77 62 81 be
       -0.072609164 0.13922246 0.25355095 -0.25270435
000140 d6 35 40 3e b9 70 04 3e e2 72 61 be 55 a3 18 bd
       0.18770537 0.12933625 -0.2201648 -0.03726514
000150 d2 d5 91 3d 13 08 a9 bc 78 bf 64 be c8 d8 37 3c
       0.07120861 -0.020633733 -0.22338665 0.011221118
000160 7b 0d 01 3c cc 4f f6 3d 8e 5f 8a be ac 51 68 3c
       0.007876749 0.12026939 -0.27026027 0.014179628
000170 08 08 16 be 3f 77 89 be fd 42 96 bd d4 9c 8f be
       -0.14651501 -0.2684879 -0.07336996 -0.28049338
000180 80 58 8b 3e a5 09 de 3c 8b ae 5b 3e 32 83 1b 3e
       0.27215958 0.027104208 0.21453302 0.15186766
000190 fd a0 ba be ac c2 b6 bd cc 2b b8 bd 8c f3 3b be
       -0.3645095 -0.089238495 -0.089927286 -0.18354625
0001a0 81 11 68 be 17 b7 92 bd 90 00 8d 3e b0 ad 2f 3e
       -0.22662927 -0.07163828 0.27539492 0.171561
0001b0 82 09 78 be 0b ba 11 3e e9 f6 4f 3e b7 15 94 3e
       -0.24222377 0.14231126 0.20309032 0.28922817
0001c0 63 15 9d be 61 32 24 be 69 6b 99 3e 17 2c b9 bd
       -0.3068038 -0.16034843 0.2996476 -0.090416126
0001d0 1e 08 aa 3d 9d 5d 80 be 20 e9 94 3e a7 ce c3 3d
       0.083023295 -0.2507142 0.2908411 0.095609
0001e0 45 7a 6d 3e 34 59 f9 bc f2 c4 99 3e 68 ec 2a be
       0.23191173 -0.030438043 0.3003307 -0.16691744
0001f0 46 cd 8a 3d dc 97 38 be d4 5b 83 3e 8b 81 99 bd
       0.06777434 -0.1802668 0.25655997 -0.074954115
000200 18 1b f9 3d 64 e6 0e 3e 0e 60 9d 3e c5 2a 2b be
       0.12163371 0.13955075 0.30737346 -0.16715534
000210 52 f1 8f 3e a8 7a 9a 3e 69 24 2a 3e 8d ea 41 3e
       0.281138 0.30171704 0.16615452 0.1893713
000220 31 b5 73 3d a5 e9 45 be 1b 09 79 3e 58 2e 0e be
       0.05949897 -0.1932741 0.2431988 -0.13884866
000230 6f 96 c5 3d ac f6 0a bc ce 10 d5 3d fe a0 ec 3d
       0.096478336 -0.008481663 0.10403596 0.11554144
000240 73 12 9e 3d 78 e8 b3 bd 80 21 65 bd e0 86 99 be
       0.07718363 -0.08784574 -0.05594015 -0.29985714
000250 69 80 34 be 2e d7 a2 be 02 6c 77 bc 81 f1 82 3e
       -0.1762711 -0.31804794 -0.015101435 0.25574878
000260 8e cf 36 3c 1d fd 92 be 46 9d a6 be 05 86 c7 bd
       0.011157883 -0.28708735 -0.32541865 -0.09742359
000270 7e 2a 3e bd a8 af 02 be 9f d7 5b be ee 4b 70 3d
       -0.046427242 -0.1276232 -0.21468972 0.058666162
000280 6e 07 32 3e 14 00 e6 bd 5c b4 2d be dd 79 86 be
       0.17385647 -0.11230484 -0.16963333 -0.2626485
000290 00 24 25 be 7c bc 51 3e 51 c2 80 be 1b 50 54 bd
       -0.16127014 0.20482057 -0.25148252 -0.051834207
0002a0 ed 9f 35 bd b4 93 02 bd db 1a d5 3c 51 a2 7d be
       -0.04434197 -0.031879142 0.026013782 -0.2476895
0002b0 c6 ad 71 bd e0 d6 22 3d d3 2c 2b 3d 7b c5 12 bd
       -0.059003614 0.039755702 0.041790795 -0.035832863
0002c0 50 48 5a 3d 9b 51 e2 3d af f2 55 be 31 e6 6b 3d
       0.05329162 0.11050721 -0.20893358 0.057592575
0002d0 8e e0 8a be 79 d5 8f be 6d 91 8d 3e c1 7b 0c bd
       -0.27124447 -0.28092554 0.27650014 -0.03429771
0002e0 53 1f f8 3d b6 1d df 3d 99 00 99 3d 18 59 dc 3d
       0.121153496 0.10894339 0.07470817 0.10759181
0002f0 fc d0 83 be bd 7d 8c be 0d 9f 74 be 94 59 1d be
       -0.2574538 -0.2743968 -0.23888798 -0.15366203
000300 91 43 7a 3e 87 e6 6e be f7 4a 7b be db 30 0b 3e
       0.24439837 -0.23330127 -0.24540316 0.13592856
000310 fe 65 71 3e 43 5b 05 3e 9f 63 5b be b2 33 9e 3e
       0.23574063 0.13023095 -0.21424721 0.30898815
000320 c0 3f 5e 3e a4 bc 1d be 87 71 3c 3b 29 7d 1b be
       0.21704006 -0.15403992 0.002875419 -0.15184464
000330 93 ea 6c be 40 97 20 be f7 ce 79 be cc cd e8 bd
       -0.23136358 -0.15682697 -0.24395357 -0.11367378
000340 3b 6c e4 3d 24 26 1d be c1 db a3 be 1c ec db 3c
       0.11153456 -0.1534658 -0.32003596 0.026845984
000350 4c b3 4a 3e fb 16 22 be 50 c7 90 bd 34 ba 50 be
       0.19794959 -0.15829079 -0.07069266 -0.20383531
000360 ab f5 82 3d 3c 96 2c 3e 20 d9 0c be 0e de 6d 3d
       0.06394514 0.16854185 -0.13754702 0.058073096
000370 b7 50 72 3e 88 ec d4 3d 9f 52 10 3e 99 b2 43 bd
       0.23663603 0.10396677 0.14094017 -0.047777746
000380 e1 d6 7e 3e bd 66 8d be c0 a9 89 be e7 54 22 3e
       0.24886657 -0.27617446 -0.2688732 0.158527
000390 49 36 8a 3e a6 55 24 be 27 eb e2 3c 88 aa ce 3c
       0.2699454 -0.16048297 0.02770002 0.0252278
0003a0 a1 9c 9e 3d db c3 46 3d e5 1f 1d 3e 95 19 3f 3e
       0.07744718 0.048526626 0.15344198 0.18662103
0003b0 53 27 c6 3c 67 db a9 bc f6 68 d3 3d 64 53 73 3e
       0.024188673 -0.020734502 0.10322754 0.2376228
0003c0 0a df 94 be 26 1c 2d be 51 ce d8 bd 81 47 5b be
       -0.29076415 -0.16905269 -0.10586227 -0.21413995
0003d0 76 d8 38 3e 76 a7 87 3e e7 a1 61 be 67 d2 85 be
       0.18051323 0.2649495 -0.22034417 -0.26137087
0003e0 c3 0d 3b 3e b9 1d 4a 3e bf d8 78 be 0e 96 7e bd
       0.18266968 0.19737901 -0.24301432 -0.062154822
0003f0 c0 cd 4a be 92 5b 87 3d d2 b1 60 be 9e d8 98 3e
       -0.1980505 0.066092625 -0.21942833 0.29852766

layers.0.bias f4 [128]
000000 f9 5d 0d be a8 39 82 be 8e 5e 89 3e 78 a2 96 be
       -0.13805379 -0.25434613 0.26829952 -0.2942083
000010 cb 8d 74 be 45 ef 7a 3e 11 fb e0 bd 32 87 fe bd
       -0.23882215 0.24505337 -0.10985387 -0.1242813
000020 5f ad 81 bd ae 32 08 3e 61 5d 8b 3e af 53 d6 3c
       -0.06331896 0.13300583 0.2721968 0.02616295
000030 a8 99 28 3e 48 89 3e bd c9 ba 93 3e 6e ab 5d 3e
       0.16464865 -0.04651764 0.28853443 0.21647426
000040 c3 0a 0f 3e 34 3b 69 be 71 04 7a 3e e4 e0 99 be
       0.13968949 -0.2277649 0.24415757 -0.3005439
000050 d3 e7 d7 bd d8 36 2d 3d 7c 46 47 3e e9 7b 8d be
       -0.10542264 0.04228863 0.19460481 -0.27633598
000060 fc 17 82 3e 92 ac 9c 3e 1b aa 92 3e eb 54 21 3e
       0.25408924 0.3060041 0.28645405 0.1575505
000070 c1 9e c3 bd 40 6a 43 3d ef 31 22 be d8 35 88 3e
       -0.09551764 0.04770875 -0.1583936 0.2660358
000080 d4 6d 13 3e 5b 63 02 3e 7b 58 2f 3e 4c e9 67 be
       0.14397365 0.12733214 0.17123596 -0.2264759
000090 a4 a6 01 3d c4 67 60 bd e4 7b 75 be 01 93 e8 bd
       0.03165306 -0.05478646 -0.23973042 -0.11356164
0000a0 f4 6e 89 be ec 4b f1 3d 0e 7b 56 bd 62 27 a4 3d
       -0.26842463 0.11782059 -0.052363448 0.08015324
0000b0 1b 2a 8a be 4a 46 6f 3e 32 f3 f9 bd 74 1d 19 3e
       -0.2698525 0.23366657 -0.12204589 0.14952642
0000c0 ff 1a 08 3e a7 05 81 3d 6d ed 9d 3e ae fc 24 bd
       0.13291548 0.06299906 0.30845204 -0.040280037
0000d0 0f 3e 05 3e d6 f7 d4 bd 3e ab 6c be 2c 51 84 3d
       0.13011955 -0.103988335 -0.23112199 0.06460795
0000e0 a8 de 83 be 47 8e 18 be 22 14 9b be e0 cc aa bd
       -0.2575581 -0.14898024 -0.30288798 -0.08339858
0000f0 cb 8b 98 be fd 11 52 be a5 81 92 3d e7 25 9a 3e
       -0.29794154 -0.20514674 0.07153634 0.30107042
000100 29 d6 38 be 0e 6f 59 be b1 4a 83 be 95 3a 43 be
       -0.18050446 -0.2123377 -0.25642923 -0.19065316
000110 df 3b da bd 78 6a 0a be 63 2d a9 3d 27 46 81 3e
       -0.10655951 -0.13517177 0.0826061 0.25248834
000120 a0 99 59 3e 6f 5b a0 3e ff 78 88 be 6d 1e 5f 3e
       0.2125001 0.31319758 -0.26654813 0.2178895
000130 a2 e8 f9 bd b5 3f 48 be 7b 9e 9c be 59 fa 56 3e
       -0.12202574 -0.19555552 -0.3058966 0.20993938
000140 10 9f 94 3e 81 dc dc 3d 8a af 23 3e ec 70 53 3e
       0.29027605 0.10784245 0.15984932 0.20648545
000150 f0 96 5d 3e 4a a4 9c 3e 9b 98 8e 3e 0a 84 43 3e
       0.2163961 0.30594093 0.27850804 0.19093338
000160 75 35 94 bd 7c d8 21 3e 84 af db 3d 53 8f 80 3e
       -0.072367586 0.15805238 0.10726836 0.25109348
000170 28 60 81 be e4 3b 82 be 4b 0c 1d 3e 69 c2 6c bd
       -0.25268674 -0.25436318 0.1533672 -0.05780259
000180 35 a9 2d be 2b 3b 80 3d ae a0 20 be 72 32 0e bd
       -0.16959079 0.062612854 -0.15686294 -0.034716077
000190 e2 87 06 be be d8 bb 3d 5f 0e dd bc c9 60 c8 bd
       -0.13137773 0.091722 -0.026984392 -0.09784085
0001a0 d9 1c 5d 3d 62 a0 40 3d 14 08 8d 3d 7f 98 9a 3e
       0.05398259 0.047027953 0.068863064 0.3019447
0001b0 ee 89 bd 3d b3 5e fa bd 6d 2a 53 3e db b8 b1 bc
       0.092548236 -0.12225094 0.20621653 -0.021694591
0001c0 d0 49 35 3e bb 25 13 3e 3a 5a 88 be 9b 3e dc bd
       0.17703938 0.14369862 -0.26631337 -0.107541285
0001d0 6e 8f a9 3d 87 01 1b 3e 44 50 3d be 8c 51 04 be
       0.0827931 0.15137301 -0.1848765 -0.12921733
0001e0 3c bc 2b be f4 d5 80 be 23 53 48 bd 2c 8d 1a be
       -0.16771024 -0.25163233 -0.04890741 -0.15092915
0001f0 59 5f b4 3d 3b fc 56 bd 31 93 97 be 04 e4 77 3c
       0.088072486 -0.05248664 -0.29604486 0.015130047

layers.1.weight f4 [128]
000000 ea 1b 7d 3f 12 5a 80 3f 89 95 7b 3f 7f c1 7e 3f
       0.9887072 1.0027487 0.9827505 0.99514
000010 e1 68 7a 3f f9 6e 82 3f 7d e0 80 3f 60 5e 7e 3f
       0.9781628 1.0190116 1.0068508 0.99362755
000020 f8 ad 80 3f 4a 51 83 3f e0 22 84 3f 94 f4 7c 3f
       1.0053091 1.0259182 1.0323143 0.98810697
000030 16 bb 80 3f 38 be 81 3f 3a c7 7e 3f 68 cc 7c 3f
       1.0057094 1.0136175 0.99522746 0.987494
000040 ea ea 80 3f c2 ee 7a 3f e4 70 81 3f 45 0b 81 3f
       1.007169 0.98020566 1.0112576 1.0081564
000050 ec d4 80 3f b6 cc 84 3f 05 59 7c 3f 36 f1 7f 3f
       1.0064979 1.0374973 0.98573333 0.99977434
000060 c5 79 83 3f 54 4c 80 3f aa 7b 83 3f 8d 3f 7f 3f
       1.0271536 1.0023293 1.0272114 0.99706346
000070 57 df 7c 3f b4 3f 7b 3f 16 8b 82 3f 0a a8 7c 3f
       0.9877829 0.9814408 1.0198696 0.9869391
000080 d6 70 7d 3f 2f 53 7d 3f fd a2 7d 3f cb 4f 7e 3f
       0.990003 0.98955053 0.99076825 0.99340504
000090 74 7c 7e 3f a1 91 81 3f 81 de 7e 3f 99 2c 80 3f
       0.9940865 1.0122567 0.99558264 1.001361
0000a0 0c cb 80 3f e2 ed 7f 3f 1a 4d 7a 3f 5c a9 7c 3f
       1.0061965 0.99972355 0.977739 0.9869592
0000b0 ea fb 7d 3f 54 af 7e 3f 34 30 7f 3f fe 0e 7b 3f
       0.99212515 0.9948628 0.9968293 0.9806975
0000c0 9c 7e 7f 3f ff 05 83 3f 5d 55 81 3f f5 cd 7e 3f
       0.99802566 1.0236205 1.0104176 0.99533015
0000d0 fe 7d 7e 3f 80 e9 7c 3f 53 70 79 3f 95 bd 7e 3f
       0.99411 0.9879379 0.9743702 0.9950803
0000e0 72 cb 81 3f 27 84 7e 3f cf e1 7e 3f 90 65 80 3f
       1.0140212 0.994204 0.99563307 1.0030994
0000f0 80 65 80 3f 13 26 7c 3f e2 6b 7d 3f f6 d7 81 3f
       1.0030975 0.98495597 0.9899274 1.0144031
000100 43 5d 7e 3f 82 79 83 3f 95 41 7b 3f 50 43 7d 3f
       0.99361056 1.0271456 0.98146945 0.98930836
000110 fc 1b 7f 3f ff 67 82 3f 9c 27 7f 3f 95 49 82 3f
       0.99652076 1.0187987 0.99669814 1.0178705
000120 01 7f 80 3f f3 76 7c 3f 86 0f 7e 3f 94 0b 7b 3f
       1.0038759 0.98619 0.99242437 0.9806454
000130 33 0c 7c 3f d7 05 7b 3f 97 84 7e 3f 69 57 7d 3f
       0.98456115 0.98055786 0.99421066 0.989615
000140 30 c8 7d 3f 3f bf 7c 3f 57 af 7f 3f 15 e7 79 3f
       0.99133587 0.9872932 0.9987692 0.9761823
000150 62 9b 83 3f 65 14 7f 3f e9 02 81 3f 4c 57 81 3f
       1.0281794 0.99640495 1.0079013 1.0104766
000160 e9 9e 80 3f 74 7e 80 3f d7 df 84 3f e2 2c 80 3f
       1.0048496 1.003859 1.038081 1.0013697
000170 54 2e 82 3f 7c a9 7b 3f b0 d4 81 3f 51 55 83 3f
       1.0170388 0.9830549 1.0143032 1.0260412
000180 f0 d2 83 3f 37 6f 82 3f 92 f3 7c 3f 72 dd 7e 3f
       1.0298748 1.019019 0.9880916 0.9955665
000190 87 ed 7f 3f 7d 97 80 3f 0e eb 7e 3f 4b 20 81 3f
       0.9997181 1.004623 0.99577415 1.008798
0001a0 b7 ad 81 3f e7 ac 7a 3f d7 02 7e 3f 1b 41 81 3f
       1.0131139 0.9792008 0.99223083 1.0097994
0001b0 ab ab 7e 3f 18 a2 7d 3f 43 55 7e 3f 26 98 80 3f
       0.99480695 0.9907546 0.9934885 1.0046432
0001c0 87 0a 7f 3f 71 79 80 3f 79 98 7a 3f 04 7b 80 3f
       0.9962544 1.0037061 0.97888905 1.0037541
0001d0 87 e9 7e 3f 41 f3 7c 3f 30 be 7e 3f 14 4c 7a 3f
       0.99575084 0.98808676 0.99508953 0.97772336
0001e0 e4 c1 7e 3f bd 24 81 3f aa 63 82 3f d1 f7 7c 3f
       0.99514604 1.0089337 1.0186665 0.9881564
0001f0 f4 f1 82 3f 49 8b 80 3f ef fd 7d 3f 29 76 80 3f
       1.0230088 1.0042506 0.99215597 1.003606

layers.1.bias f4 [128]
000000 6a 86 35 bc 08 1d 4b 3c 14 d3 6d bc 4a 46 11 3c
       -0.01107941 0.012397058 -0.014515657 0.008866856
000010 4a 23 8f bc 37 39 d3 3c 5f 4e f0 37 d7 39 02 bc
       -0.017472882 0.025784118 2.8646724e-05 -0.00794836
000020 dd 51 31 3c 27 78 07 3d 3d 8f e3 3c 87 f6 7f bc
       0.01082274 0.03307357 0.027778262 -0.015622742
000030 fe dc 1d bc 02 20 9b 3c 95 45 a4 bb c1 6d 30 bc
       -0.009635208 0.018936161 -0.0050131776 -0.010768355
000040 f7 9f 34 3c fe de 8e bc 6a 37 2a bc cf db 97 3a
       0.011024467 -0.017440315 -0.010389188 0.0011585894
000050 c9 1f dc 3b 5b 5e f8 3c 96 1a 8d bc f4 60 ad 3b
       0.0067176563 0.03031843 -0.017224591 0.0052910987
000060 a1 0b 0a 3d 85 28 92 3c a5 11 87 3c ef 24 6f bb
       0.033702496 0.017841587 0.016487906 -0.003649052
000070 61 ce 5e bb b7 6e 83 bc 6f 6e 71 3c 7c fb 5b bc
       -0.0033997523 -0.016044004 0.014735802 -0.013426658
000080 ba f5 ac bb 0e 7e b9 bb 1a 63 10 bc a8 48 3b bb
       -0.0052783163 -0.005660779 -0.00881269 -0.0028577242
000090 7f 54 b3 bb 39 a7 a2 3c 88 15 1b bc f7 12 64 3c
       -0.005472719 0.019855129 -0.009465583 0.013920537
0000a0 68 07 d0 3c b6 91 fb 3b 78 65 9e bc 1a e4 66 bc
       0.025394157 0.007677282 -0.019335493 -0.01409247
0000b0 29 ff 8b bc db ef f0 3b 5e a8 d7 bb 6d 7c a0 bc
       -0.017089443 0.0073528118 -0.00658135 -0.01959058
0000c0 41 8f 5c bb 69 cb a9 3c 7f 30 8e 3a 41 92 01 bc
       -0.0033654722 0.020726876 0.0010848193 -0.007908405
0000d0 4a 83 cc bb 76 18 94 bc 9d 14 af bc 7d d6 ad 3c
       -0.006241237 -0.01807807 -0.021372134 0.02122044
0000e0 a2 09 3d 3c b2 a2 7d bc e8 64 22 bc ad 8d 20 3b
       0.011537941 -0.015480684 -0.009911753 0.0024498508
0000f0 43 3a e7 ba d1 0d 18 3c 03 bf 6d bc 23 18 d4 3c
       -0.0017641265 0.009280638 -0.014510873 0.025890416
000100 8c fe 4a 3b c4 b9 01 3d 5d 7a 86 bc 55 8b b1 bb
       0.0030974476 0.0316713 -0.01641577 -0.005418221
000110 4a ca 38 bc 0c d4 9c 3c fa e8 e7 ba 1f 4e ab 3c
       -0.011278698 0.01914408 -0.0017693334 0.020911274
000120 c6 0b 54 3c f6 39 ec bb 87 3e 15 bc 48 a1 80 bc
       0.01294226 -0.007209058 -0.009109146 -0.015701905
000130 54 bb 8b bc ec 3f 8a bc e3 a3 7c 3b 00 51 62 3a
       -0.017057098 -0.016876183 0.0038549833 0.0008633286
000140 e0 58 13 3b 5e a0 84 bc 19 dd 06 3a 70 93 c2 bc
       0.0022483394 -0.01618975 0.00051446405 -0.023751944
000150 f3 9f a5 3b 5d 75 e7 3a 45 e3 ad bb 08 a0 c3 3b
       0.005054468 0.0017658878 -0.0053066337 0.005970005
000160 fd 2b ea 3a b1 6d 45 bc c7 1c 48 3c 6c d3 e5 3b
       0.0017865893 -0.012050078 0.012213892 0.007013729
000170 3f 53 15 3c 86 d3 91 bc a6 56 f5 39 ae 58 19 3d
       0.009114086 -0.017801058 0.000467946 0.037438087
000180 1b 43 4c 3c dd 07 8b 3c 7f fb 1d bc 01 97 ed 3c
       0.012467171 0.016971523 -0.009642481 0.029002668
000190 40 58 6d bc 45 af dc 3b 68 cf 36 bc 7e 9d 48 bb
       -0.0144863725 0.006734761 -0.011157848 -0.003061145
0001a0 33 f8 f5 3c d3 46 be bc 30 44 90 bc 56 47 7d 3b
       0.030025577 -0.023227131 -0.01761064 0.0038647256
0001b0 44 c9 1b 3c 16 05 d2 bc 4d 79 09 bc 0b e8 e5 3c
       0.009508435 -0.02563719 -0.008390737 0.028064748
0001c0 e0 e9 ab bb 2b b3 ec 3c f5 4e b0 bc 33 b8 83 3b
       -0.005246386 0.028894028 -0.021522025 0.004019761
0001d0 e8 71 81 bc b7 e2 9a bc 2f d1 c6 bb 9f 9e 81 bc
       -0.015801385 -0.018906934 -0.006067417 -0.015822707
0001e0 9c 7d 15 3c 2a f0 8f bb 70 18 8f 3c a4 1b ec bb
       0.009124186 -0.0043926435 0.017467707 -0.0072054435
0001f0 04 26 61 3d 2e 23 c4 3c b6 34 b1 ba a5 b5 09 bc
       0.054967895 0.023942556 -0.0013519737 -0.008405124

layers.1.running_mean f4 [128]
000000 5b cc 9c be 46 72 88 bd 18 02 b1 3e 16 7e 70 be
       -0.3062466 -0.06662421 0.3457191 -0.23485598
000010 91 d5 61 be 3c 46 78 3e 12 33 e4 bd 04 86 da bd
       -0.22054125 0.24245542 -0.111425534 -0.10670093
000020 51 24 1d 3d 98 26 b5 bd 6a 0c 20 3c c0 e2 fa 3d
       0.038364712 -0.08845252 0.009768585 0.122502804
000030 08 ba 68 3e d7 a4 24 3e 22 66 df 3e 96 53 55 3e
       0.22727215 0.16078506 0.4363261 0.20832667
000040 0d 3a 4f 3e c2 35 76 be 18 77 e1 3d 9f 2f 00 bf
       0.20236988 -0.24043944 0.110090435 -0.50072664
000050 45 11 7a 3b a2 5c 17 be bb 60 9f 3e 0d 7f 85 be
       0.0038157266 -0.1478143 0.31128487 -0.26073495
000060 af b8 12 3e f7 18 71 3e a2 0f 81 3d a1 d8 4f 3e
       0.14328264 0.2354468 0.0630181 0.20297481
000070 2e 9f a9 be ce b3 41 3d a2 31 8b be 4e 4b 97 3e
       -0.33129257 0.047290616 -0.27186304 0.2954964
000080 91 6b 89 3e 3c 0c 80 3e aa 6e 71 3e 0a 3c 5d be
       0.2683988 0.25009334 0.23577371 -0.21604934
000090 06 84 02 bd 30 be 06 be 9c d0 36 be be 3e 5a 3c
       -0.03186419 -0.13158488 -0.17853016 0.013320623
0000a0 4b 0c 61 be 93 ed c2 3d c8 50 ed bd 29 1c 22 3e
       -0.21977346 0.0951797 -0.115876734 0.15831055
0000b0 03 87 b0 be 3b 27 6f 3e f7 6b 3b be a1 35 08 3e
       -0.34478006 0.23354809 -0.18302904 0.13301708
0000c0 1d 88 19 3e da 87 48 bd 90 7c a1 3e 5b 41 3f be
       0.1499333 -0.048957683 0.31540346 -0.18677275
0000d0 41 a4 54 bd eb f5 a9 bd d4 c8 11 be c5 45 fe 3d
       -0.051914457 -0.08298858 -0.14236766 0.12415651
0000e0 d0 5c 40 be e8 b9 9e bd d4 6a 9d be 8f bd b6 3c
       -0.18785405 -0.077503026 -0.30745566 0.022307185
0000f0 21 c7 8d be c9 6a ad bd 5c ef 67 3d 0f 9c c9 3e
       -0.27690986 -0.08467633 0.056624755 0.39376876
000100 99 e7 26 be c6 0b a8 be f1 96 88 be bb 93 f1 bd
       -0.16299285 -0.32821482 -0.2667766 -0.117957555
000110 ab c1 08 be 80 75 92 be 9a 40 12 3e 2e 17 af 3d
       -0.13355128 -0.2860527 0.14282456 0.08549343
000120 11 3f a2 3d e9 08 99 3e c3 b8 84 bd cf 2a 08 3e
       0.07922185 0.2988961 -0.06480553 0.1329758
000130 de 65 59 be d6 6d 82 bd 68 31 a5 be 86 d2 6a 3e
       -0.21230265 -0.06368606 -0.32264256 0.22931871
000140 21 bf a1 3e 09 d4 41 3e 2e 07 74 3c 6d 6e 0e 3e
       0.31591132 0.18928541 0.01489429 0.13909312
000150 8a 3c f3 3d 02 f2 bf 3e ed b1 bc 3e 03 96 b2 3e
       0.11876781 0.37489325 0.36854497 0.34880075
000160 fa 84 df bd 9d e6 f8 3d e8 44 28 bb d5 59 f3 3e
       -0.10914035 0.12153361 -0.0025675837 0.47529474
000170 7f 07 c9 be 81 eb 84 be 87 15 e1 3d e5 5e 46 be
       -0.39263532 -0.25960925 0.10990434 -0.19372137
000180 43 3d b7 be 6c ad 1b bd 8e 35 99 be 1e 6b 05 3e
       -0.35788926 -0.038007185 -0.2992367 0.13029143
000190 13 d0 57 3b 03 e7 e0 3d 05 34 23 bd 10 5c 22 be
       0.0032930418 0.10981562 -0.03984453 -0.15855432
0001a0 e8 18 96 bd fc 88 84 3d 72 d3 00 3e ce 17 b4 3e
       -0.07328969 0.0647144 0.1258066 0.35174412
0001b0 87 85 58 3e 4f 26 c9 bb 9f 6f a0 3e 0c 30 3d 3e
       0.21144687 -0.0061386 0.3133516 0.1847536
0001c0 a1 c4 df bc 88 79 8d 3e 24 66 22 be 1e ff 59 be
       -0.02731544 0.27631783 -0.15859276 -0.21288726
0001d0 20 c2 d8 3d b4 12 15 3e 31 a1 5f bd 70 bc 28 be
       0.105839014 0.14557916 -0.054597083 -0.16478133
0001e0 e8 8e 11 be bc 62 a4 be 55 2c c2 3c ef 62 99 bd
       -0.1421467 -0.32106578 0.02370278 -0.07489573
0001f0 4c 99 3d 3e d6 7e a1 3d fd c9 bc be 24 42 63 bd
       0.1851551 0.0788552 -0.36872855 -0.055483

layers.1.running_var f4 [128]
000000 ed 7f 87 3e 9e 60 b7 3e 4b 40 5c 3e c2 7b ac 3e
       0.26464787 0.358159 0.21508901 0.3368817
000010 55 32 d1 3e f4 4c a0 3e 78 ee b6 3e 54 1d 3d 3e
       0.40858713 0.3130871 0.35728812 0.18468219
000020 15 b1 73 3e c7 42 e2 3e d0 b1 f3 3e 66 ef a5 3e
       0.2379802 0.44191572 0.47596598 0.3240921
000030 66 0e 8a 3e b8 a9 0a 3f bc a3 6e 3e cf d6 98 3e
       0.2696411 0.5416522 0.23304647 0.29851386
000040 f8 d4 8d 3e 76 60 e6 3d 8d 0b 98 3e c9 f1 b6 3e
       0.27701545 0.11248867 0.29696313 0.35731342
000050 56 ec f3 3e 49 5c 71 3e af f9 9d 3e 63 f8 0b 3e
       0.47641248 0.2357036 0.30854556 0.13668971
000060 03 fb 7b 3e 0e f4 10 3e 33 5b 00 3f e7 74 8b 3e
       0.24607472 0.141556 0.5013916 0.27237627
000070 db 3a 17 3f 7d db 47 3e 68 99 63 3e 92 02 b7 3e
       0.5907418 0.19517322 0.22226489 0.35744148
000080 d0 49 c4 3e 7c d9 73 3e c7 e8 91 3e 5f 36 bc 3e
       0.38337564 0.23813432 0.28497908 0.36760232
000090 9d d1 99 3e db 24 03 3e 6a 84 a1 3e 7d ed 57 3e
       0.30042735 0.12807028 0.31546336 0.21086688
0000a0 80 d4 5e 3e 59 ef 19 3e 3e 86 96 3e fd 54 95 3e
       0.2176075 0.1503271 0.29399294 0.29166403
0000b0 ff 72 90 3e 17 e2 45 3e ba 53 aa 3e a9 b0 ee 3e
       0.28212735 0.19324528 0.33267003 0.46619156
0000c0 63 4b 60 3e b7 66 27 3e 4b d7 66 3e c2 94 71 3e
       0.21903758 0.16347776 0.22543065 0.23591903
0000d0 3c b6 a2 3e 3c 11 61 3e 75 48 fc 3e 59 62 2c 3f
       0.3177966 0.2197923 0.4927403 0.67337567
0000e0 50 8d d7 3e 89 bd cd 3e dd e1 e4 3d e7 d3 89 3e
       0.421 0.40183666 0.111758925 0.2691948
0000f0 89 d8 be 3e 5a b4 2e 3e ae ec 1c 3e 92 47 ab 3d
       0.37274578 0.17060986 0.15324661 0.0836326
000100 3b a1 96 3e 2c c8 0b 3e 84 2b 5b 3e 5a 57 a8 3e
       0.29419884 0.13650578 0.21403319 0.32879144
000110 ca b0 27 3d c2 8e 5c 3e 02 50 e1 3e f4 09 9d 3e
       0.040940084 0.21538833 0.44006354 0.30671656
000120 12 a6 97 3e 63 2a 83 3e be ae b5 3e 65 23 61 3e
       0.2961889 0.25618276 0.3548488 0.21986158
000130 f5 46 13 3f 19 0f a8 3e 95 d3 af 3e 3a 3d 4e 3e
       0.57530147 0.3282402 0.34341112 0.20140544
000140 af 51 80 3e d2 ba b2 3e 1c 9a 69 3e 65 12 31 3e
       0.2506232 0.34908158 0.22812694 0.17292173
000150 14 a8 5c 3e 12 2e 87 3e 06 0a ab 3e d3 d5 d4 3e
       0.21548492 0.26402336 0.33406085 0.41569385
000160 ee ce 8f 3e 43 d1 c6 3e 8f db 36 3e 6c 77 cd 3e
       0.28087562 0.3883153 0.17857192 0.40130174
000170 45 d8 bd 3e cd 8a 98 3e 5b 60 92 3e 9b ba 01 3f
       0.37079063 0.29793397 0.28589138 0.5067536
000180 6a 6f ba 3e 3b a7 94 3e 5b 59 41 3f 51 57 56 3e
       0.36413127 0.29033837 0.7552697 0.20931746
000190 c7 0f d8 3e 39 1e 93 3e 9f 0f 75 3e 57 ca 2b 3e
       0.42199537 0.28733996 0.2393174 0.16776405
0001a0 23 ac 94 3e 26 e3 1f 3e 35 72 92 3e 22 fe 8e 3e
       0.2903758 0.15613994 0.28602758 0.27928263
0001b0 d2 7d d6 3e 81 ee 4d 3e 96 27 99 3e 4b 06 c2 3e
       0.41892868 0.20110513 0.29913014 0.37895426
0001c0 e0 c4 bc 3e 61 81 51 3e d3 26 13 3f 7d c2 b5 3e
       0.36868954 0.2045951 0.57481116 0.35499945
0001d0 44 e2 08 3f 14 a9 25 3e 27 60 bf 3e 0a 1e 95 3e
       0.53470254 0.1617778 0.37378046 0.2912448
0001e0 07 b0 a5 3d a4 bc 7f 3d ad 9b 79 3e 63 3e d1 3e
       0.08090215 0.06243576 0.24375792 0.4086791
0001f0 41 74 1d 3e cd 81 c0 3e be 12 8d 3e b8 2d b9 3e
       0.15376379 0.3759903 0.27553362 0.36167693

layers.4.weight f4 [128, 128]
000000 50 1e 0d 3d 8b 3f b2 3d 50 8b 78 bd 03 cd 94 bd
       0.034452736 0.08703526 -0.060679734 -0.072656654
000010 4e 3b 62 bd a4 3b 23 3c 72 84 7c bb 31 b0 8e bd
       -0.05523234 0.00996295 -0.0038531092 -0.069671996
000020 38 b5 87 3b 2c 94 af ba a4 6b c5 bd e2 33 af 3d
       0.004141476 -0.0013395599 -0.096396714 0.08554818
000030 70 36 10 bd 74 d4 7a bd 76 fa 26 3d 3b 22 8c bd
       -0.035208166 -0.061237767 0.040766202 -0.068424664
000040 16 f5 76 3d 09 0f 29 bd bc 1e b1 bd 1a f0 68 3d
       0.060292326 -0.041274104 -0.0864844 0.056869604
000050 f9 f2 a1 bc d5 dc 2d 3c f4 2d 94 bd 01 c1 35 3c
       -0.019769179 0.0106117325 -0.07235327 0.011093379
000060 e5 74 5e bd 5c 47 83 bd f4 58 de bc 17 90 85 3d
       -0.054310698 -0.06410095 -0.027142026 0.065216236
000070 a0 40 23 3d 0e 54 8e bd 50 bb 69 bd 47 6d 06 3d
       0.039856553 -0.06949626 -0.0570634 0.03281906
000080 73 6d 7c bd 46 cf ee bc f5 87 83 3d 4a e1 95 3d
       -0.061627816 -0.02915157 0.06422416 0.07318361
000090 b6 31 11 bd d2 d9 f5 bc b3 1c 26 3d 71 71 2f 3b
       -0.0354478 -0.030011091 0.040554713 0.0026770497
0000a0 15 8b 95 3d d1 11 0d 3c c6 75 4e 3c 3e ba e6 3b
       0.073019184 0.008610205 0.012601322 0.007041245
0000b0 7f 06 28 3d c8 19 03 bc 39 f0 37 3d 35 d4 d0 bc
       0.04102182 -0.008001752 0.04490683 -0.025491813
0000c0 8d 31 9a 3d 05 1e 33 3d 4b 3a 74 bd dc 27 97 3d
       0.07528982 0.0437298 -0.059625905 0.073806494
0000d0 b4 41 c0 bc d3 29 2b bc 63 fc 20 ba 8a ea 3f bd
       -0.02346883 -0.010446983 -0.0006141124 -0.046854533
0000e0 07 e8 9d bd dc 75 a9 bd aa 90 88 3d 3f 92 b4 bc
       -0.07710271 -0.08274433 0.066682175 -0.022042392
0000f0 19 f8 ee 3c 26 56 27 bc e8 28 a3 bd 36 9d 3c 3d
       0.029171037 -0.0102134105 -0.079667866 0.046048366
000100 5e 54 24 bb 54 5c 90 bc 05 72 5e 3d 78 43 c1 bc
       -0.00250747 -0.01762215 0.054307956 -0.023591742
000110 5f d0 3f bd 83 69 1b bd ec dd 48 bd d3 e1 65 bd
       -0.046829578 -0.03794242 -0.049039766 -0.056123566
000120 33 00 4b bd 2d f8 74 3d c6 43 95 3d ff 23 1a bd
       -0.049560737 0.05980699 0.072883174 -0.037631985
000130 32 99 d5 bc 14 c1 8c 3d 53 2d 60 bd 61 7b 96 bd
       -0.026074026 0.06872764 -0.054730725 -0.073477514
000140 54 8f 5d 3d 9b d8 ee 3c e2 60 6e bd 74 93 ed 3c
       0.054091766 0.02915602 -0.058197863 0.029000975
000150 95 94 94 bd 04 d7 71 3c 79 4e 58 bd 74 6c 5b 3d
       -0.07254902 0.014760736 -0.052809212 0.053570226
000160 be b7 0f 3d dd 94 d0 bc 7f 1c d0 bc 8b 10 f9 3c
       0.03508734 -0.025461609 -0.025404213 0.030403396
000170 a6 8f 19 3d 21 b1 bb 3c e8 48 a8 3c f7 58 08 3d
       0.03749051 0.02291161 0.020542577 0.03328797
000180 51 59 41 3d c0 c5 0a 3c 7b f9 81 3c fd 14 86 bd
       0.04720432 0.008469999 0.015866032 -0.06546972
000190 24 e2 1c 3d b1 55 a4 bb 19 41 7f 3d 75 d9 b4 bd
       0.038301602 -0.005015098 0.06231794 -0.08830539
0001a0 cc 98 8d bd 8b 46 17 bd a1 ec 69 3d f0 16 7d 3d
       -0.06913909 -0.03693251 0.057110433 0.061789453
0001b0 3a 1a d9 3c a7 b0 29 3b 62 df 62 bd ab 3f f1 bc
       0.026501764 0.0025892647 -0.055388816 -0.029449305
0001c0 44 49 5f 3d 53 46 d2 bc b1 0c 9c bd 0d cc 73 3d
       0.05451323 -0.025668299 -0.07619608 0.05952077
0001d0 a3 cb a6 bd 26 ec 25 3d 1b b6 2d bd 77 9f 44 3a
       -0.08144309 0.04050841 -0.042409997 0.0007500569
0001e0 24 90 22 bd f5 2b 13 bc a1 d0 86 3d 02 b7 13 3d
       -0.039688244 -0.008982648 0.065827616 0.0360632
0001f0 32 3e a5 3c 0c b6 ab bc 6a 08 a3 bd 0d 96 db bb
       0.020171259 -0.02096083 -0.07960589 -0.006701237
000200 e1 98 70 3b 50 79 53 bd c0 ee 1d bd ad 08 71 bd
       0.0036712217 -0.051629364 -0.038557768 -0.058846164
000210 9f 96 32 3d 2c 82 23 bd e7 5d 1e bc c3 6d ab 3d
       0.043600675 -0.039919063 -0.009665943 0.08370545
000220 b9 98 60 3d bd 77 b7 bd d8 ab 9d bc fd 99 2b 3d
       0.054833148 -0.08958385 -0.01924698 0.0418949
000230 b9 e5 5b 3d 84 f5 48 3d f5 cb 62 3d 68 3c 6c 3d
       0.053685877 0.049062267 0.05537029 0.057674795
000240 89 37 68 3d fc a7 d8 3c 3c e4 02 bd 4a d9 e0 3b
       0.056693587 0.026447289 -0.031955943 0.0068618404
000250 2b db 5e 3c a7 6f 71 3c e3 05 49 bd ee 6f 0f 3c
       0.013602058 0.014736093 -0.04907788 0.008754713
000260 2b c3 53 3d 7e d8 02 3d 91 9f 80 bd c4 66 4c 3c
       0.0516998 0.031944744 -0.06280435 0.012475673
000270 06 bb 77 bd 3d 14 86 3d 65 d0 2f bb 29 79 ba bd
       -0.060481094 0.06546829 -0.0026827094 -0.09105141
000280 49 8e 9d bd a8 0b 85 bd 88 6c 45 bd 8c 04 9f bd
       -0.07693154 -0.06496364 -0.048199207 -0.07764539
000290 fb 9e cb 3b 0e a5 db bb a5 95 7c 3d 41 7f 35 3b
       0.0062140203 -0.0067030257 0.06166615 0.0027694257
0002a0 49 96 18 3d 39 cb 97 3d 4d b3 13 3d b1 46 7c 3d
       0.037252698 0.074118085 0.036059666 0.061590854
0002b0 0c 4d 96 bc cf e6 4b bd 1e c1 e2 3c df a8 0e 3d
       -0.018347286 -0.049780663 0.027679976 0.034829017
0002c0 91 bd ae 3c e8 c0 24 3d 38 b4 ac bd f9 ae 68 bd
       0.021330627 0.040223032 -0.084328115 -0.056807492
0002d0 e3 4f 80 bd ae ca 9d 3d e5 81 90 3d f5 62 26 3d
       -0.06265237 0.07704674 0.070560254 0.040621717
0002e0 0e 7c a1 bd ad 62 82 3d da b9 9e bd 2d cb 96 3d
       -0.0788499 0.06366477 -0.07750292 0.073629715
0002f0 19 93 80 3d 39 44 f6 3c 5b 74 48 bd 4a 11 54 3d
       0.06278057 0.030061828 -0.04893909 0.0517743
000300 a3 7b ad 3d b1 da 98 bd 4e 61 9b bb 83 9f a7 3c
       0.084708475 -0.07463587 -0.004741824 0.020461803
000310 99 e2 f6 bc ad 27 c2 bc 60 81 c7 bc df 1e 32 bd
       -0.030137347 -0.02370056 -0.024353683 -0.043486472
000320 13 39 b9 3c f8 48 6a 3d 11 6b 87 3d 7a b9 89 3b
       0.022610223 0.057198495 0.06612218 0.0042030187
000330 64 5e f5 3c 87 79 f8 bc 48 10 b4 bd 6f a1 86 bd
       0.029952236 -0.030331386 -0.08792168 -0.0657376
000340 9f 17 42 3d 80 32 5d 3d 5d c6 f8 3c 6e 1a 8d bc
       0.047385808 0.05400324 0.030368024 -0.017224517
000350 3e d9 28 bd 7d 56 a0 bd 60 80 bb 3d 1f 5e 5b bd
       -0.041222803 -0.07828996 0.09155345 -0.053556558
000360 a5 0a 80 bd 66 46 57 3c f1 d6 8e bd cb 41 9f 3d
       -0.0625203 0.013139343 -0.069745906 0.07776221
000370 ed 19 0f bd 9b 8b 22 bc dd 74 16 bd 59 ad 82 3d
       -0.034936834 -0.00992098 -0.036732543 0.0638072
000380 e6 7f 84 bd 2a c1 9e bd 3e 2a 65 bc 6b 22 ce 3b
       -0.06469707 -0.07751687 -0.013987122 0.006290724
000390 1c 07 26 bd 6e 27 70 bc 15 ee e2 3b 4d ad 9d 3d
       -0.040534124 -0.014657838 0.0069253542 0.0769907
0003a0 61 f2 26 3c 1f ee b9 3d 66 31 09 bd 26 c0 16 3d
       0.010189624 0.09078621 -0.033494376 0.03680434
0003b0 e3 e4 73 3b c9 76 d1 3c db 34 cd 3b 2e 47 b6 bd
       0.0037215285 0.025569336 0.0062624044 -0.08900295
0003c0 40 85 57 bd 75 8d 12 bc 05 b8 a9 3c f5 b6 3b bd
       -0.05261731 -0.008944859 0.02071763 -0.04582878
0003d0 50 64 14 3d 76 a1 1c bd d7 7e 61 bd 9e 9b 81 3d
       0.036228478 -0.03823992 -0.055052605 0.0632851
0003e0 f8 66 1a 3d 74 00 f0 3c 73 f9 02 3d ec 95 ed 3c
       0.037695855 0.029297091 0.031976175 0.029002152
0003f0 24 4c 52 bd c4 7f b6 bc 55 e5 d0 bc a2 15 7e bd
       -0.051342145 -0.02227772 -0.025499979 -0.06203235

layers.4.bias f4 [128]
000000 40 68 6d bd ee d5 be bc a9 a5 9c 3d 27 cb e8 3c
       -0.05796075 -0.023295369 0.07648785 0.028417183
000010 b9 6e f7 bc 13 cf 51 3d 29 f8 34 bd be 28 65 bb
       -0.030204164 0.051222872 -0.044181976 -0.0034966911
000020 1e ed 67 3d de a5 46 bd 12 4f 9c 3d af 17 5f bd
       0.056622617 -0.048498027 0.07632269 -0.054465946
000030 6f 7e a9 bd 44 40 84 3d 56 73 7d 3d 21 c7 8c bc
       -0.082760684 0.0645757 0.06187757 -0.017184796
000040 8b f9 97 bd 95 7f 31 3d 0b cb 63 3d 01 f8 56 3d
       -0.074206434 0.043334562 0.05561356 0.05248261
000050 da 59 82 bd f2 9b ea bc db 0e 23 3d 9e fd 68 bd
       -0.06364794 -0.028638814 0.03980909 -0.056882493
000060 2d 3c 0d bd 73 3d 19 bd 21 c0 05 bd ce ac 28 bd
       -0.034481216 -0.03741212 -0.03265393 -0.041180424
000070 8d 9c 85 3c 9c a2 1e 3d ab 46 15 3d c3 73 4f 3b
       0.01631 0.038729295 0.036444347 0.0031654693
000080 22 87 63 3d 92 e1 41 bd 31 f2 8e ba 04 c3 89 bd
       0.055548795 -0.04733426 -0.0010905919 -0.067266494
000090 ca 7b b4 bd 5d dd 37 3c 64 d8 8b 3d 67 0f aa bd
       -0.088126734 0.011222211 0.068283826 -0.08303719
0000a0 3a 26 a1 3a 16 54 2f bd a5 83 dc bc fa 22 b1 3d
       0.0012294718 -0.0428048 -0.026918242 0.086492494
0000b0 08 50 8c 3d e5 4e 08 3d 1d cc c5 3a a0 34 31 ba
       0.06851202 0.033278365 0.0015090738 -0.0006759856
0000c0 de a7 b2 bd c2 61 87 bd 94 8c 89 bc 9c 65 af 3d
       -0.087234244 -0.06610443 -0.016790666 0.08564302
0000d0 6f f1 68 3d 42 8b 54 3d 70 0d ad 3c d3 df aa 3d
       0.056870874 0.05189062 0.021124572 0.08343472
0000e0 97 45 4d bd d0 63 5a bc d1 45 1c bc cd ee 5f bd
       -0.050115194 -0.013329461 -0.00953813 -0.054671098
0000f0 54 61 8d bd 3f b3 9d bb e9 a0 9a bd da 25 8a bd
       -0.069033295 -0.0048126276 -0.075502224 -0.06745501
000100 2e 6a 6d 3c 44 56 2d bc 54 41 b7 3c 06 7d 12 3d
       0.014490647 -0.010579649 0.022370018 0.035763763
000110 a2 ca 9d 3d e9 1c 1f 3d 6f a1 4f bd e7 f8 b2 3d
       0.07704665 0.03884593 -0.050691064 0.087388806
000120 3f 31 a3 3d 8f 09 31 3d e4 63 d1 3c ec 75 e8 3c
       0.07968377 0.043222006 0.025560327 0.028376542
000130 14 ac 2e 3d c2 39 78 3c c2 d7 8e 3c 38 02 da bc
       0.042644575 0.015150489 0.017436866 -0.026612386
000140 f7 cf d0 3c bf dc 73 bd 3a f6 87 3d d2 2e 84 3b
       0.02548979 -0.05953669 0.06638761 0.0040339017
000150 16 e2 78 bc a7 35 7d bd 70 b9 2c 3d 15 8e c4 3c
       -0.015190622 -0.061818745 0.042169034 0.023993531
000160 74 81 e3 3b 57 e2 cd bc 06 b0 3e bd b2 f7 1a 3d
       0.0069429222 -0.025132341 -0.046554588 0.037833877
000170 82 6a 0c 3c fe 90 73 bd 6f 96 b0 3d 1d e2 9d bd
       0.008570315 -0.059464447 0.08622443 -0.07709143
000180 59 e6 51 3c 68 88 79 bd c0 06 22 bd c2 8b 71 bd
       0.012811267 -0.060921103 -0.03955722 -0.058971174
000190 eb c3 8c bd d5 23 84 bd ed af 36 bc 85 45 63 3d
       -0.06873306 -0.06452147 -0.011150342 0.05548622
0001a0 12 63 75 3d fa dc 16 3d 3e 83 81 3d 28 76 83 bd
       0.059908934 0.036831833 0.063238606 -0.06419021
0001b0 b7 bf 01 bd 19 8f f8 3b 77 c8 9f bc a5 e3 07 3d
       -0.031676974 0.007585418 -0.019504769 0.033176083
0001c0 de 52 9b bd 00 b7 9c bd 1e c4 f3 3b 2f 98 b3 3d
       -0.07584165 -0.07652092 0.0074391505 0.08769261
0001d0 e0 02 1b bd 10 58 8f bc c1 22 5b 3d f6 87 89 3d
       -0.03784454 -0.017498046 0.05349994 0.067153856
0001e0 07 7b 92 3d 50 1f 8c 3d cb 33 aa bb dd 66 89 3d
       0.07152372 0.0684191 -0.0051941625 0.06709073
0001f0 72 6d 58 3d 47 d2 0e bd 16 f6 25 3d 35 b9 b0 bd
       0.05283875 -0.034868505 0.04051789 -0.086290754

layers.5.weight f4 [128]
000000 bb b2 7b 3f f7 c0 7a 3f de fa 82 3f 65 3e 7b 3f
       0.98319596 0.9795069 1.0232809 0.9814208
000010 09 ef 7f 3f de 10 81 3f 37 2c 7e 3f c7 bc 7e 3f
       0.99974114 1.0083272 0.99286216 0.995068
000020 98 dc 7e 3f a8 9f 82 3f 5b 5b 83 3f a3 63 7c 3f
       0.9955535 1.0204973 1.0262254 0.98589534
000030 fe f1 84 3f ea ab 7d 3f 41 2f 80 3f 2b 21 7f 3f
       1.038635 0.99090445 1.0014421 0.99659985
000040 fb e7 7f 3f 42 7b 7b 3f 6a 0d 81 3f aa 48 7c 3f
       0.9996335 0.9823495 1.0082219 0.98548377
000050 5f 90 7f 3f 3a 4c 7b 3f fe 9f 7c 3f 16 a7 7f 3f
       0.9982967 0.9816319 0.9868163 0.9986433
000060 82 66 82 3f fc bb 80 3f 7a 47 81 3f a5 4d 7f 3f
       1.0187533 1.0057368 1.0099938 0.9972785
000070 ed c4 7f 3f 9c 94 7e 3f 16 89 82 3f c3 62 7b 3f
       0.9990986 0.9944551 1.0198085 0.98197573
000080 a3 b6 7e 3f b6 0b 80 3f fa 12 80 3f 2c 80 7a 3f
       0.9949743 1.0003574 1.0005791 0.97851825
000090 4e 4b 83 3f c4 44 7c 3f 83 d2 7e 3f 7d 5f 7e 3f
       1.0257356 0.9854243 0.99539965 0.99364454
0000a0 6f 36 7f 3f 5b 6d 7f 3f ca ad 83 3f 5f 7c 7e 3f
       0.99692434 0.9977624 1.0287411 0.99408525
0000b0 80 89 84 3f eb d9 7c 3f 4e da 7e 3f 75 65 80 3f
       1.0354462 0.98770016 0.99551857 1.0030962
0000c0 4c e6 7e 3f b2 39 85 3f 89 78 80 3f 1a aa 84 3f
       0.99570155 1.0408232 1.0036784 1.0364411
0000d0 3f aa 80 3f 32 63 7c 3f b7 1c 80 3f ab b0 7f 3f
       1.0051955 0.9858886 1.0008763 0.9987895
0000e0 17 0e 7d 3f 4b a1 7b 3f 3d e5 7a 3f 53 54 7c 3f
       0.98849624 0.9829299 0.9800604 0.9856617
0000f0 9b d0 80 3f 46 a8 7c 3f ad 3d 7c 3f 46 bb 7c 3f
       1.0063661 0.98694265 0.9853161 0.98723257
000100 b0 cd 81 3f 78 22 7b 3f 6c dd 7f 3f c1 b8 7a 3f
       1.0140896 0.9809947 0.9994724 0.9793816
000110 1f 42 80 3f cb e0 7c 3f ba 4d 7e 3f cd 64 83 3f
       1.0020179 0.98780507 0.9933735 1.0265137
000120 d6 f6 7b 3f 90 c9 7f 3f e8 8e 7b 3f 93 12 7d 3f
       0.98423517 0.99916935 0.9826493 0.98856467
000130 fe 96 80 3f c0 ce 7d 3f 88 eb 7b 3f 2a 88 7e 3f
       1.0046079 0.991436 0.9840627 0.9942652
000140 33 00 7f 3f 85 1a 7d 3f 17 c7 7a 3f 4f 52 83 3f
       0.9960968 0.9886859 0.97960037 1.0259494
000150 05 62 7a 3f 50 ca 7f 3f 82 28 7d 3f 37 b0 81 3f
       0.97805816 0.9991808 0.98889935 1.0131902
000160 02 7c 7a 3f 05 60 79 3f 4b 2f 81 3f 31 bd 7c 3f
       0.9784547 0.9741214 1.0092558 0.98726183
000170 c3 67 84 3f 60 dd 7d 3f 6b 8d 7b 3f ef 6b 83 3f
       1.0344166 0.99165916 0.9826266 1.0267314
000180 75 b0 81 3f f8 85 83 3f 95 50 82 3f ad f4 7f 3f
       1.0131975 1.0275259 1.0180842 0.9998272
000190 bc 72 7d 3f f0 10 7c 3f 0e f2 7c 3f e9 ad 7c 3f
       0.99003196 0.98463345 0.98806846 0.98702866
0001a0 01 94 81 3f 1e 32 84 3f 33 c1 7b 3f b9 6d 7b 3f
       1.0123292 1.0327795 0.98341674 0.982143
0001b0 56 a2 7f 3f 81 42 77 3f 90 06 7e 3f 8b 8b 81 3f
       0.9985708 0.9658585 0.99228764 1.012071
0001c0 07 48 84 3f ca a1 7f 3f b8 1f 82 3f 15 63 7d 3f
       1.0334481 0.99856246 1.016593 0.9897931
0001d0 e8 ab 82 3f 07 3a 7e 3f 4e db 7d 3f f6 ac 7b 3f
       1.0208712 0.9930729 0.9916276 0.9831079
0001e0 61 82 7c 3f 8e 7a 7b 3f 74 88 7b 3f 6f 0d 7e 3f
       0.9863644 0.9823388 0.98255086 0.9923925
0001f0 f6 8f 82 3f f6 d8 83 3f cf b4 7c 3f c4 f4 7f 3f
       1.0200183 1.0300586 0.9871339 0.9998286

layers.5.bias f4 [128]
000000 66 c2 0c bc 21 67 25 bb cc 19 1a 3d 14 81 5f bc
       -0.00859127 -0.0025238472 0.037622258 -0.0136416145
000010 61 8a 64 bb 60 ba 13 3c 3e 7f d5 3a 3f b9 cc bb
       -0.003487252 0.009016603 0.0016288531 -0.006247669
000020 b2 2b 12 bc 46 71 a5 3c d0 e8 ce 3c 1b 30 05 bc
       -0.008921551 0.020195615 0.025257498 -0.008129145
000030 50 a5 35 3d 22 88 93 bb 33 ec 03 3d 68 b5 40 3c
       0.044347107 -0.0045023123 0.03220768 0.011762001
000040 68 40 75 bb 7c 63 70 bc a2 69 cc 3c a2 28 13 bc
       -0.0037422422 -0.014672156 0.024952713 -0.008981856
000050 e3 d6 1b ba 85 9f 3b bc b0 08 40 bc bc 77 96 39
       -0.00059448014 -0.011451607 -0.011720821 0.0002869944
000060 9e 4f 97 3c c5 fb 5e 3b ba ce ae 3c d8 71 69 3a
       0.018470582 0.0034024578 0.02133881 0.00089052087
000070 64 79 8a 3c e5 74 a7 3b bd 2e de 3c 9b 46 10 bc
       0.016903587 0.0051103705 0.027121896 -0.008805896
000080 03 fd 66 bc 7c f0 6c 3b 98 72 62 bb 24 ff 99 bc
       -0.014098409 0.0036154082 -0.0034553166 -0.018798418
000090 a8 4b 26 3d fc 5c a7 3a 27 a7 06 bc ed c6 c8 3b
       0.040599495 0.00127688 -0.008218563 0.0061272294
0000a0 d6 1b 03 3c 8f 0f 8d b9 0d 71 9d 3c d8 f3 c7 bb
       0.008002242 -0.00026905208 0.019218946 -0.0061020665
0000b0 e0 b8 18 3d 1f d7 07 3c 68 73 96 bb 4d 17 2c 3c
       0.037285686 0.008291035 -0.004591394 0.010503602
0000c0 3a 81 12 3c 4c 0e 03 3d e9 92 c8 39 bc be 98 3c
       0.008941943 0.031996056 0.0003825643 0.018645637
0000d0 7f b1 08 3c 42 99 83 bb 8b 0f 4a 3b ab 1a 94 3c
       0.0083431 -0.0040160725 0.0030832018 0.018079123
0000e0 24 de 6c bc a4 2f 8b bc 7f 76 87 bc 2d 91 7d bc
       -0.014457259 -0.01699049 -0.016535996 -0.015476507
0000f0 09 df dd bb bc 8f e2 39 79 c7 9f bc 20 f5 66 bc
       -0.0067709726 0.0004321317 -0.019504296 -0.014096528
000100 62 d7 a8 3c 8b c4 53 bc cb cc 92 3c 3f d9 17 bc
       0.020610515 -0.012925277 0.017919919 -0.009268104
000110 8a f1 6c 3b 2f 7c 5c bc e0 01 eb bb 33 db ac 3c
       0.003615471 -0.013457342 -0.0071718544 0.021100616
000120 ed 67 45 bc 44 c7 79 3c b6 5d 89 bc a0 26 33 bc
       -0.012048704 0.0152452625 -0.016768318 -0.010934502
000130 a5 28 37 3c 6c da 3c bc d1 70 23 bc 12 6b 67 3c
       0.011179124 -0.011526685 -0.009975628 0.014124649
000140 c6 c2 e6 bb a1 12 2b bc 66 46 40 bc af ad 11 3d
       -0.007042262 -0.010441453 -0.011735534 0.03556603
000150 f6 d7 6b bc 08 c1 ae 3b 8c 46 36 bc 24 19 98 3c
       -0.014394751 0.0053330697 -0.011125218 0.018566675
000160 2a 61 73 bc 2f e7 a4 bc 3c ec 5e 3c 2c c8 05 bc
       -0.014854709 -0.020129768 0.013606127 -0.0081654005
000170 cb 1b 85 3c d1 2c 3a bc 38 f8 39 bc 7b 66 fc 3c
       0.016248604 -0.011363224 -0.011350684 0.030810585
000180 95 08 db 3c 4e e7 e5 3c 25 3c 33 3d ff 64 7a b9
       0.02673749 0.028064396 0.04375853 -0.00023879482
000190 8f 7d 1c bb a4 46 c6 ba a7 75 c0 ba d8 06 ff bb
       -0.002387855 -0.0015127254 -0.0014683501 -0.0077827983
0001a0 e4 dd e9 3c 47 80 03 3d 20 5b 0f 3a cb ab 66 bc
       0.028548189 0.032104757 0.0005468596 -0.014079045
0001b0 80 42 42 bb a1 b8 c0 bc 14 11 0a bc 2b e3 d2 3c
       -0.0029641688 -0.023525538 -0.008426923 0.025743088
0001c0 68 b3 58 3c b4 f3 a1 3b ec 62 ba 3c cb 37 f5 ba
       0.0132263675 0.0049423818 0.022752248 -0.0018708644
0001d0 02 17 ed 3c 2e 04 1e 3a bb b1 d3 bb 41 b2 85 bc
       0.028941635 0.00060278445 -0.006460396 -0.01632035
0001e0 bd fe cf bb df 03 c1 bc 15 74 20 3c 1a 59 82 3b
       -0.006347506 -0.023561416 0.009793301 0.003977907
0001f0 78 3a ab 3c c4 8b e2 3c 2a 2a 87 bb 2d 20 b3 3b
       0.020901904 0.027654536 -0.0041248994 0.005466482

layers.5.running_mean f4 [128]
000000 d6 11 8f be 34 5b b8 bb 4e 18 04 bf e6 ae 09 be
       -0.27943295 -0.0056261066 -0.51599586 -0.13445625
000010 81 fb 02 3e eb 70 5b bc 19 07 35 bd 73 9e 00 be
       0.12791254 -0.013393621 -0.044196222 -0.12560444
000020 38 17 9d be 7b 8e c6 be 29 f3 11 3e 09 a9 2d 3d
       -0.30681777 -0.3878058 0.14252914 0.042397533
000030 de 62 aa bd ba 79 5f be 86 10 23 bd 9c 17 30 3d
       -0.08319639 -0.21823779 -0.03981068 0.042991266
000040 cd 34 80 be 0f 38 75 be 35 b8 61 be fb 52 0b be
       -0.25040284 -0.23947166 -0.22042926 -0.13605873
000050 c4 14 51 be 9e 56 74 3d 88 23 75 3e d9 66 51 be
       -0.20418078 0.059652917 0.23939335 -0.2044939
000060 9c 7f ed be ce 43 16 bd 8e 82 91 3d 73 09 d7 3d
       -0.4638642 -0.036685757 0.071049795 0.10499849
000070 80 44 01 3e 9d c9 16 bc ce 04 f1 3d f7 d1 52 be
       0.12623787 -0.009203342 0.117684945 -0.20587908
000080 83 aa 8f 3e cf 19 b5 bd bd a0 94 be cb 23 5a be
       0.28059778 -0.08842813 -0.29028884 -0.21302716
000090 47 55 ee be 8e 2c 7a bd f0 78 b4 be 5f 81 f1 bd
       -0.46549436 -0.061077647 -0.35248518 -0.11792254
0000a0 8c a5 04 3f 7e c8 80 be aa f0 d9 be 38 1d 79 be
       0.51815104 -0.25152963 -0.42566425 -0.24327552
0000b0 92 0d 46 3d 79 13 a6 3e 3a 01 fd be 93 e0 92 bc
       0.048352785 0.3243673 -0.49414998 -0.017929351
0000c0 9c 82 51 bc 9d 49 9f be 6e 27 01 3d 9c 65 c9 be
       -0.012787487 -0.3111085 0.031531744 -0.39335334
0000d0 79 76 87 be 7f 78 b3 3d 1c 0a 2f be a8 cb 9f 3d
       -0.26457575 0.08763217 -0.170937 0.07802516
0000e0 0d ac 9f be cb bb 84 3c 11 de 3b be b0 97 aa be
       -0.31185952 0.016202828 -0.1834643 -0.33318853
0000f0 bb 51 ee be 5f a3 19 be 36 f3 69 3e a6 39 45 3d
       -0.4654673 -0.15003727 0.22846684 0.04815068
000100 be 16 40 3d 7c aa d0 3d d3 be f9 3c 58 a7 ad 3d
       0.04689669 0.10188767 0.0304865 0.08479184
000110 64 04 18 ba 7c 43 64 3e 61 f1 16 3f 9e d7 44 3c
       -0.0005798994 0.22291368 0.58962065 0.012014298
000120 00 c8 b4 be 64 86 95 3e 62 a5 a8 bd 2d f1 60 3d
       -0.35308838 0.29204094 -0.08234669 0.054917503
000130 91 2d cb bd 68 32 70 3e 12 c1 87 bd 97 92 80 3e
       -0.099208005 0.23456728 -0.06628622 0.2511184
000140 ca a6 2a 3f 42 a6 1a be 5b ca 68 3e 83 32 5b bd
       0.6666075 -0.15102485 0.22733442 -0.05351497
000150 90 fa 27 3e 7e dc 7c be 3f 31 ea 3e ac 71 15 be
       0.16404176 -0.24693486 0.45740697 -0.14594144
000160 83 35 45 3f 0f 6d 7d 3d 1d e9 10 be 0c 04 9d bd
       0.7703478 0.061871585 -0.14151426 -0.076667875
000170 f6 46 05 be 9e 3e ac bc 0c c8 f1 3e 83 ff 3b be
       -0.1301535 -0.021025952 0.47222936 -0.18359189
000180 f4 a3 ee bd 5c 27 34 be ae 8e 5f 3e f3 cf 7c be
       -0.11652365 -0.1759314 0.21831772 -0.24688701
000190 76 dd de bd 32 20 b9 bd cf d1 72 3e 9e 1e 28 bc
       -0.10882084 -0.09039344 0.23712848 -0.010261206
0001a0 8f a5 7c 3d 7f e5 9d bc bd fe 08 be 0b 83 d5 be
       0.061681326 -0.019274471 -0.13378425 -0.4170154
0001b0 b3 de 8e be 0d 2c 5a be a1 55 f0 bc 0d bd f2 be
       -0.2790428 -0.21305867 -0.029337706 -0.4740986
0001c0 6d 79 8f be 8d c5 35 3d 0e b6 ba be 4c 19 90 3e
       -0.28022328 0.044377852 -0.36467022 0.281443
0001d0 cb 8c 43 be 05 bc d9 3d e9 a0 80 be ab 47 89 3d
       -0.19096677 0.10631565 -0.25122765 0.06703123
0001e0 4a 05 37 3e 09 0d 97 bd 4e 42 ab bd 8a 4f ee bd
       0.17873111 -0.07375533 -0.08362256 -0.116362646
0001f0 fb f2 52 3d 96 da db bd 20 06 21 3c 44 b9 82 3e
       0.051501255 -0.10735051 0.0098281205 0.2553197

layers.5.running_var f4 [128]
000000 11 3f 59 3e e6 da 66 3e 02 07 9f 3e f6 3f 66 3e
       0.21215464 0.2254444 0.31060034 0.22485337
000010 cf a6 79 3e b6 57 7b 3e 2b 27 77 3e 86 c0 70 3e
       0.24380039 0.24545178 0.24136035 0.23510942
000020 76 8f 79 3e 4b 6d d6 3e db 92 bd 3e 86 0e 0a 3e
       0.24371132 0.4188026 0.37026104 0.13482103
000030 1e 40 c6 3e a0 8e 40 3e 7c 54 f1 3e a3 3d be 3e
       0.38720793 0.18804407 0.4713477 0.371564
000040 12 ed 74 3e 4a a0 17 3e 47 1f 4f 3e d3 fe 5c 3e
       0.2391856 0.14807239 0.20226775 0.21581583
000050 1f 92 6a 3e 08 a1 67 3e 6a d5 3f 3e 53 49 6c 3e
       0.22907303 0.22620022 0.18733755 0.23074846
000060 91 24 ad 3e 54 c7 4f 3e c4 db 39 3e 16 66 a3 3e
       0.3381696 0.20290881 0.1815024 0.31913823
000070 db f0 57 3e 91 ba 78 3e e1 fc 8e 3e 5c 5f 45 3e
       0.21087973 0.2428992 0.27927306 0.19274658
000080 5e a5 ac 3e b1 84 83 3e e2 dd 3e 3e 28 73 31 3e
       0.33719915 0.25687173 0.18639329 0.17329085
000090 09 9e ae 3e 82 60 ce 3e 68 07 af 3e f7 79 3b 3e
       0.34104946 0.40308005 0.34185338 0.18308245
0000a0 b8 d4 98 3e 5b 5f fc 3e fe 0b df 3e 3c 08 b9 3e
       0.29849792 0.492915 0.43563837 0.36139095
0000b0 0c 95 1a 3f 8e 37 95 3e 84 de 72 3e df 77 7b 3e
       0.6038368 0.29143947 0.23717695 0.24557446
0000c0 75 18 44 3e eb 02 21 3f a2 a5 58 3e 65 2d f2 3e
       0.19149955 0.6289508 0.21156934 0.47300258
0000d0 06 f4 f5 3e 5a 3d 13 3e 4c 29 07 3e d4 f2 6a 3e
       0.48037738 0.14378873 0.13199347 0.22944194
0000e0 b6 2e 90 3e e2 85 19 3e fe 54 94 3e 52 73 9f 3e
       0.28160638 0.14992478 0.28971094 0.3114267
0000f0 3e da 01 3f 71 dd 7b 3e 6b 36 8a 3e 32 a9 97 3e
       0.50723636 0.24596192 0.26994643 0.29621273
000100 09 28 b2 3e 85 0e 31 3e 2d f6 b9 3e 7c 03 11 3e
       0.3479617 0.17290695 0.3632063 0.14161485
000110 9d 9f 91 3e 58 93 64 3e 3f c5 ab 3e 96 5f da 3e
       0.28442088 0.22321832 0.33548924 0.4265105
000120 38 71 60 3e 18 20 83 3e fb 90 4f 3e c4 1b 92 3e
       0.2191819 0.25610423 0.2027015 0.28536808
000130 7c 1a 80 3e f5 6b 28 3e d3 57 41 3e 04 fb 84 3e
       0.25020206 0.16447432 0.18881159 0.2597276
000140 6a 4b 89 3e 3a 21 6c 3e 02 17 85 3e 4f 0b f5 3e
       0.2681535 0.2305955 0.25994116 0.4786019
000150 af f2 31 3e 61 a7 a9 3e 0c 93 45 3e 94 0c ed 3e
       0.17377733 0.33135512 0.19294375 0.4629866
000160 f0 7e 95 3e 27 65 68 3e 80 a6 73 3e 6d 3c 46 3e
       0.29198408 0.22694837 0.23793983 0.19358988
000170 30 3f cc 3e e8 71 43 3e 84 bb ab 3e ee 5e 9d 3e
       0.39891958 0.1908642 0.335415 0.30736488
000180 37 40 83 3e a2 9d 9f 3e 9e 1f e1 3e aa 22 ad 3e
       0.2563493 0.31174952 0.43969434 0.3381551
000190 5a 95 43 3e 02 97 47 3e 46 0d 9d 3e bb 7e 22 3e
       0.19099942 0.19491199 0.3067419 0.15868656
0001a0 dd ee 50 3e 78 b5 a6 3e 63 60 a0 3e da 9f a3 3e
       0.20403619 0.32560325 0.31323537 0.31957895
0001b0 a1 96 89 3e 4d 95 41 3e ce 8a 7b 3e 7d 88 38 3e
       0.26872733 0.1890461 0.24564669 0.18020816
0001c0 2f b8 a3 3e 5b 5c 90 3e dd 08 92 3e 1a 88 75 3e
       0.31976458 0.28195462 0.28522387 0.239777
0001d0 ca d8 c2 3e d4 48 13 3e 1f 53 ae 3e 13 d0 5f 3e
       0.38056022 0.1438325 0.3404779 0.21856718
0001e0 dc 90 62 3e e6 c4 f7 3d 2b 23 a7 3e 9c 99 8b 3e
       0.22125572 0.12098102 0.3264402 0.27265632
0001f0 00 1c a2 3e 9c 4a d1 3e 9c cd 8b 3e 2b 34 64 3e
       0.31661987 0.40877235 0.27305305 0.22285526
