models/best_fold1_hd128_do0.5.pth (torch, 118822 bytes, 20 tensors)

feature_extractor.0.weight f4 [128, 10]
00000000: 8075 723d 2fa6 9abd ec7f 82bd 4bfc 90be
00000010: 6a8b 4e3c 3491 a93d e73b fdbd e4a3 83be
00000020: fdcb 753e dd2c 4a3d 0bce bfbe a6c7 8f3e
00000030: 4549 473e 2f37 313d ec1e a0bd d065 c33d
00000040: de3d 46bd 806e 8f3e 566e 873e b48e 3a3c
00000050: 1d97 5b3d 44f6 033e 4c2f ce3d c804 85be
00000060: af68 cdbd 8aea b03c 431e 5cbe e6b2 27be
00000070: 8dd8 52be 0c73 853e 1cee c13e 0f90 423e
00000080: c2b0 603e e646 53be 687f 86be f423 153e
00000090: 957c 723e 46ab cdbc de18 3f3e 5a58 8dbe
000000a0: 5fba 9abd 1210 07bd cf8f 8c3e 793f 553d
000000b0: bfcc 36b8 8c7e fcbd 6182 173d e05a 0c3e
000000c0: 3c67 30be 56b0 133e c060 6dbe 22f8 8f3e
000000d0: 3a07 d93d bae5 b83d 5c29 073e 9b33 8abe
000000e0: 4a65 7ebe f5aa e33d 6cfa 93be a09b 31be
000000f0: 1acb babe 7d52 b1bd f6be 853d 4626 83be
00000100: 3765 313e 02a3 783e 202c 11bd 3681 80be
00000110: 995d 65bd c218 723e 6034 9c3e 814a 843e
00000120: 9842 803d 5515 dfbd f4fb a0be e885 23be
00000130: 5631 3c3e 56dc 8a3e 633f 99be 2d1c 513e
00000140: 9433 193d 86b3 9bbe dcd8 983e 8f95 963e
00000150: 5a00 8b3d 1348 4f3e 3c87 d23d 419d 5f3e
00000160: a606 313e 2a99 5bbe a2c9 93be 2893 753e
00000170: 6316 493e 1c44 313d 574e edbd 45b0 783d
00000180: 4a76 57bd 7e7a 1a3e 9954 a1bd 7926 133e
00000190: f182 733e dacc 8fbe b64f 8bbd be7d 5fbe
000001a0: 7a92 2ebd ce86 423e f4d9 d33d 1da7 57bc
000001b0: 1585 c93d 093a 25be 58c3 923e f801 0c3e
000001c0: 4b69 2abe 51c6 7d3e effa 6bbe 89e6 81be
000001d0: 902b aebb 01d0 59bd a688 113e 3e30 923e
000001e0: 4958 4e3e 25c1 873e 2ae6 0d3d 0fcc 8cbe
000001f0: 017b 8abe 0c39 2ebe 111a 4b3d b36a 3ebb
00000200: 5994 65be 894a 713c 8940 3f3e 262b 993e
00000210: a8a0 863e 2425 873e f6e4 b539 87e9 623e
00000220: 2820 083e bbe9 263e 6e3a 88ba 9497 3a3e
00000230: e90e 83bd 3a5d 343e fae0 403e 6920 b33c
00000240: c619 8bbe d50f 933d bf8b e0bc 4145 983e
00000250: e0bc 6f3e fb0b 88bd 2153 4dbe f42b 863d
00000260: 3928 333d 4bd6 6a3e e2bd 973d d674 8d3e
00000270: 3674 0bbd 49c8 03be cfa4 053d 0e0a 713e
00000280: d1a5 2e3e 0101 6b3e bc48 83be 2e13 a0be
00000290: 7f98 19be 04ce 17be 0170 573e 8473 16be
000002a0: 2faa e7bd 8556 38be 2afd d73d aa5b 743d
000002b0: ab33 91be a1ed 6dbe ed8e b13d ac7a 623e
000002c0: 3127 603c 9824 983c 605b 763c 8380 3cbe
000002d0: 4d78 4dbe e687 46be 743f abbd e04f 3c3e
000002e0: 8f6f 9e3e 3017 68bd 062a 88be 47be 01be
000002f0: bcfa 02bc a7b1 a23d 193f acbe e6ca 04be
00000300: e36a d13d 7335 803e 4468 573e bcf5 6f3e
00000310: fa91 253d 6d88 ec39 2572 47be ca6e 8d3b
00000320: a3f5 90be 77a1 81be 69e2 02be fae8 283e
00000330: a9b3 26bd 3ed2 19be 3297 893e 67ec 903d
00000340: 3407 253e 0fa9 423c 8ede a93e b960 1cbe
00000350: 2b99 b03c 36a9 e8bd 3719 e03d 52c9 44be
00000360: e352 48bd afe4 51be ed5d ba3c c0ad 3bbe
00000370: d23f e43c eb88 c2bd a2fe 95be eea1 1cbe
00000380: 044a 90be d514 6f3e 3637 cdbd 3897 afbd
00000390: 698f 1ebe dc49 63be 7c5d 95be bc5d 0ebe
000003a0: 3b52 15be 655d 983d ab8d 38be b92a 83be
000003b0: f577 123d c777 66bd 0ed5 88bd f948 a63e
000003c0: 3425 993e 1fe7 a03e 011a 8c3e 5e0a ccbd
000003d0: b030 803e 1e35 743e acc9 2d3e 38dc 813d
000003e0: 29e5 a03d 24cc 65be cb52 2fbe e628 07be
000003f0: 20a8 90bd 09d0 803d a9e6 25bc 9056 803e
0.059194088 -0.07551228 -0.063720554 -0.28317484 0.012606481 0.082796484 -0.12364941 -0.25710976
0.24003597 0.04935919 -0.37461886 0.28082007 0.19461544 0.043265518 -0.07818398 0.095409036
-0.048398845 0.28013992 0.26451367 0.011386562 0.05361091 0.12886912 0.10067615 -0.2598021
-0.100297324 0.021596212 -0.21495919 -0.16376838 -0.2059042 0.26064336 0.37876976 0.19000266
0.21942428 -0.20632514 -0.26269078 0.14564496 0.23680337 -0.025106084 0.1866183 -0.2760647
-0.07555079 -0.03297431 0.27453467 0.052062485 -4.3582866e-05 -0.123288244 0.036989573 0.13706541
-0.17226881 0.14422736 -0.23181438 0.28118998 0.105970815 0.09028192 0.13199371 -0.26992497
-0.24843326 0.11116592 -0.28901994 -0.17344522 -0.3648308 -0.086583115 0.065305635 -0.25615138
0.17323767 0.24280933 -0.03544247 -0.2509858 -0.055997465 0.23642257 0.3050871 0.25838092
0.06262702 -0.10892741 -0.31442225 -0.1596905 0.18378195 0.27121228 -0.29931173 0.20420904
0.037402704 -0.30410403 0.2985295 0.2941098 0.067871764 0.20242338 0.102797 0.21837331
0.17287692 -0.21445146 -0.2886477 0.23981917 0.19637446 0.043277845 -0.11587208 0.06071498
-0.052603044 0.1508579 -0.07877464 0.14370145 0.23780419 -0.28085977 -0.06802313 -0.2182531
-0.04262016 0.18996736 0.10344306 -0.0131624015 0.098398365 -0.1613542 0.2866466 0.13672626
-0.16641729 0.24782683 -0.23044942 -0.25371197 -0.0053152516 -0.053176884 0.14212283 0.2855243
0.20150866 0.26514545 0.03464333 -0.27499434 -0.2704697 -0.17013949 0.049585406 -0.0029055297
-0.22419871 0.014727243 0.18676962 0.29915732 0.26294446 0.26395524 0.000346936 0.22159396
0.13293517 0.16300099 -0.001039339 0.18221885 -0.06399328 0.17613688 0.18835822 0.02186604
-0.271681 0.07180754 -0.027410386 0.29740337 0.23411894 -0.0664291 -0.20051242 0.06551352
0.04373953 0.22933309 0.07409264 0.276282 -0.034046374 -0.12869371 0.032627877 0.23538992
0.17055441 0.22949602 -0.2564143 -0.31264633 -0.14999579 -0.14824682 0.2103882 -0.14692503
-0.11311757 -0.18001755 0.10546334 0.05965773 -0.28359732 -0.2323518 0.08669839 0.22117108
0.013681219 0.018572137 0.015036434 -0.18408398 -0.20065422 -0.19387779 -0.08361712 0.18389845
0.30944487 -0.05666274 -0.2659456 -0.12670241 -0.00799435 0.07944041 -0.3364189 -0.12968025
0.10225465 0.2504078 0.21035868 0.23433584 0.040422417 0.00045115073 -0.19477136 0.0043161856
-0.28312406 -0.253185 -0.12781681 0.16495124 -0.04069868 -0.15021607 0.26873165 0.0707634
0.16116029 0.011881127 0.33177608 -0.15271272 0.021557411 -0.113603994 0.10942309 -0.19217423
-0.048907172 -0.20497392 0.022749865 -0.18327999 0.027862463 -0.09498771 -0.29295832 -0.15296146
-0.2818147 0.2334779 -0.10020296 -0.085737646 -0.15484394 -0.22196144 -0.29172885 -0.13902944
-0.1458215 0.074396886 -0.18022792 -0.25618532 0.03575893 -0.056266572 -0.06681262 0.3247755
0.29911196 0.3142633 0.2736359 -0.09962915 0.25037146 0.23848388 0.16971463 0.063408315
0.07856209 -0.22441155 -0.17121427 -0.13199195 -0.07063317 0.062896796 -0.010125794 0.25066042

feature_extractor.0.bias f4 [128]
00000000: 26ef a13e 9235 85be ef1e 53be d494 5d3e
00000010: e75a 72be cb2e 6bbc 2ee7 f0bd 869b 473e
00000020: 519f 0ebe b23b 3ebd 1127 21bd 9c8f 8fbe
00000030: 30f6 8d3e 7be9 9fbd 8c3a 05bd 69ed d13c
00000040: 74fb 973e aedc 11bd 8912 863d 724e 1a3e
00000050: f486 29be 3786 9f3e f040 0dbe d1ab 68be
00000060: b207 373e a953 ed3c d438 713e f97e 13be
00000070: fe27 8b3e 4cc2 b03d 5316 123e c24d ebbd
00000080: 911c 3f3e 023f f3bd 2308 9a3e 312a 8dbd
00000090: f50b 433e 934b aa3d 1e22 6cbd f7a2 a23d
000000a0: 39ac 04be 5276 2b3e 3915 91bd 937c 98be
000000b0: 5fdf 163c 8ff5 5cbe c33e 85bd f98e ab3d
000000c0: 41c9 533d fd45 fd3d 86c3 1b3d 99dd 2dbe
000000d0: 2348 853e 82ab 63be 7d52 493e 563f 5d3e
000000e0: 2634 4cbc f0e3 2ebe de6e 23be e144 ab3b
000000f0: 2a90 1dbe 98c2 7d3e 27cf 8a3c 4b4f 973d
00000100: 9d60 51be ddac 83be 33bd 423e 0e17 6d3c
00000110: 54a9 6f3e c691 733e 3f64 4bbe 0243 433e
00000120: 2d04 48be 9533 cabd 9a42 91be 4a1e 4e3e
00000130: c3fe b1bd 5939 373e c3be fabd 2f93 433e
00000140: 9e8e dcbd fab9 753e f78c dfbd 894d 86be
00000150: 5271 c5bd f136 1e3d e1a1 253e 30e3 5ebe
00000160: 73d9 ad3d 3130 9fbe 8108 88be 4c2d 22be
00000170: 6472 803e 3f6c dcbd 6963 18be 65c7 97be
00000180: 170c 953e 7cb2 5fbd 6cba c33d f25a 69be
00000190: 2d49 353d a725 8cbe 45d1 753d ac35 583e
000001a0: aa71 2a3e aa91 02bc 5b98 61be 17d8 25be
000001b0: b6c5 783e de7e 0d3e 35fd 823d 067c f1bd
000001c0: 7650 1bbd a0be 31be 8821 b73d 9990 91be
000001d0: 73d1 163e e2e4 96bc 76bb 00be 3664 1ebe
000001e0: b755 4b3e ef35 5bbd 56fa 38be 6f8a 99be
000001f0: 8857 1c3d c774 53be c9b3 ea3d 1c79 d9bd
0.31627768 -0.26017433 -0.20617269 0.21638805 -0.23667489 -0.014354418 -0.11762844 0.19492921
-0.13927962 -0.04644365 -0.039343897 -0.28039253 0.2772689 -0.07808205 -0.032526538 0.025625901
0.2968403 -0.035610847 0.06546504 0.15068987 -0.16555387 0.31157085 -0.13794303 -0.22721793
0.1787403 0.028970556 0.23556834 -0.14403905 0.2717895 0.08630809 0.14266329 -0.114894405
0.18663241 -0.11877252 0.30084333 -0.06892813 0.1904753 0.08315196 -0.057649724 0.07941239
-0.12956323 0.16744354 -0.07084126 -0.29782543 0.009208529 -0.21578048 -0.065061115 0.08376879
0.051705603 0.12366865 0.038028263 -0.16979064 0.26031598 -0.22233394 0.19660373 0.21606192
-0.012463605 -0.17079139 -0.15960261 0.005226717 -0.15387025 0.24781263 0.016944481 0.07388171
-0.20447011 -0.25717822 0.19017486 0.014470829 0.23404437 0.23786077 -0.1986246 0.1906853
-0.19532843 -0.0987312 -0.28371125 0.20128742 -0.0869117 0.1789297 -0.12243416 0.19099115
-0.107693896 0.23996726 -0.10915559 -0.2623103 -0.09640755 0.038626615 0.16175033 -0.21766353
0.08488741 -0.31091455 -0.26568988 -0.15837592 0.25087273 -0.10762834 -0.14881672 -0.29644313
0.29110786 -0.054613575 0.095570415 -0.22788599 0.04425924 -0.27372476 0.060014028 0.21114224
0.16644922 -0.007969299 -0.22030775 -0.16195713 0.2429417 0.13817927 0.06395952 -0.11791234
-0.03791853 -0.17357874 0.089419425 -0.28430632 0.14728336 -0.018419687 -0.1257151 -0.15467915
0.19856916 -0.053518232 -0.18064246 -0.2998843 0.038169414 -0.20650016 0.114600725 -0.10618803

feature_extractor.1.weight f4 [128]
00000000: e1b3 7d3f b0e0 7c3f 364d 7a3f 5d79 803f
00000010: 624f 7e3f dc44 803f 5c8f 803f ad3e 783f
00000020: 776a 7a3f e043 843f 707e 793f 59eb 823f
00000030: 85f0 803f 44ba 7a3f 2185 763f bc47 7e3f
00000040: feb3 743f b523 783f 862b 7e3f 8d24 7d3f
00000050: 7fd8 803f db70 853f 95fc 773f 63ba 853f
00000060: 0ae3 7a3f e815 7e3f 5e74 813f 5e8f 8a3f
00000070: c6c8 7b3f 0834 793f e939 7f3f cb25 863f
00000080: 982a 803f 2de7 7e3f 8716 813f 3b1b 823f
00000090: f94e 7e3f cec8 883f 8aec 823f fcc0 843f
000000a0: 3689 763f ae9f 803f e13c 863f 673e 843f
000000b0: e1ff 7a3f 6aad 833f 5219 7a3f 8fa7 7a3f
000000c0: 28ca 823f 418b 863f ee7d 7a3f 32aa 7b3f
000000d0: 4251 833f 5946 7f3f 9ef5 7e3f 5bce 7b3f
000000e0: 96d2 773f 4353 7c3f 5ead 833f f2f2 7b3f
000000f0: cee3 7a3f 342a 803f 2b12 863f 115d 793f
00000100: 1f0f 823f 3537 793f 2237 823f 532a 783f
00000110: fd82 7c3f e230 813f f066 823f 61a0 783f
00000120: b91d 833f 87e9 863f ca58 7f3f dc91 783f
00000130: aa15 7d3f e88b 803f 7c4f 7b3f a0d1 803f
00000140: 9b09 883f b49d 7c3f 2b5c 843f 1996 7c3f
00000150: 0319 7d3f 3c7e 7d3f 5b19 7c3f 6cf5 823f
00000160: 9916 7c3f a35c 763f dc2f 7d3f c372 863f
00000170: aae2 783f 0d12 7b3f 5f5e 7e3f faa7 833f
00000180: 9c27 783f 28df 773f adf9 843f ae20 833f
00000190: fc7a 763f 2afd 7e3f 5f0b 773f 4cb9 8c3f
000001a0: a933 7b3f dcce 7c3f 4ed0 7b3f 2691 803f
000001b0: 3e77 803f b248 763f 3b8b 7c3f 8fe0 7b3f
000001c0: 8882 783f fab1 7a3f 001b 873f 8e92 7a3f
000001d0: 1512 7c3f 45c4 7e3f 209e 7c3f c785 7b3f
000001e0: 9347 783f 6fe8 773f b3ca 803f 602d 813f
000001f0: cdc9 7c3f e17f 7d3f 2618 7b3f f193 773f
0.991026 0.98780346 0.97774065 1.0037037 0.9933988 1.0021014 1.004375 0.96970636
0.978187 1.0333214 0.97458553 1.0228072 1.0073401 0.9794047 0.9629689 0.9932821
0.95587146 0.96929485 0.9928516 0.988839 1.0066069 1.0425066 0.96869785 1.0447506
0.98002684 0.99252176 1.0113637 1.0825002 0.9835323 0.9734502 0.9969774 1.0480283
1.0012999 0.99571496 1.0085 1.016456 0.9933925 1.0686281 1.0228436 1.0371394
0.9630312 1.004873 1.0487329 1.0331544 0.9804669 1.0287297 0.97694886 0.97911924
1.0217943 1.0511247 0.97848403 0.9830657 1.0259173 0.99716717 0.9959353 0.9836175
0.96805704 0.9856455 1.0287282 0.9841758 0.9800385 1.0012879 1.0474294 0.97407633
1.0160865 0.97349864 1.0173075 0.9693958 0.9863737 1.0093043 1.0187664 0.9711972
1.0243446 1.0540017 0.99744856 0.97097564 0.9886118 1.0042696 0.9816816 1.0063972
1.0627931 0.98678136 1.0340627 0.9866653 0.9886629 0.99020743 0.9847619 1.0231147
0.9847198 0.962351 0.9890115 1.0503772 0.9722086 0.9807442 0.9936275 1.0285637
0.9693544 0.96824884 1.0388695 1.0244348 0.9628141 0.9960505 0.96501726 1.0994048
0.981257 0.9875314 0.9836472 1.0044296 1.003639 0.96204674 0.9864995 0.98389524
0.97074175 0.9792782 1.0555115 0.97879875 0.9846509 0.99518234 0.9867878 0.98251003
0.96984214 0.9683904 1.0061859 1.0091972 0.98745424 0.9902325 0.9808372 0.96710116

feature_extractor.1.bias f4 [128]
00000000: d43c 95bc 6740 343a c458 aebc e9dc d03b
00000010: 3101 e2bc bb61 c9ba 9891 43b9 d444 5ebc
00000020: 55c4 a5bc 6e65 323c 6fde efbc e3f3 753c
00000030: 1aea 0b3c cdc7 463d 6d24 fbbc 377d 46bc
00000040: 926a 0ebd 9b53 02bd df70 a1bc 6372 9a3c
00000050: 9a56 193b 0697 813d 7031 4fbc 6ebe 8b3d
00000060: bcca 9bbb fe01 9bb9 fe82 4e3d e119 f43c
00000070: b2fa c5bb 93e7 cbbc 14ea 28bb 51ef 103d
00000080: 066d e13b e5ab cebc 2fb5 0cbb 9d1f c1ba
00000090: eb72 6bbc 1093 8c3d 07c3 8b3a 5e94 063d
000000a0: 09d6 c0bc 284a 9bbb 5a9a 583d f4e1 e13c
000000b0: 732d 283b 9437 123c b9ab 71bc 9436 bebc
000000c0: 1a3d f53b e9ae 37bc e0e2 99bc d89e dbbc
000000d0: e426 8e3b 0158 30bc 0014 c6bb 2bed 5d3c
000000e0: adaa c0bc 9b95 a2bc 6caf 033d 3924 6fbb
000000f0: 6d75 a4bc 2699 07bc 1778 223d 9c64 a5bc
00000100: 6f6d 003c 9987 ccbc f856 a03c 6490 dfbc
00000110: 7131 fdbb 493f 013d 7091 3e3d e8ab 57bc
00000120: 5235 15bb 188d bf3c 24aa c43c 6bd3 93bc
00000130: ee82 b0bb 8c06 c9ba b16a cbbc abff bdbc
00000140: a965 2f3d 517a 82bc eb9c 303d 502a f5bc
00000150: a235 cbbb ee8d 53bc c38c 293c b328 ca3c
00000160: 67f7 2fbc 53aa d5bc 56bb 34bb 5812 ce3b
00000170: 53e5 dabc ea54 b9bc bcba 5539 0314 c93c
00000180: c9a5 8bbc c47a 2fbd 2d0e 163d c2fa 563c
00000190: 8d45 3cbd 32ed cf3b d78a 18bd 6480 453d
000001a0: 326d aabc 8c59 a3bc 1679 debb 6aea 83bb
000001b0: e40b 0d3d 3ccf edbc 0709 16bc f44f c0bb
000001c0: c75b 0bbd 3422 6b3c 7d7d 813d 0f8f 74bc
000001d0: b461 d63a acbb 813c 0ae8 2fbc 00ce e1bb
000001e0: 2463 b6bc 69bd afbc a542 f23c e6b6 b7bc
000001f0: c038 323b c37d 0cbc df62 0b3a 8a85 d9bc
-0.018217482 0.0006876052 -0.021282561 0.006373991 -0.027588459 -0.0015364209 -0.00018650887 -0.013566215
-0.02023522 0.010888441 -0.02928087 0.01501176 0.008539701 0.04853039 -0.030657018 -0.0121148145
-0.034769602 -0.031818014 -0.019707141 0.018853372 0.0023397566 0.063276336 -0.012646064 0.06823431
-0.0047543924 -0.00029565388 0.050417893 0.029797496 -0.006041848 -0.024890697 -0.0025774287 0.03538448
0.0068794517 -0.02522845 -0.0021470299 -0.0014734153 -0.01437066 0.068639874 0.0010662981 0.032856338
-0.02353956 -0.0047390647 0.052881576 0.027573563 0.0025661855 0.008924384 -0.0147504145 -0.023219384
0.0074840905 -0.011211135 -0.01878494 -0.026809141 0.004338132 -0.010763169 -0.0060448647 0.013545315
-0.023518885 -0.019846728 0.032149717 -0.0036490096 -0.020075524 -0.0082762595 0.039665308 -0.020189576
0.007838591 -0.024967002 0.01957272 -0.02729053 -0.007726841 0.031554494 0.04652542 -0.013163544
-0.0022767377 0.023382708 0.02400691 -0.018045148 -0.005386702 -0.0015337034 -0.024831148 -0.023193201
0.04282156 -0.015927466 0.0431184 -0.029927403 -0.006201462 -0.012912257 0.010348502 0.02467761
-0.010740138 -0.026082193 -0.0027577481 0.006288808 -0.026720678 -0.022623498 0.00020382827 0.024545675
-0.017046826 -0.042841688 0.036634613 0.013121309 -0.045964766 0.0063454146 -0.037241783 0.048218146
-0.020804022 -0.01994016 -0.006789337 -0.004025747 0.034435168 -0.029029481 -0.009157426 -0.005868906
-0.034023073 0.014351416 0.06322763 -0.014926686 0.0016356022 0.01583656 -0.010736475 -0.006891012
-0.02226407 -0.021452622 0.029572794 -0.02242608 0.002719447 -0.008574906 0.0005317162 -0.026552934

feature_extractor.1.running_mean f4 [128]
00000000: f2dd b23e b4a6 ffbe 9f18 1cbe c248 af3e
00000010: dc14 7ebe 9017 0abe 451b 49be 01c5 893e
00000020: 07f7 c1bd 7ebf 41be 582d 763d fb7b 3dbe
00000030: eeb3 a23e 318d 083d 9087 1abe 78fd 2d3c
00000040: 9e52 a23e 7fc8 c0bc 3e4c 223d 10bc b93d
00000050: be24 a0be 1939 f73e 9d4b 1dbe 84d2 b8be
00000060: dbdb a73e 6c34 85bc 9478 e43e a32f 83be
00000070: 122a 7c3e 63fd 433d cb7f 983e e63d 6fbe
00000080: 11b0 2a3e 8cac 64bd 7046 bf3e c124 3ebe
00000090: fc51 763e aa03 95bd ffc9 55be 2a06 f1bd
000000a0: 656e 29be 80ed 733e 1878 cc3d 2a8f f5be
000000b0: dbb3 c93d bb68 cfbe 9eb7 c6bd 501e 843d
000000c0: da9e b1bd 0424 f3bb 2ae5 cf3c e5bf efbd
000000d0: 720d eb3d 28f5 9cbe f55c bf3d 5022 ccbb
000000e0: 8928 bfbd cb3d 87be 1615 afbd 56c3 b53d
000000f0: 0454 c8bd 26d2 c53e 855d 6c3e 6a15 b73d
00000100: 54cf b2be c983 5dbe 3b9c ac3e 35a0 003d
00000110: bc91 7f3e b6c9 ef3e d34c 25bd a6c2 b53d
00000120: bcf6 bfbe 523d 71be c919 c1be 3cb6 5a3e
00000130: 0e84 0bbe 68e4 193e bd5b 9fbd f68e 8e3d
00000140: 2c9e 8ebe ed1b 4b3e e5f4 ba3c ddbe b6be
00000150: 1972 55bd 469d fc3d c73a 653d 8cbf ccbd
00000160: 3e62 b43d 4361 ccbe e2e7 4abe 7a1b d2be
00000170: 5311 a03e 707f 87be c3c9 43be beb1 28be
00000180: 5415 c63e 0e77 a9bd 5aea 2c3c 289c b0be
00000190: a654 3abd 7220 d0be 1c85 223d 13a0 8e3d
000001a0: b9da 5f3e 3d29 45be 0747 9cbe bd9e 46bc
000001b0: 09e8 b63e f8aa 0e3e a364 8fbc 3213 1abe
000001c0: 1f5a d3bd 3551 f1bc 3567 5d3e 091b 9cbe
000001d0: e727 8e3e 13c0 893d d04d 31be 8f04 c4bd
000001e0: e893 923d 037b b8bb f9d5 743c 42fd ddbe
000001f0: 6979 91bb a00f e7bd cf98 5e3c 0e58 babc
0.34934956 -0.49931872 -0.15243767 0.34235197 -0.24812645 -0.13485551 -0.19639309 0.26908115
-0.09470945 -0.18920705 0.060101837 -0.18504326 0.317779 0.033337776 -0.15090775 0.010619514
0.31703657 -0.023533104 0.03962349 0.09069073 -0.31278032 0.4828575 -0.15360875 -0.3609811
0.32784924 -0.016260348 0.44623244 -0.2562228 0.24625424 0.04784907 0.29784998 -0.23363456
0.16668727 -0.055828616 0.37358427 -0.18568708 0.24054712 -0.072760895 -0.20877837 -0.11768754
-0.16546018 0.23821068 0.099838436 -0.47960788 0.09848758 -0.4050959 -0.09702991 0.06451094
-0.08672877 -0.007420065 0.025377829 -0.11706523 0.11477174 -0.3065579 0.09343902 -0.0062296763
-0.09333903 -0.26414332 -0.08548944 0.08875148 -0.0978165 0.38636893 0.2308255 0.08939631
-0.34923804 -0.21632303 0.33712944 0.031402785 0.24957937 0.4683358 -0.04035647 0.08875017
-0.3749293 -0.23558548 -0.37714985 0.2135858 -0.13624594 0.15028536 -0.077811696 0.069608614
-0.2785505 0.19834872 0.022821853 -0.35692492 -0.052110765 0.12334685 0.055964258 -0.09997472
0.08807801 -0.39917955 -0.19815019 -0.41036588 0.31263217 -0.26464415 -0.19119935 -0.16474053
0.38688147 -0.08274661 0.010553921 -0.34494138 -0.045490883 -0.40649754 0.039677724 0.069641255
0.2186078 -0.19254012 -0.3052294 -0.012122807 0.35723904 0.13932407 -0.017504042 -0.15046385
-0.103199236 -0.029457668 0.21621402 -0.30489376 0.27764818 0.067260884 -0.1731484 -0.09571182
0.07157117 -0.0056298985 0.014943593 -0.43357283 -0.004439522 -0.11282277 0.013586237 -0.022747066

feature_extractor.1.running_var f4 [128]
00000000: 3b72 613e 39e2 b73e a563 813e 3b4a 163f
00000010: 39b2 e53d a948 a43e 1cd2 033f f7f5 763e
00000020: 4fc3 aa3e f8fa 4f3e 18a1 343e 5cc5 8c3e
00000030: 1e44 d13e f8ca 193f c685 2b3e 1ece ed3e
00000040: a44d 0c3f 57ce 413e 4231 5b3e dfe2 0b3f
00000050: 55b6 ca3e 3dbc d53e 3566 763e 7a63 343e
00000060: 22a6 da3e 7b0e 823d 6079 c93e 57ad 913e
00000070: 6c25 773e d592 c33e 5176 4c3f 65a4 763e
00000080: 711f 8c3e 591d 573e b663 8d3e b246 823e
00000090: 3b05 9d3e 7cb8 123f b2d7 813e 8a4e 8f3e
000000a0: 3e94 163f 569f 2c3e 651d 8a3e b60b bd3e
000000b0: 3a82 ae3e e700 e03e 4582 a93e df26 6a3e
000000c0: 49b7 5c3f 1cc5 843e c752 dc3e 6ccc 003e
000000d0: a877 1a3f fe05 5d3e bccc c13e 99a7 b33e
000000e0: 7133 863f 812c 063f 4d39 1b3e 30e0 503e
000000f0: f7ad 8c3e 635d b53e 77d5 ec3e 4261 2e3e
00000100: 7a83 8f3e ac93 d73e fe5b 4f3e 721f bf3e
00000110: 5ea5 903e 2c1a c53e d3c0 3c3e a150 fd3d
00000120: 9e90 a13e c299 593e f8aa c03e 8be9 253e
00000130: 5a19 d53e eb75 9b3e 102c 9c3e ca14 9b3e
00000140: e7ae 9c3e bb4e 183e ba62 a53e d9ef 083e
00000150: 89f2 7f3d c864 b83e 5cfe 463e 5d2e 403f
00000160: 5abc a13e 2e03 fe3e 3a59 bc3e 7dc9 cf3e
00000170: 31d0 243e 1b55 783e a5cd 193e 32d4 543e
00000180: 9608 5d3e f04c f83e c504 3f3e 39bb 8a3f
00000190: aed0 f33e 97d1 f33e 8297 863e ffa0 ff3d
000001a0: 8aa9 1e3e 95de e43e 9fe3 cc3e bbb3 6a3e
000001b0: 8dfb 353e bdbf c73e 551e 7c3e 5573 2c3f
000001c0: 91fb c03e c190 2a3f 27e8 3d3e ff5c 473f
000001d0: c3d7 5d3f 167f ba3e b6dc 693e 5cca 393e
000001e0: f47b 873e a5d7 a63e 7b5d a33e 83c8 073f
000001f0: a134 9e3e bbe6 253f eb2c 503e 910c 8d3e
0.22016232 0.35914782 0.25271335 0.58707017 0.11215634 0.32086685 0.51492476 0.24117266
0.33352134 0.2031058 0.17639577 0.27494323 0.40872282 0.6007533 0.1675025 0.46446317
0.5480597 0.18926369 0.21405509 0.5464305 0.39592233 0.41745177 0.24062426 0.17616072
0.42704874 0.06350418 0.39350414 0.2845256 0.24135369 0.3819796 0.79868037 0.24086149
0.27367738 0.21007289 0.27615136 0.2544456 0.30668053 0.5731275 0.25359875 0.27989608
0.5881995 0.16857657 0.2697555 0.36922997 0.3408373 0.43750688 0.331072 0.2286639
0.8621717 0.25931633 0.43031904 0.12577981 0.6033883 0.21584317 0.37851512 0.35088804
1.0484449 0.5241166 0.15158577 0.2039802 0.27476475 0.3542281 0.4625661 0.17029288
0.28029996 0.42104852 0.20249936 0.37328678 0.28251165 0.3849653 0.18432932 0.12368894
0.31555647 0.2125006 0.3763044 0.16202371 0.41620904 0.30363402 0.30502367 0.30289298
0.3060219 0.14873783 0.32301885 0.13372745 0.06248716 0.3601439 0.19432968 0.75070745
0.31589013 0.496118 0.36786824 0.4058341 0.16095044 0.24251215 0.15019853 0.20784071
0.21585307 0.484962 0.18654163 1.0838386 0.47620147 0.47620842 0.26287466 0.124818794
0.15494362 0.44701067 0.4001741 0.22920124 0.1777174 0.39013472 0.24620946 0.6736348
0.3769193 0.66627127 0.1854559 0.77876276 0.8665735 0.36425084 0.22838101 0.181436
0.26461756 0.325864 0.31907257 0.5304033 0.30899528 0.6480519 0.20329635 0.2754865

feature_extractor.4.weight f4 [128, 128]
00000000: bda5 c23c 4a4b 4e3b ac4b 95bd 3600 9cbc
00000010: 798a 90bd 9570 a13c bdc9 043d b697 b7bd
00000020: 99df 143d 318d 0abd 67a5 8c3c 50e7 c43d
00000030: 6dd6 703d dc1d e53c 5f15 293c 020f 59bd
00000040: 5d45 bebd 25c3 27bc 8c9a e8bb 15a2 63bd
00000050: 1fb9 d1bc 8ab9 b1bc 64f6 90bd d58f 37bd
00000060: 3b14 0abd 19a8 b6bd 9a6f bcbc aa92 2a3c
00000070: 3429 c1bd e410 3ebd 7b9e b0bd d5d2 573c
00000080: c631 eabc f90e 973d e0bc 743d 76eb b53c
00000090: 87ab 3c3d 51d0 95bc 160f 8bbd 12d6 64bd
000000a0: 3a7a 5cbd 9d41 13bd aeea 703c 51f9 bebd
000000b0: 3672 813d 8d8d bebd 6e69 4dbd c0ab cabc
000000c0: 6265 5dbd d132 29bd 7c60 1fbd 1097 913d
000000d0: 3939 b4bc f96d 05ba b9a3 c63c 4319 2cbc
000000e0: a937 ef3c db5b 65bd cb36 cb3c 0cc3 513d
000000f0: 7abe 8b3d cac6 3dbd 0378 16bd 37dd 493d
00000100: b6ed 313b f4c9 babc a2c8 943d 3b54 5e3d
00000110: d500 483d 9fff 9d3c 8103 653d 20eb 123d
00000120: 0551 d5bd b880 053d c097 313d 2293 61bd
00000130: 9da9 803d 339e 403d be2b 91bc 5325 1e3d
00000140: 7c1b 023d bd8e 63bc 0210 5d3d a610 9ebc
00000150: c847 b33d bed6 623d 4683 853d 13a1 8abd
00000160: 2cef 07bd 0a65 a93d 8e44 52bc ad28 a6bd
00000170: 0b1c 883d e9de 93bd 977d a7bd ae68 333c
00000180: 915f 9c3b 0e46 78bd fddb a63d a24d 2a3d
00000190: a2b6 85bd f7cb 33bd 0d6a 24bc a571 c53b
000001a0: ce32 b9bd b25d 28bd 8280 37ba 6b12 ccbc
000001b0: 548f 00bc 4acf 253d 351e 0dbd be77 0fbd
000001c0: 4817 79bc de36 7bbc ff2e 213d 9d2d 84bd
000001d0: 94be fa3c 1973 12bd d93f 13bd f895 cc3c
000001e0: f470 683d 2785 083d d15d 943c 57bd 133c
000001f0: 9769 7fbd 8d28 d53c d7b5 6bbc 570b 593d
00000200: e05f 983b 43d4 873d 5394 0ebd 42d9 50bd
00000210: 1948 823b 81d1 cebc d74e e8bc 9b7c 533d
00000220: 5684 12bd a9c6 3cbd 02aa 82bd 50f3 41bd
00000230: 4fe5 84bd d401 c13c 3f81 92bd 9a01 c2bd
00000240: 7666 6bbd 238d 3b3d 8c40 1fbd cd87 46bc
00000250: db23 913d 8802 a93d e74e 7abd 2cb4 953d
00000260: ff5c 943c 261c 0d3d e400 79b9 adef a43d
00000270: 6589 a5bd 1772 bfbd 766f 243d 2bcb 983b
00000280: 37aa 353d 8435 83bd 8d73 26bd 3921 d1bc
00000290: 5f1d 80bd acce b6bd f103 83bd 55e0 523b
000002a0: 0e50 f03c b13c 403c 85c6 913d 94e0 273d
000002b0: 0779 6b3c f48e bbbc d677 433d d04e e0bd
000002c0: 6eee 94bd bc1e 80bd 42b0 5fbc 12ce 753d
000002d0: acee 113c d7b6 0a3d 33bd 8fbd 3060 d9bc
000002e0: 99b6 11bc b530 6e3d fd97 453d 0a2e ab3d
000002f0: 8749 ab3d 921a 273d d047 6c3c 12df 2cbd
00000300: a6a7 a03d a939 823c 855f 82bc b714 68bd
00000310: fd00 86bb bd7c bf3c ea5d 603d 895c 59bd
00000320: 96f2 853d 7a58 5cbc 6689 a23c f4fe 693d
00000330: f681 9cbd 61ef 303c 06c2 4d3d 1cd4 b9bd
00000340: 6210 77bc bf56 aebd 4230 6ebd 7132 173c
00000350: ff30 a53c c3e7 713d efd2 39bd 788a d43b
00000360: 859f a93d fba0 0a3d e1dc cdba d8fa 27bd
00000370: bd78 9b3d 3f48 2d3d 2495 92bd d9da a4bd
00000380: 570d 61bd 93c0 54bd 6fcd 8a3c ba4b 603d
00000390: 0ee6 b03c 5af5 573c 6430 e23c b99d ca3d
000003a0: b347 493d 6427 8d3d 47ee d6bc f79d 83bd
000003b0: ab4c bebb 2bd9 a4bc b23e ccbd d4b5 c43d
000003c0: ab41 3cbc 8987 823d 6bba 61bd 3960 2f3c
000003d0: 8c7c 15bd 1480 933d ad45 6d3d 2101 bcbd
000003e0: 30be 0bbd 8e7e 963d 9493 1a3c c3d6 48bc
000003f0: 33f3 51bc cf34 02bd 0409 ce3d 8943 083d
0.02376067 0.0031477981 -0.07289824 -0.01904307 -0.070576616 0.019707004 0.032418955 -0.089644834
0.03634605 -0.033826057 0.017168714 0.09614432 0.058798242 0.02796834 0.010320037 -0.05299283
-0.09290574 -0.010239397 -0.0070985015 -0.055574495 -0.025600968 -0.021694917 -0.07078245 -0.044814903
-0.0337107 -0.08918781 -0.023002435 0.010410944 -0.09431687 -0.046402827 -0.08623978 0.013172825
-0.028588187 0.07375903 0.059750438 0.022207003 0.04606202 -0.01828781 -0.06789987 -0.055868216
-0.0538275 -0.035951246 0.0147043895 -0.09324897 0.06320612 -0.093043424 -0.050149374 -0.0247401
-0.054051764 -0.041308228 -0.038910374 0.07108891 -0.021999942 -0.00050899346 0.02424799 -0.01050407
0.029201346 -0.055995803 0.0248064 0.0512114 0.0682344 -0.04633216 -0.036735546 0.049283233
0.0027149743 -0.022801377 0.0726483 0.054279547 0.04882892 0.019286929 0.055911545 0.035868764
-0.10415844 0.03259346 0.04335761 -0.055071957 0.06282351 0.04702587 -0.017721053 0.038609814
0.031764492 -0.013889012 0.053970344 -0.019295048 0.087539256 0.055380575 0.06519179 -0.06769004
-0.033187076 0.08271225 -0.0128337275 -0.08113227 0.06645974 -0.07220251 -0.08178251 0.010950251
0.0047721346 -0.060613684 0.08147428 0.041577943 -0.06528975 -0.043895688 -0.01003505 0.0060255104
-0.09042893 -0.04110498 -0.0007000045 -0.024911126 -0.007846672 0.04048089 -0.034452636 -0.035026304
-0.015203305 -0.015332906 0.03935146 -0.064540125 0.030608453 -0.035754297 -0.03594956 0.024973854
0.056748345 0.03333011 0.018111141 0.00901731 -0.062356558 0.026020313 -0.014386616 0.05298933
0.004650101 0.066322826 -0.03480942 -0.050988443 0.00397588 -0.025246384 -0.028357906 0.051632505
-0.035770737 -0.046087895 -0.06380083 -0.04735118 -0.0648905 0.023560442 -0.07153558 -0.09472962
-0.05747076 0.045788895 -0.038879916 -0.012117338 0.07086917 0.08252436 -0.061110403 0.07309756
0.01811075 0.034450673 -0.00023746822 0.08053527 -0.080828466 -0.09347933 0.04014536 0.0046628914
0.044351783 -0.06406692 -0.04063754 -0.025528537 -0.06255602 -0.08926138 -0.06397236 0.003217717
0.029335048 0.01173322 0.07117943 0.04098566 0.014372117 -0.022895314 0.047721706 -0.10952532
-0.07272039 -0.06255862 -0.013652863 0.060010977 0.008907001 0.033865776 -0.07018509 -0.026535124
-0.008893632 0.05815192 0.04824065 0.08358391 0.083636336 0.040796824 0.014421418 -0.042204924
0.078444764 0.015896635 -0.015914688 -0.05666038 -0.0040894733 0.02337491 0.054777063 -0.053066764
0.0654041 -0.013448829 0.019840907 0.057127908 -0.076419756 0.01079926 0.050233863 -0.0907366
-0.01507959 -0.08512639 -0.05815149 0.009228335 0.020164965 0.059058916 -0.045367178 0.0064862333
0.08282379 0.03384493 -0.0015706086 -0.041010708 0.075913884 0.042305227 -0.071573526 -0.080495544
-0.054944362 -0.051941466 0.016943661 0.05475972 0.021594074 0.013181055 0.027610965 0.098933645
0.049140643 0.06892279 -0.026236666 -0.06426614 -0.0058074794 -0.020123085 -0.09972896 0.096049935
-0.011490266 0.063735075 -0.055109423 0.010704094 -0.03649573 0.07202163 0.057927776 -0.09179903
-0.034116924 0.07348357 0.009434599 -0.012258234 -0.012814331 -0.031788643 0.10060313 0.03326753

feature_extractor.4.bias f4 [128]
00000000: 6e31 9a3d 6e02 1a3d e329 52bc adfb ad3d
00000010: a8ef 43bd 5047 f8bc a657 853d 096c e03c
00000020: 9b8e 853d b55d a5bd e381 ae3d 5a2e b4bd
00000030: bddf bb3c 39cf 923c 6108 ae3d 700f 1e3c
00000040: 5fb2 2f3d 5049 89bd 5e6e cb3c d7aa a8bd
00000050: 7e8e 8a3d c15c 153d 90d1 643b 78ef bc3c
00000060: ece3 b4bc baf8 a93c 7651 f5bc 4460 4abd
00000070: 11f0 55bd 9a9e 53bd 7071 043d 3a47 61bb
00000080: fe01 6abc 38bc 8a3c 08ca ac3d 0df3 a3bd
00000090: 7581 b43b 107b 9abb 63a2 06bd 4225 683d
000000a0: 0d95 5c3c 6202 37bd c245 20bc 4706 1e3d
000000b0: c4ea abbd d1e9 6c3c 85b9 aebc 5e3c c63b
000000c0: ca34 8abd ac0b f2bc c082 a93d 8770 903d
000000d0: c840 1a3d a4c7 b03d 1368 913d ff8d 47bd
000000e0: 9cb7 8fbd 4240 8a3c 33f6 2f3d 13ff 393d
000000f0: cb6c 433d 7765 7bbd bee6 99bd e143 ad3d
00000100: 4158 ccbc d4d4 023d 1739 a5bd 6927 a33d
00000110: 47a0 a33c af1d 9fbc e83a 453d c4cb 04bc
00000120: 54a5 10bc 2bb5 cebc 8a4e 343d 5037 d73c
00000130: 5aaf 92bd dc76 89bb 7ece fcbc ac4c d33c
00000140: 5fbc 093d 2daf 5dbd db13 89bc 1d09 e73c
00000150: 1fdc e1bc 85e3 a63c 8261 9ebd f4dd 4dbd
00000160: 9fe7 623d 420a 0ebd da26 5f3d c56c 72bd
00000170: bf73 e13b 2ec8 823d fa83 26bd e89f 8b3d
00000180: 351b 3b3d 0c77 973d f588 b1bd e637 223c
00000190: f5fb 9bbc 0dcd 3f3c 5c66 e83c 7ac7 8a3d
000001a0: d4d8 66bd 4dd1 753d 5800 5f3d fa00 a13d
000001b0: 6309 1f3d 2248 a3bd 8ef7 0f3c cee1 26bc
000001c0: 0957 903d 44e8 5bbd dc08 d1bc f9a3 a3bd
000001d0: 0205 963d 7404 393c 2d86 61bd 6d69 903d
000001e0: 560b 863d 8a8f 5c3d 8b81 8fbd 2ae7 a63d
000001f0: 6d5f 00bd a162 863d c047 77bc 52ee 71bc
0.07528959 0.037599973 -0.012827369 0.08495269 -0.047835976 -0.030307442 0.06510858 0.027395265
0.065213405 -0.08074514 0.08520868 -0.08797903 0.022933835 0.017921077 0.08497692 0.009647235
0.042894717 -0.067034364 0.0248329 -0.0823571 0.067654595 0.03646541 0.0034914948 0.023063406
-0.022081338 0.020748485 -0.02994607 -0.049408212 -0.0522309 -0.051664926 0.032334745 -0.003437473
-0.014282702 0.016935453 0.08436972 -0.08005343 0.0055085965 -0.004714377 -0.032869708 0.056676157
0.013463271 -0.044680007 -0.009782257 0.038580205 -0.08394387 0.014460043 -0.021328697 0.006049677
-0.0674835 -0.029546581 0.08276892 0.07052713 0.037659436 0.086318284 0.07099929 -0.048719402
-0.070174426 0.016876344 0.042959403 0.045409273 0.047711175 -0.06137606 -0.07514714 0.084602125
-0.024944426 0.03194125 -0.0806753 0.07966501 0.019973887 -0.019423334 0.04815188 -0.008105222
-0.00882848 -0.025232872 0.044020213 0.026271492 -0.07162352 -0.0041950773 -0.030860182 0.025793396
0.03362691 -0.05412214 -0.0167331 0.028202588 -0.027570782 0.020372162 -0.07733442 -0.0502605
0.055396672 -0.03467775 0.05448041 -0.059185762 0.006880253 0.063858375 -0.040653206 0.06817609
0.045680244 0.07395753 -0.086687006 0.009901023 -0.01904104 0.011706603 0.028369121 0.067763284
-0.056359127 0.060014058 0.054443687 0.078615144 0.03882731 -0.079727426 0.008787049 -0.010185672
0.07047851 -0.053688303 -0.02551692 -0.0799026 0.07325174 0.011292566 -0.0550596 0.07051358
0.06545131 0.053847827 -0.0700713 0.0814956 -0.031341005 0.06561781 -0.01509279 -0.014766293

feature_extractor.5.weight f4 [128]
00000000: ffe8 793f 97db 753f dbc5 823f cad9 7a3f
00000010: 8182 7b3f c74c 7f3f 57a3 7d3f 3676 7a3f
00000020: c62e 823f 5edc 7e3f 2309 833f 62bc 803f
00000030: bfcd 823f 7b77 793f 9cfc 7d3f 68d5 7f3f
00000040: a7e2 7a3f 0491 843f 56e0 753f d81a 803f
00000050: bf40 7b3f 6cd6 7d3f bafb 813f f218 7a3f
00000060: 948c 7f3f 7e2e 7f3f 28f8 753f 8139 803f
00000070: 70da 793f eeae 883f accb 7c3f a759 7e3f
00000080: 5817 7b3f 9f55 7f3f 1258 803f af8d 7e3f
00000090: 2c78 813f 3359 793f 60fe 813f 6370 813f
000000a0: 796d 783f 5310 813f f747 853f e61e 743f
000000b0: 85e2 7d3f 7a58 7b3f a229 803f 438a 773f
000000c0: aba7 833f 3101 7b3f 8658 7f3f 0509 7d3f
000000d0: a8f3 7a3f ea1d 843f ba6a 7a3f 679a 7a3f
000000e0: f507 823f ee37 8a3f 4ee3 7a3f df15 773f
000000f0: 4ad2 793f ec2e 7d3f 553d 773f 924e 793f
00000100: 7f8b 823f 5e47 7f3f 0fd3 7b3f 0e85 813f
00000110: 14ec 813f 6670 823f 6185 853f ece4 7b3f
00000120: f42d 813f 46a6 823f d62e 803f d5e5 7a3f
00000130: b11a 783f a03d 7a3f 29e0 783f 7387 7e3f
00000140: 9523 773f d656 873f dbdb 7d3f 92b5 883f
00000150: 7eec 7a3f 841f 823f ce44 883f 70b1 783f
00000160: da16 813f 3999 803f b96e 7a3f f7e5 873f
00000170: 5d97 823f 8864 7a3f 0715 7c3f d141 853f
00000180: f135 7c3f 4d68 783f df4f 833f 9bfc 793f
00000190: 6ed3 813f 2cad 813f 8ea0 773f 10f6 793f
000001a0: a5a8 813f 477e 7d3f 2358 803f e901 833f
000001b0: d26b 813f 3b13 793f e226 7a3f cef0 863f
000001c0: 3dc3 7b3f 6504 813f dcb0 7b3f dbe1 803f
000001d0: e4cb 783f 0520 793f 1213 7e3f 2674 813f
000001e0: bb3a 793f 6369 803f 211d 833f 280e 773f
000001f0: e0ca 7b3f 98ae 853f ffec 7b3f 8565 7c3f
0.9762115 0.9603819 1.0216631 0.9798857 0.9824601 0.9972653 0.9907736 0.97836626
1.0170524 0.99555004 1.0237163 1.005749 1.0219039 0.9744794 0.99213576 0.9993501
0.98002094 1.0356755 0.96045434 1.0008192 0.9814567 0.99155307 1.0154946 0.97694314
0.9982388 0.99680316 0.9608178 1.0017549 0.97598934 1.0678384 0.9874828 0.9935555
0.98082495 0.9974002 1.0026877 0.9943494 1.0114799 0.9740173 1.0155754 1.0112423
0.9704204 1.0083107 1.0412587 0.9535965 0.99173766 0.9818188 1.0012705 0.96695346
1.0285543 0.9804869 0.9974445 0.9884189 0.9802804 1.0321629 0.978191 0.9789185
1.0158678 1.0798318 0.9800309 0.9651775 0.975865 0.9889972 0.9657796 0.97385514
1.0198821 0.9971827 0.98368925 1.011873 1.015017 1.0190551 1.0431329 0.9839618
1.0092149 1.0206993 1.0014293 0.98006946 0.9691573 0.9775028 0.9721704 0.9942543
0.9653867 1.0573375 0.991636 1.0680411 0.9801711 1.0165868 1.0645998 0.9714575
1.0085099 1.004676 0.978252 1.0617055 1.0202442 0.9780965 0.98469585 1.041071
0.9851981 0.9703415 1.025875 0.9765107 1.0142648 1.0130973 0.9672936 0.97641087
1.0129591 0.9902081 1.0026897 1.0234958 1.0111029 0.9729497 0.9771558 1.0542238
0.98344785 1.0079466 0.9831674 1.0068926 0.9718611 0.9731448 0.9924785 1.0113571
0.9735524 1.0032161 1.0243264 0.96505976 0.9835644 1.0443907 0.984085 0.98592407

feature_extractor.5.bias f4 [128]
00000000: 38c9 16bc 2c12 18bd d2c3 e43c 6819 5bbc
00000010: d5d6 a3bb 7a58 a83c 7248 42bc e025 c8bc
00000020: d575 8e3c f28f 4e3c c3a4 3a3d b32e 353c
00000030: d520 0c3d d734 90bc 1a44 5ebb 2ab6 b43c
00000040: f708 7bbc f6b1 503d 4eb7 dabc f7a8 84bb
00000050: 19cb 8abc e2fe 74bc 06a5 333d 5922 bcbc
00000060: 8337 e73b 5364 a6bb d44e 8bbc ce93 6d3c
00000070: 611c 0fbc cedc 763d b0de 40bc ff7a 7d3a
00000080: 604f 5fbc a07c 48bb dd72 8f3c a4a9 c23b
00000090: 71e5 553c 320e 24bd b79e 1a3c 5670 f53c
000000a0: 92a9 a7bc dfed 8f3c 2a30 313d 8b83 e8bc
000000b0: b8d2 493c 0fc1 a3bb 7201 2e3c 45f4 a6bc
000000c0: f7c9 043d 9598 aabc 0c56 16bc 1d32 513a
000000d0: 1bda 37bc ed51 e93c 81e7 36bc 6cd9 81ba
000000e0: 72ff 983c 7ece 7d3d dda8 e9bc 27a1 e9bc
000000f0: 7bc3 aabc a7f4 d5b9 65b3 11bc faf6 80bc
00000100: dd91 213c e068 673c cd9f 96bb 4220 de3c
00000110: 128d c23c 6dfd 313d f260 463d 0c30 c0bc
00000120: e4cb 9e3c b73e 143d e7c9 9b3a ee4b acbb
00000130: 884c 8bbc 5b76 09bc c29d 9dbc aecd f9bb
00000140: 5d77 07bd 7451 733d ab79 61bc a17f 9a3d
00000150: 72b2 25bc 5b37 f33c 39af 5d3d c108 b4bc
00000160: 7cbb debb 4a97 ab3c 8e12 4fbb 778e 853d
00000170: db07 db3c cc7c afbc 5f8b 153a 0904 4b3d
00000180: 0e72 83b9 676d adbc 45ea 2c3d add3 22bc
00000190: 072d 3b3d eee0 a03c b4f3 cdbc 6f42 49bc
000001a0: 269c cb3c 22dc 39bc 84d9 4d3c 7474 563d
000001b0: 2324 383d a16b cfbc 722b 63ba bfbd 453d
000001c0: 1af3 3cbc bc46 d63c 1dc8 e8bb 2070 e83b
000001d0: ab4d d4bc 8d3e d2bc 8367 03bc f5f6 7c3c
000001e0: e7b4 cdbc e19a a33c 17db 0d3d a983 c7bc
000001f0: da30 dbbb 0ec4 7c3d d2fc 47bc e9df 43bc
-0.009203248 -0.037126705 0.027925406 -0.013372757 -0.004999975 0.020550001 -0.011858093 -0.024432123
0.017390171 0.012607561 0.045567285 0.011058497 0.034211 -0.017603321 -0.0033915103 0.022059519
-0.015321962 0.050950967 -0.026698735 -0.0040484625 -0.016942548 -0.014953347 0.04385855 -0.022965597
0.007056178 -0.0050778775 -0.017005362 0.014500571 -0.008734793 0.06026917 -0.011771843 0.0009669512
-0.013629764 -0.003059186 0.017510826 0.005940633 0.013055191 -0.0400526 0.009437255 0.029960793
-0.0204666 0.01756948 0.043258823 -0.028383037 0.012318306 -0.0049973796 0.010620462 -0.020380149
0.03241917 -0.02082471 -0.009175789 0.0007980185 -0.011221434 0.028481448 -0.011163593 -0.0009906716
0.018676493 0.061964504 -0.028522903 -0.028519226 -0.020845165 -0.00040808806 -0.008892869 -0.015742768
0.009861437 0.014124125 -0.0045966865 0.027114991 0.023748908 0.043454576 0.048432298 -0.02346041
0.019384332 0.036192622 0.0011885733 -0.005258075 -0.017004266 -0.008390035 -0.019240264 -0.007623396
-0.033072818 0.05940385 -0.013761918 0.075438745 -0.010113345 0.029689481 0.054122183 -0.02197683
-0.006797252 0.020946164 -0.0031596753 0.06521314 0.026737144 -0.021421812 0.0005704667 0.049564395
-0.00025071244 -0.021170331 0.042215604 -0.009938163 0.04569724 0.019638505 -0.02514062 -0.012283905
0.02485473 -0.011343988 0.012564067 0.052357152 0.044956338 -0.025319876 -0.00086658366 0.04827666
-0.011532569 0.026156776 -0.0071039335 0.0070934445 -0.025915941 -0.025664592 -0.008020285 0.0154397385
-0.025110675 0.019971313 0.03463277 -0.024354773 -0.006689173 0.06171041 -0.012206273 -0.01195524

feature_extractor.5.running_mean f4 [128]
00000000: 3cda 52be daa9 43ba 3b1c 0c3c 4b58 11be
00000010: 7c38 b5bc e00b 04bf ad1c d93e e0ce 7ebe
00000020: d235 14bf 835a 2b3e 9335 913e 87cc 72bd
00000030: 3851 a03d e44a 71be 0f41 a53e 9025 a3be
00000040: 8559 f33d ed80 57be 6504 1d3f 17d3 0e3d
00000050: 5c47 6fbd ceb4 ebbe c818 583e efe8 d4bd
00000060: 02e3 12bf 272b c6be fe27 b03d 19e5 fa3c
00000070: b8cf 88be 6ce9 323d 016f 70be 576e e5bd
00000080: 7f5a 723e 9fef b13d 4480 2dbe c1b8 d6be
00000090: 8eb9 aabe 3d40 553e 79eb a8be 9bf5 023e
000000a0: aff0 1f3f 7be1 0cbb 9478 49be 26f3 3f3e
000000b0: 823f 75be e304 93bd 78f8 3abd 8c61 e1be
000000c0: cafe ee3d aed3 0abf 2eab 313e f123 dbbe
000000d0: eb47 8a3d 87ab 3f3e d2ed dd3e 1e57 9c3d
000000e0: a91e 69be f94b 973d cfe9 75bb a537 84be
000000f0: 8fd4 983d a186 febc c178 1d3e ae52 873c
00000100: 1f72 87be e7fc c63d bf6f 7c3e 1a01 0a3f
00000110: e17e d7bd 3a1d a9bc f1fc 013d ba65 653e
00000120: 1c0a edbe aed9 2cbf 7209 11be 3456 4abe
00000130: 42fc 19bf 8583 ef3c 192c 5c3c 84f5 223e
00000140: 01b6 a4bd 3cb3 8a3e e70d 4abe 3e81 9dbd
00000150: a1c9 8f3e c4cd 1c3b e411 b6bd 8616 bcbe
00000160: 6b2b ecbd 7556 e4be c326 b23d e7e4 2d3e
00000170: 0ce6 073e 4a8f adbe 70a2 41bd 6388 0fbf
00000180: 9763 733e ce74 dbbe 53a6 d1be e113 af3e
00000190: 6890 41bf 5b5e f13d a617 a9be 0758 37be
000001a0: 6372 73be 66e1 843e cd32 0abf 2a1c aebd
000001b0: 1089 afbe 2bc8 98be 65fb fa3e 2ca3 ae3c
000001c0: 8612 1fbd 4df4 93bd 036d 7b3e 3926 f9bd
000001d0: 7151 22be 1fd7 9cbd 3e36 9cbe 1f54 febe
000001e0: 0553 d43e 99b8 95bc 0ade 03bf 85ac f13d
000001f0: af92 5fbe 5a10 673e 61cf 34bf 6e37 79be
-0.20591062 -0.00074639695 0.008551653 -0.14193837 -0.02212166 -0.5158062 0.4240469 -0.24883604
-0.57894623 0.16733746 0.28361186 -0.059277084 0.07827991 -0.23563725 0.32276198 -0.31864595
0.11882309 -0.21045275 0.6133483 0.03486928 -0.058417663 -0.4603638 0.21103203 -0.10395991
-0.57377636 -0.38704798 0.08601378 0.03062682 -0.26720977 0.04367964 -0.23479845 -0.11202686
0.23667334 0.08688282 -0.1694346 -0.4193783 -0.33344692 0.20825286 -0.3299215 0.12789004
0.6247663 -0.0021496702 -0.19674903 0.18745098 -0.23950008 -0.071786664 -0.045647115 -0.44019735
0.11669691 -0.5422925 0.17350456 -0.4280086 0.067519985 0.18717776 0.43345505 0.07633804
-0.22765602 0.073875375 -0.0037523394 -0.25823703 0.07462417 -0.031070055 0.15378095 0.016518917
-0.26454255 0.09716206 0.24652003 0.5390793 -0.10522247 -0.02064382 0.031735364 0.22402087
-0.46296775 -0.6751965 -0.1416376 -0.19759446 -0.6015054 0.029237518 0.013438248 0.1591397
-0.08042527 0.2708987 -0.19731866 -0.076906666 0.28083518 0.0023926357 -0.08890131 -0.36735934
-0.11531719 -0.4459721 0.086987995 0.1698185 0.1327135 -0.33898383 -0.047274053 -0.56067485
0.2376846 -0.42862552 -0.40947208 0.34194854 -0.7561097 0.11785575 -0.33025855 -0.17904674
-0.23774104 0.25953215 -0.53983766 -0.085014656 -0.34284258 -0.29840216 0.49019924 0.02131804
-0.038836025 -0.07224331 0.24553303 -0.121654935 -0.1585138 -0.076582186 -0.30510134 -0.49673554
0.4146959 -0.0182765 -0.5151068 0.118004836 -0.21833299 0.22564831 -0.70628935 -0.24337551

feature_extractor.5.running_var f4 [128]
00000000: b39a c83e 1c2b 7a3e 0f47 073f 0d7d 073f
00000010: 3916 8b3e 323b 093f 5cbe 883e cbb5 a23e
00000020: 7e79 113f a953 133f 2972 3b3f 2ec0 113f
00000030: 87ba 333f 0285 dc3e 4620 f43e 4422 103f
00000040: 50de 9e3e b7c7 333f 0820 053f ddda 003f
00000050: cbe8 f93e 21f3 d43e 9256 583f ba25 ee3e
00000060: fbaa 283f 6da5 d83e a02a 9e3e 2bd7 f73e
00000070: 81b1 ad3e 11eb 7b3f c280 b23e 1072 143f
00000080: c126 893e 6c76 283f 4510 113f 42d8 dd3e
00000090: b897 f83e b762 773e a0ec f03e 13e6 023f
000000a0: b92d d33e 71d6 033f a6c5 533f f557 023f
000000b0: 6bf7 033f 03d5 b83e fb96 0e3f fd17 993e
000000c0: 59f9 2d3f a514 b23e dcb2 003f 5ca6 043f
000000d0: 5f33 de3e 2b2b 3b3f 6d63 083f 5b3a eb3e
000000e0: 7c4a 1c3f 62e6 923f 38b7 953e b7ca d43e
000000f0: 2e50 5d3e 0b25 0a3f 0ae7 933e c06e 8c3e
00000100: a511 3d3f 137c 0b3f b00e 733e e3ee 2d3f
00000110: 45aa 123f 60a7 413f 9b24 3a3f 771c 973e
00000120: 8534 003f 144d 083f 009a d53e 4f9f f03e
00000130: f4f6 253f 2dd7 c63e 80c9 773e f7cd e93e
00000140: d87c 933e bb57 643f f9be 143f 9cf9 903f
00000150: 2588 d23e 57ef 2a3f 0d40 683f 08c0 9e3e
00000160: b54b 0c3f 0669 d23e faa5 7c3e 6a01 623f
00000170: f769 373f 27b4 b93e 0272 b03e 11bd 313f
00000180: 660d f23e bd76 ae3e 7de0 0a3f f67d 603e
00000190: a03e 433f 394f 013f 8deb bb3e 62d8 d53e
000001a0: 558f e63e a709 fe3e 26df 153f cef9 003f
000001b0: 8642 163f fa8b f43e 64f2 7b3e 9e6d 633f
000001c0: 944f 743e dfd2 ee3e 9b89 d43e a152 303f
000001d0: feea c23e 7117 a43e 8096 f93e d2b7 303f
000001e0: e834 cb3e 3bae c83e 19b0 493f f855 e63e
000001f0: 5a9d b73e f7c2 5f3f 3193 053f 7728 cd3e
0.39180526 0.24430507 0.528428 0.5292519 0.27165392 0.5360595 0.26707733 0.31779322
0.5682601 0.5754953 0.7322107 0.5693387 0.70206493 0.43070227 0.47680873 0.56302285
0.31028986 0.70226616 0.52002 0.5033396 0.4881042 0.41591743 0.84507096 0.46513158
0.65885895 0.4231371 0.30891895 0.48406348 0.33924487 0.9840556 0.3486386 0.57986546
0.2678738 0.658057 0.5666545 0.43329054 0.48553252 0.2415875 0.4705553 0.51132315
0.4124582 0.51499087 0.8272346 0.5091546 0.51549405 0.36100015 0.5569913 0.29901114
0.679586 0.34781376 0.5027292 0.51816344 0.43398568 0.73112744 0.5327671 0.4594296
0.61051154 1.1476557 0.29241347 0.4156091 0.21612617 0.53962773 0.28887206 0.27428246
0.7385505 0.544862 0.23736072 0.6794264 0.5729106 0.7564602 0.72712106 0.29513904
0.5008014 0.5324261 0.41719055 0.46996543 0.64829946 0.3883604 0.2419796 0.4566495
0.28806186 0.89196366 0.581039 1.1326175 0.41119495 0.66771454 0.90722734 0.31005883
0.5480302 0.41095752 0.2467269 0.8828341 0.71646065 0.36270258 0.3446198 0.6942912
0.47275847 0.34074965 0.5424879 0.2192305 0.76267433 0.5051151 0.36703148 0.4176665
0.4503123 0.4961674 0.5854362 0.5038117 0.58695257 0.47763044 0.24604183 0.8883914
0.23858482 0.46645257 0.41511235 0.6887608 0.3806991 0.32049134 0.48747635 0.6903049
0.39688802 0.39195427 0.7878433 0.44987464 0.35862237 0.8740687 0.5217772 0.40069935

feature_extractor.8.weight f4 [64, 128]
00000000: c47a 24bd 18c4 65bc 56ed 4ebd 49cb 85bc
00000010: 51bf 4f3d c66c 1ebd e105 aebd 7fe7 42bd
00000020: 07b4 b13d 1192 80bd 83ab afbd 5793 aebd
00000030: 27e1 62bd f0d2 3cbd ef84 33bd 9897 1c3d
00000040: b63f 653c 4ca5 713c 83c4 80bd f274 8abd
00000050: 3e84 003d e478 df3d b3f3 193c c5e3 383d
00000060: 2b2a 72bd 9eb8 7f3d e43a 94bd 798f c43d
00000070: 5342 cfbb c64b bfbd 1b47 fcbc 152c 1c3d
00000080: e5b3 5d3d b670 82bd 1fcc 1fbd 6561 ce3c
00000090: c977 77bc a37f a2bd d726 18bd 1e58 b4bd
000000a0: 0f03 573d e881 97bc 1003 a0bd 27cc 703d
000000b0: 7598 8c3d 0707 a53c 6c47 9abd 3c28 9d3b
000000c0: 197f d1bd 59f4 85bd f28e ef3c 1af7 99bd
000000d0: 7210 0d3d 6205 14bc 2d0d 25bd de81 0b3d
000000e0: 7e8c 6c3b 0dfa 8ebd 3cad 993d 8b8f 3f3c
000000f0: 3b3a a63c 2817 a0bd 18f4 753d 562e ffbb
00000100: 098d 7bbc af00 f4bc 71a7 95bc 3b5d 65bd
00000110: ad14 70bd 3c63 163d 4970 72bd 4a22 63bd
00000120: 91df a53d bd9d 1d3d 1749 123d f03e 5cbd
00000130: a3a9 6a3b 34cd 0e3c 006a 4a3d 9e9a 77bd
00000140: 46cc 853d d40c 5f3c 1a3e e53c c14e 26bd
00000150: e80e a3bd aab5 33bd 2bcf 0fbd c705 35bd
00000160: 4870 1339 9b57 66bd de77 1fbd 6c83 96bd
00000170: 381d 1ebd b1cb f13c 3d9a 043d 6213 12bc
00000180: 6193 333d bbaa 88bd 520e 413d b0bf f83c
00000190: cbdd 983d 64c1 fa3b cae3 b7bc 42e1 4fbd
000001a0: 4849 d33d 3472 6e3c 6656 e43c 73d5 dd3d
000001b0: da81 773d 781f 903c 3a2a 8a3d d5e7 c2bc
000001c0: 6570 c0bd 5399 873d 7475 9ebc db83 92bd
000001d0: 37c5 06bd c258 263c fa8c 73bd 1204 a73d
000001e0: d8b8 97bd 3cef 123d a50c 25bd faad 6bbd
000001f0: 84a5 9c3d 8956 ca3c 8d0e 3e3d a40c 913d
00000200: 20ce 9a3b aac1 af3d 514e b5bd 7807 73ba
00000210: 96de 663c ce27 8e3d 5be7 b53b e0bf 2dbc
00000220: 25f0 18bd 47c8 7f3d 70b6 b6bd 12e3 23bd
00000230: e515 8dbd 6464 90bc 39d9 453d 8846 953b
00000240: b4c0 6fbd bee5 abbb 18f7 893d 7b0a db3b
00000250: deca d23c a8ae 973d a6f2 3bbd f436 6cbd
00000260: 8ce6 13bd 9b9a 97bd 1a94 4d3d 1aa7 e53d
00000270: eee0 87bd 298f febc 0e37 b3bd 9b10 29bd
00000280: 60c3 36bd d76e cb3c c80e d13d dc51 1cbd
00000290: 9ecd 853d 7a8e eabb 52cc dfbc bbcc 3d3b
000002a0: d388 283d 2bdc 2d3d 9cb1 0bbc 7bb2 383c
000002b0: 36e1 57bc 332c bcbd 76dc f5bc 8f67 d5bc
000002c0: acda a1bd c589 16bd 5c4b 763c 0710 9f3c
000002d0: e103 d53c 4851 fabc ffc8 0bbd 4800 6fbd
000002e0: 3558 873d c3bf 9bbd deb1 d73c 8816 543d
000002f0: 2956 8b3c 7533 5a3c 93b1 a6bd 517c 3e3c
00000300: 5e8c 083b 356c 043d e38e babd b53a 3b3c
00000310: c689 b53c 2dc4 5abd 4a49 d9bc fd7c c9bb
00000320: 6b99 c3bd 8f29 923c 3fed 9abd c302 9b3d
00000330: e6cc aabc 1098 c7bd c059 9d3d c766 1ebd
00000340: 1241 b33d 6095 3e3c 63ba 143d bdb6 a1bc
00000350: f598 0b3d a715 83bd 8408 49bd fe9e 38bd
00000360: b59f a1bd 4670 b23d 2271 293d 990f 3abd
00000370: d325 cb3c f634 1a3d 7438 d73c 000c a0bc
00000380: f124 59bd f1b2 1fbc e809 3e3c d621 0ebd
00000390: a738 4abd 64ec adbd e334 32bd 1806 583c
000003a0: ff18 143d 9093 a2bc 7cdc 1a3d 3dad 893d
000003b0: 73ac f33a 7b60 8cbc e80f 1e3d 43d7 46bd
000003c0: f8fd b4bd 0657 7ebd f58f 4abd 7a76 debd
000003d0: 6cc7 543d e4b2 7c3d 28eb 8d3d 753c f1bb
000003e0: 2c4b 173d 1abe 373d 7900 b8bc f727 773c
000003f0: e267 38bd a508 b3bd ed5e 983d d929 e7bc
-0.04015614 -0.014023803 -0.05051931 -0.016332285 0.050719563 -0.038677953 -0.08497215 -0.047584053
0.086769156 -0.0627786 -0.08577635 -0.085241966 -0.055390503 -0.046099603 -0.043827947 0.03823051
0.013992241 0.0147488825 -0.06287482 -0.06760587 0.031376116 0.1091173 0.009396481 0.045139093
-0.059122246 0.062431924 -0.07237795 0.09597678 -0.006325045 -0.093406245 -0.030795624 0.038127977
0.05412664 -0.06369154 -0.039013024 0.025192926 -0.015104243 -0.07934501 -0.037146416 -0.088058695
0.05249315 -0.018494561 -0.07813084 0.058788445 0.06865016 0.020144952 -0.07533154 0.004796056
-0.1022932 -0.06540746 0.029242966 -0.07517834 0.03443951 -0.0090344865 -0.04029577 0.034059398
0.0036094482 -0.06981287 0.07503745 0.011691938 0.020291438 -0.07816917 0.06004724 -0.007787506
-0.01535345 -0.029785482 -0.018268319 -0.055997115 -0.058613468 0.03671573 -0.059189115 -0.055452622
0.080992825 0.03848051 0.035714235 -0.05377096 0.0035806678 0.008715916 0.049417496 -0.06045019
0.06533103 0.013613898 0.027983714 -0.04060245 -0.079618275 -0.04387442 -0.03510968 -0.044194963
0.0001406084 -0.05623589 -0.038932674 -0.073492855 -0.038602084 0.029516073 0.032373656 -0.008915754
0.043841723 -0.06673189 0.047132798 0.030364841 0.07464179 0.0076524485 -0.022447485 -0.050751932
0.10316712 0.014553595 0.02787323 0.10831728 0.06042657 0.01759313 0.06746335 -0.023792187
-0.093964376 0.06621041 -0.019343115 -0.07154056 -0.032902922 0.010152997 -0.059460618 0.08155073
-0.07408303 0.035872683 -0.040295262 -0.057538964 0.07648757 0.024699466 0.046400595 0.07082489
0.004724279 0.0858186 -0.08852828 -0.0009270827 0.014091155 0.06941186 0.0055512614 -0.010604829
-0.037338395 0.06244686 -0.08921516 -0.040011473 -0.06888942 -0.017625995 0.048302863 0.004555527
-0.058533385 -0.0052458933 0.067365825 0.006684599 0.0257315 0.0740636 -0.045885704 -0.057669595
-0.03610854 -0.074025355 0.05019007 0.11213513 -0.06634699 -0.031074123 -0.08750735 -0.0412756
-0.044619918 0.024833126 0.102078974 -0.038164005 0.06533359 -0.007158098 -0.027319107 0.002896114
0.04114611 0.042446297 -0.008526232 0.011273022 -0.013176253 -0.09188118 -0.03001235 -0.026050357
-0.079030365 -0.03675248 0.0150326155 0.019416822 0.026002826 -0.030556336 -0.03412723 -0.058349878
0.06608621 -0.07604935 0.02632993 0.0517793 0.017008858 0.013317932 -0.08139338 0.011626319
0.0020835618 0.032329757 -0.09109285 0.011427571 0.022160422 -0.053409744 -0.026524205 -0.006148933
-0.095507465 0.017842082 -0.07564782 0.07568886 -0.020849656 -0.097458005 0.07683134 -0.038672235
0.087526456 0.011632293 0.036310565 -0.019740457 0.034081418 -0.06400614 -0.049080387 -0.0450735
-0.0789179 0.08712821 0.041367657 -0.04542503 0.02479831 0.037648164 0.026272036 -0.019536972
-0.053013746 -0.009747253 0.0115990415 -0.034700237 -0.049370434 -0.084923536 -0.043507468 0.013185047
0.03615665 -0.019845754 0.037807927 0.06722496 0.0018590823 -0.01713585 0.038589388 -0.048545133
-0.08837503 -0.06209471 -0.049453694 -0.10862441 0.051947996 0.06169404 0.06929618 -0.0073619434
0.036936924 0.04485903 -0.022461163 0.015085212 -0.045020945 -0.08741883 0.07439981 -0.028218197
