models/best_fold2_hd128_do0.5.pth (torch, 118438 bytes, 20 tensors)

layers.0.weight f4 [128, 10]
000000 28 3f 7f 3e 32 5c 98 be a8 54 da 3d 39 2c 0c 3c
       0.24926436 -0.2975784 0.10660678 0.008555465
000010 5e 21 c5 3d 9d 98 0d be b2 07 87 bd 9f f6 2f bd
       0.09625505 -0.13827749 -0.06593265 -0.042959806
000020 06 f9 e5 3d 40 de c2 bd f8 d9 91 3e 66 94 90 bc
       0.11229138 -0.09515047 0.2848661 -0.017648887
000030 a4 02 07 be 2b 8f 02 be d7 2e b3 bd 98 14 65 3c
       -0.13184601 -0.12749927 -0.08749168 0.013981961
000040 03 26 69 3e 4b 6b 25 be aa 54 28 3d 7e 06 fb 3d
       0.22768407 -0.1615421 0.041096367 0.12257098
000050 c4 33 b3 bd e0 94 5b 3c b1 8f ed 3b 82 78 82 bd
       -0.08750108 0.013402194 0.0072497954 -0.06370641
000060 b3 d5 09 be 02 36 9c be 8d 36 fd 3d a4 f9 81 be
       -0.13460426 -0.30509955 0.1236392 -0.25385773
000070 66 c8 5f 3e 42 75 32 3e f7 8b ea bd 3b 34 04 3e
       0.2185379 0.17427543 -0.114524774 0.1291055
000080 b5 aa 21 be 08 5c 28 be d0 4f 51 3e 57 23 9d 3d
       -0.15787776 -0.16441357 0.20440602 0.07672756
000090 15 96 1e be 0f ab 25 3e 2d 00 6d 3e 5d f3 7e 3d
       -0.15486939 0.16178535 0.23144598 0.062243808
0000a0 89 db 42 3e 6d f9 b0 bd b5 c7 e5 3d 69 cb 87 be
       0.19029059 -0.08641324 0.11219732 -0.26522377
0000b0 b2 be 36 bd 6a c8 af 3d 76 cc 33 bd f8 74 6a be
       -0.044615455 0.08583148 -0.04389616 -0.22896183
0000c0 32 de a3 3e d0 2f 17 be 3a d9 87 be e2 e2 28 3e
       0.3200546 -0.14764333 -0.26532918 0.16492799
0000d0 3f 7e 17 be d5 ec 6f 3e 1d 70 89 be 36 53 02 3d
       -0.14794253 0.23430188 -0.26843348 0.031817637
0000e0 e9 eb 65 be fb 2d 11 be 5e 96 42 3e ca cf 0d 3e
       -0.22453274 -0.14177696 0.19002673 0.13848796
0000f0 47 f2 b4 be 6d ae b5 3d 86 56 bd bd 8e a7 78 bd
       -0.35341093 0.0887116 -0.09245019 -0.060706668
000100 c3 d4 69 3d ed 09 4f 3e bf c6 04 3e 36 02 10 3d
       0.05708767 0.2021863 0.1296644 0.03515836
000110 6e 53 00 be ce 5d cd bd 4a 4f 27 bd 16 76 fc 3d
       -0.12531826 -0.100276574 -0.0408471 0.123272106
000120 02 73 27 3c 54 d9 39 3e 69 a2 9f be 5b 16 38 be
       0.010220291 0.1814931 -0.31178597 -0.17977278
000130 62 ae 13 3e 90 15 80 3d 45 1f 05 bd 51 60 90 3d
       0.1442199 0.06254113 -0.032500524 0.07049621
000140 8a 8b 24 3e 75 46 47 3e a1 9f 0c bd fe e6 b1 bd
       0.16068855 0.19460471 -0.03433192 -0.086866364
000150 f3 df 22 3e 3d 14 bc bd 37 90 d3 3c 81 fa 68 be
       0.15905742 -0.09183548 0.025825603 -0.2275181
000160 51 cb c1 bd 89 01 31 3d 0a 4f 26 3e 0d e1 fb bd
       -0.09462608 0.043214355 0.16241089 -0.122987844
000170 5d 33 a0 3c ca f3 7a be 82 ab 77 3e 82 ff 04 be
       0.019555742 -0.2450706 0.24186519 -0.12988093
000180 80 ce 2c 3e 81 ee 9e bd 03 a6 72 be a6 2c ac 3d
       0.16875648 -0.07760335 -0.23696141 0.084069535
000190 33 6e a1 3e 27 50 4e be 43 b4 8b 3e 49 bd 97 3e
       0.31529388 -0.20147763 0.27285966 0.296366
0001a0 80 af 4a 3e 12 2b 57 3e 71 0a 11 3e 5a 88 61 bc
       0.1979351 0.21012524 0.1416414 -0.013765419
0001b0 dd 1f 13 be 56 13 52 be 4d ac 2d be 4b 9c 93 3e
       -0.14367624 -0.20515189 -0.16960259 0.2883018
0001c0 92 25 90 3e d5 e2 2a be 9a 56 c4 3d f1 9d 26 be
       0.28153664 -0.16688092 0.095868304 -0.16271187
0001d0 34 d7 65 3e 6c a9 a8 3e c5 e9 7c 3e ce c5 20 be
       0.22445375 0.3294176 0.24698551 -0.15700457
0001e0 94 0c 86 3e 64 ac 8a be 74 f1 99 be ff f5 90 be
       0.2618147 -0.2708465 -0.30067027 -0.2831268
0001f0 a1 51 e2 3d c1 0d 10 3e 92 b5 92 bc f1 c6 95 3e
       0.11050726 0.14067747 -0.017908845 0.29253343
000200 a7 3e 82 bc 41 25 87 3e 80 b0 49 be 7e a4 b9 bd
       -0.015899016 0.2639561 -0.19696236 -0.090645775
000210 6a 8d db bd fa 3b 1a be 42 1e 94 3e 1c 70 c9 bd
       -0.10720332 -0.15061942 0.28929335 -0.09835836
000220 2a fd 06 bd 01 4e a6 3e bf 71 41 3e 07 ca 9e bd
       -0.03295628 0.32481387 0.18891047 -0.077533774
000230 36 b6 8f bd 53 1b 75 3e ec 09 e4 bd a2 e3 46 bd
       -0.07017176 0.23936205 -0.11134705 -0.04855693
000240 65 79 4f 3e 1e 08 95 be cf 7b 6e 3e ca 38 9b 3e
       0.20261152 -0.29107755 0.23289417 0.30316764
000250 87 30 dc 3d c9 35 67 3e 9d 30 24 be 6c 3f 33 3d
       0.10751443 0.22579111 -0.1603417 0.043761656
000260 79 0b 0d 3c d6 11 ef bc e3 cb e2 3d 49 ed 48 3e
       0.008608692 -0.02918331 0.110740446 0.19621767
000270 da 53 83 3e e4 68 7f 3d df 34 81 be 3f 8c 46 3e
       0.2564991 0.06235589 -0.2523565 0.19389437
000280 15 b3 84 be c9 66 73 be d1 31 34 3e 95 1d 39 3e
       -0.2591788 -0.23769678 0.17597128 0.18077691
000290 71 33 65 be ca 73 08 3d ef f8 67 3e 8f a6 87 be
       -0.22382905 0.03331355 0.22653554 -0.26494262
0002a0 c7 97 0a 3e 0c 35 00 3e 27 40 60 3e 6c 54 02 3e
       0.13534461 0.12520236 0.21899472 0.12727517
0002b0 b8 e8 89 3d b0 5c a9 bd 58 bc 55 be 26 b6 39 be
       0.06733841 -0.08269632 -0.20872629 -0.1813589
0002c0 74 38 e1 3d ce cb 9b 3e f1 8b 83 3e 72 20 0c bd
       0.10997096 0.30428928 0.25692704 -0.03421063
0002d0 85 9b 68 bd a9 e4 9f 3d 49 5e 99 3c 15 a6 1a be
       -0.05678894 0.07807285 0.018721716 -0.15102418
0002e0 07 1f 55 be 38 85 b0 3d 0c c2 6b be a8 78 ce bd
       -0.20812617 0.086191595 -0.23023242 -0.10081607
0002f0 b4 13 ad bd 06 43 4b 3e 02 fa 97 3e c9 46 1d be
       -0.08451024 0.19849786 0.29682928 -0.15359034
000300 8b e3 09 3b a7 bd 95 be 8c ae d7 bc 5d ac b5 3d
       0.0021040167 -0.29246256 -0.026328348 0.08870766
000310 cb d5 35 bd 29 89 02 bd d9 42 54 be 35 c6 24 be
       -0.044393342 -0.031869087 -0.20728625 -0.16091235
000320 c7 38 41 3e e3 ec 6a 3e bd 46 9d be 4b bc 1e 3e
       0.18869315 0.22941928 -0.30718032 0.15501516
000330 a5 30 7e be 0c 08 30 be cd e5 0f 3e 68 03 32 be
       -0.24823244 -0.1719057 0.14052506 -0.17384112
000340 23 fc ab 3d c0 81 17 be 05 30 9a be ef eb 77 be
       0.08397701 -0.1479559 -0.3011476 -0.24211095
000350 97 4c 93 be 99 9b ba 3d 7f a3 34 be 12 e6 5a 3e
       -0.2876937 0.09111709 -0.17640494 0.21376827
000360 f3 2a a3 3d 1a 31 94 be 23 43 dc bc d3 79 6d bd
       0.07967176 -0.28943712 -0.026887482 -0.05797751
000370 92 cd 85 be b8 3a 26 3d 3e 5b e8 3d 0b 2c 49 3d
       -0.261334 0.040583342 0.11345528 0.04911427
000380 b1 bb 34 bd ce 4c d2 3d 5c 3f 85 3d 39 e2 bd 3c
       -0.04412431 0.102685556 0.065062255 0.02317916
000390 d1 3f fd 3c 1b 64 55 be 89 78 66 3d 54 78 23 be
       0.03091422 -0.20838968 0.056267295 -0.1596387
0003a0 9e 58 c1 bd ab 33 1f 3c 7f b9 6d 3e fe 51 32 3e
       -0.094407305 0.009716908 0.23215292 0.1741409
0003b0 63 02 e2 3c a5 ed 5e be 1c 7f af bd b3 0b 19 3e
       0.027589029 -0.21770342 -0.08569166 0.14945869
0003c0 6b 67 b1 3d 4b cb 09 be ac c8 17 be 30 1b ae 3d
       0.086623035 -0.13456456 -0.14822644 0.08501279
0003d0 50 d3 93 be 45 25 54 be 8f 54 87 be f2 c1 f1 bd
       -0.28872156 -0.20717342 -0.264317 -0.1180457
0003e0 06 73 94 be 07 b5 07 3e 92 89 a9 be a4 61 d0 3d
       -0.28994006 0.1325265 -0.3311277 0.101748735
0003f0 9b 69 d5 bc b4 94 59 3d d4 b4 62 3e b6 24 1d be
       -0.026051333 0.05312033 0.22139293 -0.15346035

layers.0.bias f4 [128]
000000 ea 56 81 be b8 0c 13 3c b2 38 82 3e df c7 11 3e
       -0.25261623 0.0089752 0.2543388 0.14236401
000010 c4 5b da bc 3c c3 42 3e d0 aa 9b 3d dd 1a 37 be
       -0.026655085 0.19019789 0.07600939 -0.17881341
000020 63 8e 83 3a b5 3a ae 3d 8c 6a 8d 3e f5 41 7c be
       0.0010036941 0.08507291 0.2762035 -0.24634536
000030 29 92 b0 3c 43 fd 76 3e ad 1d 03 be d8 45 8d be
       0.02155407 0.24120049 -0.12804289 -0.2759235
000040 4b 8a 18 3d a2 d8 db bc f5 b8 ed 3d 01 57 25 3c
       0.03724126 -0.026836697 0.116075434 0.010091544
000050 69 b8 99 bd b5 ff 16 bd b6 b2 6e be a1 8b 1c bd
       -0.075058766 -0.036864955 -0.2331036 -0.038219098
000060 ef ca a6 3d fe fe 09 3e 5d 68 61 be b7 52 f5 3d
       0.08144175 0.13476178 -0.22012468 0.11978667
000070 8a 64 0d 3c be 6a 18 be ac bc 4c be 51 19 70 be
       0.008629927 -0.14884469 -0.19993848 -0.23447157
000080 2a 43 61 bd e3 d6 2a 3e e5 24 80 3e 1b fa 91 3e
       -0.054995693 0.16683535 0.25028148 0.28511128
000090 33 72 45 be 77 e6 82 be f5 75 19 3d 05 1c fb 3d
       -0.19281845 -0.25566456 0.03746601 0.12261204
0000a0 ee 87 50 be 75 ae 02 3d f0 90 70 3e c8 05 81 3e
       -0.20364353 0.031904656 0.2349279 0.25199723
0000b0 b8 d8 8e be 8e 07 3a 3e 6a 5e 87 be 17 d4 85 be
       -0.27899718 0.18166944 -0.2643922 -0.26138374
0000c0 e8 aa a3 3d 1e 7f 59 3e 10 86 97 3e d0 9c dc 3c
       0.07991582 0.21239898 0.2959447 0.026930243
0000d0 c6 84 5d 3e 25 c6 8c 3e 07 01 5a be 3d bb 03 bc
       0.2163268 0.27494922 -0.21289454 -0.008040247
0000e0 14 c9 5f bd e4 bd 2b bc e1 1b 30 be 00 44 9c 3e
       -0.054635122 -0.010482285 -0.17198135 0.3052063
0000f0 27 a8 94 3e 88 fb c0 ba 45 5d 94 be d4 90 3b 3e
       0.2903454 -0.00147234 -0.2897741 0.18316966
000100 bb 59 e6 3c 55 b5 76 be bf 4f 38 be 43 9b 0c 3e
       0.028118959 -0.2409261 -0.1799917 0.13731103
000110 a3 01 fa 3c 1b d3 86 be 36 ae 0d be e9 51 81 3e
       0.030518359 -0.26332936 -0.13835987 0.25257805
000120 d0 5c cf bd e3 15 dc bd 89 4e 6c be b3 02 26 be
       -0.101251245 -0.10746362 -0.23076834 -0.16211967
000130 f5 1e 80 3e 32 a5 8e 3d 48 fc 9f 3e 3a 46 94 be
       0.25023618 0.06965102 0.31247163 -0.2895983
000140 0a 6e 8c bd ca 04 3a be d5 eb 37 be bd 47 78 be
       -0.06856926 -0.1816589 -0.17961057 -0.24246116
000150 8b 93 75 3e 7f 69 d1 3d 28 99 a6 3c 4b 98 86 be
       0.23982064 0.102252 0.020336702 -0.26288065
000160 9a 04 20 be 8f 9e 16 bd 4a 84 9a 3e 28 d0 db 3c
       -0.15626755 -0.036772307 0.30179054 0.026832655
000170 f5 eb 90 3e 4f 13 8d bd 26 28 2c 3e de 36 be bd
       0.2830502 -0.068884484 0.1681219 -0.09287809
000180 50 0c 88 3e e9 b2 31 be 29 ec 3c 3e 0c 45 7d be
       0.26571894 -0.17353405 0.18449463 -0.2473337
000190 75 23 8d be c3 11 15 3e 53 b9 28 be 5a 23 76 3e
       -0.27566114 0.14557557 -0.16476946 0.24036923
0001a0 74 b8 1d be 32 5c e6 bd 2b f6 90 3e 88 dd 46 3e
       -0.15402395 -0.112480536 0.2831281 0.19420445
0001b0 4b a7 7d be ab 4f 9f be 52 3e 0e 3e 41 bc 02 be
       -0.24770848 -0.3111547 0.13890961 -0.12767126
0001c0 f6 d2 66 be a1 08 8e 3e 0f 2f 7c bc f2 72 26 be
       -0.22541413 0.27740958 -0.015392079 -0.16254786
0001d0 94 df 0c 3e 3a 04 9c bd 25 46 3e bc 86 9d 4b be
       0.13757163 -0.07617994 -0.011613403 -0.19884309
0001e0 a0 34 57 3c 7a 0a 27 be 71 cc b6 3c 2b cd 84 be
       0.013135105 -0.1631259 0.022314282 -0.2593778
0001f0 49 3f 20 3e 7b cf ce bd 96 de 2f bd c7 a6 92 3c
       0.15649141 -0.100981675 -0.042936884 0.017901791

layers.1.weight f4 [128]
000000 e6 64 7f 3f 15 ef 83 3f db 96 7d 3f 7a 21 7b 3f
       0.99763334 1.0307337 0.9905831 0.98097956
000010 17 ce 80 3f 8a c7 7f 3f de c7 84 3f 9b 3f 7c 3f
       1.0062894 0.9991385 1.0373495 0.98534554
000020 c7 6e 7d 3f fc 35 7e 3f 1d 82 7e 3f e0 31 82 3f
       0.9899716 0.99301124 0.9941729 1.0171471
000030 88 da 7b 3f e7 34 7a 3f ac de 7f 3f e8 a9 7e 3f
       0.9838033 0.9773697 0.99949145 0.99478006
000040 32 98 80 3f e8 2d 7d 3f 36 c7 78 3f 83 f3 80 3f
       1.0046446 0.9889817 0.9717897 1.0074314
000050 48 93 7c 3f 0d 64 7f 3f d9 48 85 3f 65 89 7c 3f
       0.98662233 0.9976204 1.0412856 0.9864715
000060 0d d6 7b 3f 9f af 85 3f 57 83 7c 3f 13 b1 80 3f
       0.9837349 1.044422 0.9863791 1.0054039
000070 a9 3a 82 3f b1 2a 7d 3f f9 79 83 3f 3f 5b 82 3f
       1.0174152 0.98893267 1.0271598 1.0184096
000080 26 77 7e 3f 9b c6 83 3f 65 1a 7d 3f ae 4f 7c 3f
       0.99400556 1.0294985 0.988684 0.9855908
000090 62 68 7e 3f 8e 41 81 3f 5c 2c 79 3f b7 58 80 3f
       0.99378026 1.0098131 0.9733331 1.0027074
0000a0 51 d7 84 3f 78 f4 7c 3f f7 9d 7e 3f 8c d7 81 3f
       1.0378209 0.9881053 0.99459785 1.0143905
0000b0 d7 e0 80 3f 7c af 81 3f 75 df 7b 3f 2a b9 80 3f
       1.0068616 1.0131679 0.98387843 1.0056508
0000c0 58 8b 78 3f b6 a5 82 3f 28 3d 80 3f 6c 2d 84 3f
       0.9708762 1.0206821 1.0018663 1.0326362
0000d0 f8 ac 7f 3f fd 95 7c 3f c8 51 7f 3f 4e 5e 83 3f
       0.99873304 0.98666364 0.99734163 1.0263155
0000e0 e2 d0 7a 3f 44 3b 7a 3f 8e 5f 79 3f 60 06 80 3f
       0.9797498 0.9774668 0.9741143 1.0001945
0000f0 7e bb 7f 3f d6 a7 7b 3f d5 34 80 3f a5 27 80 3f
       0.99895465 0.9830297 1.0016123 1.0012099
000100 93 43 80 3f 29 d3 81 3f 87 06 81 3f 45 a6 81 3f
       1.0020622 1.0142566 1.0080117 1.0128866
000110 8a 8b 80 3f 06 b2 80 3f 7c 46 7d 3f 0e f3 80 3f
       1.0042584 1.0054328 0.98935676 1.0074174
000120 1b 6a 80 3f 2f 6b 85 3f 2a 82 7c 3f 38 86 7c 3f
       1.0032381 1.0423335 0.98636115 0.986423
000130 4d a2 81 3f e6 69 7f 3f 34 25 83 3f 59 4f 81 3f
       1.0127655 0.99770963 1.0245728 1.010234
000140 45 09 7d 3f fc ed 7f 3f c7 da 7b 3f 23 95 81 3f
       0.9884227 0.9997251 0.983807 1.0123638
000150 0b e7 7d 3f f5 b4 7b 3f 0f c4 7f 3f e4 8e 81 3f
       0.9918067 0.98322994 0.99908537 1.0121732
000160 a8 fb 80 3f 0e 1b 80 3f fa 06 80 3f f8 b2 7f 3f
       1.0076799 1.0008256 1.0002129 0.9988246
000170 46 94 7c 3f 6a 8a 7b 3f 08 5d 7f 3f 0b 21 7d 3f
       0.9866375 0.9825808 0.9975133 0.98878545
000180 f9 95 7a 3f fd d2 80 3f 52 50 7c 3f 75 01 7c 3f
       0.9788509 1.0064389 0.9856006 0.98439723
000190 cc cb 7b 3f 04 bc 84 3f 9e ad 7c 3f 3e 88 7a 3f
       0.98357844 1.0369878 0.9870242 0.9786414
0001a0 53 06 80 3f 2d 8f 80 3f 96 56 7e 3f 08 5a 83 3f
       1.000193 1.0043694 0.9935087 1.026185
0001b0 5e df 80 3f cb df 81 3f 6f dd 79 3f 14 49 7c 3f
       1.0068166 1.0146421 0.97603506 0.9854901
0001c0 66 e0 81 3f f2 2a 80 3f 48 e0 7c 3f 03 b9 7d 3f
       1.0146606 1.0013106 0.98779726 0.9911043
0001d0 df d8 7a 3f bf fa 7d 3f 63 57 79 3f 98 f4 79 3f
       0.9798717 0.99210733 0.97398967 0.97638845
0001e0 2a b3 81 3f d1 46 7e 3f 01 06 81 3f c9 13 80 3f
       1.0132802 0.9932681 1.0079957 1.0006038
0001f0 74 df 7f 3f c8 ac 82 3f e7 52 81 3f b5 63 81 3f
       0.9995034 1.0208979 1.0103425 1.0108553

layers.1.bias f4 [128]
000000 93 6d d5 38 4f 16 2c 3d 73 19 fc bb 51 e0 ac bc
       0.00010177041 0.042013463 -0.0076934635 -0.021103056
000010 99 d4 8d bb dc 84 a3 3a 90 51 14 3d 81 05 64 bc
       -0.004328322 0.0012475508 0.036210597 -0.013917328
000020 96 09 d5 bc 12 f4 02 3a 14 23 9a 3c 94 d3 cf 3b
       -0.026005547 0.0004995476 0.018815555 0.0063423607
000030 e2 de 04 bc 63 49 59 bc 71 78 0f bb c7 6c 94 3b
       -0.00810978 -0.013262126 -0.0021891857 0.004529569
000040 b3 26 05 bb 54 42 9a bb 67 9a 5b bc 9e cb ff 3b
       -0.0020317256 -0.004707614 -0.013403512 0.0078062555
000050 de db 8c bc 57 e7 82 3b e4 19 0f 3d 5f f7 44 bc
       -0.017194685 0.003994863 0.0349368 -0.0120218685
000060 6c 4d 5f bc c6 60 27 3d 51 4f 82 bc bd aa e2 3c
       -0.013629299 0.040863775 -0.015906962 0.027669305
000070 2d 79 51 3b 60 bf 16 bc c8 fb 0f 3d 26 fd ba 3c
       0.0031963096 -0.009200901 0.035152227 0.022825789
000080 c6 a1 0e bc a6 13 38 3d f2 33 49 3b 3d e5 74 bc
       -0.008705562 0.044940613 0.0030701128 -0.014947233
000090 88 86 85 bb 67 fe 38 3c 65 c9 55 bc 83 0c 91 3b
       -0.0040748753 0.011291123 -0.0130485045 0.0044265403
0000a0 59 2e fe 3c 85 cf 17 bc 19 1e 1a bc 19 94 a5 3c
       0.03102796 -0.009265785 -0.00940659 0.02021222
0000b0 66 ba 9e 3c 77 d9 7d bc 37 10 4b bc 94 1a a4 3c
       0.019375991 -0.015493742 -0.012394003 0.020032205
0000c0 d2 15 25 bc 55 d7 fa 3c c6 6a db 3b 19 c9 64 3c
       -0.010076003 0.030620256 0.006696078 0.013963961
0000d0 50 69 a1 bc 70 db 0c bc da d1 13 3b 15 0d c4 3c
       -0.019703537 -0.00859724 0.0022555501 0.02393202
0000e0 e1 84 e0 bc 9c e4 b5 bc a7 d7 c1 bc c6 a6 6b 3c
       -0.027407112 -0.022203736 -0.023662401 0.014383024
0000f0 9d d2 f1 bb cb 0a af bc 5b b3 8f bb a8 9b 85 3b
       -0.0073798434 -0.021367451 -0.0043853945 0.0040773936
000100 88 61 e6 3c 5b 92 13 3c d0 ea 8b bb 8b 2c 15 bc
       0.028122678 0.009007062 -0.004269935 -0.009104858
000110 9d 13 f0 ba 55 5d 8d 3c 11 c9 b1 bb 26 02 31 3c
       -0.0018316392 0.017256418 -0.0054255803 0.010803735
000120 fc 8b 87 b9 48 c5 b3 3c 7d 80 e2 39 86 0b 6c 3b
       -0.00025853503 0.021944657 0.0004320181 0.003601761
000130 e4 11 6e 3c 3f 7e a2 3c 78 be b2 3c 6a a8 eb 3b
       0.014530633 0.01983559 0.021819338 0.0071917074
000140 77 b8 8a 3b cf e6 e9 3b 81 a9 68 bc 80 ae e4 3b
       0.0042334157 0.00713811 -0.014200569 0.00697881
000150 f2 63 e6 bb 3a a4 d7 b9 ba 34 10 3c fe c1 83 3c
       -0.0070309574 -0.00041130354 0.0088016335 0.016083714
000160 1d 6d 0a 3c 1a 47 0a bc 88 bf 13 3c 7d d6 0e 3c
       0.008448866 -0.0084398035 0.009017833 0.00871813
000170 70 17 6b bc 6b 91 ce bc 97 9c 13 bb b7 4b 51 bc
       -0.01434885 -0.025215825 -0.0022523755 -0.0127743995
000180 df 39 ed bc 9c af 9f 3c 16 bc 62 bc 68 c9 af bc
       -0.02895826 0.019492917 -0.0138387885 -0.021458343
000190 b1 a3 61 37 8b 6f 83 3c f3 d8 92 bc f5 0a 20 bc
       1.3449157e-05 0.016044399 -0.017925715 -0.009768237
0001a0 c8 5e e0 3a c7 ce e1 bb f2 f4 9a 3b be 4e 17 3d
       0.0017118091 -0.006891105 0.004728907 0.03694033
0001b0 67 ab 5d 3c ac a6 0b 3c 23 ea c1 bc 0f 7b ce bc
       0.013529635 0.008523624 -0.023671215 -0.025205163
0001c0 a0 5b 90 3c 99 57 3f 3c 4d 28 16 bc 24 77 f7 bb
       0.017621815 0.0116786 -0.009164882 -0.0075520445
0001d0 cb c7 e1 bc e5 e4 75 bc b7 7c af bc 4f f0 c9 bc
       -0.027561089 -0.015008186 -0.021421773 -0.02465072
0001e0 9e a2 bc b9 8f c5 87 3b 01 dd 2f 3b 6c c5 ae ba
       -0.00035979314 0.004143424 0.002683461 -0.0013333983
0001f0 66 8a 40 ba fd 79 ad 3b ed ed 58 3c b4 74 05 3d
       -0.0007344842 0.005294083 0.01324032 0.032582

layers.1.running_mean f4 [128]
000000 26 75 08 be 00 59 b0 3d 5b ec 86 3e cb fc d4 3c
       -0.13325939 0.086107254 0.263522 0.025999447
000010 71 5c 55 3d 3e cb ca 3d 37 d0 4f bd 80 9f 3e be
       0.052090112 0.099020466 -0.05073568 -0.18615532
000020 ea a6 78 3d b1 35 1b 3e cc 0d ec 3e 8f a3 a5 be
       0.060706057 0.151572 0.46104276 -0.32351348
000030 9e de d3 bb b1 a7 f2 3d 0f c4 62 be aa c7 a8 be
       -0.006465747 0.11848391 -0.22145103 -0.32964832
000040 b4 f4 6b 3d 01 c6 5b bc a8 4e aa 3d df 80 be 3d
       0.057606414 -0.013413907 0.08315784 0.09301924
000050 0c c0 17 bd 1a ae d4 bd b0 a5 93 be 07 2d 60 3b
       -0.037048385 -0.1038477 -0.28837347 0.0034206526
000060 90 45 ed 3d 85 99 c5 3c 6e 14 70 be 2a f0 46 3e
       0.115855336 0.024121055 -0.23445293 0.19427553
000070 12 e0 17 3e 1c f2 9c bd a9 5b a1 be 64 d3 46 be
       0.1483157 -0.07663366 -0.31515244 -0.19416577
000080 31 3e 8d 3c f1 a4 8b 3d f4 0f 62 3e 90 b2 92 3e
       0.01724157 0.068185695 0.22076398 0.28651857
000090 df 39 3c be b9 98 3f be d5 98 ec bb 51 d3 3e 3e
       -0.18381451 -0.18710603 -0.0072203674 0.18635298
0000a0 87 63 a3 be 6e f5 4d 3c 7f 54 75 3e 49 4a 4f 3e
       -0.3191187 0.012570722 0.23958014 0.20243181
0000b0 20 24 4e be ca 62 07 3e 56 3f a5 be e2 83 bf be
       -0.20130968 0.13221279 -0.32274884 -0.37405306
0000c0 1e f5 1f 3e c2 eb a1 3e 81 ff 9b 3e 9c 8a c8 3d
       0.15620849 0.3162518 0.30468372 0.09792063
0000d0 8d ce 1a 3e e5 36 8d 3e f6 b6 1b be cb f5 d5 bd
       0.15117855 0.27580944 -0.15206513 -0.10447272
0000e0 93 f0 6c bd ef 12 16 bb 3a e6 6e be b2 dd 5d 3e
       -0.057846617 -0.002289947 -0.23330012 0.21666601
0000f0 cc 08 38 3e a9 b6 13 3e 2a 50 d9 be a6 ed bf 3d
       0.17972106 0.14425148 -0.42443973 0.093715
000100 4a 4b f1 bc 43 61 ad be 73 22 8b be 82 08 d9 3d
       -0.029454846 -0.33863267 -0.2717472 0.10597326
000110 50 73 1b 3e 69 d4 60 be 0c 66 27 be 5c 80 75 3e
       0.15180707 -0.21956028 -0.16347522 0.23974746
000120 4c f3 00 bd 6a 6e 09 be 79 33 7e be d1 28 cb bd
       -0.031482026 -0.13421026 -0.24824323 -0.099198945
000130 de 46 2c 3e 54 a6 a2 3d 43 c7 79 3e f5 02 b0 be
       0.16823909 0.07941881 0.24392419 -0.34377256
000140 5a 97 c9 bd ab ee 32 be 21 aa 72 bd bf 5b 5a be
       -0.09843321 -0.17473857 -0.05924428 -0.21324061
000150 36 80 50 3e 39 45 08 3e 8e 36 d5 3d 65 96 45 be
       0.20361409 0.13307656 0.10410796 -0.19295652
000160 10 d5 11 be 9e c5 70 bd a6 38 4c 3e 52 09 17 3e
       -0.14241433 -0.058782212 0.19943485 0.14749649
000170 9c 29 8c 3e 7a 84 21 bd 61 4d 04 3e ec 3c c2 bd
       0.27375495 -0.03943298 0.12920143 -0.09484276
000180 a7 1a b0 3e d1 27 8a bd e4 56 8a 3e 27 aa 85 be
       0.34395334 -0.067458756 0.27019417 -0.26106378
000190 1a 11 6e be 84 8f 8f 3d 70 2c f9 bd b3 58 1e 3e
       -0.23248711 0.07009795 -0.12166679 0.15463524
0001a0 f9 23 90 be 71 78 4f be c8 dd 7f 3e 7a 1c e6 3b
       -0.28152445 -0.20260789 0.24986947 0.0070224376
0001b0 65 6d f7 bd ff b6 bb be f3 8c 03 3e 18 c7 53 be
       -0.12081412 -0.36663052 0.12846737 -0.20681417
0001c0 45 55 f8 bd 13 50 a3 3e 54 65 b3 bd 9d 1c ee bc
       -0.12125639 0.3189703 -0.08759561 -0.029066378
0001d0 c6 a6 d0 3d f0 ce 9a bd 84 29 94 bc d3 f2 26 be
       0.101880595 -0.075590014 -0.018086202 -0.16303568
0001e0 49 50 fd bc 4f 36 c4 bd 72 9d 04 be 7b bd ea bd
       -0.030922072 -0.09580671 -0.12950686 -0.11461922
0001f0 4c b1 a0 3e 47 1a 05 be 1c 33 be 3c a2 b3 06 3e
       0.31385267 -0.12998305 0.02321773 0.13154462

layers.1.running_var f4 [128]
000000 7c 8c 39 3e 3b eb 13 3e 9d f5 37 3e 06 bb a0 3e
       0.18119997 0.14445202 0.17964788 0.31392688
000010 a8 19 85 3e b6 e9 3a 3e 06 c9 49 3e c6 34 ee 3d
       0.25996137 0.18253216 0.1970559 0.116311595
000020 84 a3 0b 3e b4 0b 01 3e 4c eb f2 3e 33 4f 9d 3e
       0.13636595 0.1260212 0.47445142 0.30724487
000030 30 e1 1a 3f 49 19 9b 3e 80 ca 86 3e 71 ef 82 3e
       0.6049986 0.3029273 0.2632637 0.25573304
000040 1b 0b 9d 3e 69 22 1d 3e 35 12 d0 3d e3 f1 5e 3e
       0.30672535 0.15345158 0.10159723 0.2177196
000050 c0 52 ae 3e b0 3c 62 3e 65 40 d8 3d d1 29 19 3e
       0.34047508 0.22093463 0.10559157 0.14957358
000060 f6 5f 8e 3e ed 8d 2f 3e 11 76 5a 3e d7 93 bb 3e
       0.27807587 0.17143984 0.21334101 0.3663623
000070 c1 ef 5b 3e 2d 0f 62 3e 9c 90 ae 3e 45 3d 3e 3e
       0.21478178 0.22076102 0.34094703 0.1857806
000080 ee 60 27 3e 7f 65 b7 3e 83 6a fd 3d 91 e7 be 3e
       0.1634557 0.35819623 0.12373831 0.37286046
000090 86 33 b4 3e 82 f9 8c 3e ad 8d 7e 3e b7 0a f6 3e
       0.3519556 0.2753411 0.24858733 0.4805505
0000a0 50 fb 96 3e 59 56 39 3e 5c dd 46 3e 73 d7 58 3e
       0.2948861 0.18099345 0.1942038 0.21175937
0000b0 ab de 6d 3e 50 1d c3 3e 41 f1 70 3e 63 48 9f 3e
       0.23229472 0.381083 0.23529531 0.31109914
0000c0 b0 2b 03 3e 12 9d 1c 3e 85 76 b4 3e 4c d3 8b 3e
       0.12809634 0.15294293 0.35246673 0.27309644
0000d0 c8 0f 38 3e 01 22 6f 3c 2f 08 9a 3e 9e 75 b3 3e
       0.1797477 0.0145955095 0.3008437 0.35050672
0000e0 0f 55 56 3e e1 13 13 3e fa 40 a4 3e 4e 90 13 3e
       0.20930885 0.14363052 0.32080823 0.14410517
0000f0 85 ff e5 3e bc bc 71 3e b8 fa b4 3e 71 9b ca 3e
       0.44921508 0.23607153 0.35347533 0.39571717
000100 12 4e a0 3e 50 90 c1 3e 60 d7 3c 3e ae d8 f4 3e
       0.31309563 0.37805414 0.18441534 0.47821563
000110 2e 50 b5 3e ce 28 3f 3e 65 77 ed 3e 7a 2a a2 3e
       0.35412735 0.1866791 0.46380153 0.31673032
000120 ec 0e da 3e 3b ce fd 3d 58 f8 50 3e 83 48 d9 3e
       0.4258951 0.12392851 0.20407236 0.42438135
000130 9a ab 46 3e 29 26 b7 3e 43 26 87 3e 39 28 bf 3e
       0.19401398 0.357713 0.2639638 0.37335375
000140 6f 08 19 3e 9f 37 77 3e 43 13 5a 3e 86 93 00 3e
       0.14944623 0.24142312 0.2129641 0.12556276
000150 1b c3 3f 3e 74 bb b7 3e ff 5f 46 3e 81 29 f7 3d
       0.1872677 0.35885203 0.19372557 0.12068463
000160 c5 b1 63 3e 47 52 3b 3e 38 88 a6 3e a4 23 a0 3e
       0.22235782 0.18293105 0.32525802 0.31277192
000170 79 fc 34 3e 47 f5 bc 3d 47 25 2c 3e a7 27 c0 3e
       0.17674436 0.092264704 0.16811095 0.37530252
000180 e3 84 5a 3e e8 19 b1 3e e4 92 8c 3e 4b ac 0b 3f
       0.21339755 0.34590077 0.2745582 0.54559773
000190 6a 60 d0 3e d1 3c 8d 3e ee 91 7b 3e 17 ca bf 3e
       0.40698558 0.27585462 0.24567387 0.3745887
0001a0 b5 d4 d0 3e b7 66 0f 3e 43 75 fd 3e b2 d4 02 3f
       0.40787283 0.14004026 0.49503526 0.511058
0001b0 f9 06 ce 3e 27 05 0b 3e 12 ca 49 3e 47 fa ad 3e
       0.40239695 0.13576184 0.1970599 0.3398001
0001c0 b0 df 80 3e 19 ef 3c 3e 7e ab 3e 3e 26 14 a4 3e
       0.2517066 0.18450584 0.18620107 0.32046622
0001d0 4e d7 2a 3e dd e3 80 3e 68 47 d1 3e 32 94 1f 3e
       0.16683695 0.25173846 0.4087479 0.15583876
0001e0 88 ed a3 3e fa c9 1a 3e bb a1 09 3f db 00 a2 3e
       0.3201716 0.1511611 0.53762406 0.31641278
0001f0 9a a0 e2 3e 74 c5 be 3d 48 c8 42 3e 14 90 9b 3e
       0.44263154 0.09315005 0.19021714 0.3038336

layers.4.weight f4 [128, 128]
000000 b0 57 97 bc eb 51 a2 3d 06 b2 ab 3c 19 c7 10 bc
       -0.01847443 0.07925781 0.020958912 -0.008836531
000010 55 d5 72 bd d4 e7 a5 bd 0a 62 f1 bc 2e 30 91 bb
       -0.05928548 -0.08100858 -0.029465694 -0.0044307923
000020 70 b6 fd bc a1 52 e2 bb 4c 1d 95 bd 76 a9 4c bd
       -0.030970782 -0.006906823 -0.072809786 -0.049966298
000030 ee 91 27 bd 91 35 fc 3b 41 fd 35 3d 92 b9 c2 3d
       -0.040910654 0.0076968153 0.044430975 0.09508051
000040 a1 37 4e 3d 45 80 ad 3c e0 11 90 bc 54 8b 89 bd
       0.05034602 0.021179328 -0.017586648 -0.06716028
000050 95 23 a1 3c 18 00 48 bd a7 5e bb bc e4 3f 50 3d
       0.019670287 -0.048828214 -0.022872282 0.05084218
000060 1d f7 04 3d c2 a7 7a 3d cb 51 3f bd 31 4a 2b bd
       0.032462228 0.061195143 -0.046708863 -0.0418188
000070 99 4b 93 bd 4c 29 9c 3d 6b 5e 55 bd 3d c4 9d bd
       -0.071921535 0.07625064 -0.052091997 -0.07703445
000080 12 0a b3 bd 1a 3c 65 3d 58 18 4e 3d 64 80 30 3d
       -0.08742155 0.05596552 0.050316185 0.043091193
000090 59 a5 88 b9 0d 69 49 bd c4 28 1b ba 0c 31 46 3d
       -0.00026063135 -0.04917245 -0.00059188553 0.04838662
0000a0 40 9e 26 bc d0 e6 2d bc f8 1c ea 3c 7a b1 4e 3d
       -0.010169566 -0.010614112 0.028578267 0.050462224
0000b0 d3 d2 1a bd 41 19 9d bc bb 6e a7 bd 60 45 1e 3d
       -0.037798714 -0.019177081 -0.08175417 0.03864038
0000c0 b7 dd 3a bd 9c 10 e5 bb a1 f0 9a 3b 12 9e aa bd
       -0.0456216 -0.0069905054 0.004728392 -0.08330931
0000d0 af 53 d5 bc ba ee 58 3d 0d 95 11 3d a7 64 98 3d
       -0.02604088 0.052962042 0.035542537 0.07441073
0000e0 53 c7 65 bd 02 cd 1e 3d 82 ce a9 3d a5 29 25 3d
       -0.056098294 0.03876973 0.08291341 0.04032292
0000f0 1b fb 45 bd 3e ea cd 3c 84 80 8d bd 4a 86 ba bb
       -0.048335176 0.02513611 -0.06909278 -0.005692278
000100 69 36 0e 3c b5 a5 ac bd 98 bf 87 3d b8 d7 da bc
       0.008679965 -0.084300436 0.066283405 -0.02671419
000110 0c a7 26 bd 8f 04 4b 3d 9e 13 6f bc bc e1 15 bd
       -0.040686652 0.049564894 -0.014592079 -0.03659223
000120 d9 65 5d 3d bf 6b 91 bd 5c 7f 00 3d 8e 69 66 3d
       0.054052208 -0.07100629 0.03137146 0.05625301
000130 ee 5d a9 bc 43 8f ac 3d 90 a7 26 3d b5 a2 4d 3d
       -0.020674672 0.084257625 0.040687144 0.050203998
000140 48 2f 93 3d 82 51 91 3d 91 46 9b bc 57 db 9c 3d
       0.071867526 0.070956245 -0.018954547 0.07659023
000150 ab a4 08 3c 85 d7 3d bd 6a f2 3d bd 39 bf 8a bd
       0.008340041 -0.046348114 -0.046373762 -0.06774754
000160 d2 a1 1e 3d 8b 50 28 bc 74 eb 18 ba 3a 65 54 bd
       0.038728543 -0.010273109 -0.0005833425 -0.05185435
000170 3d 16 3d bd 71 d9 3e bc d1 a7 63 38 b4 07 1b bc
       -0.046163786 -0.011648522 5.427731e-05 -0.009462286
000180 76 07 f1 bc 1f 68 1a bd 78 42 3f 3d 38 76 08 bc
       -0.029422503 -0.037696954 0.04669425 -0.008328967
000190 c5 22 57 3a 30 a1 1a 3d 0d 55 ac 3d 45 0d ac 3d
       0.000820678 0.037751377 0.0841466 0.084009685
0001a0 ad 78 a8 bd 6c 29 e8 bb 8e eb 7d 3d 68 48 a7 3d
       -0.08226142 -0.007085016 0.06199222 0.08168107
0001b0 f9 9e 46 3d cf 49 70 3d 5a 51 13 3d eb 1b 9f 3d
       0.048491452 0.05866414 0.035966255 0.07768997
0001c0 f5 f3 ad bd 9d d0 05 bd 2a 66 37 3d 3d c0 85 bd
       -0.08493797 -0.032669652 0.044775166 -0.06530807
0001d0 3e 09 ad 3d 45 ff 85 bd 27 d8 f1 3b 90 3e a0 3d
       0.084490284 -0.065428294 0.0073805037 0.07824433
0001e0 16 0e a4 3c 64 52 a2 bc a5 49 62 3d 11 6e 57 3d
       0.020026248 -0.019814678 0.055246014 0.052595202
0001f0 94 ff 7e 3d d7 8f 5d bd 7b 18 44 bb a1 ed fc 3c
       0.062255457 -0.054092254 -0.0029921818 0.030875029
000200 b2 a5 c3 bc 24 3b d7 3d 5c 45 0d 3d 5c ef d0 bc
       -0.02388272 0.10509327 0.034489974 -0.02550476
000210 18 f5 3c 3d 06 3f 5e 3d 38 a0 22 bd 95 2a 85 3d
       0.046132177 0.054259323 -0.039703578 0.065022625
000220 f7 9a 92 3d cd d6 77 bd f1 f6 05 3d 23 18 a2 bd
       0.071584634 -0.060507584 0.032706205 -0.0791476
000230 94 a9 97 3d 2e 09 da bc 50 bb f7 bc 0a b1 61 bd
       0.07405391 -0.026615705 -0.030240685 -0.05510048
000240 40 9d 34 3d 31 f9 8f bd 7e b7 72 3d 37 78 b8 bc
       0.044095278 -0.07029951 0.059257023 -0.02251826
000250 41 63 a4 bc fd da ee bb ee 49 97 bd fa e7 98 3d
       -0.02006686 -0.007289289 -0.07387148 0.07466121
000260 fb 19 1a 3c 37 3b 1e bd a7 7f 8e 3d 30 9e dc ba
       0.009405608 -0.03863069 0.069579415 -0.0016831812
000270 95 ee b3 bc 29 64 84 bd f3 5c 8c bd f2 7c 3a bc
       -0.02196435 -0.064644165 -0.06853666 -0.011382328
000280 bf c6 de 3a 79 d6 6f 3b a0 a5 6a 3c ef 21 86 bd
       0.0016996487 0.0036596342 0.014321715 -0.06549441
000290 95 b2 14 3d c8 34 50 bd dd af b3 bc c4 20 cc bb
       0.03630312 -0.050831586 -0.021934444 -0.006229492
0002a0 7c 6f d3 bd 65 7d 69 bd 74 6a 9c bd e9 c4 36 3d
       -0.10323998 -0.05700435 -0.07637492 0.044621382
0002b0 2b ad 7f 3d 06 80 3a bd 31 be 75 3d 9e 23 10 3d
       0.062421005 -0.04553225 0.059995834 0.035190217
0002c0 d5 3b 98 bd 88 5d 86 3c 2f 96 91 bd 1d 7e 83 3d
       -0.07433287 0.016402021 -0.07108723 0.064205386
0002d0 5d dc bd bc 46 9f b3 bc 30 24 78 bd 8e b5 9e bd
       -0.023176366 -0.021926533 -0.060581386 -0.077494726
0002e0 35 49 1e bd d0 e4 fc bb ca 39 43 3d 69 1d 2d bd
       -0.038644034 -0.0077177063 0.047662534 -0.042264376
0002f0 1e 06 f2 bc 42 88 8a bd 90 0b 63 3d 6e 1b 0c bd
       -0.029543933 -0.0676427 0.05543095 -0.034205846
000300 35 69 bb 3b e8 e4 ee bd 05 f9 97 bd 00 10 b8 bd
       0.0057193288 -0.11664754 -0.074205436 -0.08987427
000310 b0 3d a3 3b ac 22 a0 3c 9a fb 35 3d f1 69 b9 3d
       0.004981719 0.019547783 0.0444294 0.0905341
000320 5d f6 7c bd 94 06 8b 3d 7e 85 63 38 75 16 51 bd
       -0.061758388 0.06788364 5.424534e-05 -0.051046807
000330 8f 48 a6 3b ff 1d 43 3d 91 87 a7 bd 61 9b 5c 3d
       0.0050745676 0.04763603 -0.08180154 0.05385912
000340 eb 63 f2 bb 36 a2 ac 3d 0b a2 25 3c 1d 98 cd ba
       -0.007397165 0.08429377 0.010109435 -0.0015685592
000350 57 37 36 3d ce 06 d7 ba cb f9 58 3c 5e 1c 29 bd
       0.04448637 -0.0016405226 0.013243149 -0.04128682
000360 df ce 4a bd 0b cf c7 bd a9 db d2 bc aa 06 44 3d
       -0.049513694 -0.09756287 -0.025739508 0.047857918
000370 e2 df 66 3c dd fb 51 3d 79 19 8d 3c db 91 70 3d
       0.014091464 0.051265586 0.01722406 0.05873285
000380 73 30 95 bd 82 07 27 3d 41 82 e3 bc 1e ec 55 3d
       -0.072846316 0.040778644 -0.02777207 0.052227132
000390 88 72 32 3d 74 ed aa bd 57 a8 16 3d 0a 73 fe bc
       0.043566257 -0.08346072 0.036781635 -0.031060714
0003a0 74 c3 9f 3c 12 1d 2c bd 36 68 37 bd f2 a7 f0 bd
       0.019502379 -0.04201991 -0.044777118 -0.11750783
0003b0 8c 8e 01 3d 29 39 c5 bc b3 11 09 3d 0a 73 b5 3d
       0.031630084 -0.024075108 0.033464145 0.088598326
0003c0 fe fd f4 3c 58 7d 87 3d ce 4f c5 bd b3 bf 21 3d
       0.02990627 0.06615704 -0.09634362 0.03948946
0003d0 c2 04 aa 3d e5 12 2f bd 7f 99 2b 3d d2 42 3d bb
       0.08301689 -0.04274263 0.041894432 -0.002887894
0003e0 9d 87 f0 bc 06 9e 4a bc a6 2f 47 bd 89 47 0e 3c
       -0.02936154 -0.012366777 -0.048629425 0.0086840475
0003f0 68 ed 52 3d 5d b5 03 bd f7 de 2c bb bd cd f5 39
       0.05149594 -0.032155383 -0.0026378015 0.00046883328

layers.4.bias f4 [128]
000000 d9 57 76 ba 9e e7 0c 3d ff 89 2f bd 2d 3a 40 bd
       -0.00093972456 0.034400575 -0.042856213 -0.04693048
000010 fc eb f4 bc f3 b8 7a 3d d5 8c 8b 3d e5 99 8e bd
       -0.029897682 0.061211538 0.06813971 -0.06962947
000020 6b 09 f6 bc 28 b0 2b 3c 68 2e 53 bc f5 2f ee 3c
       -0.030033788 0.010479011 -0.012889482 0.029075602
000030 35 b0 8e 3d c9 43 14 3d 39 2e f8 bc 6c d2 24 3d
       0.069672026 0.036197457 -0.030295478 0.040239736
000040 ec b4 96 3d 56 f0 8f bd ba 3b 9e bd 02 a4 80 3d
       0.07358727 -0.07028262 -0.07726236 0.06281282
000050 a0 4d 94 bd e0 b4 88 3d 8b bf 11 bc d9 13 78 3c
       -0.07241368 0.06675124 -0.008895765 0.015141451
000060 4b d0 cb bc 1e d6 6a bd 6a 09 d6 bc cf 9e 20 3d
       -0.024879595 -0.057333104 -0.026127536 0.03921395
000070 3c 78 0b 3d 63 55 8a bd 8e 44 07 bd e1 35 97 3d
       0.03405021 -0.067545675 -0.033024363 0.073833235
000080 c0 11 76 bd fc d2 8d 3c f3 bd c9 bc 22 4c 78 3b
       -0.06007552 0.01731252 -0.024626708 0.0037887176
000090 cf e7 99 bd b6 85 89 3d 14 1a 49 3d 33 da a1 bd
       -0.07514917 0.067149565 0.049097136 -0.07902946
0000a0 e2 08 51 3d 72 67 9b bc ae ad a2 3d ad 08 41 3d
       0.051033862 -0.018970225 0.07943283 0.047127414
0000b0 6f a8 a0 3c 57 4a c2 3c a0 dd b5 3b b4 fc a7 bd
       0.019611565 0.023717089 0.0055501014 -0.08202496
0000c0 0e 4a 75 3c d4 b9 f7 3c f2 a0 99 3d 7b 0f 8c bc
       0.014971269 0.030239977 0.07501401 -0.017097225
0000d0 78 17 1b bd 6a f3 a0 bd f5 ae 8f 3c 31 16 b2 3c
       -0.03786418 -0.078589275 0.01753948 0.021739097
0000e0 0b 64 5f 3d 6e e3 45 3d 95 86 5f 3c 1e 13 1d bc
       0.054538768 0.048312597 0.013642927 -0.009587077
0000f0 ab a5 d0 3b d8 02 28 3d a9 42 62 bd a3 70 c0 3c
       0.0063674054 0.041018337 -0.055239353 0.02349121
000100 32 2d 98 bc 7f 93 85 bd 73 b5 d2 bc 12 a5 b3 3d
       -0.018576238 -0.06522273 -0.025721287 0.08771719
000110 f2 d4 26 bc 4e a0 be bb a6 bd 44 bc 1a ff 79 3d
       -0.010182606 -0.0058174497 -0.012008106 0.0610343
000120 c5 92 88 bd 69 af 7c bc fa 25 96 3d 12 3d 66 3c
       -0.06668619 -0.01542268 0.07331462 0.014052646
000130 b6 4b 40 bd 6c 53 62 3d 39 68 92 bc 7c a4 e6 3c
       -0.046947204 0.05525534 -0.017871963 0.028154604
000140 82 33 c4 3c 24 b6 57 3d b6 c1 81 bd 10 69 4c bd
       0.023950342 0.052663937 -0.063357756 -0.049904883
000150 2f cb 6e bd f4 92 e4 3b 03 32 61 bd 2f d4 5c 3d
       -0.05829924 0.006975526 -0.054979336 0.05391329
000160 b3 84 3c 3c bb 28 44 3d 3e 5b 95 3d 4b bb ed bc
       0.011506247 0.047890406 0.07292794 -0.029019972
000170 fe 4b 95 3d ff 85 36 bb e3 aa 6a bd 0f 32 9f bd
       0.07289885 -0.0027850864 -0.057291877 -0.0777322
000180 4e 10 aa 3d c0 78 00 bd 2a de 10 3c 0c 2a 3e bd
       0.08303891 -0.031365156 0.008842031 -0.046426818
000190 76 16 82 3b 8f 33 c3 bc 10 82 64 bd 2d 99 1e 3c
       0.0039699627 -0.023828296 -0.0557881 0.009680075
0001a0 f9 0a 80 3d d5 fc 24 3d b2 37 35 3d a6 0f a1 bd
       0.06252093 0.040280182 0.04424257 -0.07864313
0001b0 8c 4b 91 3d 1f 77 a2 bc 07 87 af bd b0 82 55 3d
       0.070944875 -0.019832192 -0.08570676 0.052126586
0001c0 ce 3d 77 3b b7 f0 5b bd f6 f6 b3 3d 55 2d d3 3c
       0.0037726047 -0.05369636 0.087873384 0.025778452
0001d0 95 53 d1 bc 9f bf a8 bd e9 9b a8 3d 3f 1d 85 bd
       -0.02555255 -0.08239674 0.082328625 -0.06499719
0001e0 30 1f a7 3c 4a 21 34 bd 1f ce 4c bd 3c ac 53 3d
       0.020400614 -0.04397706 -0.05000126 0.051677927
0001f0 8c 23 32 3b 66 c3 90 bd 72 1e db 3b 05 b1 51 3d
       0.0027181832 -0.07068519 0.006686979 0.05119421

layers.5.weight f4 [128]
000000 5c 31 7a 3f f4 b2 80 3f 91 15 7a 3f d6 47 80 3f
       0.97731566 1.0054612 0.9768916 1.0021923
000010 ef 03 82 3f 92 5a 7d 3f a8 f7 83 3f 9a 5e 81 3f
       1.015745 0.98966324 1.0309954 1.0106995
000020 1b db 7b 3f 1b ff 80 3f 18 ee 7c 3f d6 23 79 3f
       0.98381203 1.0077852 0.988008 0.97320306
000030 d9 f4 77 3f 98 80 7e 3f 9b 28 79 3f b7 25 7c 3f
       0.9685798 0.9941497 0.97327584 0.9849505
000040 9f 80 7c 3f 70 39 7c 3f 19 40 7f 3f 2d 5e 81 3f
       0.9863376 0.9852514 0.9970718 1.0106865
000050 0b 1f 79 3f 4a 79 7a 3f d6 3c 80 3f ed ee 80 3f
       0.9731299 0.9784132 1.0018566 1.0072914
000060 5c 8c 79 3f 1d aa 7d 3f 34 b3 80 3f c0 0c 7e 3f
       0.97479796 0.990877 1.0054688 0.99238205
000070 2e 4c 7d 3f dd c8 7c 3f b2 ba 84 3f d4 f6 80 3f
       0.98944366 0.98743993 1.0369475 1.0075326
000080 06 51 7d 3f 57 f8 7c 3f c6 41 7c 3f 46 d0 86 3f
       0.98951757 0.98816437 0.9853786 1.053231
000090 9a cc 83 3f 1b 4c 7b 3f 90 e1 7e 3f 63 aa 7d 3f
       1.0296814 0.98163 0.9956293 0.99088115
0000a0 83 7e 81 3f f2 09 81 3f 29 91 7c 3f 6d 0b 81 3f
       1.0116733 1.008116 0.98658997 1.0081612
0000b0 3a c2 81 3f 18 e7 7e 3f 3b 2b 7f 3f 72 aa 83 3f
       1.0137398 0.9957137 0.9967534 1.0286391
0000c0 73 92 84 3f 61 87 85 3f 26 e2 7f 3f 0e a0 7d 3f
       1.0357193 1.0431939 0.9995445 0.9907235
0000d0 d2 cf 7b 3f d8 28 82 3f ac 9b 7d 3f 59 9c 7c 3f
       0.98363984 1.0168715 0.9906566 0.9867607
0000e0 9a 94 7a 3f 9d 42 7b 3f bb d8 7f 3f 72 cd 7d 3f
       0.97883 0.9814852 0.9994008 0.9914161
0000f0 42 78 7e 3f 8b 49 7b 3f 9a 31 82 3f 4c 49 80 3f
       0.9940225 0.9815909 1.0171387 1.0022368
000100 b8 de 81 3f 7c aa 7f 3f 39 78 7f 3f 62 78 80 3f
       1.0146093 0.99869514 0.9979282 1.0036738
000110 18 c0 7a 3f f9 5f 7d 3f 31 87 81 3f 22 85 7e 3f
       0.9794936 0.9897457 1.0119382 0.99421895
000120 e2 15 83 3f bc 34 7a 3f 83 86 85 3f 35 92 79 3f
       1.0241053 0.97736716 1.0431675 0.9748872
000130 6f cf 83 3f a4 7b 82 3f 2d 3e 7b 3f a4 7c 7a 3f
       1.0297679 1.0193982 0.9814175 0.97846437
000140 13 a9 83 3f 3e 81 81 3f 10 e7 7d 3f 20 ac 7f 3f
       1.0285972 1.0117567 0.991807 0.99872017
000150 1c 20 7d 3f 88 61 83 3f 44 9c 80 3f 94 f8 7f 3f
       0.9887712 1.0264139 1.0047688 0.99988675
000160 1f 00 7d 3f 1a 08 7c 3f 1a f7 83 3f a2 0e 86 3f
       0.9882831 0.9844986 1.0309784 1.0473216
000170 4a 5b 81 3f 76 71 80 3f 0f 63 7b 3f 15 8f 7b 3f
       1.0105984 1.0034626 0.98198026 0.982652
000180 3f 6f 7a 3f 73 2f 80 3f f0 7f 7d 3f 27 4f 7b 3f
       0.97826 1.001448 0.9902334 0.9816765
000190 01 fd 78 3f 85 48 7e 3f bf 75 79 3f 1c 2d 7f 3f
       0.97261053 0.99329406 0.9744529 0.99678206
0001a0 70 de 7e 3f 78 39 79 3f 21 bf 7c 3f 5a 3a 84 3f
       0.9955816 0.97353315 0.9872914 1.0330307
0001b0 ae d2 79 3f 99 f4 7b 3f 30 d5 7c 3f d7 0b 7f 3f
       0.97587097 0.984201 0.987628 0.9962744
0001c0 c1 c2 84 3f eb f0 86 3f 06 e9 7a 3f 1b 92 7b 3f
       1.0371934 1.0542272 0.98011816 0.98269814
0001d0 07 56 80 3f 4e 2b 7f 3f f9 81 85 3f 08 7e 79 3f
       1.0026253 0.9967545 1.043029 0.97457933
0001e0 74 e4 7e 3f 1f bb 7f 3f 99 31 82 3f ab 35 7d 3f
       0.9956734 0.998949 1.0171386 0.98910016
0001f0 df 84 80 3f 71 c2 7d 3f f4 6d 7b 3f 33 d9 79 3f
       1.0040549 0.9912482 0.9821465 0.97597045

layers.5.bias f4 [128]
000000 c4 54 0a bc 48 a6 0b 3d ed b4 f1 bc 79 34 8a 3c
       -0.008443061 0.034094125 -0.029505217 0.016870724
000010 ca 08 ad 3c 69 eb 15 bc 37 7d ae 3c 98 03 04 3d
       0.021122355 -0.009150364 0.021299941 0.03222999
000020 d7 19 7d bc 1f 3d 04 3d 72 8a 1c bc d9 88 ec bc
       -0.015448055 0.032284852 -0.009554492 -0.028873848
000030 07 b4 9b bc d3 ad 59 3c 63 30 9a bc d8 ff 37 bc
       -0.019006742 0.013286072 -0.0188219 -0.0112304315
000040 cb d5 05 bc 13 8f 2b bc 79 ad 73 bc 32 f2 bf bb
       -0.008168648 -0.010471123 -0.014872902 -0.0058577294
000050 a2 bd 9d bc de e3 81 bc 57 b2 b9 3b 84 1c ac 3c
       -0.019255463 -0.015855726 0.0056670117 0.021009691
000060 d6 54 e1 bc 62 83 a1 bb ca ff cd 3c 21 e9 05 bc
       -0.027506273 -0.004928992 0.025146384 -0.008173258
000070 0a f3 21 bc ab 9a 4e bc 74 ba 0f 3d 29 14 cd 3c
       -0.009884605 -0.012610118 0.035089925 0.025034027
000080 d3 83 3c bc 8e ca b7 3b 59 a6 8f bc 16 f5 43 3d
       -0.011506039 0.005608863 -0.017535375 0.047841154
000090 f7 e4 14 3d 6e be 63 bc 61 92 1a 3c 43 eb ec 3b
       0.03635117 -0.013900382 0.0094343135 0.007230194
0000a0 ef 1b ca 3c 31 45 de 3c cb 28 85 bc 2d f1 83 3c
       0.024671523 0.027132602 -0.016254803 0.016106213
0000b0 82 51 d5 3c 62 c6 7d 3c 56 1c 24 bc 74 9c 0b 3d
       0.026039843 0.015489193 -0.010016521 0.034084752
0000c0 e8 08 45 3d 44 37 5a 3d cc 2a 20 3c a1 af 2e bc
       0.048104197 0.05327536 0.009775829 -0.01066199
0000d0 ae c3 e7 bb 71 2a b6 3c 06 b9 6c bc 64 f1 94 bc
       -0.0070728874 0.022237035 -0.01444841 -0.01818151
0000e0 ac f5 7a bc a9 ab 88 bc d1 87 0e 3c f4 82 0e bb
       -0.015317362 -0.016683416 0.008699373 -0.0021745535
0000f0 23 72 c1 ba 83 cc 9d bc d8 35 f0 3c 7e ed 49 3c
       -0.0014758747 -0.019262558 0.02932255 0.012324689
000100 dc 62 31 3d 45 35 60 3c 6c ea 47 3c 9d e5 46 3c
       0.04330717 0.013684575 0.012201887 0.012139705
000110 19 56 4f bc 22 33 20 3b e2 27 1e 3d 3c 55 73 3b
       -0.012654805 0.002444454 0.038612254 0.003712966
000120 73 49 71 3c 9e c5 b5 bc 5e 86 2b 3d f2 59 c5 bc
       0.014726984 -0.022188958 0.04187619 -0.02409074
000130 57 43 ed 3c ec 2a 82 ba 86 50 b5 bc 63 36 96 bc
       0.028962774 -0.0009931005 -0.022133123 -0.01833648
000140 66 9f 60 3d c4 e7 a6 3c 89 a8 dc 3a 71 9f dc bb
       0.054839514 0.020374186 0.0016834895 -0.006732874
000150 0c d4 98 bc b2 6a 03 3d 75 04 c1 3b c4 d6 b8 3a
       -0.0186558 0.032084174 0.005890424 0.0014102091
000160 e3 81 c1 bb 0a ee e1 bb 4c db 38 3d 3e 4f 58 3d
       -0.0059053763 -0.0068948315 0.045131013 0.052809946
000170 ac af 0d 3d a7 f3 b3 3b cd e2 30 bc 3b f9 f8 bb
       0.034591362 0.005491692 -0.010796261 -0.00759807
000180 78 aa 95 bc b1 9d 9b 3b 67 50 04 bc fc d0 1b bc
       -0.018269762 0.004749023 -0.00807581 -0.009510275
000190 b6 a5 ac bc 7e c3 1e 3a 78 4f 8b bc ea 23 33 3c
       -0.02107511 0.0006056352 -0.017005667 0.010933856
0001a0 00 fd de 3b 8d 97 be bc 43 22 d2 bb 6e a0 3a 3d
       0.0068050623 -0.023265624 -0.0064127757 0.045563154
0001b0 12 0d b3 bc 07 bb 45 bc a8 e9 6d bc 87 9e 36 bb
       -0.021856818 -0.012068517 -0.01452104 -0.0027865486
0001c0 20 46 31 3d 40 83 78 3d 5a 3a a4 bc a7 86 5e bc
       0.043279767 0.060672045 -0.020047355 -0.013581908
0001d0 f7 93 38 3c de e3 9e 3c 67 71 4c 3d e3 63 dd bb
       0.011265746 0.019395765 0.049912836 -0.006756292
0001e0 d3 8d f0 3a 0d ba d9 3a 9a e2 60 3c 67 ab bb bc
       0.0018352814 0.0016611234 0.013725901 -0.02290888
0001f0 6d fe 0d 3c b6 97 a9 3b 75 74 8b bb 02 29 a3 bc
       0.008666617 0.005175556 -0.004255826 -0.019917015

layers.5.running_mean f4 [128]
000000 bf 76 2a 3e 96 e4 5c be 01 63 69 bd dc a4 08 be
       0.1664686 -0.21571574 -0.056979183 -0.13344139
000010 ca 33 8c 3d 25 72 59 be fa 6b bf bc 34 8a 19 bf
       0.068458155 -0.21234949 -0.023366917 -0.59976506
000020 32 e7 b0 3d 6a b8 70 bd 0d 25 19 be 3d ae 16 3f
       0.08637847 -0.05876962 -0.1495554 0.58859617
000030 40 55 22 be 8e 74 21 3e 80 65 4c be 6a 3d e2 3e
       -0.15852833 0.15767118 -0.19960594 0.4418748
000040 1a 0d 67 be c6 1b 91 3d d3 b6 8a 3d 35 22 f8 3d
       -0.22563592 0.070853755 0.06773152 0.121158995
000050 52 c1 c8 be fb 24 fd 3e 38 02 a9 3c 26 47 33 be
       -0.39209992 0.49442276 0.02063094 -0.1750761
000060 7e b2 ca be e7 67 2d 3e 7e fa a9 be d3 d2 e5 be
       -0.39589304 0.16934167 -0.33198923 -0.4488741
000070 4c e8 11 3f ac 02 6d be 4f 18 c1 3d 35 f4 25 3e
       0.5699508 -0.2314555 0.094284646 0.16206439
000080 64 80 d9 3c af d6 f3 be f7 94 04 3d 3b 02 02 3e
       0.02655048 -0.47624728 0.032368626 0.12696163
000090 42 86 d5 bd 7a 84 12 3e 16 30 a8 3e cc 65 a2 bd
       -0.10425998 0.14308348 0.32849187 -0.079295725
0000a0 1b f9 3e 3e af 47 94 be 6c f5 b0 be 38 56 a8 3d
       0.18649714 -0.2896094 -0.34562242 0.0821957
0000b0 84 08 55 3c 6f dc 61 3e 64 e2 36 3d 0f c7 b2 bd
       0.013002519 0.22056745 0.044649497 -0.08729374
0000c0 47 5c fc be 63 c7 35 3e 78 a9 7a bd 1b 8b 54 3e
       -0.49289152 0.17751841 -0.061196774 0.2075619
0000d0 4b 33 1d 3e ea a0 64 3c 72 f3 c8 3e 42 65 50 bd
       0.15351598 0.0139543805 0.39248234 -0.050877817
0000e0 b8 c1 2c bc 9a 7f 44 be cd d6 28 3e 81 ed 05 bd
       -0.010544233 -0.19189301 0.1648819 -0.032697205
0000f0 70 c5 88 be a8 d1 17 bd 89 8c 07 be 7f 3c 39 be
       -0.26713133 -0.03706518 -0.13237204 -0.18089484
000100 45 07 67 be 95 f8 13 be fe 75 73 bd 24 65 eb 3e
       -0.22561367 -0.14450295 -0.059438698 0.45975602
000110 5d cc 60 3e 06 f0 8e be 18 dc a9 bd cc 39 f2 3e
       0.21952958 -0.27917498 -0.08293933 0.4730972
000120 ad 7a 91 be c7 73 1a be 1a 8e a7 3d 8d ea 7d be
       -0.28413907 -0.15083228 0.081814006 -0.24796505
000130 ec aa 40 bf 68 a6 44 be 87 01 bb 3e 7c 11 23 bf
       -0.75260806 -0.19204104 0.36524603 -0.63698554
000140 b1 1c f7 bd 96 87 b6 bd 7b e0 3e 3d 26 8d ce be
       -0.12066019 -0.0891258 0.0466008 -0.40342063
000150 c8 34 13 3f 40 d9 2a 3e 11 a0 bc be 81 c1 9b be
       0.5750241 0.16684437 -0.3684087 -0.3042107
000160 67 4e 54 3e 35 d6 bd be f2 4b cb 3e a1 33 29 bf
       0.20733033 -0.3707749 0.3970638 -0.66094404
000170 23 e6 7f be 32 58 8b 3e 2c ff 94 3d 28 eb fb be
       -0.24990134 0.27215725 0.07275233 -0.49202847
000180 d9 3f 20 3e a9 05 dc bc 93 62 30 be 99 a2 d9 be
       0.15649356 -0.026858168 -0.17225103 -0.42506865
000190 4e 1b eb be 1b 51 85 be 9d af 82 be b6 4a 3b bd
       -0.4591927 -0.2603844 -0.25524607 -0.045725547
0001a0 4f 32 20 3e 06 3a 2b be 1d 3e c7 3d b8 10 29 3e
       0.15644191 -0.16721353 0.09728644 0.16510284
0001b0 4a a0 86 ba b1 89 57 3d 88 1f 14 be 21 91 90 bd
       -0.0010271159 0.052621547 -0.14465153 -0.07058931
0001c0 4d 2f fa be 33 b3 99 3d 6c 27 da 3e d8 3f e5 3e
       -0.48864213 0.07504883 0.42608202 0.4477527
0001d0 33 8d 09 bd 2a d3 b5 be 86 e7 f6 bd 73 8c 92 be
       -0.033581924 -0.35512668 -0.12055878 -0.2862278
0001e0 74 d1 17 bd 85 1a 19 3e c8 da 25 3c a7 42 cd 3e
       -0.037064984 0.14951523 0.010122962 0.40089914
0001f0 9f 17 d5 bc 4f ae b3 3d 82 ed 05 be e4 8a ba 3d
       -0.02601224 0.08773481 -0.13078883 0.091085225

layers.5.running_var f4 [128]
000000 e0 1f 93 3e df 99 ef 3e 92 99 78 3e a8 95 c9 3e
       0.28735256 0.46797082 0.24277332 0.3937199
000010 39 c8 00 3f d5 b7 fc 3e a1 8c 14 3f a5 56 e1 3e
       0.50305516 0.49359003 0.5802708 0.44011417
000020 46 b3 61 3e 61 0b e0 3e c4 66 f2 3e 48 c2 9c 3e
       0.22041044 0.4375868 0.4734403 0.30616975
000030 19 71 9c 3e 20 85 e0 3e 7d 62 96 3e 6f ba 8e 3e
       0.30555037 0.43851566 0.29372016 0.27876613
000040 38 64 7c 3e 8d 45 b5 3e db c9 54 3e 55 4c bf 3e
       0.24647605 0.35404626 0.20780127 0.37362924
000050 20 a5 4b 3e b2 72 a2 3e 12 50 80 3e 05 d0 ed 3e
       0.19887209 0.3172813 0.2506109 0.4644777
000060 3c 0a d8 3e 2e 34 b4 3e f8 c1 c5 3e 47 69 f4 3e
       0.42195308 0.3519606 0.3862455 0.4773657
000070 c6 a2 95 3e 28 7c 66 3e 3d da 1e 3f 93 9d b5 3e
       0.2922575 0.225083 0.62051755 0.35471782
000080 cc cb b0 3e 3b 7e b7 3e 44 63 d4 3e cd 76 10 3f
       0.34530485 0.35838494 0.41481984 0.56431276
000090 96 16 0b 3f b5 a4 e1 3e f9 a1 d6 3e 63 8f d9 3e
       0.5433134 0.44070974 0.4192045 0.42492208
0000a0 5e bb 03 3f 5f a1 1c 3f 31 0e f3 3e 31 2f 07 3f
       0.51457775 0.6118373 0.47471765 0.52806383
0000b0 8d 5a fd 3e 07 12 dc 3e 1f 91 85 3e fa e2 0e 3f
       0.49483147 0.42982504 0.2608728 0.5581509
0000c0 7b f4 2a 3f c3 d5 10 3f ea 8e d0 3e 77 58 fe 3e
       0.667793 0.56576174 0.40734035 0.49676868
0000d0 0f 76 ae 3e d2 07 05 3f 05 c6 b9 3e 00 1a 6e 3e
       0.34074447 0.5196506 0.3628389 0.23252106
0000e0 83 82 3c 3e ee 36 a2 3e 28 1d f0 3e cd f3 61 3e
       0.18409161 0.31682533 0.46897244 0.22065659
0000f0 62 bf ec 3e 40 6e 6b 3e db 3a e1 3e fa ad ba 3e
       0.46239763 0.22991276 0.43990216 0.3646086
000100 ec 93 23 3f 74 f7 d8 3e b4 3f 77 3e 8d 1b d6 3e
       0.63897586 0.42376292 0.24145395 0.41817895
000110 03 4d 7b 3e ec 7e a1 3e b6 d7 de 3e 0b 0f 8f 3e
       0.24541096 0.31542146 0.4352395 0.27941164
000120 91 f0 dc 3e cd a0 68 3e 06 9e fa 3e fa c6 95 3e
       0.43152288 0.2271759 0.48948687 0.2925337
000130 10 f3 16 3f 1f 4b 22 3f bd dd f4 3e 66 fe 94 3e
       0.58964634 0.63395876 0.47825423 0.2910034
000140 f0 d5 8a 3f a6 f3 db 3e 2b ce 9b 3e 96 58 b1 3e
       1.0846539 0.42959327 0.3043073 0.34637898
000150 70 98 9d 3e f6 c3 12 3f 82 04 d9 3e f1 77 9d 3e
       0.30780363 0.5733026 0.42386252 0.3075557
000160 ee 38 95 3e bd 44 c0 3e 7b 45 0a 3f 95 2a 6b 3f
       0.29144996 0.37552443 0.5401227 0.9186185
000170 d0 28 ed 3e e8 4c e4 3e 52 91 d3 3e be 47 66 3e
       0.463202 0.44589925 0.41321808 0.22488305
000180 89 5f 79 3e 5d ac 18 3f 9b 62 b2 3e a4 b9 c9 3e
       0.2435285 0.59638005 0.34840855 0.39399445
000190 f4 33 ef 3e 30 50 a5 3e e9 b8 be 3e a7 89 b6 3e
       0.46719325 0.3228774 0.3725045 0.35651895
0001a0 02 78 e3 3e dd da 95 3e 88 e1 9c 3e ef 37 05 3f
       0.44427496 0.29268542 0.30640817 0.5203847
0001b0 29 34 8c 3e 38 ab 7e 3e 49 ff 61 3e cd 5b 8d 3e
       0.27383545 0.24870002 0.2207004 0.276091
0001c0 7c ea 10 3f 9c 87 2c 3f c9 bb a9 3e 4d bf 80 3e
       0.56607795 0.67394423 0.3315108 0.2514595
0001d0 8f 5b 04 3f b3 f4 ab 3e bf c7 29 3f ba 1b fd 3e
       0.5170221 0.33585128 0.66320413 0.49435216
0001e0 e3 6e 6f 3e 4f 05 ae 3e 1b a7 af 3e 87 00 c6 3e
       0.23382144 0.33988425 0.3430718 0.38672277
0001f0 0b 51 ea 3e 52 1a 9a 3e 8d 2e ac 3e 38 93 8c 3e
       0.45764956 0.30098206 0.33629265 0.2745607
