models/best_fold1.pth (torch, 424994 bytes, 20 tensors)

layers.0.weight f4 [256, 10]
00000000: e66b 873e 4b2c 873e d7a3 81bd 4894 8e3e
00000010: 4c25 94bd aba1 7e3d 1f36 1fbe 2354 353e
00000020: 56b9 8c3e 9ab1 6bbe ea31 963e fc3a 573d
00000030: 24c7 683e 8a7b 393d 3a6a 163e 16ad 57bd
00000040: 58dd 773e a2a6 323d 4057 15be e3c0 8e3d
00000050: d586 2dbe 82e9 27bd cc81 f8bd 00a8 573e
00000060: a171 72be 705e 08be 5b82 c7bd b250 3ebe
00000070: 2c6e d83c 7c13 9cbe fc07 983e 93f7 82be
00000080: 133e 743e 8e09 953d f48b c7bd cca4 4a3e
00000090: 7b54 4c3d df4b 833e 5516 263d 24dc c8bd
000000a0: 05ba bc3d 365e d3bd c422 ff3d 2295 8c3e
000000b0: 9f7b 383e 7ee8 12be 5e60 3e3e 3b8c 583d
000000c0: e149 253e 22e0 47be 9526 abbe 6940 02be
000000d0: c206 71be e679 783e a6b3 9a3d 50bd fd3d
000000e0: bae8 b73d e957 a9bb ddc4 763e f610 6fbe
000000f0: d7a7 473d 71bf 5bbe 4d25 bb3d b9eb c3bd
00000100: c08c ee3d c94e 45bd d8be 8b3e a155 44be
00000110: b922 35be 4965 38be 8322 903e e7db cd3d
00000120: bbe1 a03e 8f94 87be 0f5d a3be 76da 7dbe
00000130: 4151 55be 45c6 013e 90f2 da3d 0138 823e
00000140: 7a9d 40be e54c 50be 39a5 283e 7087 08be
00000150: 783b 323e 41d6 bdbd f9e6 263e 51e7 77be
00000160: 1827 22be 91af aa3d 3025 b23d a0a8 8ebd
00000170: 9fc5 483e 9f82 5b3e 7982 5cbe 4733 1fbe
00000180: 12b3 913e 4e93 f4bd 9331 febd ba8e 97be
00000190: 994f 5dbe 659a 893d f5a9 2dbd 676a 5fbe
000001a0: e853 2e3c 75c8 65be 6b53 85be 9603 2bbe
000001b0: d21c 8bbe 8ca9 4ebe 64a7 a23e d744 533d
000001c0: 89f9 c93d d38c 9bbe d939 5fbe 3e37 f4bd
000001d0: e7bd fc3c c508 88be 52ea 10be 2561 44be
000001e0: 8e0b 2c3c dd44 eebd 2718 87bc ecb8 63be
000001f0: bc16 62be fec7 44be b4f7 eebd a7d3 72be
00000200: a989 883e 84d5 91bd 7f08 9c3e 874e aa3d
00000210: 95d0 86be 5b2d 603e d3d9 9ebd 284c e7bd
00000220: d5ad 81be 6c03 9abe ecaa ca3d 70ec 64bd
00000230: bca4 f73d 50ab 83be 05c0 6d3e f6f1 6fbe
00000240: 37ac 76bd cd19 7a3d 0d8e 313e b08d 853e
00000250: f413 913e 1a74 82be 5637 9e3d 5d98 0abe
00000260: f6b4 aebc 4573 7bbe 53bd 923e 237a 70be
00000270: d581 2d3e f142 d33d dc5b db3d 0c96 2ebe
00000280: fd5b 973e bc34 833d 796a 083d 180e 8ebe
00000290: 3944 073e fcd0 4bbd 6347 0dbe 024c 8a3e
000002a0: 13ac 8d3d c853 32be 0aaf 3bbe ce05 67bc
000002b0: 2bf4 333e 4278 8abd 8a0c 3abe 26cd dcbd
000002c0: 0280 6fbe 44da c93d 762a 763e 3156 99be
000002d0: 3af1 893d 0578 2a3e 4fb7 733d eab0 edbd
000002e0: 661c 2a3e 2e5a 2c3e 5629 023e 8fb8 39bd
000002f0: e840 a4bd 0cfa 1a3d 3b1d 98bd 0bb1 9dbd
00000300: 9814 4c3e 41bc 8c3e 0ae3 dcbc 25fe 82bd
00000310: 12a5 063c 07bd e0bc 04d2 963d 1daa bd3d
00000320: 62ae a5be b7b9 fdbd 8833 863e da73 ed3d
00000330: 0a03 84bc d914 3dbe 3839 3abe bf65 86be
00000340: 6b4f dcbd 9a24 e53d fff9 613e e6f5 023e
00000350: 319e 8bbe 1f59 43be 27fa 54bd 54d6 9b3e
00000360: 1d1e 323d 0e9b b8bd d690 ed3d 4ad4 00be
00000370: 2e58 66be 2b4b 623e 4301 15be 92a6 72bd
00000380: 0783 9fbe 11aa 583e 4e01 753e 0dd4 f53d
00000390: 8081 50be 59d4 a0be 0f2b 95be f6ce 673e
000003a0: a53b 173e 1afa 803e fdc9 173e 1b3a 903d
000003b0: bd9e 84bb bdc1 5dbe 89eb 8dbe a007 9abe
000003c0: 72f1 0a3e 36a1 1dbe ff14 6bbd 120a 40be
000003d0: eee9 7cbd 5543 69be b89b 4dbe 81f4 c83d
000003e0: ec04 b1bd 894d 423e 15f6 ffbd f03d 73be
000003f0: 63b1 6fbd 9d59 16be e63c e4bd 7c99 a0be
0.26449507 0.2640098 -0.06330078 0.27847505 -0.07233676 0.062165897 -0.1554799 0.17707877
0.2748515 -0.23016968 0.29334956 0.052546486 0.22732216 0.04528383 0.1468896 -0.052655302
0.2420553 0.043615945 -0.14584064 0.06970384 -0.16945966 -0.040994175 -0.12134132 0.2106018
-0.23676158 -0.13317275 -0.0974166 -0.1858547 0.026419722 -0.30483615 0.29693592 -0.2557951
0.23851804 0.07277213 -0.09743491 0.19789428 0.049885254 0.25643823 0.04054864 -0.098076135
0.09215168 -0.10320704 0.12457803 0.2745753 0.18015908 -0.14346501 0.18591449 0.05286811
0.16141464 -0.19519094 -0.33427873 -0.12719883 -0.23537734 0.2426525 0.075537965 0.12389624
0.08979936 -0.0051679504 0.24098535 -0.23346314 0.04874405 -0.21459748 0.09137974 -0.09566445
0.1164794 -0.04817084 0.2729404 -0.1917329 -0.17689027 -0.18007387 0.2815133 0.10051709
0.3142222 -0.2648053 -0.31906936 -0.24790367 -0.20831777 0.1267329 0.106907964 0.25433353
-0.18810073 -0.20341833 0.16469277 -0.13332915 0.17405498 -0.09269381 0.16299047 -0.24209334
-0.15835226 0.08334268 0.08698499 -0.069657564 0.19606636 0.21436547 -0.21534146 -0.15546905
0.28456932 -0.11942159 -0.12411799 -0.2960108 -0.21612395 0.067189015 -0.04239841 -0.21817933
0.010640122 -0.2243975 -0.26040205 -0.16700587 -0.27170426 -0.20181865 0.31768334 0.051579323
0.09862048 -0.30380878 -0.21799411 -0.11924599 0.030852271 -0.2656919 -0.14151886 -0.19177683
0.010500802 -0.116342284 -0.016491009 -0.22238511 -0.22078985 -0.19216916 -0.11668339 -0.23713551
0.26667526 -0.07120803 0.30475232 0.08315759 -0.2633101 0.21892302 -0.077563904 -0.112938225
-0.25327936 -0.30080736 0.09895882 -0.055889547 0.120919675 -0.2571664 0.23217781 -0.23432145
-0.06022283 0.06105976 0.17339344 0.2608466 0.28335536 -0.25479203 0.07725398 -0.13534684
-0.021326523 -0.2455569 0.28660068 -0.23484091 0.16944058 0.103155024 0.1071088 -0.17049426
0.2956237 0.06406543 0.033304665 -0.27745128 0.13209619 -0.04975985 -0.13796763 0.27011114
0.06917586 -0.17414773 -0.18328491 -0.014100505 0.17573611 -0.067612186 -0.18168846 -0.107813165
-0.23388675 0.09856084 0.24039635 -0.2994857 0.067354634 0.16647346 0.05950099 -0.11606009
0.16612396 0.16831276 0.12711081 -0.045342024 -0.080201924 0.03783612 -0.0742745 -0.07699784
0.19929731 0.27487376 -0.02696373 -0.063961305 0.008218067 -0.027433885 0.07364276 0.09260962
-0.32359606 -0.12388938 0.2621119 0.115943626 -0.01611473 -0.18464984 -0.1818589 -0.262495
-0.10757335 0.11188622 0.22068022 0.12789115 -0.27269128 -0.19076966 -0.051996376 0.30436957
0.04348575 -0.09013949 0.11599891 -0.12580982 -0.22494575 0.22098987 -0.14551263 -0.059240885
-0.31154653 0.21158625 0.23926279 0.12003336 -0.203619 -0.31412008 -0.29134414 0.22637543
0.14768846 0.25190812 0.14823146 0.07042333 -0.0040472434 -0.21655937 -0.27718762 -0.30083942
0.13568667 -0.15393528 -0.05739307 -0.18753842 -0.06174653 -0.22779591 -0.20078933 0.098122604
-0.08643517 0.1897489 -0.12498108 -0.23754096 -0.05851878 -0.14682622 -0.11144428 -0.313671

layers.0.bias f4 [256]
00000000: b939 23be 5063 623e 59f3 553e 5873 4f3d
00000010: 53d7 14be de14 893d 2a41 073a e6d8 933e
00000020: fbb2 403d 2649 c93c 9afa b03c 631f 2c3e
00000030: 7034 89bb f3b6 8a3e a2fe 283e a2a1 74be
00000040: 1f8a 9538 3175 89be e445 78be 5e85 753d
00000050: 5024 923d 290a e2bc b3df 993e 7adb 2dbe
00000060: 5cab 07be 30a1 4dbd 2223 293b c955 dfbc
00000070: 5dc7 913e 11bf 08be 6777 29be 1f9d dc3c
00000080: 0d57 733e d2d6 993d f770 2e3e ae7d 793d
00000090: 4200 8a3e 6dba 413e 6eac 673e 3284 27bd
000000a0: 5a0f 86be ccd4 19be c539 dc3d 827f 633e
000000b0: 7842 fdbd a201 863e c79c 393d b646 bd3a
000000c0: 3629 483c 956a 65bd 735e 973e 4841 653c
000000d0: 092b 463e 1da1 88be 1ad1 26be e6b9 103d
000000e0: 0658 813e e926 1a3e a3c4 753d 75ec 9fbe
000000f0: d3ac c13b 323f 55be 9f4c 8abe 162f 303d
00000100: 04de 4cbe 2ff2 923e 2799 30be d2f8 d03d
00000110: 67db 3d3e 54b0 7bbe c5a4 253e 27ba 2dbd
00000120: 53f3 273e dda5 9c3e c3dd 09be 634d 0cbe
00000130: d68e 803e 0081 0f3d d48d 01bd 6d0f 753e
00000140: 1270 1cbe 4d53 80bc e25e 5e3e 521d fd3d
00000150: 0ff4 51be 1540 a83d f578 76be 30e9 2fbe
00000160: b739 503e 32a3 acbd 618b 24be a087 b53c
00000170: a7ba 9d3d 86db 49be 63a1 5abe de94 9cbe
00000180: e404 a83d d542 51be 23ff c43c c249 92bd
00000190: dfd6 53be 91b5 cfbd fb0d 79be ed67 2bbe
000001a0: 1777 29bc e757 8abe 4142 8ebe faba 723e
000001b0: 5cf9 f03c 2b20 0fbe 24c5 26bc b53a 703e
000001c0: 2d38 87be 6b74 2bbe 211f 6abe 7ea5 babc
000001d0: 5a65 31bc 4e62 7cbe 45e4 603e c801 79be
000001e0: faae 963e 6d01 5fbe 7c46 2ebd b533 713d
000001f0: dcab 0fbe 31ef 943e 665d 5fbe 6efc 8ebc
00000200: 3cc3 6dbe f5a0 b33d 7f26 8a3e 3514 963e
00000210: cb3c 1a3d 79a2 23be 93ea 9c3e c7d8 c13c
00000220: 4428 5b3e 5a3e 28be 558a 16be 6f35 86be
00000230: 3d2e 953e 5fc7 533d c581 68be c9fc d93c
00000240: 4bf2 0abe 82bd 803c 50e8 d63d afbf 1fbe
00000250: 10e2 623d b386 4cbe 03c9 753d 1369 9cbe
00000260: 80fd 4c3d 54dd a03e f01f 953e b435 ec3d
00000270: ee07 6e3e 6f0d 9e3e 92b2 b83d 917d d83d
00000280: 265c 283d 465a 8f3e f473 8b3e 0e12 18be
00000290: 95e5 54bc aa41 23be 0d3d e83d 4acb 9cbe
000002a0: b22a e53d 7c57 b1bd 837c ea3d 887c ca3d
000002b0: 5613 21be 2970 283e 7b9c 093e b9a2 89be
000002c0: 9b7f a13e 9376 8b3e 54d1 483e 236f 04bd
000002d0: 39d0 e43d 163a 2fbe f91d dcbd 39f6 183e
000002e0: c041 103e f83e 003e e755 9abe 2e9d 853e
000002f0: 8518 08be 4ffe 8b3e 104f 853e 3d66 f03d
00000300: ae3d a13e 32d2 393e 77fe 3d3e 6fb9 dabd
00000310: fb10 963e 5ea1 a93d 7645 3f3e 58d8 93bd
00000320: c272 6a3e c878 8f3e a739 78be 3fd4 843e
00000330: 33d4 55be 3361 5ebe 712c 87be 5b9c ba3d
00000340: 31a0 73be e2ed f3bd 80ac 22be 9c52 ad3d
00000350: 39f2 9ebe 227f 14be bf4a 1c3b c15b e73c
00000360: d723 12be 7aec e73d 1d3d 55be f457 89be
00000370: 2ff2 38bd 4a7c 2fbe c5ad 4b3e f34c 5dbe
00000380: 2661 dabc 0643 073e a9b9 8dbe d9d0 7a3e
00000390: a330 13be d558 b0bd 4210 46be 2a20 f1bd
000003a0: 4394 f9bd a4ef 8fbe 2657 dc3d d19c 99ba
000003b0: 6a69 9e3e c3bc 5a3e 46c0 8c3e e388 be3d
000003c0: 2e01 2a3e d293 973e e6f2 843e 5691 78be
000003d0: 510c 92bd 0bf2 9bbe 9c1e 433c 5c02 e5bd
000003e0: 3a99 8c3e ce11 4d3d e4dc 533b cf8b 69be
000003f0: c43f 7ebe d9e8 4b3d edb1 20be f9d8 14be
-0.15939988 0.22108197 0.20893611 0.05064711 -0.14535265 0.06693433 0.00051595515 0.28876418
0.04704569 0.024571013 0.021603871 0.16808848 -0.0041871592 0.27092704 0.16503385 -0.23889783
7.130601e-05 -0.26847222 -0.24245411 0.059941642 0.07135832 -0.027592735 0.3005348 -0.16978255
-0.13248962 -0.05020255 0.0025808294 -0.027262585 0.28472415 -0.13354136 -0.16549455 0.02693039
0.23763676 0.07511677 0.1703528 0.060910873 0.26953322 0.18918772 0.2262437 -0.040897556
-0.26183587 -0.15022582 0.10753206 0.22216609 -0.123661935 0.2617312 0.04531553 0.0014440629
0.012216857 -0.056009848 0.29564247 0.013992615 0.19352354 -0.2668542 -0.16290703 0.035333537
0.2526247 0.15053906 0.06000198 -0.3123509 0.005910495 -0.20824888 -0.27011582 0.043013655
-0.20006567 0.28700396 -0.17245923 0.10203709 0.18540727 -0.24578983 0.16176136 -0.042413857
0.16401415 0.30595294 -0.13463502 -0.13701396 0.25108975 0.035035133 -0.0316294 0.23931666
-0.15277126 -0.01566472 0.21715882 0.12359108 -0.20503257 0.08215348 -0.24069579 -0.17178798
0.20334516 -0.084295645 -0.16068794 0.022159398 0.07701617 -0.19712648 -0.21350627 -0.30582327
0.08204058 -0.2043565 0.02404744 -0.071429744 -0.20687436 -0.10142053 -0.2432174 -0.16738863
-0.010343335 -0.2702019 -0.27784923 0.23704138 0.029415779 -0.13977115 -0.010178838 0.23459895
-0.26410046 -0.16743629 -0.22863437 -0.022783991 -0.010827387 -0.24646875 0.21962078 -0.24317086
0.29430372 -0.21777888 -0.042547688 0.058887202 -0.14030403 0.2908874 -0.21812972 -0.017454352
-0.23219007 0.087709345 0.26982495 0.29312292 0.037655633 -0.15979947 0.30647716 0.023662938
0.21402079 -0.16430035 -0.14701207 -0.26212642 0.2913684 0.051703807 -0.22705753 0.026609795
-0.1356899 0.015715364 0.10493529 -0.15600465 0.05539137 -0.19973259 0.060006153 -0.30548915
0.050046444 0.3141886 0.2912593 0.115336806 0.23245212 0.30869624 0.090184346 0.10570825
0.041103505 0.2799856 0.27236903 -0.14850637 -0.01299419 -0.15943018 0.113397695 -0.30623847
0.11189784 -0.086592644 0.1144953 0.09887034 -0.15730032 0.16449036 0.13438599 -0.2688196
0.31542668 0.27238902 0.19611102 -0.03233255 0.11172528 -0.17112002 -0.10747904 0.14937676
0.14087582 0.1252402 -0.30143663 0.2609648 -0.13290603 0.2734246 0.26036882 0.117382504
0.3149237 0.1814659 0.18554102 -0.106799 0.2930983 0.082827315 0.18678841 -0.07218999
0.22895339 0.28021836 -0.24240743 0.2594318 -0.20881729 -0.21716766 -0.26401094 0.09111854
-0.23791577 -0.11910607 -0.15886116 0.08463022 -0.31044176 -0.14501622 0.0023848263 0.028241994
-0.14271484 0.11324401 -0.20824094 -0.26824915 -0.04515284 -0.17137256 0.19890507 -0.21611385
-0.026657652 0.13209161 -0.2768071 0.24493732 -0.14374022 -0.08610693 -0.1934214 -0.11773713
-0.12186482 -0.2811252 0.1075881 -0.0011719709 0.309398 0.2136107 0.27490443 0.09303453
0.16602013 0.29604965 0.25966567 -0.24274191 -0.071312554 -0.30458102 0.011909153 -0.11182091
0.27460653 0.050065808 0.0032327706 -0.22807239 -0.24829012 0.049782608 -0.15692873 -0.14535893

layers.1.weight f4 [256]
00000000: 9fa3 803f 43fb 813f 3dfc 803f 418e 803f
00000010: 822f 7f3f c351 813f 18c6 7d3f e9a2 7f3f
00000020: 1ddd 7f3f c791 803f 8bc0 7e3f fa44 813f
00000030: b2ed 7d3f b50f 823f 2b80 7d3f d1cf 7f3f
00000040: 388c 803f 5aed 803f 96c4 7b3f 66af 7f3f
00000050: b0c4 813f cb20 803f b7dd 803f 61a8 803f
00000060: d3bf 7c3f 883f 7d3f 8d25 803f a808 803f
00000070: 54c8 7f3f 3cd0 803f 5525 7b3f 58f6 7f3f
00000080: 578f 7e3f b6fe 7c3f f520 7b3f a522 7d3f
00000090: 2e6c 7e3f a857 803f fa98 813f 6d71 7e3f
000000a0: 9051 7e3f ae23 803f 580e 7d3f f697 823f
000000b0: 2912 7e3f abc1 7d3f 48d3 7e3f be4e 823f
000000c0: 68e3 803f 1300 7d3f ce28 7f3f f2dc 7c3f
000000d0: d3da 7d3f a543 7e3f 21ad 7f3f 70e0 803f
000000e0: 669e 7f3f e509 803f a49e 813f 7853 7d3f
000000f0: 4cab 803f 617a 813f 6f97 823f fef0 803f
00000100: 15e2 7e3f 6b51 7f3f b63f 803f a4ab 7c3f
00000110: d755 7d3f 42e2 7f3f dfa6 7f3f 429c 7b3f
00000120: 2b89 7d3f 7f94 7d3f 4796 803f 669a 7f3f
00000130: 0f2a 823f b737 7e3f 3996 7e3f b223 813f
00000140: e5cd 7c3f 9d91 7e3f f993 7a3f f3c7 7e3f
00000150: 8ca1 7f3f a355 803f f37d 7f3f da84 7e3f
00000160: e40f 803f b3dd 7d3f 7bcd 803f 196e 833f
00000170: 1e34 823f 9aaa 813f 89be 803f cd3e 7e3f
00000180: db95 813f 1401 813f 2484 7c3f 9072 7d3f
00000190: 61bb 7c3f e887 7e3f 65be 813f 02ad 803f
000001a0: e419 833f f849 813f 1e1a 803f d3c7 803f
000001b0: 6c4e 803f e685 7f3f 6072 7c3f 9d95 7e3f
000001c0: 0b4a 7f3f 4539 813f e644 803f 9c7c 823f
000001d0: e814 803f 0b10 803f c806 803f 6f90 7e3f
000001e0: 2ce2 7d3f 1aff 803f 6687 833f 6dfb 7e3f
000001f0: 31d5 803f 04ac 7f3f cbdd 7f3f 7741 7c3f
00000200: f122 803f 3548 813f d53f 813f 776f 803f
00000210: 645f 823f 9066 823f b746 803f 5893 7b3f
00000220: 6123 7d3f d639 7e3f 0658 7c3f 7966 7f3f
00000230: de55 7d3f 1a3f 7f3f 0323 7e3f f4b8 803f
00000240: 4dc7 823f 464e 7d3f b17d 813f 4e50 7c3f
00000250: b3a8 803f 8536 803f 6e6f 813f 182d 7d3f
00000260: 8379 803f 4d5c 7e3f 7afc 7f3f 9ee0 7c3f
00000270: 6152 7f3f 3875 7b3f 0ba5 803f 17e1 803f
00000280: 2b8a 7f3f 5bdd 803f 2d99 803f 0ece 803f
00000290: 6e23 7d3f 69ac 7e3f f076 7c3f f4e9 7b3f
000002a0: 89ab 7d3f 8663 813f 7868 803f 0de6 793f
000002b0: a84e 7b3f ef4d 823f 9d08 803f d345 813f
000002c0: 574f 803f a45d 7e3f 3c8d 7e3f dc53 7c3f
000002d0: 5470 803f 9334 7d3f 6679 803f a9df 803f
000002e0: d15b 7d3f b175 7f3f 6c37 803f e822 803f
000002f0: 4092 813f a2f9 803f b91d 7e3f eba6 7e3f
00000300: 2260 7f3f 4cdd 7f3f 6eea 813f d438 823f
00000310: 1c29 813f 45da 803f e1c1 813f 1ee4 7e3f
00000320: cdde 7e3f beb4 7e3f 1651 803f 5775 7d3f
00000330: 28fa 7f3f 1077 803f 9f38 7d3f 1f66 7c3f
00000340: 085a 7f3f 5b9e 7d3f be17 803f 4e38 7e3f
00000350: 5805 803f 7b6e 7d3f a33b 813f c016 7e3f
00000360: b53b 7d3f 3120 7e3f ef75 813f 563e 833f
00000370: cb8e 803f 7399 803f 2c7a 813f 4f4e 7c3f
00000380: f98e 7c3f 6225 823f 3e35 803f c9b9 7d3f
00000390: beb4 803f d100 7d3f 1715 7f3f d483 813f
000003a0: 8b00 7b3f e17c 7d3f 1c2e 813f 0d9c 803f
000003b0: 50b9 7f3f 6597 803f 7008 7d3f 6a8f 813f
000003c0: 827f 7f3f 406d 823f b991 813f 298d 7c3f
000003d0: 0fa2 7e3f f858 803f 7982 7d3f d937 7f3f
000003e0: ae02 7c3f 6610 813f e080 7e3f 6b1a 803f
000003f0: 48c8 813f 1b4b 7f3f 6919 7e3f eb28 7e3f
1.0049933 1.0154804 1.0076977 1.0043412 0.99681866 1.0103077 0.9913039 0.99857956
0.9994677 1.0044488 0.9951255 1.0099175 0.9919082 1.0161043 0.99023694 0.9992648
1.0042791 1.0072434 0.9834684 0.9987701 1.0138149 1.0010008 1.0067662 1.0051385
0.987302 0.98925066 1.001146 1.0002642 0.9991505 1.0063548 0.9810384 0.99985266
0.9943747 0.9882616 0.98097163 0.9888099 0.9938382 1.002675 1.012481 0.99391824
0.99343204 1.0010889 0.9885001 1.0202625 0.9924646 0.9912364 0.9954114 1.018028
1.0069399 0.9882824 0.9967164 0.98774636 0.99162024 0.9932197 0.9987355 1.0068493
0.9985107 1.000302 1.0126538 0.9895549 1.0052276 1.0115472 1.0202464 1.0073545
0.99563724 0.9973361 1.0019443 0.986994 0.98959106 0.9995462 0.99864 0.98285306
0.99037427 0.9905471 1.0045861 0.9984497 1.0169085 0.99303764 0.9944797 1.0089018
0.9875167 0.9944094 0.9788204 0.9952385 0.99855876 1.0026134 0.9980156 0.99421465
1.000485 0.9916641 1.0062708 1.0267974 1.0172155 1.0130188 1.0058147 0.99314576
1.0123857 1.0078454 0.9863913 0.99002934 0.9872342 0.99426126 1.0136229 1.0052798
1.0242276 1.0100698 1.000797 1.0060982 1.0023932 0.9981369 0.9861202 0.9944704
0.99722356 1.0095602 1.0021026 1.0194278 1.000638 1.0004896 1.000207 0.9943914
0.99173236 1.0077851 1.0275695 0.99602395 1.0065061 0.9987185 0.99947804 0.9853739
1.0010663 1.0100161 1.0097605 1.0034016 1.0185361 1.018755 1.002158 0.98271704
0.9888211 0.99307 0.98571813 0.99765736 0.9895915 0.9970566 0.99272174 1.0056443
1.0217072 0.9894756 1.0116483 0.98560035 1.0051483 1.0016638 1.0112131 0.9889693
1.0037082 0.9935959 0.99994624 0.9878024 0.99735075 0.98225737 1.0050367 1.0068692
0.998202 1.0067552 1.0046746 1.0062883 0.98882186 0.9948183 0.98618984 0.9840386
0.99089867 1.0108497 1.0031881 0.97616655 0.98166895 1.0180033 1.0002629 1.0099434
1.0024213 0.99361634 0.99434257 0.9856546 1.003428 0.98908347 1.0037048 1.0068256
0.98968226 0.9978896 1.0016913 1.0010653 1.0122757 1.0076182 0.99264103 0.99473447
0.9975606 0.9994705 1.0149667 1.0173593 1.009067 1.006661 1.0137292 0.9956683
0.99558717 0.9949454 1.0024745 0.9900717 0.99991083 1.0036335 0.9891452 0.98593324
0.9974675 0.99069756 1.0007246 0.99304664 1.0001631 0.98996705 1.0096325 0.99253464
0.9891923 0.9926787 1.0114115 1.0253398 1.0043577 1.0046829 1.0115409 0.9855699
0.9865566 1.0167658 1.0016248 0.9911161 1.0055158 0.9882937 0.99641556 1.0118356
0.98047704 0.99018675 1.0092196 1.0047623 0.9989214 1.0046202 0.98841 1.0121891
0.99803936 1.018959 1.0122596 0.98652893 0.9946603 1.0027151 0.9902721 0.9969459
0.9844159 1.008313 0.994154 1.0008062 1.0139246 0.99723977 0.9925752 0.99281186

layers.1.bias f4 [256]
00000000: 7a32 bfba 5d8e 8b3c e960 dbb9 6b00 193b
00000010: ce0a 533b c93f 9a3c 093a 8cbb 8eba 8738
00000020: 11d9 45bb 9325 89bb 8bef 063c acc7 2b3c
00000030: 9d01 93bb 984d 7e3c 902d e9bb ecf6 793b
00000040: bd53 12ba bfb4 3f3c 162a 52bc d3d7 69bc
00000050: c1a0 b6bb b013 163a 2856 5d3c 3809 b43c
00000060: ad4e c1bb feb7 2abb 17f6 0e3c 4b0f 10bb
00000070: 8d9f 9039 0501 de3a 751f 0abc 4b07 a1bb
00000080: a7b1 1b3a 3eb4 33bc 78d4 86bc ae63 29bc
00000090: 4a3a 29bc 133d 203c 6126 ba3c c438 d33a
000000a0: 1ed9 1a3b 7326 96bb bd48 21bc a540 ea3c
000000b0: f865 55bb 8f5e 61bb 641b f3bb d2fc 283c
000000c0: 3ea0 66bb 686f 96bc e636 11bc d2d7 39bc
000000d0: 8cd5 c0bb 3780 87bb b879 f5ba 1103 0a3c
000000e0: ce20 afb9 da12 6a39 7981 8a3c d7c4 03bc
000000f0: fd36 c4b9 1d16 653c 06f1 713c 332e 2fbb
00000100: 379c 68bb a922 e13a 21fa 9d3b 6167 e6bb
00000110: 358c 28b9 c625 bfbb 363d 483b 564e 6cbc
00000120: d2b3 17bc 979a f2bb 6a99 0a3c b4ae 3ebb
00000130: e871 a73c d134 0ebc 6e81 32bc 400b 213c
00000140: c9fa 05bc cfbd fdba cf91 24bc d719 9dbb
00000150: 1da9 ee3b ccd4 c9bb 498e b1bb 0dc8 49ba
00000160: 210a 6d3c 30d6 04bc 4df6 9d3b ea48 153c
00000170: 82e2 063c 7825 913c 2dc0 883b 3e04 8bbc
00000180: 5eec a03b 4d51 3b3c 8af5 e9bb f5d2 edbb
00000190: fed7 16bc bd25 6dba bb7b deb9 25e6 313c
000001a0: 28be f23b 3947 383c f6e2 7c3b df62 933c
000001b0: 1fb6 3bbb 61f5 d13a 9a94 c0bb c947 daba
000001c0: 0e90 cabb 1d6d d23b 580f 053b 6b17 a63b
000001d0: 4035 383a aeed 1a3b dde7 ff3a cfae bbba
000001e0: dd59 433c bebd 4d3a 3c6c 983c 859a 3dbc
000001f0: 3784 033c e7eb 17ba f2a8 753b 0676 42bc
00000200: eb9e 093c 37cc 643c 65b9 2d3c c83b 2e3c
00000210: 90b9 b53c 228c 5e3c 6fe8 c1bb 386e a2bc
00000220: c885 6cbc 51f6 53bb 3fb0 3dbc 5346 0fbc
00000230: b821 88bc 4c14 663c 9e50 423a 0bf2 ceb9
00000240: 9995 8c3c 6df3 3fbc bc02 a03b 641b 0fbc
00000250: 0f0e ad3b 4006 133b 1d29 553c b132 23bc
00000260: fe8b 543b 1ec5 0fbc b6f6 01bc 5032 90bc
00000270: 1e53 12bc 8c55 30bc 1ac0 9d3c 35af 4b3b
00000280: 0110 16bc e05b a73b b115 4d3c 0fd7 2a3a
00000290: ecb5 6dbc a9d4 f7bb c58e 0a3b aec5 8dbc
000002a0: ba40 a5bb cdb7 bd3c 12cc 0d3c 78f9 bebc
000002b0: d737 60bc c37f 5e3c aeaa 9939 17ca 043c
000002c0: f176 093b 43ec b0bb 4e45 78bb da29 7fbc
000002d0: 42fc 4cba 7ac1 93bb cb8c 6eb7 7f55 a93b
000002e0: 9fb9 76bc 3716 c03b 8343 503c 85d4 bb3b
000002f0: 7815 473b 0de7 043b 2a42 efbb d7af 27bc
00000300: 438d ab3c daa9 1aba 3cf9 0d3b ff9b bf3c
00000310: eb7e db3b de2f cb3c fcd3 913c 939f 82bb
00000320: ff94 cd38 99f7 a5bb ce0f 023b caf2 20bc
00000330: d45d 123b 6a82 e8bb 1d07 7ebc d6dc bfbb
00000340: 07e5 95bb dd62 bebb df56 2f3c 03ce fdbb
00000350: be83 65bc 91d5 87bc 246e 133c fc5f 9f3b
00000360: 5f29 c9bb ba2d 8f3b 1caa 0c3c df5f 3a3d
00000370: a17d 4c3c f072 183c 3dd4 cb3b 5d55 4bbc
00000380: 5c18 d5bb 6267 0d3b a51a 34bc af36 87bc
00000390: 4903 f5bb 355c ea3a bb49 2bbb c5f2 163c
000003a0: 4ffd b6bc 1075 adbb a8f6 053c 3b91 a73b
000003b0: 540e 17bc e97f 5f3c 39e0 51bc eee4 2eba
000003c0: aa85 0fbb 8070 813c c496 183c 923d 74bc
000003d0: 7db2 e3bb ac9a a5ba 7c8c 28bc 8239 15bc
000003e0: 54ca 57bc 57e9 be3b 2158 56bb 5476 b63c
000003f0: f818 c8b9 f5b2 a8b9 b11b 99bb 83ed 07bc
-0.0014587187 0.017035658 -0.0004184314 0.0023346196 0.0032202485 0.018829243 -0.0042793793 6.47205e-05
-0.0030189196 -0.0041853874 0.008235822 0.010484617 -0.0044862763 0.0155214295 -0.007116027 0.0038141562
-0.0005581936 0.011700808 -0.012827417 -0.014272648 -0.0055733626 0.00057249796 0.013509311 0.021977052
-0.0058992715 -0.002604961 0.008725665 -0.0021981772 0.00027584695 0.001693756 -0.0084303515 -0.0049141995
0.0005939253 -0.010968266 -0.016458735 -0.010338707 -0.010328839 0.009780186 0.022723379 0.001611494
0.0023627947 -0.00458222 -0.009844002 0.028595278 -0.0032561999 -0.0034388637 -0.0074190367 0.010314183
-0.0035190727 -0.01836367 -0.008863186 -0.0113429595 -0.005884832 -0.0041351574 -0.0018728292 0.008423583
-0.00033403042 0.00022323002 0.01690744 -0.008042536 -0.00037425003 0.013982323 0.014766937 -0.0026730418
-0.0035493502 0.0017176467 0.0048210775 -0.0070313667 -0.0001607396 -0.0058333604 0.0030554063 -0.014422974
-0.009259181 -0.0074036825 0.008459428 -0.002909583 0.020440057 -0.008679585 -0.010895116 0.009829342
-0.008177468 -0.0019358936 -0.010044529 -0.00479434 0.0072833435 -0.0061594006 -0.005418573 -0.00076973514
0.014467747 -0.008107707 0.004820621 0.009111622 0.008232715 0.017718062 0.0041732998 -0.016969796
0.0049109897 0.011432958 -0.0071398662 -0.007257814 -0.00920677 -0.0009046456 -0.00042435326 0.010858093
0.0074079223 0.01124745 0.0038587428 0.017991481 -0.0028642488 0.0016018563 -0.0058770897 -0.0016653474
-0.0061817234 0.0064216987 0.0020303335 0.0050687096 0.0007026978 0.0023640203 0.0019524057 -0.0014319065
0.011923281 0.0007848403 0.018606298 -0.011572485 0.008027128 -0.0005795345 0.0037484732 -0.011868959
0.008399705 0.013964704 0.0106032835 0.01063437 0.02218321 0.013583215 -0.005917601 -0.019827947
-0.014436193 -0.003234286 -0.011577665 -0.008744794 -0.01661764 0.014042925 0.00074125256 -0.00039471718
0.017161177 -0.011715752 0.0048831385 -0.008734558 0.005281217 0.0022434145 0.01301029 -0.009960816
0.0032432075 -0.008775024 -0.007932356 -0.017602116 -0.0089309495 -0.010762583 0.01925664 0.0031079773
-0.009159089 0.005107388 0.012517379 0.00065170316 -0.014508706 -0.007563193 0.0021142226 -0.017306175
-0.0050431164 0.023158932 0.008654611 -0.023312315 -0.013685188 0.013580265 0.000293096 0.008104823
0.0020975436 -0.0053992583 -0.0037883106 -0.015573943 -0.0007819572 -0.004509148 -1.4218686e-05 0.0051676626
-0.015058904 0.005862023 0.012711409 0.0057321214 0.0030377787 0.0020279319 -0.0073015885 -0.010234795
0.020941382 -0.00058999436 0.0021663448 0.023389814 0.0066984794 0.024803098 0.017801277 -0.003986308
9.8029144e-05 -0.0050649163 0.0019845846 -0.00982351 0.0022333758 -0.0070956247 -0.015504626 -0.005855183
-0.0045744213 -0.0058101253 0.010701864 -0.007745506 -0.014008461 -0.016581329 0.008998428 0.004863737
-0.006138965 0.0043694647 0.008585479 0.045501586 0.012481124 0.009304747 0.006220369 -0.012410489
-0.006503148 0.0021576514 -0.010992681 -0.016505567 -0.0074771983 0.0017880263 -0.0026136476 0.009213154
-0.022337584 -0.005293496 0.008176483 0.0051137484 -0.009219725 0.013641336 -0.0128098065 -0.00066716864
-0.0021899738 0.015800714 0.009313289 -0.014907258 -0.0069487677 -0.0012634597 -0.0102874 -0.009107949
-0.013170797 0.005826156 -0.0032706338 0.02227322 -0.00038165576 -0.0003217679 -0.0046724905 -0.008296373

layers.1.running_mean f4 [256]
00000000: 56f4 83bd 9ecf bb3e acf6 613e 0439 1e3e
00000010: 3d00 47bd 9e2a 7dbd 9a26 9f3d b7cb bf3e
00000020: 1aac 263d 0627 2b3e c890 44bd d0f2 ad3e
00000030: ad3f 093d 3c1e f63e 0bb4 153e 19c4 87be
00000040: ddf2 743c 78b8 afbe ce9b 69be 38ab e73d
00000050: 1e10 9c3d 7ac2 473a 042e 0b3e e39a 2dbe
00000060: ae03 03be e6ea 8cbd 1b9e da3d 5ecb de3d
00000070: ae56 2c3e 0d47 66be 8b8e 70be b319 5b3d
00000080: 5269 9b3e fcc0 503d a6f1 083e 08dd 123e
00000090: 32c0 833e 4346 793e 471a d23e 07ec 27bc
000000a0: 16d9 7bbe f33b 13be 3e03 443e ad43 983e
000000b0: e9f4 3cbe e5e7 253e 4b0e 7f3d 4974 4b3e
000000c0: deec a43d 785c 99bd e0ac b83e 3252 ad3d
000000d0: b9f1 493e 7f76 3abe eb5f a0be 3ee5 07bc
000000e0: 44f3 b63e 5b8f 0b3d 2387 543e 4cc5 6bbe
000000f0: 2847 e5bd bf3b e5bc 3563 cdbe ca6f 833d
00000100: 67e7 94bd 9817 f73e c2be 96be 058f 313e
00000110: 8002 973e 5fea 6ebe 01be 2c3e 328d 9cbc
00000120: 6c10 7e3e 9ef6 e53e ef3d 8b3d 98aa 16be
00000130: c46a 3f3e 1752 ff3c 6d7f e93b 4d40 293e
00000140: e49e 61be 56c9 febd de4c 873e a5b5 153e
00000150: 7b8f 69be af1a 773d ff11 5abe 3b33 43be
00000160: 85a2 a13e 4e22 48bd c649 53ba 30a2 86bd
00000170: e817 d4bd 5240 14be 6cd5 96be ef11 94be
00000180: 42a5 84bd f728 5cbe 4f39 ff3d b110 0cbe
00000190: 1aaa e7bd 469d 04be 1f82 c4be 1671 eabd
000001a0: ad75 10be 7fb8 19be ea43 bfbe 723b b63e
000001b0: 6716 2ebe cadf 47be f19d fabd c0db 093e
000001c0: f6f3 e0be b688 dbbe 90ea 20be 0232 41be
000001d0: b573 8b3d dde5 99be 91f0 2b3e 1e9d 86be
000001e0: 0a10 883e d3a3 fabc d167 83be 3a68 063e
000001f0: 5bed 5abe de0b 593e 0f02 99be bcc0 96bd
00000200: 4f5f 9dbe bca7 993e 4b57 7a3e 5282 ad3e
00000210: 2661 e7bd 043f 46be 1f7f 8b3e 1ad7 1fba
00000220: 0b13 1a3e 2a0c 82be 2ad6 64bd bc63 9cbe
00000230: 799f 823e 407e 6abc ac3b 4abe 71a4 173e
00000240: f16b 9bbe a73f ac3d da37 01bd 1de0 18be
00000250: 3131 c1bd a030 acbe 536f 153e d34c b7be
00000260: b246 4d3e e7d2 d43e 3f02 913e cf1d 4d3e
00000270: 77c8 8b3e 4d07 7e3e 198a ddbc d93c 383d
00000280: ca0d 26be bdda 783e 75ac 8b3e a386 30bd
00000290: 3869 fe3c a500 d3bd 9a6c b43d 0882 a0be
000002a0: eda3 223e d9ac 0cbe 90da d63c f027 543e
000002b0: 9fa2 4fbe 0b57 e63d aaf8 8c3d 505f b7bd
000002c0: 84b3 db3d 5e09 b63e a9e8 6d3e cc34 5c3d
000002d0: 73c2 223d 14cf d1bd db50 14be 08df 183e
000002e0: 673b 8b3d 8b31 ac3e defc 52be 7a06 a43e
000002f0: caa5 17be 6950 ab3e 9f75 9a3e 433d bd3b
00000300: d445 6c3e 9216 f53d 80a1 cf3e f71b 79be
00000310: 813f 573e 531f 013e 67ec 9f3e ea02 fdbd
00000320: d3ce 483e 2d3b 9c3e ea87 2ebe 9da6 bf3e
00000330: 7008 aabe 35a9 a8be d363 69be 15cd 6dbb
00000340: ecfc a5be 5f2a 2abc 905c 12be a501 ee3d
00000350: f42e febd f04c 9c3c e0b0 6a3e 6852 5abd
00000360: 1eb3 f8bd e4c5 843d 411d bdbe 9bc2 bdbe
00000370: ad63 7bbd 3ac4 51bd 8225 673e 46d9 9cbe
00000380: e3db 593c 14cb 0cbd 6d67 8abe 4aa8 c63e
00000390: 930b 87be 7b73 bf3b 7942 60be 6e6d 463d
000003a0: 0283 95bd 7431 a1be 52d0 3a3e 9106 69bd
000003b0: 59c9 593e f752 8d3e e26d 3c3e 8162 01be
000003c0: e895 f93d 9a1c 143e 7190 343e eba0 8abe
000003d0: 0034 40be dadf adbe 7796 763e d886 32be
000003e0: 1d15 573e 1c8e 81bd 41ac c73d 05d1 b8be
000003f0: 45af e0bd c081 e2ba 99c1 78bc aca3 72bd
-0.06443088 0.36681837 0.22066754 0.15451437 -0.04858421 -0.06180822 0.077710345 0.3746011
0.040691473 0.16714105 -0.047989637 0.33974314 0.03350799 0.48069942 0.14619462 -0.26516798
0.014950481 -0.34320426 -0.22813341 0.11311954 0.076202616 0.0007620227 0.13591772 -0.16953616
-0.12794372 -0.06880741 0.106746875 0.10878633 0.1682994 -0.22488041 -0.23491876 0.053491306
0.3035379 0.050965294 0.13373432 0.14342129 0.2573257 0.24343209 0.41035673 -0.010249144
-0.2459453 -0.14378338 0.19141862 0.29739133 -0.18452801 0.16201742 0.06226949 0.19868578
0.08052991 -0.0748834 0.36069393 0.08462943 0.19721116 -0.18209265 -0.3132318 -0.008294402
0.35732472 0.03407226 0.20754676 -0.23024482 -0.111952126 -0.02798259 -0.4011475 0.064178064
-0.07270699 0.48260188 -0.29442412 0.17339714 0.29494095 -0.23331593 0.16869356 -0.019110296
0.24810952 0.44914716 0.06798922 -0.14713514 0.18693072 0.031167073 0.007125786 0.16528435
-0.22033268 -0.124407455 0.26425833 0.14620073 -0.2280864 0.06032818 -0.21295927 -0.19062512
0.31569305 -0.04886084 -0.00080600043 -0.065739036 -0.10356122 -0.14477661 -0.29459703 -0.28919932
-0.06476833 -0.21500002 0.124621026 -0.13678242 -0.11311741 -0.1295062 -0.38380525 -0.11447351
-0.1410739 -0.15011786 -0.37356502 0.35592228 -0.17000733 -0.19518963 -0.12237156 0.13462734
-0.43936127 -0.4287774 -0.15714478 -0.18866733 0.06809179 -0.30058184 0.16790988 -0.26291746
0.26574737 -0.030595696 -0.25665143 0.13125697 -0.21379606 0.21195933 -0.29884383 -0.0736098
-0.30736777 0.30010784 0.24447362 0.3388849 -0.112978265 -0.19359976 0.27245423 -0.0006097421
0.15046327 -0.25399905 -0.055868305 -0.3054484 0.25512293 -0.014312327 -0.19749326 0.14808823
-0.3035579 0.08410578 -0.031547405 -0.14929242 -0.09433211 -0.33630848 0.14593248 -0.358008
0.200465 0.41567156 0.28322026 0.20030902 0.2730138 0.24807473 -0.02704339 0.044979904
-0.16216198 0.24302192 0.27280012 -0.04309715 0.031056032 -0.10302857 0.088097766 -0.31349206
0.15882845 -0.13737811 0.026227266 0.2071836 -0.20276879 0.11247071 0.068833664 -0.08953726
0.10727599 0.35554022 0.23233284 0.05376129 0.039736222 -0.10244575 -0.14483969 0.1492883
0.067984395 0.33631548 -0.20604274 0.3203619 -0.14809337 0.33459786 0.30167863 0.005775125
0.23073512 0.119671956 0.40552902 -0.24327074 0.21020319 0.12609605 0.31235048 -0.123540714
0.19610147 0.30513898 -0.17044035 0.37431803 -0.33209562 -0.32941595 -0.22791986 -0.0036285568
-0.32419527 -0.010386079 -0.14293122 0.116214074 -0.12411299 0.019079655 0.22919035 -0.053301245
-0.12143539 0.06483057 -0.3693638 -0.37062535 -0.061374355 -0.051212527 0.22572902 -0.30634516
0.013297054 -0.034373358 -0.27032033 0.3880027 -0.26376018 0.0058426238 -0.21900357 0.048444204
-0.073003784 -0.31483042 0.1824353 -0.056891028 0.21268214 0.2760236 0.18401292 -0.12635233
0.121867955 0.14464036 0.17633225 -0.27075896 -0.18769836 -0.33959848 0.24080835 -0.17434251
0.21004148 -0.06325933 0.09749652 -0.3609697 -0.1097093 -0.00172811 -0.015182876 -0.05923812

layers.1.running_var f4 [256]
00000000: 6377 993e 04a9 753e f9bb ce3e 24c3 6a3e
00000010: 3f0d 5e3e c840 953e 8a73 903e 948a bb3e
00000020: 6421 423e be1c 2a3f f8f5 0d3f 3b9c 243f
00000030: ed49 a13e beff ea3e 3e30 c43e b5b8 1c3e
00000040: 739c 753e 63e9 8e3e 8a1c f43d 28b6 183e
00000050: 93c5 af3e 6651 553e 8c34 c13e 58b2 053f
00000060: 09db 4c3e 574a 863e 24cb 1b3e a8da 913e
00000070: 082b bc3e da6d af3e b4cd e83d ace3 0e3f
00000080: bc78 4a3f de36 773e 4254 e63e b3b1 4e3e
00000090: 38d7 3b3e 65ae 813e 196a ae3e ca23 253e
000000a0: 9f79 a13e 8cc5 703e 952e 4f3e 2a3b ce3d
000000b0: 5fb8 853e e05d 8d3e 8791 ad3e 89d2 a63e
000000c0: b32a 3a3e a696 993d ebba 543e 243c 073f
000000d0: 8f06 0b3e da1a c63e e236 b83e eae2 e43d
000000e0: 0640 803f e25f 733e 9b70 883e 694e 7d3e
000000f0: 524a ad3e 0d51 ae3e a962 813e 23be 013f
00000100: 537f 083f ce39 943e afde 443e 91b5 a23e
00000110: 6965 b23e 10e4 1d3f 4b8e 853e 859c 7b3e
00000120: 3689 073f 661f 213f 80dc c43e 9e57 3d3e
00000130: f131 433e 0614 303e 7821 e53d 095e 623e
00000140: f0cf 2e3e 9c88 523e 1bd3 5d3e f4ef 873e
00000150: da94 bc3e 0ccb fa3e a59c 8d3e 1f92 053e
00000160: 5f29 ca3e e8a2 213d c4c8 a13e 3273 863e
00000170: 1f5c 323e 783c 9c3e df2a ab3e 6846 633e
00000180: e682 233e 675e 0e3f 43d4 4b3e 8bb8 043e
00000190: a1bd 933e 78fd c83e 8b4a 8b3e 6b60 2c3e
000001a0: 7a87 333e c78b 413e b44d d93e 5456 8b3e
000001b0: 5b98 d33e 1f55 233f f8a7 823e 0902 ab3e
000001c0: 62fd d03e 759e c03e 181d 533e e738 963e
000001d0: 520c a13e 8378 d63e 270a 4c3e 4e0c 033f
000001e0: a0d6 423e 9680 c03e 4ebf bc3e bf06 5c3e
000001f0: 234b 083e 3f5d 373e be2e 8b3e 1a45 193e
00000200: 402f 733e 8aed 223f b099 f43d 7ac7 3e3e
00000210: a593 a03e aef4 a13e 717c 443e 8566 e93d
00000220: c7c2 973e e5ea 0e3f 45f1 9f3e a3b5 1a3e
00000230: 858f a03e d6af d43d cfcd 493e 9937 a83e
00000240: fe7b 183f f0ef 823e 639e 8b3e 7725 8c3d
00000250: 0bb3 723e a9e0 db3e 402f 103e a9f4 d03e
00000260: 4a82 713e 5cfa 963e 8b97 c33e d75a 603e
00000270: 512b cc3d 9f48 f73d f6f5 843e 7d3f 263e
00000280: 277a c43e 92de 4b3e 25e7 863e 9e72 843e
00000290: 0316 ae3e d875 323e 7ad7 093e 75f8 7d3e
000002a0: 072e a23e 6ac6 b33e e2c0 ca3e 65e3 5b3e
000002b0: a3ad 963e 3c38 393e db88 cf3e 578e 303f
000002c0: 7a79 da3e 23d6 323e a058 a53e beee 8e3e
000002d0: b498 633e e271 923e da10 683e 7aa9 f13d
000002e0: ab4e 873e 3702 e53e 67ea 953e 00d0 1c3e
000002f0: 3b36 4b3e 29a6 553e 9454 813e 9fc2 f33e
00000300: adb9 ab3e c326 c93e 7c7c a53e e0c1 4c3e
00000310: d061 223e 4762 ac3e c2c5 593e f7e7 963e
00000320: f5d2 573e 8e2b b13e 9300 2f3e e0a7 793e
00000330: 0d3b cd3e d103 c93e 40c3 223e 20ee af3e
00000340: 8fef 493e 19e8 ae3e 9280 1a3e db28 bd3e
00000350: 68fb 043f d9e6 973e 8ed5 f53e a946 993e
00000360: ef8c b73e 8a63 4f3e feaf 9c3e d61f ee3d
00000370: 460e 7b3e d49c 693e b5c0 eb3d 0319 003f
00000380: 8646 163e dd9e a23e 65ed 9a3e 90b2 e53e
00000390: 5304 4f3e 7c18 a33e 4717 823e 7876 c83e
000003a0: c207 8f3e 5329 f43d 0677 1b3e d68c 3a3e
000003b0: 17cb f43e 8445 a23e 9db2 8f3e 1986 3c3f
000003c0: b02c 8e3e cba8 943e 7890 4b3e 2767 853e
000003d0: aa02 363e 636a 773e c621 003f 2a2f fc3e
000003e0: 5729 393e 03b7 473e 991f fd3e 9d0b 8d3e
000003f0: b691 173f cb20 0e3e 70bf fb3e f0ab 1a3e
0.29973897 0.23990256 0.40377787 0.22926003 0.2168474 0.29150987 0.2821315 0.36629164
0.1895805 0.6645011 0.55453444 0.6430089 0.31501713 0.4589824 0.38318056 0.15304835
0.23985462 0.27912435 0.11919506 0.14913237 0.34330425 0.20831832 0.37735403 0.52225256
0.2000543 0.26228592 0.15214211 0.28487134 0.3675158 0.34263498 0.1136736 0.5581615
0.79090476 0.24142024 0.4498616 0.20184974 0.18343818 0.25328365 0.3406532 0.16126934
0.31538102 0.23512858 0.20232613 0.100698784 0.26117226 0.27610683 0.3390009 0.325825
0.18180351 0.07499437 0.20774429 0.5282614 0.1357672 0.3869236 0.35979372 0.11176093
1.0019538 0.23767045 0.2664841 0.24736942 0.33845764 0.34046212 0.25270584 0.5068075
0.5331928 0.2895035 0.19225572 0.3177915 0.34842995 0.6167612 0.26085123 0.24571426
0.5294374 0.62938535 0.38449478 0.18490455 0.1906202 0.17195138 0.11188024 0.22106184
0.1707151 0.20559925 0.21662562 0.26550257 0.36832315 0.48983037 0.27658573 0.13044022
0.3948469 0.039462 0.31598485 0.26259762 0.17417954 0.30514884 0.33431146 0.22194827
0.15967903 0.55612797 0.1990519 0.12961023 0.28855613 0.3925588 0.2720531 0.16833656
0.17532149 0.18900977 0.42442095 0.272143 0.41327175 0.6380176 0.25518775 0.3339999
0.40818316 0.37620893 0.20616567 0.29340288 0.31454712 0.41888818 0.19925748 0.5119065
0.19027185 0.37598103 0.36864704 0.21486948 0.13309912 0.17906664 0.271841 0.14967766
0.23748493 0.63643706 0.11943376 0.18630782 0.31362644 0.31631988 0.19188096 0.11396507
0.2964079 0.5582717 0.31238762 0.15108351 0.31359497 0.103851005 0.19707416 0.32854918
0.595642 0.25573683 0.27269277 0.06843083 0.23701112 0.4294484 0.14080524 0.4081166
0.23584858 0.29487884 0.38201556 0.21909653 0.099691994 0.12074398 0.25968903 0.16235156
0.38374445 0.19909123 0.26348224 0.25868696 0.3400117 0.17427766 0.13461104 0.2480181
0.3167574 0.35112315 0.39600283 0.21473463 0.2942935 0.18087858 0.405341 0.68967193
0.42670804 0.17464499 0.32294178 0.2791652 0.2222622 0.2860251 0.22662678 0.11799903
0.26427206 0.44728252 0.29280397 0.1531372 0.19844906 0.20864166 0.2525984 0.47609422
0.33540097 0.39287385 0.32321537 0.19995832 0.15857625 0.3366873 0.21266845 0.2947385
0.21076567 0.34603542 0.17090063 0.24380445 0.40084115 0.39260724 0.15894794 0.34361362
0.1972029 0.3416145 0.15088108 0.36945233 0.51946115 0.2966831 0.48014492 0.29936722
0.3584971 0.20252815 0.3060302 0.11627166 0.24517164 0.22813731 0.11511365 0.50038165
0.1467534 0.31761828 0.30259243 0.44862795 0.20216493 0.31854618 0.25408384 0.39152884
0.27935606 0.119219445 0.15182123 0.18217787 0.47811195 0.3169366 0.2806596 0.73642117
0.2776847 0.2903503 0.19879329 0.26055261 0.17774454 0.24161677 0.50051534 0.49254733
0.18082176 0.19503407 0.4943817 0.27547923 0.5920671 0.13879697 0.49169493 0.15104651

layers.4.weight f4 [256, 256]
00000000: c52a ff3c 8a78 33bd ab43 63bc f2f1 0d3d
00000010: e87b 743c 7e4f 0cbd ceb0 9e3c 02f9 b63c
00000020: db77 27bd 7bd4 9f3c aa7e da3c 67e1 93bc
00000030: 5e69 783d 37b0 4ebd d64a d23c a77b 37bd
00000040: 74ac 91bd 73ae 883d e63e 0fbd 41f8 073c
00000050: a36c 593d 0faf 84bd 893d 43bd 73e8 043d
00000060: 8cb3 2c3d 479e 50bb bdf4 0f3d 0eb8 853b
00000070: b337 b33c cf87 fcbc 566c 933d 48e7 a23c
00000080: 1e1c d13c f567 0b3d edd6 53bd 6208 9d3c
00000090: 5e31 9ebc 4322 b4bc 383e 5e3c b8ba 053d
000000a0: fee6 a33c 2364 11bd 0e25 0dbd 1258 c7bb
000000b0: 0b20 43bc 4be2 6dbd a087 743d eb75 1fbb
000000c0: c6c6 66bd 1e04 7d3c 4f26 153d 1b22 eebc
000000d0: 191c 913c e0f6 12bd 0db7 a83c 7bbc 4b3d
000000e0: 7315 ef3c 78b4 1e3d 10bc 9dbc 6db2 943b
000000f0: ebcf 9f3c bae7 073c 717a 11bc 0a32 d83c
00000100: dea3 f5bc 1e61 43bd a0f8 7cbd 83e8 03bd
00000110: 4aad 1abd 5a10 6b3d df87 223b 7c55 4ebd
00000120: b865 d7bc a866 0e3c 1f38 c7bc fd8c 9dbc
00000130: 34ac a0ba ee0e 74bc 9591 343c b736 493c
00000140: 31ed 0d3d 1130 2f3d e7a0 1c3d 8fe6 9bbb
00000150: 66bc 19bd 8aad e2bb 8f65 3cbd 45ab 043d
00000160: 9a05 17bc 3605 09bc 56cd 78bd a803 4c3d
00000170: f65c 463d 1eac 2a3d 073c f0bb 611f f43c
00000180: 0c6a 153c 74cd 32bd f600 35bd 69d1 1a3d
00000190: ccd0 40bd 84bb 163d 2177 033d ca8b 333c
000001a0: 72ed 693d 8be0 313c 7e6b 083d 038c be3c
000001b0: 42fa 89bc f307 21bd 2c13 50bc 8602 d93c
000001c0: 8ac3 513d 86d7 6b3d 7ef9 c3bc 6704 5f3c
000001d0: 6951 1abd 5e8f 093d 768b 53bd 6e33 bebc
000001e0: 80e2 463d 9fc8 ca3a e027 48bc 27a4 4dbd
000001f0: f0fd ccbc a859 383d 3763 83bd a9a4 3a3d
00000200: b09c 7f3d 9cb8 053b 194c 843b 3c75 4c3d
00000210: f29c 273d 65f9 a13d ac55 603d 6b25 19bd
00000220: 6515 273d f57d 8c3c 2705 64bd 8440 493d
00000230: f819 8abc be9f 1fbd 5795 f3bb 1ef4 8ebc
00000240: 8be1 a0ba e9a4 3abd 41fe 403d 45a9 673d
00000250: 4b0e aebc 2ebc 16bd 2bc0 97bc deb5 52bd
00000260: bb79 6bbd 18b3 10bd 74a7 323d 4bfc 1abd
00000270: 155b 00bc a1d2 09bd e254 5fbd 5458 603b
00000280: 8020 e93b 5bca b3bc 424d 723d 040e 813c
00000290: 7275 e83c ac61 d43c 8d9a 1f3c 1c89 093d
000002a0: b547 e0bc db50 303d 9039 3b3d 659c 36bd
000002b0: 97a8 95bc d244 a2bc a241 69bd 4820 8cbc
000002c0: a887 be3b 683e c4bc 4951 413c dd51 1dbd
000002d0: a052 c2bc 6ed6 2e3d aede 54bd 007a ddba
000002e0: 7325 5d3d d921 553d f22c 883c 4783 84bd
000002f0: 7004 f13c aa3f 1ebd b336 93bc 745d 723d
00000300: fdf3 4abc 2176 09bd d036 69bd e29f 503d
00000310: 963f 75bb db9e 503d 3ddb 143c c1cc 32bd
00000320: 7540 dc3c 6e86 493d 0d46 1e3d 78f4 f03b
00000330: c640 6abd 00b6 c5bc 2794 013d 96ee 40bd
00000340: 3b9e bb3c 7d27 e1bb ec7b 163c 1f09 dbbb
00000350: 3f6b 59bd 9cad 27bd 95ca 393d 2136 f53b
00000360: 07b1 193d e90e 1abd d6d0 733d adb2 e738
00000370: 474e 0cbd 9b30 743c bf96 18bd 0735 b3bc
00000380: 8e09 60bc 880e 4d3c 5f4f a5bc 7b54 d63c
00000390: 8d78 6dbd a4f9 c63c addc 743d 1978 1a3c
000003a0: 25fe 35bb ccfd 6fbd 2b74 a43c c007 7d3d
000003b0: 0a38 713d 4840 223a 147a 4a3c 830a 853d
000003c0: 89e6 bb3c f49e e3bb 6331 53bd 5a36 ca3c
000003d0: 411a 0a3d fe13 733d 4610 1ebd f4e2 dc3c
000003e0: 3612 88bc c3dd 72bc 0ba3 f63c d21b 6dbd
000003f0: a2d5 083d 1d48 9d3c bc24 29bd 7627 a43c
0.031148324 -0.043816127 -0.013871114 0.034654565 0.01492212 -0.034255497 0.019371416 0.022335533
-0.040885787 0.019510498 0.026671726 -0.018051816 0.06064736 -0.05046102 0.02567045 -0.04479566
-0.07112971 0.066738985 -0.034972094 0.008298934 0.05308212 -0.06478702 -0.047666106 0.032448243
0.042163417 -0.0031832622 0.03514551 0.004080779 0.021877145 -0.030826477 0.07198398 0.019885674
0.025526103 0.034034688 -0.05171864 0.019169036 -0.01931065 -0.021988994 0.013564639 0.032648772
0.020007607 -0.03549589 -0.034459166 -0.006083497 -0.011909495 -0.058077138 0.059699655 -0.002433176
-0.05634191 0.015442876 0.036413487 -0.029068997 0.017713593 -0.03587997 0.020595098 0.049740296
0.029185032 0.038746327 -0.019254714 0.0045378716 0.019508323 0.008294994 -0.00887929 0.026391048
-0.029985365 -0.04770004 -0.061760545 -0.032204162 -0.037762918 0.05738864 0.0024800224 -0.050374493
-0.02629362 0.008691467 -0.024318753 -0.019232268 -0.0012258352 -0.014896138 0.011021038 0.012281111
0.03465003 0.04277045 0.038239386 -0.0047577093 -0.037533186 -0.00691766 -0.04599529 0.032389898
-0.009217644 -0.008363059 -0.0607427 0.049808174 0.0484285 0.04166805 -0.0073313746 0.029800119
0.009119522 -0.043652967 -0.04419037 0.037797365 -0.047074124 0.036799923 0.032096032 0.010958621
0.05711121 0.010856758 0.033305638 0.023260122 -0.016842965 -0.03931422 -0.012699883 0.026490461
0.05121187 0.057578586 -0.023922678 0.013611889 -0.037675295 0.03358399 -0.051646672 -0.023217883
0.04855585 0.0015471167 -0.012216538 -0.050205376 -0.02502343 0.045007378 -0.06415408 0.04556719
0.06240529 0.0020404225 0.004037392 0.04991649 0.04092116 0.07908896 0.054769203 -0.0373892
0.040791888 0.017149905 -0.055668976 0.049133793 -0.016858086 -0.0389707 -0.007433574 -0.017450389
-0.0012274248 -0.045567427 0.047117475 0.056557912 -0.02124705 -0.036800556 -0.01852425 -0.051442973
-0.057489138 -0.035327047 0.043616727 -0.03783826 -0.007834216 -0.033648137 -0.05452431 0.0034232335
0.00711447 -0.021947077 0.05915571 0.015753753 0.028376315 0.02592548 0.009741438 0.033578023
-0.027377943 0.04304586 0.045709193 -0.044582743 -0.018268866 -0.019808207 -0.056947358 -0.017105237
0.0058145113 -0.023955539 0.011799165 -0.03840815 -0.02372104 0.042684965 -0.051970176 -0.0016897321
0.053990792 0.052034233 0.016622994 -0.06470352 0.029421061 -0.038634934 -0.017970419 0.059171155
-0.012387273 -0.033559922 -0.05693704 0.050933726 -0.0037421933 0.050932746 0.009085474 -0.0436523
0.026886204 0.049200468 0.038641024 0.0073533617 -0.05719068 -0.024134636 0.03163543 -0.047102533
0.022902599 -0.0068711624 0.009184819 -0.006684437 -0.053080793 -0.04093705 0.045359213 0.0074832593
0.037522342 -0.037611876 0.059525333 0.00011048219 -0.03425434 0.014904167 -0.037253138 -0.021875871
-0.013674153 0.012515672 -0.020179449 0.02616333 -0.057976294 0.02428896 0.059780765 0.009428048
-0.002776989 -0.05859165 0.020074924 0.06177497 0.058891334 0.0006189388 0.012358207 0.064961456
0.022937076 -0.006946439 -0.05156077 0.02468412 0.033716444 0.059345238 -0.03858974 0.026963688
-0.016610246 -0.01482338 0.030107042 -0.05788786 0.03340686 0.019199425 -0.0412948 0.020038348

layers.4.bias f4 [256]
00000000: 7775 fb3a 260a 01bd a6e4 27bc f3a5 03bd
00000010: 0895 a0bb 77e9 823a f14d 18bd 561b 043d
00000020: 3f26 403d 349a 373d 73ca 80bb d6f8 cabc
00000030: a619 4a3d 7684 3bbd ff1f c7bc 8c21 f8bc
00000040: d0cb 76bd ba6f 23bd 86fd 053d 81a7 383c
00000050: fd19 533c 2e75 553d bd01 43bd 7117 6abd
00000060: 2fc2 1dbd 894a 53bc e07a e0ba d67a 8d3b
00000070: dfaa 5cbd faf9 33bd 2a43 c4bc 0125 523d
00000080: 7488 ab3c c3dd 473d 2bd2 ee3c 5a5e 7b3d
00000090: c799 2d3d 934e 1f3d 3489 403d 88da e03c
000000a0: 5d7e 10bd 1148 92bc 9c8a 753d c577 06bd
000000b0: b1cd 87bc 0595 413d e14f 9abc 4324 313d
000000c0: 5c1c 533d ec6a 2ebd 7143 413d 691c 3c3c
000000d0: 5f3b 70bc 44d3 263d 142c a33c 2ab4 af3c
000000e0: d5b7 1dbd ff78 ee3c df59 3f3b fe19 603c
000000f0: 5b2e ba3b 100c b9bc 8f5c 9fbc b6b2 2dbc
00000100: 64ec 3bbd b336 ee3c 2dac 4f3d c898 0cbd
00000110: 83e5 6838 2059 52bd e26e 0e3c e74f b83c
00000120: c16e 3d3c 9000 1d3d 9ce8 4bbd c642 c23c
00000130: 2eaf f9bc ff3c 793d 3caa 6fbd 7222 f1bb
00000140: 18a8 ae3c 21a4 033d b6bb 5a3d 683c 06bd
00000150: 3ea5 a5bc 58e8 603d 98d8 34bd a6f2 2b3b
00000160: 9436 1838 314d e9bc c5c8 343c 6f28 69bc
00000170: ea94 213d 9e27 50bd 53db 7dbd f736 903c
00000180: f151 763b 1c0c 6abd 7cbb 2cbd c64e e6bc
00000190: 6571 c53c 098d 86bc f492 65bd 34fc 133c
000001a0: ec2a ee3b 72ed 2ebd 1c7f 0e3d 6b3a 2c3d
000001b0: c796 dfbb aa60 8b3c d28b 28bd 48ac 1e3d
000001c0: 1b12 1f3c 103d 4c3d c78e 753d 65db 03bd
000001d0: a0a4 d43c e066 4d3c 3810 d6bc 9e47 3cbd
000001e0: 0504 1e3d b6c0 1cbd b6b2 373d bc8b 713d
000001f0: b85f 01bc 87cc 5bbd cf69 35bd 8462 73bc
00000200: 2b24 74bc 6019 70bd cb98 f33c 988f f1ba
00000210: d42e be3c a43e 9fbc 053d 10bd 3008 663d
00000220: 4a9a 6a3c a7b2 783c 8ca9 313d b6cf ec3c
00000230: 4f8e 463c b862 f1bc b767 a03c c95f 3b3d
00000240: d1df 543d 6a57 1eb9 1354 70bd d53e 14bd
00000250: cea9 0e3d 8997 683d ff3a 203d 4ecc 0f3d
00000260: b8ff 733d 8578 90bc 776f 373d d005 13bc
00000270: de38 3b3d 8aad ee3c f4ee 74bb 99d4 fbbb
00000280: 201f e63c ebff 70bc fe75 57bb bb81 b73c
00000290: d0c0 fcbc 3657 51bc f17e 0a3d 5837 703c
000002a0: b67f 3c3d bafb 933c 3dc1 013d 33d5 213b
000002b0: 9667 8fbc 9c63 8ebc e016 073d 6476 ac3b
000002c0: 81dc 7bbc 0b8f 4ebd 1c4d fcbc 326c 393d
000002d0: 15ed 9c3b d69a fe3c 664d 4ebd d471 6c3d
000002e0: a774 a93c 2e12 4e3d d8e5 89bc f4d1 483d
000002f0: d220 34bd 486b 403c 621e 183c 6c5e e8bc
00000300: a4fe aebb 4e16 b23c fa9c ebbc 5736 e53b
00000310: 0d3f 863c 62c9 62bd af42 bbbc 225b 263d
00000320: aa9d 34bd c1e0 c03a 19fb 353d 07bf 8abc
00000330: 17a0 253d f16f 003d 0885 01bd e7e9 5a3d
00000340: 3cb8 493d e47e 493d 6ecc 883c c9ad 263d
00000350: 3941 ddbc 7b47 0dbb 4aea 413d f37d 5bbd
00000360: 27e7 273c 0d0e 633d d69b 803a 6bf0 e4bc
00000370: ff4d 3ebd 79e4 01bd 7887 72bc 72a8 c93b
00000380: 73ab d03c 8055 11bd d540 5abd 6ab0 8abb
00000390: 7ef4 9abc d592 dbbc 3a51 30bd e6b9 163b
000003a0: 9eab 793a 3cf5 813c 6ab1 253a f837 f8bc
000003b0: 1332 f5bc a918 413b 75dc 92bc d5e9 2ebc
000003c0: 0c2d 8cbc fae2 8fbc fde0 663d f91c 0d3c
000003d0: a799 443d d139 123d 8f20 4b3d b0fa 07bc
000003e0: 0308 56bd bd7a 0dbd b697 e7bb 5a28 7c3c
000003f0: f0ce 7dbc 0250 6abd f467 0dbd 1f62 523d
0.0019184788 -0.03150382 -0.010247385 -0.032140683 -0.0049005784 0.0009987791 -0.037183706 0.032252632
0.046911474 0.044824794 -0.003930384 -0.024776857 0.049340867 -0.04578062 -0.02430725 -0.030289434
-0.060252964 -0.039901473 0.032712482 0.011270405 0.012884614 0.052113704 -0.04760908 -0.05715126
-0.038515266 -0.012896189 -0.0017126463 0.0043176217 -0.053873893 -0.043939568 -0.023957808 0.05130482
0.02093909 0.048795473 0.02915295 0.061369278 0.04238298 0.038893294 0.047005847 0.027447954
-0.03527676 -0.01785663 0.05994664 -0.032829065 -0.016577573 0.047261257 -0.018836917 0.043247472
0.051540717 -0.042582437 0.047183458 0.011481383 -0.014662593 0.040728822 0.019918479 0.021448214
-0.038505394 0.02911043 0.0029197854 0.013678072 0.0056817955 -0.02258876 -0.019453315 -0.01060169
-0.045879737 0.029078817 0.05070131 -0.03432539 5.552686e-05 -0.051354527 0.008693429 0.022499038
0.01156205 0.038330615 -0.04978238 0.02371348 -0.03047904 0.060849186 -0.058511958 -0.0073588425
0.021320388 0.032138947 0.05340167 -0.03277245 -0.020220395 0.05490908 -0.044151872 0.002623716
3.6290454e-05 -0.02847919 0.011034195 -0.0142308315 0.039448656 -0.050819032 -0.061976742 0.017604334
0.0037585462 -0.057140455 -0.042170987 -0.028113734 0.024101922 -0.016424673 -0.05604835 0.009032298
0.0072683003 -0.042706914 0.03478919 0.0420479 -0.006823394 0.017013866 -0.041148968 0.03873852
0.0097089065 0.04986292 0.059950616 -0.032191653 0.025957406 0.012536734 -0.02613078 -0.045966737
0.038578052 -0.03826972 0.044848166 0.05897115 -0.007896356 -0.05366185 -0.04429036 -0.014855031
-0.014901201 -0.05861795 0.029735943 -0.0018429635 0.023215689 -0.019439049 -0.035214443 0.056160152
0.014319012 0.015179313 0.043374583 0.028907638 0.01211889 -0.029466018 0.019580705 0.045745645
0.05197126 -0.00015100618 -0.05867393 -0.036192734 0.034829907 0.05678514 0.039118763 0.03510695
0.059570044 -0.017635593 0.044784036 -0.008973554 0.04570853 0.029135484 -0.0037373872 -0.0076852557
0.028091013 -0.014709453 -0.0032876725 0.022400727 -0.030853659 -0.01277714 0.033812467 0.0146616325
0.046020232 0.018064369 0.031678427 0.0024693727 -0.017505448 -0.017381482 0.0329808 0.0052631367
-0.015372396 -0.050429385 -0.030798487 0.0452692 0.0047890046 0.03107969 -0.05036678 0.057725742
0.020685507 0.050310306 -0.01683323 0.049028352 -0.043976612 0.011744328 0.009284588 -0.028365336
-0.005340414 0.021739151 -0.028761376 0.006995003 0.016387487 -0.055367835 -0.022858946 0.040614255
-0.044095673 0.0014715419 0.04442892 -0.016936792 0.040435877 0.031356756 -0.03162101 0.053445723
0.049247965 0.049193278 0.016699042 0.04069308 -0.02700864 -0.0021557498 0.047342576 -0.05358691
0.010247982 0.05543332 0.0009812068 -0.027946671 -0.0464611 -0.03171203 -0.014802806 0.0061541134
0.025472378 -0.03548193 -0.053284485 -0.004232456 -0.018915411 -0.026803413 -0.043046214 0.0022998988
0.0009524169 0.015864007 0.0006320687 -0.030300125 -0.029931104 0.0029464161 -0.017927388 -0.010675867
-0.017111324 -0.017564286 0.05636691 0.008612865 0.047998097 0.03569967 0.049591597 -0.008299515
-0.052253734 -0.03454088 -0.007067646 0.01539048 -0.015491232 -0.057205208 -0.034522966 0.051363107
