models/best_fold3_hd256_do0.5.pth (torch, 425766 bytes, 20 tensors)

feature_extractor.0.weight f4 [256, 10]
000000 d4 43 86 3d 62 88 9e 3c 06 ec 84 bd 06 0c 22 be
       0.06555906 0.019352142 -0.064903304 -0.15824899
000010 f7 10 ff bc d3 46 57 be de 4e 8a be 70 fe 93 be
       -0.03113602 -0.21023111 -0.27013296 -0.28905058
000020 cd 0a 9b 3e d9 11 c6 3c ff 23 8b 3d f5 19 1e 3e
       0.30281678 0.024178432 0.06793975 0.1543959
000030 18 7e 95 3d 6d 71 d3 3d c5 7d 38 3e 7d ff 9f 3e
       0.07299441 0.103243686 0.18016727 0.3124961
000040 e8 60 65 bd bc 3e 9b 3e 49 79 8f be 05 de 9b 3c
       -0.05600062 0.303213 -0.2802222 0.019026766
000050 c9 7e a0 3d e0 5c 22 3e 29 fc 24 3e 96 a5 ff bc
       0.07836682 0.15855742 0.16111816 -0.031206887
000060 a6 e4 02 3e 7f 76 59 3e 56 74 91 be 38 49 ee 3d
       0.12782535 0.21236609 -0.2840907 0.11635059
000070 c6 29 24 bd a5 b1 59 bc 5e 5c 25 3e 95 a0 5a bc
       -0.0400789 -0.013286983 0.16148517 -0.01334395
000080 96 2f e8 bd 30 48 79 3e a5 8f 82 3e fa 4f 9c be
       -0.11337201 0.24343944 0.25500217 -0.30529767
000090 31 a5 3a be 81 52 82 be 23 f1 16 be 9e b5 a0 3c
       -0.18227078 -0.2545357 -0.14740424 0.019617852
0000a0 01 7d 75 3d 18 28 37 be 3b 7b cd bb 13 b2 a4 3e
       0.059933666 -0.17886388 -0.0062707937 0.3216711
0000b0 3d ac 1e 3e a7 13 83 be 5b c8 80 3e 4c 24 d0 3d
       0.15495391 -0.2560093 0.2515286 0.10163173
0000c0 f3 4c 87 bd 90 0f 4f ba 5c 40 65 be d3 38 59 3c
       -0.06606474 -0.00078987423 -0.22387832 0.013258177
0000d0 0f 0d a5 bd c8 a0 98 be 07 7b b0 3d bb d2 10 be
       -0.08059131 -0.29810166 0.086172156 -0.14142887
0000e0 8c 65 c7 bd 28 ca b9 3d cd 9e 3e be 1b aa 6f be
       -0.097361654 0.09071761 -0.18615265 -0.23404734
0000f0 d6 02 e7 bd 44 f3 b5 3d c1 5f 62 3d d1 23 c8 bd
       -0.11279838 0.0888429 0.0552671 -0.097724564
000100 e9 53 8f 3d a9 4b 99 be 53 f5 04 3e 4d 06 61 be
       0.069984265 -0.29940537 0.12984209 -0.2197506
000110 0b 89 3e be a6 36 95 3e 26 29 ff 3d 7d b4 80 be
       -0.18606965 0.29143256 0.1245902 -0.25137702
000120 4e 76 95 be 98 42 95 3e cd 43 de 3d 39 f7 88 be
       -0.29191822 0.2915237 0.10852776 -0.26751116
000130 44 7d 9b 3b c9 86 9c 3e 31 3e 2c 3e 62 dc de bd
       0.0047451574 0.30571583 0.16820599 -0.108818784
000140 c0 bc 20 be 4e cc 4b bd 30 dd a4 3c 88 c3 9d 3e
       -0.15697002 -0.049755387 0.020125002 0.3081324
000150 5b 24 ae 3d e2 d3 32 be 29 86 69 be 2b af 89 be
       0.08503028 -0.1746364 -0.22805084 -0.26891455
000160 50 1d 19 3e 3b 93 8a 3d 75 79 88 be 9f ee 6d bd
       0.14952588 0.06766363 -0.26655164 -0.058088895
000170 df aa 82 3e d4 9a f7 bc d1 9c f7 bd 97 ac 89 3d
       0.2552099 -0.030225195 -0.12090457 0.06722372
000180 01 b6 85 3e a1 c5 44 3d a9 1a e2 bd 2f a5 4f bd
       0.2611542 0.048040036 -0.11040241 -0.05069464
000190 5c ee 52 3e 04 24 2d 3e 5e 5f 36 3d f4 2d 44 be
       0.2059874 0.1690827 0.044524543 -0.19158155
0001a0 40 8c be 3d 8f 28 02 be 82 23 73 be fa 98 8a be
       0.09304094 -0.12710784 -0.23744014 -0.27069837
0001b0 5f 4c 9c be 05 bb 2a bd f9 53 5d 3e 08 5f 8a bd
       -0.30527017 -0.041682262 0.21614064 -0.06756407
0001c0 a1 ad 12 be c0 bc 09 bd e1 d1 15 be 4f fc 5d 3e
       -0.14324047 -0.03362727 -0.14630844 0.2167828
0001d0 c4 a4 13 be 70 9a 62 3d 73 29 03 3e b8 7b 27 3e
       -0.14418322 0.055323064 0.1280878 0.16355789
0001e0 57 2b 56 be bc 16 40 be 70 31 8c 3e 6a bc 0a be
       -0.2091497 -0.18758672 0.27381468 -0.13548437
0001f0 15 35 73 3e 62 06 f8 3c 9e fe 08 3e 31 1e d5 bd
       0.23750718 0.030276481 0.13378379 -0.10406149
000200 71 7c 86 be d9 8a 8f be b2 57 d4 bc 37 86 6e 3e
       -0.26266816 -0.2803562 -0.025920723 0.23293386
000210 60 01 3a 3e 3d 3c 82 3e e0 31 2b 3e 43 4e 94 3e
       0.18164587 0.25436583 0.16718245 0.2896596
000220 e5 41 81 3e 1d eb 32 bd 2b 39 15 3d 66 63 5b be
       0.25245586 -0.043681253 0.036431473 -0.21424636
000230 00 d5 45 3e b0 c4 3f be 47 ed 5e be dc 0d 3a 3b
       0.19319534 -0.18727374 -0.21770202 0.0028389608
000240 ea a8 f8 bb 9c 8e 6c 3e 36 ea 81 be a2 83 1b 3e
       -0.0075884955 0.23101276 -0.25374 0.15186933
000250 0b 3d c5 3c e2 49 84 3e 1a 26 a9 be 60 36 38 3e
       0.02407696 0.25837618 -0.33036882 0.17989492
000260 1d 5a 79 be ef 34 8c bd 91 5d 72 be 10 46 10 bc
       -0.24350782 -0.06846034 -0.23668505 -0.008805767
000270 13 ed a1 3c 13 71 08 bb cb 55 cc 3c 34 21 98 3e
       0.019766366 -0.002081935 0.024943253 0.29712832
000280 44 19 a5 be 95 d3 34 be f1 46 77 be 7c 3e a0 3e
       -0.3224584 -0.17658837 -0.24148156 0.31297672
000290 20 07 4f 3e 69 da 0b 3c c5 14 09 3e d3 08 58 bc
       0.20217562 0.00853596 0.13386829 -0.013185698
0002a0 38 67 84 3d 86 b7 1b 39 3f ff e7 3c f8 c5 6b 3e
       0.06465 0.0001485032 0.028319953 0.23024738
0002b0 31 94 37 3e 07 da 12 3e 66 bd 34 3e 24 4a a1 be
       0.17927624 0.14340983 0.17650375 -0.31501877
0002c0 48 03 0f be c7 79 90 3e 16 86 99 be b0 d1 9d be
       -0.13966095 0.2821791 -0.29985112 -0.3082404
0002d0 00 63 12 be 3b 2f 9f bd 44 b6 8e be 8f d0 92 3e
       -0.14295578 -0.0777268 -0.27873433 0.28674743
0002e0 b7 a3 5e be cc f2 fc bd 19 1e 15 3e 82 84 30 be
       -0.2174214 -0.12350997 0.14562263 -0.17238048
0002f0 32 be 54 3c ed 4a ce bc c2 00 93 3e 73 96 82 be
       0.012984799 -0.025182212 0.28711516 -0.2550541
000300 85 56 2b bd 38 fa 1d be fd 14 6e 3e fb a8 b9 bd
       -0.04183056 -0.15427482 0.23250194 -0.090654336
000310 60 80 15 3e 9f 18 90 3e 9e e4 81 bd 2c a7 e1 bd
       0.14599752 0.28143784 -0.063424334 -0.11018214
000320 de 57 a7 3d 95 f4 6b be 6f 06 2c be 92 66 78 3e
       0.08171056 -0.2304252 -0.16799329 0.24257877
000330 01 33 3f 3e 4b b7 48 3e bb 8f 6c 3e 10 62 21 3e
       0.186718 0.1960117 0.23101704 0.15760064
000340 08 14 ae bd f3 74 e6 3d 48 f4 ce bd 17 64 99 be
       -0.084999144 0.11252775 -0.10105187 -0.29959175
000350 0a 6e ce bc a0 93 59 be 71 5c 3f bd 31 3b 58 be
       -0.025198955 -0.2124772 -0.04671902 -0.2111633
000360 bb 9d 04 3d 51 d9 3e 3e 82 0f 3b 3e ce e4 b8 3d
       0.032376986 0.18637587 0.18267635 0.09028016
000370 e3 46 82 3e 4b 0b c2 3d 52 76 e9 3d 98 fb 44 3d
       0.25444707 0.0947481 0.11399521 0.0480915
000380 0f f9 68 3e 9c 8e 12 3e 69 70 79 3e 75 99 68 3e
       0.22751258 0.14312214 0.24359287 0.22714789
000390 2d 51 5a 3e fd 7d 84 3e 8b 1d 50 be 6a af 41 3e
       0.21320029 0.2587737 -0.2032377 0.18914571
0003a0 66 94 f0 3b 73 66 87 bc 8c 8b 4f 3e 8a e6 a1 3d
       0.007341909 -0.016528344 0.20268077 0.079053
0003b0 f3 9c 86 3e 77 d6 2a 3e f5 20 e8 bc 8b d3 65 bc
       0.26291618 0.16683374 -0.028336028 -0.014027487
0003c0 a2 d2 7e be 2d 56 b8 bd f8 d3 2d be cd b2 a4 3d
       -0.24885038 -0.09000812 -0.16975391 0.08041916
0003d0 80 39 09 3e 83 9f cb bd a3 70 99 be 51 f8 20 3d
       0.13400841 -0.09942534 -0.29968747 0.039299313
0003e0 d9 04 1d 3d f7 a0 c6 3d 40 9b f5 3d e6 f5 59 3d
       0.0383347 0.0969867 0.11992502 0.053213023
0003f0 be 09 3b 3d 3d 3d 86 be 33 81 b9 3d ab 38 2c be
       0.045663588 -0.26218596 0.09057846 -0.16818492

feature_extractor.0.bias f4 [256]
000000 b2 71 9d be 19 de 91 3e d3 96 bf 3c 35 1f 28 bb
       -0.30750805 0.2848976 0.023387348 -0.0025653366
000010 91 37 43 be dd 1e 31 3e 3c 0b 25 3e d1 25 67 3d
       -0.19064166 0.1729693 0.16117567 0.05643255
000020 c1 95 70 3e b5 64 25 be ab 69 2e be 92 6f 64 be
       0.23494627 -0.16151698 -0.17032497 -0.22308186
000030 a0 64 90 3e 8e ed 67 3d 62 8d 99 be 84 ed f5 3d
       0.2820177 0.056623034 -0.2999068 0.12008193
000040 e4 13 f6 bc cf 35 bc bd 94 08 5b 3e 9d 7c 9d be
       -0.030038781 -0.09189951 0.21389991 -0.30759135
000050 88 17 58 be d5 ef 07 3e 7d 60 d4 bd b2 c5 02 be
       -0.21102726 0.13275082 -0.10369966 -0.12770727
000060 bd 9b 33 be eb 45 91 3d c7 64 4f be 40 74 41 3e
       -0.17539878 0.07093414 -0.20253287 0.18892002
000070 37 f8 8c 3e 77 b5 9b be 36 61 a3 bd fc d6 97 be
       0.27533123 -0.30411884 -0.07977526 -0.29656208
000080 7f b6 0d be 5b f3 dd bc 02 66 6f be e3 37 07 3e
       -0.13839148 -0.02709358 -0.23378757 0.13204913
000090 68 3e 32 3d b7 c4 85 3e d3 57 82 3e de 5a a1 3d
       0.043516546 0.26126644 0.2545763 0.0787866
0000a0 6c d5 16 3d 55 bc 15 be c0 00 ab bd 69 f9 11 be
       0.03682463 -0.14622624 -0.083497524 -0.14255299
0000b0 5f 94 97 3e 92 b3 65 3e 1c 41 70 3e 7f c2 8d be
       0.29605386 0.22431782 0.23462337 -0.2768745
0000c0 09 67 43 3d a1 a4 96 3e 7a 6d 47 3e af 07 50 be
       0.047705684 0.29422477 0.19475356 -0.20315431
0000d0 69 57 a4 bd 23 d7 7d 3e 28 0e 15 3e db 2e c5 bd
       -0.08024485 0.247891 0.14556181 -0.096280776
0000e0 f6 c0 30 3d c4 4b 6c be 5a f5 92 3e 75 20 87 3d
       0.043152772 -0.23075777 0.28702813 0.065979876
0000f0 b0 3d 6b be ad ee dd 3d 9a e2 ff 3a 85 53 66 be
       -0.2297275 0.108365394 0.0019522489 -0.22492798
000100 e1 79 cf bd 5d 93 af 3a 13 ec 83 bd 5b a0 5e 3e
       -0.101306684 0.0013395358 -0.06441512 0.21740858
000110 25 c4 99 3e 5e ba 51 be 72 af 81 3e b6 c8 5e be
       0.3003246 -0.2048125 0.25329167 -0.21756253
000120 c4 b4 2e be 92 f0 91 be 4e 85 f6 bc a8 a3 44 be
       -0.17061144 -0.28503853 -0.030092862 -0.19203055
000130 c2 2e 9f 3e f3 4b d2 3d af 03 18 3b 0d ba 7a bd
       0.3109036 0.102683924 0.0023195555 -0.061212588
000140 19 6b ef bd fb 00 b1 bd e0 c9 93 be 26 e8 0d 3c
       -0.11690349 -0.08642765 -0.28864956 0.0086613055
000150 12 45 ef 3d 5c c1 e6 3d cc 78 0c 3c 35 01 85 be
       0.11683096 0.11267349 0.008573722 -0.25977483
000160 39 90 67 bc 9c d2 d7 3d 76 25 4b be ae 36 26 be
       -0.014133506 0.105382174 -0.19838509 -0.16231796
000170 14 f2 11 3e 7f 3f f6 bd 45 2c cb 3d e3 5d 08 3e
       0.14252502 -0.1202383 0.09920553 0.13317065
000180 e4 dd a2 3c 44 cc 5d be f7 72 31 be 6c 7f 61 3e
       0.019881196 -0.21659952 -0.17329012 0.22021264
000190 59 d6 95 3d 7a f8 5c be 06 31 f0 3b 87 70 84 be
       0.07316274 -0.21579161 0.007330063 -0.25867102
0001a0 dd c8 69 be a4 75 a8 3d 7c 97 8a 3e 9d ce 83 3e
       -0.2283053 0.08225563 0.27068698 0.2574357
0001b0 72 38 a2 bb f5 64 29 3e e8 f3 29 3d bf a4 3e 3e
       -0.0049505765 0.16542418 0.041492373 0.18617533
0001c0 c5 a9 72 be ec 03 a3 bd 2f d5 d1 3d 8f 0c 78 bd
       -0.23697574 -0.079597324 0.1024574 -0.06055885
0001d0 46 6c 1e be 53 fe 0a 3e d9 b7 81 bd 29 3b 40 be
       -0.1547099 0.1357358 -0.06333894 -0.18772568
0001e0 b1 ff 84 be fc 44 81 3e ad fe 6c 3d 0c 65 f9 bd
       -0.25976327 0.25247943 0.057860065 -0.12177476
0001f0 f2 17 b0 3d f5 2d 95 be 55 d5 97 bd 4b f0 1f be
       0.08598317 -0.29136625 -0.07413737 -0.15619008
000200 45 04 73 3e 23 2a 19 3e 4d 83 27 3e ff c7 2d be
       0.23732097 0.1495748 0.16358681 -0.16970824
000210 5e 64 bc 3d 9f 4c 6c 3e 08 5c 7f 3e c0 1d 47 bc
       0.09198831 0.23076104 0.24937451 -0.012153089
000220 c1 62 1b bc 80 95 6d 3e 20 3d 96 3e 2b 94 87 be
       -0.009483994 0.23201561 0.2934351 -0.2648023
000230 1e 76 ec 3d d7 05 4d 3e d0 72 5a be 5a bb 53 be
       0.115459666 0.20021759 -0.2133286 -0.20676938
000240 57 4b 80 be 30 3b 71 3e 0e f1 b0 3d ee 1d 17 3e
       -0.2505748 0.23557734 0.086397275 0.14757511
000250 99 8f f7 39 b0 55 3a be e5 49 5b be 13 8e 29 3e
       0.000472185 -0.1819675 -0.21414907 0.16558103
000260 59 98 8c 3d 1a 33 8a be 1d 77 9e 3c 2a 70 10 be
       0.068649955 -0.26992112 0.019343907 -0.14105287
000270 88 0c af 3d 41 03 05 3e d5 08 3a 3e 41 73 1b be
       0.08547312 0.12989523 0.18167432 -0.15180685
000280 41 30 9f be 6b 89 fb 3d f1 7e 2b 3d d1 f4 7b 3e
       -0.31091502 0.1228207 0.041869108 0.24605109
000290 c4 f8 9b 3d a2 f3 3c 3e 60 15 53 3d 3e 09 7e bc
       0.07615808 0.18452314 0.051534057 -0.015505133
0002a0 df d1 5b be 4e a7 dc bc e8 93 97 3e 89 ce 21 3e
       -0.21466778 -0.026935246 0.2960503 0.15801443
0002b0 6f 97 91 bd ea 12 67 3e a3 d4 8d be 6c 2b f3 bd
       -0.07108962 0.22565809 -0.2770129 -0.118735164
0002c0 22 c8 9d 3e c7 8b 14 be 1c 53 8b 3e ba bf 70 be
       0.30816752 -0.14506446 0.27211845 -0.23510638
0002d0 5e 98 90 be be 61 9d bd 93 a4 2b 3e 02 e1 94 be
       -0.28241247 -0.076846585 0.16761999 -0.29077917
0002e0 3e 5e ea bd 48 da f3 3b c5 34 8f be 2d bc 99 be
       -0.114437565 0.0074417926 -0.27969947 -0.3002638
0002f0 94 65 a0 3e a3 0c 8c be f7 39 5b be 55 64 e8 bc
       0.31327498 -0.2735339 -0.2140883 -0.028368155
000300 f2 fd 5f be c6 f0 76 3e 14 80 49 3e 1f cf 4e 3e
       -0.21874216 0.24115285 0.19677764 0.20196198
000310 b1 66 9c bc c6 4c bc 3d 5e 6b 50 be e8 83 8d be
       -0.019091936 0.09194331 -0.20353457 -0.276397
000320 d4 97 1c bc de 71 9a be 62 7e e9 3c 20 f5 85 3e
       -0.009557683 -0.30165 0.028502647 0.26163578
000330 c7 ee 4f 3d cb f3 1f 3e b0 73 99 3e f4 1b 8b be
       0.050764825 0.15620343 0.29971075 -0.27169764
000340 ef 65 cc 3d 08 1e d8 bc b0 03 8a 3e e7 b0 67 be
       0.0998038 -0.026381508 0.26955938 -0.22626077
000350 17 4b 9f 3d d7 b1 9a 3e 2c f0 4f 3e c3 4f 70 be
       0.07777994 0.30213806 0.20306462 -0.23467927
000360 c8 08 f8 bd 8b 81 b4 bb 79 38 51 3e 28 d5 4e 3d
       -0.1211105 -0.005508607 0.20431699 0.05049625
000370 13 03 c0 bd ee 7d 5b be 91 2d 93 bd cc b9 2e 3e
       -0.09375586 -0.21434757 -0.071864255 0.17063063
000380 ba 5a 7e be 4d da 9a 3e 7e 0b ac 3d 97 48 a0 be
       -0.24839297 0.30244675 0.084006295 -0.31305382
000390 36 fc 16 bd 5d 69 20 3e b6 a9 76 3e 76 d2 05 bd
       -0.03686162 0.15665193 0.24088177 -0.032671414
0003a0 1d c8 d5 bd 63 04 96 3e 2f 59 b9 3b 21 fe 8b 3e
       -0.10438559 0.29300222 0.0056563835 0.27342322
0003b0 b7 22 23 3e 61 69 33 be e9 1d 55 bd 4d 04 6f bc
       0.15931211 -0.17520668 -0.052030478 -0.014588428
0003c0 ab 66 99 3e b7 37 9b be 59 f4 77 3e 5e a5 5d 3e
       0.29961142 -0.30315945 0.24214305 0.21645114
0003d0 43 6b 08 3e d5 2a 12 3e 76 78 ca bd e7 bf 43 3e
       0.13322167 0.14274152 -0.09886257 0.19116174
0003e0 06 86 94 3e 06 d5 69 3e 20 4a 43 be a2 81 dd 3d
       0.29008502 0.22835168 -0.19071245 0.10815741
0003f0 6b 3f ff bd 1e e1 bb 3b 53 ae b0 3d 34 6a 46 3e
       -0.12463268 0.005733623 0.08627 0.19376451

feature_extractor.1.weight f4 [256]
000000 05 a0 7e 3f 60 e5 7e 3f 6a 9c 7e 3f f8 5c 80 3f
       0.9946292 0.9956875 0.9945742 1.0028372
000010 6e 0e 7d 3f 1c ef 7d 3f fd 0a 7c 3f 64 24 7f 3f
       0.9885014 0.99192977 0.98454267 0.996649
000020 d0 86 80 3f 2e 21 83 3f fe b2 7f 3f e7 20 81 3f
       1.0041142 1.0244501 0.99882495 1.0088166
000030 d7 95 82 3f 84 83 7f 3f 14 01 7e 3f d3 4c 80 3f
       1.0201977 0.9981005 0.99220395 1.0023445
000040 c2 d5 7f 3f a3 01 7f 3f c9 1b 80 3f 54 36 80 3f
       0.99935544 0.9961187 1.0008479 1.001658
000050 75 d7 7c 3f 68 67 7e 3f b2 56 7f 3f 9a 82 7e 3f
       0.9876626 0.99376535 0.9974166 0.9941803
000060 c9 3c 82 3f 83 4a 81 3f e5 3b 82 3f 7c 2f 81 3f
       1.01748 1.0100864 1.0174528 1.0092616
000070 87 c6 80 3f 59 0f 80 3f a0 e2 7e 3f d4 97 7f 3f
       1.0060586 1.0004684 0.9956455 0.99841046
000080 cb a7 82 3f 04 2b 7f 3f 99 24 7f 3f 68 8d 80 3f
       1.0207456 0.9967501 0.9966522 1.0043154
000090 f5 27 7e 3f 37 5e 7f 3f 68 6c 82 3f bc 86 7f 3f
       0.9927972 0.99753135 1.0189333 0.99814963
0000a0 3b c6 7d 3f eb 3c 81 3f 66 51 7e 3f cc 71 81 3f
       0.991306 1.0096716 0.99342954 1.0112853
0000b0 bc 4e 80 3f a5 bf 82 3f 13 59 7f 3f 8b c9 80 3f
       1.0024028 1.0214735 0.9974529 1.0061506
0000c0 40 84 83 3f b9 7e 7e 3f c7 6b 82 3f e9 4f 7e 3f
       1.0274734 0.99412113 1.0189141 0.99340683
0000d0 e2 0d 7e 3f ed cd 7f 3f bc 41 80 3f e6 3b 7c 3f
       0.99239933 0.9992359 1.002006 0.985289
0000e0 77 58 80 3f e0 4b 80 3f 0b 47 80 3f 4b e1 80 3f
       1.0026997 1.0023155 1.002168 1.0068754
0000f0 9a c8 7d 3f 5a 69 7e 3f a8 b5 7e 3f cb a9 7d 3f
       0.9913422 0.99379504 0.99495935 0.9908721
000100 4f 1c 80 3f 0d e0 7f 3f e3 03 82 3f b3 99 81 3f
       1.0008639 0.9995125 1.0157436 1.012503
000110 83 a0 7c 3f 39 d8 7f 3f 5d f1 7d 3f ad 80 7f 3f
       0.9868242 0.99939305 0.99196416 0.9980572
000120 14 40 81 3f 1a 2b 7e 3f 59 3a 80 3f 94 38 80 3f
       1.009768 0.9928452 1.0017806 1.0017266
000130 72 5f 81 3f 5f 7c 7e 3f 2e 45 80 3f 50 b1 7f 3f
       1.0107253 0.99408525 1.0021112 0.9987993
000140 fd 03 80 3f b4 f3 7c 3f b7 87 7d 3f 96 8f 81 3f
       1.0001217 0.9880936 0.9903521 1.0121944
000150 ff 24 7e 3f bc 6d 80 3f ad c2 80 3f 8b d5 80 3f
       0.992752 1.0033488 1.005941 1.0065168
000160 2e 4f 7e 3f fe 54 80 3f 4e 9b 7e 3f bf 56 80 3f
       0.9933957 1.0025938 0.99455726 1.0026473
000170 fe 0d 81 3f 76 a4 81 3f 4e cd 81 3f b8 27 80 3f
       1.0082395 1.0128314 1.0140779 1.0012121
000180 a4 45 80 3f 64 98 7f 3f 4a 65 7e 3f 53 06 82 3f
       1.0021253 0.99841905 0.99373305 1.015818
000190 6e 36 80 3f 68 1e 82 3f d0 ea 7d 3f 5e c4 80 3f
       1.0016611 1.0165529 0.9918642 1.0059927
0001a0 94 41 7f 3f 2b 86 80 3f 58 51 7f 3f 56 3c 80 3f
       0.9970944 1.0040945 0.99733496 1.0018413
0001b0 e2 dc 7f 3f 89 b4 80 3f 19 72 7f 3f c1 ad 7f 3f
       0.99946415 1.0055095 0.99783474 0.998745
0001c0 cf 5a 7f 3f c3 fa 7f 3f 2a 07 80 3f 73 a4 7e 3f
       0.9974794 0.99992007 1.0002186 0.9946968
0001d0 2a 57 80 3f 1a 0c 80 3f 89 c8 7b 3f bb 10 7e 3f
       1.00266 1.0003693 0.9835287 0.9924428
0001e0 9d 29 7e 3f 85 1d 7c 3f 02 0c 7f 3f 2d f6 80 3f
       0.99282247 0.98482543 0.996277 1.0075127
0001f0 d0 57 80 3f da 3d 7f 3f 84 e8 7e 3f b6 04 7f 3f
       1.0026798 0.99703753 0.9957354 0.99616563
000200 2a 0e 80 3f f3 c8 7f 3f 4d 3b 7f 3f 2d b8 7d 3f
       1.0004323 0.99916 0.9969986 0.99109155
000210 96 41 82 3f d6 80 7e 3f 6e f5 7f 3f ea 12 80 3f
       1.0176265 0.9941534 0.9998387 1.0005772
000220 4c 2b 81 3f ba d1 7f 3f f8 48 80 3f 45 2d 80 3f
       1.0091338 0.9992939 1.0022268 1.0013815
000230 27 4d 80 3f a7 35 80 3f d3 ee 80 3f 07 15 80 3f
       1.0023545 1.0016373 1.0072883 1.0006417
000240 71 9b 7f 3f e4 12 80 3f 0b 1a 7e 3f 05 72 80 3f
       0.9984656 1.0005765 0.9925849 1.0034796
000250 8a 4b 7e 3f 78 4d 7f 3f d5 a9 7c 3f bf 82 81 3f
       0.99334013 0.9972758 0.98696643 1.0118026
000260 b0 85 7f 3f ee ad 80 3f 6f 07 7e 3f bc fd 81 3f
       0.99813366 1.0053079 0.9923009 1.0155559
000270 0a 1d 7e 3f 0e 19 7e 3f ec 4a 80 3f 70 60 7f 3f
       0.9926306 0.9925698 1.0022864 0.99756527
000280 b7 2f 7c 3f 56 78 80 3f aa 2b 80 3f 7e c8 82 3f
       0.9851031 1.0036724 1.0013325 1.0217435
000290 e9 31 7e 3f 31 c4 7d 3f f3 ca 7e 3f 26 df 7e 3f
       0.99294907 0.9912749 0.99528426 0.9955925
0002a0 00 56 7f 3f 7c 19 7f 3f 3b 9b 7e 3f 37 6a 7f 3f
       0.997406 0.9964826 0.9945561 0.99771446
0002b0 92 16 80 3f 65 6d 7f 3f 4e b1 7e 3f fc f1 7e 3f
       1.0006888 0.997763 0.99489295 0.9958799
0002c0 3d 3f 80 3f 0b 17 81 3f f2 30 7e 3f 08 47 7e 3f
       1.0019299 1.0085157 0.99293435 0.99327135
0002d0 f3 54 81 3f 3e 24 80 3f ae 2e 81 3f b5 ed 7d 3f
       1.010405 1.001106 1.009237 0.9919084
0002e0 24 e0 7f 3f 32 9f 80 3f 35 6d 7e 3f 54 f9 7e 3f
       0.99951386 1.0048583 0.99385387 0.99599195
0002f0 35 11 80 3f df 7d 80 3f 05 c7 7f 3f 6c 90 7c 3f
       1.0005251 1.0038413 0.99913055 0.9865787
000300 2f da 7f 3f 36 8c 7d 3f ae 18 81 3f d9 d8 81 3f
       0.99942297 0.9904207 1.0085657 1.0144302
000310 4d 99 7e 3f 14 32 7f 3f 12 99 80 3f 92 d9 7e 3f
       0.9945267 0.9968579 1.0046713 0.99550736
000320 ac 80 7d 3f b7 99 7d 3f 4e 65 7c 3f d2 2d 7e 3f
       0.9902446 0.99062675 0.9859208 0.99288666
000330 68 8d 80 3f e2 e9 80 3f a5 9b 80 3f 04 d3 7e 3f
       1.0043154 1.0071375 1.0047499 0.99540734
000340 fb 67 7f 3f c1 e3 7f 3f 5b b7 80 3f 5d e1 80 3f
       0.99768037 0.999569 1.0055956 1.0068775
000350 bf a1 7f 3f 4c e5 7e 3f 75 a3 81 3f 47 62 7f 3f
       0.9985618 0.9956863 1.0128008 0.99759334
000360 eb 7b 7d 3f 7a 6e 80 3f 54 21 80 3f 63 b1 7c 3f
       0.9901721 1.0033715 1.0010171 0.9870817
000370 53 bc 80 3f dc 4e 7d 3f 53 0a 7f 3f 75 e3 80 3f
       1.0057472 0.98948455 0.9962513 1.0069414
000380 68 a6 80 3f ad 26 80 3f f8 af 7e 3f 95 43 7f 3f
       1.0050783 1.0011803 0.99487257 0.99712497
000390 81 8a 7c 3f be c3 7e 3f 9f 88 7f 3f 7e bb 80 3f
       0.9864884 0.9951743 0.9981784 1.0057218
0003a0 85 09 81 3f ca ad 7f 3f 7a 0b 80 3f df f1 7d 3f
       1.008103 0.99874556 1.0003502 0.9919719
0003b0 5d bb 7f 3f 24 59 7f 3f d9 cb 7e 3f 5d 12 7f 3f
       0.9989527 0.9974539 0.99529797 0.99637395
0003c0 b6 82 80 3f 17 59 80 3f 86 31 80 3f ad 68 7c 3f
       1.003989 1.0027188 1.0015113 0.9859722
0003d0 0b a9 7d 3f a5 ac 82 3f 43 56 7d 3f ed c9 7f 3f
       0.99086064 1.0208937 0.9895975 0.9991749
0003e0 19 79 7d 3f db 03 7d 3f 64 f5 80 3f 63 97 7d 3f
       0.99012905 0.9883401 1.0074887 0.9905912
0003f0 bf b7 7f 3f 91 5c 81 3f 41 b4 81 3f 2b 78 7c 3f
       0.9988975 1.0106374 1.0133134 0.9862086

feature_extractor.1.bias f4 [256]
000000 52 66 3d bb 4a 2a 7a bb fa 45 dd 3a df 63 0f 3c
       -0.00289001 -0.003817218 0.0016881817 0.0087518385
000010 04 72 80 bc 6c 29 00 bc 84 bb 16 bc ef f4 f4 bb
       -0.015679367 -0.007822376 -0.009199981 -0.0074754874
000020 ad d4 6b 3a 64 92 a9 3c 42 e7 9d bb 57 5d b7 3c
       0.000899623 0.020699687 -0.004818828 0.022383375
000030 34 59 7f 3c db 41 97 3b f9 35 a6 bb db e0 1c 3c
       0.0155852325 0.004616005 -0.005072352 0.009575094
000040 29 6b 73 bb 89 5d 8d bb f7 0e 03 3b bb 7b cd 3b
       -0.003714273 -0.004314129 0.0019997933 0.0062708533
000050 54 46 8b bb 9d ac 83 bc 89 41 3e ba 42 97 85 bb
       -0.004250327 -0.01607352 -0.00072576903 -0.004076869
000060 72 b1 4b 3c 11 4f f0 3b 3d 4b 92 3b 4e 5a 2c 3c
       0.012432443 0.007333644 0.0044645355 0.010519577
000070 c3 08 14 3b a5 15 8d bb ce b4 7c bb 2f f1 07 ba
       0.002258823 -0.0043055587 -0.0038559916 -0.00051857805
000080 0b 13 8c 3c ca 49 60 bb bd ef c2 bb ab 4d f0 3b
       0.017098924 -0.003422367 -0.005948989 0.0073334775
000090 d2 08 66 ba 5a 5f 27 3b 13 c4 52 3c 86 82 91 39
       -0.0008775118 0.0025539012 0.012864131 0.00027753803
0000a0 a4 a3 9d bb c4 00 06 3c ee f0 c1 bb 55 77 8a 3b
       -0.0048107672 0.0081788935 -0.0059186136 0.0042256513
0000b0 a3 a2 1f 3c e5 24 e1 3c 98 ce 01 3b 7e 2b 4b 3c
       0.009743365 0.027483413 0.0019806977 0.012400506
0000c0 5d 26 ac 3c ce d1 3d 3a 45 ff 3b 3c 00 af dd ba
       0.021014387 0.0007241041 0.011474435 -0.0016913116
0000d0 84 9d b9 bb b6 58 de 3a 6d ab f5 3b e8 e3 82 bc
       -0.0056645293 0.0016963694 0.007497242 -0.015977815
0000e0 b8 5d 16 3c 3f 3a f6 3a 04 9d c3 3c 5f 42 14 3b
       0.009177618 0.0018785669 0.023878582 0.0022622568
0000f0 07 c9 03 bc 8f 23 81 ba 5b e4 21 bb ee 43 0a bc
       -0.008043534 -0.0009852516 -0.002470276 -0.008439047
000100 2d ab 04 bb 4a df 1f bb b7 74 68 3c cc 14 2d 3c
       -0.002024363 -0.0024394565 0.014187983 0.01056404
000110 5f da 1e bc 23 6d f8 3a 8f 91 87 bb 0e ce c5 3b
       -0.009695618 0.0018953424 -0.004137225 0.0060365265
000120 56 ff 98 3c b7 db 9d bb 09 d7 a6 3b 1e 4c 0c 3b
       0.018676441 -0.004817452 0.005091552 0.0021407674
000130 d4 fc 3b 3c 80 3a ba bb ae 0a 60 ba 01 8d ae bb
       0.011473853 -0.0056832433 -0.0008546513 -0.0053268676
000140 80 35 ed bb cc 05 d4 bb a1 3a 14 bc 20 99 52 3c
       -0.0072390437 -0.0064704176 -0.009047181 0.012853891
000150 9e 82 c8 bb 09 d1 3c bb b7 bd d0 3a ba 0e 9d 3c
       -0.0061190864 -0.0028811118 0.001592568 0.019172061
000160 d7 f8 2d bb 20 e0 f0 3b 91 db d5 bb a1 29 ca 39
       -0.0026546025 0.0073509365 -0.0065264185 0.00038559458
000170 7d 1e ff 3b 06 4d cc 3b 68 4e 72 3c 88 a4 1d 3c
       0.007785617 0.006234768 0.014789201 0.009621747
000180 32 46 a5 3a 94 5d 59 3c 0f d2 a6 bb d4 9c e1 3b
       0.0012609421 0.01326694 -0.005090959 0.0068851504
000190 3e 56 71 bb eb 19 83 3b 99 47 ae bb 2d cb f1 3a
       -0.0036825086 0.0040008924 -0.0053185937 0.0018447392
0001a0 0c 7a a5 ba 9f 33 4b 3c cf 5f 90 ba 4c 99 a2 bb
       -0.0012624874 0.012402444 -0.0011014881 -0.004962122
0001b0 8e 25 3d bb d8 fc 11 3c 84 ce 0e 38 63 4a 08 3b
       -0.0028861496 0.00891038 3.404777e-05 0.002079629
0001c0 b7 b0 ef ba f2 7e 95 bb 16 72 97 bb 89 45 27 bc
       -0.0018286918 -0.004562252 -0.0046217544 -0.01020945
0001d0 56 ac c7 3b c0 dd f1 3a 66 fd 26 bc cb f7 42 ba
       0.006093542 0.0018452927 -0.010192251 -0.0007437437
0001e0 56 24 0c bc b7 25 26 bc db e1 a6 3a 25 93 24 3c
       -0.008553585 -0.010140828 0.0012732105 0.010044848
0001f0 a6 f2 39 bb eb ff 0a 3b 90 31 2d bc 09 7b 9e 3b
       -0.002837339 0.0021209668 -0.010570899 0.0048364443
000200 2b 02 3e ba 8d 95 3a 3b ec 15 93 bb 3f db 16 bc
       -0.0007248248 0.0028470487 -0.0044886973 -0.009207546
000210 73 ff 84 3c d7 b3 fc bb c2 43 ae bb 83 b6 1d 3c
       0.016235089 -0.0077118683 -0.005318136 0.009626034
000220 5c d2 4c 3c 2c 16 b1 bb 87 a4 76 bb 89 6c 1b bb
       0.012501325 -0.0054042544 -0.0037634687 -0.0023715815
000230 1d 4e 37 3c c4 05 7f 3b cb ae 65 3b dc b3 b7 ba
       0.011188057 0.0038913349 0.0035046812 -0.0014015394
000240 b7 40 d1 ba ac 86 8d bb df 15 e6 bb b3 c0 c4 3b
       -0.0015964721 -0.0043190327 -0.00702165 0.006004417
000250 3b 2f 13 bc a7 9a 0e ba e2 b8 23 bc 8c 1d 12 3c
       -0.008983429 -0.0005439915 -0.00999281 0.008918177
000260 1d 98 25 bb cd e3 76 ba 95 28 35 bb 86 9c 49 3c
       -0.0025267669 -0.00094181 -0.0027642597 0.0123053845
000270 97 a6 49 bc 76 ad 0c bc 8b 41 85 3a 89 fd 3b bb
       -0.0123077845 -0.008586278 0.0010166628 -0.0028685054
000280 79 a5 02 bc ab 24 0c 3a 5a 5b 04 3c 2f 3c 0a 3c
       -0.007974022 0.000534604 0.008078421 0.0084372
000290 71 4f 0c 3a c8 a2 27 bc 92 28 28 38 69 8a 86 39
       0.0005352414 -0.010231681 4.0092105e-05 0.00025661595
0002a0 30 08 8a bb fe 27 7e bb b2 34 cd bb f7 07 ea ba
       -0.004212402 -0.0038781161 -0.0062623853 -0.0017855157
0002b0 1f 9f 8f bb eb 28 f5 ba 9f be 4b bb f0 ca e4 bb
       -0.0043829824 -0.0018704211 -0.003108896 -0.0069822
0002c0 52 02 52 3b a3 2e 6b 3c 40 a4 82 bb 62 0f bf bb
       0.003204484 0.014354381 -0.0039868653 -0.005830691
0002d0 4c 5c 32 3c b6 12 44 bb 3d 13 94 3a 57 0c 42 ba
       0.010886263 -0.002991838 0.0011297237 -0.00074023515
0002e0 9a 63 52 3b 08 7c a0 ba b9 07 b5 b9 6e 93 d8 bb
       0.0032102824 -0.0012243995 -0.00034528764 -0.006609372
0002f0 38 1d 7e bb 03 52 c6 3b b3 58 d1 3b 83 d3 29 bc
       -0.003877474 0.006052257 0.0063887476 -0.01036537
000300 95 23 d7 ba 13 d3 41 ba 15 29 fc 3b ae 96 57 3c
       -0.0016413803 -0.0007393818 0.007695327 0.013158483
000310 81 99 5f 38 69 01 4c ba 59 30 8b 3b 60 2e 5d 39
       5.3310305e-05 -0.00077821926 0.004247707 0.00021093478
000320 8f 75 c6 bb a8 b7 2d bc f0 04 55 bc c5 41 75 bb
       -0.0060564945 -0.010602869 -0.0130016655 -0.0037423235
000330 a9 4b e6 3b 85 4a c5 3b 57 60 3f 3c 7d 0a 88 bb
       0.0070280624 0.0060208463 0.011680684 -0.004151641
000340 07 ac 98 bb a2 3a c6 3b c1 6c 71 bb a7 0d 86 3c
       -0.004659179 0.00604947 -0.0036838504 0.016363932
000350 76 27 d3 bb 6d 17 1f 3b fe a8 e7 3b 9d 2d ed ba
       -0.006443913 0.0024275437 0.007069706 -0.0018095259
000360 41 2a 10 bc de 1c b4 3b 2a 4b c8 39 3f f2 6d bc
       -0.008799137 0.0054966053 0.00038202974 -0.014523088
000370 c1 92 19 3c 7c 74 df bb 6c b7 77 3c 84 e0 54 3b
       0.009373368 -0.006819306 0.015119415 0.0032482455
000380 e1 ec ee 3b 12 fe 84 3b 2c 57 68 bb 70 66 57 3b
       0.0072914218 0.004058608 -0.003545235 0.0032867454
000390 5c b7 f3 bb 3f 1f 2e bb bf 34 68 3b 48 3c 01 3b
       -0.0074376296 -0.0026568917 0.003543183 0.0019719768
0003a0 4d f1 62 3c 84 64 a1 39 5d 58 a5 ba 0b da ef bb
       0.013851476 0.00030783203 -0.0012614835 -0.007319694
0003b0 11 43 cd 39 04 e2 0b bb 9e c1 a5 bb c6 14 c6 ba
       0.00039150615 -0.0021344433 -0.0050584814 -0.0015112392
0003c0 2e 3f 7e 3b d2 18 af 3b 06 7d e3 3b 7b f0 b6 bb
       0.0038794982 0.005343535 0.006942394 -0.0055828667
0003d0 63 bc 89 bb 05 55 55 3c 95 d7 16 bc cb 7f 35 bb
       -0.0042033657 0.0130207585 -0.009206672 -0.0027694579
0003e0 ad 55 26 bc a6 31 12 bc 6f 29 fe 3b f2 27 33 3b
       -0.010152263 -0.00892297 0.007756404 0.0027337042
0003f0 8c ff 29 39 70 22 79 3c 0c 41 10 3c 80 8e 15 bc
       0.00016212295 0.015205964 0.008804571 -0.009128213

feature_extractor.1.running_mean f4 [256]
000000 a2 2a 91 be 64 16 a9 3e 32 bd 85 3d 64 7d 1d 3e
       -0.2835284 0.33024895 0.06530227 0.15379864
000010 bc ed 03 be 92 53 de bb a0 eb 0b 3e 39 11 ac 3d
       -0.12883657 -0.0067848647 0.13664103 0.084017225
000020 90 bc 75 3e 79 e1 96 be d4 d9 57 bd 3c 9a 07 be
       0.23997712 -0.29468897 -0.05269797 -0.1324243
000030 7a 3e 51 3e 3e fa fc 3d 05 8d 5f be 62 45 82 bd
       0.20433989 0.123524174 -0.21831138 -0.0636089
000040 06 b8 00 be 5e 7e de bd 4c 22 35 3e a5 c1 62 be
       -0.125702 -0.108639464 0.17688864 -0.22144182
000050 0e 39 00 be 57 62 ff 3b e5 19 2f 3d 6e 27 64 be
       -0.12521765 0.0077937054 0.042749304 -0.22280666
000060 83 57 94 be 7d 5b 9b 3d 15 54 9c be ac 5b b6 3d
       -0.28973016 0.075858094 -0.305329 0.08904204
000070 a7 64 41 3e f0 e7 c3 be 3b a5 f3 3c 5b b9 83 be
       0.18886052 -0.38262892 0.029741874 -0.25727352
000080 ee 1a 8d be 92 5e 31 be dc 3d 46 be e2 08 6a 3e
       -0.27559608 -0.17321232 -0.19359535 0.22854951
000090 bc fc dc 39 10 97 b8 3e 54 e8 bd 3e 3e 44 d0 3d
       0.00042149972 0.36052752 0.37091315 0.10169266
0000a0 47 71 ea 3d bc 1e 77 be 07 e2 e4 bd c7 60 8a be
       0.11447387 -0.24132818 -0.11175924 -0.2702696
0000b0 c6 12 d4 3e 18 9f 73 3d be 8a e6 3e 62 29 49 be
       0.41420573 0.059477895 0.45027727 -0.19644693
0000c0 93 e5 0a be 7d 36 96 3e ed 9a b9 3d 51 62 1e be
       -0.13564138 0.29338446 0.09062753 -0.15467192
0000d0 b1 c4 16 be 5f ec 84 3e 3f cf b8 3e ba 0e 79 be
       -0.1472347 0.25961587 0.36095616 -0.24322024
0000e0 c6 b9 18 3e d0 08 a0 be 02 da de 3e a9 a8 f5 3d
       0.14914617 -0.31256723 0.43525702 0.1199506
0000f0 c5 6c 40 be 24 93 dc 3d 75 67 84 3d e5 94 27 be
       -0.18791492 0.10770252 0.06465045 -0.16365393
000100 8f 5a d2 bd f8 50 da 3c b9 76 6d be 70 56 37 3d
       -0.10271179 0.026649937 -0.2318982 0.044760168
000110 5f 93 a2 3e 89 95 3e be b8 34 82 3e fc 33 77 bd
       0.3175306 -0.1861173 0.25430846 -0.06035231
000120 79 55 2f 3c 16 dc f3 bd 56 8d 86 bc c2 7d e0 bd
       0.010701531 -0.119072124 -0.016424816 -0.109614864
000130 0f 41 20 3e 6f 46 39 3d df db c2 3d 54 82 1f 3c
       0.15649818 0.045233186 0.09514593 0.0097356625
000140 f0 fa 5a be 51 11 f7 3c 3f 79 4c be 6e 7c 20 3e
       -0.21384788 0.030159624 -0.19968127 0.15672466
000150 8d 8b 4b bc 8f 24 ed 3c b6 ed 28 3d e7 10 99 bd
       -0.012423408 0.028948097 0.041242324 -0.07473927
000160 95 27 66 bd 85 5e 13 3d f6 f9 09 be 2a 0e 85 be
       -0.056190092 0.035978813 -0.13474259 -0.2598737
000170 f7 93 8e bc c4 a6 7b be 9b 19 0f 3e c2 25 5e 3e
       -0.01740454 -0.24575335 0.13974611 0.21694091
000180 b7 43 57 bc df bf 85 bd 61 05 f5 bd c4 42 e7 3d
       -0.013138703 -0.06530737 -0.119639166 0.112920314
000190 52 98 0b 3d 5d 02 de be 89 86 80 3b c1 86 95 be
       0.03408081 -0.43361178 0.003922288 -0.29204372
0001a0 79 76 fb bd ae 31 a4 3e 2a 8c 15 3e 41 2a b0 3e
       -0.12278456 0.32069153 0.1460425 0.34407237
0001b0 06 f3 87 bd 50 a2 7f 3e cc f5 76 3c be 4f 78 3e
       -0.0663815 0.24964261 0.015073251 0.24249169
0001c0 5b 8e 4e be fc e8 24 bd 9d 57 b4 3a ae 76 59 bd
       -0.20171492 -0.040261254 0.0013759021 -0.053091697
0001d0 73 a8 91 bd b3 b8 76 3e 05 6b 2e 3d 10 70 45 be
       -0.07112207 0.24093895 0.04258253 -0.1928103
0001e0 a2 c5 1a be 06 c0 51 3e 24 ee 83 3d dc 02 eb 3c
       -0.15114453 0.20483407 0.06441906 0.028687887
0001f0 84 dc 42 bc b7 5a 6d be 99 49 b2 bd 07 9c 69 be
       -0.011893395 -0.23179136 -0.08705444 -0.22813426
000200 52 56 ba 3e 2e 9d a0 3e 6b f3 83 3e ff 2d 47 be
       0.36393982 0.3136992 0.2577165 -0.1945114
000210 f3 80 2a bc fa 33 45 3e 5a 0f 4c 3e 6d 5f fa bd
       -0.01040672 0.19258109 0.19927731 -0.12225232
000220 4c b8 cb 3d 6d ec 28 3e ee 95 15 3e 90 29 56 be
       0.09947261 0.1649644 0.14607975 -0.20914292
000230 82 40 91 3e 42 49 38 3e 54 0f 91 bd d7 19 7d be
       0.28369528 0.17996696 -0.07083002 -0.24716888
000240 e3 97 3b be 07 49 35 3e 80 17 ef 3d 29 84 ad 3e
       -0.18319659 0.17703639 0.11674404 0.33889893
000250 72 e0 95 3d 29 b8 62 be ec cf 8a be 09 ff fd 3d
       0.073182 -0.22140564 -0.27111757 0.1240216
000260 d5 c2 04 3e 00 f1 1f be e3 97 6b 3d 9a 9c 58 be
       0.12964948 -0.15619278 0.057517897 -0.21153489
000270 7e 3d 36 3e b9 c6 95 bc 7d 43 8c 3e c1 a1 b1 bd
       0.17796895 -0.018283235 0.2739524 -0.0867343
000280 63 07 a6 be 0d 0a 65 bd 5c ba d2 3d 90 ee a0 3d
       -0.3242751 -0.05591779 0.102894515 0.07858002
000290 ef 1b 6d 3e 74 61 12 3d 89 82 6a 3e 7a 4d 7c bc
       0.23155187 0.03573747 0.22901358 -0.015399331
0002a0 f0 c5 4d be 08 01 e6 3c 7e ed 5d 3e 4e 14 dd 3d
       -0.20095038 0.028076664 0.21672627 0.107948884
0002b0 15 6c 31 bd dc f2 7b 3e b8 f9 a7 be b7 4d 46 be
       -0.043315966 0.24604362 -0.32807708 -0.19365583
0002c0 05 68 ec 3e 0b 8e 4b 3d cc d3 6a 3e 2f 95 21 be
       0.4617311 0.04969601 0.22932357 -0.15779565
0002d0 b8 61 49 be b2 d0 80 be 42 6c 75 3e c3 c2 ca be
       -0.19666183 -0.25159222 0.23967078 -0.39601716
0002e0 56 3a 2e be 15 43 7f bc ec e6 16 be b6 aa 0f be
       -0.17014441 -0.015579958 -0.14736527 -0.14029965
0002f0 fe 0d 6a 3e 51 f6 7a be 1c c2 a4 be 55 44 b7 3c
       0.228569 -0.24508025 -0.32179344 0.02237145
000300 ff 7d f5 bd 18 1d b0 3e f4 65 c8 3e 1f 33 6c 3d
       -0.119869225 0.34397197 0.39140284 0.05766594
000310 1a 2f 4f bc aa fc c5 3d 19 10 98 bd 8a 7f 6c be
       -0.012645507 0.096673325 -0.074249454 -0.23095527
000320 fa 32 ca bc fd 5c 94 be 9c ae 48 bc b0 7d ce 3e
       -0.02468251 -0.28977194 -0.012248661 0.40330267
000330 f7 12 5f 3e 65 99 b3 3e f5 13 87 3e 70 01 65 be
       0.21784578 0.35077968 0.26382414 -0.2236383
000340 2a 5d e0 3b 8f fe f6 bd e2 22 14 3e b7 b1 c3 be
       0.0068470435 -0.12060272 0.14466432 -0.38221523
000350 ac d9 23 bc 55 d6 91 3e ce 9f 51 3d 9d 30 34 be
       -0.0100006275 0.28483835 0.051177792 -0.1759667
000360 f2 1d 36 be 54 e2 0e be 5f af 8f 3d e3 5c 83 bd
       -0.1778486 -0.13953525 0.07015871 -0.06414201
000370 80 c8 4e bc 1b 22 92 be 12 6e 07 3e cf 8a e9 3d
       -0.012621045 -0.28541645 0.13225582 0.11403429
000380 11 ba b0 be dc 50 bf 3e 0e 76 cc 3d 38 4f 7a be
       -0.34516957 0.37366378 0.09983455 -0.24444282
000390 4b 67 9a 3c 87 c7 9e 3d 64 1f 67 3e 47 3b c4 3c
       0.018848082 0.077529006 0.22570568 0.023954047
0003a0 6a cb 68 be c8 b5 ea 3e 6d 65 c7 3d 4c 69 36 3e
       -0.22733846 0.45841813 0.09736142 0.17813605
0003b0 fa 71 33 3e 17 0d 99 be b6 c1 02 be 87 04 8a 3d
       0.17523947 -0.298928 -0.12769207 0.06739145
0003c0 75 12 bf 3e 00 67 5b be 47 71 50 3e 61 0c a6 3e
       0.3731877 -0.2142601 0.20355712 0.3243132
0003d0 15 a7 3b 3d 70 f8 b1 3a 12 10 65 be 9d 64 8d 3e
       0.04581364 0.0013578068 -0.22369412 0.27615824
0003e0 cc 56 99 3e 5a 82 5e 3e 10 29 ae bd 34 8d 68 3e
       0.29949033 0.21729413 -0.08503926 0.22710115
0003f0 21 78 e5 3b 27 64 80 bd 4a 4e 84 bd bc fa 1b 3e
       0.007002846 -0.062691025 -0.06460245 0.15232366

feature_extractor.1.running_var f4 [256]
000000 3e d6 c7 3e 35 79 2b 3f 85 b0 a2 3e 6b 45 bd 3e
       0.3903064 0.6698182 0.317753 0.36967024
000010 2e c6 88 3e e4 36 b8 3e 14 94 dd 3d 6a 6e bf 3e
       0.267137 0.35979378 0.10819259 0.37388927
000020 21 2d 96 3e ef 29 a7 3e 28 3c 00 3f 24 f6 79 3e
       0.29331306 0.3264918 0.5009179 0.24410301
000030 e6 24 c0 3e 98 5c cd 3e b9 ac 18 3f 4d a5 a0 3e
       0.3752815 0.40109706 0.59638554 0.31376114
000040 72 13 da 3e 4a a6 bc 3e 83 0c c5 3e 3c 42 95 3e
       0.4259296 0.36845618 0.38486108 0.29152095
000050 85 65 1e 3f ed 40 c5 3e 5d 2a 63 3f 90 01 a8 3e
       0.61873657 0.38526097 0.88736516 0.32813692
000060 0b 26 5a 3e bc a9 17 3e af 50 cf 3e 33 6b f2 3e
       0.21303575 0.14810842 0.40491244 0.47347412
000070 6f e8 8a 3e a2 18 fa 3e 0d 51 d8 3e 89 30 a1 3d
       0.27130458 0.48846918 0.42249337 0.078705855
000080 27 e5 f3 3e a9 3f 74 3e 7e d1 c0 3d e7 02 8a 3e
       0.47635767 0.2385241 0.094149575 0.2695534
000090 2e a5 a4 3e 6e cc 11 3f 62 10 f5 3e ee 26 4c 3e
       0.32157272 0.5695256 0.47864062 0.19936725
0000a0 0e f1 7c 3e 36 99 5f 3e 12 da e3 3d c3 d9 bc 3e
       0.2470133 0.21835789 0.11125578 0.3688489
0000b0 1a 5b 01 3e c5 28 bb 3e 74 fa fe 3e 92 fd a9 3e
       0.12632409 0.36554542 0.49800456 0.3320127
0000c0 dc 74 94 3e 55 fa 26 3e c1 03 af 3e c3 48 3a 3e
       0.28995407 0.16306432 0.34182552 0.18191819
0000d0 62 d5 0b 3e 92 69 5f 3f 4f 37 26 3f fe b3 8e 3e
       0.13655618 0.8727046 0.64928144 0.27871698
0000e0 36 df 9f 3e 40 50 a1 3e 6a 70 8c 3e 67 7a ed 3d
       0.31224984 0.31506538 0.27429515 0.11595612
0000f0 9f 5f a6 3e 28 3a d1 3d 98 16 0a 3f 06 1f 60 3e
       0.32494828 0.102161705 0.53940725 0.21886835
000100 1f 32 31 3f e8 c1 0b 3f 66 13 92 3e ba f4 f5 3e
       0.69217104 0.5459275 0.28530425 0.48038274
000110 58 8e 07 3e 34 95 a4 3e c4 38 a4 3e 1d 43 b3 3e
       0.13237894 0.32145083 0.3207456 0.3501214
000120 5b 2b 18 3f f2 e3 bd 3e 56 33 82 3e bc 3b 8b 3e
       0.59441155 0.3708797 0.2542979 0.2719401
000130 98 d5 6e 3f 85 01 a3 3e 07 f5 b7 3e 67 46 36 3e
       0.9329467 0.31837097 0.3592913 0.17800294
000140 2c 78 fa 3e 74 da e0 3e 68 97 51 3e 63 0e e5 3e
       0.4891981 0.43916667 0.20467913 0.4473754
000150 30 70 cb 3e 67 8a 06 3e cd 40 54 3e 15 aa 42 3f
       0.3973403 0.13138734 0.20727845 0.76040775
000160 e7 83 d6 3d 4d 4a 63 3e a2 1d b6 3e 41 fc d8 3e
       0.10474377 0.22196312 0.35569483 0.42379954
000170 b8 f9 71 3f 3c 5c 29 3e fb 39 a9 3e 07 db 18 3e
       0.94521666 0.16539091 0.33052048 0.14927302
000180 b5 21 d2 3e 3d 40 f0 3e cd 24 b3 3e dd de 22 3e
       0.4104134 0.4692401 0.34989014 0.15905328
000190 45 bf 3d 3f a8 d0 0c 3f b4 d8 1c 3f 61 12 27 3e
       0.7411998 0.55005884 0.6126816 0.16315605
0001a0 bc 54 aa 3e ed 98 30 3f 78 bc e6 3e 4c b8 8e 3e
       0.33267772 0.68983346 0.45065665 0.27874982
0001b0 29 ab bb 3e 39 58 74 3e 98 32 a6 3e ba 7e 3b 3e
       0.36654022 0.2386178 0.32460475 0.18310061
0001c0 0e 7d df 3d 6b a5 f1 3d 5c 36 2c 3e d9 a9 b3 3e
       0.10912524 0.11799129 0.16817611 0.3509052
0001d0 b9 97 8c 3e 24 f6 95 3e 43 8a ef 3e 3a ca ab 3e
       0.27459505 0.29289353 0.46785173 0.33552724
0001e0 6f fd 50 3e 9b c5 26 3f 35 73 c6 3e 82 54 ea 3e
       0.20409177 0.6514527 0.3875977 0.457676
0001f0 bb d4 7c 3e 7c ae 9e 3e 53 28 89 3e 2e dd 8f 3e
       0.24690525 0.30992496 0.26788577 0.28098434
000200 0c 35 2a 3f 14 2d 29 3f e9 0d 73 3f 10 e8 66 3e
       0.66487193 0.6608441 0.949431 0.22549462
000210 a7 89 8b 3e ef c1 c9 3e 0d 3d b1 3e a2 0d 24 3e
       0.27253458 0.39405772 0.3461689 0.16020826
000220 a0 76 a2 3e 29 63 9e 3e e3 31 54 3e 1c 53 01 3f
       0.3173113 0.30935028 0.20722155 0.5051744
000230 75 92 a7 3e 9f ec 58 3e 1e d7 bf 3e 7d a5 f5 3e
       0.32728925 0.21184014 0.3746881 0.4797782
000240 f2 a1 e9 3e 04 50 11 3f 33 2d 2c 3f 15 9a 3b 3f
       0.45631367 0.5676272 0.6725647 0.73281986
000250 7c 48 39 3e 24 49 c0 3e f7 7c f8 3e 4a bc 0f 3f
       0.18094057 0.37555802 0.4853284 0.5614668
000260 e7 97 c4 3e db a4 e7 3e ae 3b a0 3e 74 a7 35 3e
       0.38397142 0.45242962 0.31295532 0.1773966
000270 d0 a3 2d 3e ce 56 cd 3e 8b eb 91 3e b8 99 85 3e
       0.16957021 0.4010529 0.28500018 0.2609384
000280 91 c1 8b 3e b8 85 c6 3e 02 33 2f 3e b1 4d 14 3f
       0.27296117 0.38773894 0.17109302 0.5793105
000290 46 c0 09 3f 21 31 23 3f f6 41 ca 3e ff d8 93 3d
       0.5380901 0.6374684 0.3950345 0.07219123
0002a0 78 5c 5f 3e 3d 00 9f 3e 87 48 12 3f e0 12 a1 3e
       0.21812618 0.3105487 0.5714192 0.31459713
0002b0 9d 56 b0 3e c6 1d d0 3e 4d 00 bd 3e 9e 5d 78 3e
       0.3444108 0.40647715 0.36914292 0.24254462
0002c0 3d 45 c5 3e 77 5c e1 3e c2 45 75 3f 96 13 5d 3e
       0.38529387 0.44015858 0.95809567 0.21589503
0002d0 eb 74 a1 3e 0d 2b f8 3e 3f 5f 45 3e ad 7d 97 3e
       0.31534514 0.48470345 0.19274615 0.2958807
0002e0 59 c7 1f 3f 2f 9d 39 3f 10 f0 43 3e fa 8c bf 3e
       0.62413555 0.7250547 0.19134545 0.37412244
0002f0 2a 3d e6 3e 1d e2 f8 3e 50 87 3f 3f 0d e8 a2 3e
       0.4496854 0.4861001 0.74815845 0.31817666
000300 e3 7e 89 3e d5 a6 9c 3e 64 f6 60 3f 02 fc b6 3e
       0.2685462 0.30596033 0.8787596 0.35739142
000310 65 c2 15 3e d8 c8 4c 3e 7f 45 b4 3e fb 14 00 3f
       0.14624937 0.19998491 0.3520927 0.50032014
000320 81 eb 9e 3e 81 73 b5 3d 48 67 1e 3e 17 f6 1c 3f
       0.3103905 0.08859921 0.15469086 0.61313003
000330 65 4f 16 3f 71 73 27 3f 5d ab 38 3f 15 0e 88 3e
       0.58714896 0.65410525 0.7213648 0.26573244
000340 28 3c 14 3f 88 40 cc 3e 53 83 d0 3e c0 8b 8c 3e
       0.5790429 0.39892983 0.40725192 0.2745037
000350 c2 5e 15 3f 27 95 ae 3e 13 7a c3 3e 1b c1 79 3e
       0.58347714 0.3409817 0.38179073 0.2439007
000360 2c 5a 96 3e 7f 89 b6 3e fb 07 8c 3e d2 77 93 3e
       0.2936567 0.35651776 0.2734984 0.28802353
000370 8a 5b 6d 3e 61 26 94 3e 1b 3c 5c 3f ac bb c3 3e
       0.2317945 0.2893553 0.86029214 0.3822912
000380 81 a4 b0 3e f2 21 ac 3e 02 56 a4 3e c4 91 38 3e
       0.34500507 0.33619648 0.3209687 0.18024355
000390 95 12 7b 3e 23 5b b6 3e 9c 54 95 3e 7a e0 3c 3e
       0.24518807 0.35616407 0.29166114 0.18445006
0003a0 81 3d 5d 3e 5b 73 d8 3e dd cc ae 3e 97 82 c5 3e
       0.21605493 0.4227551 0.34140673 0.38576195
0003b0 d6 ea 83 3e 02 ac e7 3e c1 4e 11 3f 3e 89 c5 3e
       0.25765103 0.4524842 0.56760794 0.3858127
0003c0 41 36 52 3e 7b c9 d3 3e eb 33 65 3e d8 8f 74 3f
       0.20528509 0.41364655 0.22383086 0.9553199
0003d0 a7 74 62 3f c8 a4 3d 3e 53 72 bf 3e e8 d4 57 3e
       0.8845925 0.1851989 0.3739191 0.21077311
0003e0 1f 7c 3f 3e 37 09 1f 3f 2d a7 81 3e d1 14 db 3e
       0.18699692 0.62123436 0.25322857 0.4278932
0003f0 50 f5 38 3f 15 53 9f 3e c2 ff a5 3e 26 21 e6 3e
       0.7224932 0.31118074 0.3242169 0.44947165

feature_extractor.4.weight f4 [256, 256]
000000 ac 6c 06 bc f8 69 64 3d d9 86 0a bc f1 e2 da 3c
       -0.00820462 0.055765122 -0.008455002 0.026719542
000010 6f 6b 4a bc 29 74 74 bd dd 26 3f bb 81 a8 8b bc
       -0.012354716 -0.05968109 -0.0029167451 -0.017048122
000020 0f c1 aa 3c 7b c9 d2 bc b7 16 05 bd c1 1c 8a bb
       0.02084401 -0.025730839 -0.032492366 -0.0042148535
000030 e9 15 28 3c 13 e2 62 bd a0 93 28 bc 1b b7 4f bd
       0.01025913 -0.055391382 -0.010289103 -0.050711732
000040 2b c3 9b bc 2f 36 43 3d bc 8f 28 bc 7b fa 10 3d
       -0.019013962 0.047659095 -0.010288175 0.035395127
000050 35 fd e5 bc 66 a5 9a 3c 02 50 a4 bb e2 a5 12 3d
       -0.02807484 0.018877696 -0.0050144205 0.03580273
000060 9c 8c 09 3c d1 9d 03 bd 46 2e 2e bd 4d 9a 50 3d
       0.00839534 -0.032132927 -0.0425246 0.050928403
000070 a3 85 ba bc 77 cf 96 bd 42 ab 07 3d f4 08 f0 bb
       -0.022768801 -0.073637895 0.03312231 -0.007325286
000080 fc 8a 9a 3c 9b 70 4e bd 20 14 aa bc a1 3e 17 3d
       0.018865101 -0.050400358 -0.02076155 0.036924962
000090 5e 2e 56 3d db b7 0d 3c 26 e1 8d 3c 21 9a 70 bc
       0.052290313 0.008649792 0.017319273 -0.014685185
0000a0 63 32 64 bc 32 ad 82 bd 21 53 89 bc e0 e9 8a bd
       -0.013928029 -0.06380691 -0.016763272 -0.06782889
0000b0 a0 12 a4 bb 68 4f de bc a1 a2 33 3c 78 53 f4 3c
       -0.005007103 -0.027137473 0.010964067 0.029824957
0000c0 2d da 7e bd 5c 2d 60 bd 65 42 59 3c eb bc 2d bd
       -0.062219787 -0.054730758 0.013260459 -0.042416494
0000d0 94 56 90 3c 10 f2 8a 3d 87 f4 a4 bc cb 8c da bc
       0.017619409 0.06784451 -0.020136131 -0.026678463
0000e0 0a bb 08 3d 57 0d ab 3b e4 ac 2b bd 69 f0 2d 3d
       0.0333815 0.005220096 -0.04191293 0.0424656
0000f0 f6 5d c1 3c 4a d6 18 3d 5d e0 93 3c 74 0b 1f 3d
       0.023604374 0.037313737 0.01805132 0.038829282
000100 09 4d fd bc cd b7 98 3c bc 66 eb bc ab a5 9a 3a
       -0.030920522 0.01864233 -0.028735511 0.001179864
000110 ce a2 1f 3d ce 8f d7 3c 9e c4 39 bd 6e 82 60 bd
       0.038973622 0.026313689 -0.045353524 -0.054811887
000120 42 6f a5 bc a4 e3 00 bd 9a ef 5c bd d1 56 54 bd
       -0.020194653 -0.031467095 -0.05393944 -0.051840607
000130 e2 d4 48 bd 06 84 16 bd d0 c5 34 3d 2e 6d 2f bc
       -0.049031146 -0.036747 0.04413396 -0.010707183
000140 a9 1d 88 bc 1d 89 44 bb 94 ed 4b bd 64 7b 97 bc
       -0.016615706 -0.0029988952 -0.04978712 -0.018491454
000150 1f a3 ab bb 97 ac e3 bc 40 30 53 3d e8 bc 33 3d
       -0.0052379514 -0.027792258 0.051559687 0.043881327
000160 15 c8 9a bc 9a 10 87 bc e7 8a 58 bd d9 96 68 3d
       -0.018894235 -0.016487408 -0.052866843 0.056784485
000170 a6 23 3f bd 65 2e 22 3d bb d6 67 3d d0 6e 89 bc
       -0.046664856 0.039595027 0.056601267 -0.016776472
000180 2f 20 c9 bc a1 da 69 bd 66 d4 dd bc dc 98 e6 3c
       -0.02455148 -0.057093266 -0.027078819 0.02814906
000190 60 54 71 3c 7b 4f b3 3c f6 7b ac ba d2 02 26 3b
       0.014729589 0.021888485 -0.0013159502 0.002533127
0001a0 d0 bb 13 bc 09 f8 14 bd dc 5f 96 3b 6f 75 2f bc
       -0.009016946 -0.036369357 0.004589064 -0.010709151
0001b0 5e 26 29 3c b9 b3 2c bd 93 88 42 3c 68 75 a8 3c
       0.010324089 -0.042163584 0.011873382 0.020563796
0001c0 b3 27 4e 3d 47 47 b8 bb 61 ed 64 bd 2d ce 22 bd
       0.05033083 -0.0056237313 -0.055890445 -0.039747406
0001d0 a2 40 fc bc a6 98 15 3d 67 e4 03 bd de 25 dd 39
       -0.030792538 0.03652253 -0.032200243 0.00042180618
0001e0 66 91 71 3d 3f 96 ad 3c 0f 56 3c 3c 34 cf 7b bc
       0.058976553 0.021189807 0.011495127 -0.015369225
0001f0 e8 71 38 3d 8a 52 3e bd 75 cb 84 bd ae 5d 27 3d
       0.045030504 -0.046465434 -0.06484119 0.040860824
000200 0f 38 1e bd f6 65 53 bc 65 7c f6 bc b7 12 10 3b
       -0.03862768 -0.012902727 -0.030088613 0.0021983811
000210 a7 9f c7 3c cc 9a 23 bd 24 e4 6d 3c 8c 8d 29 bd
       0.02436812 -0.039942548 0.014519725 -0.041394755
000220 bd 9d 0a 3c e8 10 51 3d 27 0e 65 bd d8 35 8b 3c
       0.008460459 0.051041514 -0.0559217 0.016993448
000230 c4 e5 68 3d dc 6a 69 bd 67 51 17 3d d2 82 dc 3c
       0.056859747 -0.056986675 0.036942866 0.026917849
000240 71 fd 51 bc ec 04 6d bd ff 97 61 bd a0 38 4a ba
       -0.012816773 -0.057866022 -0.055076595 -0.0007714126
000250 69 a6 39 3b 5d bf 39 bc 57 8c 65 ba db 2a a9 bc
       0.0028327948 -0.0113371285 -0.0008756569 -0.020650318
000260 9d 0e d2 ba 44 23 f6 bc 69 fb 1f 3d 14 19 96 bd
       -0.0016026084 -0.030046113 0.039058123 -0.07329002
000270 54 02 36 3d b9 75 46 3d 70 5e cf 3c 28 6f a9 bc
       0.044435814 0.048452113 0.025313586 -0.020682886
000280 7b a4 56 3d a4 e0 2c bd a7 85 5a 3d c0 ce fb bb
       0.052402955 -0.04220642 0.053350117 -0.0076845586
000290 8d 8f ad 37 79 75 f1 3c 45 9b 46 3d 55 ff 08 bb
       2.0690053e-05 0.02947496 0.04848792 -0.0020904143
0002a0 53 d0 1e 3d 52 2c 92 bc dd 7c d1 3b d0 e1 41 3d
       0.038772892 -0.0178434 0.0063930587 0.047334492
0002b0 23 3d 6c 3d 62 68 98 bb 33 69 1c bc e5 a5 6e bd
       0.057675492 -0.0046511153 -0.009546566 -0.058263678
0002c0 ea c7 44 bc 71 c0 82 3d ee 2d e1 ba 08 71 3a bc
       -0.012010554 0.063843615 -0.0017179826 -0.011379488
0002d0 4f f6 84 3d 17 84 d1 3c dc 9d 4a bd b5 f3 46 3d
       0.06492292 0.02557568 -0.049466953 0.04857226
0002e0 50 fb 9e bc 74 e8 f1 bc c3 9d 41 bd dc 4a 29 bd
       -0.019406945 -0.029529788 -0.047269594 -0.041331157
0002f0 ff 9f 80 3c fe 88 43 bd 1c e6 58 3c 5f 98 08 3d
       0.015701292 -0.047738068 0.013238456 0.033348437
000300 48 60 1d bd a0 ae 88 3d a0 92 be 3b 97 c7 83 bd
       -0.0384219 0.06673932 0.005815819 -0.06434553
000310 90 e2 39 bd 16 85 59 3b 15 cd 16 b9 45 3c 3f 3c
       -0.045382082 0.0033190898 -0.00014381514 0.011672084
000320 00 da 06 bc 65 a2 8b bd 08 bf 30 3d 8f 79 48 3d
       -0.008230686 -0.06818084 0.04315093 0.048944052
000330 11 f7 3a 3d 5d a5 75 3d 39 34 3c 3d 5f 62 61 bd
       0.045645777 0.059972156 0.04594824 -0.055025455
000340 e6 ce 28 3c 10 d4 70 3c eb ea 16 bb e9 01 a6 3c
       0.010303235 0.014698997 -0.0023028206 0.020264583
000350 c0 1c 3d 3d 41 bf 8e bc e9 a4 6e bd 69 eb 7d bd
       0.046169996 -0.017425181 -0.05826274 -0.061992083
000360 62 7b 15 3d 56 f2 d4 bc 59 79 68 bd 2b 34 35 3d
       0.03649462 -0.025994461 -0.05675635 0.044239204
000370 dc 4d 82 3d 82 c1 5f bd ec 9d a8 3b 6d f2 05 3d
       0.06362507 -0.054627903 0.005145779 0.0327019
000380 0b a7 5e 3d 71 5d 09 3d ca cc 57 bc 6a 33 02 bd
       0.054358523 0.03353638 -0.013171384 -0.031787314
000390 20 62 06 3c 6b 91 38 bd 4a 91 0d 3d 41 4a f1 3c
       0.008202106 -0.045060556 0.034562387 0.029454352
0003a0 7d d8 4c bd d3 2d 56 bd 21 aa 3d bd e6 9c a3 3c
       -0.050011147 -0.052289795 -0.046304826 0.019972276
0003b0 54 df 2f bd 6e 4a 71 3b 65 c4 21 3c fd 49 d2 bc
       -0.04293759 0.0036818045 0.009873484 -0.025670046
0003c0 40 76 01 3d 0e 4b 0d 3d 7e ff 08 bd e4 67 64 3d
       0.031606913 0.034495406 -0.03344678 0.05576314
0003d0 8f 00 17 3d 64 d8 21 3c f7 9b f9 bb ad 70 59 3d
       0.036865767 0.009878252 -0.0076174694 0.05308597
0003e0 e5 d5 0b bd 44 d0 c6 3c c7 7d 6c bd 49 83 55 bd
       -0.034139533 0.02426923 -0.057737138 -0.052127156
0003f0 bd 2f c3 bc 53 d8 24 3c 47 64 8c bd 97 b1 6e bd
       -0.023826474 0.010061341 -0.06855064 -0.05827483
