models/best_fold1_hd128_do0.3.pth (torch, 118822 bytes, 20 tensors)

feature_extractor.0.weight f4 [128, 10]
000000 c4 65 87 3e 08 a5 87 3e 1a e0 99 bd a2 fb 8a 3e
       0.2644483 0.26493096 -0.07513447 0.27145106
000010 79 8a 9e bd d7 0b 65 3d 66 89 20 be de 33 3c 3e
       -0.07741255 0.055919494 -0.15677413 0.18379161
000020 20 1e 8d 3e 5d 5c 6e be 7d 10 a5 3e 65 a6 02 3d
       0.27562046 -0.23277421 0.32239142 0.031896967
000030 11 f6 46 3e 33 15 09 3d 8c bd 0e 3e 43 03 79 bd
       0.19429804 0.033467483 0.13939494 -0.060794126
000040 0f 72 80 3e df f8 23 3d 88 ac fa bd de af 69 3d
       0.2508702 0.040032264 -0.12239939 0.057052486
000050 c1 09 5d be 62 61 e1 bc c5 6b dd bd 13 de 56 3e
       -0.21585752 -0.027512256 -0.10811571 0.20983152
000060 f5 d3 6e be 54 18 f9 bd b1 60 af bd 57 21 38 be
       -0.23323043 -0.12162843 -0.08563364 -0.17981468
000070 5e 26 c8 3c f3 c4 9a be 8a a6 ad 3e 91 7e 76 be
       0.024432357 -0.30228385 0.33916122 -0.24071719
000080 fc cd 68 3e fd 86 90 3d 55 ef bf bd 73 02 48 3e
       0.22734827 0.07056997 -0.09371821 0.19532184
000090 d9 5b f7 3c 8e 96 61 3e 97 5a 3b 3d 4e 45 f3 bd
       0.030195164 0.22030088 0.04574069 -0.11878453
0000a0 5d 86 cf 3d ec a5 da bd 3a 8b f0 3d 9f b5 80 3e
       0.1013305 -0.10676178 0.11745305 0.25138566
0000b0 da 6d 38 3e c7 8b 16 be 0a 2b 4a 3e 16 0d 8a 3d
       0.18010655 -0.14701758 0.1974298 0.06740777
0000c0 24 e5 37 3e 0a ab 56 be 5b 30 c4 be a0 de d3 bd
       0.17958504 -0.20963684 -0.38318142 -0.10345197
0000d0 e2 da 40 be af 45 6c 3e ef 03 62 3d 30 7c da 3d
       -0.18833497 0.23073457 0.055179533 0.10668218
0000e0 0b 74 b1 3d 5a b7 87 bd 58 f8 81 3e f0 ec 76 be
       0.086647116 -0.066267684 0.25384784 -0.24113822
0000f0 6a 4e e1 3c 8f d7 4e be ff fc d3 3d 7b ec d4 bd
       0.027503211 -0.20199417 0.103509896 -0.103966676
000100 2f d7 e0 3d 77 64 64 bd 0f df 96 3e 1a e2 34 be
       0.10978543 -0.055759873 0.29467055 -0.17664376
000110 c2 f9 46 be 3e e3 37 be 6a a5 a7 3e 1c a9 e0 3d
       -0.19431213 -0.1795778 0.32743388 0.10969755
000120 a7 60 95 3e 90 ab 82 be c6 ec 95 be c8 2d 78 be
       0.29175302 -0.25521517 -0.29282206 -0.24236214
000130 e7 c3 49 be 3e 6c af 3d d4 56 bb 3d 3b fb 80 3e
       -0.19703637 0.085655674 0.091474205 0.25191674
000140 6a 9e 5f be 11 ef 50 be b3 5c 11 3e 05 75 de bd
       -0.21837774 -0.20403697 0.14195518 -0.108621635
000150 eb e2 42 3e 05 95 8c bd 40 04 3f 3e de f8 5e be
       0.19031875 -0.06864361 0.18653965 -0.21774623
000160 82 fa 31 be ac 0c c6 3d f1 f1 e0 3d ff 73 a3 bd
       -0.17380717 0.09670386 0.10983647 -0.07981109
000170 4e 35 37 3e 80 73 58 3e 30 2f 59 be 1b a6 2a be
       0.17891428 0.2113781 -0.21209407 -0.16664927
000180 5e db 9e 3e aa 53 d5 bd e5 6a d0 bd 57 ac 9c be
       0.3102674 -0.10416348 -0.101766385 -0.30600235
000190 2d d4 3d be 8b 97 40 3d 77 98 37 bd 86 db 7d be
       -0.1853797 0.047019523 -0.044823136 -0.24790773
0001a0 ec 04 cf 39 b1 27 69 be 7b e7 8c be c6 bc 1f be
       0.00039485784 -0.22769047 -0.27520356 -0.15599355
0001b0 e6 46 88 be 43 06 4b be 87 c5 b4 3e 63 c9 4f 3d
       -0.2661659 -0.19826607 0.3530695 0.050729167
0001c0 09 5f 97 3d df c0 95 be 33 5c 41 be b1 c1 e3 bd
       0.073911734 -0.2924871 -0.18882827 -0.11120928
0001d0 44 b0 a1 3c 2d b2 76 be a3 9b 15 be 6f de 31 be
       0.01973737 -0.24091406 -0.14610152 -0.17370008
0001e0 cb 83 0b bd 37 ad bd bd 86 6d 47 bc 91 02 69 be
       -0.034061234 -0.09261554 -0.0121721085 -0.22754885
0001f0 ef 28 6a be c5 48 3a be 97 40 db bd 5b 7f 82 be
       -0.22867177 -0.18191822 -0.10705679 -0.2548779
000200 41 59 85 3e 13 c7 9e bd 26 28 a7 3e 20 1b a3 3d
       0.26044658 -0.07752814 0.32647818 0.07964158
000210 65 8f 8b be de fa 4f 3e a8 bc 9b bd cc 1b e8 bd
       -0.2725784 0.20310542 -0.07604343 -0.11333427
000220 b6 94 73 be d3 15 9f be a8 fe 92 3d cf 1c 6b bd
       -0.23787197 -0.31071338 0.07177478 -0.05740052
000230 4c a2 ce 3d f0 e4 7b be 4a 64 6f 3e 14 92 80 be
       0.100895494 -0.24599051 0.23378101 -0.2511145
000240 de 05 86 bd 17 cc 71 3d 0d 20 33 3e 93 fd 85 3e
       -0.06544088 0.059032526 0.17492695 0.26170024
000250 ee 43 98 3e c6 90 80 be 04 c0 dc 3d 98 68 ed bd
       0.29739326 -0.25110453 0.107788116 -0.11592215
000260 e4 74 3e bd 00 69 6c be ba d3 94 3e 9c 62 75 be
       -0.046498194 -0.2308693 0.29067785 -0.23963398
000270 ad 6f 35 3e 28 a1 aa 3d 1d 04 d2 3d b3 b8 33 be
       0.17718382 0.08331519 0.10254691 -0.17550926
000280 d5 02 9c 3e 51 3e 86 3d 74 74 0b 3d 1c d2 8b be
       0.3047091 0.06554855 0.034046605 -0.27308738
000290 13 cc 09 3e 1b 9a 40 bd 5a cd 04 be c2 4d 87 3e
       0.13456754 -0.047021966 -0.1296896 0.26426512
0002a0 af e0 b2 3d 35 60 37 be 17 ea 62 be f0 e5 0f 3a
       0.08734261 -0.17907794 -0.2215961 0.00054892804
0002b0 25 5c 22 3e 5f 1c b4 bd d0 b8 44 be 06 18 a6 bd
       0.15855463 -0.08794474 -0.19211125 -0.08110051
0002c0 c7 52 57 be 4a 51 a9 3d df ae 7b 3e b0 33 9e be
       -0.21027671 0.08267458 0.24578427 -0.3089881
0002d0 9b 7d a5 3d f7 04 11 3e 54 26 6a 3d d7 d5 c4 bd
       0.08080598 0.1416205 0.05716546 -0.09611099
0002e0 f6 17 41 3e ae b6 3c 3e 51 a1 02 3e 90 a3 2c bd
       0.18856797 0.18429062 0.1275685 -0.042148173
0002f0 18 71 ac bd 74 11 28 3d cd 8d bc bd 48 81 bc bd
       -0.084200084 0.04103227 -0.09206734 -0.09204346
000300 ed 51 4d 3e c1 a6 84 3e ed 4a 46 bd 40 ac a5 bd
       0.20050783 0.25908473 -0.0484113 -0.08089495
000310 54 89 f7 3b 55 44 25 bc 75 4a a4 3d 0c 0c ab 3d
       0.0075542126 -0.010087092 0.08022014 0.08351907
000320 5c d4 a1 be fb 0c f6 bd cd 74 7b 3e b3 39 f4 3d
       -0.3160733 -0.120141946 0.24556275 0.11925068
000330 72 87 c2 bc f5 06 41 be 97 4d 30 be 73 03 86 be
       -0.023746226 -0.1885031 -0.17217098 -0.26174507
000340 b3 a3 ad bd 4c f9 ca 3d ad 0f 80 3e 0a 48 dd 3d
       -0.08478489 0.09910831 0.2501196 0.10804756
000350 47 9a 87 be fd 64 31 be 4a 75 6c bd 18 a1 9a 3e
       -0.26484892 -0.1732368 -0.057729043 0.3020103
000360 02 cb 46 3d 89 83 c2 bd be 5f dc 3d ea 4d 09 be
       0.048533447 -0.094977446 0.10760449 -0.13408628
000370 37 5b 8f be 33 4c 4a 3e 4d 40 b1 bd 81 96 8a bd
       -0.2799928 0.1975563 -0.086548425 -0.067669876
000380 89 eb a7 be 0f a1 4d 3e 30 e4 75 3e e2 22 d2 3d
       -0.32796887 0.2008097 0.24012828 0.102605596
000390 d0 6a 66 be 66 90 94 be 54 8a 99 be ca e9 5c 3e
       -0.22501683 -0.29016417 -0.29988348 0.21573558
0003a0 39 95 1e 3e 1f aa 86 3e fa 8e 28 3e 8f b0 9d 3d
       0.15486611 0.26301667 0.16460791 0.076996915
0003b0 85 24 bf bc 26 57 65 be 25 55 84 be 25 4f 91 be
       -0.023332844 -0.22396526 -0.2584621 -0.28380695
0003c0 24 ab ed 3d 77 58 1e be 62 52 90 bd 43 03 40 be
       0.11604908 -0.15463434 -0.07046963 -0.18751244
0003d0 64 6e 8f bd ca f5 78 be 3f 30 4f be 90 fb f5 3d
       -0.07003477 -0.24312511 -0.20233248 0.12010872
0003e0 d6 ad ae bd 28 0c 41 3e 68 47 fd bd 0d 1b 65 be
       -0.0852925 0.18852293 -0.12367135 -0.223736
0003f0 d9 f1 5b bd 5b f6 10 be fc e3 be bd 98 81 95 be
       -0.05369744 -0.14156477 -0.09320828 -0.29200435

feature_extractor.0.bias f4 [128]
000000 4e 95 6a be 4a d6 a0 bd 14 e5 01 bd 7d d8 33 be
       -0.22908518 -0.078533724 -0.031712607 -0.17563052
000010 c2 ad 6f be 96 08 5a 3e 6e 4d 5a 3e 69 ff 92 be
       -0.23406127 0.21292338 0.213186 -0.28710487
000020 14 81 cc 3d 16 ed 01 3e ca ed 99 3e d8 08 3b 3e
       0.09985557 0.12688097 0.3006423 0.18265092
000030 af c4 94 3e c9 f7 d5 bd c9 20 62 3e 24 2f 84 3e
       0.29056308 -0.10447652 0.22082819 0.25817215
000040 f9 73 99 be 32 47 81 be 29 11 82 3d e8 43 2f 3e
       -0.29971293 -0.2524963 0.06350929 0.17115748
000050 5a 6e 21 be 25 bd 0d 3d f2 7f dd ba 8c 45 a1 3d
       -0.15764752 0.03460421 -0.0016899093 0.07874593
000060 c4 8d 2d be dc 85 37 3e bd e3 57 3e c1 da 60 be
       -0.1694861 0.17922157 0.21082969 -0.21958448
000070 9b 61 64 3b 6b 20 8f 3a c3 8f ce 3d 6e c7 96 3e
       0.0034848216 0.0010919695 0.10086014 0.29449028
000080 f3 9c bc 3d 8b a5 8d bd a5 5c 91 3e bb 8c f7 bd
       0.09209623 -0.069163404 0.28390995 -0.12087389
000090 2e af ba bd 92 72 ae 3c 9f 15 77 be b3 41 0a 3d
       -0.09115444 0.021294866 -0.24129342 0.033754062
0000a0 fc b7 5a be c8 80 03 3d d2 2b f7 3c 4f b9 32 3d
       -0.21359247 0.032105237 0.030172262 0.043633755
0000b0 2f 26 88 be d1 ff 99 be bb 37 15 3e bc ae 8b 3e
       -0.26591632 -0.30077985 0.1457204 0.2728175
0000c0 5d 02 90 be 40 e3 ed 3d 7e cb 6d be bb 9e 9c 3c
       -0.28126803 0.1161561 -0.23222157 0.019118657
0000d0 6e 4e 97 3e 61 f3 75 3e 6a 71 6d be 0a 1b 47 3e
       0.29552025 0.24018623 -0.23187795 0.19443908
0000e0 1e 8b 29 3e d2 c0 14 ba ea ad 9d 3e f9 e6 ff bd
       0.16556975 -0.00056744844 0.30796748 -0.124952264
0000f0 7f 70 96 bd e0 c9 23 be 2c ac 38 3d 62 3d ab 3d
       -0.07345676 -0.15994978 0.04508607 0.08361317
000100 16 de ca 3c eb cb 36 be a7 b6 10 be 31 dd db 3d
       0.024764102 -0.17851226 -0.14132176 0.10735548
000110 65 d2 8e be 27 de 4b bd 72 b5 ee bb dc 3b 03 be
       -0.27894893 -0.049772408 -0.0072848136 -0.12815803
000120 6e 36 ec 3d 6d b1 a4 3c 3e 5d 64 3e f4 ed e8 bc
       0.11533819 0.020104134 0.22301194 -0.028433777
000130 ad 60 4c be 00 a9 65 3e 48 b9 2f 3d 06 9f b8 bd
       -0.19958754 0.2242775 0.042901307 -0.09014706
000140 f3 b9 55 be 2f 4d 98 3d c1 7b 9a be 58 24 ac 3d
       -0.20871715 0.074365966 -0.30172542 0.084053695
000150 ba 22 21 3e a3 75 8e be 62 f5 53 be a4 bd 68 be
       0.15735903 -0.27824125 -0.20699075 -0.22728592
000160 83 10 88 3e 95 31 89 3e a3 a1 9b 3c 52 7d 98 3e
       0.26575097 0.2679564 0.018997973 0.29783112
000170 ed d4 d7 bd 7c 55 9d be 77 43 e3 3d 99 8b e4 3d
       -0.10538659 -0.30729282 0.11096852 0.11159439
000180 e4 2b 9e 3e b9 07 c0 39 aa 9a 78 3e 69 74 45 3e
       0.3089286 0.00036626848 0.2427775 0.19282688
000190 4d a9 6b 3e f0 23 a1 be 28 3e 85 3e 66 0e 89 be
       0.23013802 -0.3147273 0.26023984 -0.26768798
0001a0 8e b0 92 3e ff 6c 4a bc 38 52 8f be f6 fd b5 3d
       0.28650326 -0.012355088 -0.27992415 0.0888633
0001b0 e0 25 85 bd 4b 69 91 be f8 b0 ec bd a9 29 05 3d
       -0.06501365 -0.28400645 -0.115571916 0.032510433
0001c0 22 bd 7d 3e 6e 03 c7 bd 0b 77 40 3e a7 95 27 3d
       0.2477918 -0.09717451 0.18795411 0.040914204
0001d0 5a b3 26 3c 6f d2 70 3d 98 67 53 be 06 01 87 be
       0.010174597 0.058794435 -0.20644987 -0.26367968
0001e0 26 ff cb bd c5 7d 97 be 7a 9f 17 be a3 3f 7e 3c
       -0.09960775 -0.29588142 -0.14806929 0.015518102
0001f0 aa 61 56 be d3 04 07 be 4f d3 67 bd ff 69 14 bd
       -0.20935693 -0.13185434 -0.056598004 -0.0362339

feature_extractor.1.weight f4 [128]
000000 39 3f 7c 3f df 2b 82 3f 9d b1 80 3f ae fd 81 3f
       0.9853397 1.0169638 1.0054203 1.0155542
000010 4e fb 7d 3f a9 5e 82 3f 10 2e 78 3f a9 12 82 3f
       0.99211586 1.0185138 0.96945286 1.0161945
000020 91 2e 7f 3f ef 7b 7c 3f 0b 38 7b 3f 64 8c 82 3f
       0.9968043 0.9862661 0.9813239 1.0199094
000030 ef 16 7c 3f ed b1 83 3f b1 2c 7a 3f 41 16 7b 3f
       0.98472494 1.0288674 0.97724444 0.9808083
000040 1f 37 80 3f 68 54 7e 3f 1a 7d 80 3f 04 ab 7c 3f
       1.0016822 0.99347544 1.0038178 0.9869845
000050 30 c3 81 3f 05 c1 81 3f 57 ae 84 3f 0e 6f 80 3f
       1.0137691 1.013703 1.0365704 1.0033891
000060 de db 7b 3f ec 67 7a 3f f2 5a 82 3f 3e a5 81 3f
       0.98382366 0.9781482 1.0184004 1.0128553
000070 5e 0c 80 3f 41 89 7e 3f 62 f8 7e 3f 85 55 7d 3f
       1.0003774 0.9942818 0.9959775 0.9895862
000080 9e f4 80 3f 2f ae 80 3f 92 05 7f 3f c0 54 7c 3f
       1.0074651 1.0053157 0.99617875 0.9856682
000090 07 da 7d 3f 8f b1 7b 3f 11 3d 81 3f eb b9 7a 3f
       0.9916081 0.9831781 1.0096761 0.9793994
0000a0 09 4d 7a 3f 52 ff 7e 3f b2 9e 79 3f ab e1 7f 3f
       0.97773796 0.9960834 0.97507775 0.99953717
0000b0 1c db 7f 3f 86 bb 7e 3f 39 22 7a 3f fe bc 81 3f
       0.9994371 0.9950489 0.9770847 1.0135801
0000c0 46 47 81 3f c4 62 80 3f c2 c3 78 3f d8 ac 7b 3f
       1.0099876 1.0030141 0.971737 0.98310614
0000d0 07 f6 79 3f c9 e8 7a 3f 73 26 80 3f 29 fc 7d 3f
       0.9764103 0.9801145 1.0011734 0.9921289
0000e0 09 c9 7f 3f d4 ae 82 3f 88 5c 83 3f 0c 0b 7d 3f
       0.9991613 1.0209603 1.0262613 0.9884498
0000f0 93 df 7f 3f 2a 3e 7f 3f 8d 80 80 3f 28 93 80 3f
       0.9995052 0.9970423 1.003923 1.0044909
000100 30 ed 79 3f 3e 05 81 3f d4 75 81 3f 36 06 7d 3f
       0.97627544 1.0079725 1.0114083 0.988376
000110 95 3c 83 3f bc 27 7c 3f 3d 2c 81 3f 8e d0 7b 3f
       1.0252863 0.9849813 1.0091625 0.98365104
000120 b0 07 7b 3f 87 0a 80 3f 67 1b 81 3f 7a 37 7e 3f
       0.98058605 1.0003213 1.0086488 0.993034
000130 92 12 81 3f dc 95 7d 3f a5 14 7b 3f 99 bf 7f 3f
       1.0083792 0.9905679 0.98078376 0.9990173
000140 ce 06 7d 3f 78 40 82 3f 41 5a 7a 3f ad 52 7f 3f
       0.9883851 1.0175924 0.97793967 0.9973553
000150 8e 26 7d 3f 18 fc 7d 3f 2a 19 7a 3f 8b 14 7f 3f
       0.98886955 0.9921279 0.9769465 0.9964072
000160 58 4b 7b 3f d0 0f 7c 3f a2 ff 82 3f 15 cb 83 3f
       0.9816184 0.9846163 1.0234263 1.0296351
000170 82 bc 84 3f ea df 7a 3f d6 9c 80 3f 1c a6 79 3f
       1.0370028 0.97997916 1.0047863 0.9751909
000180 0e b5 83 3f 4b 1d 7c 3f 51 76 7c 3f 80 35 80 3f
       1.0289629 0.984822 0.98618037 1.0016327
000190 4a 1a 80 3f 43 9d 76 3f d1 00 84 3f c2 b1 81 3f
       1.0008023 0.9633371 1.0312749 1.0132372
0001a0 74 46 88 3f 30 47 81 3f dc da 7e 3f f4 1f 82 3f
       1.06465 1.009985 0.995527 1.0166001
0001b0 b3 75 82 3f 2e f9 7c 3f 7b d0 7f 3f 56 0b 7f 3f
       1.0192169 0.9881772 0.9992749 0.9962667
0001c0 3c e0 80 3f a3 1a 85 3f 0e 39 7e 3f 6b fa 87 3f
       1.0068431 1.0398754 0.9930581 1.0623296
0001d0 1e 55 77 3f de b9 78 3f db 31 7d 3f a6 15 80 3f
       0.96614254 0.9715861 0.989042 1.0006607
0001e0 af 12 7b 3f 1b 0f 82 3f 17 cb 82 3f b7 ec 81 3f
       0.98075384 1.016086 1.0218228 1.0150365
0001f0 d4 37 81 3f 01 7d 7d 3f 60 08 7e 3f e9 2d 75 3f
       1.0095162 0.99018866 0.9923153 0.9577318

feature_extractor.1.bias f4 [128]
000000 84 eb e5 bc 9f e6 ae 3c f1 d2 73 bb e9 f7 0f 3d
       -0.028066404 0.021350203 -0.0037204588 0.035148535
000010 2f c0 38 3c 7a 69 d7 3c 7a 5b 7f bc d6 6d e7 3c
       0.011276289 0.026295412 -0.015585775 0.028250616
000020 86 7d eb bc 7f 86 aa bc 27 27 05 bc ec 54 04 b5
       -0.028746378 -0.020816086 -0.00812701 -4.929741e-07
000030 ff c0 64 bb f0 c9 db 3c a7 38 b5 bc 4c 0b a2 bc
       -0.0034905074 0.02682969 -0.02212174 -0.019780777
000040 5e c9 01 3a c4 ea d0 3b bb 06 ba ba 86 4c 9f bb
       0.00049509655 0.0063756425 -0.001419268 -0.004861417
000050 84 da 54 bc 2f ed 73 3c d7 7b 50 3d 74 ff 1a 3c
       -0.012991551 0.014888092 0.050899353 0.009460319
000060 ab 55 6b bc ec 88 84 bc b4 51 04 3d 7c 9c dc 3c
       -0.014363687 -0.01617857 0.03230448 0.026930086
000070 2a ef 95 bc ac 0a 04 bd b8 9e 4a bc fc cf b3 bb
       -0.018302519 -0.03223674 -0.012366943 -0.00548744
000080 72 7d db bb ea 8f 41 3c de c9 89 39 64 0b 9f bc
       -0.006698304 0.011814097 0.0002628108 -0.019414611
000090 6b 6b 6c bb c2 5a 40 bb b7 32 5a 3d 36 5b d4 bc
       -0.0036074768 -0.002935097 0.05327102 -0.025922399
0000a0 e3 4a dc bb 80 ab 8f bc 1c 8e b1 bc 3e 45 9d 3c
       -0.0067227944 -0.017537832 -0.021674208 0.019198056
0000b0 c8 9a d2 3b 0b 11 6d bc ba 63 b6 bc 16 a1 9d 3c
       0.006427143 -0.014469395 -0.02226435 0.01924185
0000c0 15 85 3c bb c2 38 0d 3b 83 17 99 bc d1 ed ba bc
       -0.0028765847 0.0021548723 -0.01868797 -0.022818478
0000d0 3c c0 08 bb 9d f5 38 bc 3c 43 2d 3c c3 33 ef 3c
       -0.0020866534 -0.0112890275 0.010575112 0.029199487
0000e0 4b 45 23 bc bf dc a3 3a 5a 87 23 3d e3 2a 6c 39
       -0.009965251 0.00125017 0.039924003 0.0002252269
0000f0 b1 ff e2 b9 7a a4 e5 ba 90 2d 18 bc 4e fd 0f bc
       -0.00043296584 -0.0017520331 -0.009288207 -0.00878842
000100 c8 c9 be bc 0d 39 84 3c e6 01 79 bb dc 10 48 bc
       -0.023289576 0.016140485 -0.0037995516 -0.012211051
000110 46 e7 39 3d 15 d4 03 bc 6b dd f0 3c 6a 52 00 bc
       0.045386575 -0.00804617 0.029402455 -0.007832149
000120 4b c8 93 bc 84 db 0c bc 5b 12 31 3c ba 12 dc 3b
       -0.018039843 -0.0085972585 0.010807599 0.0067160996
000130 1d 0c c2 3c a9 37 46 3b 5a e9 8d bc c7 c2 93 3c
       0.023687417 0.0030245578 -0.017323185 0.018037213
000140 7b 18 7f 3b e7 71 91 3c 01 09 16 bc 75 0a b0 bb
       0.0038924504 0.017754508 -0.00915742 -0.0053723403
000150 ed 0b 19 bc fd a6 bb bb bd cd db bc 75 6e 0e bc
       -0.009341222 -0.0057266937 -0.026831502 -0.008693327
000160 f2 0e de bc 7d 85 2c bc f0 64 47 3c 8b 00 33 3c
       -0.027106736 -0.010529873 0.0121700615 0.010925422
000170 2c c3 de 3c 51 b0 b0 bc 87 78 27 3c 58 3a ad bc
       0.027192675 -0.02156845 0.010221607 -0.021145985
000180 b2 47 88 3c 4c af aa bc f3 06 fd bb fb c5 64 3c
       0.01663575 -0.020835541 -0.0077217757 0.013963218
000190 24 0c 31 3c 5a 4c ff bc 0e 46 83 3c 0a a0 5c 3b
       0.010806117 -0.031164337 0.016024616 0.0033664727
0001a0 1b ed 86 3d bc d4 00 3d fe 35 5f 3c 50 2b 83 3c
       0.06588193 0.03145288 0.013623713 0.016011864
0001b0 e8 df 04 3c e5 87 9b bb e5 3f e1 3c a5 79 b0 bb
       0.008110024 -0.0047464245 0.027496288 -0.005385595
0001c0 0f 3c 5f bc 1c 70 44 3d 6f 31 fe bc 64 68 1e 3c
       -0.013625159 0.04795848 -0.031029431 0.009668443
0001d0 f6 05 10 bd 74 62 5e bc d5 0b a4 bc 87 2b d4 3a
       -0.035161935 -0.013573278 -0.020025173 0.0016187289
0001e0 e5 f5 1e bc 2a 35 ba 3c e7 dd 1c 3c 76 af 2d 3d
       -0.0097021805 0.022730429 0.00957439 0.04240366
0001f0 92 1c 12 3d a6 11 08 bc a9 ef 77 bc b3 dc 2d bd
       0.035671778 -0.008304989 -0.015132823 -0.042446803

feature_extractor.1.running_mean f4 [128]
000000 b4 8e 1a be 3b e7 78 3d c2 4f 40 bd 91 64 a7 bd
       -0.150935 0.060767394 -0.046951063 -0.081734784
000010 3d fb 2b be 15 91 aa 3d 85 fc 8e 3e 4b 01 1c be
       -0.16795059 0.083284535 0.27927032 -0.15234868
000020 14 19 9f 3d 66 37 83 3e e2 05 87 3e 67 a5 c5 3e
       0.07768455 0.25628203 0.26371676 0.38602754
000030 f3 1d b2 3e 3f a1 9a 3d 83 f8 63 3e 8f bc 89 3e
       0.34788474 0.075502865 0.22262768 0.2690167
000040 09 ee 82 be bd 19 9f be a6 1c d0 3d f4 66 3b 3e
       -0.2557223 -0.31074324 0.10161714 0.18300992
000050 d6 9e 2b be e1 57 d7 3d 03 3b 04 be 2e f1 9d 3d
       -0.1675981 0.105148084 -0.12913136 0.07712017
000060 98 f5 42 be e3 ab 3a 3e b7 4e a7 3e 75 4d fa bd
       -0.19038999 0.18229632 0.32677242 -0.12221805
000070 8a a3 00 be 71 b5 ba bd c9 b5 1b 3d e6 1c 9d 3e
       -0.12562385 -0.091166385 0.03801516 0.3068611
000080 0c 13 f4 3d 9a 82 50 bd c1 ef 84 3e e5 e2 22 bd
       0.119176954 -0.0509058 0.25964168 -0.039767165
000090 b0 2b 13 be 4e ed c2 3d 0b 35 dc bd 64 17 24 3d
       -0.14372134 0.095179185 -0.10752305 0.04006137
0000a0 6c 44 4a be 3e 30 89 3b 7e 69 71 3d c4 85 ba 3d
       -0.19752663 0.004186659 0.058938496 0.09107545
0000b0 2e c8 ad be 30 83 e6 be 80 7e 4a 3e 6e d0 f4 3e
       -0.33941787 -0.45021963 0.19774818 0.4781527
0000c0 fc 27 5b be aa 1f f8 3d 17 2c 50 be e2 36 fa 3d
       -0.21401972 0.121154144 -0.20329319 0.12217499
0000d0 95 da 93 3e 79 6d 7c 3e 85 66 bf be ba 6b 0f 3e
       0.28877702 0.24651136 -0.37382904 0.14005938
0000e0 7e ca a1 3e a6 62 27 be 41 db cc 3e 9c e9 1b bc
       0.31599802 -0.16346225 0.40011027 -0.009516146
0000f0 49 9e 40 be 08 5c 8b bd 9a 4f ac bd 00 e7 44 3d
       -0.18810381 -0.06804663 -0.0841362 0.04807186
000100 20 89 e4 3d a0 70 0f bc 2d 7c 7d be 13 bf 1e 3e
       0.11158967 -0.008754879 -0.247544 0.15502577
000110 10 79 49 be 93 7f 5d bd 55 80 8f 3c 03 10 6a bd
       -0.19675088 -0.054076742 0.017517248 -0.057144176
000120 bb 1c 52 3e a5 bc cb 3d c5 73 c8 3e a4 f3 1c bd
       0.20518772 0.099480905 0.39150825 -0.03831829
000130 ea 4f 83 be 03 f3 81 3e 49 7a 47 3d 25 59 22 be
       -0.25646907 0.25380716 0.048700605 -0.15854318
000140 20 65 8e be a7 bd 53 bd 7e 55 4c be f7 17 02 3e
       -0.27811527 -0.05169454 -0.19954488 0.12704454
000150 1b e1 14 3e 0d c4 98 be 31 80 39 be 2a a4 4a be
       0.14538996 -0.29837075 -0.18115307 -0.19789186
000160 57 e2 ab 3e 9e 0d 90 3e e6 10 3b 3e 0f 7b 51 3e
       0.3357112 0.2813539 0.18268165 0.204571
000170 ef 96 92 be 81 d7 90 be 70 1c bf 3c 66 30 06 3e
       -0.28630778 -0.28289416 0.02332899 0.131044
000180 56 c7 38 3e 71 74 ea 3b da 86 a4 3e f3 2c 2c 3e
       0.1804479 0.007154994 0.32134134 0.16814022
000190 20 f9 9b 3e d7 87 b3 be 91 d0 05 3e 7a 94 49 be
       0.30463505 -0.35064575 0.13067843 -0.19685546
0001a0 49 14 30 3e 28 c2 c2 3d 01 ee c6 be 61 54 43 3e
       0.17195238 0.095096886 -0.38853458 0.19075157
0001b0 e3 a0 6d be dd 12 aa be cc 0a 7a be be bc e5 bd
       -0.23205905 -0.33217517 -0.24418181 -0.1121764
0001c0 a0 90 95 3d e6 d1 97 be 38 ab 98 3e 79 84 e0 bd
       0.07302976 -0.29652327 0.2981813 -0.10962767
0001d0 01 c0 84 3d 87 4a 04 3c 51 4c 6d be 55 80 72 be
       0.06481934 0.008074409 -0.23173644 -0.23681767
0001e0 bb 8d 19 be 19 f0 12 be dd 32 9e be ad 38 9e 3d
       -0.14995472 -0.14349402 -0.3089818 0.07725654
0001f0 e2 df 95 be 99 f9 70 be 57 95 c4 bd 16 b1 b3 bd
       -0.29272372 -0.23532714 -0.09598797 -0.08774011

feature_extractor.1.running_var f4 [128]
000000 4c 56 87 3e 16 6e 77 3e f5 b0 ae 3e ff b0 8b 3e
       0.26433027 0.24163088 0.34119383 0.27283475
000010 2a e6 48 3e e3 e4 ad 3e 43 02 39 3e af 18 dd 3e
       0.1961905 0.3396369 0.18067269 0.43182895
000020 d0 f5 2f 3e 7a b1 d5 3e c8 b3 a7 3e 35 ee ee 3e
       0.17183614 0.41736966 0.3275435 0.46666113
000030 cc 88 b7 3e 24 0a d1 3e 49 f6 ab 3e 57 3d f1 3d
       0.35846555 0.4082805 0.33586338 0.11779278
000040 10 6c 89 3e 0e 7c a8 3e 02 bb 12 3e 8c 26 1f 3e
       0.26840258 0.32907146 0.1432915 0.15542048
000050 9c bb a8 3e 52 e8 71 3e f0 5c a3 3e bb ec bc 3e
       0.32955635 0.2362378 0.31906843 0.3689936
000060 36 fc 2a 3e c2 09 69 3e 88 72 49 3e 88 c1 b0 3e
       0.16697773 0.22757629 0.19672596 0.34522653
000070 da d8 a3 3e 90 c7 86 3e af dd b7 3d 86 b5 06 3f
       0.32001382 0.2632413 0.0897783 0.5262073
000080 5c 98 05 3f ba 41 5f 3e e9 58 ac 3e f6 99 2d 3e
       0.52185607 0.21802416 0.33661583 0.16953263
000090 c1 ea 3b 3e 9b 02 a1 3e 28 a8 a5 3e ed 12 4b 3e
       0.1835127 0.314473 0.32354856 0.19831438
0000a0 45 e8 65 3e f9 5e 48 3e 79 12 48 3e e9 6c ad 3d
       0.22451885 0.19567479 0.19538297 0.084680386
0000b0 af 46 6c 3e 69 2c 93 3e c3 bf 62 3e 91 1c b4 3e
       0.23073839 0.2874482 0.22143464 0.35178044
0000c0 a3 57 0b 3e 9a 59 97 3d 93 62 4c 3e 35 67 02 3f
       0.1360765 0.07390137 0.19959478 0.5093873
0000d0 8c 5d ef 3d 3a 64 b4 3e ca 32 70 3e 5b 83 9d 3d
       0.116877645 0.35232717 0.23456874 0.0769107
0000e0 e6 df 1f 3f 02 25 93 3e a2 c4 8e 3e 67 c4 98 3e
       0.62451017 0.28739172 0.27884394 0.29837343
0000f0 34 b9 88 3e 17 51 9e 3e b1 00 44 3e 0b 45 bc 3e
       0.267038 0.30921242 0.19140889 0.36771426
000100 39 8e ed 3e ab 8c a1 3e 5d d5 76 3e f4 39 50 3e
       0.4639757 0.31552634 0.24104829 0.20334607
000110 fb a0 74 3e dd 4e 02 3f 2f 1c 46 3e 80 12 8f 3e
       0.23889534 0.50901586 0.19346689 0.27943802
000120 71 18 9d 3e 6d 49 e8 3e 16 50 93 3e c1 5b 4b 3e
       0.3068271 0.4536852 0.28772038 0.1985922
000130 5d 0a 3f 3e f5 da 29 3e ad e8 c5 3d 24 65 68 3e
       0.18656297 0.16587432 0.0966352 0.22694832
000140 bf 4f 65 3e 64 f2 51 3e 95 fd 84 3e 88 8f 5d 3e
       0.22393702 0.20502621 0.25974718 0.21636784
000150 8d aa 85 3e e7 44 82 3e ad 33 6a 3e c1 8c 17 3e
       0.26106682 0.25443193 0.22871275 0.14799787
000160 0c da cf 3e 08 0b 21 3d 9d 75 a9 3e b9 21 7b 3e
       0.40596044 0.03931716 0.33097544 0.24524583
000170 c6 8f 64 3e 94 2c 90 3e c3 cb 8a 3e 47 4a 84 3e
       0.2232047 0.2815901 0.27108583 0.2583792
000180 9a 57 39 3e 37 80 94 3e 45 a2 7b 3e 5f 2e eb 3d
       0.18099824 0.2900407 0.2457362 0.11483454
000190 a3 89 12 3e 02 78 70 3e ac 61 95 3e 72 fe 3c 3e
       0.14310317 0.2348328 0.2917608 0.18456438
0001a0 81 5a 6b 3e 2a 3d 49 3e 16 04 aa 3e 90 4e 35 3e
       0.22983743 0.19652238 0.33206242 0.1770575
0001b0 59 f2 bd 3e d8 1b e3 3e a2 c1 84 3e 98 a7 a1 3e
       0.3709896 0.4435718 0.2592898 0.31573176
0001c0 60 54 a0 3e c8 78 ce 3e e2 8d 56 3e 18 e2 9a 3e
       0.31314373 0.40326524 0.20952561 0.3025062
0001d0 73 f0 63 3e 8f fc 55 3e ae 9b 33 3e ca 11 df 3e
       0.22259693 0.20897125 0.17539856 0.4356826
0001e0 e4 e6 56 3e d7 46 be 3e ad 23 b5 3e eb f1 16 3e
       0.20986515 0.37163422 0.3537878 0.14740722
0001f0 19 fa fa 3d 93 03 36 3e 38 7b 9f 3e eb 6c fb 3d
       0.122547336 0.17774801 0.31148696 0.12276634

feature_extractor.4.weight f4 [128, 128]
000000 fb 11 00 bd 93 b6 89 3c df 18 e0 bc 48 e9 11 3d
       -0.031267148 0.016810691 -0.02735561 0.035622865
000010 07 85 7a 3c b7 92 58 bd 7b 8b ab bc 77 35 92 ba
       0.015290505 -0.052874293 -0.020940533 -0.001115485
000020 e0 3e 78 bd 54 cd 79 3c 3b 2d 81 bc 7e 5f 68 3d
       -0.060606837 0.015246708 -0.015768638 0.056731693
000030 d5 ed 92 3c 95 9e 98 3d d4 00 4e bc 20 3a 93 bd
       0.017935673 0.07452122 -0.01257344 -0.07188821
000040 72 a0 3e 3d 55 da 91 bd c4 8f 83 bc 87 ab c3 bc
       0.04653973 -0.07121722 -0.016059764 -0.023885502
000050 cd a5 19 bd ee 52 9f bc 29 4b 7a 3d 30 4f 60 3d
       -0.037511636 -0.019448724 0.061106835 0.05476302
000060 5e 3e 93 3c f5 2a 9a 3d ee 73 a1 bd 7a b9 df 3c
       0.017974075 0.07527725 -0.0788344 0.027310122
000070 2a db 23 3d 63 b3 48 3d 83 1f b6 bd d5 31 2a 3d
       0.040003933 0.0489992 -0.08892729 0.04155143
000080 f7 87 54 bd 4b 07 80 ba d6 c7 ff bc a9 21 86 bd
       -0.05188748 -0.0009767798 -0.031223219 -0.06549389
000090 d2 58 9f bd 62 1b 5c bd 20 f4 3c 3d d9 ef 22 3d
       -0.07780613 -0.05373705 0.046131253 0.039779518
0000a0 1b 14 a3 bd 3f b0 2e bd e1 70 bd 3c 33 b0 82 bd
       -0.07962819 -0.04264855 0.023125114 -0.063812636
0000b0 23 12 4e 3d e4 d6 8d 3d 3a 45 39 3c fc ec 63 bd
       0.050310265 0.06925753 0.011308009 -0.055645928
0000c0 f1 64 12 3d 63 c4 bb 3c 21 1d 8e 3d 1a 6a 4c bd
       0.035740796 0.022920793 0.0693915 -0.049905874
0000d0 9a 44 95 bd 39 e6 31 3d ef 41 19 bc a3 f7 da bc
       -0.07288475 0.043432448 -0.009354099 -0.02672941
0000e0 26 48 1b bd 24 91 75 bd a8 aa 9e 3d 82 2d 3f bc
       -0.037910603 -0.05995287 0.07747394 -0.011668565
0000f0 f2 7d 58 3d a2 80 d4 3d 80 65 35 bc 45 2c d0 3b
       0.052854486 0.10376097 -0.011071563 0.0063529336
000100 65 5d 11 bc b8 e5 a2 3d ac 0b ac bd 44 35 29 3d
       -0.008872365 0.079539716 -0.08400664 0.041310564
000110 86 e1 fb bb 90 47 59 3d 07 9a 80 bc 11 8f 0e bd
       -0.0076867966 0.053046763 -0.015698446 -0.034804408
000120 ad 08 d4 b9 58 f8 81 3d 06 a8 35 bd b8 15 69 bd
       -0.00040442255 0.06346196 -0.044349693 -0.05690548
000130 a4 44 17 bd 57 5f 27 bd d2 b2 b7 3c 7a e9 39 3d
       -0.036930695 -0.040862408 0.022424135 0.045388676
000140 11 49 9d 3a 36 a9 9c 3d 05 7f 05 bd 4f 0e 60 bd
       0.0011999925 0.07649462 -0.03259184 -0.054701146
000150 de 04 2d bd 3c 4e 6c bd d8 3a 89 bd 99 1a b7 bd
       -0.04224097 -0.057691798 -0.06700677 -0.0894062
000160 54 d4 83 bd 30 34 0b 3d e3 a6 75 3d f2 a4 9c 3d
       -0.06436983 0.033985317 0.05997361 0.07648648
000170 d0 10 73 3d 76 e0 bf bb 88 e9 2c 3c cb 35 80 bd
       0.059342206 -0.0058556153 0.010553725 -0.0626026
000180 a5 73 a2 3c 9e 57 ad bd 5d c9 37 3d 8c 11 ce 3b
       0.019830534 -0.08463977 0.04486977 0.006288713
000190 87 61 24 3d 01 22 9e 3c d2 ab 5c bd 4c 15 bb 3d
       0.04013207 0.019303324 -0.053874798 0.091349214
0001a0 03 cb d2 3c 8f 5e 8b 3d 61 78 88 3c 98 4e 8f 3d
       0.02573157 0.06805145 0.016658964 0.069974124
0001b0 5d 59 13 3d bd 97 37 3d 4e 6c 9a 3d 55 63 f3 bc
       0.035973895 0.044822443 0.07540189 -0.029710451
0001c0 e7 3d 34 3d 2d 25 5b bb 91 62 59 3d 1f 75 75 3d
       0.044004347 -0.0033438907 0.053072516 0.05992615
0001d0 26 c7 e4 3c 9d 84 1b bd 68 c8 5c bc b3 e1 88 3c
       0.027926993 -0.037968267 -0.013475515 0.016709184
0001e0 89 2a 8a 3c 6b 9c 48 bc ba e8 1f 3d 3d 9a 92 3d
       0.016865985 -0.012244324 0.039040305 0.07158325
0001f0 9d 77 81 bd f2 0d b9 bc 47 4b f3 bb ff 78 38 bd
       -0.063216425 -0.022589657 -0.0074247452 -0.045037266
000200 62 bc be 3c 3a db cb bc a6 de 5b bd 5e 01 ef bc
       0.023283187 -0.024884809 -0.05367913 -0.029175457
000210 45 e8 38 bc 0c bc a4 3d 66 cc 1d 3d 3a 89 a8 3d
       -0.011285846 0.080436796 0.038525008 0.08229299
000220 d9 f9 ff 3b b0 69 f6 3c ce 17 a4 3c 1b 84 a2 3c
       0.0078117666 0.030079693 0.020030882 0.019838383
000230 dd 6e 99 bd cd 6d 4e bd cb 66 6e bc c5 2d 29 3c
       -0.074918486 -0.050397683 -0.014550875 0.010325854
000240 1a db f3 3c 91 49 16 3c 96 18 8d 3d 45 08 9f 3c
       0.029767562 0.009172813 0.06889455 0.019413123
000250 50 db fd bc 2c af 9b bd 48 19 9f bd 56 da 25 bd
       -0.030988365 -0.07601771 -0.07768494 -0.040491425
000260 ca e1 9d 3c 3f 88 42 3d 65 c8 94 3d dc e8 99 bc
       0.019272704 0.047493216 0.07264785 -0.018787794
000270 f9 09 d2 bc 84 6d 0c bd 90 8e 4a bc 12 43 16 3d
       -0.025639521 -0.03428413 -0.012363091 0.036685057
000280 3e 1d 34 bc e5 6d 23 3b d8 3e 8b 3b 75 71 09 3d
       -0.0109933 0.0024937328 0.004249435 0.033555467
000290 bc bb 07 bd 35 cf 52 bd 47 81 8a 3c 1a 90 99 bc
       -0.03313802 -0.05146714 0.016907347 -0.01874547
0002a0 5d d6 4b bd ae dd dd 3c 75 64 83 ba f4 8f 0e bc
       -0.04976498 0.027083244 -0.0010024445 -0.008701313
0002b0 52 84 0b bd 36 e8 63 bc b6 cf a2 bd 69 0d a2 3c
       -0.034061737 -0.013910344 -0.07949774 0.019781785
0002c0 3c 1f b2 ba ec 7c 48 3d c9 fa d0 3b 7c a2 b5 3a
       -0.0013589631 0.04894726 0.006377552 0.0013857628
0002d0 e4 89 2b 3d 73 42 85 3d 34 d6 61 bd a0 69 68 3d
       0.04187955 0.06506815 -0.05513592 0.056741357
0002e0 77 ea 83 3c 6f b9 89 bd 72 cf 05 3d ae 70 6d bd
       0.016103012 -0.06724822 0.03266854 -0.057968788
0002f0 65 f8 1e bd 6b 29 22 bd 4d 4d 88 bd 78 5e 86 3d
       -0.038811106 -0.03959028 -0.06655369 0.06560987
000300 21 95 8c bd fb 9e 25 3d 98 63 97 bd bf eb 68 bc
       -0.068643816 0.04043482 -0.07392043 -0.0142163625
000310 2b 5c 7b 3a ea 3d 80 3d f5 c3 01 bd 75 d2 ab 3c
       0.0009588624 0.06261809 -0.03168102 0.020974377
000320 76 a2 ca 3c 10 77 46 3d 71 c1 a4 3c 64 16 c8 3c
       0.02473567 0.04845339 0.020111771 0.02442474
000330 4d d7 84 bd fb ab 86 bd 5b f5 99 3d f1 2c 99 bd
       -0.06486378 -0.065757714 0.07517501 -0.07479275
000340 4d b0 e9 bb 59 4a b4 bc 57 a8 b9 3d 69 96 d6 bc
       -0.0071316124 -0.022008108 0.090653114 -0.026194768
000350 a1 f6 98 bd ff 33 85 bc e6 3f 43 3d 5d 60 19 3d
       -0.07468916 -0.016260145 0.04766836 0.037445415
000360 3e af 93 3d 5d 66 b5 bc 74 d8 1b 3d d5 8e ab bd
       0.07211159 -0.022143537 0.038048223 -0.083768524
000370 e1 77 a2 3c b7 39 22 3d d8 4f be 3c a1 34 75 bd
       0.019832553 0.039605822 0.023231432 -0.059864644
000380 55 5e 1d bd cf 22 56 3c 70 17 85 bd 7b 69 89 bd
       -0.03842004 0.013069822 -0.06498611 -0.06709572
000390 30 56 af bd e9 1d 70 ba 9b a7 06 3d 59 6e c1 3c
       -0.08561361 -0.00091597304 0.032874685 0.023612188
0003a0 28 6e 3c bc 35 c5 02 3d 41 b1 67 bd d8 06 2f 3c
       -0.011500873 0.031926353 -0.056565527 0.010682784
0003b0 16 9b 33 bd 28 d6 41 bd eb f9 9a 3d 36 44 91 bd
       -0.043849073 -0.047323376 0.07567199 -0.07093088
0003c0 4e 95 4d 3b 2b 42 c7 bd af c3 51 bb 4a 8e 84 bd
       0.003136951 -0.097294174 -0.0032007506 -0.06472452
0003d0 95 73 c8 3c b1 26 35 bd 1f 94 5f 3d c9 28 9a bd
       0.024469176 -0.044226352 0.05458462 -0.075273104
0003e0 c7 ca 61 3d 1c 14 71 bd ae fa 0f 3d b8 6a 20 bd
       0.055125024 -0.05885707 0.035151176 -0.039164275
0003f0 5c ec c5 bc 13 1b 9a bc 61 76 5d 3d 47 07 f8 3c
       -0.024160556 -0.018811738 0.054067973 0.030276908

feature_extractor.4.bias f4 [128]
000000 70 61 01 bc e5 81 1f bd 93 1f 8a bd a5 4f 4e bd
       -0.007896766 -0.038942236 -0.067443036 -0.050368924
000010 86 56 49 bd d9 8f a9 3d 18 ae fc 38 27 a1 4f bd
       -0.04915478 0.0827939 0.00012048724 -0.050690796
000020 80 74 d6 bb 5f b4 71 bb 80 c7 af 3c d0 eb e6 3c
       -0.0065446496 -0.0036881191 0.021457434 0.028188616
000030 c3 82 61 3d f3 b8 31 bd df 0a 9c bc c1 1d 9b bd
       0.055056345 -0.043389272 -0.019048152 -0.075740345
000040 92 29 02 bd 4c 8c 9f bd ab 5e d0 bb d9 8f 5b bd
       -0.031777926 -0.077904314 -0.0063589416 -0.05360398
000050 6c dd f8 bc 62 0f a9 3d 71 df a3 3d 52 eb 38 3c
       -0.03037902 0.08254887 0.080016024 0.0112865735
000060 80 9e 37 3d ce 76 6e 3d 67 30 81 3b d1 6e 94 3c
       0.04482889 0.05821877 0.0039425376 0.018119248
000070 63 de b5 bb 6e 30 8f bd 8f 3e 90 3d aa 46 86 bd
       -0.005550192 -0.06991659 0.07043182 -0.06556447
000080 15 c0 d9 bc 27 eb 95 bd 6a 2e 5c bd e0 d8 b3 3d
       -0.02658085 -0.073202424 -0.0537552 0.087816
000090 76 df 05 bc 75 37 e4 3c a4 32 ae 3c af f0 8a 3d
       -0.008170953 0.027858475 0.021264382 0.06784188
0000a0 ca 55 98 3c 11 ec 39 3b c4 5f 25 bd 09 89 83 3c
       0.018595595 0.0028369466 -0.040374532 0.016056554
0000b0 b8 74 9b 3c e7 ce 7b bd 9d 7a 83 bd ba d1 1e bd
       0.018976554 -0.061476614 -0.06419871 -0.03877423
0000c0 9a 47 9b 3d ad 3f 17 3d ef 07 49 3d 23 3a 70 3d
       0.07582016 0.03692596 0.04907983 0.058649193
0000d0 e3 c9 b4 ba 36 7c 71 bd 14 ac ad 3d b1 89 70 3c
       -0.0013793077 -0.058956347 0.08480087 0.014681266
0000e0 0f b3 02 bd d3 af 11 3d 9c a8 7d bd 6e 0b 0a 3b
       -0.031909045 0.03556807 -0.061928377 0.0021063942
0000f0 e9 0a aa 3d 6b fd eb 3c 29 24 a9 bd fc 70 9d 3d
       0.08302862 0.028807363 -0.0825885 0.07687566
000100 bd fb 99 3c c9 83 c4 bc 19 c1 8e 3d db 44 1f 3d
       0.018796796 -0.023988621 0.06970424 0.038884025
000110 70 4f 52 3d c1 8b 34 3d 28 23 4d bd fa 7f 82 bd
       0.05134529 0.044078592 -0.050082356 -0.06372066
000120 31 70 83 3d dd c4 84 bb e5 77 93 3d 27 0e 33 3d
       0.06417883 -0.0040517882 0.072006024 0.04371467
000130 11 ee af bd 08 a9 47 3d df c1 35 3d a7 5f ae bd
       -0.085903294 0.048745185 0.044374343 -0.08514338
000140 79 f1 9e 3b 21 be 90 bd d2 be 2d 3d 83 72 42 3d
       0.004850563 -0.07067514 0.04241831 0.047472488
000150 23 44 de 3c 33 e8 63 3d 3a 46 46 bd cd 37 49 bb
       0.0271321 0.055641364 -0.048406817 -0.0030703426
000160 3d 9c c1 bc df 21 89 3d a6 af 81 3d 2a d6 01 bd
       -0.02363407 0.066959135 0.063323304 -0.031698383
000170 71 0d 9a bd dd 97 44 bb 3d 9b 8c 3d 0d d7 9e bc
       -0.07522095 -0.0029997744 0.06865547 -0.019389654
000180 0a c6 05 3d 34 69 83 bd 90 4d 70 bd 05 9d 9c bd
       0.032659568 -0.0641655 -0.05866772 -0.076471366
000190 ed 85 9b bd 94 3a 14 bd 27 d1 1c bd d8 1c 0b 3d
       -0.07593904 -0.036188677 -0.0382854 0.033963054
0001a0 23 71 94 3d 9d 30 38 3c 75 74 13 3d cb fc 61 bd
       0.072481416 0.011242059 0.035999734 -0.055172723
0001b0 6e dc 1c bd e2 51 a8 bd 46 09 aa 3d ba 14 0c 3c
       -0.038296156 -0.08218743 0.0830255 0.0085498635
0001c0 1b 49 c6 bc ff 45 a4 bd 86 ac 87 3c 50 23 b2 bd
       -0.024204781 -0.08021163 0.016561758 -0.086981416
0001d0 45 4f 6f 3d 09 d9 a9 bd 7b 72 9c 3c 32 c2 62 3d
       0.058425207 -0.08293349 0.019097557 0.05536098
0001e0 3b 1c 92 bd b4 67 84 3d 6c 78 ad 3d 97 cd 7d 3d
       -0.07134291 0.06465092 0.08470234 0.061963644
0001f0 6b b7 a4 3d ae 2b 24 bd 6c 95 7a bc cc 2c a2 3d
       0.08042797 -0.04008072 -0.015294414 0.079187006

feature_extractor.5.weight f4 [128]
000000 81 30 7b 3f c3 f3 7c 3f 0f ef 77 3f 7f ac 7c 3f
       0.98120886 0.9880945 0.9684915 0.9870071
000010 9e ee 84 3f 9b 08 7c 3f 75 de 85 3f c7 45 83 3f
       1.038532 0.9845063 1.0458513 1.0255669
000020 89 94 84 3f 88 e7 81 3f 5e ff 77 3f c2 f7 7e 3f
       1.0357829 1.0148783 0.96874034 0.995968
000030 1e f1 7e 3f 5c e0 85 3f 73 c3 7c 3f 29 f7 86 3f
       0.99586666 1.0459094 0.9873573 1.0544177
000040 db 3e 81 3f 22 16 7a 3f a9 de 7d 3f 48 96 7c 3f
       1.0097307 0.9769002 0.9916788 0.9866681
000050 22 ef 7b 3f bf 0e 7e 3f c1 83 81 3f 4d 6d 86 3f
       0.9841176 0.9924125 1.0118333 1.0502106
000060 0a 59 7a 3f e8 f5 82 3f e9 08 80 3f 6c 50 80 3f
       0.9779211 1.0231295 1.0002719 1.0024543
000070 3b 0a 7a 3f fa df 79 3f c2 2f 81 3f 04 a2 7b 3f
       0.9767186 0.97607386 1.00927 0.9829409
000080 cb 26 77 3f 60 a8 80 3f 14 cb 79 3f 98 60 7a 3f
       0.9654357 1.0051384 0.975755 0.9780364
000090 f4 0e 7d 3f 36 4a 7d 3f ea 50 7c 3f 95 f3 7f 3f
       0.9885094 0.9894136 0.98560965 0.9998105
0000a0 67 ec 78 3f 48 50 7f 3f 8f 8e 82 3f a6 57 79 3f
       0.9723572 0.99731874 1.0199755 0.97399366
0000b0 cc 47 7a 3f 6b 0f 83 3f 30 c1 7c 3f b5 37 7b 3f
       0.97765803 1.023908 0.9873228 0.9813188
0000c0 e4 f0 79 3f 15 f5 79 3f 1b 09 7c 3f 52 11 7a 3f
       0.97633195 0.9763959 0.98451394 0.9768268
0000d0 e0 a7 81 3f 22 96 7c 3f f0 2c 7d 3f bb 93 7b 3f
       1.0129356 0.98666584 0.98896694 0.98272294
0000e0 7d c8 7b 3f 27 21 7d 3f 0b 66 80 3f 6e ae 78 3f
       0.98352796 0.9887871 1.0031141 0.9714116
0000f0 f8 65 7f 3f cd 10 80 3f 29 87 7b 3f 5d 00 79 3f
       0.99764967 1.0005127 0.98253113 0.9726618
000100 ef 3a 7f 3f 52 90 7e 3f 07 fa 7f 3f f7 4d 82 3f
       0.996993 0.99438965 0.99990886 1.0180043
000110 e0 aa 7a 3f 7f c5 84 3f b4 af 82 3f f7 ec 84 3f
       0.97916985 1.0372771 1.020987 1.0384816
000120 7c ae 86 3f c3 ae 82 3f c5 ff 80 3f f2 e3 7a 3f
       1.0521998 1.0209583 1.0078055 0.98004067
000130 1f 11 81 3f 52 97 84 3f d3 52 7c 3f 4e 22 7d 3f
       1.008335 1.0358679 0.9856388 0.9888047
000140 ca 0c 83 3f 10 8f 7e 3f ba 13 7d 3f 9b 15 7a 3f
       1.0238278 0.99437046 0.98858225 0.9768922
000150 f3 4e 79 3f 76 8c 7c 3f ca f4 82 3f e2 b8 7b 3f
       0.9738609 0.98651826 1.0230954 0.98328984
000160 c0 85 7e 3f 91 f2 7a 3f 48 7c 7b 3f 5f bd 81 3f
       0.99422836 0.98026377 0.98236513 1.0135916
000170 9c 50 82 3f 25 2b 7f 3f f2 f2 84 3f 50 8b 86 3f
       1.018085 0.9967521 1.0386641 1.0511265
000180 14 ed 7a 3f 03 8d 79 3f 4b bd 83 3f e7 1e 7e 3f
       0.98018 0.9748079 1.0292143 0.99265903
000190 69 d8 7b 3f bd d6 7e 3f 53 0d 83 3f be 1f 81 3f
       0.9837709 0.99546415 1.0238441 1.0087812
0001a0 a3 00 7c 3f d6 97 7e 3f fb f3 7a 3f 87 24 81 3f
       0.9843847 0.99450433 0.98028535 1.0089272
0001b0 ce 14 7a 3f 56 e7 81 3f df ec 7c 3f 1f d3 80 3f
       0.97687995 1.0148723 0.98798937 1.0064429
0001c0 9e a9 7c 3f 14 6e 7f 3f ab 90 80 3f e2 44 7d 3f
       0.98696315 0.9977734 1.0044149 0.9893323
0001d0 02 92 86 3f b9 3e 85 3f f5 3f 7f 3f 63 25 7f 3f
       1.0513308 1.0409766 0.99706966 0.9966642
0001e0 9e 0a 77 3f ec ef 84 3f 67 67 7d 3f 29 4f 78 3f
       0.96500576 1.0385718 0.98985904 0.9699579
0001f0 d7 d2 7a 3f 68 08 81 3f b1 58 77 3f 3c 02 7f 3f
       0.97977966 1.008069 0.9661971 0.99612784

feature_extractor.5.bias f4 [128]
000000 11 cd 41 bc 4c 40 c3 3a 55 03 c3 bc bd 95 a0 bb
       -0.011828677 0.0014896481 -0.0238053 -0.0049006627
000010 da 6e b1 3c d5 d8 91 bc 29 3f 1b 3d bf d1 02 3d
       0.021659303 -0.017803589 0.03790203 0.03193831
000020 f7 77 3b 3d 82 3e 0a 3d f5 0d dc bc 06 1d c0 3b
       0.045768704 0.03375102 -0.026862124 0.005862835
000030 08 3a 06 bc 24 66 54 3d 78 48 09 bc 6f 83 72 3d
       -0.008192547 0.05185522 -0.008379094 0.059207376
000040 67 27 d5 3c 83 2c 5a bc 55 d7 9a 3c c4 cd de 3a
       0.026019765 -0.0133162765 0.018901506 0.0016998579
000050 80 35 81 bb 61 91 6c 3c ef 88 ea 3c 3e 7a 19 3d
       -0.0039431453 0.014438958 0.028629748 0.037470095
000060 e1 29 e9 bb 4f 8b 10 3d 09 c4 d7 3c 93 8d f3 3b
       -0.007115588 0.035289105 0.026338594 0.0074326484
000070 a8 7b db bc 6e e0 a1 bc e1 6a 1a 3d 21 7f 0e bb
       -0.026792362 -0.019760337 0.037699584 -0.0021743255
000080 b8 1e 0b bd 06 91 4a 3c 0e 5e 8f bc b5 35 a3 bc
       -0.033964843 0.012363678 -0.017500903 -0.01992307
000090 5f bd da bb cf 1a 74 bc f2 0d 20 3b e2 64 86 3c
       -0.006675407 -0.01489897 0.0024422375 0.016405527
0000a0 6a 50 cd bc 38 40 45 3c 51 6f db 3c 07 f4 3e bc
       -0.025062758 0.012039237 0.026786478 -0.01165486
0000b0 89 aa 35 bc b5 44 24 3d d3 2c ce bc 61 5e 24 bc
       -0.011088022 0.040104587 -0.025167858 -0.010032267
0000c0 c9 8a 8d bc 30 d9 bb bc af 9b 13 bc 45 b5 c1 bc
       -0.017278092 -0.022930712 -0.009009286 -0.023646006
0000d0 a3 67 0d 3c 5c 5e 5f bc 72 75 a1 bc 21 78 34 bc
       0.008630666 -0.013633337 -0.019709323 -0.011014969
0000e0 77 67 3d bc b5 26 e9 bb 96 be d2 3b 40 92 cc bc
       -0.0115603125 -0.00711521 0.006431411 -0.024972081
0000f0 c3 4a f7 bb 83 e8 d0 3b 38 d4 3a bc db 00 9d bc
       -0.007546754 0.006375374 -0.011403136 -0.019165447
000100 2f 66 41 3a 1c 01 a3 bc f6 49 05 3a 4d 8f 60 3c
       0.0007377592 -0.01989799 0.00050845684 0.013706041
000110 bb 11 10 bc 7f ef 2a 3d eb 52 d9 3c 79 a4 3d 3d
       -0.00879329 0.041732308 0.026528796 0.04629943
000120 31 a5 53 3d 16 a9 1b 3d b0 d0 37 3c 7e 7f 6d bc
       0.05167121 0.03800305 0.011219189 -0.014495729
000130 17 20 47 bb 6a 16 27 3d 43 0f 78 bc 6a 9e 37 bb
       -0.0030384117 0.04079286 -0.015140357 -0.0028018006
000140 f7 e8 ad 3c 65 d9 cc 3c 02 29 58 bc b9 35 cf bc
       0.02122925 0.025006006 -0.013193371 -0.025294172
000150 74 53 a6 bc 77 61 20 bc ae f3 25 3d af a7 35 bc
       -0.020303465 -0.009788862 0.040515594 -0.011087342
000160 21 43 2e 3c a0 b9 32 3b 31 08 32 bc 23 f7 12 3d
       0.010636122 0.0027271286 -0.010866211 0.03588022
000170 c6 52 95 3c 40 30 c7 3b fd 76 2f 3d 98 12 45 3d
       0.018227946 0.00607875 0.042838085 0.048113436
000180 e0 10 a7 bb c9 d3 1a bc 70 d6 29 3d f3 c5 67 3a
       -0.005098447 -0.009449908 0.04146427 0.00088414474
000190 c6 86 45 bc 82 2e a9 3b 2f 51 dd 3c a9 04 c7 3c
       -0.012056058 0.005163015 0.02701625 0.024294214
0001a0 7f 2b 57 bc 54 f6 10 39 b0 b4 2d bc 43 71 63 3b
       -0.013132929 0.00013824675 -0.010602161 0.003470496
0001b0 bd 99 58 bc 1c 70 35 3c 6a 36 ca bb 10 08 05 bc
       -0.013220248 0.011074092 -0.0061710374 -0.008119598
0001c0 4a 5a 7a bc 49 e9 0a 3d 65 17 90 3c 2f 8b 7b bb
       -0.015280316 0.033913884 0.01758928 -0.003838252
0001d0 54 a4 6d 3d 13 14 08 3d b6 27 09 bc dc 68 55 3c
       0.058018044 0.03322227 -0.008371284 0.013025489
0001e0 ea 25 e5 bc 88 ab 53 3d 36 c3 50 bc 8b 77 a5 bc
       -0.02797218 0.051677257 -0.012741854 -0.020198604
0001f0 61 63 16 bb 4f cb a4 bb 97 85 ca bc 90 4c f0 bb
       -0.0022947418 -0.005029119 -0.024721904 -0.0073333457

feature_extractor.5.running_mean f4 [128]
000000 91 da d9 3d 13 f9 a2 be ae 68 14 3e 97 a9 03 be
       0.10637391 -0.31830654 0.14493057 -0.12857662
000010 d0 df 66 be cf 02 8d 3e 00 5b 65 be 54 34 b8 be
       -0.22546315 0.27541205 -0.22397995 -0.35977423
000020 5a cf 43 3e 85 ac 5b be a9 56 6a 3e c2 68 0c 3c
       0.19122067 -0.2145253 0.2288462 0.008569898
000030 a5 20 50 3e 07 ec 32 bd ae 57 35 be db 18 70 be
       0.20324953 -0.043682124 -0.17709228 -0.23446982
000040 d2 2c 0c bf 14 99 b7 be e4 81 1f bc a7 63 b7 3d
       -0.5475589 -0.35858977 -0.009735558 0.08954554
000050 ae 0e bb bd d1 97 55 bd 36 4a 51 3e 49 9d f5 be
       -0.09133659 -0.052146737 0.20438465 -0.47971562
000060 c8 3c b9 be 48 b7 56 3e 27 65 b1 bc 0e 62 a6 3c
       -0.36179185 0.20968354 -0.021654679 0.020310428
000070 8c b0 13 3f 3f c8 4a 3e 18 17 7e bc 60 9e 8c be
       0.57691264 0.1980295 -0.015508436 -0.2746458
000080 24 9d 05 3f 10 f0 e6 bd 17 0c 33 3e 0f 3a ba 3c
       0.521929 -0.11276257 0.1748508 0.022732763
000090 2d ae d4 be a6 4f 90 be 29 4e 3a be 6d 13 38 3e
       -0.41539136 -0.28185767 -0.18193878 0.1797616
0000a0 1f c7 7c 3d f8 a4 38 3e df 63 4c 3c 4e 79 d2 bd
       0.061713334 0.1803168 0.012474983 -0.10277043
0000b0 32 cf 95 be 50 f8 88 be 48 b9 24 be b7 53 68 3e
       -0.2925964 -0.26751947 -0.16086304 0.22688185
0000c0 40 a0 58 be 34 25 e2 be 7d 7f 08 be 93 52 c9 be
       -0.2115488 -0.4416901 -0.13329883 -0.39320812
0000d0 ac 2f d2 bd 06 8c 2d 3e 56 25 f9 3e 02 0e 80 bd
       -0.10262999 0.16947946 0.48661298 -0.06252672
0000e0 f1 0e b6 bd df 83 d9 3b 67 11 a0 be 75 0e 9f 3e
       -0.088895686 0.0066380347 -0.31263277 0.31065717
0000f0 55 e4 05 3f 0d bf 3a bd 5c 75 df be 84 0c a8 3e
       0.5230153 -0.045592356 -0.43644226 0.3282205
000100 3b e8 1c be 78 55 36 3e 11 ee aa be e1 17 31 be
       -0.15322964 0.17806041 -0.33384755 -0.17294265
000110 4f c0 4e be a4 91 bd bd 94 1e b2 be d6 3f 29 ba
       -0.20190547 -0.09256294 -0.34788954 -0.00064563507
000120 d5 23 dd 3d ff c6 1b be 6c 74 b8 bd 98 8f 6e be
       0.1079785 -0.1521263 -0.09006581 -0.23296964
000130 9d 5f df be 81 a2 67 3c 90 8a 3e be d3 5a 15 bd
       -0.43627635 0.014137865 -0.18607545 -0.03646357
000140 86 ef f9 bd bf 15 0a bf ec 1d 85 3d 2c e2 fa bd
       -0.122038886 -0.5393943 0.06499848 -0.1225017
000150 7b 18 88 be 8c 5b 62 be 4c 60 75 be c1 41 a7 bd
       -0.26581177 -0.22105235 -0.23962516 -0.081668384
000160 48 06 4f bd 84 4f 5b 3c 43 2a 1c 3d dc 1f 3c be
       -0.0505431 0.013385657 0.03812624 -0.18371528
000170 38 82 db be ad 40 91 be 3d 4e 0a bd 11 f1 83 be
       -0.42872787 -0.28369656 -0.03376602 -0.25769857
000180 89 8d a0 3e 84 a1 e6 3d 48 c6 0b be 86 ae e8 3d
       0.31357983 0.112612754 -0.13649857 0.11361413
000190 57 aa 31 be 4e cf 54 3e 78 e0 05 bf 3d 9f 2a be
       -0.17350136 0.20782205 -0.5229564 -0.16662307
0001a0 32 03 80 be c4 0f d9 3b d7 c9 b5 bc 9b 55 de be
       -0.25002438 0.006624194 -0.022190971 -0.43424687
0001b0 76 b9 52 3e 7b 7a 24 bf 82 6f 9f 3e 90 73 57 be
       0.2057856 -0.6424939 0.3113976 -0.21040177
0001c0 45 3e f8 be 2a 10 80 bc 8d c0 f6 3d bf 15 dc bc
       -0.48485008 -0.015632708 0.12048445 -0.026865838
0001d0 ff 21 18 be 74 7b 8e bd a3 23 9f 3d 61 43 cc be
       -0.14856718 -0.069571406 0.07770469 -0.39895156
0001e0 7b 46 b5 bd 6f 1e a5 3d 56 27 39 3f c8 f7 67 be
       -0.08851334 0.08062445 0.72325647 -0.22653115
0001f0 11 74 4f 3e 74 a4 26 bf 34 8f 60 be 90 d3 35 3c
       0.2025912 -0.65094686 -0.21929628 0.011097804

feature_extractor.5.running_var f4 [128]
000000 fb e4 4e 3e 07 89 81 3e b3 8d 10 3e ee 36 55 3e
       0.20204537 0.25299856 0.14116554 0.20821735
000010 aa 38 0f 3f d4 4f df 3e 85 af 08 3f 5b 30 2b 3f
       0.5594584 0.43615592 0.5339282 0.6687066
000020 87 92 46 3f 5e 53 b4 3e f1 0c a3 3e dd 79 f6 3e
       0.77567333 0.35219854 0.3184581 0.4813985
000030 5f b0 c7 3e 66 8f 44 3f 20 ff ef 3d 61 61 4c 3f
       0.39001748 0.7678131 0.11718583 0.7983609
000040 93 dc 10 3f 3c 77 62 3e 12 6a 9a 3e 42 aa a3 3e
       0.5658657 0.22115797 0.3015905 0.31965834
000050 14 db d9 3e 3e 71 b0 3e 24 87 c2 3e c0 06 39 3f
       0.42549956 0.34461397 0.3799373 0.72275925
000060 6e 9b b1 3e a2 fc ff 3e 5c 0b b4 3e 6e 2e 82 3e
       0.34688896 0.4999743 0.35164917 0.25426048
000070 0f 14 63 3e d7 31 3d 3e 26 25 cd 3e e6 60 86 3e
       0.2217562 0.18476044 0.40067405 0.26245803
000080 d5 d5 8e 3e 46 67 c3 3e 68 c8 4c 3e a4 56 76 3e
       0.27897516 0.3816473 0.19998324 0.24056488
000090 aa aa 51 3e 98 49 8e 3e 63 ab 81 3e 5e b6 88 3e
       0.2047526 0.27790523 0.2532607 0.26701635
0000a0 6b ed 1f 3e ae 37 ba 3e 7b 68 0d 3f ac 27 e2 3e
       0.15617912 0.36370605 0.5523755 0.44170892
0000b0 72 55 3c 3e 09 85 d0 3e 40 7d 38 3e 19 ab 54 3e
       0.1839197 0.40726498 0.18016529 0.20768394
0000c0 d7 52 23 3e 46 47 31 3e fa 1d 61 3e 43 ce 98 3e
       0.1594957 0.17312345 0.21984091 0.29844865
0000d0 f7 ed b6 3e a5 7f 78 3e 72 62 71 3e 44 69 26 3e
       0.35728428 0.24267443 0.2357271 0.16251093
0000e0 06 7e 83 3e 87 47 19 3e df 8b db 3e de 1b 28 3e
       0.25682086 0.14968692 0.4288015 0.1641688
0000f0 00 31 8c 3e cc b9 d7 3e 2c e5 72 3e 29 79 41 3e
       0.27381134 0.4213394 0.23720235 0.18893875
000100 21 81 08 3f 22 2b 83 3e 3e ac 8f 3e 31 75 d8 3e
       0.53322035 0.25618845 0.28061098 0.4227691
000110 2e 8e d1 3e 94 0a 16 3f cc 3a da 3e 26 17 58 3f
       0.40928787 0.5860989 0.42622983 0.8441032
000120 d6 9a 2b 3f 2a f4 00 3f de 4b 91 3e f4 49 25 3e
       0.67033136 0.50372565 0.28378195 0.16141492
000130 b9 5b 88 3e da c2 f8 3e e9 cd 8b 3e 04 27 9d 3e
       0.2663248 0.4858616 0.27305534 0.3069383
000140 df 85 f0 3e 1b ee cd 3e a1 0e 2b 3e c7 79 51 3e
       0.46977136 0.40220723 0.16704799 0.2045661
000150 49 80 9b 3e 6a e8 88 3e 98 0c cb 3e 97 7e 8f 3e
       0.3037131 0.26739818 0.39658046 0.28026268
000160 12 3d b6 3e db d3 b8 3e 61 05 a8 3e 39 e8 99 3e
       0.35593468 0.36099133 0.32816604 0.30059984
000170 a9 d1 12 3f e3 0a a4 3e be 76 42 3f 1c a2 2e 3f
       0.57351166 0.32039556 0.75962436 0.6821611
000180 5d 46 85 3e 8e ad 7d 3e 53 2c 15 3f 52 4b 4e 3e
       0.26030245 0.24773237 0.5827076 0.2014592
000190 cb ca 8c 3e ea bf b6 3e f6 1d 08 3f 5f 46 8d 3e
       0.2749847 0.35693294 0.53170717 0.2759275
0001a0 d6 1c 7d 3e c3 f2 03 3f 80 81 3f 3e 39 bc b7 3e
       0.24718031 0.515423 0.18701744 0.3588579
0001b0 2c ef 42 3e be d3 d4 3e 22 5b b1 3e 5d 0c 7c 3e
       0.1903655 0.41567796 0.3463984 0.24614091
0001c0 2b 1e ed 3e 38 2c ca 3e 0a 66 0e 3f 1c b5 54 3e
       0.4631208 0.3948686 0.5562445 0.20772213
0001d0 03 a8 0d 3f b5 bd 1c 3f fd 35 63 3e dc 69 a8 3e
       0.5533449 0.6122697 0.22188564 0.32893264
0001e0 d2 8d 9a 3e 9f 9a 00 3f c9 bf 62 3e 4f 02 83 3e
       0.30186325 0.50235933 0.22143473 0.255877
0001f0 80 9a 4f 3e f3 71 92 3e 10 e8 a6 3e 0a 9d 96 3e
       0.20273781 0.2860256 0.32598925 0.29416686
