models/dl_model.pth (torch, 75538 bytes, 6 tensors)

layers.0.weight f4 [128, 10]
-0.098773584 -0.26927084 -0.2779652 -0.16263464 -0.1804853 0.07789209 -0.112830564 -0.1437951
0.30630216 0.0988185 0.24270396 -0.12943824 -0.14040811 0.13623697 -0.20797957 -0.21142064
-0.007073609 -0.11068444 -0.22612356 0.18662255 0.25807086 0.054298133 -0.05713162 -0.29980832
-0.11353884 0.082473256 0.15095352 -0.037514143 -0.11180817 0.17421857 -0.27092454 0.17030478
-0.1045346 -0.016454693 -0.07347268 0.033961706 -0.10349158 0.2207256 -0.017937284 0.23369758
0.30270615 -0.15191394 -0.2228893 0.24685735 0.24128577 -0.25057477 -0.031579033 -0.3196712
-0.25619563 0.06821269 0.08412753 0.0670343 -0.08606604 0.2917447 0.0452136 -0.18660119
-0.017902857 0.07594058 0.11074065 -0.2235986 0.1127168 -0.1453792 -0.24043925 -0.18972492
0.30694368 0.2775222 0.29108492 0.19144972 0.2320726 -0.04528734 -0.16187203 0.1552223
-0.1643512 -0.20164181 -0.09243465 0.07350173 0.1689886 -0.11834119 -0.19195493 0.042284988
-0.22240582 -0.2069575 0.14869171 -0.08028024 0.25605008 0.27462143 0.06113949 0.07564018
0.076363504 -0.021170981 0.0043719932 0.025861008 0.1376027 0.31974962 -0.06019836 -0.11333382
-0.05487264 -0.13386223 0.041395478 0.24686122 0.2541369 0.13180202 -0.23424931 -0.1514938
-0.06474625 -0.055537574 0.029167835 -0.28899908 0.094824955 -0.23409462 -0.21571748 -0.26964995
0.2495919 -0.3233168 0.23390721 -0.013841235 -0.04702613 0.19042999 -0.038842563 0.20814966
0.21442309 -0.27284324 0.11580094 0.040500186 0.05338824 0.032960344 0.07830217 -0.15989524
-0.033385366 0.2763758 0.1704959 -0.012398095 -0.26009685 -0.015699234 -0.257041 0.21483682
-0.23448287 -0.0644652 -0.067552246 0.02539637 0.2690417 0.020847216 0.15845335 0.2263256
0.22485031 -0.13977294 -0.098084815 0.1260014 -0.08281663 0.12764806 -0.09256822 -0.22186506
0.1140936 0.023707977 0.11932971 0.29385623 0.1977919 0.28272006 0.021164857 -0.2946741
-0.23777902 -0.18731408 -0.25792903 -0.17141727 -0.31048965 -0.3151664 -0.21056205 -0.3351457
-0.18918623 0.118460804 0.24018459 -0.06983266 -0.06845268 0.15690625 -0.18692128 -0.18272017
0.16720456 -0.30512124 0.04125323 0.25522998 0.051105548 0.071469896 -0.17760606 -0.009519432
0.008891801 0.06789342 0.11380223 0.266103 -0.24390998 0.0034693293 -0.16312748 -0.24426621
-0.023279598 -0.28441834 0.21592252 0.033885233 -0.17311747 0.16487686 -0.29194286 -0.12884828
-0.07784717 -0.25713226 -0.19889548 -0.058857743 0.22106427 0.28306034 0.17813869 -0.21323283
-0.2031452 0.26749024 0.08504271 0.003631625 0.031651143 -0.28297737 -0.13119069 0.28026938
-0.09937362 -0.0360452 -0.24723443 -0.20600387 0.0022382205 -0.17597899 -0.04879067 0.15390897
-0.29865268 0.10311665 -0.20399787 -0.14857146 0.113908224 0.2646335 -0.08872226 -0.14335705
-0.28449577 -0.15789783 -0.28303596 -0.0791318 0.061778896 -0.29974657 0.27832192 0.18900257
-0.3249773 -0.1564231 0.09266056 -0.058041167 -0.046582688 -0.15526228 0.24377286 -0.1876048
0.25702038 0.0040164622 0.03392075 0.22826324 -0.06484502 -0.19117816 -0.08111508 0.22588146
00000000: ce49 cabd dedd 89be 7451 8ebe b289 26be
00000010: 23d1 38be e385 9f3d b613 e7bd 063f 13be
00000020: a3d3 9c3e 5b61 ca3d 6387 783e 758b 04be
00000030: 25c7 0fbe b481 0b3e 99f8 54be a77e 58be
00000040: bcc9 e7bb 86ae e2bd ef8c 67be fb19 3f3e
00000050: dd21 843e b867 5e3d d802 6abd 7a80 99be
00000060: 0d87 e8bd bde7 a83d 8f93 1a3e 6ea8 19bd
00000070: affb e4bd 5a66 323e 9fb6 8abe 6064 2e3e
00000080: 3d16 d6bd fecb 86bc d878 96bd 6e1b 0b3d
00000090: 65f3 d3bd e405 623e 36f1 92bc 6b4e 6f3e
000000a0: 4dfc 9a3e 548f 1bbe 183d 64be 2cc8 7c3e
000000b0: 9e13 773e 564b 80be 0459 01bd f2ab a3be
000000c0: 132c 83be 18b3 8b3d 0e4b ac3d 4749 893d
000000d0: 6443 b0bd 905f 953e e531 393d 6214 3fbe
000000e0: 03a9 92bc bc86 9b3d fecb e23d 08f7 64be
000000f0: 11d8 e63d 49de 14be b535 76be 4047 42be
00000100: b927 9d3e 6417 8e3e 1509 953e 650b 443e
00000110: 71a4 6d3e 387f 39bd c8c1 25be 98f2 1e3e
00000120: ae4b 28be 317b 4ebe 614e bdbd 1388 963d
00000130: 590b 2d3e de5c f2bd d58f 44be 0633 2d3d
00000140: 5abe 63be abec 53be a442 183e f769 a4bd
00000150: ff18 833e 2e9b 8c3e 676d 7a3d 3de9 9a3d
00000160: 7864 9c3d c46e adbc f042 8f3b 77da d33c
00000170: b9e7 0c3e 39b6 a33e 8e92 76bd 901b e8bd
00000180: 22c2 60bd 2e13 09be 4e8e 293d 30c9 7c3e
00000190: 3b1e 823e 1cf7 063e 0ddf 6fbe 3121 1bbe
000001a0: af99 84bd 5e7b 63bd 62f1 ee3c b0f7 93be
000001b0: 9633 c23d 80b6 6fbe 0be5 5cbe 8f0f 8abe
000001c0: 0595 7f3e c889 a5be 5f85 6f3e 59c6 62bc
000001d0: 799e 40bd 1400 433e 6119 1fbd 2f25 553e
000001e0: ba91 5b3e 1cb2 8bbe 0b29 ed3d 86e3 253d
000001f0: a1ad 5a3d 6d01 073d e35c a03d 94bb 23be
00000200: 18bf 08bd 2181 8d3e 7a96 2e3e 6121 4bbc
00000210: 6a2b 85be ae9b 80bc e19a 83be 2ffe 5b3e
00000220: 471c 70be 5506 84bd d558 8abd 0c0c d03c
00000230: d5bf 893e c8c7 aa3c 9841 223e e6c1 673e
00000240: 293f 663e a320 0fbe b1e0 c8bd 8306 013e
00000250: c49b a9bd 2cb6 023e 6894 bdbd 9830 63be
00000260: e8a9 e93d 3b37 c23c 2363 f43d 5374 963e
00000270: f689 4a3e afc0 903e ec61 ad3c 86df 96be
00000280: 587c 73be 43cf 3fbe 460f 84be 0288 2fbe
00000290: 80f8 9ebe 7e5d a1be 949d 57be 3898 abbe
000002a0: 09ba 41be 949b f23d f3f2 753e 6d04 8fbd
000002b0: eb30 8cbd 08ac 203e 4b68 3fbe ff1a 3bbe
000002c0: ac37 2b3e da38 9cbe 26f9 283d 81ad 823e
000002d0: 0d54 513d cf5e 923d 5dde 35be 64f7 1bbc
000002e0: ebae 113c b50b 8b3d 2511 e93d a73e 883e
000002f0: 8ac3 79be b05d 633b e40a 27be ec20 7abe
00000300: dbb4 bebc 489f 91be cb1a 5d3e 3ecb 0a3d
00000310: b545 31be 7bd5 283e 8979 95be cef0 03be
00000320: 566e 9fbd d7a6 83be 42ab 4bbe d114 71bd
00000330: ac5e 623e 49ed 903e fd69 363e b559 5abe
00000340: 4c05 50be 7bf4 883e df2a ae3d 8f00 6e3b
00000350: a1a4 013d 69e2 90be da56 06be 787f 8f3e
00000360: 6584 cbbd 22a4 13bd 062b 7dbe aef2 52be
00000370: 1caf 123b d633 34be bad8 47bd 509a 1d3e
00000380: 01e9 98be d22e d33d d1e4 50be 1e23 18be
00000390: b748 e93d 0b7e 873e 04b4 b5bd 31cc 12be
000003a0: 6ea9 91be f8af 21be 17ea 90be da0f a2bd
000003b0: de0b 7d3d 6278 99be 3680 8e3e e489 413e
000003c0: 6d63 a6be 612d 20be d2c4 bd3d 93bc 6dbd
000003d0: 7dcd 3ebd 13fd 1ebe 989f 793e 791b 40be
000003e0: 2d98 833e 879c 833b 7cf0 0a3d d7bd 693e
000003f0: 77cd 84bd 35c4 43be aa1f a6bd 784d 673e

layers.0.bias f4 [128]
0.027892461 0.16004972 -0.2926906 -0.008635074 -0.28607148 0.10762798 -0.21866521 -0.10660811
0.18771775 0.32435864 -0.18713571 -0.18635035 0.030974949 0.08205226 -0.07906911 -0.11685756
-0.22885084 0.10752593 0.3013899 -0.15509094 0.12657356 0.13282964 0.25892672 -0.038637742
-0.0019501054 0.2020262 0.1864306 0.31240156 -0.08317588 0.10703489 0.20844369 -0.24367894
0.06348066 -0.07435704 0.16693038 -0.15926658 -0.029555535 0.19908498 -0.3168824 -0.2869315
-0.15676284 0.22059631 0.20333412 -0.2353423 0.031844273 -0.18383707 -0.15128747 0.25994423
0.13861804 -0.076059945 0.041972063 0.050845783 0.08374007 -0.124563195 -0.19170403 0.18699196
0.05641939 0.093473546 -0.11821163 0.15317109 0.21332993 0.16676813 0.09529378 0.31361717
0.018147297 0.06175043 0.28088623 0.30771938 -0.14937288 0.25195143 0.09948114 -0.042933725
0.2832937 -0.16381522 0.20600252 0.27318835 -0.22478688 -0.19922575 -0.3355758 -0.024273792
-0.299602 -0.12342045 0.0657841 0.2432324 0.17061321 0.16592471 0.11407351 -0.22866878
-0.28192893 0.0037696282 0.3273091 0.007123532 -0.024748854 -0.22650895 -0.17270152 -0.25311303
0.21355617 -0.083385155 -0.27830866 0.033923224 0.019185841 -0.0489037 0.104228266 0.15378965
-0.31410828 -0.23719783 -0.037978794 -0.28017807 -0.30042055 0.27713528 -0.042346038 -0.18688138
-0.106497 -0.25938302 0.25007972 -0.05672778 -0.16305003 -0.22551697 0.19370775 -0.070268005
-0.044367988 -0.04513127 -0.19201301 0.034421794 0.24830969 -0.18556179 -0.018898057 -0.25939122
00000000: bb7e e43c 13e4 233e 8bdb 95be 207a 0dbc
00000010: f677 92be 0f6c dc3d c6e9 5fbe 5a55 dabd
00000020: 1539 403e 5612 a63e 81a0 3fbe a0d2 3ebe
00000030: 2dbf fd3c 040b a83d fcee a1bd 0453 efbd
00000040: e057 6abe 8e36 dc3d c74f 9a3e 29d0 1ebe
00000050: 809c 013e 7e04 083e 0b92 843e 9c42 1ebd
00000060: ae9a ffba f5df 4e3e aae7 3e3e 19f3 9f3e
00000070: 1e58 aabd 1c35 db3d 4372 553e f986 79be
00000080: 2602 823d 8148 98bd ccef 2a3e c716 23be
00000090: 731e f2bc efdc 4b3e 693e a2be b0e8 92be
000000a0: 7086 20be 00e4 613e d236 503e 92fd 70be
000000b0: 246f 023d c93f 3cbe 1aeb 1abe 6917 853e
000000c0: e3f1 0d3e 51c5 9bbd e6ea 2b3d ab43 503d
000000d0: ea7f ab3d fd1a ffbd 104e 44be d27a 3f3e
000000e0: 0518 673d 0f6f bf3d f018 f2bd e2d8 1c3e
000000f0: 2973 5a3e 44c5 2a3e 6329 c33d 6e92 a03e
00000100: a4a9 943c 05ee 7c3d 52d0 8f3e 658d 9d3e
00000110: 34f5 18be c7ff 803e c5bc cb3d 46db 2fbd
00000120: df0b 913e 2dbf 27be 53f2 523e 58df 8b3e
00000130: 882e 66be d601 4cbe 97d0 abbe d5d9 c6bc
00000140: 6f65 99be dcc3 fcbd d0b9 863d ea11 793e
00000150: 3bb5 2e3e 2be8 293e 5f9f e93d 2628 6abe
00000160: fd58 90be de0b 773b 0f95 a73e 846c e93b
00000170: 1cbe cabc f6f1 67be abd8 30be 0898 81be
00000180: 78ae 5a3e d6c5 aabd 797e 8ebe 14f3 0a3d
00000190: a02b 9d3c 3f4f 48bd a175 d53d 097b 1d3e
000001a0: cdd2 a0be fde3 72be a78f 1bbd 8073 8fbe
000001b0: b9d0 99be ade4 8d3e 0a73 2dbd d55d 3fbe
000001c0: 191b dabd dacd 84be 730a 803e 635b 68bd
000001d0: 96f6 26be eced 66be 535b 463e ace8 8fbd
000001e0: 35bb 35bd 91db 38bd 0f9f 44be defd 0c3d
000001f0: e544 7e3e e903 3ebe 19d0 9abc edce 84be

layers.3.weight f4 [128, 128]
-0.045946706 0.066520825 -0.021021694 0.07976891 -0.040672224 -0.048175555 -0.07420742 0.066092536
-0.07350281 0.046234284 0.023167977 0.012138421 0.036457643 -0.035401486 0.042046733 -0.079452164
-0.046635512 0.057498757 0.017372334 -0.0063605327 -0.027580544 -0.069662295 0.04885152 -0.02339685
0.014209533 0.0055737006 0.07892305 -0.048297945 -0.040046763 0.045239385 0.044556327 -0.04690206
-0.08101873 0.005415873 0.033220477 0.005971565 0.047644857 -0.07865332 0.02913766 -0.06108521
0.061613545 0.045788854 0.025079664 0.06816235 -0.06607281 -0.094712004 -0.08082389 0.050071206
0.024899429 -0.08191837 0.030443141 0.0572085 -0.09144175 0.059906293 -0.0083233705 -0.007287389
0.083311796 0.0606287 0.030542755 0.06983872 0.03427858 0.005783382 -0.06149729 0.007392244
-0.053110685 0.027744105 0.011345015 0.00040525149 -0.055684604 -0.06279828 0.053513985 0.035198018
0.037790556 -0.026337681 -0.02933935 -0.031803634 0.05380055 -0.040906508 0.044831954 0.05719176
-0.08175663 -0.007176069 -0.016865388 -0.07189679 0.031811737 -0.0056263534 0.06847573 -0.06639801
0.03236971 -0.0938299 -0.052295383 -0.0045979954 0.061582554 0.039367083 -0.08193519 -0.00013094248
-0.05607905 -0.0036206632 -0.07163144 -0.025930796 0.05126147 -0.09161552 -0.09737112 0.0040298863
0.0040821675 0.007017566 0.0630324 -0.042974766 -0.060705412 -0.075133786 -0.018654281 -0.031385858
0.059797704 -0.0030019102 0.038184065 -0.03132221 0.0889551 0.065299295 -0.10114618 -0.042649075
-0.076815985 0.013676743 -0.08113939 -0.044959154 0.10008593 -0.09652078 0.050059527 0.007888101
0.06707386 -0.057068203 0.04908236 -0.0001640605 -0.0066199643 0.06032789 -0.08935103 -0.074962184
0.07971389 -0.06802878 -0.06883952 -0.0151342405 -0.03661729 -0.017112788 -0.06451933 0.030939428
-0.07827314 -0.006190217 0.051505193 0.026722532 0.02092303 0.0052800626 -0.04090011 -0.019884847
-0.018929478 -0.07031923 -0.030917937 0.08378222 -0.032423113 0.01844386 0.05937303 -0.015580633
-0.03810538 -0.06958101 -0.04616803 0.0345863 -0.085960306 -0.020198796 0.021931456 0.06793501
0.040353898 0.0017105452 0.067466885 0.025649963 0.017345177 -0.02647708 -0.064926274 -0.019946687
-0.015786843 -0.007666486 -0.024423005 0.034725033 0.056804795 -0.033869263 -0.08797077 -0.050225966
-0.029842203 0.04641832 -0.062510684 -0.00831355 -0.025719363 -0.041380193 0.061428495 -0.04446172
0.012822964 -0.045930594 -0.009768773 0.026627583 0.009753156 -0.037369177 0.02318304 -0.020996908
-0.043121308 -0.06518045 -0.0015288066 -0.08124706 0.06109526 -0.050452147 -0.045955762 0.00507176
0.019839954 -0.012910331 0.058714453 -0.055688612 0.032322954 -0.00019934405 -0.07046385 -0.04077277
0.020237962 0.010517781 0.05793967 0.06104224 -0.046114877 -0.038710985 -0.02557315 -0.0644879
-0.022353217 -0.072087936 0.024474353 0.06254 0.018807175 -0.061983954 -0.077837974 -0.041063216
0.026141664 0.019997254 0.009001511 0.09160335 0.040282845 0.020879606 -0.009807824 0.040935393
0.049381036 -0.08680818 -0.044585694 0.013946782 0.057270013 0.028644603 -0.05891777 -0.08845286
0.013028429 -0.011332199 0.019343887 -0.02083368 0.074829996 0.0034408 0.06113876 -0.0754921
00000000: 9d32 3cbd 123c 883d b035 acbc e25d a33d
00000010: eb97 26bd bb53 45bd 0ffa 97bd 865b 873d
00000020: a488 96bd 2960 3d3d c5ca bd3c 3ae0 463c
00000030: 9c54 153d 2601 11bd 3239 2c3d d1b7 a2bd
00000040: e104 3fbd d183 6b3d 6d50 8e3c 046c d0bb
00000050: 98f0 e1bc 1bab 8ebd 8818 483d c0aa bfbc
00000060: 1acf 683c 97a3 b63b 68a2 a13d 11d4 45bd
00000070: 1308 24bd ef4c 393d b280 363d 601c 40bd
00000080: 26ed a5bd a377 b13b 3212 083d 1ead c33b
00000090: 4127 433d fe14 a1bd 1ab2 ee3c 7c34 7abd
000000a0: 7c5e 7c3d 188d 3b3d de73 cd3c b498 8b3d
000000b0: 2e51 87bd 5ef8 c1bd ff86 a5bd 7717 4d3d
000000c0: e3f9 cb3c d2c4 a7bd e563 f93c 7653 6a3d
000000d0: d045 bbbd 4d60 753d bf5e 08bc 0dcb eebb
000000e0: 609f aa3d cd55 783d cd34 fa3c 9a07 8f3d
000000f0: b267 0c3d 8682 bd3b 95e4 7bbd a33a f23b
00000100: 978a 59bd 9b47 e33c 71e0 393c ef77 d439
00000110: 8a15 64bd 629c 80bd 7b31 5b3d cc2b 103d
00000120: 45ca 1a3d 1fc2 d7bc 1459 f0bc 8744 02bd
00000130: f75d 5c3d 958d 27bd b6a1 373d e841 6a3d
00000140: 0570 a7bd 3b25 ebbb 4829 8abc a03e 93bd
00000150: 064d 023d 465d b8bb 013d 8c3d aefb 87bd
00000160: 1a96 043d e429 c0bd af33 56bd c8aa 96bb
00000170: fd3d 7c3d 613f 213d a3cd a7bd 9b4d 09b9
00000180: 25b3 65bd a648 6dbb 81b3 92bd d26c d4bc
00000190: 8cf7 513d eba0 bbbd 826a c7bd 230d 843b
000001a0: b4c3 853b 9cf3 e53b 2217 813d 4f06 30bd
000001b0: 3da6 78bd bedf 99bd ddd0 98bc 758e 00bd
000001c0: 70ee 743d b2bb 44bb e566 1c3d b84b 00bd
000001d0: 172e b63d a3bb 853d ba25 cfbd ccb0 2ebd
000001e0: b351 9dbd 6b14 603c 692c a6bd 1727 38bd
000001f0: daf9 cc3d b0ac c5bd 380b 4d3d 183d 013c
00000200: 055e 893d 59c0 69bd 960a 493d a807 2cb9
00000210: 49ec d8bb 611a 773d acfd b6bd c685 99bd
00000220: 0941 a33d ac52 8bbd bcfb 8cbd 9bf5 77bc
00000230: 03fc 15bd 1e30 8cbc b622 84bd af74 fd3c
00000240: ab4d a0bd 4ed7 cabb 1cf7 523d 36e9 da3c
00000250: c666 ab3c 6004 ad3b e086 27bd 8ce5 a2bc
00000260: fe11 9bbc 8703 90bd 9d47 fdbc 0396 ab3d
00000270: 19ce 04bd 9417 973c 2231 733d e945 7fbc
00000280: 6314 1cbd 7d80 8ebd b01a 3dbd 5daa 0d3d
00000290: f50b b0bd f277 a5bc 99a9 b33c 8321 8b3d
000002a0: 214a 253d 5f34 e03a 142c 8a3d df1f d23c
000002b0: 7917 8e3c 76e6 d8bc 11f8 84bd 3c67 a3bc
000002c0: 6953 81bc 2537 fbbb c112 c8bc d63b 0e3d
000002d0: 25ac 683d 7fba 0abd 052a b4bd beb9 4dbd
000002e0: a377 f4bc 2321 3e3d 9a05 80bd 8e35 08bc
000002f0: 6ab1 d2bc 477e 29bd 729c 7b3d 7e1d 36bd
00000300: 6917 523c b821 3cbd 340d 20bc 1722 da3c
00000310: b4cb 1f3c 6c10 19bd 5cea bd3c b501 acbc
00000320: f89f 30bd 547d 85bd 3d62 c8ba dc64 a6bd
00000330: 063f 7a3d e9a6 4ebd 1c3c 3cbd 0231 a63b
00000340: 6687 a23c da85 53bc 917e 703d be19 64bd
00000350: 1365 043d 0307 51b9 5a4f 90bd 5901 27bd
00000360: 15ca a53c c552 2c3c 2652 6d3d 6e07 7a3d
00000370: f4e2 3cbd 698f 1ebd c87e d1bc 3b12 84bd
00000380: 181e b7bc d7a2 93bd 707e c83c f914 803d
00000390: 8111 9a3c e3e2 7dbd 8469 9fbd e731 28bd
000003a0: 0b27 d63c 48d1 a33c 137b 133c 8a9a bb3d
000003b0: a0ff 243d b50b ab3c ffb0 20bc dfab 273d
000003c0: c543 4a3d 7dc8 b1bd 7d9f 36bd 0b81 643c
000003d0: f693 6a3d 16a8 ea3c c253 71bd c626 b5bd
000003e0: 3175 553c b0aa 39bc 1277 9e3c 65ab aabc
000003f0: 7840 993d 0b7f 613b a36c 7a3d 9a9b 9abd

layers.3.bias f4 [128]
0.028667876 -0.08924437 0.039132692 0.0012904005 0.0016044815 0.04027533 0.031011201 -0.0054133693
-0.096200354 0.06706449 -0.040942896 -0.059670627 0.018728228 0.051724367 0.0018864213 -0.06070786
-0.08498268 0.038757697 0.010793679 0.05055209 0.080416106 -0.042817943 0.01784936 0.074129365
-0.0010617492 -0.046551842 -0.09006859 -0.014901575 -0.060062706 -0.07455652 -0.08584653 0.019909536
-0.012457942 0.033531975 0.044240087 -0.098893024 -0.04985467 0.058053292 -0.02380732 0.06000542
-0.0884301 0.07752183 0.027292402 -0.07729713 0.00875647 0.048067816 0.042047057 0.00096651143
-0.043245137 -0.0427614 -0.07540706 0.09148138 0.009425404 0.01363061 -0.060994204 -0.08349516
-0.013693648 0.03241705 0.050687417 -0.015210389 0.03649095 -0.027499838 -0.023579523 0.074164085
0.012335257 0.08056778 -0.098601565 -0.005355398 -0.049385965 0.062185008 0.039161626 0.0055096424
0.049326614 -0.061767995 -0.028642256 0.040787943 -0.06955032 0.013884109 0.021057038 -0.08654372
-0.06361404 -0.06833387 -0.080178596 -0.032037195 0.020213442 0.03558627 0.046931967 0.008758678
-0.07318962 -0.091120414 0.06644594 0.020873584 0.054966442 -0.095629856 -0.061944406 -0.00721213
0.08112378 -0.082800105 -0.047210295 -0.06874889 0.05358789 -0.012995371 -0.047531933 0.056621518
-0.07377148 -0.026788015 -0.047620486 -0.03412877 -0.0017113831 0.00062793365 0.08075633 -0.08623669
-0.025570977 -0.016482169 -0.0511469 0.0750146 0.037652455 0.06201121 0.05845336 -0.020542135
0.05005884 -0.010255618 0.051279936 0.002722243 0.023375323 0.031583004 -0.040292587 0.06707276
00000000: e5d8 ea3c c1c5 b6bd 9a49 203d a822 a93a
00000010: 774d d23a bff7 243d 340b fe3c a262 b1bb
00000020: b104 c5bd 1b59 893d bdb3 27bd 3069 74bd
00000030: f16b 993c eedc 533d cc41 f73a cea8 78bd
00000040: 660b aebd 64c0 1e3d f9d7 303c b50f 4f3d
00000050: 33b1 a43d de61 2fbd d238 923c 23d1 973d
00000060: 642a 8bba 25ad 3ebd e275 b8bd bc25 74bc
00000070: 5004 76bd 17b1 98bd 4ed0 afbd 5319 a33c
00000080: 651c 4cbc d358 093d 1835 353d 6d88 cabd
00000090: 6934 4cbd 4ac9 6d3d 9207 c3bc 3ec8 753d
000000a0: d71a b5bd c4c3 9e3d 5194 df3c f54d 9ebd
000000b0: 4c77 0f3c c2e2 443d 8939 2c3d 7c5d 7d3a
000000c0: d021 31bd 9426 2fbd 046f 9abd 975a bb3d
000000d0: 026d 1a3c ec52 5f3c 0fd5 79bd 83ff aabd
000000e0: 535b 60bc bec7 043d 9c9d 4f3d ff34 79bc
000000f0: 8977 153d 5747 e1bc d829 c1bc 57e3 973d
00000100: d119 4a3c b800 a53d 9eef c9bd 567c afbb
00000110: f048 4abd b5b5 7e3d f167 203d 3b8a b43b
00000120: b40a 4a3d 7000 7dbd 2aa3 eabc 4211 273d
00000130: 6670 8ebd 2d7a 633c cf7f ac3c d53d b1bd
00000140: 1448 82bd a1f2 8bbd ad34 a4bd 6f39 03bd
00000150: a996 a53c e9c2 113d bc3b 403d 8f80 0f3c
00000160: 71e4 95bd 579d babd cf14 883d 14ff aa3c
00000170: 7e24 613d 96d9 c3bd 6bb9 7dbd bb53 ecbb
00000180: 3924 a63d 1a93 a9bd 955f 41bd 38cc 8cbd
00000190: fa7e 5b3d 89ea 54bc d8b0 42bd f7eb 673d
000001a0: 8015 97bd 8a72 dbbc b30d 43bd 9cca 0bbd
000001b0: 7d50 e0ba ea9b 243a 9363 a53d dd9c b0bd
000001c0: 3a7a d1bc 9d05 87bc 697f 51bd 41a1 993d
000001d0: 7639 1a3d 77ff 7d3d ca6c 6f3d fb47 a8bc
000001e0: 800a 4d3d 2e07 28bc e90a 523d a967 323b
000001f0: 9b7d bf3c 2e5d 013d d709 25bd 715d 893d

layers.6.weight f4 [2, 128]
0.054143563 -0.026677983 -0.008358603 -0.06821794 0.03573821 -0.053581066 -0.06641212 0.06665722
0.034633104 0.07342223 -0.061683446 -0.030354504 -0.011274039 0.05431831 -0.057831727 -0.06692257
-0.041667316 -0.04569565 0.08804712 0.03588367 -0.04686981 -0.045798443 0.00995699 -0.037914164
-0.06633217 0.063882 -0.038929995 0.03190713 -0.0152019365 -0.049704093 -0.054356143 -0.03639083
-0.060541026 -0.03758445 -0.024796331 -0.026397979 0.048378285 -0.06215709 -0.016698278 0.050164513
-0.052248828 -0.023257567 -0.06524418 -0.067637414 0.016847266 0.032796316 0.019308552 0.055427343
0.0006389268 -0.045371033 -0.076623276 0.016747316 -0.03762423 0.07388906 0.0066423067 0.060234565
-0.019663226 -0.021832677 -0.06801717 0.07766339 -0.07579333 0.045057382 -0.03349242 -0.05672621
-0.020331042 0.03898666 0.05082807 -0.06273743 -0.055905234 0.035760418 0.049062543 -0.053582266
0.048482038 -0.0067582247 -0.076225825 0.055823095 -0.057191286 0.0062307985 -0.013068209 -0.03614412
0.0008551344 -0.08071606 0.070963666 -0.06536757 0.037303578 0.008467732 -0.02143926 -0.012343104
-0.030907936 -0.005985079 0.053193074 -0.040895224 0.0541728 -0.050096985 -0.03170959 0.053004544
0.02194489 -0.06537374 -0.06737918 0.060215518 -0.0020119986 0.05911425 -0.0696332 0.019807907
-0.08050921 0.014868921 -0.025364822 0.0017456351 -0.013728216 0.01685005 -0.04651052 -0.04345994
0.043469734 -0.030677661 0.01649134 -0.0134190405 0.05216003 -0.031710565 0.04817766 0.015707184
-0.03643722 0.020829856 -0.044992846 0.02037749 -0.034912135 0.005457271 -0.006101318 -0.008633948
-0.058383565 -0.02435453 0.055990398 0.03963102 -0.026199482 -0.0038027654 0.0068738074 0.060373373
0.04527253 -0.044963364 -0.03324224 0.053114075 -0.003268022 -0.048621383 -0.05368979 -0.053034395
-0.0676793 -0.05947651 0.085368425 -0.0014385914 0.046164777 -0.0740758 0.028468654 0.01665984
-0.08315125 -0.006074918 0.0032841044 -0.050307296 0.023741303 0.03401332 -0.06611711 -0.038135547
0.06250652 -0.024429481 -0.030908957 0.0019477247 -0.049753074 0.00722783 -0.04881564 0.040133636
-0.0530571 -0.023350561 -0.047859788 0.028573291 -0.056026403 0.043293472 0.035203397 -0.047772616
0.057024296 0.037195954 -0.06505282 0.0041433326 0.007373343 -0.0037474458 0.046601154 -0.00664912
-0.024914347 0.005877889 0.027942818 0.07644461 -0.08860898 -0.004488052 -0.03993232 -0.04084525
-0.034142017 -0.045951553 -0.03555946 -0.05898425 -0.06993549 0.02931188 0.04158556 -0.043436654
0.071714714 0.026820682 -0.06797258 0.035701647 -0.008978137 0.063912645 -0.013753996 -0.040122237
0.053588033 -0.07942673 0.04516726 -0.076353595 -0.0038996905 -0.014284919 -0.06565433 -0.043151513
-0.042177964 -0.02214195 0.028521266 -0.062496446 0.058331784 -0.0077920384 -0.0010813335 0.027979467
-0.04539971 -0.016270453 -0.07260416 0.08263911 -0.037171938 -0.059001822 -0.009739509 -0.06107604
-0.08267381 -0.040274568 -0.0176487 0.020036401 -0.085537545 -0.018665353 -0.033188254 -0.044074252
0.031646296 0.041426647 0.018922502 -0.030867241 0.031488363 -0.030041479 0.00864445 0.031773426
-0.029940557 0.08102072 0.07816921 0.026292492 -0.015980028 -0.01594231 0.025558885 -0.0009145611
00000000: a4c5 5d3d c98b dabc 86f2 08bc d9b5 8bbd
00000010: 3b62 123d d277 5bbd 1403 88bd 9583 883d
00000020: 71db 0d3d 655e 963d c8a7 7cbd 02aa f8bc
00000030: bfb6 38bc e07c 5e3d f6e0 6cbd b30e 89bd
00000040: 59ab 2abd 5d2b 3bbd 0c52 b43d c1fa 123d
00000050: 8ffa 3fbd 2697 3bbd a522 233c e24b 1bbd
00000060: 29d9 87bd 91d4 823d 0f75 1fbd 0db1 023d
00000070: 8b11 79bc 8596 4bbd 8ca4 5ebd 8d0e 15bd
00000080: def9 77bd 27f2 19bd ad21 cbbc 9340 d8bc
00000090: 4f28 463d 6f98 7ebd d4ca 88bc 4e79 4d3d
000000a0: de02 56bd a786 bebc be9e 85bd 7c85 8abd
000000b0: 4703 8a3c 6e55 063d f82c 9e3c c807 633d
000000c0: a77d 273a fad6 39bd aaec 9cbd ab31 893c
000000d0: dd1b 1abd 2653 973d b5a7 d93b 85b8 763d
000000e0: c614 a1bc 71da b2bc 964c 8bbd fc0d 9f3d
000000f0: 8939 9bbd 178e 383d 592f 09bd be59 68bd
00000100: 498d a6bc 7ab0 1f3d 1831 503d 7b7c 80bd
00000110: e3fc 64bd 8479 123d cef5 483d 1479 5bbd
00000120: 1a95 463d 1974 ddbb 491c 9cbd c2a6 643d
00000130: 6941 6abd ba2b cc3b 0b1c 56bc db0b 14bd
00000140: 192b 603a 764e a5bd 6655 913d 6fdf 85bd
00000150: a3cb 183d 3ebc 0a3c 63a1 afbc bb3a 4abc
00000160: a432 fdbc 7b1e c4bb fbe0 593d c081 27bd
00000170: 4ce4 5d3d 7f32 4dbd eae1 01bd 4b1b 593d
00000180: c5c5 b33c abe2 85bd 18fe 89bd 8ca4 763d
00000190: bcdb 03bb c921 723d da9b 8ebd 3144 a23c
000001a0: 03e2 a4bd c69c 733c e3c9 cfbc cbcd e43a
000001b0: 50ec 60bc 1e09 8a3c d181 3ebd 0d03 32bd
000001c0: 520d 323d b84f fbbc d918 873c 89db 5bbc
000001d0: c1a5 553d f0e2 01bd f055 453d 5aac 803c
000001e0: 323f 15bd 60a3 aa3c 6b4a 38bd b2ee a63c
000001f0: 0700 0fbd e8d2 b23b 91ed c7bb 6775 0dbc
00000200: 9b23 6fbd 2783 c7bc 3056 653d 2354 223d
00000210: 4ca0 d6bc d137 79bb ad3d e13b 124a 773d
00000220: b06f 393d 812b 38bd 0429 08bd 258e 593d
00000230: 502c 56bb 3727 47bd d3e9 5bbd 983a 59bd
00000240: 729b 8abd a49d 73bd a4d5 ae3d 1e8f bcba
00000250: 4717 3d3d 0eb5 97bd 1837 e93c 377a 883c
00000260: 344b aabd 1b10 c7bb 213a 573b 060f 4ebd
00000270: 1f7d c23c 8d51 0b3d 6868 87bd 0534 1cbd
00000280: 6b03 803d 5620 c8bc c834 fdbc cc4a ff3a
00000290: e1c9 4bbd 6fd7 ec3b e9f2 47bd 2b63 243d
000002a0: 6752 59bd ad49 bfbc a008 44bd 8912 ea3c
000002b0: f17b 65bd 7f54 313d 7031 103d 38ad 43bd
000002c0: 4f92 693d c95a 183d 6a3a 85bd cbc4 873b
000002d0: 169c f13b b597 75bb dae0 3e3d dce0 d9bb
000002e0: 2c19 ccbc 4f9b c03b 56e8 e43c fe8e 9c3d
000002f0: a078 b5bd 8210 93bb 1390 23bd 594d 27bd
00000300: 80d8 0bbd b237 3cbd cca6 11bd 7899 71bd
00000310: 573a 8fbd 781f f03c 9f55 2a3d a2ea 31bd
00000320: 2adf 923d 0cb7 db3c 3535 8bbd e43b 123d
00000330: 0919 13bc a2e4 823d 7158 61bc 3757 24bd
00000340: 207f 5b3d 7baa a2bd 4e01 393d 465f 9cbd
00000350: f391 7fbb 4b0b 6abc c775 86bd a4bf 30bd
00000360: cdc2 2cbd 0963 b5bc 6ea5 e93c 46fc 7fbd
00000370: 4fed 6e3d 5b54 ffbb 88bb 8dba 3235 e53c
00000380: 0cf5 39bd 9d49 85bc 7db1 94bd b23e a93d
00000390: 9a41 18bd e5ab 71bd 7692 1fbc df2a 7abd
000003a0: e350 a9bd f2f6 24bd 0294 90bc 6123 a43c
000003b0: 4f2e afbd 15e8 98bc 68f0 07bd 3487 34bd
000003c0: 8c9f 013d fdae 293d 5d03 9b3c 4cdd fcbc
000003d0: f1f9 003d 8c19 f6bc 74a1 0d3c da24 023d
000003e0: e645 f5bc 31ee a53d 2e17 a03d 5a63 d73c
000003f0: 8ce8 82bc 7399 82bc de60 d13c 28bf 6fba

layers.6.bias f4 [2]
-0.06580537 -0.08416871
00000000: f7c4 86bd a560 acbd
